data/CartPole-v0_ppo_gpu/CartPole-v0_ppo_gpu_s20/pyt_save/model.pt (torch, 42881 bytes, 11 tensors)

weight f4 [64, 4]
00000000: eeef b23e 22ef bfbe 5e67 7cbc 74fa 77be
00000010: 0fd7 afbe 2e57 443e b3a7 84be 4e3d 033f
00000020: fa7b 1c3e b645 57bc ce8f 9e3e 372a a63e
00000030: 29be 42be 8a9e d1be 8896 1abf 94ab fabe
00000040: 990f 6f3e 7d9e b5bc dead fa3c c16c a6be
00000050: 7cba 7c3c d447 34be f093 643d 5650 e93e
00000060: ae86 19be 4946 aebe f649 53bf e844 d9be
00000070: ecf5 edbe 305a 3fbe 418b 383f f01f c23e
00000080: 30f5 35be abe1 c23e 7127 8f3e e258 49bc
00000090: 9f3b 8cbe fb71 0abf 713d 3e3e 7ce5 e4be
000000a0: 0230 373e c610 443e 7532 143f 794a 0d3f
000000b0: c936 4b3e 03d7 77be 212b 3fbf 7895 cfbe
000000c0: 5a1e 893e d3cd ad3e 3f24 6f3d 2ddf 0a3f
000000d0: 745e a7be 7760 033f 7b01 533c 7e29 c73e
000000e0: 5eef bdbe df2b aa3e 5c27 2e3f 5dc4 033f
000000f0: 923d cebe 5a1b 01bf 3e1c 99be 4ea8 b2be
00000100: 3153 d7be 2ab8 83be f0da 02bf 7aa7 95be
00000110: d276 c6be 6f20 c0bd 1279 103f 1292 0f3f
00000120: dd76 093f 1dfb e73e b93b 14bd b3c2 993e
00000130: b8a2 5fbe b53c bfbc 49b0 0b3f aa82 023b
00000140: 222c 94be 3ac9 a9be 6de6 87be 86c9 5bbe
00000150: 5365 bf3e 0e0c e0be 1f13 8b3e f767 29bc
00000160: dc98 9e3e 8704 a83e 3037 2dbf 7e35 15bf
00000170: d4ac 79be 0843 afbe d858 f63e ba1e 1b3f
00000180: 2381 d03e 23d5 47be fda5 ffbe ff20 d1be
00000190: 74b3 01bd 87c5 c13e 6635 2b3f 4bbd aa3e
000001a0: 360c 7fbe 8dd6 15be db16 c8bd 1b07 dbbe
000001b0: 6203 44be 4054 8d3e 29d7 22be f342 aabe
000001c0: 721d 1cbe 8e3e f4bd f874 38bf 138e b4be
000001d0: 3812 373e c73d f93e f85a 0e3f e839 5c3e
000001e0: b1df 153c b4e2 46be 0d82 3bbf 65a0 17bf
000001f0: fed5 03be 8f73 a2be d5be 03bf c0f5 e8be
00000200: 6e7f 08bf 9136 cbbd 559f 14bf 4448 12be
00000210: 565e 9e3e 84bf dc3d d7a7 acbe dcb6 8ebe
00000220: d539 bb3b f25b bbbe 7d08 063f 7b7e 7a3e
00000230: cb08 3bbd 8f75 e83e 1331 573e cd51 31be
00000240: 9a05 56be d650 a63e 8c2d ca3e 9d09 013f
00000250: 3466 793e 5bba bb3e ae5a 223e d272 1b3e
00000260: 2dcb 413d 953b a4be 2a72 36bf 4097 9abe
00000270: ad35 1dbf 7d31 c7be 90d5 1a3f 1a00 c1bd
00000280: 49c8 0cbf 342a bb3c ea74 8f3c 6c8d 453d
00000290: 5116 99ba e2e1 80be e3f2 cf3d f015 9c3e
000002a0: 29d2 713e a291 48ba 9170 ee3e aa87 1c3f
000002b0: 1fa8 ae3d c6e7 fcbe ce9d b1bd 4bed a0be
000002c0: fe8a d33d 2756 b73d dd81 d53e 88f8 303e
000002d0: 0228 06bf 6312 853d 8c96 bd3e 7ec2 963e
000002e0: 5f3c b13e f58b 1fbd f6b2 fcbd 3dbe e7be
000002f0: fd0a b23e 0227 33be ea3c fdbd 8b78 013f
00000300: 0b24 19be 9245 14bf 20ae 13bc 931d f2be
00000310: 111d 21bf 724c a0be 16bf fabd 3346 d13d
00000320: c68c 7fbe 99d1 51be 35ba 01bc a157 e8be
00000330: f604 dabc b665 ab3e e5d0 50be c6dc f5be
00000340: 03a4 c0be 0d13 fabe c23d 45bf 0400 33be
00000350: ec11 103f c64f 863e bacf d13e 7121 b73e
00000360: 70c4 853e 3522 8a3e bb6d 35bf 40b3 ccbd
00000370: 66bd ac3e 9bb2 adbe 05fc 1dbf e6cd 743e
00000380: 9d1e 06bf 9dab 87be a172 57bf d41d 403d
00000390: fd1a 5dbe 1745 b73e 8003 e53e 5cd5 99bd
000003a0: 8086 d9be e5e7 08be 9fca 373f 9a58 9b3e
000003b0: 09b9 dabe eb67 c23c 7ecf 5c3e 70c3 bebe
000003c0: c80b abbe b217 dfbe 0a08 f3be 1d0e 203e
000003d0: abd1 513e 2bac fc3e 85cb 423e d805 983e
000003e0: e99f 7d3d 9714 f8be a772 79be c6b1 08bf
000003f0: 6700 8bbe bc7b d4bd bd29 503f b5ca 2c3e
0.34948677 -0.3748713 -0.015405504 -0.24216634 -0.34343764 0.19173881 -0.25909194 0.5126542
0.15281668 -0.013139179 0.3096909 0.32454082 -0.19017853 -0.40941268 -0.6038594 -0.4895903
0.23345794 -0.0221703 0.030600484 -0.32504848 0.015425321 -0.17605525 0.055805147 0.45569104
-0.14992782 -0.34037998 -0.8253473 -0.42435384 -0.46476686 -0.18686748 0.72087485 0.3791499
-0.17769313 0.38062796 0.2795978 -0.012289258 -0.27389237 -0.5408017 0.18578126 -0.44706333
0.17889407 0.19147024 0.5788949 0.5519176 0.19845118 -0.24203114 -0.74675184 -0.40543723
0.2678097 0.33946094 0.058384176 0.5424679 -0.3268925 0.5131907 0.012878771 0.38898844
-0.37096685 0.33236596 0.6802881 0.514715 -0.4028135 -0.5043236 -0.2990436 -0.3489403
-0.42055658 -0.25726444 -0.5111532 -0.29229337 -0.38762528 -0.09381186 0.5643474 0.5608226
0.53696996 0.45308772 -0.03618977 0.30031356 -0.21839416 -0.023344377 0.54565865 0.0019914308
-0.2893992 -0.33161336 -0.26542988 -0.21463594 0.37381992 -0.43759197 0.27163026 -0.010339729
0.30975997 0.32815954 -0.67662334 -0.5828475 -0.24382335 -0.34230828 0.48114657 0.6059376
0.40723523 -0.19514899 -0.49931327 -0.40845487 -0.03166528 0.37846014 0.66878355 0.33347544
-0.24907002 -0.14632626 -0.09769984 -0.4277886 -0.19141915 0.2760334 -0.1590239 -0.33254203
-0.15245607 -0.11925994 -0.7205348 -0.35264644 0.17878044 0.48679945 0.5560756 0.21506464
0.0091475705 -0.19422418 -0.73245317 -0.5922912 -0.128746 -0.3172879 -0.5146306 -0.45499992
-0.5331944 -0.09922517 -0.5805562 -0.1428538 0.30931348 0.10778716 -0.33721802 -0.27873886
0.005713681 -0.36593586 0.523567 0.24462311 -0.045662683 0.4540219 0.21014814 -0.17316361
-0.20900574 0.32483548 0.39487875 0.50405294 0.24355394 0.36665615 0.15854904 0.15180519
0.047312904 -0.32076707 -0.7126795 -0.3019352 -0.6141003 -0.38904944 0.6048212 -0.094238475
-0.5499311 0.022847272 0.017511804 0.048230574 -0.0011679624 -0.25172335 0.10153749 0.30485487
0.23615326 -0.00076510955 0.46570256 0.61144507 0.0852816 -0.4939558 -0.08672677 -0.3143104
0.10329245 0.08951979 0.4170064 0.17282307 -0.524048 0.064976476 0.3702892 0.2944526
0.34616372 -0.038951833 -0.123388216 -0.45262328 0.34774008 -0.17495349 -0.12365134 0.5057456
-0.14955156 -0.57918656 -0.009013683 -0.47288188 -0.62934977 -0.31308323 -0.12243478 0.102184676
-0.24956045 -0.20490111 -0.00791793 -0.45379356 -0.026613694 0.33476037 -0.20392187 -0.4802
-0.3762513 -0.4884266 -0.7704736 -0.17480475 0.56277347 0.26232737 0.40978795 0.357677
0.26126432 0.26979223 -0.7087056 -0.09995127 0.3373825 -0.33925328 -0.61712676 0.23906669
-0.5239046 -0.26498118 -0.84159285 0.046903446 -0.21592326 0.357949 0.44729233 -0.07511398
-0.42485428 -0.1336971 0.7179355 0.30341035 -0.42719296 0.023731193 0.21563527 -0.37258482
-0.33407426 -0.43572766 -0.4746707 0.15630384 0.20490138 0.49350104 0.19022949 0.29691958
0.06192008 -0.4845321 -0.24360143 -0.5339626 -0.27148744 -0.10375163 0.8131369 0.16874202

bias f4 [64]
00000000: a399 80be 6d88 dabe 4099 4f3c d97a a8be
00000010: 79e8 c83c c979 8e3e 56a5 333e b85c 9a3e
00000020: 6c98 8ebe ca3e 84bd c02c dbbe 70ba a63e
00000030: 7a4b 803e 0984 253d a9b0 e33d d6f0 063e
00000040: e773 03be a062 1dbd c80c 1fbe 98d5 b63e
00000050: 5bfb 0d3c 6c03 a7be b495 98be 8455 7fbe
00000060: a072 5c3e a2b5 c8be 55e1 be3e e711 8ebd
00000070: 82da c73e 723a 25be 7e33 143d 1999 93bd
00000080: bc5b a53e 2733 43bc 6da0 aa3b cb97 bfbd
00000090: 2515 633e a5e6 853e e2e2 a33e 7730 28be
000000a0: 1b81 b1be fdcf 77be 1a63 493e 2e13 b83e
000000b0: 3203 90be 9bba 0b3e 21c5 9f3e a188 753e
000000c0: a5e7 7ebe 4684 bcbc 1c0f 93be 6d31 96bd
000000d0: dc42 4a3e 3d85 07be 06bf 1abe 049f e4be
000000e0: b1b1 613b 2d72 2abd b6a0 8c3e 56e6 0f3e
000000f0: b8cf cbbe a8c0 c73d 96fc 953e a543 4abd
-0.25117216 -0.4268221 0.012670815 -0.32906225 0.024524914 0.2782729 0.1754354 0.30148864
-0.27850664 -0.064572886 -0.4280758 0.32564116 0.25057584 0.04040912 0.111176796 0.13177809
-0.12837182 -0.038424134 -0.1553222 0.35709834 0.008665885 -0.32619798 -0.29801714 -0.24934965
0.21528101 -0.39201075 0.3728129 -0.06937008 0.39033896 -0.16135576 0.03618192 -0.072069354
0.3229655 -0.011914051 0.0052071125 -0.09355124 0.22176035 0.2615253 0.32009035 -0.16424738
-0.34668812 -0.24200435 0.1966671 0.35952133 -0.28127438 0.13645403 0.31205085 0.23977901
-0.24893053 -0.023012292 -0.28722465 -0.07333646 0.19752067 -0.1323442 -0.15111932 -0.4465257
0.0034438188 -0.041612793 0.27466363 0.1405271 -0.39806914 0.09753543 0.2929427 -0.049380917

weight f4 [64, 64]
00000000: b8fa 14be 61e9 0c3e 0de5 e33d 82e8 70be
00000010: ec3d babd 413b 013e a243 ffbd 65a1 263e
00000020: 845b 0c3e c242 5ebe 535f 36bd 0060 0abe
00000030: f5bf 763d 52da ad3e fa58 9c3e 28bb 0bbe
00000040: 1cb4 5ebe 2a0a 813e 3f67 603d 8644 043e
00000050: 3d55 06be 6227 c3bd f239 a9bd 82fa 073d
00000060: c847 4bbd 4f8a b43b f718 3f3a fc44 d6bc
00000070: 89b2 0f3c 54a4 5d3e 1311 afbe fcda ccbe
00000080: 4991 603d a1ad 16be e663 893d 95a1 ba3c
00000090: e042 913e d06b 063e 35eb cfbd d21d 3a3d
000000a0: 0a3c ce3d fc88 963d 34e5 653e 25d3 49bc
000000b0: 4e47 d43b b541 a63d 67da 1ebe fd62 343d
000000c0: 5b14 59bd 3285 963d 00a4 2bbe 4ecd 623d
000000d0: 0ad9 41be 5b71 673e b70f 55bd 20bf dd3c
000000e0: 695b 833c 9447 b83d a583 a53d 9f00 223d
000000f0: a565 5dbd 374f af3d b195 94bd ab0d 963d
00000100: 6c7b 173d 0af3 21bd 3bed 0ebe fb38 693e
00000110: 4242 1e3e 7195 a53d 0cd0 193e 74b8 62be
00000120: 5453 883c e3ca d93d 45c3 2fbe c19c 233e
00000130: d4bc 17be c7c2 32be 21c6 bebe 9ae7 343d
00000140: cdf1 193e d3d4 3cbd 65f8 223d 9bb2 c0bd
00000150: aab3 183e 6abd 043e dfcb e13d 66a5 2f3d
00000160: dc98 293e 3267 ffbd 2407 89bd 6356 c73d
00000170: e650 9e3c 6c7b 22be f5bd ac3e 1bf2 4a3e
00000180: 3029 2ebd 0bc5 6cbd d1c1 6abd 6274 2cbe
00000190: a3f8 ecbd 800a 8dbc c8f7 803d 9126 093d
000001a0: 2fee bcbc 2bcf b4bc dce7 02be 9aca 8b3d
000001b0: f8ab a03d 9f1e 44be e3da 073e ba07 9dbd
000001c0: 6863 993c fd28 c53c 2fc5 103e ddf1 4cbb
000001d0: 5640 343e 68b2 a4bd 0d8b 63bd 32a1 f23d
000001e0: 5afd 39bd e175 f1bc 9cb6 e2bd 866f 713c
000001f0: 579d 123e d015 adbd 4b16 333d d8d3 2dbe
00000200: 2778 8ebd 48f7 a5bc 04d6 3fbe a4dc 403e
00000210: 433d bb3b 13e2 e4bc d435 1e3e b7bb cfbd
00000220: b096 c9bd c031 563e e494 21be 44a6 023e
00000230: bb97 0c3c f50a 56be cf20 01be 4e47 203e
00000240: ffc3 0b3e 556c 01bd 79cd 2dbe 2f2c cebc
00000250: dda6 c63d 517a 763d 3715 383e df9d 29bd
00000260: 7038 e93d 2e8b e63c b00c 80bd 6d7e a6bc
00000270: 26f4 ed3c 3235 09bd 4158 113e d1c4 903e
00000280: 4147 56bd 2984 303c 47d3 5b3c a996 983c
00000290: f1ae 9bbc c79e c73a 4aa2 8a3d 1b48 813d
000002a0: a756 92bc c5a4 b23c 2025 163d 77d4 ad3d
000002b0: 11af d5bd 0415 d3bd 159b b7bd b15d 31bd
000002c0: 1534 3f3e fe07 27bd ddae 263d 6fd8 91bd
000002d0: 861e 723d 1303 b5bd 42f4 b23d 3823 cabd
000002e0: c60e db3d e9ee e0bd 5608 22be dd98 85bd
000002f0: 713f e8bc 498e 02be 7e8e 613e c7ba 0eba
00000300: fb87 b33c 0efe 0dbd 424e aabd 0613 183d
00000310: c270 b93d f837 9bbb 5b84 9f3d 88ef 26be
00000320: 5f99 41bc f325 233e a985 9fbd 7a45 643d
00000330: cf2a 3bbd 37bf 17be 5b82 9fbe 106c 1b3e
00000340: 1a2a 7a3e c9b6 07ba 336a 803d 409c c5bc
00000350: 9391 7d3e d055 963d 91c5 ee3d 5390 ffbd
00000360: 686d 4b3e 9251 cb3b 7ba4 a4bd 51e1 2c3d
00000370: 5bfe 483e 2b8f 2bbe f2cf bd3e 4303 863e
00000380: cbdc a3bc 3643 3d3c 1316 ba3c ab50 1abe
00000390: 813c 93bd b1c0 b6bd 203c ae3c 1fce d63d
000003a0: 5f48 1d3d 4994 ffbd 66f6 e6bc bbd3 e83d
000003b0: 8bbe 50bd 2f19 17be 06bc b63b 32b9 a53d
000003c0: dc06 743e 8ec2 1c3e 34f5 493d d478 6b3c
000003d0: a0f8 203e 1734 61bd 4a3d 853d 77ac 01bd
000003e0: 8ee6 2b3d e3d4 84bd 19e9 16be a0c5 f63b
000003f0: a1ef bc3b f2b7 d9bd c4b0 843d f220 83bd
-0.14548767 0.13760902 0.11127672 -0.23526195 -0.09093842 0.1262026 -0.12464072 0.16272505
0.13706785 -0.21705154 -0.044524502 -0.13513184 0.06024166 0.33955628 0.30536634 -0.13645613
-0.21748394 0.25203067 0.054785963 0.12916765 -0.13118453 -0.09528996 -0.08263005 0.033197887
-0.049629003 0.0055096517 0.0007289792 -0.026155941 0.008770593 0.21644717 -0.34192714 -0.40010822
0.054826055 -0.14714672 0.06708507 0.022782126 0.28371334 0.13127065 -0.10152284 0.045438595
0.10070045 0.073503464 0.22450715 -0.012318407 0.0064782267 0.08118001 -0.15513001 0.044039715
-0.052997928 0.07349624 -0.1676178 0.055371575 -0.1893045 0.22601835 -0.05201694 0.027068675
0.016034799 0.089980274 0.0808175 0.039551374 -0.054052014 0.08560031 -0.07255114 0.07326826
0.03698294 -0.03953842 -0.13957684 0.22775643 0.15454963 0.08085144 0.1502077 -0.22140676
0.016641296 0.10634401 -0.17164333 0.15977766 -0.14818126 -0.17457114 -0.37260535 0.044166185
0.15033646 -0.046101402 0.03978767 -0.09409066 0.14912286 0.1296288 0.110252135 0.042882346
0.16562217 -0.12470855 -0.06690815 0.09733274 0.019325685 -0.15867394 0.33738676 0.19818918
-0.04251975 -0.057805102 -0.057313744 -0.16841272 -0.11570861 -0.01721692 0.062972605 0.033484045
-0.023062794 -0.022071442 -0.1278376 0.068257526 0.078453004 -0.19152306 0.13267092 -0.07667489
0.018724158 0.024067396 0.1413772 -0.0031272091 0.17602667 -0.08041841 -0.05555253 0.11847152
-0.04540763 -0.029475154 -0.11069986 0.014736062 0.14317833 -0.08451426 0.043722432 -0.16975343
-0.06956511 -0.020259514 -0.18733984 0.18834168 0.00571409 -0.027939832 0.15450221 -0.10143226
-0.098431945 0.20917416 -0.15779454 0.12758738 0.008581097 -0.20902617 -0.12610172 0.156522
0.13648985 -0.031597454 -0.16972913 -0.025167553 0.096997954 0.060175244 0.17976843 -0.041410323
0.11387718 0.028142538 -0.0625242 -0.020323956 0.029047083 -0.033497997 0.14193822 0.2827516
-0.052314047 0.010773697 0.013417072 0.018626528 -0.019004317 0.0015229814 0.067692354 0.06312581
-0.017863585 0.021807084 0.0366565 0.0848779 -0.10433782 -0.10306743 -0.089651264 -0.04330224
0.18672211 -0.040779106 0.040694106 -0.071213596 0.05911114 -0.08838477 0.08737995 -0.09869999
0.10696177 -0.109830685 -0.15823492 -0.06523297 -0.028350564 -0.1274959 0.22027013 -0.0005444702
0.021915426 -0.034666114 -0.08315708 0.037127517 0.0905471 -0.0047368966 0.07788917 -0.16302311
-0.011816352 0.15932445 -0.077891655 0.05573032 -0.045695122 -0.14819036 -0.3115414 0.15177941
0.24430123 -0.00051770784 0.06270256 -0.024122357 0.24762563 0.07340586 0.116587766 -0.124786995
0.19865954 0.0062047923 -0.08039185 0.042207066 0.19628279 -0.16753833 0.37072712 0.26174363
-0.020002743 0.011551669 0.022715604 -0.15069835 -0.071892746 -0.08923472 0.021268904 0.10488533
0.038399097 -0.12479455 -0.028193664 0.113685094 -0.050962966 -0.147557 0.0055766134 0.08091964
0.23830742 0.15308592 0.04930611 0.014372069 0.15719843 -0.054981317 0.065058306 -0.031658616
0.04196792 -0.064859174 -0.14737357 0.007530883 0.0057658707 -0.10630788 0.06479028 -0.06402768

bias f4 [64]
00000000: 1a77 aa3c 96b8 663d b972 aebd 02a9 46bd
00000010: 01df 2ebb 2752 fb3c 7ceb debd 7fc5 943d
00000020: 4ed5 f6bd b33d 8dbd 6c26 f23d f389 a5bd
00000030: 7512 c23d 774a e13d 6d43 303c 8049 babd
00000040: a346 863b 4b40 2bbc 44d9 87bd 2c10 bd3d
00000050: d7ec b4bd 4beb 983d 0d04 9fbd 9835 01bd
00000060: bdcd 9b3d f3d1 a43c 40f7 e23d 1812 d43d
00000070: a536 3e3d 41dd 903d 5704 063d 57b5 d23d
00000080: fc53 d73d 9c23 15bc 7683 9cbc 2b1d 613d
00000090: a975 c53d 84a0 63bd ae17 3bbd d9b2 9bbd
000000a0: 739d e63c 1421 b3bd 2027 e8bd 7f45 c93d
000000b0: ba59 c63a 21f7 303c 5fa0 413d be4e bdbc
000000c0: cb50 87bd 76cd 00be a286 e7bd 25c8 edbd
000000d0: 91b3 8e3d 997e aabd c10f 1dbd f212 6c3d
000000e0: 2a3b 843d efd0 ba3a 9cfb 3ebd 5b12 edbd
000000f0: e615 613d 0ab8 d2bd 71cb fa3c a601 4d3c
0.020808745 0.05632838 -0.08517975 -0.048501022 -0.0026683214 0.030678822 -0.10884759 0.07264232
-0.120524034 -0.06896534 0.11823735 -0.08082952 0.09476177 0.11000531 0.010758263 -0.0909605
0.004097776 -0.01045234 -0.06633237 0.092316 -0.08834236 0.074667536 -0.077644445 -0.03154525
0.07607601 0.020119643 0.110823154 0.103550136 0.04643883 0.07073451 0.032718983 0.10288494
0.105140656 -0.009102728 -0.019105654 0.054959457 0.096415825 -0.055573 -0.04567688 -0.07602472
0.02815125 -0.087465435 -0.113355875 0.098277085 0.0015132942 0.010801108 0.047272082 -0.023108836
-0.06607207 -0.12578377 -0.11304976 -0.1161044 0.06967843 -0.08324928 -0.038345102 0.057635255
0.06456597 0.0014252941 -0.046626672 -0.11575767 0.054952525 -0.10289009 0.030614587 0.0125126

weight f4 [2, 64]
00000000: 7121 76be ad1d 2f3e 5e31 613e c2b5 0f3e
00000010: cf75 983e e5c2 59bd d51a 52be 6445 b0be
00000020: 29b4 90bd 0e07 c03d 41c4 46be dc67 4cbe
00000030: 521c 663e bb74 80be 7c3f adbe 74c1 44be
00000040: 53a0 ee3d 3ec4 46be 5a9f acbd 9540 6dbd
00000050: 18e3 9d3d 0f74 843e 00be ca3e e65e 653e
00000060: 49c9 39bd 2951 85be b9a6 89be 4218 70be
00000070: aba4 afbe 398b 643e 36e0 83be e3bb 403e
00000080: 9d47 9bbe cca8 46be 1ebf 8bbe eda4 153e
00000090: 2a0c 15be 4754 c33e 9b4f 4f3e aeef 11be
000000a0: 5640 6fbe d9b8 6a3e c409 6ebe 9694 b13d
000000b0: 8b82 a4bb 4c6b b1be 2593 5a3e 8691 c4bd
000000c0: 69ca 13bd fd1c a7be ec64 8e3e a190 76be
000000d0: a935 473e 2949 a13e 5e48 073e a575 3ebe
000000e0: cedb 8a3c b036 8c3e d3f4 ae3e c9a3 c2be
000000f0: 521e ff3d fc63 1d3e 7378 7e3e 66a8 5f3e
00000100: 1e72 a73d f5cf f5bd 9f07 81be 8aa0 8fbe
00000110: 06be aebd a350 f03d aa4d 623e ba13 9c3e
00000120: 5f2c 0b3e 5e73 98be 0a52 0b3e 89c4 123e
00000130: 7fb8 47be c952 7c3e 0f59 ab3e d1cc b03e
00000140: 3496 84be a160 183e a772 0d3e dd8c 443e
00000150: c2db 8dbd f81d 27be 6ff2 cfbe 2079 22be
00000160: 5cbf 283e 4975 953e 52c4 0f3e 705d aa3e
00000170: 7894 ee3d 7a03 60be e4c1 ad3e 1e1e bebc
00000180: a453 c13e b8e2 a73e 5e84 7b3e 56c7 24be
00000190: 3d7e 8f3e 105d b0be 25c5 b2be ade4 9dbb
000001a0: 177a 033e af7e 09be 5430 873e f7a8 2abe
000001b0: ba90 443e bb7d 473e 97bd 77bd 410d 343e
000001c0: 37a2 023e 53d4 753e 863f aabe ebb5 a33e
000001d0: c6f9 7e3c 6847 cbbe bc30 6cbe 9e48 173e
000001e0: 56fe 533e db74 a2be 18bc 17be 2164 ce3e
000001f0: 96d8 15bd 2543 5ebe ba75 5cbe c3f9 eebd
-0.24036194 0.17101164 0.21991488 0.14034179 0.2977738 -0.05316438 -0.20518048 -0.3442794
-0.07065613 0.093763456 -0.19410802 -0.19961494 0.22471741 -0.25089058 -0.33837497 -0.19214422
0.11651673 -0.19410798 -0.084288314 -0.05792292 0.0770933 0.25869796 0.39598083 0.22399482
-0.045357976 -0.26038483 -0.26885012 -0.23446754 -0.3430532 0.22318734 -0.25756997 0.18821673
-0.30328074 -0.19400328 -0.27294248 0.14613695 -0.14555421 0.38150236 0.20245211 -0.14251587
-0.23364386 0.22922076 -0.23245913 0.08670919 -0.0050204447 -0.34652174 0.21345194 -0.09598069
-0.036081705 -0.32639304 0.27811372 -0.24078609 0.19454063 0.3150113 0.132112 -0.18599565
0.016950514 0.27385473 0.3417116 -0.38015583 0.12456955 0.15370172 0.24850635 0.21841583
0.08176063 -0.12002555 -0.25201127 -0.2805217 -0.08532338 0.1173413 0.22099939 0.304838
0.13591145 -0.29775518 0.13605514 0.14332785 -0.19503973 0.24640955 0.33466384 0.34531263
-0.25895846 0.14880611 0.13813268 0.1919436 -0.06926681 -0.16320026 -0.4061465 -0.15866518
0.16479248 0.29191044 0.14039734 0.33274412 0.11649412 -0.21876326 0.3393699 -0.02320772
0.37759125 0.3279016 0.24562213 -0.16091666 0.28026 -0.34446 -0.34916034 -0.00481852
0.12839542 -0.13427232 0.2640406 -0.16666017 0.19195834 0.19481556 -0.06048354 0.17583181
0.12757193 0.24006777 -0.3325159 0.3197473 0.01556248 -0.39702916 -0.23065466 0.14773795
0.2070249 -0.3172978 -0.14817846 0.40310767 -0.036583506 -0.21705301 -0.21529284 -0.11668732

bias f4 [2]
00000000: 5f80 dc3d 7e74 ca3d
0.10766672 0.098855

weight f4 [64, 4]
00000000: 0a9f 9cbf 5591 d8be c705 fbbf d074 efbe
00000010: 13b3 cabe 7e5b 903f a5c7 02bf da50 7a3f
00000020: a9d0 403e 46fc 333f 2249 243e 1010 193f
00000030: 3cb8 02c0 5bc7 80be 8017 4cbf 334e 10be
00000040: 89a9 7e3e c20c 9e3f 3edc 023f 665d 8d3f
00000050: 43ef a6bf 28d5 9d3d 4c10 1bc0 a5f3 61be
00000060: 677e d1be 9ee9 78bf 2593 563e 8cae 5cbf
00000070: 716d 8fbf edfa 57bf ac4c 12c0 d749 b8be
00000080: d11e 6d3f 4c28 a43e a5e3 3040 95af 13bd
00000090: 298b 5a3f 8a69 2abf 59f8 6b3f 206d 33bf
000000a0: 0964 9c3f 54ba f8be 6aa7 3440 4a5b b7be
000000b0: f3e7 aebf 0244 1e3d 3f05 1bc0 edff 15be
000000c0: 81ab 9abf 6276 1fbf 3a10 29be 98dc cabe
000000d0: 6548 b7bf 303c 633e 8f49 a5bf e3e0 50bc
000000e0: 451d c8bf 247e 21bf 2d1a 5cbf 1fe8 c6bd
000000f0: ef6e 0240 4a8a 18bf db38 8b3f bb85 92be
00000100: b8d7 82bf f2b1 b7be f4fd 34c0 42ca 91be
00000110: 5447 a83f 8a3f 683e e440 a13f d3f4 f7bd
00000120: 4ceb b7bf 2e05 383e 68c0 8cbf 80fc 873e
00000130: 5555 cdbf 3043 243f 8410 ebbf 810e 093f
00000140: 5166 92bf 1cb3 5bbf c570 a3bf ca61 3dbf
00000150: d123 bd3f 0085 763d 08fb 1340 571e 973e
00000160: f779 e8bf e6ce 0b3f 7f88 96bf 6492 f73e
00000170: 58a8 a83f 71e8 0ebe e1c4 1640 ef07 7d3e
00000180: eaf6 773f 7d42 63be f896 1240 eec7 c1be
00000190: 4227 cfbf f23a 023f d52f 80bf 4ade bc3e
000001a0: b2af e43f 12f1 08bf c31a a43f aa74 fcbe
000001b0: 7a89 e43e 081b 713f f8a1 b8bd ba11 043f
000001c0: 52da a7bf 7d3d 1bbe 8c9b 34c0 78c2 5ebe
000001d0: e85c fd3f d94f 00bf 4629 1e40 ac79 9abe
000001e0: 9f18 463d 6c32 9e3f 6860 033e 7f16 9a3f
000001f0: 2729 f43f cb71 a4be 0088 973f a3ea 09be
00000200: 6404 913f 764b 7f3e 3e8f 1e3f 14cc eb3b
00000210: de0c fa3e 7a51 973f 3cc2 9b3f bded 643f
00000220: 5962 7abf 4d49 5fbc a9e0 20c0 a6f7 50be
00000230: abc0 75bf 55e5 58be 77b4 f7be 3611 8d3d
00000240: ea6f 92be b2b6 43bf edf6 febf 06fb 82be
00000250: 5670 cfbf 1825 48bf 3516 52bf 49b5 ecbe
00000260: 6f81 5cbf 4e69 843e 17ac 49c0 4bac c33e
00000270: 9b71 91bf fb6e 82bf c416 f9bf ae16 28bf
00000280: b90b 603f 740c 3dbe fb84 3e40 9391 dabd
00000290: f885 5e3e ca3f 84bf d016 063e dbd2 8bbf
000002a0: e7e5 c23f 1a3c f6bd a0e5 db3e e1f6 62be
000002b0: 6070 d73f 955f 38be 5fbf 0c40 c483 923e
000002c0: e1c5 14be 7507 5c3f 5b5d b43d 0369 e03e
000002d0: b8fd c23f 3077 e33e 143c 823f fcf8 aa3e
000002e0: 9cc2 90bf 40c8 9dbe 655e 39bf 1e65 63be
000002f0: b6c1 cf3f eede 3d3c c92a 5b3f e677 a9bd
00000300: 71ac adbf b13c bc3e 91fd 88bf f696 cc3e
00000310: 0162 eb3f d7f9 2abf ca00 e33f ab90 d1be
00000320: 5853 ce3f 3a6b 1fbf 1e15 0740 b50f 89be
00000330: f75d aebf d0f1 133d 54fe a0bf 1a2d 6a3e
00000340: e6c3 963f 280d 5dbf 5b73 af3f e12e 7abf
00000350: 3361 bebf d811 8fbe f6f9 e4bf fe80 aabe
00000360: a147 9bbf 2e13 8e3f 3353 0bbf eba6 533f
00000370: e221 4b3f 38c1 e1be b34c 2a3f f521 e9be
00000380: c9cd a83f 02d0 913f 1010 1e40 8a35 0b3f
00000390: 85d7 86bf 6a68 f0be 96f6 a3bf 5ce7 80be
000003a0: 9e5a 9fbf 3c37 23bf c026 08c0 c9a4 1ebf
000003b0: 3c00 61bf 9a3e 5d3f 85ca fdbe 99c0 5f3f
000003c0: 4f99 d83f b1d1 1ebf c389 0340 2438 e6be
000003d0: d240 e83f bd5e 8b3e 5447 ad3f 8fad 403e
000003e0: b92a 86bf 2429 90bf 125b 4c3e ac0a 41bf
000003f0: f295 32bf 9afe 2abf d026 483f e6e8 b23b
-1.2236035 -0.4229838 -1.9611138 -0.46768808 -0.39589748 1.1277921 -0.51085883 0.9777962
0.18829598 0.70306814 0.16043523 0.59790134 -2.0424948 -0.25152096 -0.7972336 -0.1409233
0.2486936 1.2347643 0.5111731 1.1044128 -1.3041767 0.07706672 -2.4228697 -0.220656
-0.4091675 -0.9723147 0.20954569 -0.8620384 -1.1205274 -0.8436726 -2.2859297 -0.35993835
0.9262515 0.32061994 2.7638943 -0.03605612 0.8536859 -0.6656729 0.92175823 -0.70088387
1.2218028 -0.48579657 2.8227181 -0.35811836 -1.3664535 0.038639076 -2.4221952 -0.14648409
-1.2083589 -0.6229001 -0.16510096 -0.39621425 -1.4318968 0.22190928 -1.2913073 -0.01274893
-1.5633932 -0.630831 -0.8597744 -0.09712242 2.0380208 -0.5958601 1.0876726 -0.28617653
-1.0222082 -0.3587795 -2.828 -0.28474623 1.3146768 0.22680488 1.2597928 -0.121072434
-1.4368682 0.17970726 -1.0996218 0.2655983 -1.6041666 0.6416502 -1.8364415 0.53537756
-1.1437474 -0.85820174 -1.276879 -0.7397734 1.4776555 0.060185432 2.3121967 0.29515335
-1.8162221 0.54612577 -1.1760405 0.48353875 1.3176374 -0.13955857 2.3557665 0.24710058
0.96861136 -0.22193332 2.2904644 -0.37847847 -1.6183856 0.50871193 -1.0014597 0.36888343
1.7866118 -0.53492844 1.2820667 -0.49307758 0.44636136 0.9418187 -0.09015268 0.5158955
-1.3113501 -0.15160175 -2.8219938 -0.21753871 1.9793978 -0.5012184 2.4712691 -0.30170953
0.048363324 1.2359138 0.12829745 1.2038115 1.9075059 -0.32118067 1.1838379 -0.13468413
1.1329465 0.2493113 0.6193732 0.007195959 0.48837942 1.182174 1.2168651 0.8942526
-0.97806317 -0.013628316 -2.5137122 -0.2040697 -0.95997113 -0.21181233 -0.4837987 0.06888048
-0.2860101 -0.76450646 -1.9919106 -0.2558214 -1.6206157 -0.781816 -0.82065135 -0.4623206
-0.86135 0.2586159 -3.1511285 0.38217387 -1.1362795 -1.0190119 -1.9460073 -0.65659606
0.8751789 -0.18461782 2.9768665 -0.10672297 0.21730793 -1.0331967 0.1309464 -1.0923723
1.5226411 -0.12023182 0.42948627 -0.2216449 1.6831169 -0.18005212 2.1991804 0.28616154
-0.1452861 0.8594888 0.08806869 0.43830118 1.5233679 0.4442687 1.0174584 0.33393085
-1.130939 -0.3081684 -0.7240966 -0.22206542 1.6230991 0.011588795 0.8561216 -0.08274822
-1.356825 0.36765054 -1.0702382 0.39958924 1.8389283 -0.66787475 1.7734616 -0.40930685
1.6119184 -0.6227299 2.110664 -0.26769796 -1.3622426 0.036119282 -1.2577615 0.22868767
1.1778533 -0.863482 1.3707079 -0.9772778 -1.4873413 -0.279433 -1.7888782 -0.33301538
-1.2131234 1.1099603 -0.54423827 0.8267657 0.79348576 -0.44092727 0.66523284 -0.4553372
1.3187801 1.1391604 2.4697304 0.5437857 -1.0534521 -0.46954662 -1.2809627 -0.25176513
-1.2449529 -0.63756156 -2.127365 -0.6197019 -0.8789098 0.8642365 -0.49568573 0.87403256
1.6921786 -0.62038714 2.0552833 -0.44964707 1.8144782 0.27220717 1.3537393 0.18816207
-1.0481788 -1.1262555 0.19956616 -0.7540691 -0.6976005 -0.6679474 0.78184223 0.0054598926

bias f4 [64]
00000000: d2f5 f93e bda6 01bf 8dd4 d9be e6bb 79be
00000010: 4725 4a3e 77d8 6f3e f234 5ebc f858 d3be
00000020: b58e 8e3e cea0 a43e 4679 dfbb 1e07 aa3e
00000030: a997 b93e 708e b2be b696 0cbf 2600 a93e
00000040: 0643 8abe 33f5 a3be dbf6 8b3e 1e30 8cbe
00000050: f9d4 d03e 1978 e2be 199f ab3e 233f 27be
00000060: e944 f3bb 473e a2be fa07 cabe 2f48 c9be
00000070: 870c 95be 303f c93e a13d ab3d 16ec 8b3e
00000080: 5dfa 5ebe 85dd cabe ae5c 3c3e 02bd bf3d
00000090: 1277 6abe 8fe0 e43e 74e2 16be 6d75 a5be
000000a0: ecfa 453e f04e e7bd 4be7 cdbe 7715 9f3e
000000b0: c49b 0dbf 1a74 e1be 8d9d 443e 4e50 d43e
000000c0: 7897 81be aa03 cf3e 6f51 7c3e 8a5b dcbe
000000d0: 6771 b03e 5a9e c53e 409d b33c 800e a03e
000000e0: 9df9 923e 2c9a 9c3e f7b7 bc3e 0c45 a5be
000000f0: 2f57 d33e 2bdf b43e 81a4 30bd b135 963f
0.4882036 -0.5064505 -0.42544976 -0.24388084 0.19740783 0.23422419 -0.013562428 -0.41278815
0.27843252 0.32153934 -0.006819877 0.33208555 0.3624852 -0.34874296 -0.54917467 0.33007926
-0.2700426 -0.3202301 0.27336773 -0.2738046 0.40787485 -0.44232252 0.3351982 -0.16332678
-0.007423986 -0.3168814 -0.3945921 -0.39312884 -0.2911112 0.3930602 0.08361364 0.27328557
-0.21775194 -0.3962213 0.1839473 0.09362222 -0.22896984 0.44702575 -0.14734823 -0.3231615
0.19334 -0.11294353 -0.40215525 0.31071064 -0.55315804 -0.4403389 0.19200726 0.41467518
-0.25310874 0.40432483 0.2464044 -0.4303859 0.3446152 0.38597375 0.021925569 0.31261063
0.28706065 0.30586374 0.36859104 -0.3227924 0.41277453 0.35326514 -0.043125633 1.1735135

weight f4 [64, 64]
00000000: f813 5fbd 4c5f 643c 8d29 103e a5c4 54bf
00000010: a60e 543f ad53 b3be e512 0fbf 9323 89bf
00000020: f8e7 013f 035c 953d 13f8 0c3f f1b8 b2be
00000030: 5455 ae3d 0646 a8be 649e 33bf 7b61 413f
00000040: a72e a6bf 6c2d 2a3d 9549 0e39 3718 bbbe
00000050: 6a9c c9be 7c90 bf3d e818 c5bd 8090 d63e
00000060: 55dd 223e bbc3 bbbe 674a 2dbb 09dd aebd
00000070: 9c0f abbf 24cf 393f c2ea 393f 6e89 843f
00000080: 280d 10bd ea5e cd3e f8fc c23c 365e a43c
00000090: 340a d5be 84db 29be 6db2 2dbf e496 8abf
000000a0: 1a81 733e cfed cfbe b762 5ebe 617d 8e3f
000000b0: 5b03 843c 451f 323e 9cf2 7ebd 2adf d33e
000000c0: 8424 9ebe c471 003f 536c 433f f0a9 70be
000000d0: 8d42 123d dc0f 82be 2c25 a83e 8577 99bd
000000e0: ace6 da3f a2e0 f0bd f840 1bbf 7de3 5e3e
000000f0: 5642 cf3e 7724 5e3f 3171 27bf dd6f 2d3d
00000100: 262f 1fbd 5853 f73e 51af 8e3e 500c a6bd
00000110: 941b 423e 66ce d83e 332f 7bbe 7cb9 b43e
00000120: a50f 19bf 0885 92be 5811 88bf b4e2 9a3e
00000130: 82b8 cabe 92c2 e53e aa5f 683d 9c96 55bf
00000140: 1459 633f e689 bc3b 4ef9 bfbd 1616 783f
00000150: 995d c9be 4bd2 4abe ded6 823e 36bd fdbe
00000160: ca17 0bbe 721c 153f 3df7 3abe a001 b43e
00000170: 2b1e 593f 7ab7 6ebf 43ba 083f f57d c3be
00000180: 64a5 4a3d e89f 083f fdb9 353b 624d c3bd
00000190: c5af b43e df4f aebe c3fe 483f 5f61 2b3e
000001a0: 57d2 97bf 85ac 03be e3d5 2fbc d1bf 60bf
000001b0: c4a5 bd3e 5d3d 283e ffa8 1bbe be62 24bd
000001c0: 7c85 e23e 1415 80bf 23f5 93bf 5679 c53e
000001d0: 5582 f2be 11b7 bf3b 597a a83e 4a52 b5be
000001e0: 47b7 a93b f38d d6bd 474d 1fbe c744 e53e
000001f0: 7468 5cbf e692 0abe 2793 05bf a2c3 24be
00000200: fe55 dbbc 1637 f2bd 2d04 2abe b7ed 413f
00000210: d406 f5be 6a45 a33e d213 db3e 88ce 383f
00000220: 7db5 58bf b6d6 993d f883 32bf 765a d83e
00000230: a15e b2bd 5735 943e 748a f73e 8188 27bf
00000240: 4b23 ac3f fc35 afbd 7931 f7bc 392d f23e
00000250: d0b5 c63e 6ffa 69be 2994 35bd ba54 8abe
00000260: b406 09be ec84 603e b215 193e 93af 49bd
00000270: 223b ab3f ce4d 2cbf 45e6 18bf c3dc 4cbf
00000280: c0d6 a53d 4ac7 93be 00be 1b3c f8d5 9cbe
00000290: 4ad4 df3e 0219 173e 0bd1 ff3e c8dc 8c3f
000002a0: 70ca 5abf 41c6 a83e 59f0 ea3d 4a7b 7fbf
000002b0: 7f5f 5e3d 1bb6 cf3d 49e7 33bc ab9a d1be
000002c0: d7c6 6b3e 0133 ffbe 00bc 42bf 5820 d33e
000002d0: 2919 acbd 4c5a 503e 8eb9 57bd eec0 493e
000002e0: cbf6 c5bf 21be b9bc 1fdc d13e 711d 04be
000002f0: fe7b ddbe 9b67 51bf f2a9 e63e 0c6e 043e
00000300: f486 783f 72ec 7abe b15a e7be d053 e63d
00000310: df39 1cbd dfc6 ad3f 4e58 b9bd f517 0d3e
00000320: a3af f43d 6e58 673d d9ba 6bbf a1a7 bd3f
00000330: 8777 8d3f 2e18 a13d 9f69 073e 9b14 96be
00000340: 87e0 5f3e ee66 45bf e9db 183f ae18 2f3e
00000350: 9fbf dc3f 2343 9abf 6e3a 823f da97 c2bf
00000360: 3731 8cbe 1a58 e33d 4d05 7dbf 2e61 02bf
00000370: 95fc 993e 3d9b 6bbe b3ff 883d 554c 72be
00000380: 812e 07bf 8fa8 99bf a25b ba3e ffd1 f83e
00000390: 13e3 13be afc9 993f aa95 dd3e f12b 313e
000003a0: 0c85 eabd 3d51 68bd 7ae6 3fbf 019a 67be
000003b0: 94f7 73be 9769 89bf fbc5 233f 8d22 81bd
000003c0: 682d a23d 968b 0dbe 5333 81be d13e e23d
000003d0: 3013 123e 439a 9d3f d7db a33e d7db 583e
000003e0: f079 ccbe 8dfc 313f 9697 da3f 5bdf 8ebe
000003f0: ce19 a0bd 8420 94be 1fca b9bc b1fa 923e
-0.054462403 0.013938736 0.1407835 -0.83112556 0.8283485 -0.35024777 -0.55888206 -1.0713981
0.5074458 0.072929405 0.5506603 -0.34906724 0.08512369 -0.32865924 -0.7016356 0.7553937
-1.2982987 0.041547224 0.00013569587 -0.36541912 -0.39377147 0.0935373 -0.09623891 0.4190712
0.15904744 -0.36672768 -0.0026442052 -0.08538253 -1.3364139 0.72581697 0.72623837 1.035444
-0.035168797 0.40111476 0.023802266 0.020064455 -0.41609347 -0.16587645 -0.6785038 -1.0827298
0.23779717 -0.4061112 -0.21717344 1.1132013 0.016114881 0.17394741 -0.06224309 0.41381198
-0.30887234 0.5017359 0.76337165 -0.23502326 0.035708 -0.25402725 0.3284086 -0.074935
1.7101645 -0.11761595 -0.6064601 0.21766467 0.40480298 0.8677439 -0.6540709 0.04234301
-0.038863324 0.48305774 0.2786813 -0.08107817 0.18955833 0.4234497 -0.24529724 0.35297763
-0.59789497 -0.2861712 -1.0630293 0.30251086 -0.39593893 0.44875008 0.056731857 -0.83432937
0.888078 0.0057537435 -0.09373723 0.969087 -0.39329222 -0.19806783 0.25554556 -0.4955842
-0.13583294 0.5824653 -0.18258376 0.3515749 0.8481166 -0.93248713 0.5340921 -0.38182035
0.049474135 0.53369 0.0027729266 -0.09536244 0.35290352 -0.34045312 0.78513736 0.16736363
-1.1861066 -0.1285878 -0.010732147 -0.8779269 0.37040532 0.16429658 -0.15201186 -0.04013323
0.44242465 -1.0006433 -1.1559185 0.38569134 -0.4736506 0.0058506806 0.32905844 -0.35414344
0.005179319 -0.104762934 -0.15556823 0.44779035 -0.8609688 -0.135326 -0.5217766 -0.16090253
-0.026774403 -0.11826913 -0.16603155 0.7575335 -0.47856772 0.31888896 0.4278856 0.7219014
-0.8465193 0.07511656 -0.6973262 0.42256516 -0.08709455 0.28946945 0.4834782 -0.65442663
1.344827 -0.085552186 -0.030174958 0.47300127 0.38810587 -0.22849439 -0.04433075 -0.27017766
-0.13381463 0.21925706 0.14949682 -0.049239706 1.3377421 -0.6730622 -0.59726363 -0.80024356
0.08097601 -0.28862983 0.009505749 -0.30631995 0.4371665 0.14755633 0.49964175 1.1004877
-0.85465145 0.32963756 0.11471624 -0.997975 0.05429029 0.10142156 -0.010980436 -0.40938315
0.2302507 -0.498436 -0.76068115 0.41235614 -0.084032364 0.20346946 -0.052667193 0.19702503
-1.546594 -0.022673668 0.40988252 -0.12901856 -0.4325866 -0.81798714 0.45051533 0.12932605
0.9708092 -0.24504259 -0.4518638 0.11246455 -0.038141128 1.3576316 -0.09050046 0.1377867
0.119475625 0.056480817 -0.9208198 1.4816781 1.1052102 0.0786594 0.13223885 -0.29312596
0.21862994 -0.77110183 0.59710556 0.17099258 1.7245978 -1.2051739 1.0174081 -1.5202591
-0.27381298 0.111007884 -0.98836213 -0.50929534 0.30075517 -0.23008437 0.06689396 -0.23661931
-0.52805334 -1.2004565 0.36398035 0.48597714 -0.1444209 1.2014674 0.43278247 0.17301919
-0.11451158 -0.0567181 -0.74961054 -0.22617342 -0.23824912 -1.0735348 0.6397397 -0.06305418
0.07918817 -0.13822779 -0.2523447 0.110471375 0.14265132 1.2312702 0.32003662 0.21177612
-0.3993678 0.69525987 1.707751 -0.27904782 -0.07817422 -0.28931057 -0.022679387 0.28706887

bias f4 [64]
00000000: bae4 453e bc4e f4bc 58a2 d2bd 85ec d83d
00000010: 1d0a fd3b 61e1 b7be 2dd4 14be ac99 9ebd
00000020: 05a7 083d d546 a33e 1821 bb3e 68a7 27be
00000030: a1d2 ee3e 9c75 96be 331e 213e ce1e 65be
00000040: 35b0 22bd c5a5 46be 43fa 6ebd 75bf 2c3e
00000050: 7b66 01be 5be0 9d3d 5316 213f f6c5 8fbe
00000060: ec9a 963e b14f 1cbe 988e 1f3e fe52 84be
00000070: d16a 9b3e 1ec8 683e 402f 263d 85a9 c7bd
00000080: 4954 8ebe b222 5f3c cf3e 6cbc 38c2 2dbe
00000090: 0981 803e 3a68 80be b72c 82be d4a9 ddbd
000000a0: 9682 fdbe df09 7cbc 4c21 843e 0f59 75bd
000000b0: 3e2f a2bd 9dcd 6b3c 4770 76bd 3d28 0e3e
000000c0: 3238 663c 145d 693e 371f 8a3d f830 edbd
000000d0: 77ef 9e3e f5ef f53e 67bc 23bb a3e7 e93c
000000e0: 4083 94be e8ae 333e c393 e4bc d933 9d3b
000000f0: 9aaa d9be 6f3b 1dbe 81b6 dd3d 5057 06be
0.19325534 -0.0298227 -0.10284871 0.105919875 0.007722153 -0.35914138 -0.14534064 -0.07744154
0.033362407 0.31889978 0.36548686 -0.16372454 0.46645072 -0.29386604 0.15734176 -0.22375032
-0.039718825 -0.19399174 -0.058344137 0.1686991 -0.1263675 0.07708808 0.6292469 -0.2808072
0.2941507 -0.15264775 0.15581739 -0.25844568 0.30354932 0.22732589 0.040572405 -0.0974913
-0.2779868 0.013619112 -0.014419272 -0.1696862 0.25098446 -0.2507952 -0.2542474 -0.10823408
-0.49513692 -0.015383213 0.25806653 -0.059899386 -0.07919167 0.014392284 -0.06016567 0.13882537
0.014051484 0.22789413 0.06744235 -0.11581606 0.31042072 0.48034635 -0.0024984123 0.028552836
-0.29006386 0.1754719 -0.02790249 0.0047974405 -0.4251297 -0.15354703 0.108258255 -0.13119245

weight f4 [1, 64]
00000000: 49f5 9c3f 3c57 babf 98be 7abf 26e8 c43f
00000010: d7df ed3f a4aa 7cbf ef08 cd3f c88f 0cc0
00000020: 761b 1140 a28c 8abf d0fe 7dbf 063e c6bf
00000030: 9c94 7e3f b5ec 00c0 7839 fb3f efbb b33f
00000040: b20f c2bf 060f a93f 0121 903f 3f69 9f3f
00000050: c644 f9bf dae5 e63f eed2 a5bf d670 bebf
00000060: f3c4 bebf 9fee 833f a948 643f 6372 06c0
00000070: e68b 743f 0188 ca3f 24e5 b33f 9b1a ffbf
00000080: d87b 903f 67a1 fdbf d3de 90bf b0d6 03c0
00000090: 97cc c03f f9d3 b1bf 5dc5 9fbf f7d3 afbf
000000a0: fa6f 9e3f 1663 cc3f 2697 f53f 79b4 d2bf
000000b0: 0ae0 a3bf ec25 bdbf 2ae3 3b3f 5429 ff3f
000000c0: b987 653f 676d b73f 6c6c 973f 02f4 cdbf
000000d0: 3a87 b13f 4c3c bdbf 16ef 8a3f 815e 8a3f
000000e0: c7a5 ebbf cd90 b13f 7969 963f 63e9 d03f
000000f0: c585 96bf 8ec7 afbf 828a 8bbf 9082 c33f
1.2262355 -1.4557872 -0.97947073 1.5383346 1.8583935 -0.98697877 1.6018351 -2.1962757
2.267301 -1.0824168 -0.9921694 -1.5487678 0.9944551 -2.0144475 1.9626913 1.4041728
-1.516104 1.320771 1.1260072 1.2453994 -1.9474113 1.8038895 -1.2954996 -1.4878185
-1.4903854 1.0307196 0.8917337 -2.1007316 0.9552597 1.5822755 1.4054303 -1.9929994
1.1287794 -1.9814881 -1.1318 -2.0599785 1.5062436 -1.3892814 -1.2482105 -1.3736562
1.2377923 1.5967739 1.9186752 -1.6461326 -1.2802746 -1.4777198 0.733935 1.9934487
0.8966022 1.4330262 1.1829963 -1.609009 1.3869393 -1.4784026 1.0854213 1.081009
-1.8409966 1.3872315 1.1750938 1.6321224 -1.1759573 -1.3732774 -1.0901644 1.527422
