data/1008CartPole-v0_dqn_noisy/1008CartPole-v0_dqn_noisy_s10/pyt_save/model.pt (torch, 208443 bytes, 14 tensors)

weight f4 [128, 4]
000000 b8 c3 c0 3e af 6d 3d 3e 66 d7 04 40 46 d3 de 3e
       0.37649322 0.18498872 2.0756469 0.43520564
000010 86 7f 53 3f d4 c0 90 3e 09 d0 d5 3e ca 3f c7 3d
       0.8261646 0.28272116 0.4176028 0.09728964
000020 af a9 b1 bd cc 5c 3e be a9 e0 14 3e c5 3d 84 be
       -0.08674943 -0.18590087 0.14538826 -0.25828376
000030 b6 5a 16 be 8c 1b 9c 3d 77 58 45 be 3d 60 56 bd
       -0.14683041 0.07622442 -0.19272028 -0.052337874
000040 f3 de 9a bd 61 d7 8d 3e 39 5a 2c 3e a8 92 67 3e
       -0.075620554 0.27703384 0.16831292 0.22614539
000050 b7 01 bb 3e c7 61 42 be 51 0a f9 bf 7e 27 09 bf
       0.36524746 -0.18982612 -1.9456273 -0.53575885
000060 2f 5d 04 3e df 36 c7 3e 56 89 94 3f 61 44 e7 3e
       0.12926172 0.3890905 1.1604412 0.45169356
000070 7d a8 ba be 3f 1b b1 3c 10 c0 4e 3f f0 5d 17 3e
       -0.3645667 0.021619437 0.80761814 0.14781928
000080 c6 09 88 be cd a2 4c 3c 01 50 07 40 3f 34 9c 3e
       -0.26569957 0.012489987 2.114258 0.3050861
000090 2f 66 91 bd 38 8b 11 3e d6 d4 de bf 0c ce 91 be
       -0.07099568 0.14213264 -1.7408702 -0.28477514
0000a0 7e d5 77 bd ee eb a0 be 1e d8 30 be eb d8 88 3d
       -0.060506336 -0.3143 -0.17269942 0.06681999
0000b0 5e 30 0f 3f db d3 67 3d 60 20 ed 3e 42 4e 1c 3c
       0.5593318 0.056598525 0.46313763 0.0095401425
0000c0 47 06 cf bd 64 4f 30 bd ae 0e be bd 34 f5 11 be
       -0.10108619 -0.043044463 -0.09280144 -0.14253694
0000d0 ea cf f3 3d c3 25 5e be 7e 91 18 3f 2e 02 44 3d
       0.11904891 -0.21694092 0.59597003 0.04785364
0000e0 a4 4f d6 3d c2 c0 a6 3c 17 27 ca 3f 7b fa 74 3e
       0.10464409 0.020355586 1.5793179 0.23923676
0000f0 10 40 80 3e ed 8d 4a be e3 a0 5d be 3e 81 a4 3d
       0.25048876 -0.19780703 -0.21643405 0.080324635
000100 72 ec c8 3d dc 3e d4 3d bb fc a0 be 28 4f 37 bd
       0.09810723 0.10363552 -0.31442818 -0.044753224
000110 57 eb 2a 3f e8 26 84 3e 83 0c 85 3f bd c3 52 3e
       0.6676535 0.25810933 1.0394443 0.2058248
000120 02 88 6f be 10 74 7c 3c ac 89 ae bf 4b 31 41 be
       -0.23391727 0.015408531 -1.3635764 -0.1886646
000130 c6 c6 fe be e9 d3 cc bd 43 12 7d bf 31 d8 25 be
       -0.49761027 -0.10001356 -0.9885599 -0.16195752
000140 54 b9 f5 bd 25 26 5a 3e f4 62 ad be 82 84 27 3e
       -0.11998239 0.21303613 -0.33864558 0.16359141
000150 b9 f2 c8 bd a0 9f c7 be 50 be 85 bf 8c 07 b4 be
       -0.09811921 -0.38988972 -1.0448704 -0.35162008
000160 02 b1 65 bd f6 a8 04 be 57 67 09 3f 04 3c 96 be
       -0.05607701 -0.12955078 0.5367331 -0.29342663
000170 d8 48 02 bd 71 14 9d 3c 4a 9b 55 3f d8 1a 82 3e
       -0.03180775 0.019174786 0.8344008 0.25411105
000180 de cf 1a bf 2c 1b 1b bd 51 89 1a be be f6 2b bd
       -0.6047343 -0.03786771 -0.15091445 -0.04198336
000190 ce 10 11 bd 80 39 b9 bd 70 71 ed 3e 0f 34 19 be
       -0.035416417 -0.090441704 0.46375608 -0.14961265
0001a0 ed 27 39 3f 4a ab f6 3d 2b e8 bf 3e 98 d9 05 bd
       0.72326547 0.120443895 0.37481818 -0.032678217
0001b0 0e 59 41 3f 13 0f fe 3d 2c 6f 55 3f b8 52 bb 3d
       0.7552651 0.12405219 0.8337276 0.09146637
0001c0 df 60 28 bd d8 96 b6 3d 06 a3 8b 3f 5f f8 d6 3e
       -0.04110801 0.0891549 1.0909126 0.41986367
0001d0 39 26 fa 3d ae ed 03 3e 7e 1f 53 3d 29 fd 7f 3e
       0.12214322 0.12883636 0.051543705 0.24998917
0001e0 e1 44 ac be 5a 81 1d 3d 15 e6 79 3e d4 30 fc 3d
       -0.336463 0.038453437 0.24404176 0.12314001
0001f0 80 b4 a4 be 6e ce 06 3e bd aa a2 3f b3 52 81 3e
       -0.3216896 0.13164684 1.2708355 0.25258407
000200 fd 43 f3 bc e3 36 a6 be 6d 63 2d 3e 96 55 9e be
       -0.029695505 -0.3246375 0.16932459 -0.30924672
000210 e2 88 b8 3e 1b fd 9c bd 83 ef 60 bf 8d 67 87 3e
       0.36041933 -0.076654635 -0.87865466 0.2644619
000220 f2 23 3b be ea fe 16 be 1b 5a 8c 3e 42 aa 79 3e
       -0.18275431 -0.1474568 0.27412495 0.24381354
000230 78 fe 4b be e4 0b b1 3e 93 dd 92 be 40 8a 26 3e
       -0.19921291 0.34579384 -0.28684673 0.16263676
000240 8d be 96 3a a1 58 4e 3d 33 e6 5a 3f 1b 4b f7 3e
       0.001150088 0.05037749 0.85507506 0.48299488
000250 59 69 a6 bd c5 a9 88 3e dd 8c 68 3e 77 d1 59 3e
       -0.08125562 0.26692024 0.22709985 0.21271311
000260 67 bd ab be e0 35 b6 3e b5 dc 30 bf f1 24 44 3e
       -0.3354294 0.35587978 -0.6908677 0.19154717
000270 d4 04 65 3e a0 ac 23 be 30 5c ca 3f d5 a1 11 3e
       0.22365123 -0.1598382 1.5809383 0.1422189
000280 3f a1 f9 bd b7 2d 70 3e 1e ab b2 3f 48 0b f1 3e
       -0.121889584 0.23454939 1.3958471 0.4707892
000290 e6 45 f7 3e d1 86 1d 3e a5 7c 89 be 56 73 69 3d
       0.48295516 0.1538346 -0.2685291 0.05699476
0002a0 7a b5 d6 be 6c f8 9a 3e c3 59 26 3f 5f 18 b8 3e
       -0.4193533 0.30267656 0.64980716 0.35956094
0002b0 9f 9f c4 be 5f e1 04 3e d7 83 dc 3d 59 9e 23 3e
       -0.3840303 0.12976597 0.10767334 0.15978374
0002c0 45 f4 1a be 1a a4 ad be b8 16 2a 3e 40 06 b3 be
       -0.15132244 -0.33914262 0.16610229 -0.34965706
0002d0 31 05 34 3f 43 21 2a bc 66 5f 24 bf 6f 5b 09 be
       0.7032042 -0.010383907 -0.64208066 -0.13413785
0002e0 5a c2 0a be 17 5f cb be f4 e5 e2 be c1 9a b7 be
       -0.13550702 -0.39720985 -0.44316065 -0.35860255
0002f0 d9 3f a1 be 06 72 9e 3d d4 a3 31 3e de 71 b9 bd
       -0.31494024 0.07736592 0.17347652 -0.090549216
000300 f2 f9 0e bf 0e 79 f9 3d 48 63 e2 3f 72 f9 31 3e
       -0.55850136 0.121812925 1.7686548 0.17380312
000310 fe 28 41 3e e7 0d f0 bd 26 22 03 bf 80 01 d7 bb
       0.18863294 -0.11721402 -0.5122398 -0.006561458
000320 1e a2 d5 3e 15 28 f6 3e 2a 9f bf 3f 73 c9 08 3f
       0.41725248 0.48077455 1.4970448 0.5343239
000330 15 85 9b be b3 a4 09 3d 68 ba 27 bf 36 4b 0a 3d
       -0.3037497 0.033604335 -0.6551881 0.033763133
000340 46 8c 5f 3e 26 71 f3 bd 4f 24 0d bf 3c e4 94 3e
       0.21830854 -0.11886816 -0.5513353 0.2908038
000350 e2 b9 d1 3e e4 f9 ab 3e 33 ec a2 3f 83 54 b1 3e
       0.4096213 0.3358909 1.2728332 0.3463479
000360 3d 8f 06 bd ed 63 a4 3d 12 32 3f 3f b3 83 cd 3e
       -0.032851446 0.08026872 0.74685776 0.4013954
000370 9e e8 07 ba 86 54 9e 3d 76 47 25 c0 f6 d8 8e be
       -0.0005184504 0.07730965 -2.5824866 -0.27899903
000380 86 b8 7b be 7c 01 8d be 87 a9 bf bf bc 50 92 be
       -0.24582109 -0.27540195 -1.4973611 -0.2857722
000390 d4 9f bc 3d 41 02 7b bc 99 58 23 c0 5b 06 00 bf
       0.09210172 -0.015320362 -2.5522826 -0.500097
0003a0 60 a0 16 3f 4d 9d cd be 0e 23 63 3e af d5 a4 be
       0.5883846 -0.40159073 0.22181341 -0.32194278
0003b0 fc 52 6d bc 78 b0 82 be db 05 a6 be 54 cf 5c be
       -0.014485117 -0.2552526 -0.32426342 -0.21563464
0003c0 c2 08 1a be e5 7d 0b 3e 03 26 a6 be bc c5 5b bd
       -0.15042403 0.13622244 -0.32450876 -0.05365537
0003d0 68 55 a2 be 30 74 9d 3e 4d a4 47 3d 3d 56 88 3e
       -0.31705785 0.30752707 0.048740674 0.26628295
0003e0 5b d1 03 bf 20 13 18 be fc c1 77 3d ed a1 a2 bc
       -0.51491326 -0.14851046 0.060487732 -0.019852603
0003f0 05 6e 54 3e 7f ae 62 be 02 77 84 bf 27 6c 04 bf
       0.20745094 -0.22136877 -1.0348818 -0.5172753

bias f4 [128]
000000 17 15 c1 be 82 32 76 3e b0 16 de 3e 98 da 01 3f
       -0.37711403 0.24042705 0.43376684 0.5072417
000010 0f f0 1a 3f b2 cf 07 bf da 79 c0 be 5d 0e b1 be
       0.6052255 -0.5305129 -0.37592965 -0.3458127
000020 18 30 e6 be 0b 8c 19 bf e9 9d 19 3f e9 8e 9d be
       -0.44958568 -0.59979314 0.60006577 -0.30773094
000030 21 6d b7 3e 0a 56 de 3e c0 6b a3 be 2a 77 d5 3e
       0.35825446 0.43425018 -0.31918144 0.41692477
000040 22 c0 06 3f b4 8d 97 be 70 e2 e1 be 0b da 3e bf
       0.5263692 -0.29600298 -0.4411807 -0.7455146
000050 25 9b 0d 3e a8 31 1f bf 1a a8 24 3f 01 f4 ea 3d
       0.13828714 -0.62185144 0.64319 0.11472321
000060 1d 25 39 bf 38 cf d6 3e fe 65 a7 3e b7 e4 93 be
       -0.72322255 0.4195497 0.32695 -0.28885433
000070 99 73 26 bf 63 1e 2e 3f dd a9 2c 3f b9 e1 27 be
       -0.6502014 0.68015116 0.6744669 -0.163947
000080 36 06 09 bf 1a bc 9d be cc f3 29 3f 85 80 2b 3f
       -0.535251 -0.30807573 0.6638763 0.6699298
000090 96 03 34 bf c1 e6 01 3f 2e ae b7 bd 48 9e c0 bd
       -0.7031797 0.5074273 -0.08968769 -0.0940519
0000a0 51 36 01 bf 79 04 4f 3d 70 33 db 3e 61 7b a7 be
       -0.50473505 0.050541375 0.4281268 -0.32711318
0000b0 fb de 1d bf d7 6d e6 3e 3e 5e 0c bf d4 c8 0a 3f
       -0.61668366 0.45005676 -0.548313 0.5421269
0000c0 36 a0 da be 93 eb ad 3e 78 a1 eb be f5 4d f0 be
       -0.42700356 0.3396879 -0.46021628 -0.46934476
0000d0 af 92 27 3f 39 42 7d be 22 10 18 bf 77 3b e9 be
       0.65458196 -0.24732293 -0.59399617 -0.4555318
0000e0 a5 e8 08 bf bb 13 29 bf 53 b5 7e bc b5 ca f0 be
       -0.5347999 -0.6604573 -0.015546161 -0.47029653
0000f0 79 45 25 3f 72 da df 3e 64 de 5a bf df e3 e7 be
       0.6455913 0.43721348 -0.8549559 -0.4529104
000100 ef df 58 3e a6 77 27 bf 42 67 0a 3f b5 74 6f 3e
       0.21179174 -0.65416944 0.5406381 0.23384364
000110 92 10 1a 3f c5 af 91 be eb 36 e3 be f1 dd 23 3f
       0.60181534 -0.28454414 -0.44377837 0.6401053
000120 db 52 06 bf b2 00 21 bf ad 31 78 3e d7 a6 34 3d
       -0.5247018 -0.62891686 0.242377 0.044104423
000130 3e 4a e7 3e 76 9f 87 be 8e 6c 2f 3e f1 d6 c1 be
       0.4517383 -0.26488847 0.17131254 -0.378593
000140 84 59 19 bf 1d 62 8b be c3 3c 6c be e5 f1 6f be
       -0.59902215 -0.27223292 -0.23070054 -0.23432119
000150 e5 ca 2d 3e b9 a6 01 bf 24 c2 aa be 82 41 c1 be
       0.1697193 -0.50645024 -0.33351243 -0.3774529
000160 3c c1 3f bf 03 c3 2a 3f 6a 17 cf be e1 a0 74 3e
       -0.7490423 0.66703814 -0.4044755 0.23889495
000170 69 73 fb 3e 6d f5 34 3e 7f cc bf be d5 97 1c 3e
       0.49111488 0.17671748 -0.37460706 0.15292294
000180 8e 20 03 bf 2c a6 18 bf 79 05 10 bf 65 25 cd 3e
       -0.5122155 -0.5962856 -0.5625835 0.40067592
000190 e8 7a 1b 3f ff ba 17 bf 90 42 29 3f 55 23 d3 be
       0.60734415 -0.5926971 0.6611719 -0.41237894
0001a0 42 1b 2d 3f 6e 2d fa be fe 11 1c bf e2 1b 03 3f
       0.6761972 -0.48862785 -0.60964954 0.5121442
0001b0 cb 46 2b 3f 1c 74 0d bf b1 10 91 3e ed 60 e8 be
       0.66904896 -0.55255294 0.28333047 -0.45386449
0001c0 23 71 21 3f f3 27 e1 3e 3f f3 ca 3e 0a 4e 8c 3e
       0.6306326 0.4397579 0.39638707 0.2740329
0001d0 12 e4 fc 3e 23 65 30 bf 7a b3 d1 be fa 17 3b bf
       0.49392754 -0.6890432 -0.40957242 -0.7308346
0001e0 13 ce df be f4 89 1d bf 49 dc db 3e 93 ed 23 3f
       -0.4371191 -0.61538625 0.42941502 0.64034384
0001f0 bf 49 14 bf 6f be 95 3e 6a 7d e1 3d 42 4e 02 bf
       -0.5792503 0.29246852 0.11010249 -0.5090066

weight_mu f4 [128, 128]
000000 36 22 e0 3d 43 0a bf 3e cf 6d 8e 3e e9 03 af 3e
       0.10944025 0.37312517 0.27818152 0.3418267
000010 c5 c2 ce 3e 1c 83 f0 bf a3 a7 02 be cb 78 1f 3e
       0.40382972 -1.8790011 -0.12759261 0.15573423
000020 c1 bd 5d bf 9f cd fc bf f3 66 92 3e 6d e9 98 3e
       -0.86617666 -1.975025 0.2859417 0.2986559
000030 cf 39 37 3e a4 b2 5b 3e 7f ee a1 3d 42 cc b8 3e
       0.17893146 0.21454865 0.07906818 0.36093336
000040 4e 97 37 3e 35 ef d8 bd 9d 56 01 bf ad a2 4e bf
       0.17928812 -0.105925 -0.50522786 -0.80716974
000050 75 94 23 3d 55 0d 45 bf 25 5b b1 3e 03 5b 75 3d
       0.0399365 -0.7697347 0.3463985 0.05990125
000060 c5 2c 11 bf e9 48 b0 3e 59 80 b1 3e d1 c9 30 be
       -0.5670894 0.34430626 0.34668234 -0.17264487
000070 27 65 b1 bf 19 e9 a4 3e 08 36 76 3e 50 7f 9c be
       -1.3858994 0.3220909 0.24044049 -0.30565882
000080 a7 e5 df be 22 2c f1 bd c7 19 b5 3e a2 da c6 3e
       -0.43729898 -0.11775996 0.3537123 0.3883868
000090 7f 63 68 bf bc b5 c5 3e 73 76 d5 3c 26 a7 0a 3e
       -0.9077682 0.38615215 0.026057458 0.13540325
0000a0 58 a9 7f bf 1a 92 54 3e 13 ae b0 3e af 0f 0c be
       -0.99867773 0.20758858 0.34507808 -0.13677858
0000b0 77 b3 d3 be be 3c ab 3e 77 f1 ba be 60 5f 93 3e
       -0.41347858 0.3344478 -0.36512348 0.28783703
0000c0 9b 5f d3 3d f9 99 aa 3e 69 bf c2 be 3f fe 9f be
       0.1032097 0.33320597 -0.3803666 -0.31248662
0000d0 02 cb c8 3e 5a 4b 05 be 7b 97 5a bf 2c 0e 12 bf
       0.39217383 -0.13017026 -0.8538739 -0.57052875
0000e0 33 41 2b bf a0 de 0f c0 6e f9 18 3e 67 77 53 be
       -0.6689636 -2.247963 0.149389 -0.20651017
0000f0 f8 19 b2 3e 08 ce 8d 3e 8d 20 8b be f0 be a9 be
       0.34785438 0.27696252 -0.27173272 -0.33153486
000100 fd ab f7 3d ec 39 b8 bc f4 43 ab 3e 35 86 9e 3e
       0.12093351 -0.022488557 0.33450282 0.30961767
000110 b8 06 71 3e 68 6e aa be 57 32 b5 bd 37 b0 b2 3e
       0.23537719 -0.33287358 -0.08847492 0.34900066
000120 3a 7b 09 bf 9b 56 69 bf 26 15 99 3e c4 d8 d1 3d
       -0.53703654 -0.91147774 0.29898947 0.10246423
000130 eb 9b 8d 3e 4b 54 00 be 38 00 05 3e 4e e7 b6 3c
       0.27658018 -0.12532155 0.12988365 0.022327092
000140 a6 86 1a be f5 1b 66 bf 34 87 15 3e c9 7e 9a 3d
       -0.15090427 -0.8988641 0.14602357 0.075437136
000150 fe d7 0b 3e ff 3a 38 c0 00 94 77 3c e7 cb 4a be
       0.13656613 -2.8786008 0.01511097 -0.19804345
000160 db 6e c4 bf b1 e9 b1 3e 47 56 ce be be 37 4f 3e
       -1.534633 0.34748605 -0.403002 0.20236108
000170 ae da d9 3e 7a bf 0d 3e 65 0a 84 bf b2 66 00 3e
       0.42549652 0.13842574 -1.0315672 0.12539175
000180 22 60 12 bd 50 41 d0 be 7d 9c 8a bf 38 84 82 3e
       -0.03573621 -0.4067483 -1.0829006 0.254915
000190 2b 2c 81 3e a8 45 37 be 17 6a 93 3e 4c d3 b4 bc
       0.2522901 -0.17897666 0.28791878 -0.02207341
0001a0 49 17 a1 3e 23 23 59 bf d8 05 94 be f8 18 7e 3e
       0.31463078 -0.8481924 -0.28910708 0.24814212
0001b0 15 e1 a2 3e c8 8f c1 be a8 d4 81 3e 80 bc e2 be
       0.3181235 -0.3780501 0.25357556 -0.4428444
0001c0 b1 f1 bf 3e 1d e2 b9 3e 04 a4 8f 3e 2f 0f 16 3e
       0.37489083 0.36305323 0.28054821 0.1465423
0001d0 bc c0 aa 3e 11 03 2f c0 f0 1e 3c be 25 2a cc be
       0.3335017 -2.7345622 -0.18371177 -0.39875904
0001e0 f9 84 8a 3c 97 74 9b bf fd 7c 57 3e 9a 05 af 3e
       0.01690911 -1.2144955 0.21043773 0.3418396
0001f0 0a 54 30 bf 83 df a0 3e 8a 49 f3 3b f1 50 10 bf
       -0.68878233 0.31420526 0.007424538 -0.56373507
000200 d3 bc ae bc 26 e6 3f bd 0f 6d 57 bb fa 67 c5 bd
       -0.021330273 -0.046850346 -0.00328714 -0.096389726
000210 33 9d f0 ba 37 ea a8 bd f2 89 17 bd 3d 26 d0 3c
       -0.0018357396 -0.08247798 -0.03699679 0.025408858
000220 a9 a5 df bc d4 b5 35 bd f9 3b 1e 3d a4 94 81 bd
       -0.027300673 -0.044362858 0.038631413 -0.06327179
000230 c2 93 b9 3a 34 f2 ec b9 97 46 a6 bd 61 63 93 bd
       0.0014158415 -0.00045193883 -0.08118933 -0.071966894
000240 81 a4 e1 bd 82 30 9e bd 85 04 ba bd cb 85 8a bd
       -0.11017705 -0.07724096 -0.09082893 -0.067638
000250 db 5a eb bd fc 31 17 3d 27 b3 12 bd 19 dc 74 bc
       -0.11491939 0.036912903 -0.035815384 -0.0149450535
000260 e8 c7 14 bd e8 38 cf bd 6d 72 c2 bc 0f 08 9e bd
       -0.036323458 -0.10118276 -0.023736203 -0.07716381
000270 ab d0 3d 3d 0a 26 dc 3b 7e bf 09 bc 99 60 3e bd
       0.04634158 0.006718402 -0.008407472 -0.04647884
000280 de 1c be bd a4 47 88 3c 95 83 db bd 07 39 d9 bd
       -0.0928285 0.016635723 -0.10718457 -0.1060658
000290 d0 17 12 bd 9d 2e ae 3c 31 e4 7c bb 75 04 9a bd
       -0.03566724 0.021262461 -0.003858816 -0.07520381
0002a0 09 c9 38 bd 2b 7f d0 3c 41 ce 19 bd eb a6 b9 bd
       -0.045113597 0.025451263 -0.037550215 -0.0906504
0002b0 e3 9e 88 bd bd 9f 20 bd 8d 24 8b bd d5 81 f2 3c
       -0.0667093 -0.03921484 -0.06794081 0.029602924
0002c0 80 ef 03 bd 7b 86 d3 3c 1f 5e 83 3d 7f 50 56 3d
       -0.032210827 0.025820961 0.064144365 0.05232286
0002d0 b3 7b ea bd 75 ee 72 bd df 46 d2 bc 5d 5f 89 bd
       -0.11449375 -0.05930944 -0.02566856 -0.06707642
0002e0 76 74 e7 bd 2e 78 a4 bd a8 a5 2f bd ec 84 b9 bd
       -0.1130151 -0.08030735 -0.04288259 -0.09058556
0002f0 fd bf 3f bd 01 1f b5 bc 3e d0 53 3c 19 4c c4 bd
       -0.046813954 -0.02210951 0.012928067 -0.09584827
000300 73 9f 8b bd d1 bd da 3c 17 a3 c5 bd e5 f8 b2 bd
       -0.06817522 0.02670184 -0.096502475 -0.08738879
000310 78 70 dd 3c 7e 3b 82 3c 86 75 3f bd ee ca 26 bd
       0.027031168 0.015897509 -0.04674294 -0.040720873
000320 d5 b0 19 3d da df 1a 3c e0 bb 95 bd e5 2a 93 bc
       0.037522156 0.009452784 -0.07311225 -0.01796479
000330 02 13 25 bb 59 5d 08 bd 7d a1 66 bc 10 7a 32 bd
       -0.0025188331 -0.03329215 -0.014076588 -0.04357344
000340 25 de 2a 3d 39 20 0d bc 33 c1 c0 bd db b3 36 bd
       0.04171576 -0.0086136395 -0.0941185 -0.044605117
000350 b7 bd 2e 3d 49 92 03 bd 2e f7 52 3d 07 03 9d bd
       0.042661395 -0.03212193 0.05150526 -0.07666593
000360 31 90 01 bd 13 e0 2c 3c fa b6 24 3d c2 09 e9 3c
       -0.031631652 0.01055147 0.040213563 0.028447036
000370 8a d0 da bc 4d fe fb 3c 7f 6e 1d 3d 03 ac c5 bc
       -0.026710767 0.030760908 0.038435455 -0.024129873
000380 97 7e f3 3c 86 22 93 bc 7b e0 fc 3b f7 1a e5 bd
       0.029723449 -0.017960798 0.00771719 -0.11186784
000390 30 ab ea bd f7 c0 bc bd 7a 45 98 bd 6c 6c 9a 3c
       -0.11458433 -0.092164926 -0.074351266 0.018850528
0003a0 4e c4 be 3c 13 c9 fb bd f2 7d 2e bb b2 fc fc 3b
       0.023286965 -0.12294211 -0.0026625362 0.0077205533
0003b0 87 95 7d bc df 3b 1b 3c f7 46 d9 bb 05 3c 1b bd
       -0.015477545 0.009474724 -0.006630774 -0.037899036
0003c0 7d 07 f0 bd 17 67 09 bc 72 66 6c bd ae ef 9d bc
       -0.11720178 -0.008386395 -0.057714887 -0.019279327
0003d0 d9 84 1f bc 37 93 d3 3c f4 a6 c9 bd ad 30 d4 3d
       -0.009736263 0.025827033 -0.09846297 0.10360847
0003e0 92 ff 86 bd 1e c1 b9 bc 61 6b c5 bd 4a f1 e2 bd
       -0.06591715 -0.022675093 -0.096396215 -0.110811785
0003f0 41 bf b7 3c 38 b3 4f 3b d0 31 99 bd a6 bb cf bc
       0.022430064 0.0031692516 -0.07480204 -0.025358032

weight_sigma f4 [128, 128]
000000 c2 06 d8 3d ad b3 52 3d 5f a1 16 3b a6 c3 1a bd
       0.10548164 0.051440883 0.0022984368 -0.03778424
000010 7b 87 74 be 19 c2 26 3d 9f 2f b8 3c d0 6a bb 3e
       -0.23879807 0.04071245 0.022483645 0.3660493
000020 81 0c 57 bd 20 f6 35 3d 86 a4 5a bc 13 b2 1b 3e
       -0.05250216 0.044424176 -0.0133448895 0.15204649
000030 07 f6 05 3e 35 94 e5 3c f6 58 0b 3d b6 8f 59 3c
       0.13082133 0.028024772 0.034020387 0.013278892
000040 d7 c3 92 3d fa 3d 4a bd 6d 58 a9 bd 60 2f 38 be
       0.0716626 -0.04937551 -0.08268819 -0.17986822
000050 09 0a fa 3d b2 b3 bb 3d ba cc 95 bd ec b3 fd bc
       0.12208945 0.091651335 -0.07314439 -0.030969582
000060 64 88 48 3d 5d 25 ae 3d e4 33 6c 3d fc e9 2c 3d
       0.048958197 0.0850322 0.057666674 0.042215332
000070 83 d9 0a be 21 52 92 bd 85 72 13 bd b6 0e b6 bd
       -0.13559537 -0.07144571 -0.035997886 -0.08889525
000080 77 b6 b4 3d 4a 1b 39 be 84 73 35 39 3f 1d ae bd
       0.08823865 -0.18076816 0.00017304538 -0.08501672
000090 39 15 74 3e 47 f2 2f bd f4 b5 70 3d 32 55 04 3c
       0.23836221 -0.042955663 0.058767274 0.008076953
0000a0 7f 74 ff bd db 71 04 bc 4c 75 cf 3d f1 80 9e bd
       -0.12473392 -0.008083786 0.101297945 -0.07739437
0000b0 b3 b6 9a 3d 1d f8 15 3e c8 c9 1d 3e d9 36 6e bb
       0.07554378 0.14645429 0.15409005 -0.003634861
0000c0 91 6c 32 bc 9a f0 04 3d 99 63 ea bc d1 85 5c 3c
       -0.010890142 0.032456018 -0.028611945 0.013459639
0000d0 ee 93 a2 bd 65 cf a6 bd 7d 5c 47 3e 4e 97 57 be
       -0.079383716 -0.08145026 0.19468875 -0.21053812
0000e0 40 6d 08 bd 53 6a 75 3d 4e d0 8f 3d 50 48 d4 3b
       -0.033307314 0.05991585 0.07022153 0.006478347
0000f0 fb ad 53 3d d1 23 49 bc 34 14 33 3d 08 70 05 3e
       0.051679593 -0.012276606 0.04372044 0.13031018
000100 28 3b 42 bd 77 b1 45 be f2 5a 1b bd 79 b9 c1 bc
       -0.047419697 -0.19305979 -0.03792853 -0.02364801
000110 0b b9 ac bb f4 03 bc bd e3 56 19 3d 68 04 a0 3b
       -0.0052710823 -0.091804415 0.037436377 0.0048833378
000120 32 05 5c 3e b8 f4 40 3d 01 c9 15 3e 0e 7e 81 3d
       0.21486357 0.047108382 0.14627458 0.06322871
000130 4c bb 9c bd a1 08 fa 3d ba 72 b6 3d da cc 15 3e
       -0.076529115 0.12208677 0.08908601 0.14628926
000140 27 6b 28 be bd 34 06 bd d8 ec d5 bd 39 ad 4c 3c
       -0.16447125 -0.03276514 -0.10445565 0.012492471
000150 78 45 b7 bd 42 ef 8f bd f3 04 35 3d 33 4c cf bd
       -0.08948797 -0.07028057 0.044194173 -0.10121956
000160 04 d1 a9 be 89 2a 7d bd 0f 91 cc 3d 6e 98 50 3d
       -0.3316728 -0.061808143 0.09988605 0.05092662
000170 50 2c 11 3d 28 d8 25 3e c7 32 45 3e 71 95 19 bd
       0.03544265 0.16195738 0.19257651 -0.037496034
000180 18 0b 38 3d 11 cb 49 bd 92 b5 df bd 9d ce 60 bd
       0.044932455 -0.049265925 -0.10923304 -0.05488454
000190 d4 81 aa bc 7f 2e 3d 3e cf 89 0e 3d eb f3 9a 3d
       -0.02081386 0.18474768 0.034799393 0.07566055
0001a0 c5 25 9e 3d 72 0d d8 3d 2a 42 03 3e 4d ed 96 bc
       0.07722048 0.105494395 0.12818208 -0.0184237
0001b0 1d 52 05 be 45 74 83 3d 40 12 10 3e 0f 20 21 be
       -0.13019605 0.06418661 0.14069462 -0.15734886
0001c0 f2 9e 29 bd 39 13 95 bd c7 8f 33 3d 16 33 d2 bd
       -0.041411348 -0.07279057 0.04383829 -0.1026365
0001d0 38 54 25 3d 98 e4 1a be c6 ee c0 bc 7e 2d a2 3c
       0.04036352 -0.15126264 -0.023551356 0.019797083
0001e0 30 65 a2 3c fe be 7b 3e a9 8a 9f bc 71 96 3e 3d
       0.01982364 0.24584576 -0.019475298 0.04653019
0001f0 fc 7b 5e 3c 0d 97 52 bd ea ec c7 3d e8 1e fa 3d
       0.013579365 -0.051413585 0.09761985 0.12212926
000200 2a 03 11 3d 48 97 49 3c 7b 09 a2 3d 63 fb 1f 3d
       0.035403408 0.012304135 0.079119645 0.0390581
000210 2d 89 9f bc ed 30 e3 3c 38 db 42 3d 06 80 df 3c
       -0.01947459 0.02773329 0.047572345 0.027282726
000220 ad 33 f3 3c 85 ac d5 3c 71 2b 96 3b c9 a7 1b 3e
       0.029687727 0.02608324 0.0045828153 0.15200724
000230 19 b5 2f 3d 32 1c 49 3d 7e 75 49 3d 20 76 a3 3d
       0.042897318 0.049099155 0.049184315 0.07981515
000240 cd e4 0a 3c 99 8c b6 3c d8 00 bd 3d 08 ce 24 3d
       0.008477402 0.022283839 0.092286766 0.04023555
000250 c3 2f 72 3d 1d 34 26 3d 1d 50 93 3d a7 09 b1 3b
       0.05912758 0.040577043 0.07193015 0.005402762
000260 01 f5 ab 3d 9e db 52 bc bb b0 51 3d f0 9f 96 3c
       0.0839634 -0.012869744 0.051193934 0.018386811
000270 28 4b 3f 3b ab 51 47 bc df 48 ac 3c 12 db 84 3d
       0.0029189084 -0.012165467 0.021030841 0.06487097
000280 cf 88 cd 3c 35 7d 3c 3d 3d cc ec 3c d3 11 a3 3d
       0.02508965 0.046017844 0.028905982 0.07962384
000290 aa 5e 3b 3d 0d 1c d8 3c e9 4b 2d 3d 95 81 bc 3c
       0.045744576 0.026380563 0.04230872 0.023011008
0002a0 5b 40 1d 3d 7b 6f cc 3d a4 12 42 3d 9e 70 8a 3d
       0.038391452 0.09982201 0.04738106 0.06759761
0002b0 b1 fc 10 3d 8d e0 d8 3b 29 05 21 3d e1 d0 d0 3c
       0.035397235 0.0066185654 0.03931156 0.025490226
0002c0 f1 26 13 3d b8 12 1e 3d cb 16 c4 3d d1 f1 7f 3d
       0.03592581 0.03859207 0.0957466 0.062486473
0002d0 2f 48 a1 3c 0f ff 13 bc cd 65 42 3d 95 70 6c 3d
       0.01968774 -0.009032979 0.047460366 0.057724554
0002e0 80 70 2d 3d 91 8c 9f 3d 95 c9 d0 3b 86 26 1e 3d
       0.042343616 0.07790483 0.0063716867 0.038610958
0002f0 13 b5 e6 bc 5f 04 54 3d 41 73 a8 3d 3e db 39 ba
       -0.028162515 0.05176198 0.08225108 -0.00070898596
000300 2a 8c fc 3c d2 c9 25 3d 52 f4 86 bb 6e 91 97 3d
       0.030828554 0.040475674 -0.0041184807 0.074007854
000310 cd a5 8b 3d e2 dc e0 bb 9a 0e 86 3c d8 61 00 3d
       0.06818733 -0.006862269 0.016364384 0.03134331
000320 bb 22 3b 3d 5e b2 02 3d bf fe a6 3d 5f 15 77 bc
       0.04568742 0.031908385 0.08154058 -0.015080779
000330 ca 77 97 3d f8 14 ab 3d f3 31 62 3d 76 7a 6f 3d
       0.07395895 0.08353609 0.055223417 0.058466397
000340 28 48 ec bc ba 47 b0 bb 7e d5 5b 3d 7b d0 05 3d
       -0.028843 -0.005379644 0.0536704 0.032669526
000350 c1 db 56 3d 3d 79 75 3d f3 04 35 3d b6 7d 14 3d
       0.052455667 0.059930075 0.044194173 0.0362527
000360 9f 57 59 3d 78 e6 1c 3d 49 ba 58 3d b9 45 4b bc
       0.053062078 0.03830573 0.05291203 -0.01240676
000370 34 aa 85 3c 8a 17 17 3d a7 a4 80 3d 77 7d b7 bc
       0.01631651 0.036887683 0.06281405 -0.022398693
000380 4d ed 4a 3d 41 1e 33 3d b4 e8 95 3d b0 ae 02 bc
       0.049542714 0.043730024 0.07319775 -0.007976219
000390 86 62 f6 3c fc 9d 95 3d d4 2f 8b 3c f3 04 35 3d
       0.030076277 0.07305524 0.01699058 0.044194173
0003a0 d3 1f ad 3d 24 45 72 3d 30 a3 0a 3e ad c9 4b 3d
       0.084533356 0.05914797 0.13538814 0.04975288
0003b0 cf d4 0a 3d f2 0e b4 3d 6b 67 c4 3d 19 72 b9 3d
       0.033894356 0.08791913 0.09590038 0.090549655
0003c0 75 d0 43 3d c7 1d 44 3d 67 e4 2f 3d 86 b3 95 3d
       0.047806222 0.04787996 0.04294243 0.07309632
0003d0 eb be bf 3d 96 51 a4 3d 8a b6 bf 3d 21 0f 60 3d
       0.093625866 0.08023374 0.093609884 0.054701928
0003e0 f3 04 35 3d 86 b7 16 3a d1 10 6b 3c 57 3f 94 3a
       0.044194173 0.0005749393 0.014347271 0.0011310381
0003f0 38 91 07 3d 5b ff b5 37 3d 1b 55 3d a7 52 57 3d
       0.033097476 2.169579e-05 0.05202793 0.052569058

bias_mu f4 [128]
000000 ad ba c5 3e 83 fa 5d bd 0c 71 31 be a3 71 ed b9
       0.38618985 -0.054193985 -0.1732828 -0.0004528883
000010 55 bb 9d 3e 67 3f 6d 3e 34 c6 d2 3e 5b c9 e7 3e
       0.30806985 0.23168717 0.41166842 0.4527081
000020 aa 06 c4 3e 21 12 25 be 83 08 63 be 80 42 62 bd
       0.38286334 -0.16120197 -0.22171216 -0.0552392
000030 cd 58 49 3c da a6 a6 3e 2d c9 6d be c9 f2 da 3e
       0.012289238 0.32549173 -0.23221274 0.42763355
000040 18 57 ac 3e 12 71 e8 3e a3 1d f7 3e a6 87 d4 3e
       0.33660197 0.45398766 0.482648 0.41509742
000050 13 4b 30 be 50 f3 89 3e 95 a1 c0 3e 3b 97 84 bd
       -0.17216139 0.26943445 0.37623277 -0.064741574
000060 78 26 65 bd 8d 31 ab 3e 5a 54 c7 3e 74 80 bd be
       -0.05594489 0.33436242 0.38931543 -0.37012064
000070 4e 94 e7 3e 3f 85 fe 3e b1 b5 ed bd 04 b5 b1 3c
       0.45230335 0.49711034 -0.116069205 0.02169276
000080 60 50 e7 3e 66 70 2d bd 14 9d d8 bd e4 a5 59 be
       0.4517851 -0.04234352 -0.10576835 -0.21254689
000090 85 35 0d be 8f 07 db 3e ba 46 e8 bd 1b ed 03 bd
       -0.13789947 0.42779204 -0.11341615 -0.032208543
0000a0 44 22 1c be 36 94 28 be 2d 80 9a be 62 4e f3 3e
       -0.15247446 -0.16462788 -0.30175915 0.4752074
0000b0 ee 4c c3 3c 97 d6 ef bd c1 af ad bd f2 b6 0d be
       0.023840394 -0.11710852 -0.08480788 -0.1383932
0000c0 dc e5 a2 3e c3 45 f6 3b 6a 47 0b 3f 35 ff 17 bd
       0.31815994 0.0075156405 0.54405844 -0.03710862
0000d0 df a7 33 bd fb 7a f0 3e 99 46 30 3e 62 53 e8 3e
       -0.043861266 0.46968827 0.17214431 0.45376116
0000e0 7b b7 83 be c4 8b af 3d 16 6b a2 3d 80 45 24 be
       -0.25725922 0.0857158 0.07930581 -0.16042137
0000f0 67 90 96 3e aa 74 61 be f2 eb 1c be 25 2f cb bd
       0.29407045 -0.2201716 -0.15324381 -0.099211015
000100 4e 03 19 bd d9 77 ca 3e a8 33 ba 3e 06 68 64 be
       -0.037356667 0.39544562 0.36367536 -0.22305307
000110 c8 39 ae bd f0 0c 81 be df 73 ab bc e4 2b f1 3e
       -0.08507115 -0.25205183 -0.020929275 0.47103798
000120 1a 71 c7 3e de 59 d4 3e e9 75 cf bd 6d fa b2 3e
       0.38953477 0.41474813 -0.101299115 0.34956685
000130 39 31 e0 3e f0 73 d1 3e 43 b0 cb 3e 95 20 00 be
       0.43787554 0.40908766 0.39782915 -0.12512429
000140 8e f1 d5 3e 83 02 89 be a7 25 4a be c4 ca b1 3e
       0.41785854 -0.2675973 -0.19740926 0.3472501
000150 48 0e 13 3c df db b3 3e 8a 7c 2f bd 90 3a 85 3e
       0.008975573 0.35128686 -0.04284338 0.26021242
000160 85 17 17 be a4 c0 bc 3e 7b bc 25 3e db 5d 9d 3c
       -0.14755066 0.36865723 0.16185181 0.019209793
000170 a8 c1 d2 3e 64 45 e6 3e d9 cd 7f bd 0a 47 55 3e
       0.41163373 0.44974816 -0.06245217 0.2082788
000180 33 20 82 3e c5 76 75 be a0 7a 21 be a7 71 09 3f
       0.2541519 -0.23971088 -0.15769434 0.53689045
000190 99 30 d8 3e 5e d5 14 bd 28 bc d5 3e 08 0c 0f be
       0.42224577 -0.036336295 0.41745114 -0.13969433
0001a0 17 8a 1f 3e 5c 3d 5d 3e 88 9a 2e bd 6a 6f 0b 3e
       0.15580021 0.21605438 -0.04262784 0.1361672
0001b0 13 d6 92 be 35 27 ea 3e 74 41 ff 3e 0d 27 fa bd
       -0.2867895 0.45733038 0.49854624 -0.122144796
0001c0 94 f8 b7 3e b8 ad aa 3e 9c 5d ec bd 1c 54 ae 3e
       0.35931838 0.33335662 -0.11541292 0.34048545
0001d0 e2 f5 b1 3e 31 42 f5 3e bf 97 a0 3d f6 de c4 3e
       0.34757906 0.47902063 0.07841443 0.38451356
0001e0 5d 79 cc 3e f1 19 01 3f 6a 04 9d be 4b ad 91 bd
       0.39936343 0.5043021 -0.3066743 -0.07113131
0001f0 27 bb c6 3e 86 fd ce 3e 01 e5 9b 3e 23 93 3e be
       0.3881466 0.40427798 0.30448154 -0.18610816

bias_sigma f4 [128]
000000 52 49 01 3d 58 b9 16 3d 6d 61 1b 3e f5 f0 4b bd
       0.031564064 0.03679785 0.15173884 -0.04979034
000010 1f 95 36 bd f9 7d b0 3d 3c a2 da 3b 51 c1 6d 3d
       -0.044575807 0.086177774 0.006672172 0.05804569
000020 e8 36 a0 bd 8d 81 89 3d 48 5e 82 bd ab 36 0f 3e
       -0.078229725 0.06714163 -0.06365639 0.13985698
000030 60 bb c3 3d d2 62 1c bc 16 22 a7 bc 9c e7 4c 3c
       0.09557223 -0.009545045 -0.020401996 0.012506392
000040 ec 23 98 3d b0 63 81 3d 0e b9 2b 3c be f2 2d bc
       0.074287266 0.06317842 0.010481132 -0.010616956
000050 6c a3 4a 3b ca 02 c7 bc 83 cb a5 3d 0c 62 9a 3c
       0.003092016 -0.024293322 0.080954574 0.01884558
000060 5d b9 4e 3d 32 db fc bc 10 71 e7 bd 99 9b f2 3d
       0.050469745 -0.03086624 -0.11300862 0.11846084
000070 98 9f 96 bc 67 d6 36 3c c9 e6 6c 3d c4 e4 ab 3c
       -0.018386647 0.011159516 0.05783728 0.020983107
000080 e0 ae 34 3c a2 b2 d4 3c fc ed 5e bd 2e c0 84 3e
       0.011028022 0.025964085 -0.05442618 0.2592787
000090 fe cf 80 3d e2 45 0f bd 75 6c 95 3d ab 79 cc 3b
       0.06289671 -0.034978755 0.07296077 0.00624009
0000a0 24 f2 5c bd ae a5 ef bc 12 c6 37 bd ca 8c 14 3d
       -0.05394186 -0.029253807 -0.04486663 0.03626708
0000b0 cc f2 dd 3c 13 03 6c 3d a8 36 fb 3c ba cd bf 3d
       0.027093314 0.05762012 0.03066571 0.09365411
0000c0 17 48 cb bc 12 07 63 3c 60 6d 96 3d d2 b7 78 bb
       -0.024814649 0.013856666 0.073450804 -0.0037951362
0000d0 20 8d 09 bd 2e cb 81 bd 91 07 07 bd 03 9e 01 bc
       -0.033581853 -0.063375816 -0.0329662 -0.007911208
0000e0 77 e3 0f 3e b5 ae c6 3d 38 49 61 ba be 28 da bc
       0.14051615 0.097012915 -0.00085939793 -0.026630756
0000f0 f2 c0 90 bd 0d 30 04 3d 19 f3 9d bd 7c 84 86 3d
       -0.070680514 0.032272387 -0.07712383 0.06568238
000100 12 dc 37 bd 4f e3 23 3d ff 31 9c bd b5 6a 97 bd
       -0.04488761 0.0400117 -0.076267235 -0.073933996
000110 66 87 28 3d bf 2e a6 3d ed 0c 3c bc 61 a1 0d bc
       0.04114475 0.08114385 -0.011477691 -0.008644433
000120 c8 e7 7b 3d b0 4e 7e bd 4c fe 45 3d dc 5b 92 3c
       0.06150034 -0.06208676 0.04833822 0.017866068
000130 7f 77 b6 3c ca 28 aa 3b c8 c3 03 3d 47 35 8f bc
       0.022273777 0.0051928507 0.032169133 -0.01748146
000140 ed fa 0c bd bf 7c 37 bd a2 c3 27 3d f9 62 58 bd
       -0.03441899 -0.0447967 0.040958054 -0.052828763
000150 20 5d f6 bc ef 6b 52 bc 6e 23 32 bc 28 e0 2f 3d
       -0.030073702 -0.012843116 -0.010872705 0.04293838
000160 81 be 35 3d 0b 31 13 bd 36 c3 d5 3b f5 af 2b 3d
       0.04437113 -0.035935443 0.006523515 0.041915853
000170 0e e1 1b 3d 82 58 79 3c 9b b4 c7 bd 96 dd 08 3d
       0.038056426 0.015218856 -0.09751245 0.033414446
000180 1a 05 93 3b a2 bd f9 3a ad c7 d0 bd af cf 29 3c
       0.004486692 0.0019053707 -0.10194335 0.010364457
000190 64 42 1b 3d 68 0c 4b bb a4 97 76 3c 30 20 c6 bc
       0.037905112 -0.0030982736 0.015050802 -0.02418527
0001a0 8b 0b af bc 18 79 50 3d 66 9e ea bc c2 97 f5 3b
       -0.021367809 0.050896734 -0.028639983 0.0074948976
0001b0 e7 5e 6d bc 4a 8b 93 bb 93 88 ac bd fe e4 79 3b
       -0.0144879585 -0.0045026885 -0.08424487 0.0038130875
0001c0 df f0 28 3a dc ab 03 be 36 42 4e be bc f4 ea 3c
       0.0006444584 -0.12858528 -0.20142445 0.028681152
0001d0 a8 ab 5d 3d 0c 44 09 bd 2b 45 6f 3d e6 38 e4 bc
       0.054118782 -0.03351216 0.058415573 -0.027859163
0001e0 58 24 ac 3b 82 82 a5 bb 99 a7 6d be 7d 78 0f 3e
       0.005253356 -0.005050958 -0.23208465 0.14010806
0001f0 e9 16 63 bd 48 5d be bd e3 5b 77 bd f1 f1 5d 3c
       -0.05544177 -0.09295136 -0.060390364 0.013546453

weight_epsilon f4 [128, 128]
000000 fd 6b 86 bf 98 49 a6 be d6 88 7c bf 99 b7 28 bf
       -1.0501705 -0.32478023 -0.98646295 -0.6590515
000010 4d df 9e 3f 9a 9d bb 3f 6a fe 9a 3f 47 e8 53 3f
       1.2411896 1.4657471 1.2108891 0.827763
000020 b1 8a 13 3f 28 f4 98 3f 62 8d c5 3e 00 4d 6d bf
       0.576335 1.194951 0.3858443 -0.9269562
000030 e1 7c a2 3f 02 1d ba bf 7f 7d 6e bf 84 bb bf 3f
       1.269436 -1.4540102 -0.9316024 1.49791
000040 fd c5 2f bf bf 46 65 3f e7 58 b4 bf 8b 00 d5 be
       -0.6866148 0.89561075 -1.4089631 -0.41601977
000050 bf 7c 97 bf a9 7d 8a 3f 1d ac 82 bf 32 e2 87 3f
       -1.1834944 1.0819598 -1.0208775 1.0615904
000060 de 69 2b bf 87 a0 9a 3f 58 8a 31 3f 27 40 df 3f
       -0.66958416 1.2080239 0.6935172 1.7441453
000070 52 06 81 3f db 52 aa 3f d1 f9 d8 3f 20 a0 5c bf
       1.0080054 1.3306535 1.6951238 -0.8618183
000080 32 de b0 3f 5e c9 94 3f 0c 7a b2 bf fe ed 94 bf
       1.3817809 1.1623952 -1.3943496 -1.163513
000090 c5 5f 09 bf ae 14 d7 bf 26 16 9e bf 5e 49 3e 3f
       -0.5366176 -1.6803186 -1.2350509 0.743307
0000a0 1d c7 d6 bf fe 7b 91 3f db 4c 52 3f c5 7c a5 be
       -1.6779515 1.1365964 0.8214852 -0.32321754
0000b0 c4 ad 48 bf b5 1c 94 3f c4 5a bc 3f 66 57 a9 3f
       -0.78390145 1.1571261 1.47152 1.3229797
0000c0 ba 72 7d bf 0a 85 af bf 1e 2b 68 bf 3b 6a c4 3f
       -0.99003184 -1.3712475 -0.9069079 1.5344919
0000d0 e4 cc 51 bf 6e 7a 8a 3f 9d ea 70 bf a1 3a 92 3f
       -0.81953263 1.0818613 -0.9410799 1.1424142
0000e0 b1 d5 ba 3f e6 b5 62 bf 7d 4b 45 3f 8d 9d 7d 3f
       1.4596463 -0.88558805 0.7706831 0.9906853
0000f0 5f f3 94 3f 58 a7 2f bf 05 05 c0 bf 60 ca 28 3e
       1.1636771 -0.6861472 -1.5001532 0.1648345
000100 9f 76 71 bf 32 64 85 3f b8 64 85 3f 78 1a a1 3f
       -0.94321626 1.0421202 1.0421362 1.2586203
000110 4f d3 73 3f 58 8b 09 bf e0 a8 d4 3e f8 61 16 3f
       0.95244306 -0.53728247 0.4153509 0.5874324
000120 89 63 88 3f 67 29 c0 bf 6d 46 36 3f b0 9f 9d bf
       1.0655376 -1.5012635 0.7120121 -1.2314358
000130 74 19 67 3f 12 4f 31 bf c3 e5 1c bf da e6 94 bf
       0.90273213 -0.69261277 -0.6128809 -1.163295
000140 a1 bb 34 bf 32 db 9b 3f 9a b0 a9 bf b1 18 49 3f
       -0.705988 1.2176268 -1.325702 0.785533
000150 6a 0e 7f 3f 8b 6e c2 be 30 e7 5d 3f 92 5e da 3f
       0.9963137 -0.37974963 0.8668089 1.706011
000160 fa 82 4d bf 1c 03 e0 3f 6c 86 95 bf 49 0b 6b 3f
       -0.8027798 1.7500949 -1.1681647 0.91814095
000170 b9 a3 d6 bf f3 c7 8c bf 24 5b 0b c0 53 74 9f bf
       -1.6768714 -1.099852 -2.1774378 -1.2457374
000180 59 48 d6 3f c2 9a 80 bf c8 77 58 be ee 03 7a bf
       1.6740829 -1.0047228 -0.21139443 -0.97662246
000190 41 1b 19 bf 17 c7 89 3f 20 43 99 3f 60 00 85 bf
       -0.5980721 1.0763882 1.197361 -1.039074
0001a0 84 ac f8 3e 3d ff 7e bf 30 98 27 3e ac 3e 38 3f
       0.4856912 -0.9960821 0.16366649 0.7197063
0001b0 ae 67 79 bf 6c c6 73 3f 40 35 cb bf ed cf a9 bf
       -0.9742383 0.9522464 -1.5875626 -1.3266579
0001c0 90 09 66 3f 61 69 c6 bf 0e 87 2a 3f 10 8d 1a bf
       0.8985834 -1.5500909 0.6661233 -0.60371494
0001d0 06 84 7d 3f a8 0a 94 bf 9f f4 cc be 7d 44 08 3f
       0.99029577 -1.1565752 -0.4003038 0.53229505
0001e0 36 6c 7a 3f de 69 e9 be e4 13 24 bf 4e f5 44 bf
       0.97821367 -0.45588583 -0.6409285 -0.76936805
0001f0 b9 ec 47 3f 80 65 81 bf a3 f1 99 bf 3d 63 20 bf
       0.78095585 -1.01091 -1.2026867 -0.62651426
000200 26 fa 0f 3f a3 1b 32 3e 2f 3e 07 3f db b5 b4 3e
       0.5624107 0.17393355 0.5282926 0.35294995
000210 67 2a 2a bf c4 f3 48 bf f0 02 26 bf 7e f8 e2 be
       -0.6647095 -0.78496957 -0.6484823 -0.4433021
000220 9a 07 9e be 8e d3 23 bf 5e 98 53 be 51 2b fe 3e
       -0.30865175 -0.6399468 -0.20663592 0.49642423
000230 c6 09 2e bf d5 57 47 3f 76 71 ff 3e 99 5c 4d bf
       -0.67983663 0.77868396 0.4989125 -0.8021942
000240 a7 44 bc 3e 0a 93 f5 be cd 2a 41 3f af 24 64 3e
       0.36771128 -0.47963744 0.75455934 0.22279619
000250 76 41 22 3f de 55 14 bf 0b f6 0b 3f f5 8a 11 bf
       0.63381135 -0.5794352 0.54672307 -0.56852657
000260 31 99 b7 3e 61 9e 25 bf 2a 29 be be c9 1e 6f bf
       0.35859063 -0.6469479 -0.3714078 -0.9340635
000270 44 32 0a bf 59 6e 36 bf 44 66 68 bf fe 4e ec 3e
       -0.5398295 -0.7126213 -0.90781045 0.46154016
000280 c7 70 3d bf ef 5c 1f bf e8 29 3f 3f 29 84 1f 3f
       -0.7400021 -0.6225118 0.7467332 0.62311035
000290 a8 23 93 3e a4 5e 66 3f f4 52 29 3f 23 d0 cb be
       0.2873814 0.8998816 0.661422 -0.39807233
0002a0 90 0b 66 3f 77 d3 1b bf d4 3f e1 be 41 40 31 3e
       0.8986139 -0.60869545 -0.4399401 0.17309667
0002b0 a6 f1 d6 3e 00 a4 1e bf 60 be 49 bf 04 61 35 bf
       0.41981238 -0.61968994 -0.78806114 -0.7085116
0002c0 71 bb 07 3f 16 ff 3b 3f 0a ac f8 3e 86 60 52 bf
       0.5302039 0.73436105 0.48568755 -0.82178533
0002d0 c4 b6 e0 3e 69 52 14 bf 5d 05 01 3f a7 9f 1c bf
       0.4388944 -0.5793825 0.5039881 -0.6118111
0002e0 a5 1d 48 bf 7f d3 f2 3e cb 51 d3 be 60 d2 07 bf
       -0.78170234 0.47426984 -0.4127334 -0.5305538
0002f0 ec 89 1f bf d4 23 bc 3e 53 ab 4d 3f f8 c9 b4 bd
       -0.6231983 0.36746085 0.80339545 -0.08827585
000300 58 50 01 3f 9b df 0e bf 2a e0 0e bf 2c 8e 2c bf
       0.5051322 -0.55809945 -0.558108 -0.6740444
000310 2e 94 02 bf 54 52 93 3e c8 c6 63 be 95 12 a1 be
       -0.51007354 0.2877375 -0.22243798 -0.3145949
000320 7d 15 12 bf 4b d2 4d 3f 68 3b c3 be 12 d4 28 3f
       -0.5706404 0.80399007 -0.3813126 0.65948594
000330 ec 86 f7 be ac e9 bd 3e ed 0c a8 3e 83 7c 1f 3f
       -0.48345125 0.3709234 0.32822362 0.62299365
000340 8c 94 c1 3e 6a ef 26 bf 8e c0 35 3f 2c 64 d7 be
       0.37808645 -0.65209067 0.7099694 -0.42068613
000350 eb 97 08 bf bf 40 50 3e 4e ad ed be 61 e4 69 bf
       -0.5335681 0.20337199 -0.46421283 -0.91364104
000360 ce 1e dc 3e 9a ef 6f bf 6d 27 20 3f 89 c0 fb be
       0.42992252 -0.9372498 0.6256016 -0.4917033
000370 a9 e5 65 3f d5 c9 16 3f 18 43 95 3f 05 ca 2a 3f
       0.8980356 0.5890172 1.16611 0.6671451
000380 ca 83 65 bf 0f bf 09 3f fd da e7 3d cf e4 05 3f
       -0.8965422 0.5380716 0.113210656 0.5230226
000390 6e fd a3 3e 51 92 13 bf 24 28 24 bf b0 74 0e 3f
       0.3202929 -0.57645136 -0.6412375 0.556468
0003a0 e6 2c 85 be cb 8f 08 3f 03 82 b3 bd 7f 57 c5 be
       -0.26010817 0.5334441 -0.08765032 -0.38543317
0003b0 22 91 05 3f 47 8d 02 bf 29 a7 59 3f 1c e2 35 3f
       0.5217458 -0.5099682 0.8502069 0.7104814
0003c0 b4 63 f6 be 01 84 54 3f 42 a6 b6 be 87 89 a5 3e
       -0.48122942 0.8301392 -0.3567372 0.32331488
0003d0 b5 c4 07 bf aa 90 1e 3f 55 86 5b 3e 3c f4 91 be
       -0.53034526 0.6193949 0.21437962 -0.2850665
0003e0 a8 1c 06 bf 72 01 7a 3e b8 bd af 3e 7b f5 d2 3e
       -0.52387476 0.24414614 0.3432443 0.41202912
0003f0 e1 22 d6 be 36 98 0a 3f 0e e3 24 3f ea c9 ab 3e
       -0.41823485 0.54138505 0.6440896 0.33552486

bias_epsilon f4 [128]
000000 16 dd 9b 3f 70 f1 26 bf 39 e8 2e bf 3b 53 83 bf
       1.2176845 -0.65212154 -0.68323094 -1.0259775
000010 15 64 9a 3e 5c 01 6b bf 60 07 1a bf 30 73 0f 3f
       0.30154482 -0.9179895 -0.60167503 0.5603514
000020 77 59 87 3f 3b 7e 02 3f ef b4 ab 3e bc ba 99 3f
       1.0574178 0.5097386 0.3353648 1.2010112
000030 9a a6 a1 bf 81 90 75 bf 74 1e 4e bf d8 f9 92 3f
       -1.2628968 -0.9592362 -0.8051522 1.1482496
000040 90 19 72 bf 64 91 6a bf c6 08 96 3f d8 70 08 bf
       -0.94570255 -0.916281 1.1721427 -0.53297186
000050 62 67 8d 3f ac 8d 06 3f 3d 13 7d 3f c8 ed 33 bf
       1.1047175 0.52559924 0.9885748 -0.702847
000060 0e d5 03 bf ef 0f aa 3f f8 12 d6 be 48 e5 8e be
       -0.5149697 1.3286113 -0.41811347 -0.27909303
000070 d1 80 a5 bf 5f e5 a3 bf 53 dd 10 3f fb df bc 3e
       -1.2929937 -1.2804374 0.56587714 0.36889634
000080 c5 06 b7 3f 4b 20 15 bf 8f 38 b1 3f ef bd 6b bf
       1.4298941 -0.582524 1.3845385 -0.9208669
000090 0e f2 a1 3f bd d1 79 bf b6 bb 73 3f 7a 0e 3d 3f
       1.2651994 -0.9758566 0.952083 0.73850214
0000a0 49 a5 4a bf 84 0d b6 3e 0d f2 9e bf 93 f8 ca bc
       -0.79158455 0.35557187 -1.2417618 -0.024776733
0000b0 92 cf 2f bf 43 08 3a bf 3d 1e 82 bf 41 a8 98 bf
       -0.686761 -0.72668856 -1.0165478 -1.1926347
0000c0 cc 5b 96 bd 93 79 66 3f cf e0 e8 3e bb 6c 85 bf
       -0.073417276 0.9002926 0.45484015 -1.0423807
0000d0 b1 7a ac bf d1 d8 66 3f 5a ef 60 bf c8 c4 f2 be
       -1.3474942 0.90174586 -0.8786522 -0.47415757
0000e0 ee c5 5a 3f 52 c2 12 bf ae 72 34 bf 1e 1d c5 bf
       0.85458267 -0.5732776 -0.7048749 -1.5399511
0000f0 9f 0c c5 3e 51 04 ae 3f 7b 50 1d 3f f7 4d 22 bf
       0.38486192 1.3595067 0.6145093 -0.63400215
000100 c6 4e c4 bf 6d bd 95 bf 70 f4 fa be aa 5f ae 3e
       -1.533654 -1.1698433 -0.49014616 0.3405736
000110 a1 d7 7c bf 66 ea 0c bf a9 f2 8c 3f 1f e6 d2 bf
       -0.98766524 -0.55045164 1.1011554 -1.6476477
000120 37 d8 4c bf c1 4e 68 bf 1e 3d 28 3f c0 c7 73 3f
       -0.8001742 -0.9074517 0.6571826 0.9522667
000130 49 f5 95 3f 45 e4 1f bf a1 82 82 3f b9 cd 48 bf
       1.171548 -0.62457687 1.0196115 -0.7843891
000140 2d f6 31 bf 70 ad 80 3f a4 7c b7 bf 93 bd 81 bf
       -0.6951626 1.0052929 -1.4334912 -1.0135978
000150 6e 1f 99 3f 01 12 72 3f 59 65 16 bf 55 18 52 bf
       1.1962717 0.9455872 -0.58748394 -0.8206838
000160 43 c1 15 3f 1c a6 11 3f a3 36 6c 3f d4 d9 87 bf
       0.5849802 0.5689409 0.9227087 -1.0613351
000170 ed 66 66 bf 67 0a 9f bf 30 ce 62 bf 98 b5 b0 3e
       -0.900008 -1.242505 -0.8859587 0.34513545
000180 cd 77 07 bf a3 db a8 bf 8e 6b 7e bf 26 a9 87 bf
       -0.52917176 -1.3192028 -0.99382865 -1.0598495
000190 c3 b1 83 3f c8 0f 53 3f 3b 96 ca 3f dd 50 83 bf
       1.0288624 0.82445955 1.5827097 -1.0259053
0001a0 5e c3 92 3d 48 1a 25 bf 4d 19 83 bf e0 ec 32 bf
       0.071661696 -0.64493227 -1.0242096 -0.6989269
0001b0 fc fb 56 3e 48 44 08 3f fa 58 18 bf 70 0e 20 bf
       0.20994562 0.5322919 -0.5951077 -0.6252203
0001c0 c1 ed 68 3f 26 52 33 bf 72 b0 0d 3f 4e fd 9f 3e
       0.90987784 -0.70047224 0.5534736 0.31247944
0001d0 d9 8e 1c 3f f8 92 99 bf 98 b2 b8 be 72 89 3d bf
       0.6115547 -1.1997976 -0.36073756 -0.7403785
0001e0 39 bf 8d bf 5a b0 62 3f 91 27 81 3f 3b ff 23 bf
       -1.1073982 0.8855034 1.00902 -0.64061326
0001f0 96 94 80 bf 4f 41 35 3f 0c 2e 69 bf c7 4d 98 3f
       -1.0045345 0.7080278 -0.91085887 1.1898736

weight_mu f4 [2, 128]
000000 59 bf 96 3e fe f1 3a bb 9c 4e 87 bd 9d 57 83 bd
       0.29442862 -0.0028525586 -0.066067904 -0.06413195
000010 93 ec d4 3e d3 5f 2a 3e 1a 5d d3 3e 4e c8 ba 3e
       0.41586742 0.16638117 0.41281968 0.36480945
000020 66 69 d6 3e 0a 59 42 bd 34 53 ee bf a9 33 dd be
       0.41877288 -0.047448196 -1.8619142 -0.43203476
000030 58 b2 b8 3e ab 69 82 3e f1 01 83 be ec 2b d9 3e
       0.36073565 0.25471243 -0.2558742 0.42416322
000040 8a 15 99 3e 6c 26 ae 3e 7c a4 e1 3e 01 fc b8 3e
       0.29899246 0.3401369 0.44070804 0.36129764
000050 44 a2 f6 be bb c6 36 3e c5 58 b1 3e 32 6c b9 3d
       -0.48170674 0.17849247 0.34638038 0.0905384
000060 43 fe 83 bf 88 b0 b3 3e f0 89 98 3e 2a 32 90 bf
       -1.031197 0.3509562 0.29792738 -1.1265309
000070 3f 8c bb 3e 6c d3 d7 3e 1f ef 1a bc 38 af 3f 3d
       0.36630437 0.4215349 -0.009456425 0.04679796
000080 9b 8f c8 3e 58 b7 14 3d ce b9 fc bf 0e 32 27 3d
       0.39172062 0.036307663 -1.9744203 0.04081922
000090 df d3 c7 bd d1 db ab 3e 6c 39 4b 3d 6b e3 af bc
       -0.09757208 0.33566144 0.04961531 -0.021470746
0000a0 e6 0c d6 bf 05 43 ee bf 37 e0 ee be cb 0e ae 3e
       -1.6722686 -1.8614203 -0.46655437 0.3399566
0000b0 37 71 da 3a be 31 54 bf 70 f3 5a bd 73 88 85 3c
       0.0016665821 -0.828884 -0.053454816 0.016300416
0000c0 61 b0 0f 3e 6c c7 75 3c d2 cc c4 3e 23 e9 31 3c
       0.14032127 0.015001159 0.38437515 0.010858807
0000d0 fa f1 9d 3e 3b 4c a4 3e 47 8b 99 3e 39 65 da 3e
       0.30848676 0.3208941 0.29989073 0.42655352
0000e0 b7 82 a7 bf b9 c5 0b 3f 05 9f 05 bf 88 e0 ac bf
       -1.3086766 0.54598576 -0.5219577 -1.3506021
0000f0 3f d2 8c 3e b5 b6 a4 bf d0 f4 4f bf 6a 48 cb 3c
       0.27504155 -1.2868258 -0.8123293 0.024814803
000100 e8 9b b3 3d 3b 3a a3 3e 36 f3 64 3e d4 42 b6 bf
       0.08769971 0.31880364 0.22358403 -1.4239144
000110 9b e7 fa 3a b3 a6 6f 39 f3 27 3a bf b3 d2 d9 3e
       0.001914251 0.00022854916 -0.7271721 0.42543563
000120 f4 7b c6 3e 72 a1 a8 3e 3a 37 1f bd a8 8a 6c 3e
       0.38766444 0.32935673 -0.038871028 0.23099768
000130 b6 89 c6 3e 34 20 af 3e 2a da d5 3e bc c7 4b 3d
       0.3877694 0.34204257 0.41768008 0.04975103
000140 1e b4 ce 3e 74 3e db bf 49 b5 e5 3c 38 a4 61 3e
       0.40371794 -1.7128434 0.028040545 0.220353
000150 1f d7 c7 3c 40 b0 a3 3e 48 42 d1 3e c8 a8 66 3e
       0.02439457 0.31970406 0.4087088 0.22525322
000160 68 63 93 3d 63 e7 91 3e fa bb b4 3c 08 1f 1b 3f
       0.071966946 0.28496847 0.02206229 0.60594225
000170 c2 ea ba 3e 12 55 9f 3e 17 2f f4 3e 81 7b 9b 3b
       0.3650723 0.3111959 0.47692177 0.0047449474
000180 75 d3 a1 3e dc 9f f3 bf d5 45 c8 be 24 18 d0 3e
       0.3160664 -1.903316 -0.39115778 0.40643418
000190 de ec 9b 3e b2 0d f6 3a c4 fe c0 3e 4e a5 53 3d
       0.30454153 0.0018772392 0.3769437 0.05167132
0001a0 d0 6a 1a be c4 6d a2 3d f3 94 4a bd a8 00 be bc
       -0.15079808 0.079310924 -0.049458455 -0.023193672
0001b0 48 f5 17 bf fd 88 d5 3e f5 7c bf 3e 5a ce f0 ba
       -0.59358644 0.41706076 0.37400022 -0.0018372044
0001c0 f2 b5 ba 3e 94 bc b5 3e f1 e0 ee bb 71 79 9b 3e
       0.36466938 0.35495436 -0.0072899987 0.3036609
0001d0 aa 12 b2 3e 5e ff c9 3e ea 22 aa 3d b7 39 6f 3e
       0.34779865 0.39452642 0.083074406 0.2336186
0001e0 33 08 9d 3e e2 a2 bf 3e 10 a0 db bf 9e c4 9b bd
       0.30670318 0.37428957 -1.7158222 -0.07605861
0001f0 4e 2d ce 3e 8e 4f a3 3e 3d d8 6d 3e e7 7e 11 3d
       0.4026894 0.31896633 0.2322702 0.035521414
000200 73 e6 c3 3e de 28 f9 3c c3 ce 5b 3b ea d1 8f bb
       0.38261756 0.030414995 0.0033539988 -0.0043890374
000210 24 ea 6a 3e 8c a8 e5 3d 51 ea c2 3e 87 a3 bf 3e
       0.2294088 0.112137884 0.38069394 0.3742945
000220 9d 13 c1 3e 0c e1 8a b8 37 ce c5 ba 5b 3f 2c bf
       0.37710276 -6.622271e-05 -0.0015091364 -0.6728417
000230 22 50 c2 bf 5a d5 8b 3e e8 98 d8 be 29 29 7b 3e
       -1.5180705 0.27311212 -0.42304158 0.2452742
000240 ae ea 86 3e a9 b2 bb 3e e3 bb b8 3e 69 5c 6a 3e
       0.2635092 0.36659744 0.36080846 0.22886814
000250 db 18 d8 bd d9 6e a0 3e 5b a5 93 3e 8e 26 fe be
       -0.10551616 0.3133457 0.28837094 -0.4963879
000260 f0 8c 1c 3e 89 47 b0 3e c6 3a ad 3e ed ec 79 bf
       0.15288138 0.34429577 0.33833903 -0.97627145
000270 3f 23 b6 3e 5a 64 b3 3e 08 8e a7 3c 7b a2 86 bd
       0.35573766 0.350375 0.020453468 -0.065739594
000280 cd e9 c2 3e cd 65 06 bd 68 b9 91 be 3f 69 6c 3d
       0.38069 -0.03281193 -0.28461766 0.057717558
000290 19 67 9b bd 0e c2 ba 3e 6b 6a 10 bd ec b8 73 3d
       -0.07588024 0.36476177 -0.035257738 0.059502527
0002a0 0a 65 fa 3c c2 f6 49 be 46 e7 01 bf fb 0c c9 3e
       0.030565757 -0.19723037 -0.5074352 0.39267716
0002b0 d0 e0 d2 bc 1b 93 ff be 1e 6e 64 bd c4 6b 49 bd
       -0.025741965 -0.4991692 -0.05576908 -0.04917504
0002c0 09 91 b6 3e 7c 58 a2 bd a9 61 d6 3e a0 be d0 bc
       0.35657528 -0.07927033 0.41871384 -0.025481522
0002d0 2b 31 ab bf e8 bb b9 3e 1b 20 29 be 7e ae cd 3e
       -1.337438 0.36276174 -0.16516154 0.4017219
0002e0 5a 07 94 bd 47 ce ad bf a9 11 9e 3e f5 26 f2 3d
       -0.07227965 -1.3578576 0.3087285 0.11823837
0002f0 6c 90 af 3e d0 0f b3 3e c2 f1 13 3e 11 ce 69 3d
       0.34289873 0.34973 0.14447692 0.057081286
000300 89 01 2b bf 24 96 b8 3e 30 a2 75 3e 88 73 25 3e
       -0.6679922 0.36052048 0.23987651 0.16157353
000310 c2 e3 96 bc 59 1f 82 3b e9 9b 69 3e e2 b7 b8 3e
       -0.01841915 0.003971022 0.22813381 0.3607779
000320 8a 4b c2 3e 75 2f ae 3e 44 71 9e bc 0c 1b 59 3e
       0.37948257 0.34020582 -0.019341119 0.21201724
000330 05 e8 c9 3e b0 86 c0 3e 1d 0e cf 3e 56 a5 81 bd
       0.3943483 0.37602758 0.40440455 -0.063303635
000340 68 ba ae 3e a6 ba f6 3e fe 36 17 3c f3 f3 9d 3e
       0.34126592 0.48189276 0.00922942 0.3085018
000350 1a 6b 7d bf 9a b3 8e 3e 4b f9 b8 bf c3 7a 68 3e
       -0.9899155 0.278714 -1.4451078 0.2270308
000360 c0 7c 5a bd 72 db c0 3e 43 b9 d7 3d d0 5c b4 bf
       -0.053341627 0.37667423 0.10533383 -1.4090824
000370 1e 52 46 3e 13 2b a6 3e 18 f8 bb bf 80 03 a1 3e
       0.19367263 0.32454738 -1.4685087 0.31447983
000380 e1 7b 64 3e 80 f1 24 be 2f 54 33 be 2d 22 d0 3e
       0.22312881 -0.1610775 -0.17512582 0.40651074
000390 af 63 a4 3e 46 96 d4 3c 60 4a bc 3e 32 aa 89 bd
       0.32107303 0.025950562 0.36775494 -0.06721915
0003a0 13 15 f2 3e 88 53 a4 3e d4 bd f5 bb 14 5e 0c 3e
       0.47281703 0.3209498 -0.007499436 0.13707763
0003b0 99 76 35 bf 06 d6 a2 3e 3f c7 c1 3e 60 1c 06 3d
       -0.7088409 0.31803912 0.37847325 0.032741904
0003c0 98 4f aa 3e 1f a7 d6 3d 16 80 8b 3d 89 b5 3c 3e
       0.3326385 0.104810946 0.0681154 0.18428625
0003d0 33 16 a4 3e 3c 27 c9 3e 0e f8 f4 bc 31 8a b2 3e
       0.32048187 0.39287746 -0.029903438 0.34871057
0003e0 89 b4 89 3e f2 dd b7 3e 8a 4c 02 bc 98 25 27 3d
       0.2689555 0.35911518 -0.007952819 0.040807337
0003f0 65 28 cb 3e d7 8b a4 3e 0b fe 70 3e 55 90 8a 3c
       0.39679256 0.3213794 0.2353441 0.016914526
