data/1008CartPole-v0_dqn/1008CartPole-v0_dqn_s20/pyt_save/model.pt (torch, 72599 bytes, 6 tensors)

weight f4 [128, 4]
0	0xbe9ef2db	-0.3104466
1	0xbe8eab74	-0.27865183
2	0xbf558a38	-0.8341403
3	0xbe81a732	-0.25322872
4	0x3ed0c7a2	0.40777308
5	0x3e62e752	0.22158554
6	0xbf0dcca0	-0.5539036
7	0x3e5c159d	0.2149262
8	0xbe798c3f	-0.24369906
9	0x3dfe2f70	0.12411392
10	0xbecbfd40	-0.39841652
11	0x3df296e7	0.118451886
12	0x3ecb6a65	0.3972961
13	0xbe102c5b	-0.1407942
14	0xbf0b6a4a	-0.5445906
15	0x3e10e8d6	0.1415132
16	0x3dd44d55	0.103663124
17	0x3cec7637	0.028864963
18	0xbeb3d38a	-0.3512233
19	0x3d0c90be	0.034317724
20	0x3eec02ae	0.46095794
21	0x3dc16b3b	0.09444281
22	0xbedaf707	-0.42766592
23	0x3de79e6b	0.11309513
24	0x3e84718f	0.25867888
25	0xbe93f84f	-0.28900382
26	0xbed791d1	-0.42103437
27	0x3de10aa2	0.10988356
28	0xbeee303a	-0.4652117
29	0xbc8c8490	-0.017153054
30	0x3e05d7fa	0.1307067
31	0xbc96fadd	-0.018430168
32	0xbe9dd9d6	-0.30830258
33	0x3ecd1a69	0.40059212
34	0x3d8ae321	0.06781603
35	0x3e439a5b	0.1910185
36	0xbedd6b20	-0.43245792
37	0xbe12840e	-0.14308187
38	0x3e0c0cfe	0.13676831
39	0xbd3fe965	-0.04685344
40	0xbe2517d8	-0.16122377
41	0xbea54274	-0.32277262
42	0xbf57f5fb	-0.8435971
43	0xbe3f870b	-0.18703859
44	0xbed6ec1d	-0.41977015
45	0xbe933f25	-0.28759113
46	0xbf8e04d3	-1.1095222
47	0xbe5e1308	-0.21686947
48	0x3eba7208	0.36415124
49	0x3e5a3579	0.2130946
50	0x3f92ffd3	1.1484321
51	0x3e4c42a2	0.19947293
52	0x3e803381	0.25039294
53	0xbe047fb3	-0.12939338
54	0x3e42e989	0.19034399
55	0x3e72c86e	0.2370927
56	0xbe18509a	-0.14874497
57	0x3e9fff43	0.31249437
58	0x3ee7be63	0.4526244
59	0xbe43f432	-0.19136122
60	0xbe5b4d70	-0.21416259
61	0xbe8ed6e6	-0.2789833
62	0xbeda0919	-0.42585066
63	0xbe4ec674	-0.20192891
64	0x3f304325	0.68852454
65	0x3e8eb8b2	0.27875286
66	0xbeb6f129	-0.35730866
67	0x3b33ce03	0.0027436025
68	0xbdc63707	-0.096784644
69	0xbe075164	-0.13214642
70	0x3de84a4e	0.113422975
71	0x3dfe6127	0.12420874
72	0x3cc6e3ee	0.024278607
73	0xbeec6f5c	-0.4617871
74	0x3cd7f87f	0.02636361
75	0xbeab22ff	-0.33425137
76	0x3e7995b8	0.2437352
77	0xbdb9280b	-0.09040841
78	0xbf0931e8	-0.53591776
79	0x3e5d859c	0.21632999
80	0x3e26f2d0	0.16303563
81	0xbbbadf2f	-0.005702875
82	0xbee25d6e	-0.44211906
83	0x3e6a6d52	0.22893265
84	0xbf7dadaf	-0.99093145
85	0x3e2b3b57	0.16721855
86	0x3dad5fb7	0.08465522
87	0x3e486dbb	0.19573109
88	0x3cd941ee	0.026520696
89	0x3e691573	0.22762088
90	0x3f7aebb4	0.98015904
91	0x3e990489	0.29886273
92	0x3e400920	0.18753481
93	0x3e482a72	0.19547442
94	0x3f226030	0.6342802
95	0x3e43a335	0.19105227
96	0xbd4de0fc	-0.05026339
97	0xbc88efff	-0.016716002
98	0x3d7c7222	0.061632283
99	0x3d3b56f4	0.04573722
100	0x3e876c33	0.26449737
101	0xbed800de	-0.42188162
102	0xbfd8af21	-1.6928445
103	0xbee170bf	-0.4403133
104	0xbdfa463e	-0.12220429
105	0x3ea2b552	0.3177896
106	0xbd7b10ec	-0.061295435
107	0x3e8a5180	0.27015305
108	0x3ebf0376	0.37307328
109	0xbea07248	-0.3133719
110	0x3f00303b	0.50073594
111	0xbeb41fe6	-0.35180587
112	0xbed4ff86	-0.416012
113	0x3aedd7ec	0.0018146015
114	0xbeace25f	-0.33766457
115	0x3e29bc67	0.16575776
116	0xbeca8729	-0.39556244
117	0x3e87e135	0.26539007
118	0xbec9520f	-0.39320418
119	0xbe465131	-0.1936691
120	0x3ba7c372	0.0051197344
121	0xbe5423d4	-0.20716792
122	0xbfaa3cd0	-1.3299809
123	0xbe7e4831	-0.24832226
124	0x3e862688	0.26201272
125	0x3f068b2c	0.5255611
126	0xbe159fca	-0.14611736
127	0x3e87f7b1	0.2655616
128	0x3ca93cf2	0.020658944
129	0xbe4910c5	-0.19635303
130	0x3ea4664f	0.32109305
131	0xbb572529	-0.0032828546
132	0xbf022ac9	-0.50846535
133	0xbf0385b2	-0.5137588
134	0xbe82545d	-0.2545499
135	0xbea86c63	-0.32895193
136	0x3e2b06b7	0.1670178
137	0xbed6b313	-0.41933498
138	0x3eedd6d2	0.46452957
139	0xbe8f2d07	-0.2796404
140	0x3ea15f1f	0.31517884
141	0xbeb33fa2	-0.35009485
142	0xbcb05d24	-0.021528788
143	0xbe3ff09f	-0.18744133
144	0x3ea16beb	0.31527647
145	0xbeb2ffb1	-0.34960702
146	0x3eb393a1	0.3507357
147	0xbeaf56ea	-0.34245998
148	0x3e698534	0.22804719
149	0xbede0fc5	-0.43371406
150	0xbf6c2835	-0.9224885
151	0xbd03d002	-0.032180794
152	0x3ef44ef5	0.4771649
153	0xbebd536b	-0.36977705
154	0xbf5c8cf8	-0.861526
155	0xbecc85f6	-0.39945954
156	0xbeb64fe9	-0.35607842
157	0x3eb1b0ef	0.34705302
158	0x3f89fc5e	1.0780141
159	0x3ec0ae4e	0.37632984
160	0x3e3faf8f	0.18719314
161	0xbd830604	-0.06397632
162	0x3e548a68	0.20755923
163	0x3e7361bd	0.23767753
164	0xbef2114c	-0.4727882
165	0x3ee4376e	0.4457354
166	0x3f8ec25c	1.1153064
167	0x3f02bc15	0.5106824
168	0x3ecc8342	0.39943892
169	0xbd104324	-0.03522028
170	0x3db3de99	0.087826915
171	0xbe4686bc	-0.19387335
172	0x3f267534	0.6502259
173	0x3e062c9e	0.13102958
174	0x3f13ce2c	0.5773647
175	0x3d123c3c	0.035701975
176	0xbbe77205	-0.0070631527
177	0x3eb84172	0.3598743
178	0x3efef96f	0.49799678
179	0x3e514557	0.20436607
180	0x3c8c6f0b	0.017142793
181	0x3d921c4e	0.07134305
182	0x3f0eeac4	0.55826974
183	0xbce075d6	-0.027399939
184	0x3f119c01	0.5687867
185	0xbe8c0a59	-0.27351645
186	0xbdf10d27	-0.11770087
187	0x3ed126dd	0.40849963
188	0x3de1bcde	0.11022352
189	0x3ec5a378	0.3860128
190	0x3eaa2d88	0.33237863
191	0x3e7da371	0.24769379
192	0xbe1e29a2	-0.15445569
193	0x3e19dcee	0.15025684
194	0xbec2cfa5	-0.38049045
195	0x39ac1d50	0.00032828236
196	0x3ee4fe57	0.44725296
197	0x3e55142d	0.20808478
198	0x3f17e124	0.5932791
199	0x3e112d67	0.14177476
200	0x3d18c4d2	0.037297077
201	0xbec019f3	-0.37519798
202	0x3e556c39	0.20842065
203	0xbe8d02ea	-0.27541286
204	0x3f06a402	0.52594006
205	0x3e89562e	0.26823562
206	0xbf0265a5	-0.5093635
207	0x3e0024b0	0.12513995
208	0x3e27d866	0.16391143
209	0xbe2eef79	-0.17083539
210	0xbf2e59c4	-0.6810572
211	0x3e127409	0.14302076
212	0xbeaf870b	-0.34282717
213	0x3e0ded45	0.13860042
214	0xbf21806c	-0.6308658
215	0xbe763f91	-0.24047686
216	0xbf13ca29	-0.57730347
217	0x3ec88783	0.39165887
218	0xbe8d8d17	-0.27646706
219	0x3d27d05b	0.040970188
220	0x3eec4033	0.4614273
221	0x3e7c13f0	0.2461698
222	0x3f27bcef	0.65522665
223	0x3e48803e	0.1958017
224	0x3dc5aa4f	0.096516244
225	0xbf024d2d	-0.5089901
226	0xbf2c7a4a	-0.673741
227	0xbeb31f78	-0.34984946
228	0xbe1c9d6c	-0.15294427
229	0xbdd425a8	-0.10358745
230	0xbdc6888a	-0.096940115
231	0xbe997d83	-0.2997857
232	0xbeff8e85	-0.4991342
233	0xbcd9591d	-0.02653175
234	0x3ed801f9	0.42189005
235	0x3ce58800	0.028018951
236	0xbe68ae3f	-0.2272272
237	0xbeb5cc99	-0.35507658
238	0xbfa58053	-1.2929786
239	0xbe9c13ad	-0.3048376
240	0xbea6048e	-0.3242535
241	0xbe58cd8c	-0.2117216
242	0x3d9a5d9e	0.07537387
243	0x3c914e57	0.01773755
244	0x3eb377f7	0.35052463
245	0x3e45f5d7	0.19332062
246	0x3f8fd48c	1.1236739
247	0x3e67e5cd	0.22646256
248	0xbe4d24f2	-0.20033625
249	0x3e879295	0.2647902
250	0x3edc4f2f	0.43029162
251	0x3ea701d8	0.32618594
252	0xbdf087bd	-0.1174464
253	0x3e36c992	0.1785033
254	0x3eda0b0b	0.4258655
255	0xbe05de15	-0.13072999

bias f4 [128]
0	0xbe10e502	-0.1414986
1	0x3e866a2f	0.26252887
2	0x3f163c2b	0.5868556
3	0x3f342294	0.7036526
4	0xbe97ed07	-0.29673025
5	0x3e886b63	0.2664443
6	0x3f40aee7	0.7526688
7	0xbe61cdaa	-0.22051111
8	0x3f1f4942	0.6222116
9	0xbf0d1658	-0.5511222
10	0x3b27fd45	0.0025633138
11	0x3e160bd6	0.14652953
12	0xbec906f4	-0.39263117
13	0xbf0ab456	-0.5418142
14	0x3f14210b	0.5786292
15	0xbe572b95	-0.21012719
16	0xbf21699e	-0.63051784
17	0x3f33555e	0.70052135
18	0xbd9ad6a0	-0.07560468
19	0x3f3707c6	0.71496236
20	0x3f1f5cbc	0.62250876
21	0x3e7f85a0	0.24953318
22	0xbeedec74	-0.46469462
23	0x3cf89cca	0.0303482
24	0x3f398a2f	0.72476476
25	0xbf0df50a	-0.55452025
26	0x3f101d54	0.5629475
27	0x3f320eee	0.6955403
28	0x3ef1c026	0.4721691
29	0xbee885f6	-0.45414704
30	0xbeb2e332	-0.3493896
31	0x3ee687f2	0.45025593
32	0x3f1cf3f1	0.61309725
33	0x3eab3cef	0.33444926
34	0x3f33a9c1	0.701809
35	0x3ed10278	0.40822196
36	0x3f07766c	0.5291507
37	0xbf05e211	-0.52298075
38	0xbf165e69	-0.5873781
39	0xbf1e7288	-0.6189351
40	0x3f0ef90f	0.55848783
41	0xbeb01656	-0.3439204
42	0xbee1695b	-0.44025692
43	0xbe915e5a	-0.28392297
44	0x3ece224e	0.40260547
45	0xbed4af1a	-0.41539842
46	0xbf0d26eb	-0.5513751
47	0x3dfdceb2	0.123929396
48	0x3ef81527	0.48453638
49	0x3e0a8d7d	0.13530536
50	0x3f3f617b	0.7475812
51	0xbecdcc7f	-0.4019508
52	0xbee10851	-0.43951657
53	0xbf2ed5aa	-0.68294775
54	0xbf1cbbc4	-0.6122401
55	0x3da4aa97	0.0804035
56	0xbde8a814	-0.11360183
57	0x3f45178e	0.76989067
58	0xbe9cf3d4	-0.30654776
59	0xbddcfd08	-0.107904494
60	0x3ee88f1f	0.45421693
61	0xbe5318a6	-0.20614871
62	0xbef34415	-0.4751288
63	0x3f30cb28	0.6905999
64	0x3f079222	0.52957356
65	0xbec53372	-0.38515812
66	0xbe2b1f98	-0.16711271
67	0xbeb93bf0	-0.3617854
68	0x3f2e094e	0.6798295
69	0x3d2fd8ee	0.04293149
70	0xbf1b3c11	-0.6063853
71	0xbebc2a9a	-0.36751252
72	0xbef50331	-0.47853997
73	0x3e4fa281	0.20276834
74	0xbf0bfd78	-0.5468364
75	0xbe0c8a4c	-0.13724631
76	0xbcd584e3	-0.026064342
77	0x3ea6efd6	0.32604855
78	0x3f47aa41	0.7799416
79	0x3eae7aba	0.34078008
80	0x3f35f51b	0.71077126
81	0x3eb281d1	0.34864667
82	0x3e51c0a6	0.20483646
83	0x3ee14084	0.43994534
84	0x3f094e2a	0.53634894
85	0xbe8a2e97	-0.2698867
86	0xbd90f706	-0.07078366
87	0x3f18ade5	0.5964034
88	0xbe888472	-0.26663548
89	0xbf270e2d	-0.65256006
90	0xbe7a0641	-0.24416448
91	0x3f01ea7e	0.5074843
92	0xbef1bc81	-0.4721413
93	0x3eedc89f	0.46442124
94	0xbd2119c2	-0.039331205
95	0xbf1b88b2	-0.60755455
96	0xbeb0b0f9	-0.3451002
97	0x3eafccdd	0.34335986
98	0x3ef55ac8	0.47920823
99	0x3f0a5ee6	0.54051054
100	0xbe86f4a7	-0.2635853
101	0x3ee4af36	0.44664925
102	0x3ecf7d2c	0.40525186
103	0xbf3a929c	-0.7287996
104	0xbe4b8997	-0.19876705
105	0xbeb7cf99	-0.35900572
106	0xbf0c1099	-0.54712826
107	0x3f32d8ed	0.6986225
108	0x3ec464bb	0.383581
109	0xbeafdb0c	-0.34346807
110	0x3ed08215	0.40724245
111	0xbe6e0b4f	-0.23246501
112	0x3ef6750b	0.48136172
113	0xbea47957	-0.32123825
114	0xbf08e02c	-0.5346706
115	0xbe90f18d	-0.2830929
116	0xbe9764f0	-0.29569197
117	0x3e03c26e	0.12867138
118	0xbecf7e83	-0.40526208
119	0x3ea947d7	0.33062622
120	0xbed0e6ba	-0.4080103
121	0x3f1e7818	0.61902
122	0x3f113868	0.56726694
123	0x3f2efaab	0.6835124
124	0x3f316df4	0.693084
125	0xbe2bdb3f	-0.16782854
126	0xbed5e27a	-0.4177435
127	0x3f21b70e	0.63169944

weight f4 [128, 128]
0	0x3db1e721	0.086866625
1	0xbd1f82d4	-0.038943127
2	0xbd1087eb	-0.03528587
3	0xbdb11e1b	-0.0864832
4	0xbd12c68a	-0.035833873
5	0xbd9eecb0	-0.07759988
6	0xbdadf52a	-0.08494027
7	0xbbdd2f10	-0.006749995
8	0x3d3c1353	0.045916867
9	0xbd8d4daa	-0.06899579
10	0xbd90da4a	-0.07072885
11	0xbd8f9fe3	-0.07012918
12	0xbd89fb5a	-0.06737395
13	0x3bc06ed0	0.005872585
14	0x3c8f45d6	0.017489355
15	0x3ca67990	0.020321637
16	0xbd6aef1b	-0.057356935
17	0xbc0741e6	-0.0082554575
18	0x3dabae45	0.08382849
19	0xba965430	-0.0011469182
20	0x3a8a6d01	0.001056105
21	0x3d18711e	0.037217252
22	0x3d2b144a	0.041767396
23	0xbdbae404	-0.09125522
24	0x3d84f295	0.06491581
25	0x3d926f25	0.071501054
26	0x3aa1d2d2	0.0012346155
27	0x3d8c8e25	0.068630494
28	0x3d9a6504	0.075387985
29	0x3cbd180b	0.023082754
30	0x3ca08caa	0.019598324
31	0x3d5ddbb3	0.0541646
32	0xbd8bc1f7	-0.06824105
33	0xbc0b9dd2	-0.008521514
34	0xbd9aafcc	-0.07553062
35	0xbdc7a8a0	-0.097489595
36	0x3c306ab4	0.0107676275
37	0x3c27bc20	0.010237724
38	0x3ce6cad0	0.02817288
39	0x3ccf745c	0.02532404
40	0x3ceef09a	0.029167462
41	0x3d906d60	0.070521116
42	0x3d327e1a	0.04357729
43	0x3d8fb905	0.070177115
44	0x3d027f4e	0.03185969
45	0xbdbbaa23	-0.091633104
46	0xbd08ce9a	-0.033400156
47	0x3d6786c6	0.056525014
48	0xbd3112c3	-0.043230783
49	0xbd1c1e86	-0.038115047
50	0xbcf8ad99	-0.030356215
51	0xbc68d45f	-0.014210789
52	0xbd0f6fd5	-0.03501876
53	0xbd37434a	-0.044741906
54	0x3cc5ac5c	0.024130039
55	0x3d101c28	0.035183102
56	0x3cc9aebc	0.024619453
57	0x3b902c6d	0.004399827
58	0xbcad985c	-0.021190815
59	0x3d7becee	0.06150525
60	0x3b02a709	0.0019935986
61	0xba823840	-0.0009934977
62	0x3da0c7a3	0.07850578
63	0xbd48a947	-0.04898956
64	0x3d0da2a6	0.03457894
65	0x3d24902a	0.040176548
66	0x3d677346	0.056506418
67	0xbba52a30	-0.0050404295
68	0xbdc20721	-0.09474016
69	0xbae6899e	-0.001758862
70	0x3d7b6516	0.0613757
71	0xbb773900	-0.0037723184
72	0x3d02f24b	0.03196935
73	0x3d98d4e3	0.0746248
74	0x3b844bb2	0.004037344
75	0xbbea0509	-0.0071417135
76	0x3bf29946	0.0074035255
77	0xbce94b63	-0.02847833
78	0xbcaaa9b0	-0.020832866
79	0xbc8c81f8	-0.017151818
80	0xbd87c8f6	-0.06630127
81	0x3c894839	0.016758071
82	0x3d959c7b	0.07305237
83	0x3ce9c411	0.028535875
84	0x3d26fd02	0.04076863
85	0x3d83678b	0.06416234
86	0x3d9ed85d	0.07756112
87	0xbd1724aa	-0.0369002
88	0xbd3a0ab3	-0.04542036
89	0xbd9dfc66	-0.07714157
90	0xbd95202d	-0.07281528
91	0xbc52f87a	-0.012876624
92	0xbd9bcb0e	-0.07607089
93	0xbdba14fe	-0.09086035
94	0xbc2e0850	-0.010622099
95	0xbc161646	-0.009160584
96	0x3d94ef85	0.07272247
97	0xbcd11bb1	-0.0255259
98	0x3d5cb069	0.053879175
99	0xbdc8b740	-0.09800577
100	0xbd9bdfb8	-0.0761103
101	0xbd2ff2b9	-0.042956088
102	0xbc5b60aa	-0.013389746
103	0xbd9d1c11	-0.07671369
104	0x3ce5decb	0.028060338
105	0xbcf2a228	-0.029618338
106	0xbd368970	-0.044564664
107	0x3d0777a3	0.03307308
108	0xbd5267a3	-0.051368367
109	0x3da657db	0.08122226
110	0xbd80d3b3	-0.062903784
111	0xbd54934e	-0.051898293
112	0xbd7cb63b	-0.061697226
113	0xbdba28c1	-0.090898044
114	0x3d847ace	0.06468736
115	0x3c82a658	0.01594846
116	0xbd999aa8	-0.075002015
117	0xbd8dc47a	-0.069222406
118	0xbbedffb0	-0.0072631463
119	0xbdafadc0	-0.08578062
120	0xbce2a084	-0.02766443
121	0x3d1a5a2d	0.037683655
122	0xbd272a4c	-0.04081182
123	0x3cf11cd7	0.029432697
124	0x3d5213f6	0.051288567
125	0xbda45f61	-0.080260046
126	0xbdc801d0	-0.09765971
127	0xbd0b0f18	-0.03394994
128	0x3d47bfdc	0.048766956
129	0xbd3bb9bc	-0.045831427
130	0xbd9b4d89	-0.07583148
131	0xbdad0ef9	-0.084501214
132	0x3d31052e	0.04321783
133	0x3d21563d	0.039388884
134	0xbb122712	-0.002230112
135	0xbdb3ae04	-0.08773425
136	0xb83e4822	-4.536671e-05
137	0x3c576678	0.013146989
138	0xbdb5031b	-0.08838483
139	0xbcf23b79	-0.029569374
140	0xbcdda88a	-0.027057905
141	0xbbf950f0	-0.0076085255
142	0x3cb8efc0	0.02257526
143	0x3d7929b5	0.06083079
144	0xbc940138	-0.018066987
145	0xbd8f7ecd	-0.07006607
146	0x3d91722f	0.07101857
147	0x3d53998a	0.051660098
148	0x3d0a118a	0.033708133
149	0xbda1e2fa	-0.079046205
150	0xbcfd75e9	-0.030940013
151	0xbd54f14b	-0.051987927
152	0xbd90ef69	-0.07076914
153	0xbc8e3624	-0.0173598
154	0x3d81ada8	0.063319504
155	0xbdb0f5e9	-0.08640654
156	0x3bea1e5b	0.007144732
157	0xbd0d68b2	-0.034523673
158	0xbda49802	-0.08036806
159	0xbd8fbd15	-0.070184864
160	0x3ce0ca4d	0.027440215
161	0xbcb1d676	-0.021708708
162	0xbd6d5b38	-0.05794832
163	0x3d9c57af	0.07633912
164	0x3d645096	0.055740915
165	0x3d411927	0.047143128
166	0xbd95fc70	-0.07323539
167	0xbb11edc1	-0.0022266957
168	0xbd0d13fc	-0.034442887
169	0x3d4af556	0.049550377
170	0xbda80c3d	-0.08205459
171	0x3d6d72a6	0.057970665
172	0x3d41cc1f	0.047313806
173	0xbdaf29f6	-0.08552925
174	0xbc779d41	-0.015113176
175	0x3d51d468	0.051227957
176	0xbdaa3f94	-0.08312908
177	0xbc8c683d	-0.017139548
178	0x3d58e0f9	0.052948926
179	0xbd05631a	-0.032565214
180	0x3d0121df	0.031526443
181	0xbd78840b	-0.0606728
182	0xbd4f4017	-0.05059823
183	0x3d69bca0	0.057064652
184	0x3d28c4be	0.041203253
185	0xbd9c6e90	-0.076382756
186	0xbcfabd6d	-0.030607903
187	0x3d8fec08	0.07027441
188	0x3cb35a97	0.021893783
189	0x3c965570	0.018351287
190	0xbd3be3e6	-0.045871638
191	0x3cc9ed75	0.024649361
192	0x3c1d2ba4	0.009592924
193	0xbcd977ba	-0.026546348
194	0xbcf9aa24	-0.030476637
195	0x3baf2590	0.005345054
196	0xbdb860fc	-0.09002873
197	0x3c594798	0.013261698
198	0xbbac5450	-0.0052590743
199	0xbd389c67	-0.045071032
200	0x3d84e76f	0.06489455
201	0x3d5d9cae	0.0541045
202	0x3db01ef9	0.085996576
203	0xbc9c4884	-0.019077547
204	0x3db2a3fa	0.08722682
205	0x3ccdb025	0.025108406
206	0xb9c2f242	-0.0003718306
207	0x3d9bd74c	0.07609424
208	0xbd1027af	-0.035194095
209	0x3b1dadc3	0.002405987
210	0xbd9b3f62	-0.07580449
211	0x3c206ec1	0.009792031
212	0xbd8de3df	-0.069282286
213	0xbd29d82a	-0.041465916
214	0x3d4f9403	0.050678264
215	0xbdc463af	-0.09589326
216	0x3b9233ce	0.004461742
217	0x3ce09e9a	0.027419377
218	0x3d2057e7	0.03914633
219	0xbccbd018	-0.0248795
220	0xbdb14fa8	-0.08657771
221	0x3cf75b4b	0.030194899
222	0x3d6f87f8	0.05847928
223	0x399bfa00	0.00029750168
224	0x3d1214e4	0.035664454
225	0xbd818caf	-0.063256614
226	0xbcae2a97	-0.021260543
227	0x3cccae17	0.024985356
228	0x3ce4f1ab	0.027947268
229	0xbda21fff	-0.07916259
230	0xb8ac5bc5	-8.2186925e-05
231	0xbd7ac493	-0.061222624
232	0x3d23806e	0.039917402
233	0x3d7b1526	0.061299466
234	0xbc814910	-0.01578191
235	0x3d376315	0.044772226
236	0x3d67622e	0.056490116
237	0xbd1b51da	-0.037919857
238	0xbda24608	-0.07923514
239	0xbcc5c4a4	-0.024141617
240	0xbce057f2	-0.027385686
241	0x39a47800	0.00031369925
242	0xbcfd9df8	-0.030959114
243	0x3d021c6e	0.031765394
244	0xbc4483df	-0.011994331
245	0x3d01c9c6	0.031686567
246	0x3d1c2960	0.038125396
247	0x3c96ce0f	0.018408803
248	0x3d2e8f03	0.042616855
249	0xbd8e87c0	-0.06959486
250	0x3c1340ed	0.0089876475
251	0x3c149bcf	0.009070351
252	0xbca0d5ac	-0.019633137
253	0x3d50882a	0.050911106
254	0xbcc79f10	-0.02436784
255	0x3cd54bb0	0.026037067

bias f4 [128]
0	0xbc42d563	-0.011891696
1	0xbc9b2529	-0.018938618
2	0xbd35ef6e	-0.04441779
3	0x3e8d3899	0.27582243
4	0x3e944b6f	0.289638
5	0xbda7d365	-0.08194617
6	0x3eb877d5	0.36028925
7	0xbd4dc996	-0.050241075
8	0x3ce238f5	0.02761505
9	0xbdaa4003	-0.083129905
10	0xbdbd764a	-0.092510775
11	0xbba9ee58	-0.0051858835
12	0x3ca131ba	0.019677032
13	0xbbda7770	-0.00666707
14	0xbd44a532	-0.048009105
15	0x3e611cd6	0.21983656
16	0x3e681550	0.2266438
17	0xbd67f6bd	-0.056631792
18	0x3d893f80	0.06701565
19	0x3eb09340	0.34487343
20	0xbd4d22e6	-0.05008211
21	0x3e86b31b	0.26308522
22	0x3be4c2d2	0.006981232
23	0xbdbf4b5b	-0.09340545
24	0xbe3768e2	-0.17911103
25	0x3e96bde7	0.2944176
26	0x3eaf3701	0.34221652
27	0xbc4e8ac8	-0.01260633
28	0x3ebada23	0.3649455
29	0x3e93a4ba	0.28836614
30	0x3d123e61	0.03570402
31	0xbdb3142f	-0.08744084
32	0xbc9d53f9	-0.01920508
33	0x3e65aff1	0.22430398
34	0x3ebe8a4a	0.3721488
35	0xbd226b3d	-0.03965305
36	0x3a8e9900	0.0010879338
37	0x3e90c04a	0.28271705
38	0x3df95e11	0.12176145
39	0x3e959aef	0.29219767
40	0x3eab5265	0.334613
41	0x3c36b75f	0.0111521175
42	0xbdb2f494	-0.08738056
43	0x3eaee715	0.34160677
44	0x3ebb125a	0.3653744
45	0xbd8f607d	-0.070008256
46	0x3d6467d0	0.055763066
47	0x3d2954d8	0.04134068
48	0x3e93e413	0.28884944
49	0x3e6cc3c6	0.23121557
50	0x3c84cd70	0.016211241
51	0x3eb6f816	0.3573615
52	0xbd692ab7	-0.0569255
53	0x3a9395ac	0.0011259816
54	0x3e9e1684	0.30876553
55	0xbd0279cb	-0.031854432
56	0x3e9b8f9f	0.30383012
57	0xbe8454eb	-0.25846037
58	0xbdb03f05	-0.0860577
59	0xbd5f0ec9	-0.05445746
60	0xbdf12a20	-0.11775613
61	0xbe1ba82a	-0.15200868
62	0xbd0de5c6	-0.034642957
63	0x3d448a02	0.047983177
64	0xbd9d2c92	-0.07674517
65	0x3e597d5b	0.21239226
66	0xbda95175	-0.0826749
67	0x3c58cef2	0.013232933
68	0xbcf01e0b	-0.0293112
69	0xbdfa2193	-0.12213435
70	0xbd7b064e	-0.06128531
71	0xbdca2b09	-0.098714896
72	0x3e95a593	0.29227886
73	0x3c65448d	0.013993395
74	0x3e990e05	0.2989351
75	0xbda8c2bb	-0.08240267
76	0x3ea2b810	0.31781054
77	0x3d602c22	0.05472959
78	0x3ea85ec3	0.32884797
79	0x3ebd1ecc	0.3693756
80	0x3ec67e35	0.38768163
81	0x3e9485e9	0.29008415
82	0x3e5e9494	0.21736366
83	0x3e44fb5e	0.19236514
84	0xbd0300dc	-0.03198324
85	0xbd8988bf	-0.06715535
86	0x3ea3decf	0.32005927
87	0xbdb84f59	-0.08999509
88	0x3e6d8c52	0.23198059
89	0xbe1c0d6c	-0.15239495
90	0xbda66c3c	-0.08126113
91	0x3d86bf70	0.065794826
92	0x3eaed78c	0.34148824
93	0x3e7f2d9a	0.2491974
94	0xbd9476a4	-0.072491914
95	0xbbcc30a4	-0.0062313844
96	0x3cda8f78	0.02667974
97	0x3e9d4b04	0.30721295
98	0x3ce6f380	0.028192282
99	0x3ec0368c	0.37541616
100	0x3d6a4d60	0.057202697
101	0xbdaa1768	-0.08305246
102	0xbe057de1	-0.130363
103	0xbd50b070	-0.050949514
104	0xbdb4374c	-0.087996095
105	0x3d3dbee6	0.046324633
106	0x3c8ea9a0	0.017414868
107	0xbc4d8bfd	-0.012545583
108	0x3e463bea	0.19358793
109	0x3eb960f4	0.36206782
110	0xbc09b4f9	-0.008404964
111	0xb9f79d89	-0.00047228884
112	0x3d5cb740	0.0538857
113	0xbdbfae08	-0.09359366
114	0x3ebeb5b3	0.37248
115	0xbd141dbb	-0.036161166
116	0xbd8d7513	-0.06907096
117	0x3e7681e6	0.2407299
118	0xbd0e616c	-0.034760877
119	0x3ea32f0a	0.31871825
120	0xbd9cbceb	-0.07653221
121	0x3e9f5a4a	0.31123573
122	0xbcf14d02	-0.029455665
123	0x3ea2ffa1	0.31835654
124	0x3e8c5a7a	0.27412778
125	0x3eb64afe	0.3560409
126	0x3e823262	0.25429064
127	0xbdb12a30	-0.08650625

weight f4 [2, 128]
0	0xbce93b4b	-0.028470656
1	0x3d01a76d	0.03165381
2	0x3c65788e	0.014005793
3	0x3e68344d	0.22676201
4	0x3e689894	0.22714454
5	0xbda4e0c6	-0.08050685
6	0x3e8ea028	0.27856565
7	0x3b167f68	0.0022964124
8	0x3c98e3bc	0.01866328
9	0xbd892430	-0.06696355
10	0x3dcc29d5	0.09968916
11	0xbd3e72a6	-0.046496056
12	0x3d130226	0.03589072
13	0xbc8a6f04	-0.01689864
14	0xbd60f768	-0.054923445
15	0x3e8ab231	0.27089074
16	0x3ea12989	0.31477
17	0xbd1b41e4	-0.037904635
18	0xbd22f2a3	-0.039782178
19	0x3e9de313	0.30837306
20	0xbd51cefb	-0.051222783
21	0x3eadf188	0.33973336
22	0xbd20a631	-0.039220992
23	0xbd06057b	-0.03272007
24	0x3c73b818	0.014875434
25	0x3e957d6a	0.29197246
26	0x3e58fb62	0.21189645
27	0xbd6902a5	-0.056887288
28	0x3e913197	0.28358147
29	0x3ea9073f	0.3301334
30	0x3b5c8698	0.003364956
31	0xbd7f5c6d	-0.062344003
32	0xbd84af2e	-0.064787254
33	0x3e7af0cf	0.24505924
34	0x3e8f7596	0.28019398
35	0xbd0ba65b	-0.034094196
36	0xbba401d0	-0.005005099
37	0x3e76c6e4	0.24099308
38	0x3d524ec8	0.051344663
39	0x3e9b5ec2	0.30345732
40	0x3eb4ddc6	0.3532545
41	0x3bfb0d83	0.007661523
42	0x3c35277d	0.011056778
43	0x3e998431	0.29983667
44	0x3e9409c9	0.28913715
45	0xbaec4d52	-0.0018028414
46	0xbca1a583	-0.019732242
47	0x3bcdb737	0.0062779444
48	0x3eb2fa2d	0.34956494
49	0x3e7acdd7	0.24492584
50	0xbd3e32f9	-0.04643533
51	0x3e90ab38	0.2825563
52	0xbd1ee5cc	-0.03879337
53	0xbd91fd6f	-0.07128417
54	0x3eb2cc8a	0.34921676
55	0xbd3635a6	-0.044484757
56	0x3e74e015	0.23913606
57	0xbf037897	-0.5135588
58	0xbc19bc76	-0.0093833115
59	0xbd4df07e	-0.05027818
60	0x3cd2b216	0.025719684
61	0x3e323e6f	0.17406629
62	0xbc74aed8	-0.014934264
63	0x3d7c5793	0.061606955
64	0xbd009825	-0.031395096
65	0x3e9efd1a	0.31052476
66	0x3cc00068	0.023437694
67	0x3d198d1c	0.037488088
68	0x3b38af87	0.0028180794
69	0xbd8c0ed7	-0.06838768
70	0xbd9c5cd3	-0.07634892
71	0x3d2a0a31	0.041513626
72	0x3e9481d6	0.29005307
73	0x3d6e882f	0.058235344
74	0x3ea142fc	0.31496418
75	0x3bb682ff	0.005569815
76	0x3e9b2a3d	0.30305663
77	0xbb51d195	-0.003201579
78	0x3ea802a7	0.32814524
79	0x3e8ed0ba	0.2789362
80	0x3eb24836	0.34820718
81	0x3eb4ba2e	0.35298294
82	0x3e6f298e	0.23355696
83	0x3c8b7c1a	0.01702695
84	0xbd9aeb8c	-0.07564458
85	0xbd4421aa	-0.047883667
86	0x3ea12c91	0.31479314
87	0x3d817be5	0.06322459
88	0x3e40807b	0.18799011
89	0xbc1f80c2	-0.009735288
90	0x3cdca289	0.026932972
91	0xbd4db3d0	-0.05022031
92	0x3eaac4f6	0.33353394
93	0x3eb85287	0.36000463
94	0xbd499a24	-0.049219266
95	0xbd967557	-0.073465995
96	0xbd5c6052	-0.053802796
97	0x3e9d4bc7	0.30721876
98	0xbcbe458f	-0.023226527
99	0x3e952d57	0.29136154
100	0xbb0691af	-0.0020533612
101	0xbc800823	-0.01562888
102	0xbd4c3c4d	-0.049862195
103	0xbcf364a5	-0.029711077
104	0xbcd6ad50	-0.026205689
105	0xbc2206c8	-0.009889312
106	0x3b8f6f00	0.004377246
107	0xbcb532e2	-0.02211899
108	0x3e315bfc	0.17320246
109	0x3e9464be	0.2898311
110	0xbd027c38	-0.031856745
111	0xbd70dfbc	-0.05880712
112	0xbd91699e	-0.07100223
113	0x3c749d75	0.014930119
114	0x3e65f5e7	0.22457086
115	0x3d65a3ea	0.056064524
116	0xbccc56df	-0.024943767
117	0x3eabb9e3	0.33540258
118	0x3d4ada03	0.04952432
119	0x3e9982b7	0.2998254
120	0x3d22b1e2	0.039720424
121	0x3e7c2c7b	0.24626343
122	0x3c02cbd1	0.007983164
123	0x3e810061	0.25195602
124	0x3eb34566	0.35013884
125	0x3eae085b	0.3399075
126	0x3e761861	0.24032737
127	0xbd5e2976	-0.05423876
128	0xbd891077	-0.066925935
129	0xbd52ae5d	-0.051435817
130	0xbc85acd1	-0.016317757
131	0x3e929dc2	0.28635985
132	0x3ea7b300	0.32753754
133	0xbe5e6ade	-0.21720454
134	0x3eb0d0a1	0.3453417
135	0x3be72547	0.0070540044
136	0xbcefa4ca	-0.029253382
137	0x3b9d4a50	0.0048001185
138	0xbce462b9	-0.027879106
139	0xbd8e5aaf	-0.0695089
140	0xbd0d458d	-0.034490157
141	0x3d8ff26b	0.070286594
142	0x3d0b7d5d	0.034055103
143	0x3e97eace	0.2967133
144	0x3e4286df	0.18996762
145	0x3c85412d	0.01626643
146	0xbc2a78a4	-0.0104047395
147	0x3eabb821	0.33538917
148	0xbd0a5473	-0.033771943
149	0x3e650f95	0.22369225
150	0x3c56af4b	0.013103317
151	0xbd0f1e2b	-0.03494088
152	0xbebb2837	-0.3655412
153	0x3e8de6a6	0.27715033
154	0x3e93c9e1	0.2886496
155	0x3d2f5dfe	0.042814247
156	0x3e84a279	0.25905207
157	0x3e84fc3e	0.25973696
158	0xbcdf17c1	-0.027233006
159	0x3d8d38fb	0.06895634
160	0x3db54915	0.0885183
161	0x3ea019f0	0.3126979
162	0x3e9ad5bc	0.3024119
163	0xbc564ed7	-0.01308032
164	0x3d79ef9e	0.061019532
165	0x3ea03445	0.31289878
166	0x3e266c91	0.16252352
167	0x3ea1a5c6	0.31571788
168	0x3e89a72c	0.26885355
169	0xbda00cf0	-0.07814968
170	0x3c5b2e05	0.013377671
171	0x3eae14fe	0.3400039
172	0x3e991da5	0.2990543
173	0x3d4c97de	0.04994952
174	0xbbee82a1	-0.007278756
175	0xbc1fa376	-0.009743562
176	0x3e4c0aa0	0.19925928
177	0x3e9d821e	0.30763334
178	0x3cc99ac8	0.024609938
179	0x3ea52a22	0.32258707
180	0xbbed8c85	-0.0072494172
181	0x3dae0214	0.0849649
182	0x3e806826	0.2507946
183	0x3d0e2fee	0.034713678
184	0x3ea904f7	0.330116
185	0xbef8ed95	-0.4861876
186	0x3d8a74d0	0.067605615
187	0xbcd7a90a	-0.026325721
188	0xbc9d8350	-0.019227654
189	0xbe623d0f	-0.22093605
190	0xbc6d2f0e	-0.014476551
191	0xbd7fb676	-0.062429868
192	0xbda4e2b9	-0.080510564
193	0x3ea461ab	0.32105765
194	0xbd96e716	-0.07368295
195	0xbd3d0646	-0.04614856
196	0xbd92d3ae	-0.07169281
197	0x3b251983	0.0025192208
198	0xbc540828	-0.012941398
199	0xbd9e14c6	-0.07718806
200	0x3e81db07	0.25362417
201	0xbd6c066e	-0.05762332
202	0x3e93b5d4	0.2884966
203	0xbd59985b	-0.053123813
204	0x3e89b8c8	0.2689879
205	0xbd073e9f	-0.033018705
206	0x3e1fb862	0.1559768
207	0x3e971138	0.29505324
208	0x3ea4c2c1	0.32179835
209	0x3e85593f	0.26044652
210	0x3eab373d	0.3344058
211	0x3e868b69	0.26278237
212	0xbd8042fe	-0.06262778
213	0xbcf1a298	-0.029496476
214	0x3e9d066a	0.30668956
215	0xbccbbeda	-0.024871279
216	0x3ea6d34b	0.3258308
217	0xbe87d4c1	-0.26529506
218	0xbd61e2a5	-0.055147786
219	0xbd2f0458	-0.042728752
220	0x3e4e9472	0.20173815
221	0x3e912223	0.28346357
222	0xbd7968f4	-0.060891107
223	0xbc758992	-0.014986413
224	0xbc54034f	-0.012940242
225	0x3e9fb5e9	0.31193474
226	0xbd84eeea	-0.06490882
227	0x3e7e654d	0.2484333
228	0xbd0a703f	-0.033798452
229	0x3caacba5	0.020849058
230	0xbcfc9f30	-0.030837625
231	0x3b073e0b	0.0020636346
232	0xbd978138	-0.073976934
233	0x3cb82851	0.022480162
234	0x3d29ac86	0.041424297
235	0xbc86b011	-0.016441377
236	0x3e904647	0.28178617
237	0x3e9f9d52	0.31174713
238	0x3d893c69	0.067009754
239	0x3c4052d4	0.011738498
240	0x3d4ab6e6	0.04949083
241	0xbd02711d	-0.031846154
242	0x3eaf9342	0.34292036
243	0xbd6b9216	-0.057512365
244	0xbccc123d	-0.02491104
245	0x3e7bb097	0.24579082
246	0xbdaf27e3	-0.0855253
247	0x3e9924e5	0.2991096
248	0x3cf11c64	0.029432483
249	0x3e9e5594	0.30924666
250	0xbd2f7a69	-0.04284135
251	0x3e8db8f4	0.2768017
252	0x3e95b75a	0.2924145
253	0x3ea0da25	0.3141643
254	0x3e9acb07	0.30233023
255	0xbc015017	-0.00789263

bias f4 [2]
0	0x3e94d37e	0.29067606
1	0x3e739ae1	0.2378955
