data/1008CartPole-v0_dqn/1008CartPole-v0_dqn_s0/pyt_save/model.pt (torch, 72599 bytes, 6 tensors)

weight f4 [128, 4]
0	0x3e01df28	0.12682784
1	0x3e710a05	0.23538978
2	0xbe86a6d1	-0.26299146
3	0x3e094c46	0.13408002
4	0x3da8dfda	0.08245821
5	0x3cfb1d41	0.030653598
6	0xbe6066d2	-0.21914223
7	0x3e4f6170	0.20252013
8	0x3ed12137	0.40845653
9	0xbeb1c33c	-0.34719265
10	0x3cfc9780	0.03083396
11	0xbdae57ff	-0.08512878
12	0x3e6199df	0.22031353
13	0x3eed44eb	0.46341643
14	0x3f859aa4	1.0437818
15	0x3ec8cc1c	0.39218223
16	0x3f32a4ce	0.6978272
17	0x3d8bb4e4	0.068216115
18	0x3eaf79db	0.34272656
19	0x3c95dbba	0.01829325
20	0x3e7b66f0	0.24550986
21	0xbe561c95	-0.2090934
22	0xbf169512	-0.58821213
23	0x3e2d0cfc	0.16899484
24	0xbea1b1ba	-0.31580907
25	0x3ec58052	0.38574463
26	0x3e0a139a	0.1348404
27	0x3e1f3d54	0.15550739
28	0x3d2fca9c	0.042917833
29	0x3d99cbd8	0.07509583
30	0xbed15634	-0.4088608
31	0x3e7a03ce	0.24415514
32	0x3e81e98b	0.25373492
33	0xbc764a92	-0.015032427
34	0xbe0f155b	-0.1397299
35	0x3dbe34db	0.09287425
36	0x3bc9a71b	0.0061539537
37	0x3ebd3009	0.3695071
38	0x3f9069fa	1.1282341
39	0x3edf57b0	0.43621588
40	0xbe6c9b5f	-0.23106144
41	0x3cf64482	0.030061964
42	0x3dc1f536	0.094705984
43	0xbe18a75c	-0.14907593
44	0xbea5b095	-0.32361284
45	0x3e2c3a90	0.16819215
46	0x3ec13309	0.3773425
47	0x3ea122aa	0.3147176
48	0xbe4ef1ba	-0.20209399
49	0x3eb6b930	0.35688162
50	0xbe86378f	-0.26214263
51	0x3eafd83a	0.34344655
52	0x3d996ee6	0.07491855
53	0xbeb23218	-0.34803843
54	0xbd884516	-0.06653802
55	0xbe3f6688	-0.18691456
56	0x3e54f36b	0.20795982
57	0x3c536dc3	0.012904587
58	0x3f8870ef	1.0659465
59	0x3dbade5a	0.091244414
60	0xbdce0581	-0.100596435
61	0x3d8e8a65	0.069599904
62	0x3e0e3383	0.13886838
63	0xbe98b887	-0.29828283
64	0xbe32404c	-0.1740734
65	0xbe3dcf48	-0.18536103
66	0xbe2a8160	-0.16650915
67	0x3e216091	0.15759493
68	0x3b39d62f	0.0028356423
69	0x3e04e300	0.12977219
70	0xbd8d430f	-0.06897556
71	0xbc65dcd5	-0.014029701
72	0xbeaa5c92	-0.3327375
73	0xbeeaba26	-0.45845145
74	0x3f04e265	0.5190795
75	0xbec25c71	-0.37961152
76	0x3dd67b2e	0.104727134
77	0x3c1da59b	0.009622003
78	0x3e48d642	0.19612983
79	0xbe56dbdd	-0.20982309
80	0x3c99cf2b	0.018775543
81	0xbeb11bf2	-0.34591633
82	0xbfa2e1e2	-1.2725184
83	0xbed36b10	-0.4129262
84	0xbf144eec	-0.57932925
85	0x3d4b0348	0.049563676
86	0x3cc9abd6	0.02461807
87	0xbbbdddf1	-0.0057942797
88	0x3e97afe9	0.29626396
89	0x3e1b5cb2	0.15172079
90	0xbf1a2367	-0.6021027
91	0x3c4be87f	0.012445568
92	0xbe9f6faa	-0.3113988
93	0xbe8298a0	-0.2550707
94	0xbfa8af32	-1.3178465
95	0xbeaa048b	-0.3320659
96	0xbe9f9a17	-0.3117225
97	0xbd7601b3	-0.060060214
98	0x3ed2a328	0.41140103
99	0x3d34e306	0.04416182
100	0xbe78d223	-0.24298911
101	0xbe9eae8e	-0.3099255
102	0xbf81c488	-1.0138102
103	0xbe9a6d82	-0.30161673
104	0x3d8af519	0.0678503
105	0xbe3c1f81	-0.18371393
106	0xbdc1cbec	-0.09462723
107	0x3e2549df	0.16141461
108	0x3e12c1d2	0.14331749
109	0xbec8bb06	-0.39205188
110	0xbdeb21ea	-0.11481078
111	0xbe8a2457	-0.2698085
112	0x3f1d0b2f	0.6134519
113	0xbebcd954	-0.36884558
114	0x3cf6b6bb	0.03011643
115	0xbd07f201	-0.033189777
116	0xbebc8d3a	-0.36826497
117	0xbe9f083a	-0.31060964
118	0xbf98bbc3	-1.19323
119	0xbe8d26d0	-0.27568674
120	0x3e9cf949	0.3065894
121	0xbeb86382	-0.36013418
122	0xbd88372f	-0.066511504
123	0xbe830fa1	-0.2559786
124	0xbd433f84	-0.047667995
125	0x3e2ba418	0.16761816
126	0xbf1fe28e	-0.6245507
127	0x3d829599	0.0637619
128	0x3e93cc49	0.28866795
129	0x3ef77688	0.4833262
130	0xbe84f986	-0.2597162
131	0x3ea52219	0.32252577
132	0x3e8f50ea	0.2799142
133	0xbc9f049b	-0.019411376
134	0xbe9bb4b1	-0.30411294
135	0xbdf7b55b	-0.12095138
136	0xbe911030	-0.28332663
137	0x3ea62e2d	0.32457104
138	0x3f1b834b	0.6074721
139	0xbe885f32	-0.26635128
140	0x3cb8eef4	0.02257488
141	0x3e1a5060	0.15069723
142	0x3e756c88	0.23967183
143	0x3d8b1105	0.067903556
144	0xbcd2c80d	-0.025730157
145	0xbe5bc032	-0.21460035
146	0xbdcf1445	-0.10111288
147	0xbead5ff6	-0.33862275
148	0xbda9bc53	-0.08287873
149	0x3b76ff96	0.0037688962
150	0xbf5b2966	-0.85610044
151	0x3e14d557	0.14534508
152	0x3d66015a	0.056153633
153	0xbe67ea77	-0.22648035
154	0xbe8199ce	-0.25312656
155	0xbe0ae9d8	-0.13565767
156	0xbeb39a14	-0.3507849
157	0x3e816f00	0.2528
158	0xbd80a1f4	-0.0628089
159	0xbe682014	-0.22668487
160	0xbe578b3c	-0.21049207
161	0xbe4f786f	-0.20260786
162	0xbf043dab	-0.516566
163	0xbf00ff94	-0.5038998
164	0x3e7c51af	0.24640535
165	0x3e6a9546	0.22908506
166	0x3e8fa8dc	0.28058517
167	0xbe8d6f95	-0.27624193
168	0xbec5fd05	-0.386696
169	0x3eb258a7	0.3483326
170	0x3f58e938	0.84730864
171	0x3ef9b124	0.4876796
172	0xbd6d1e49	-0.05789021
173	0x3eb37736	0.35051888
174	0xbef1cf31	-0.47228387
175	0x3db07dfd	0.0861778
176	0x3deb814e	0.11499272
177	0x3dd00c72	0.10158624
178	0x3ea7b1f5	0.32752958
179	0x3d2943b7	0.041324344
180	0xbe022446	-0.1270915
181	0xbe96d1a8	-0.2945683
182	0xbeca3100	-0.3949051
183	0x3e9b5eb0	0.30345678
184	0x3e5da87d	0.21646304
185	0xbe627e54	-0.22118503
186	0xbdd760d4	-0.105165154
187	0xbcb9de44	-0.022688992
188	0x3ef08e1b	0.46983418
189	0xbeb5011e	-0.35352415
190	0xbeab13e2	-0.33413607
191	0xbe91cd11	-0.28476766
192	0x3f34656a	0.70467246
193	0xbde8f274	-0.11374369
194	0xbe908c8b	-0.28232226
195	0xbd82eae4	-0.06392458
196	0xbf1e3af3	-0.618087
197	0xbe2a66bc	-0.16640753
198	0xbe1a8c04	-0.15092474
199	0xbd352036	-0.044220172
200	0x3e30c95b	0.17264311
201	0xbe1944c3	-0.14967637
202	0x3dfe9695	0.12431065
203	0x3e9bf5c7	0.3046095
204	0x3f236ae1	0.6383496
205	0x3e939805	0.2882692
206	0x3ec8fdca	0.39256126
207	0x3e6cdbf2	0.23130777
208	0x3f1ae8e6	0.60511625
209	0xbe4d15ec	-0.20027894
210	0xbe9fe4bc	-0.31229198
211	0xbe1e2a5d	-0.15445848
212	0x3dd673c2	0.10471298
213	0x3eac87cb	0.33697352
214	0x3f4cd1b9	0.8000751
215	0x3e9fd617	0.31218025
216	0x3e9ae234	0.30250704
217	0xbe911d61	-0.28342727
218	0xbed208ad	-0.41022244
219	0xbe516316	-0.20447955
220	0xbd32d3d8	-0.04365906
221	0xbeb599af	-0.35468814
222	0x3eb7b161	0.35877517
223	0xbdeca012	-0.115539685
224	0xbebacfea	-0.3648675
225	0x3e66bd44	0.22533137
226	0x3e3675aa	0.17818323
227	0xbdfa20b4	-0.12213269
228	0x3de89e41	0.113583095
229	0x3e502c49	0.20329393
230	0xbe25bb8a	-0.16184822
231	0x3d8e819d	0.069583155
232	0x3e99f648	0.3007071
233	0xbed4f796	-0.41595143
234	0x3d17604a	0.036957063
235	0xbe14fc1f	-0.14549302
236	0xbf0cae9f	-0.5495395
237	0xbcaf920b	-0.021431943
238	0x3ef95b83	0.4870263
239	0x3d51ed56	0.05125173
240	0xbeb0a955	-0.3450419
241	0x3d908050	0.07055724
242	0xbef7abd5	-0.48373285
243	0x3ec48150	0.38379908
244	0xbd4e6b0c	-0.050395057
245	0x3e5ce80a	0.21572891
246	0xbdc37812	-0.09544386
247	0xbd751465	-0.059833903
248	0x3ddd0be1	0.10793281
249	0xbe97fa6e	-0.2968325
250	0x3e80a0f5	0.251228
251	0xbea86807	-0.32891867
252	0xbdcf317f	-0.101168625
253	0xbf0a0353	-0.5391132
254	0xbdc985d1	-0.098399766
255	0xbea2f539	-0.31827715

bias f4 [128]
0	0xbf01ada8	-0.50655603
1	0x3ed9fd2a	0.4257596
2	0x3f06f8bc	0.5272329
3	0xbeb3c9cf	-0.35114905
4	0xbe5e08d9	-0.21683063
5	0xbe72f28f	-0.23725341
6	0x3e6ff3cc	0.23432845
7	0x3ed6e91b	0.4197472
8	0xbef38d9e	-0.47568983
9	0xbed4179b	-0.4142426
10	0x3ee1fd51	0.44138578
11	0xbf0017eb	-0.50036496
12	0xbeb84b1a	-0.35994798
13	0x3e97ed99	0.2967346
14	0xbca3f2fc	-0.020013325
15	0x3ef2a4b6	0.4739129
16	0xbf1b4d7b	-0.606651
17	0x3f064c85	0.5246051
18	0x3f16fda0	0.5898075
19	0x3f08458c	0.5323112
20	0xbeddc035	-0.43310705
21	0x3ecf5b3a	0.40499288
22	0xbf0bbd88	-0.54586077
23	0xbe1e70bc	-0.15472692
24	0x3f038dd4	0.5138829
25	0x3e3e17a9	0.18563713
26	0x3f23365f	0.6375484
27	0x3ec8ed08	0.3924334
28	0xbeef700a	-0.46765167
29	0xbe943f9b	-0.28954777
30	0x3ea3ebaf	0.3201575
31	0xbe89cf74	-0.26916087
32	0x3ef635a1	0.4808779
33	0xbecaa97d	-0.39582434
34	0xbf1ba43a	-0.60797465
35	0x3eeebf14	0.46630156
36	0x3f45cf40	0.77269363
37	0xbea80d35	-0.32822576
38	0x3e3c159c	0.18367618
39	0xbf3897cb	-0.7210662
40	0xbf25be25	-0.6474326
41	0x3f25edcf	0.6481599
42	0xbf1a7c23	-0.6034567
43	0xbf0bf7d4	-0.5467503
44	0xbec670f6	-0.38758057
45	0xbf5169cf	-0.81802076
46	0x3eff4bb7	0.49862453
47	0xbeaf1dc5	-0.342024
48	0xbea0fc41	-0.31442454
49	0x3f1dfa89	0.6171041
50	0x3f30b577	0.69026893
51	0xbe8b73cc	-0.27236784
52	0xbeb224b1	-0.34793618
53	0x3c863d1c	0.016386561
54	0xbe98387f	-0.29730603
55	0x3f1a756c	0.6033542
56	0xbef2c1b5	-0.47413412
57	0x3f3b54ef	0.73176473
58	0x3f22d383	0.6360399
59	0x3e9142db	0.2837132
60	0xbf2413ed	-0.64092904
61	0x3f2f00d1	0.6836062
62	0xbf048530	-0.5176573
63	0xbf140ac5	-0.57828933
64	0x3eeaf1c7	0.45887586
65	0xbf258b68	-0.6466584
66	0xbf13d504	-0.5774691
67	0xbf1f3f88	-0.62206316
68	0xbf18edea	-0.5973803
69	0xbf47864d	-0.779393
70	0xbf23ab03	-0.6393282
71	0x3e652866	0.22378692
72	0xbed77ce2	-0.42087466
73	0x3ee7c861	0.45270064
74	0x3e9264dc	0.28592575
75	0x3f138746	0.57628286
76	0xbef017a1	-0.46893027
77	0xbeead652	-0.45866638
78	0x3ea504b9	0.32230166
79	0xbeae3ae8	-0.34029317
80	0x3f213137	0.6296572
81	0x3f4359ee	0.76309097
82	0x3ee04171	0.43799928
83	0x3ecdfc0b	0.40231356
84	0x3f10db66	0.56584775
85	0xbe3b1c2b	-0.18272464
86	0xbea95177	-0.33069965
87	0xbecf2ee3	-0.4046546
88	0xbe9d91aa	-0.30775195
89	0xbe837d8d	-0.25681725
90	0xbf36c4aa	-0.71393836
91	0xbe911ae8	-0.2834084
92	0xbd98181e	-0.07426475
93	0x3e976956	0.29572552
94	0xbe19dff8	-0.15026844
95	0xbea17cfc	-0.31540668
96	0xbf0c319b	-0.5476319
97	0x3eb1fba3	0.34762296
98	0xbebc402f	-0.36767718
99	0xbf2741f4	-0.6533501
100	0xbf116404	-0.56793237
101	0x3f074626	0.52841413
102	0xbec2297f	-0.37922284
103	0xbf03652a	-0.5132624
104	0xbf1fde8b	-0.6244895
105	0x3e7e6c51	0.24846007
106	0xbec6871f	-0.38774964
107	0x3cc26967	0.0237319
108	0x3c4ae8c5	0.012384598
109	0x3f356ca1	0.7086888
110	0xbe99d6f6	-0.30046815
111	0xbe1f5a3e	-0.15561768
112	0x3f01f0d2	0.5075809
113	0xbf1698ff	-0.58827204
114	0xbe8055d7	-0.2506549
115	0xbf40e98c	-0.75356364
116	0x3ee6cf26	0.45079917
117	0xbf0053d8	-0.50127935
118	0xbf122648	-0.5708966
119	0xbe5988f9	-0.21243657
120	0x3f002060	0.500494
121	0xbec483d4	-0.38381827
122	0x3f0f6009	0.56005913
123	0x3f0384a6	0.5137428
124	0xbe48849b	-0.19581835
125	0xbecdd3e2	-0.40200716
126	0x3f1c8e91	0.6115504
127	0xbed49ff7	-0.41528293

weight f4 [128, 128]
0	0x3d44ca4e	0.048044495
1	0xbdf83804	-0.12120059
2	0xbd81419e	-0.063113436
3	0x3d7d77fe	0.06188201
4	0xbccdeccd	-0.02513733
5	0xbd812bc8	-0.06307179
6	0x3d46e202	0.04855538
7	0xbcacfc0e	-0.021116283
8	0x3cba1b18	0.022717997
9	0xbdaa5490	-0.0831691
10	0x3c8b62c7	0.017014874
11	0xbd413577	-0.04717013
12	0xbd10dd1c	-0.035367116
13	0xbdcf572b	-0.10124048
14	0x3cb6746c	0.022272311
15	0x3c4662f1	0.01210855
16	0xbc36a3d8	-0.011147462
17	0xbdfcbd4c	-0.12340793
18	0x3d3c23e7	0.045932677
19	0x3d59f84c	0.05321531
20	0x3a7e2497	0.00096947834
21	0xbdbdba93	-0.09264102
22	0x3d7181d2	0.058961697
23	0xbd15bf6a	-0.0365595
24	0x3c91b6e9	0.017787414
25	0x3d458a4c	0.048227593
26	0xbd2f99c7	-0.042871263
27	0xbd044f71	-0.032302324
28	0x3daaf3d3	0.08347287
29	0xbdb975a2	-0.0905564
30	0xbdbc7ba7	-0.09203272
31	0xbd896798	-0.06709212
32	0xbd89653e	-0.067087635
33	0x3d84b1ef	0.06479251
34	0xbd6fdad8	-0.058558315
35	0xbd657786	-0.05602219
36	0x3a937f74	0.0011253194
37	0xbdc431de	-0.09579824
38	0xbdbab6be	-0.091168866
39	0x3d204206	0.039125465
40	0xbb579fcd	-0.0032901645
41	0xbd70bc1f	-0.058773156
42	0xbcb8eaa8	-0.02257283
43	0x3d958b81	0.07301999
44	0x3d31e902	0.043435104
45	0x3d751586	0.05983498
46	0xbd094aa7	-0.03351846
47	0x3d2700dc	0.040772304
48	0xbdc9a5e1	-0.09846092
49	0xbd36164c	-0.044454858
50	0xbc57aa0e	-0.013163103
51	0xbd476155	-0.048676807
52	0x3d1aec62	0.03782309
53	0x3dabdab1	0.083913215
54	0x3d3d4f5a	0.046218254
55	0x3cce17f6	0.02515791
56	0xbd59e421	-0.053196076
57	0x3be0471b	0.006844414
58	0xbdf7ff45	-0.12109236
59	0xbdf0c264	-0.11755827
60	0x3d17dc6a	0.037075438
61	0xbdbd2e2b	-0.092373215
62	0x3d9c8601	0.07642747
63	0xbb134761	-0.0022472965
64	0xbdaf9e24	-0.08575085
65	0xbc7fd008	-0.015613563
66	0x3b49dbe0	0.0030801222
67	0xbd91e6b9	-0.07124085
68	0xbd4d7a75	-0.050165612
69	0xbd1716d7	-0.036887016
70	0xbcd9bbf7	-0.026578886
71	0xbd3ec9d2	-0.04657919
72	0x3d0490ea	0.032364763
73	0x3d1b3ae6	0.037897967
74	0xbd32a4e4	-0.043614283
75	0x3d330f17	0.043715563
76	0xbd129469	-0.035786066
77	0x3d412d56	0.047162376
78	0x3c303287	0.010754234
79	0x3d8bc595	0.06824795
80	0xbdc5e149	-0.0966211
81	0xbcf82ad1	-0.030293854
82	0x3d2f0812	0.042732306
83	0xbd25a620	-0.040441632
84	0xbd95a357	-0.07306545
85	0xbccfe52c	-0.025377832
86	0x3ca2d754	0.019878067
87	0x3d907a39	0.07054562
88	0xbca4bbc8	-0.020109072
89	0xbd8119cc	-0.063037485
90	0xbdcb02ce	-0.09912644
91	0x3d66f3a6	0.056384705
92	0x3c7f86ba	0.015596086
93	0x3c7fdaf0	0.015616164
94	0x3c78e9d0	0.015192464
95	0xbd1de240	-0.038545847
96	0xbdc258a8	-0.09489566
97	0x3abc3980	0.0014360398
98	0xbd1b6607	-0.037939098
99	0x3d3fd424	0.046833172
100	0x3d20023a	0.039064623
101	0xbd817031	-0.06320227
102	0xbd04e5cd	-0.032445718
103	0xbd3dbe0f	-0.046323832
104	0x3cf10934	0.029423334
105	0xba05c9d9	-0.0005103625
106	0xbdc51acc	-0.09624252
107	0x3d399b03	0.045313846
108	0xbd56f356	-0.052478157
109	0xbdef0b7d	-0.11672113
110	0x3ce369ce	0.027760413
111	0xbd8915dc	-0.066936225
112	0xbd5f65d6	-0.054540478
113	0xbcb55774	-0.022136427
114	0xbc87a0e6	-0.016556215
115	0xbd6d1156	-0.05787786
116	0xbdb6f5d9	-0.089336105
117	0x3d07634d	0.033053685
118	0x3d60cc0a	0.054882087
119	0x3d3389af	0.043832477
120	0xbd2c9fd7	-0.042144623
121	0xbc9f82b4	-0.019471504
122	0xbd7e2722	-0.06204904
123	0xbdd7decf	-0.10540544
124	0x3ccc309c	0.024925523
125	0x3cd68b24	0.026189394
126	0xbdb796d4	-0.08964315
127	0x3d30b5de	0.043142192
128	0x3d15d852	0.036583252
129	0xbcb0f440	-0.021600842
130	0xbcdd4dd6	-0.027014654
131	0xbca1d068	-0.019752696
132	0x3c471a98	0.012152337
133	0x3d2d6aee	0.042338304
134	0xbd959a32	-0.07304801
135	0x3dad983d	0.08476303
136	0x3cef2444	0.029192097
137	0x3caf16ec	0.021373235
138	0xbdad5a67	-0.084645085
139	0x3db50191	0.088381894
140	0xbd89e179	-0.067324586
141	0xbd42035e	-0.047366492
142	0xbda7087f	-0.081559174
143	0xbd457fd9	-0.04821763
144	0x3d8c039f	0.06836628
145	0xbd886850	-0.06660521
146	0x3d699bba	0.057033278
147	0x3c9967ac	0.018726192
148	0xbcbe45e4	-0.023226686
149	0xbd73a983	-0.05948783
150	0x3dacd2cd	0.084386446
151	0x3d9e08ef	0.07716548
152	0xbd596605	-0.05307581
153	0x3d2fbb2a	0.042903103
154	0xbd1b4662	-0.03790892
155	0x3cce11c0	0.025154948
156	0x3b4d08e0	0.0031285807
157	0xbd43bab1	-0.047785465
158	0x3d35d7ea	0.044395365
159	0x3d85ffab	0.065429054
160	0xbc0e2eb0	-0.008678123
161	0xbd94b34b	-0.0726076
162	0x3c9b6ea4	0.018973656
163	0xbbdd5460	-0.006754443
164	0xbb358980	-0.0027700365
165	0xbd8f163f	-0.06986665
166	0xbc982e38	-0.018576726
167	0x3cc96170	0.024582595
168	0x3b4497c0	0.0029997677
169	0xbd3860cb	-0.045014184
170	0xbda22693	-0.07917514
171	0x3d0b3280	0.033983707
172	0xbd8bab4d	-0.068197824
173	0x3da8842d	0.082283355
174	0x3d1512e8	0.036394984
175	0x3d54bb5a	0.051936485
176	0xbd091de3	-0.033475768
177	0xbd924253	-0.071415566
178	0xbda23ac0	-0.07921362
179	0xbd9e14a6	-0.07718782
180	0xbbeda940	-0.007252842
181	0x3aa9cf40	0.0012955442
182	0x3bbec290	0.0058215335
183	0x3db3ee79	0.087857194
184	0x3d127a88	0.035761386
185	0x3cfdff98	0.031005666
186	0xbd57925e	-0.05262982
187	0xbd8b31a1	-0.06796575
188	0x3db47ac9	0.08812482
189	0xbd81c356	-0.063360855
190	0xbc58f788	-0.01324261
191	0xbda929f5	-0.08259956
192	0x3db385cd	0.08765755
193	0xbca6c1ac	-0.020356022
194	0xbd58e798	-0.05295524
195	0xbd32308d	-0.043503333
196	0xbd9647c9	-0.07337911
197	0xbd8cf0ba	-0.068818524
198	0xbdb3fb85	-0.08788208
199	0xbd85d5e3	-0.06534936
200	0x3d1f7c26	0.038936757
201	0x3d2655b6	0.040609084
202	0x3d389836	0.045067035
203	0xbd50e6ac	-0.051001236
204	0xb947d200	-0.0001905635
205	0xbb3455c0	-0.0027516931
206	0x3d2445b6	0.040105544
207	0xbd19f0dc	-0.037583217
208	0xbcc28944	-0.023747094
209	0x3bbe7210	0.005811937
210	0x3cc77878	0.024349436
211	0xbd32650e	-0.043553405
212	0xbca18d10	-0.019720584
213	0x3cd8ecf8	0.026480183
214	0xbd561d5c	-0.052274093
215	0x3cab57f0	0.020915955
216	0x3c264820	0.010149032
217	0xbcc43284	-0.023949869
218	0x3ce66630	0.028124899
219	0xbda72925	-0.081621446
220	0xbc3457a8	-0.011007227
221	0x3bdfd1d0	0.0068304315
222	0x3d27de9e	0.04098379
223	0xbd9b75e7	-0.075908475
224	0xbd20ce5a	-0.039259292
225	0x3d42a6ca	0.047522344
226	0xbd053c91	-0.032528464
227	0xbcb839d4	-0.022488512
228	0x3d4f918a	0.050675906
229	0xbd8fce22	-0.070217386
230	0xbd0af3d0	-0.033923924
231	0x3d65cd22	0.056103833
232	0x3c8b382c	0.016994558
233	0x3cb5a9dc	0.022175722
234	0x3c9a6c50	0.018850476
235	0x3c8c4488	0.017122522
236	0x3cc644ac	0.024202667
237	0x3ce4f168	0.027947143
238	0xbd515fee	-0.051116876
239	0xbd974446	-0.07386069
240	0x3d3f5926	0.046715878
241	0xbc870804	-0.016483314
242	0xbc9cb7e4	-0.019130655
243	0xbd8a6bdb	-0.06758853
244	0x3cf6da44	0.030133374
245	0x3bfbf630	0.00768926
246	0xbda9d380	-0.082922935
247	0x3ccb5da4	0.024824925
248	0xbc7fec20	-0.015620261
249	0xbd853976	-0.065051004
250	0x3d96f3af	0.07370698
251	0xbc9002ac	-0.017579399
252	0x3c8c5e14	0.017134704
253	0x3d643fc2	0.055724867
254	0xbd3ccabf	-0.04609179
255	0xbbfa16c0	-0.0076321065

bias f4 [128]
0	0x3be62028	0.0070228763
1	0x3c6e2908	0.01453615
2	0xbd3bbcfb	-0.045834523
3	0xbdaa9fb7	-0.083312444
4	0x3b699267	0.003564024
5	0x3ebabf12	0.364739
6	0xbda6b9f2	-0.08140935
7	0x3d41cadd	0.047312606
8	0x3ea11b9d	0.3146638
9	0x3d73f738	0.059561938
10	0x3ebd5125	0.3697597
11	0x3ebb21cb	0.3654922
12	0xbda55f71	-0.08074845
13	0xbc0c2367	-0.008553362
14	0x3e9e79a7	0.30952188
15	0xbcb47b5f	-0.022031484
16	0x3d1a18c6	0.037621282
17	0xbd025810	-0.031822264
18	0x3e7bf083	0.24603467
19	0x3eac7df5	0.33689848
20	0xbce82d3f	-0.028341888
21	0x3e5abfbd	0.21362205
22	0x3e9c2c28	0.3050244
23	0x3e9bb1f1	0.30409196
24	0x3d43145a	0.04762683
25	0x3d93558c	0.07194051
26	0xbd792d9b	-0.06083451
27	0x3e53b6c3	0.20675187
28	0x3e8b2faf	0.27184817
29	0xbbf9eaa6	-0.007626849
30	0x3e8b7976	0.27241105
31	0x3d55c81f	0.052192803
32	0x3e3da842	0.18521217
33	0xbe0a46ab	-0.1350352
34	0x3e872289	0.26393536
35	0x3da66041	0.08123828
36	0x3e77cd1b	0.24199335
37	0x3e97b00c	0.296265
38	0xbd0ea013	-0.034820627
39	0x3eaffbda	0.34371835
40	0xbdb7cb43	-0.08974316
41	0xbdec0c1d	-0.11525748
42	0x3c82f28c	0.015984796
43	0x3ea3505b	0.31897244
44	0x3eaa1411	0.33218434
45	0x3e84b285	0.2591745
46	0x3c24b199	0.010052108
47	0xbd16bce2	-0.036801226
48	0xbc797989	-0.01522673
49	0x3ea11ea7	0.31468698
50	0x3eb79e7e	0.35863107
51	0xbd4fa71b	-0.050696474
52	0x3ea8254f	0.32840964
53	0xb8b29d8f	-8.517049e-05
54	0xbd044104	-0.032288566
55	0x3eb86076	0.36011094
56	0x3de4f920	0.11180329
57	0xbb209928	-0.002450535
58	0x3ea6430b	0.32473025
59	0x3e90048a	0.28128463
60	0x3e6b2347	0.22962676
61	0xbddb4632	-0.10706748
62	0x3e86e01e	0.26342863
63	0xbdff8091	-0.12475694
64	0x3d02441e	0.031803243
65	0x3e62ee15	0.22161134
66	0x3e955b22	0.2917109
67	0x3e8db494	0.27676833
68	0x3e9d67de	0.30743307
69	0x3e640879	0.22268857
70	0x3e9e55ed	0.3092493
71	0x3eb2409e	0.34814924
72	0xbdc71515	-0.09720818
73	0x3d6502ad	0.055910755
74	0x3d1e5682	0.03865672
75	0xbc85ccf6	-0.016333085
76	0x3eb3eb05	0.35140243
77	0xbdd261e7	-0.1027258
78	0xbd94882f	-0.072525375
79	0x3e854bf0	0.26034498
80	0xbcfa7f32	-0.03057823
81	0x3d453320	0.04814446
82	0x3e64d12f	0.22345422
83	0x3e83b8e2	0.25726992
84	0xbcab7b11	-0.020932706
85	0xbcce9d5f	-0.025221525
86	0x3ced60a2	0.028976742
87	0x3eb0859f	0.34476945
88	0x3d423dcd	0.04742222
89	0x3e41f2e9	0.18940319
90	0x3e8cbbf2	0.2748714
91	0x3e79c249	0.2439052
92	0x3e7dc7ad	0.24783202
93	0x3ebec195	0.37257066
94	0x3d717ce3	0.058956992
95	0x3c18c278	0.009323709
96	0x3eb3e42e	0.35135025
97	0xbc8e232a	-0.017350752
98	0x3d7b47f7	0.061347928
99	0x3e70f660	0.23531485
100	0x3d0458a2	0.03231109
101	0xbd4eb65b	-0.050466876
102	0x3e8c2a9e	0.27376264
103	0x3e76d728	0.24105513
104	0x3e8e4e0f	0.2779393
105	0x3e830d72	0.25596195
106	0xbce5cbe0	-0.028051317
107	0x3ebf5148	0.373667
108	0xbd2e278a	-0.042518176
109	0xbd25e5b8	-0.04050228
110	0x3e5d4b68	0.21610796
111	0x3e40fe24	0.18846947
112	0x3eaf4b6b	0.34237227
113	0x3e9e3ad3	0.30904254
114	0x3c8f82af	0.01751837
115	0xbd997a2f	-0.07494008
116	0x3e76b506	0.24092492
117	0x3ea96d8a	0.33091384
118	0xbd801d87	-0.06255632
119	0x3e480f35	0.19537051
120	0xbcdb5979	-0.026776062
121	0xbcd8bd80	-0.026457548
122	0x3eb002b6	0.34377068
123	0xbcf9269f	-0.030413924
124	0x3e898cd7	0.26865265
125	0x3e6dd2fd	0.23225017
126	0x3e8d8d0a	0.27646667
127	0x3e2ce855	0.16885503

weight f4 [2, 128]
0	0xbc214671	-0.009843455
1	0xbd5d6f07	-0.054060962
2	0xbd9ffd3e	-0.07811974
3	0x3c4f28a8	0.012643971
4	0xbd85dc5b	-0.0653617
5	0x3e808a82	0.25105673
6	0x3b845627	0.0040385905
7	0xbd9e33c4	-0.07724717
8	0x3eacfff3	0.33789024
9	0xbd6d58ad	-0.057945896
10	0x3ead1d5c	0.33811462
11	0x3e510c1a	0.20414773
12	0x3c401575	0.011723866
13	0xbca3baff	-0.019986628
14	0x3e1f5e77	0.15563379
15	0x3b1f5e3c	0.0024317643
16	0x3d387082	0.04502917
17	0xbc88a243	-0.016678935
18	0x3ea9d48b	0.3316997
19	0x3e94496c	0.28962266
20	0xbd5710bb	-0.05250619
21	0x3eafd4c8	0.34342027
22	0x3e49c455	0.19703801
23	0x3ea4007c	0.3203162
24	0xbd6da367	-0.05801716
25	0xbce800fe	-0.028320786
26	0x3c55f8e9	0.013059833
27	0x3e9826b7	0.29717037
28	0x3e95301e	0.29138273
29	0xbcaa8fc8	-0.020820513
30	0x3e6903d7	0.22755371
31	0xbbc41a3a	-0.0059845718
32	0x3ea111cc	0.3145889
33	0xbeb14f78	-0.34630942
34	0x3e886314	0.2663809
35	0xbd7a74b5	-0.061146457
36	0x3e8cfa97	0.27534935
37	0x3e8110f7	0.25208256
38	0x3a78a183	0.00094845163
39	0x3ea55fd4	0.32299674
40	0xbd29aa77	-0.041422334
41	0x3cc1e454	0.023668446
42	0xbbff0bc8	-0.007783387
43	0x3e7a22ed	0.24427386
44	0x3eac3550	0.33634424
45	0x3e82dd3f	0.25559422
46	0xbd22497b	-0.039620858
47	0xbd4a5448	-0.049396783
48	0xbd5b383e	-0.053520434
49	0x3e81c489	0.25345257
50	0x3e947f94	0.29003584
51	0xbd7d1952	-0.061791725
52	0x3e94b3e3	0.29043493
53	0xbd648e2c	-0.05579965
54	0x3cf41d65	0.029799173
55	0x3eb6f568	0.35734105
56	0x3e8e1896	0.27753133
57	0xbc8ed568	-0.017435744
58	0x3ea7c627	0.32768366
59	0x3e914db4	0.28379595
60	0x3e8eac6d	0.27865925
61	0x3d26b642	0.04070116
62	0x3e8e9548	0.27848268
63	0x3c81992a	0.015820105
64	0x3d29ee3f	0.041486975
65	0x3eb44c9c	0.35214698
66	0x3e9ba38a	0.30398208
67	0x3e9d240b	0.3069156
68	0x3e89fd23	0.2695094
69	0x3e968606	0.29399127
70	0x3e9c5aeb	0.30538115
71	0x3e395c0b	0.18101518
72	0x3c609e22	0.013709577
73	0xbd249978	-0.04018542
74	0xbd18f6da	-0.03734479
75	0xbb90d73e	-0.00442019
76	0x3e39d62d	0.18148108
77	0xbc8d8b88	-0.017278448
78	0xbd90863d	-0.07056854
79	0x3ea91c95	0.3302962
80	0xbba39b90	-0.0049929097
81	0xbd513329	-0.05107418
82	0x3ea1db92	0.3161283
83	0x3e9d8fbc	0.30773723
84	0x3c810c98	0.015753075
85	0x3bf68768	0.007523466
86	0xbd8c3de0	-0.06847739
87	0x3e9cf71e	0.30657285
88	0xbd248809	-0.040168796
89	0x3eb3ddea	0.35130244
90	0x3e88ee22	0.2674418
91	0x3e940e5b	0.28917202
92	0x3ea3ada3	0.31968412
93	0x3e9b3927	0.3031704
94	0xbc15ac12	-0.009135263
95	0xbd49901e	-0.049209706
96	0x3e59dca8	0.2127558
97	0xbd595f82	-0.0530696
98	0xbd412942	-0.047158487
99	0x3ea945b0	0.3306098
100	0xbd1e654e	-0.03867083
101	0xbb7529db	-0.003740898
102	0x3eaf9321	0.34291938
103	0x3e80536b	0.25063643
104	0x3e966b84	0.29378903
105	0x3e8d8eff	0.2764816
106	0xbcbd37af	-0.023097841
107	0x3ea007ba	0.31255895
108	0xbd20eb8f	-0.039287146
109	0xbd5f190b	-0.054467242
110	0x3e9149f5	0.28376737
111	0x3eafaae5	0.3431007
112	0x3e698508	0.22804654
113	0x3e77cc68	0.24199069
114	0xbd2a94ed	-0.041645933
115	0x3d858835	0.0652012
116	0x3e936c5c	0.2879361
117	0x3e810233	0.2519699
118	0x3d3ea7e6	0.04654684
119	0x3eac7681	0.3368416
120	0xbd04413d	-0.03228878
121	0x3d669c96	0.056301676
122	0x3ead6269	0.33864143
123	0xbd0ff840	-0.03514886
124	0x3e7e2443	0.2481852
125	0x3ea02688	0.31279397
126	0x3e9d6776	0.30742997
127	0x3d89da0e	0.06731044
128	0xbd886541	-0.06659938
129	0xbd2df40a	-0.042469062
130	0x3d595f81	0.053069595
131	0xbba32bc9	-0.004979585
132	0xbd09a394	-0.033603266
133	0x3ea15c99	0.3151596
134	0x3c3dddf7	0.011588565
135	0xbc7ed5bb	-0.015553887
136	0x3e10ced7	0.14141403
137	0xbd3d209c	-0.046173677
138	0x3e65d68c	0.22445124
139	0x3eb7ca45	0.35896507
140	0xbc651cda	-0.0139839295
141	0x3d8c9d08	0.06865889
142	0x3eb5ec10	0.35531664
143	0xbb7a4882	-0.003819019
144	0x3da38629	0.079845734
145	0xbc69ef9e	-0.014278321
146	0x3ead46db	0.3384312
147	0x3eac3f33	0.33641967
148	0x3cf2c046	0.029632699
149	0x3e280840	0.16409397
150	0x3ebad1d6	0.36488217
151	0x3ea7a839	0.3274553
152	0x3acd8e9c	0.001568276
153	0x3c401d58	0.011725746
154	0xba9e1cc2	-0.0012063014
155	0x3e87f947	0.2655737
156	0x3eb0cc3b	0.34530815
157	0xbbe9336a	-0.0071167247
158	0x3eb709dd	0.35749713
159	0x3c2ecc79	0.010668867
160	0x3d599f2a	0.053130306
161	0xbf30ca27	-0.6905846
162	0x3e8ad7d3	0.27117786
163	0x3d1cc36a	0.0382723
164	0x3e89e515	0.26932588
165	0x3ead9718	0.33904338
166	0xbd5ccb5e	-0.053904884
167	0x3e8d2e41	0.2757435
168	0xbcb56772	-0.022144053
169	0x3b8481d9	0.0040437994
170	0xbc9e5189	-0.019325988
171	0x3eaec5df	0.3413534
172	0x3ea688a5	0.32526127
173	0x3e5486e4	0.20754582
174	0xbd0eb7c5	-0.034843225
175	0xbc503e37	-0.012710146
176	0xbd636868	-0.05551949
177	0x3ea75248	0.32679963
178	0x3e7d5e2e	0.24742958
179	0xbbb74afc	-0.0055936556
180	0x3e97caa6	0.29646796
181	0xbd4488ac	-0.047981903
182	0x3cb82cc0	0.022482276
183	0x3e5de9cd	0.21671219
184	0xbcc6df41	-0.024276378
185	0xbd8940b4	-0.06701794
186	0x3ea0ab55	0.31380716
187	0x3e944d69	0.2896531
188	0x3e2fc8ed	0.17166491
189	0xbbbc4180	-0.005745113
190	0x3ea84b49	0.32869938
191	0x3d260169	0.04052869
192	0xbd7bb01a	-0.06144724
193	0x3e9fb604	0.31193554
194	0x3e7034bf	0.23457621
195	0x3e7a393b	0.24435894
196	0x3e9c177e	0.30486673
197	0x3c34247b	0.010995026
198	0x3eb6408b	0.35596117
199	0x3eb52651	0.35380796
200	0x3d34617a	0.044038273
201	0xbd3e131d	-0.046404947
202	0x3d27176b	0.040793817
203	0xbb6d1a7d	-0.0036179118
204	0x3eb46b7c	0.35238254
205	0x3c4d4581	0.012528778
206	0xbc5f12d7	-0.013615332
207	0x3eac5aeb	0.33663115
208	0xbd381e5d	-0.04495083
209	0xbd68fbe6	-0.056880854
210	0x3e94c3e2	0.29055697
211	0x3e9b04d4	0.3027712
212	0xbd02a041	-0.03189111
213	0xbb341d7a	-0.002748339
214	0x3d3703ec	0.044681475
215	0x3ea810d5	0.32825342
216	0xbd3b5ae1	-0.045740966
217	0x3e2b43e8	0.16725123
218	0x3e9d30cd	0.30701295
219	0x3e9b36a9	0.3031514
220	0x3eb35990	0.35029268
221	0x3e9ca5b7	0.3059518
222	0xbcde39b3	-0.027127123
223	0x3d314043	0.043274175
224	0x3eba20d7	0.3635318
225	0x3c04ab81	0.00809753
226	0x3d6d6a07	0.057962444
227	0x3e85f442	0.26162916
228	0xbd8a328e	-0.06747924
229	0xbd6ea6cf	-0.05826455
230	0x3e333512	0.17500713
231	0x3e94c677	0.29057667
232	0x3ea63c84	0.32468045
233	0x3ea797ac	0.32732904
234	0x3ca28a1e	0.01984125
235	0x3e8eb946	0.27875727
236	0xbbf97e7b	-0.0076139546
237	0x3d8936f7	0.06699937
238	0x3e9470b0	0.28992224
239	0x3e48c398	0.19605863
240	0x3e9b25d2	0.30302292
241	0x3eb3ddc1	0.35130122
242	0xbd37d76e	-0.044883184
243	0x3c7042b8	0.0146643445
244	0x3dfd9d6a	0.1238354
245	0x3eab7f07	0.33495352
246	0x3d6f97f6	0.05849453
247	0x3d96910b	0.073518835
248	0xbcec200b	-0.028823873
249	0xbc179838	-0.0092526
250	0x3e8d568e	0.27605098
251	0xbd49f5fc	-0.049306855
252	0x3eb636b0	0.35588598
253	0x3e6218fc	0.22079843
254	0x3ea7ceaf	0.32774875
255	0x3ea12d3d	0.31479827

bias f4 [2]
0	0x3e8b916f	0.27259395
1	0x3e9f92d2	0.31166703
