data/1008CartPole-v0_dqn_dueling/1008CartPole-v0_dqn_dueling_s0/pyt_save/model.pt (torch, 140807 bytes, 9 tensors)

weight f4 [128, 4]
0	0xbd3b9897	-0.045799818
1	0x3f011f06	0.50437963
2	0x3ecc49fd	0.399002
3	0x3ee72332	0.4514404
4	0x3efbe74b	0.491999
5	0x3e831046	0.25598353
6	0x3e939a0b	0.28828463
7	0x3dd3ab96	0.10335462
8	0xbdfb4903	-0.12269785
9	0xbe7cca12	-0.24686459
10	0xbe9d7bd2	-0.3075853
11	0xbdd88f54	-0.10574213
12	0x3dede387	0.11615663
13	0x3e0e3dfc	0.13890833
14	0xbe194fd9	-0.14971866
15	0xbe6bb208	-0.23017132
16	0x3d5c9e80	0.053862095
17	0x3e2c2ae8	0.16813242
18	0x3d884c49	0.06655175
19	0xbde9f4b2	-0.11423625
20	0x3f184235	0.59476024
21	0xbdb1944a	-0.08670862
22	0x3e28b0ae	0.16473648
23	0xbe0f4de6	-0.1399456
24	0xbe0b9e67	-0.13634644
25	0xbec0cc5c	-0.37655914
26	0xbf9a8960	-1.2073174
27	0xbec8e3b3	-0.3923622
28	0x3e7675d0	0.2406838
29	0xbe089a53	-0.1334012
30	0xbfb18248	-1.3867884
31	0xbe2585a6	-0.16164264
32	0x3e733dda	0.23754063
33	0x3eb3cfb9	0.35119417
34	0xbf090030	-0.5351591
35	0x3e420337	0.18946539
36	0xbb63e4b8	-0.0034773778
37	0x3dbd473f	0.09242105
38	0xbf2845d5	-0.65731555
39	0x3e64c2cf	0.22339939
40	0x3e87155f	0.26383492
41	0x3e8213be	0.25405687
42	0x3f660d8e	0.8986443
43	0x3e246647	0.1605464
44	0xbe715b5b	-0.23570006
45	0x3d80c0c8	0.0628677
46	0x3de8ab75	0.11360828
47	0xbea44d31	-0.32090142
48	0x3f082e62	0.53195775
49	0xbee5dd4e	-0.44895405
50	0x3c27e94b	0.0102484925
51	0xbe86b9c4	-0.26313603
52	0xbed5290e	-0.41632885
53	0xbeb17d47	-0.34665892
54	0xbf1fcc6e	-0.6242131
55	0xbdc8dafb	-0.09807392
56	0x3e437a67	0.19089662
57	0xbd3a6b92	-0.045512743
58	0xbc058531	-0.008149431
59	0x3b0f88b6	0.0021901554
60	0x3c20c0d5	0.0098116
61	0xbe6cb7a2	-0.23116925
62	0x3f358d2e	0.7091855
63	0x3e499287	0.19684802
64	0xbd132be1	-0.035930518
65	0x3e5f53c4	0.21809298
66	0x3e788a3e	0.24271485
67	0x393afcca	0.00017832514
68	0x3e8b2af8	0.2718122
69	0x3c118b87	0.008883364
70	0x3dc79345	0.09744886
71	0x3dbf46c9	0.09339673
72	0x3cbbd796	0.022929948
73	0xbd373471	-0.044727746
74	0xbeb5bf0d	-0.35497323
75	0xbcf7550f	-0.030191926
76	0x3e4c4fc7	0.19952308
77	0x3e6d7442	0.2318888
78	0xbf474b7a	-0.77849543
79	0x3d8b74a9	0.068093605
80	0xbec27fc2	-0.37988096
81	0xbef2a31d	-0.4739007
82	0xbdd66c05	-0.10469822
83	0xbe1b9b10	-0.1519587
84	0x3d376993	0.044778418
85	0xbdc7ce33	-0.09756126
86	0x3db4b271	0.088230975
87	0xbe1ed664	-0.15511471
88	0x3d26e8d2	0.04074938
89	0xbd368d71	-0.044568483
90	0x3e63b5e7	0.22237359
91	0x3e33215d	0.17493196
92	0x3eae2c93	0.34018382
93	0x3dd99d8f	0.10625755
94	0xbee7541d	-0.4518136
95	0xbe211f17	-0.15734516
96	0x3ec08be7	0.37606737
97	0x3de6f6fc	0.11277577
98	0x3ecb5e48	0.39720368
99	0x3d93ed6a	0.072230175
100	0x3f180671	0.5938483
101	0x3e3a4812	0.18191555
102	0xbecc19d9	-0.3986347
103	0xba815a13	-0.0009868763
104	0xbddb48c0	-0.10707235
105	0x3db14541	0.08655787
106	0x3fe2eed8	1.7729139
107	0x3e67f413	0.226517
108	0x3d865dc0	0.0656085
109	0x3e6fe136	0.23425755
110	0x3ee2b609	0.44279507
111	0xbc8aae91	-0.016928943
112	0x3e691c3c	0.22764677
113	0x3edc31fb	0.43006882
114	0xbeb9b815	-0.36273256
115	0x3e670a83	0.22562604
116	0xbe84c269	-0.25929573
117	0x3e929235	0.28627172
118	0x3ed072ec	0.40712678
119	0x3e1e2a7d	0.15445895
120	0xbe8eb9d2	-0.27876145
121	0x3d72b780	0.05925703
122	0x3f05f62a	0.5232874
123	0xbdf20081	-0.11816502
124	0xbcca4266	-0.024689864
125	0x3e2d827a	0.16944304
126	0xbc6c39db	-0.014418091
127	0xbe648846	-0.22317609
128	0xbd0c38fc	-0.034234032
129	0x3d871cf7	0.065973215
130	0xbf16114d	-0.5862015
131	0xbe8848ab	-0.2661794
132	0x3ea664ce	0.32498783
133	0xbe237711	-0.15963389
134	0xbe95ebff	-0.29281613
135	0x3dcaf973	0.0991086
136	0x3e6d0af2	0.23148707
137	0xbd6747ed	-0.05646508
138	0x3f87082f	1.0549372
139	0x3d595560	0.053059936
140	0xbe63a9b4	-0.22232705
141	0xbea46390	-0.3210721
142	0xbf829fb5	-1.0204989
143	0xbe909087	-0.28235266
144	0x3e9f64a4	0.3113147
145	0xbdbf1299	-0.09329719
146	0xbeb21822	-0.34784037
147	0x3e3403ca	0.1757957
148	0xbd0647be	-0.032783262
149	0x3e8e207d	0.27759162
150	0xbde74305	-0.1129208
151	0x3daa5177	0.083163194
152	0x3eb86d66	0.36020964
153	0x3e890053	0.2675806
154	0x3e70c3f1	0.23512246
155	0xbbb7130c	-0.0055869874
156	0xbe9f20a0	-0.31079578
157	0x3e3267e3	0.17422442
158	0x3ecc4615	0.39897218
159	0x3e44b4d9	0.19209613
160	0x3dde8a9d	0.10866282
161	0xbd8cd806	-0.06877141
162	0xbe14ad85	-0.14519317
163	0x3df2e52b	0.118601166
164	0xbd83a811	-0.064285405
165	0x3e3aa570	0.18227172
166	0x3feb1891	1.8366872
167	0x3eac1492	0.33609444
168	0x3ea72c15	0.3265082
169	0xbed56435	-0.41678014
170	0x3e2e9d6c	0.17052239
171	0xbe9f5837	-0.3112199
172	0xbd222c09	-0.039592776
173	0x3e7af2a9	0.2450663
174	0x3ec36364	0.38161767
175	0x3e89f087	0.2694132
176	0xbe2627b0	-0.16226077
177	0x3d39b46c	0.04533808
178	0x3f0e6f70	0.5563879
179	0x3db6593f	0.08903741
180	0xbde7544a	-0.11295374
181	0x3e8022fa	0.25026685
182	0x3e9ec89c	0.31012428
183	0xbdcc4cb1	-0.09975565
184	0xbebd23ed	-0.36941472
185	0x3d370031	0.044677917
186	0xbdb10ad4	-0.086446434
187	0x3dbccdbf	0.092189305
188	0xbf376a75	-0.71646816
189	0xbe1e6114	-0.1546672
190	0xbf0119e9	-0.5043016
191	0xbd85de2f	-0.06536519
192	0x3d411ef9	0.04714868
193	0xbdda0952	-0.10646309
194	0x3eb2099c	0.34772956
195	0x3e800b43	0.25008592
196	0x3c55d5de	0.013051478
197	0x3e3bbd36	0.18333897
198	0x3cbbebbb	0.022939553
199	0xbe80cb1f	-0.2515497
200	0xbe11f694	-0.14254218
201	0xbe828f0b	-0.25499758
202	0x3e75b47e	0.23994634
203	0x3de4837f	0.111578934
204	0xbe31be00	-0.17357635
205	0x3cf51b95	0.029920379
206	0x3f090643	0.5352518
207	0xbe898561	-0.26859573
208	0xbf18ae4e	-0.5964097
209	0xbe06f4de	-0.13179347
210	0x3db47c4c	0.0881277
211	0x3a97e0c2	0.0011587369
212	0x3d248012	0.0401612
213	0xbe1d472b	-0.1535918
214	0x3ec35f82	0.38158804
215	0x3e78049b	0.24220507
216	0xbf2d847f	-0.677803
217	0x3d718b91	0.05897099
218	0x3f190c7d	0.5978468
219	0x3df32880	0.11872959
220	0x3d0de5b1	0.03464288
221	0xbd915ced	-0.07097802
222	0xbebfff0b	-0.3749927
223	0xbe1c71f7	-0.15277849
224	0x3caf7a22	0.021420542
225	0xbe2042d1	-0.15650488
226	0xbee5101d	-0.44738856
227	0xbe83b100	-0.25720978
228	0x3e33f5fd	0.17574306
229	0x3ec8bc31	0.3920608
230	0x3dd56fd2	0.10421719
231	0x3e1d037b	0.15333359
232	0xbdb99159	-0.09060926
233	0x3dff01ec	0.124515384
234	0xbeae9a42	-0.34102064
235	0x3e8a47bc	0.27007854
236	0xbf2eb29d	-0.6824129
237	0xbd1898c9	-0.037255082
238	0xbedebcb5	-0.43503347
239	0xbafb7d60	-0.0019187145
240	0xbe0b63f6	-0.13612351
241	0x3e95fd9f	0.2929506
242	0x3ecb9e8e	0.39769405
243	0x3ead5646	0.33854884
244	0xbf057fe6	-0.5214828
245	0xbe51c63b	-0.20485775
246	0xbf0711b2	-0.52761376
247	0xbe10aa30	-0.14127421
248	0xbecd3cb9	-0.4008539
249	0xbe85bef8	-0.2612226
250	0xbf88f2c0	-1.0699081
251	0xbe8abf60	-0.27099133
252	0xbe8c7f84	-0.27441037
253	0x3df6369e	0.12022136
254	0x3ed81cf8	0.422096
255	0xbdc03685	-0.09385399

bias f4 [128]
0	0xbf153c77	-0.5829539
1	0xbd9dbb7c	-0.077017754
2	0x3f139467	0.5764832
3	0x3f428e71	0.759986
4	0x3f3274f8	0.6970973
5	0xbd9db986	-0.077014014
6	0xbeb0bb59	-0.34517935
7	0xbe75ba6a	-0.23996893
8	0x3edc7bdb	0.43063244
9	0x3e8dc20f	0.27687117
10	0xbe28c75a	-0.16482297
11	0xbf22ad0f	-0.63545316
12	0x3f145263	0.5793821
13	0xbe786a9a	-0.24259415
14	0x3f2750c7	0.6535763
15	0xbf1d2ce1	-0.61396605
16	0x3ef15c45	0.4714071
17	0xbf312673	-0.69199294
18	0xbe865fc4	-0.26244938
19	0x3dbe12d2	0.092809334
20	0x3e9a90c0	0.3018856
21	0x3e9f11e5	0.3106834
22	0xbef98c83	-0.48740014
23	0xbf16a835	-0.58850414
24	0xbea1061f	-0.31449983
25	0xbef25f9f	-0.47338578
26	0xbee16180	-0.440197
27	0x3f14f16b	0.58180875
28	0x3edb6f42	0.4285832
29	0xbeb21ec6	-0.34789103
30	0x3efdedae	0.49595398
31	0x3f41bc56	0.75678
32	0xbf1cb867	-0.61218876
33	0x3f1b0617	0.6055617
34	0xbf006112	-0.5014812
35	0xbe8c1dd8	-0.2736652
36	0x3f42cb6a	0.76091635
37	0x3f215fa0	0.6303654
38	0xbe2621ba	-0.16223803
39	0x3e4e2b2c	0.20133656
40	0x3eadbbd7	0.33932373
41	0xbed7504d	-0.42053452
42	0x3e00bb80	0.12571526
43	0x3f201f5a	0.6254784
44	0x3f0b4e94	0.54416776
45	0x3f430542	0.761799
46	0xbf349c76	-0.7055124
47	0x3efb23d3	0.4905077
48	0x3ebca670	0.36845732
49	0x3f22ce32	0.6359588
50	0x3f19b9f1	0.6004935
51	0x3f29239f	0.6606998
52	0x3ddf1365	0.10892371
53	0xbf5a4385	-0.85259277
54	0xbdfdf836	-0.12400858
55	0x3f010033	0.5039093
56	0x3f2484ce	0.64265144
57	0x3f216a39	0.6305271
58	0x3ea5f33d	0.3241214
59	0xbdde35d1	-0.108501084
60	0x3f17281c	0.5904558
61	0x3e2e4d8f	0.17021774
62	0xbea61bb7	-0.3244302
63	0x3ee621aa	0.4494756
64	0xbed282d9	-0.41115454
65	0x3ebeb403	0.37246713
66	0xbf0dce0a	-0.55392516
67	0xbee07e29	-0.43846253
68	0xbf03855f	-0.51375383
69	0xbf1a7f57	-0.60350555
70	0x3f2ceb20	0.6754627
71	0xbedf77d0	-0.43646097
72	0xbf114b6e	-0.5675572
73	0x3f35f9de	0.7108439
74	0xbeb30d6b	-0.34971175
75	0xbf106931	-0.5641051
76	0x3f20d937	0.62831444
77	0xbeda815d	-0.4267682
78	0xbf5663f8	-0.8374629
79	0x3da198c8	0.07890469
80	0x3f0c67ba	0.54845774
81	0xbeda6dc8	-0.4266188
82	0xbf0847c0	-0.5323448
83	0xbed33d1b	-0.41257557
84	0x3ee505cd	0.44730988
85	0x3e895db5	0.26829305
86	0x3f091d07	0.5355992
87	0x3f047bca	0.5175139
88	0x3f378f03	0.71702594
89	0x3e34490b	0.17605989
90	0x3e306440	0.17225742
91	0x3ed063f7	0.40701267
92	0xbf02c591	-0.5108271
93	0xbeab351d	-0.3343896
94	0xbf053475	-0.5203317
95	0x3f17d6ac	0.5931194
96	0xbe286aa7	-0.16446935
97	0xbd2ea453	-0.04263718
98	0xbee8a728	-0.4544003
99	0xbf01ea6b	-0.5074832
100	0xbf02184a	-0.5081831
101	0xbeda4c59	-0.42636374
102	0x3e3fbd98	0.18724668
103	0xbf13b701	-0.57701117
104	0x3e9b7e78	0.30369925
105	0xbcfa4f7f	-0.030555485
106	0x3f1992f5	0.59989864
107	0xbee9895a	-0.45612603
108	0xbe4e1f55	-0.2012914
109	0xbea9f41a	-0.33194047
110	0xbefd41c0	-0.49464226
111	0x3f1cbb6b	0.6122348
112	0xbf11d72d	-0.5696896
113	0xbef9799c	-0.48725593
114	0x3e9711ad	0.29505673
115	0xbe248502	-0.16066363
116	0x3d6c23d3	0.057651352
117	0x3f072da0	0.52803993
118	0xbf029754	-0.5101216
119	0x3ee30eb8	0.44347167
120	0xbebe8b05	-0.37215438
121	0xbebeead6	-0.3728854
122	0x3f2ac05f	0.66699785
123	0x3ed1c46c	0.4097017
124	0xbed96e0b	-0.4246677
125	0x3f1973b1	0.59942156
126	0xbe82d789	-0.25555065
127	0xbec053a6	-0.3756382

weight f4 [128, 128]
0	0x3d97c919	0.07411403
1	0x3d9d6b8a	0.07686527
2	0xbdce16a0	-0.10062909
3	0xbd15d607	-0.036581066
4	0x3cf7c3e9	0.030244784
5	0x3d8bf692	0.06834139
6	0xbdb1b80e	-0.08677684
7	0x3cd2bc21	0.025724472
8	0x3cbdc173	0.023163533
9	0xbca37a26	-0.019955706
10	0x3d8d94bd	0.06913135
11	0x3d267384	0.040637508
12	0xbdae0908	-0.08497816
13	0xbbe65d7e	-0.007030188
14	0xbd8492ec	-0.064733356
15	0xbc6cd458	-0.014454924
16	0x3d139d9b	0.036038976
17	0x3cc4a96a	0.024006564
18	0xbcac93f8	-0.02106665
19	0xbd27ee3b	-0.04099868
20	0xbd23216d	-0.0398268
21	0xbdb8bd63	-0.09020498
22	0xbd3ae1ed	-0.045625616
23	0x3c9914e7	0.018686725
24	0xbbec8cef	-0.007218949
25	0xbdb4e7b1	-0.08833254
26	0xbd9ee8ad	-0.07759223
27	0xbdccdebe	-0.10003422
28	0xbd9cf45b	-0.076637946
29	0x3cdf00a0	0.027221978
30	0x3d18e6c8	0.037329465
31	0xbbb47906	-0.005507591
32	0x3c8b45f0	0.017001122
33	0xbdce5a94	-0.1007587
34	0x3cc847ec	0.024448358
35	0xbdab1a34	-0.08354607
36	0xbcf4daa1	-0.029889407
37	0x3d978a42	0.073994175
38	0x3cab8d0d	0.020941282
39	0xbdd3e026	-0.10345487
40	0xbc215f66	-0.009849405
41	0x3c827f33	0.015929794
42	0x3d6f624b	0.05844335
43	0x3d7af95b	0.06127296
44	0xbd3621fa	-0.044465996
45	0xbcf0917a	-0.029366244
46	0x3d9ac6c5	0.075574435
47	0x3d6f29aa	0.058389343
48	0x3dac61e7	0.08417111
49	0x3d8e9956	0.0696284
50	0x3d0ba36f	0.03409141
51	0xbd98c0c2	-0.07458641
52	0x3d055d86	0.032559894
53	0xbdb0c24e	-0.08630811
54	0x398f1dc2	0.00027297257
55	0xbcac8383	-0.021058803
56	0x3d705461	0.05867422
57	0x3d999788	0.074996054
58	0x3d9394e3	0.07206132
59	0x3d803b2b	0.062612854
60	0x3d908a2e	0.07057606
61	0x3d99c4b1	0.07508219
62	0xbd034a2d	-0.03205316
63	0xbcb2151a	-0.021738578
64	0x3d1d8ed6	0.038466297
65	0xbcb0e863	-0.021595186
66	0x3d342771	0.043982927
67	0x3d3d668a	0.046240367
68	0x3db39e43	0.087704204
69	0xbc94cbe0	-0.018163621
70	0xbb239e8d	-0.002496633
71	0x3c95ed7e	0.018301722
72	0x3d1cfc16	0.038326345
73	0xbcaafd7b	-0.020872822
74	0xbd7e9972	-0.062158056
75	0xbdaa3eda	-0.08312769
76	0xbdb22a0e	-0.086994275
77	0xbd38f6f3	-0.045157384
78	0x3a118f00	0.00055526197
79	0x3d31002e	0.043213062
80	0x3b495182	0.0030718748
81	0xbd80c192	-0.062869206
82	0xbd7991a0	-0.060929894
83	0xbd3862f9	-0.045016263
84	0xbc4a8587	-0.012360937
85	0x3d7edcc7	0.06222227
86	0x3d55e28b	0.052218
87	0xbd2d061a	-0.042242147
88	0x3cf44cab	0.029821714
89	0x3da8786f	0.08226096
90	0xbb8afe21	-0.0042417203
91	0xbda05384	-0.07828429
92	0x3ca4f728	0.020137385
93	0x3d8d40e1	0.0689714
94	0x3d77bcd6	0.060482822
95	0xbb847409	-0.004042153
96	0x3da3dd7f	0.080012314
97	0xbc9f0350	-0.01941076
98	0x3da42031	0.080139525
99	0x3d20cc55	0.039257366
100	0xbd155b8a	-0.03646425
101	0xba31bd80	-0.0006780252
102	0xbd649398	-0.05580482
103	0xbdb3d6f1	-0.08781231
104	0xbc012496	-0.007882258
105	0xbd9d37e2	-0.076766744
106	0xbd1440a3	-0.036194455
107	0x3d5d8566	0.054082297
108	0x3d229766	0.039695166
109	0xbc89c260	-0.016816318
110	0x3d9f118b	0.07767018
111	0xbc8687e7	-0.016422225
112	0xbdae09c1	-0.08497954
113	0x3cc896b6	0.024485927
114	0xbc55f2ca	-0.013058374
115	0xbd4181a4	-0.047242776
116	0x3d8a417d	0.06750772
117	0x3a84bc1c	0.0010126862
118	0xbdc067b3	-0.09394779
119	0x3c4af068	0.012386419
120	0xbd48f02e	-0.04905718
121	0x3cc38f84	0.023872145
122	0xbd9f7706	-0.07786374
123	0x3d29db02	0.041468628
124	0xbbb56150	-0.005535282
125	0xbd62c833	-0.055366706
126	0xbcfe338c	-0.031030439
127	0x3d4172b6	0.047228537
128	0x3d668122	0.056275494
129	0xbd8f48bc	-0.06996295
130	0xbd8137d4	-0.063094765
131	0xbd242f19	-0.04008398
132	0xbde6407f	-0.112427704
133	0x3d0fb5e3	0.03508557
134	0x3cc195f6	0.023631077
135	0xbd8737dc	-0.06602451
136	0x3d8b2fe1	0.067962416
137	0xbda38639	-0.07984585
138	0x3d1f015f	0.038819667
139	0xbd28d030	-0.041214168
140	0xbd66cf80	-0.05635023
141	0xbaade4a8	-0.0013266997
142	0xbdca70b3	-0.09884777
143	0x3d63a61c	0.055578336
144	0x3d09056e	0.033452444
145	0xbda7aea2	-0.081876054
146	0xbc8bd148	-0.017067567
147	0xbd18d5c5	-0.03731324
148	0xbd6d5b70	-0.05794853
149	0x3d1b8d1b	0.037976366
150	0xbd5fba63	-0.05462111
151	0xbccdb3fa	-0.025110234
152	0x3c25c907	0.010118729
153	0xbc585c20	-0.013205558
154	0x3ccc42f4	0.02493427
155	0x3d483ada	0.04888425
156	0x3b94f1f8	0.0045454465
157	0x3d0c1dc0	0.03420806
158	0x3c7f0775	0.015565743
159	0xbcc1a4ca	-0.023638148
160	0xbce8ad2c	-0.028402887
161	0xbd8f5f4f	-0.070006005
162	0x3c972a30	0.018452734
163	0xbda44149	-0.08020265
164	0x3c3485b9	0.01101821
165	0xbdbc4b0e	-0.09194003
166	0xbd903fba	-0.07043405
167	0x3c9c9269	0.019112783
168	0x3d23be96	0.03997668
169	0x3bfdd91f	0.00774683
170	0x3d0bb796	0.034110628
171	0xbda4cb0c	-0.080465406
172	0x3cd821db	0.026383331
173	0xbd75946a	-0.05995599
174	0xbd3f1be9	-0.046657477
175	0xbcd81dd4	-0.02638141
176	0xbd770a60	-0.06031263
177	0xbc176713	-0.009240883
178	0xbbfeb267	-0.007772732
179	0xbd14d607	-0.036336925
180	0xbcf8c23c	-0.030366056
181	0x3d30156c	0.04298918
182	0xbcfd8360	-0.030946434
183	0xbdfb4966	-0.12269859
184	0x3cf19e61	0.029494466
185	0x3b1bf769	0.002379859
186	0xbda0b08f	-0.07846176
187	0x3c43a222	0.011940511
188	0x3d5208bd	0.051277865
189	0xbdf91518	-0.121622264
190	0x3d0b4972	0.03400559
191	0xbd2cf1fc	-0.04222296
192	0xbd7f6dee	-0.062360696
193	0x3ce148ce	0.027500536
194	0xbd1a57de	-0.037681453
195	0x3d31011e	0.043213956
196	0x3da81da7	0.08208781
197	0xbc4c8c93	-0.012484687
198	0xbd061272	-0.032732435
199	0x3d0c6516	0.03427609
200	0xbdd990bb	-0.10623308
201	0xbdddd1ae	-0.10831009
202	0xbbf2cce1	-0.0074096774
203	0xbc907ab3	-0.017636633
204	0xbcd71ef4	-0.026259877
205	0x3be6dfd5	0.007045726
206	0xbd9c0ba3	-0.07619407
207	0xbc1cf350	-0.009579495
208	0xbd275209	-0.04084972
209	0xbd2448e7	-0.040108588
210	0x3b8d31ed	0.00430893
211	0xbd7870b1	-0.060654346
212	0xbc357260	-0.011074632
213	0xbde70e18	-0.11281985
214	0xbdc3fb05	-0.095693626
215	0x3c19770b	0.009366761
216	0xbd4857fe	-0.04891204
217	0xbdcba338	-0.09943241
218	0x3c336926	0.010950362
219	0xbde51dba	-0.111873105
220	0x3da1bbdb	0.07897159
221	0xbc62b909	-0.013838061
222	0x3d0c8d55	0.034314472
223	0x3bbecb6b	0.005822589
224	0xbd8febb3	-0.07027378
225	0xbdd0fd31	-0.102045424
226	0x3b8efddb	0.004363758
227	0x3d8d5efd	0.06902883
228	0x3d3681d2	0.0445574
229	0xbc2ff4cb	-0.010739516
230	0x3d13520e	0.035966925
231	0x3d1117be	0.035423033
232	0xbc96fcc7	-0.01843108
233	0x3d6d9fe1	0.0580138
234	0xbcdd5e1f	-0.02702242
235	0x3d4ffcaf	0.050778087
236	0xbdd84eec	-0.10561928
237	0x3c1c0622	0.009522947
238	0x3c99e91e	0.018787917
239	0xbae39993	-0.0017364494
240	0x3cc19ff3	0.02363584
241	0x3ca7b6a8	0.02047284
242	0xbe008058	-0.1254896
243	0xbcb0f56b	-0.0216014
244	0xbc7c7228	-0.015408076
245	0xbd2154db	-0.039387565
246	0x3aa10540	0.001228489
247	0xbdaa6589	-0.083201475
248	0x3c397b00	0.011320829
249	0x3d36cd0a	0.044629134
250	0xbd86ccae	-0.06582008
251	0x3c8fa3ed	0.01753422
252	0x3d08f6dc	0.03343855
253	0x3d4dd7c9	0.050254617
254	0xbd96bbc4	-0.07360032
255	0xbd476fb7	-0.048690524

bias f4 [128]
0	0xbce727ec	-0.028217278
1	0xbd8fb9ac	-0.07017836
2	0x3ca20e9f	0.019782363
3	0x3d1ad0f7	0.03779694
4	0xbd31f744	-0.0434487
5	0xbc161958	-0.009161316
6	0xbda58215	-0.08081452
7	0xbd7b655c	-0.06137596
8	0x3d69b7b0	0.057059944
9	0x3b8dad0a	0.0043236064
10	0x3d5ef003	0.05442811
11	0x3d299dca	0.041410245
12	0xbd41d259	-0.047319744
13	0xbcc78ab7	-0.024358137
14	0xbcb41073	-0.0219805
15	0x3c6aa734	0.014322091
16	0xbd03b9b9	-0.03215954
17	0x3bed5400	0.0072426796
18	0x3d3e8112	0.04650981
19	0xbda47431	-0.08029974
20	0xbc710040	-0.014709532
21	0xbe626d05	-0.221119
22	0xbdcea8cd	-0.1009079
23	0xbdd149ab	-0.10219129
24	0xbd9e83ce	-0.077399835
25	0xbb8a5f46	-0.0042227833
26	0xbd62a33c	-0.055331454
27	0xbd94b75b	-0.07261535
28	0xbdbbb1a1	-0.091647394
29	0xbd06e421	-0.032932404
30	0xbde7b6a4	-0.11314133
31	0x3d1fb664	0.0389923
32	0xbdb2e66e	-0.08735357
33	0xbd80a9ad	-0.06282363
34	0x3c9ef911	0.019405873
35	0x3d8049f1	0.06264103
36	0xbd387376	-0.045031987
37	0xbdb9ad9b	-0.09066316
38	0xbd940c18	-0.07228869
39	0xbd8ec17d	-0.06970499
40	0xbd9d97b3	-0.0769495
41	0x3dad1c12	0.084526196
42	0xbcad5ca5	-0.02116234
43	0xbddeb1bc	-0.10873744
44	0xbd9ad5bf	-0.075603
45	0xbd7f7658	-0.06236872
46	0xbd3032f0	-0.043017328
47	0x3d47e3f2	0.04880137
48	0x3b019b3d	0.0019776367
49	0xbcd7ba20	-0.026333869
50	0xbdca7274	-0.098851115
51	0xbcb2e0e9	-0.021835761
52	0x3b566ef9	0.0032719953
53	0xbd292653	-0.041296314
54	0xbd2f4b88	-0.04279664
55	0xbd9d57ea	-0.07682784
56	0x3cecec5b	0.028921297
57	0xbc907706	-0.01763488
58	0x3cacc0f7	0.021088107
59	0xbda60449	-0.08106286
60	0xbd1802ef	-0.037112173
61	0xbcb12686	-0.021624815
62	0xbdb48748	-0.08814865
63	0x3df8b539	0.121439405
64	0xbd1d8861	-0.03846014
65	0xbda5e4a1	-0.08100248
66	0x3d5100d0	0.051026165
67	0x3d736498	0.059422106
68	0xbcd27731	-0.0256916
69	0xbcaf9977	-0.021435482
70	0xbd22ca31	-0.039743606
71	0xbdc315fb	-0.09525677
72	0x3d674ca3	0.05646957
73	0x3dc2fa44	0.09520391
74	0x3d494bce	0.04914456
75	0xbbb6e96b	-0.005582025
76	0xbda159e7	-0.07878476
77	0xbd21e77b	-0.039527398
78	0xbda5880b	-0.08082589
79	0x3c023479	0.007947081
80	0x3be5014a	0.006988679
81	0xbc433e84	-0.01191676
82	0xbd8933db	-0.06699344
83	0xbd04878f	-0.03235584
84	0xbb53c868	-0.0032315496
85	0x3d99516f	0.07486235
86	0x3caaedcb	0.020865342
87	0xbdab4e80	-0.08364582
88	0xbd33213e	-0.043732874
89	0xbc0fd7aa	-0.008779446
90	0xbd8643f6	-0.06555931
91	0xbd41a673	-0.04727788
92	0xbdbad2f8	-0.0912227
93	0xbd87126d	-0.06595311
94	0x3d8fa3e7	0.07013684
95	0xbdac867c	-0.08424088
96	0xbcf61252	-0.030038033
97	0xbc714915	-0.014726897
98	0xbcf2b2ab	-0.029626211
99	0xbce344ae	-0.02774271
100	0x3e65b163	0.22430949
101	0x3d5a02f3	0.05322547
102	0x3de68118	0.112550914
103	0xbd5c0eeb	-0.053725164
104	0xbd59b513	-0.0531512
105	0x3c826f3a	0.015922178
106	0xbd1d06e3	-0.038336646
107	0xbd26d246	-0.040727876
108	0xbdabac48	-0.083824694
109	0xbc802f27	-0.015647484
110	0xbce70dd4	-0.028204836
111	0xbdde0b9f	-0.1084206
112	0x3cf69b93	0.03010348
113	0x3d83bf2b	0.06432947
114	0xbdd5c171	-0.10437287
115	0x3d72103a	0.059097506
116	0xbd848a67	-0.06471711
117	0xbd985b7f	-0.074393265
118	0xbb3c9819	-0.002877718
119	0x3d69faa0	0.05712378
120	0x3d88c7f7	0.06678765
121	0x3c4cbfb2	0.012496876
122	0xbd5dd77c	-0.05416058
123	0xbc7fe63b	-0.015618856
124	0xbdff74f0	-0.12473476
125	0xbbef188c	-0.0072966274
126	0xbda627b4	-0.081130415
127	0xbd96ed52	-0.07369484

weight f4 [2, 128]
0	0xbd6b04d0	-0.057377636
1	0x3d4588c2	0.048226126
2	0x3d8d0790	0.06886208
3	0x3c0298d9	0.007971012
4	0xbca4e77a	-0.020129908
5	0x3c795eec	0.015220385
6	0xbc273585	-0.010205631
7	0x3e70c6da	0.23513356
8	0x3c946ee4	0.018119283
9	0x3cdf7c40	0.027280927
10	0x3ca0e7c4	0.019641764
11	0x3e51037d	0.20411487
12	0xbb9a23d8	-0.00470398
13	0xbd9ecf1a	-0.07754345
14	0x3c10f0ee	0.008846505
15	0x3cb805d9	0.022463726
16	0xbda555d8	-0.08073014
17	0xbc472403	-0.012154582
18	0xbcbe11c8	-0.023201838
19	0xbcb80824	-0.02246482
20	0x3addc4a9	0.0016919571
21	0xbf05ad5f	-0.5221767
22	0xbb898712	-0.00419701
23	0x3d415ed0	0.04720956
24	0xbd277f2f	-0.040892776
25	0x3b7fcb68	0.0039031152
26	0x3d950433	0.072761916
27	0x3d690519	0.056889627
28	0x3d47f3d2	0.04881651
29	0xbd44145c	-0.04787098
30	0x3db58eff	0.08865165
31	0x3c57313e	0.013134299
32	0x3daaa06d	0.0833138
33	0x3cf89d68	0.030348495
34	0xbd39711c	-0.045273885
35	0x3d15b780	0.036551952
36	0x3ea800ba	0.32813054
37	0xbdabf24e	-0.08395825
38	0x3d43f0b2	0.047836967
39	0x3d37f4cf	0.044911202
40	0x3cbc3f14	0.022979297
41	0x3e8ca511	0.27469686
42	0xbd37afe0	-0.04484546
43	0xbd765649	-0.06014088
44	0xbd940886	-0.07228188
45	0x3d204d8f	0.039136466
46	0x3db0584d	0.08610592
47	0xbd81a0f9	-0.06329531
48	0x3ca13208	0.019677177
49	0xbcae69ba	-0.021290649
50	0x3ab56a0a	0.0013840806
51	0x3bc30ec8	0.00595269
52	0xbd92cd74	-0.07168093
53	0xbd21e02d	-0.03952043
54	0x3c6e5e72	0.014548885
55	0xbd532e3e	-0.05155777
56	0x3d968ee2	0.073514715
57	0xbd594ba2	-0.053050645
58	0xbd32677d	-0.043555725
59	0xbc9f1484	-0.019418962
60	0xbd0551bb	-0.032548647
61	0x3e039e8e	0.12853453
62	0x3cac2752	0.021014843
63	0xbeceddae	-0.40403503
64	0xbb521170	-0.003205385
65	0x3d217201	0.039415363
66	0xbca4ff14	-0.020141162
67	0x3d9ff34e	0.078100786
68	0xbc372aef	-0.01117967
69	0x3b924508	0.0044637956
70	0xbdbeb00a	-0.093109205
71	0x3e4b768d	0.19869442
72	0xbd81eee0	-0.0634439
73	0x3eea048d	0.45706597
74	0x3da58786	0.0808249
75	0x3c952c7c	0.018209688
76	0x3d0774c8	0.033070356
77	0xbcd3cd26	-0.025854658
78	0x3e16cd12	0.14726666
79	0xbc1f83e6	-0.009736037
80	0xbf2c69a0	-0.6734867
81	0xbd32d477	-0.043659654
82	0xbd07372f	-0.03301161
83	0x3ebfa08b	0.37427172
84	0xbc8cea0e	-0.01720145
85	0xbd8ab89e	-0.06773494
86	0x3d045fd9	0.03231797
87	0x3d4c8e44	0.049940363
88	0xbccfed94	-0.02538184
89	0xbb821e23	-0.0039708777
90	0x3c3def30	0.011592671
91	0x3d05ff4a	0.032714166
92	0x3f014783	0.50499743
93	0x3d3e25b6	0.046422683
94	0xbd23aa68	-0.039957434
95	0xbc804462	-0.015657607
96	0xbcbf7d8a	-0.023375291
97	0x3d16dac1	0.036829714
98	0xbd1144d7	-0.03546604
99	0x3c44ea7e	0.012018798
100	0xbe93be4e	-0.28856128
101	0xbd7cf021	-0.061752442
102	0x3e84accc	0.25913084
103	0x3d26687c	0.040626988
104	0xbd1c9af5	-0.038233716
105	0x3d07f64b	0.033193868
106	0xbd900fbb	-0.0703425
107	0x3d8e637e	0.069525704
108	0xbca59a14	-0.020215072
109	0x3f0ec939	0.5577579
110	0x3bc9324c	0.006140029
111	0xbb83157f	-0.0040003653
112	0x3caf9061	0.02143115
113	0x3d9c0617	0.07618349
114	0xbd0d8586	-0.034551166
115	0x3bb12e40	0.0054071248
116	0x3d61b893	0.055107664
117	0xbd8ac73a	-0.06776281
118	0xbcf30918	-0.029667422
119	0xbb8b62b9	-0.004253712
120	0x3bce9a15	0.006304989
121	0xbd73e5fe	-0.05954551
122	0x3d84a456	0.06476657
123	0xbcc39e8b	-0.02387931
124	0x3d173797	0.03691825
125	0x3cbad2b1	0.022805544
126	0x3c0584cd	0.008149338
127	0xbd8494f5	-0.06473724
128	0xba8076ff	-0.0009801089
129	0xbc11614b	-0.008873294
130	0x3d9d2b8e	0.07674323
131	0x3c08f94a	0.008360216
132	0x3d78736e	0.060656957
133	0x3d137b00	0.036005974
134	0xbc5fb082	-0.013652923
135	0xbe958d69	-0.2920945
136	0x3d6af48a	0.057362117
137	0x3c7d0e87	0.015445358
138	0x3cd3c495	0.025850574
139	0xbea97602	-0.33097845
140	0xbd1fdfb3	-0.039031696
141	0xbd6b5695	-0.057455618
142	0x3cac428c	0.021027826
143	0xbd11ed54	-0.035626724
144	0x3d332212	0.043733664
145	0xbd3fb301	-0.04680157
146	0x3d07f44e	0.03319197
147	0x3cb29854	0.021801151
148	0xbba40853	-0.005005875
149	0x3eeb960b	0.4601291
150	0xbcdb1520	-0.026743472
151	0xbbd9813e	-0.0066377213
152	0x3b926242	0.0044672797
153	0x3c17dfa7	0.0092696315
154	0xbd56b145	-0.05241515
155	0x3a19e74b	0.0005870952
156	0xbcc3d887	-0.02390696
157	0xbd2ecb98	-0.04267463
158	0x3d888a46	0.066669986
159	0x3d6db87b	0.058037262
160	0xbd0b7732	-0.03404922
161	0x3a84b87d	0.0010125783
162	0xbd2f6ec8	-0.04283026
163	0x3d457440	0.048206568
164	0xbec8cf44	-0.3922063
165	0xbd97586d	-0.07389913
166	0x3d301aba	0.04299424
167	0x3da5155a	0.08060713
168	0x3d982bbf	0.07430219
169	0xbe9317e5	-0.28729168
170	0x3cb43aaf	0.022000639
171	0x3d6749d2	0.056466885
172	0xbbaba3d5	-0.005238036
173	0x3d45f2ee	0.04832738
174	0x3d16320a	0.036668815
175	0xbd78925a	-0.060686447
176	0xbc8c7268	-0.017144397
177	0xbd830727	-0.063978486
178	0xbd4c62da	-0.04989896
179	0x3c514bf7	0.012774459
180	0x3b0c44cc	0.002140331
181	0xbd2aea5c	-0.04172741
182	0xbcd8aa86	-0.0264485
183	0xbd6c0adf	-0.057627555
184	0xbd481d56	-0.048856102
185	0x3d92580b	0.07145699
186	0xbd2976f2	-0.0413732
187	0x3b14f17b	0.0022726941
188	0x3cd152f8	0.025552258
189	0xbdaaec9d	-0.08345912
190	0x3d0bdd28	0.034146458
191	0x3e8f0aa3	0.27937803
192	0xbcb5cc6b	-0.0221922
193	0x3d3556a7	0.04427209
194	0xbdaef815	-0.08543412
195	0xbd7cfe70	-0.061766088
196	0xbca8b262	-0.020592872
197	0xbc22914d	-0.009922338
198	0xbd4e0dd3	-0.050306153
199	0xbe9b36c1	-0.3031521
200	0xbd54f7a1	-0.05199397
201	0xbeed2cad	-0.46323147
202	0xbcecb3c9	-0.028894322
203	0xbbbe4f58	-0.0058077984
204	0xbcb9b354	-0.022668518
205	0x3baf955e	0.005358382
206	0xbdc3eacf	-0.095662706
207	0x3b8087b7	0.0039224285
208	0x3f24dacf	0.64396375
209	0x3c24d82b	0.010061304
210	0xbda8f9b3	-0.08250751
211	0xbed19124	-0.40931046
212	0x3d3e6358	0.04648146
213	0x3d1ff6b2	0.039053626
214	0xbd36e30b	-0.04465012
215	0xbb0cd36c	-0.0021488322
216	0xbd3cecd5	-0.046124298
217	0xbd59ccd7	-0.053173866
218	0xbcc016d3	-0.023448383
219	0x3cb52d52	0.022116337
220	0xbf06bfef	-0.5263662
221	0x3d1ee4d3	0.038792443
222	0xbcfdfc14	-0.03100399
223	0xbca1c642	-0.019747857
224	0x3d2bd5dc	0.041952
225	0x3dfe8d72	0.12429322
226	0x3d6eae4d	0.058271695
227	0xbcb34cfc	-0.021887295
228	0x3e94beec	0.29051912
229	0x3da0dde8	0.07854825
230	0xbeaa3acf	-0.33247992
231	0x3c2b5e09	0.010459431
232	0x3ce4f924	0.02795083
233	0x3cbb49a9	0.022862272
234	0xbd9a2f7e	-0.0752859
235	0x3d07f657	0.033193912
236	0xbd049edc	-0.032378063
237	0xbf0ccbca	-0.5499846
238	0x3d09d9db	0.03365503
239	0xbcb801bd	-0.022461766
240	0xbd534db3	-0.05158777
241	0x3d07dd22	0.033169873
242	0x3d392db3	0.045209598
243	0x3d3c2a0e	0.045938544
244	0xbd1f471c	-0.038886175
245	0xbc1296f0	-0.008947119
246	0xbd29ba03	-0.04143716
247	0xbc76cfea	-0.015064219
248	0xbd08c844	-0.033394113
249	0x3daf5891	0.085618146
250	0x3c8ab3ff	0.016931532
251	0x3d12d50f	0.03584772
252	0xbd2ddc82	-0.04244662
253	0xbd8d0ce0	-0.06887221
254	0xbda2846a	-0.07935412
255	0x3e3431ae	0.17597076

bias f4 [2]
0	0xbe3ea9fd	-0.18619533
1	0x3dd2c6e5	0.10291842

weight f4 [128, 128]
0	0xbec4ba08	-0.3842318
1	0xbd0ac114	-0.03387554
2	0x3e69a67a	0.22817412
3	0x3e85bc2b	0.26120123
4	0x3e21291a	0.15738335
5	0xbe39cec1	-0.18145277
6	0xbeaf1897	-0.34198448
7	0xbe1406f0	-0.14455771
8	0x3da6555e	0.08121751
9	0x3e19849d	0.14991994
10	0xbd928cc5	-0.07155756
11	0xbe89db3d	-0.26925078
12	0x3e807431	0.25088647
13	0x3d22f726	0.03978648
14	0x3e9fd2f2	0.31215626
15	0xbede6877	-0.43439075
16	0x3e927287	0.28603002
17	0xbef12dea	-0.47105342
18	0x3dacc916	0.084367916
19	0xbdc8f62e	-0.0981258
20	0x3e526a52	0.2054837
21	0x3e6b9c77	0.23008905
22	0x3c11e5a1	0.008904845
23	0xbd999dae	-0.07500778
24	0xbe7b3109	-0.24530424
25	0xbd889592	-0.06669153
26	0xbf8c4ff4	-1.09619
27	0x3e1b5d95	0.15172417
28	0x3e0e749f	0.13911675
29	0xbd41743c	-0.04722999
30	0x3e22d82e	0.15902779
31	0x3e2a8d19	0.16655387
32	0xbea5793a	-0.3231905
33	0x3e361003	0.17779545
34	0xbea0f175	-0.31434217
35	0xbdab0609	-0.083507605
36	0x3e9f20f3	0.31079826
37	0x3e849392	0.25893837
38	0x3e201a99	0.15635146
39	0x3e8db8a3	0.2767993
40	0x3e10d694	0.14144355
41	0xbf8a282e	-1.0793512
42	0x3d98b2ac	0.07455954
43	0x3e5f085a	0.2178053
44	0x3ea0e076	0.3142125
45	0x3e6c3f85	0.23071106
46	0xbf15308a	-0.5827719
47	0x3e656d0f	0.22404884
48	0x3d1873cc	0.037219808
49	0x3e4f911c	0.20270199
50	0x3e1f8a9e	0.15580222
51	0x3e9d489b	0.30719456
52	0x3d93d1ac	0.07217726
53	0xbe80b003	-0.25134286
54	0x3e203d66	0.15648422
55	0x3e58838d	0.21143933
56	0x3e61780f	0.22018455
57	0x3e029903	0.12753682
58	0x3e3a409e	0.18188712
59	0xbea8917f	-0.32923505
60	0x3ea0b2e3	0.3138648
61	0x3debcb89	0.115134306
62	0xbe8108e0	-0.25202084
63	0x3e063ac8	0.13108361
64	0xbe0ddedb	-0.13854544
65	0x3e451bd7	0.19248901
66	0xbee795b7	-0.4523141
67	0xbebb15de	-0.3654012
68	0xbdf0038f	-0.11719429
69	0xbdef6885	-0.116898574
70	0x3e4792ba	0.19489565
71	0xbe84574a	-0.25847846
72	0x3d0a5c60	0.033779502
73	0x3e3ef9eb	0.18650024
74	0xbeca9ac5	-0.39571205
75	0x3c2ced5e	0.01055464
76	0x3e56cf0d	0.20977421
77	0xbe2536cf	-0.16134189
78	0xbea31b4b	-0.3185676
79	0xbbd48087	-0.006485048
80	0x3df71dd5	0.12066237
81	0xbf2af0c0	-0.66773605
82	0xbd88d122	-0.06680514
83	0xbdf17ef6	-0.11791794
84	0x3e147fa9	0.14501823
85	0x3daa20c8	0.08307034
86	0x3e86c952	0.2632547
87	0x3e95a0e0	0.292243
88	0x3e4847a4	0.19558579
89	0x3e417180	0.18890953
90	0x3e24ea56	0.16105017
91	0x3e278de3	0.16362719
92	0xbd074f33	-0.033034515
93	0x3d637512	0.05553157
94	0x3c8e28f6	0.017353516
95	0x3e0e14bf	0.13875102
96	0xbed9fc98	-0.42575526
97	0xbdc68abb	-0.096944295
98	0xbe397278	-0.18110073
99	0xbf991d21	-1.1962014
100	0x3d983435	0.07431833
101	0xbde0072b	-0.10938867
102	0x3d40f18a	0.04710535
103	0xbf102860	-0.5631161
104	0x3e4722f3	0.19446926
105	0xbe30b0ed	-0.17254992
106	0x3e8c9aea	0.2746194
107	0xbdf5b244	-0.11996892
108	0xbda6ff7e	-0.081542
109	0xbecf3390	-0.40469027
110	0xbe7ce72c	-0.2469756
111	0x3e5e641b	0.21717875
112	0x3ca116ad	0.019664133
113	0xbe1ab335	-0.15107425
114	0x3debe6b0	0.115186095
115	0x3e62a1c5	0.22132023
116	0x3da6e698	0.08149451
117	0x3e84994f	0.25898215
118	0xbe41ef14	-0.18938857
119	0x3db9c113	0.09070029
120	0xbfe7dc12	-1.8114035
121	0xbb732d1a	-0.003710574
122	0x3e61f6b1	0.22066762
123	0x3e147936	0.14499363
124	0xbfae5c69	-1.3621951
125	0x3e7dbaa3	0.24778228
126	0xbe753dcc	-0.23949355
127	0xbdfb5160	-0.122713804
128	0xbce1b918	-0.02755408
129	0x3d4b616a	0.04965345
130	0xbc96bc84	-0.018400438
131	0xbda3267c	-0.07966325
132	0xbce0c633	-0.027438259
133	0xbd3a968f	-0.04555374
134	0xbd5ab070	-0.05339092
135	0xbd969145	-0.07351927
136	0xbc0fa8ad	-0.008768243
137	0xbd802b14	-0.062582165
138	0x3c9c6cc4	0.019094832
139	0xbdc07da3	-0.09398963
140	0xbcc5dd31	-0.024153324
141	0xbcf098e4	-0.029369779
142	0xbd7f6ecc	-0.062361524
143	0xbda7d886	-0.081955954
144	0xbd78ba95	-0.060724813
145	0x3d92bb8f	0.0716468
146	0x3d7c07fa	0.061531045
147	0xbcf73492	-0.030176435
148	0x3a7f18c8	0.0009731171
149	0xbdd3a69c	-0.103345126
150	0xbb2e1c38	-0.0026567113
151	0x3d1e153f	0.03859448
152	0xbdb68594	-0.08912197
153	0xbd1d9e75	-0.038481195
154	0xbd67597a	-0.056481816
155	0x3d27b001	0.040939335
156	0x3d5aa49d	0.053379644
157	0x3d9daae9	0.07698614
158	0x3d90ecb4	0.070763975
159	0xbd800f07	-0.06252866
160	0xbd65780b	-0.056022685
161	0x3d8af35d	0.06784699
162	0x3c8c6fe8	0.017143205
163	0xbd5e1c1c	-0.054226026
164	0x3ce6752a	0.02813204
165	0xbc8ea0e4	-0.017410703
166	0xbd85a2d8	-0.065252006
167	0xbd847b66	-0.06468849
168	0xbda6eb71	-0.08150376
169	0x3bc73530	0.0060793385
170	0xbb492df6	-0.003069756
171	0xbd0b0bf5	-0.03394695
172	0xbd91687c	-0.07100007
173	0xbc8852f0	-0.01664111
174	0x3ce0888d	0.027408862
175	0xbd3ce4c9	-0.046116624
176	0x3d4e421b	0.05035601
177	0x3d8dd3b2	0.06925143
178	0x3d27e65b	0.04099117
179	0xbd3ab50f	-0.045582827
180	0xbd055e11	-0.03256041
181	0x3d65740d	0.056018878
182	0xbd7d40ed	-0.061829496
183	0x3b3566db	0.0027679715
184	0xbcc02563	-0.023455327
185	0xbc98eed0	-0.018668562
186	0xbdbcfe34	-0.09228173
187	0xbd63913a	-0.05555842
188	0x3d6fcf7d	0.058547486
189	0x3c93ccba	0.018041957
190	0xbda47077	-0.080292635
191	0xb886abbb	-6.421605e-05
192	0x3d0b088c	0.033943698
193	0xbd3982b4	-0.045290664
194	0x3cb6d193	0.02231673
195	0xbd93557d	-0.0719404
196	0xbd906b8e	-0.070517644
197	0x3d624897	0.05524501
198	0x3d360e2d	0.044447113
199	0xbd784994	-0.060617045
200	0xbd5948cf	-0.05304795
201	0x3cdb82d3	0.02679578
202	0x3c0d8585	0.008637791
203	0xbd4412b3	-0.047869395
204	0x3b07fb69	0.0020749217
205	0xbce59417	-0.028024716
206	0xbda0c9a6	-0.078509614
207	0x3d8c8d53	0.06862893
208	0x3c317e07	0.01083327
209	0xbd2059e8	-0.03914824
210	0x3c6a7c79	0.014311903
211	0x3d682c94	0.056683138
212	0x3d682a2e	0.05668085
213	0x3d80b5c3	0.06284668
214	0x3d5b8cdd	0.053601135
215	0xbc83e0da	-0.016098429
216	0x3d765326	0.06013789
217	0xbc4caa35	-0.012491752
218	0x3d0cd1f3	0.03437991
219	0x3c7b997d	0.015356419
220	0x3d6de1ba	0.058076598
221	0xbca82e9c	-0.020530038
222	0x3bc82cee	0.0061088717
223	0xbd12c368	-0.035830885
224	0xbc2c430f	-0.010514035
225	0xbdb97f3d	-0.09057472
226	0x3c775f21	0.015098364
227	0x3d97eed9	0.074186035
228	0x3da41877	0.08012479
229	0xbd4fd6ef	-0.050742086
230	0xbd8809c4	-0.06642488
231	0x3c9c36c8	0.01906909
232	0x3d7100cb	0.058838647
233	0xbcfb1ef3	-0.030654406
234	0xbd85eecb	-0.06539687
235	0x3d7d911a	0.061905958
236	0x3d092c89	0.033489738
237	0xbce5b608	-0.0280409
238	0xbd4e8753	-0.050422024
239	0xbd6dee97	-0.058088865
240	0xbda20412	-0.079109326
241	0x3d882278	0.066471994
242	0x3d0f974b	0.035056394
243	0x3ba7f1aa	0.005125244
244	0xbd1f81e3	-0.03894223
245	0xbc2bdc48	-0.010489531
246	0xba4d72c2	-0.00078372296
247	0xbd4650b1	-0.048416797
248	0x3d835f36	0.064146444
249	0x3cab0850	0.020877987
250	0xbcc6a6b8	-0.02424942
251	0xbdca5b98	-0.09880751
252	0x3d2fd23d	0.04292511
253	0xbd80d8b6	-0.06291334
254	0x3d188e76	0.037245236
255	0xbbfabb6a	-0.007651736

bias f4 [128]
0	0x3eb6b413	0.3568426
1	0x3c628a83	0.013826969
2	0x3ea80aa1	0.3282061
3	0xbe70542e	-0.23469612
4	0x3eaa5901	0.3327103
5	0x3bdcc394	0.006737182
6	0x3e88acbe	0.26694292
7	0xbc596648	-0.013269015
8	0xbd3eb131	-0.0465557
9	0x3d92e4c1	0.071725376
10	0x3d415c29	0.04720703
11	0x3c4918f0	0.012274012
12	0x3d580682	0.05274058
13	0x3e8b3354	0.27187598
14	0xbcba305c	-0.022728138
15	0x3e58aade	0.2115893
16	0xbdbe04f1	-0.09278286
17	0x3ea60337	0.32424328
18	0x3e8d3732	0.27581173
19	0xbc9e7e8b	-0.01934745
20	0xbdbefcff	-0.09325599
21	0x3c6bf9d8	0.014402829
22	0xbd994d80	-0.07485485
23	0x3d1b2f52	0.037886925
24	0x3e98fb64	0.29879296
25	0xbd8caa58	-0.06868428
26	0x3e9d428d	0.30714837
27	0x3e742e7a	0.23845854
28	0x3c865b6a	0.016401011
29	0x3e79125e	0.24323413
30	0x3e93de6a	0.28880626
31	0x3e6e7c48	0.23289597
32	0x3eb72e60	0.3577757
33	0xbd4f2d7c	-0.050580487
34	0x3b2b1f9b	0.0026111368
35	0x3eb556e0	0.35417843
36	0xbd3ad2c8	-0.045611173
37	0xbdba46c0	-0.09095526
38	0xbd566b15	-0.052348215
39	0xbd9a1fd2	-0.075256005
40	0x3e9b9582	0.30387503
41	0x3e985781	0.2975426
42	0xbd9aef21	-0.075651415
43	0x3cdc633d	0.02690279
44	0xbdcf69b1	-0.10127581
45	0xbcc147ca	-0.023593802
46	0x3e944e20	0.28965855
47	0xbd9787e5	-0.07398967
48	0x3e9ee812	0.3103643
49	0x3eb74da4	0.35801423
50	0xbd90b4c1	-0.07065726
51	0x3e870cce	0.26376957
52	0xbccc5fdc	-0.024948053
53	0x3e9e2a63	0.30891714
54	0x3d81fd98	0.06347197
55	0xbbec97a9	-0.0072202277
56	0x3eb0765d	0.34465304
57	0x3d999aa9	0.07500202
58	0xbd7106ea	-0.058844484
59	0xbc8d657e	-0.01726031
60	0x3eb26e66	0.34849852
61	0x3e8b5e08	0.27220178
62	0x3ea408d6	0.3203799
63	0x3e841cf5	0.25803342
64	0x3e8fa3f4	0.28054774
65	0x3e527b5c	0.2055487
66	0xbdb459e6	-0.08806209
67	0xbe374ff1	-0.17901589
68	0xbd9ee58a	-0.07758625
69	0x3e8d8ba1	0.2764559
70	0xbda6fb99	-0.08153457
71	0x3d3e04e9	0.0463914
72	0xbd5711a2	-0.05250705
73	0x3eb9542a	0.36197025
74	0xbd927389	-0.07150943
75	0xbdef69e5	-0.1169012
76	0x3ca925ac	0.020647846
77	0x3ea0514d	0.31312028
78	0xbcab4071	-0.020904751
79	0x3e9d7e58	0.30760455
80	0x3e9d7712	0.30754906
81	0x3d29cdd8	0.041456074
82	0x3e8bc5ab	0.27299246
83	0x3ea3cede	0.31993765
84	0x3d49d68a	0.049276866
85	0x3e816421	0.25271705
86	0x3ea98346	0.33107966
87	0xbdad0459	-0.08448095
88	0xbbcfc6e9	-0.0063408506
89	0xbde616c3	-0.1123481
90	0x3e53c8b6	0.20682034
91	0x3e9c2fbd	0.3050517
92	0x3b997560	0.0046831816
93	0x3e857d7c	0.260723
94	0xbd9f400e	-0.07775889
95	0x3ead99b3	0.33906326
96	0x3ea044bd	0.31302443
97	0x3d5bedac	0.05369346
98	0x3ea28c47	0.31747648
99	0x3d0488b8	0.032356948
100	0x3eb51b19	0.35372236
101	0x3e9ca323	0.30593213
102	0x3e8f353d	0.27970305
103	0x3e8f65fb	0.28007492
104	0x3e639de3	0.22228198
105	0x3b5209a4	0.0032049203
106	0x3e4e9c2e	0.20176765
107	0x3c4cd833	0.012502718
108	0x3eb2379f	0.3480806
109	0x3d5a09fd	0.05323218
110	0x3b9f2980	0.004857242
111	0xbdcaece4	-0.099084646
112	0x3d571ed0	0.05251962
113	0x3ea44307	0.32082388
114	0xbd18c366	-0.03729572
115	0xbd3e6223	-0.04648031
116	0x3c9efe8c	0.019408487
117	0x3e7cc03a	0.24682704
118	0xbda7b0fb	-0.08188053
119	0x3e6dd5ad	0.23226042
120	0x3e6c2102	0.23059466
121	0xbd8e6f24	-0.06954792
122	0x3b5bc91c	0.0033536619
123	0x3eaee4bf	0.34158894
124	0xbdadb111	-0.08481038
125	0x3e798da9	0.24370445
126	0xbd2c1e60	-0.042021155
127	0x3c62fc55	0.013854106

weight f4 [1, 128]
0	0x3e8b6e8f	0.27232787
1	0xbcecb9af	-0.028897135
2	0x3e8e1298	0.2774856
3	0xbf245a08	-0.64199877
4	0x3ea57ac3	0.32320222
5	0xbd688452	-0.056766815
6	0x3e92178e	0.28533596
7	0x3ca382a0	0.019959748
8	0x3d00b767	0.031424906
9	0xbd15f5c4	-0.036611333
10	0xbd5d357f	-0.054006096
11	0xbcc5ed19	-0.024160909
12	0xbc621fe8	-0.013801552
13	0x3e9316cd	0.28728333
14	0xbd2d9765	-0.04238071
15	0x3e91aa26	0.28450125
16	0xbd4a9de7	-0.049466994
17	0x3e8f4d26	0.27988547
18	0x3e950853	0.29107913
19	0xbca54051	-0.02017227
20	0xbd27c933	-0.040963363
21	0xbcd8747b	-0.02642273
22	0xbc27866c	-0.01022492
23	0xbd179ede	-0.037016742
24	0x3e91ed63	0.28501424
25	0xbd8be0e3	-0.06830003
26	0x3ea2519e	0.31702894
27	0x3ea9bb30	0.33150625
28	0xbcace68e	-0.02110603
29	0x3e8bdc2d	0.27316418
30	0x3e8eb346	0.2787115
31	0x3e8355ec	0.2565149
32	0x3ea4db52	0.32198578
33	0x3bea8edf	0.007158145
34	0xbd839bfe	-0.064262375
35	0x3e9dff66	0.30858916
36	0xbcad7f80	-0.02117896
37	0x3c6c821b	0.014435316
38	0xbc63d2a1	-0.013905198
39	0xbe90c65f	-0.28276345
40	0x3e89e61b	0.2693337
41	0x3eada3da	0.3391407
42	0x3c99e6c9	0.018786805
43	0x3c6d8115	0.014496108
44	0x3aa477a5	0.0012547864
45	0xbd016ade	-0.031596057
46	0x3e956389	0.29177502
47	0xbd927371	-0.07150925
48	0x3ea20482	0.31644064
49	0x3e8f36a2	0.2797137
50	0x3c2597a6	0.010106957
51	0x3e9c9e05	0.3058931
52	0xbd1ae79a	-0.03781853
53	0x3ea5f778	0.32415366
54	0xbcd07f2c	-0.025451265
55	0xbb0a3aaf	-0.0021092107
56	0x3e9015a3	0.28141508
57	0xbd3f52af	-0.046709713
58	0xbd855ea5	-0.06512193
59	0xbd6c63be	-0.05771231
60	0x3e8f57cf	0.2799668
61	0x3e9a04b2	0.30081707
62	0x3e96fc30	0.2948928
63	0x3e8e0449	0.27737644
64	0x3e81a09e	0.25317854
65	0x3e7bae25	0.2457815
66	0xbd3b1fb9	-0.04568455
67	0xbfc0384b	-1.5017179
68	0xbd81987a	-0.06327911
69	0x3e942873	0.2893711
70	0x3c0773d2	0.00826736
71	0x3b1cfd5b	0.0023954723
72	0xbc2315f7	-0.009953967
73	0x3e825ec3	0.25462922
74	0xbcfd243f	-0.030901073
75	0x3c8f8b1f	0.017522393
76	0x3d98ff93	0.07470622
77	0x3e887a73	0.2665592
78	0xba5f8c0b	-0.0008527643
79	0x3e889dea	0.2668298
80	0x3e8d9a47	0.27656767
81	0xbc21005d	-0.009826747
82	0x3e846150	0.25855494
83	0x3e759784	0.2398358
84	0xbd4a2e0c	-0.04936032
85	0x3e94744c	0.28994977
86	0x3e87f050	0.2655053
87	0xbd888d1a	-0.06667538
88	0x3bf0a2b1	0.007343613
89	0xbc0f1a5e	-0.008734314
90	0x3ea31aef	0.31856486
91	0x3e73003a	0.23730555
92	0x3c99fd7c	0.018797629
93	0x3e7398da	0.23788777
94	0xba9d9e62	-0.0012025351
95	0x3e8eed0c	0.27915227
96	0x3ea70ebf	0.32628438
97	0xbd6f5d11	-0.058438364
98	0x3e9a96f8	0.30193305
99	0xbc7c3af7	-0.015394918
100	0x3e7d7e9c	0.24755329
101	0x3e817d14	0.2529074
102	0x3e9b715f	0.30359933
103	0x3e9836d5	0.29729334
104	0x3e85bfeb	0.26122984
105	0xbd0fae36	-0.03507825
106	0x3e982a79	0.29719904
107	0x3bea53ab	0.0071510873
108	0x3e8181e5	0.25294414
109	0xbd611047	-0.054947164
110	0xbd825bf7	-0.06365197
111	0xbc6f8a39	-0.014620357
112	0xbd91874b	-0.07105883
113	0x3e8b8748	0.2725165
114	0xbd5ca386	-0.053866886
115	0xbaab5ff2	-0.0013074859
116	0xbd88ed89	-0.06685931
117	0x3e741a04	0.23838049
118	0x3d47319a	0.048631288
119	0x3ea0e5b9	0.31425264
120	0x3e94ffe1	0.2910147
121	0xbd4f6b30	-0.05063933
122	0xbca77208	-0.020440117
123	0x3e9b0ced	0.302833
124	0xbbc0b7c4	-0.0058812816
125	0x3e840070	0.25781584
126	0xbcbb01e0	-0.022828043
127	0x3ae10b37	0.001716948
