data/1008CartPole-v0_vpg/1008CartPole-v0_vpg_s0/pyt_save/model.pt (torch, 42881 bytes, 11 tensors)

weight f4 [64, 4]
0	0x3edc513f	0.43030736
1	0x3e96b4e1	0.29434875
2	0xbe7aca26	-0.24491176
3	0xbeca8643	-0.3955556
4	0xbe0aa283	-0.13538556
5	0xbee063ff	-0.4382629
6	0xbcb79cca	-0.02241363
7	0x3e796a5b	0.24356978
8	0xbec7e655	-0.39042917
9	0x3e116f4f	0.14202617
10	0xbe0e3663	-0.13887934
11	0x3ea64b0b	0.32479128
12	0xbd6986bf	-0.05701327
13	0xbd24ee4d	-0.040266324
14	0x3e1a85df	0.1509013
15	0xbe9ebd5e	-0.3100385
16	0xbe88ea53	-0.26741275
17	0x3cf03d3a	0.02932607
18	0x3eb89157	0.36048386
19	0x3e9c743d	0.30557433
20	0x3ef5e731	0.48027948
21	0x3e564d6c	0.20927972
22	0x3e823ab1	0.25435403
23	0x3db8b853	0.09019532
24	0x3ea4ab94	0.32162154
25	0x3ee12fc5	0.43981758
26	0xbec6b172	-0.38807255
27	0xbeabfd4a	-0.33591682
28	0x3edc7ba8	0.43063092
29	0x3de5368d	0.11192045
30	0xbe645dc1	-0.2230139
31	0xbece9d29	-0.4035428
32	0xbe865507	-0.26236746
33	0xbd198af6	-0.03748604
34	0xbdd33abf	-0.10313939
35	0x3d82b62c	0.06382403
36	0xbdbbd729	-0.09171898
37	0x3e90a674	0.28251994
38	0xbda00a15	-0.07814423
39	0xbdde5cfc	-0.10857579
40	0x3e8ae6ef	0.27129313
41	0xbef636dc	-0.4808873
42	0xbeba79c6	-0.3642103
43	0x3dfac87c	0.122452706
44	0xbe9363da	-0.28787118
45	0x3e8e2aa2	0.277669
46	0xbede3753	-0.43401584
47	0x3ea0ebbd	0.31429854
48	0xbe97bc55	-0.29635873
49	0x3ec903c3	0.39260682
50	0xbe9121b2	-0.2834602
51	0xbea09987	-0.31367132
52	0x3dc820d7	0.09771889
53	0x3eee42b3	0.46535262
54	0xbcb2195a	-0.021740604
55	0xbebe1dce	-0.37132114
56	0xbe32dc49	-0.17466845
57	0xbe316b50	-0.17326093
58	0x3de6a89e	0.1126263
59	0xbe69b8de	-0.22824427
60	0xbd39b9bc	-0.045343146
61	0x3d36ecc6	0.0446594
62	0xbe4d5191	-0.20050646
63	0xbdc62d72	-0.09676637
64	0x3ed22fa5	0.41051975
65	0x3ed6d786	0.41961306
66	0xbecf5685	-0.40495697
67	0x3ec7ccd2	0.39023453
68	0xbeb96dba	-0.36216527
69	0xbe87b7fd	-0.2650756
70	0x3eabf601	0.33586124
71	0xbdd0322f	-0.10165822
72	0xbc58559e	-0.0132040065
73	0xbee5a04e	-0.44848865
74	0x3cf4692a	0.029835302
75	0x3e9c3c94	0.30514967
76	0x3e8e97a8	0.2785008
77	0x3ea439ce	0.3207535
78	0xbe8791ff	-0.26478574
79	0x3ed0040d	0.4062809
80	0x3ec10b17	0.37703773
81	0xbedaf155	-0.42762247
82	0xbc9bbf02	-0.019011978
83	0x3ed7a2ff	0.42116544
84	0xbd830608	-0.06397635
85	0x3e5654fb	0.20930855
86	0x3e9e69fc	0.30940235
87	0x3f07ef9c	0.5309999
88	0xbeb5605f	-0.35425088
89	0x3e137ba4	0.14402634
90	0xbec30604	-0.38090527
91	0x3f01d783	0.5071947
92	0x3ecf6bbe	0.40511888
93	0x3efd8b13	0.49520168
94	0xbec84709	-0.39116696
95	0x3eda4406	0.42630023
96	0x3e2b2132	0.16711882
97	0xbe736418	-0.23768651
98	0xbee33d50	-0.44382715
99	0xbef149bf	-0.47126576
100	0xbe67a070	-0.22619796
101	0xbf03f736	-0.5154909
102	0x3db4eedc	0.08834621
103	0xbed9d10d	-0.42542306
104	0xbdf2877a	-0.11842246
105	0x3ecbc2ca	0.3979705
106	0x3e5b8be4	0.21440083
107	0xbe3ea674	-0.18618184
108	0x3e120bb6	0.1426228
109	0x3eed3302	0.46327978
110	0xbe9499eb	-0.2902368
111	0xbef47546	-0.47745723
112	0xbeb328f0	-0.3499217
113	0x3dc57041	0.09640551
114	0xbe9dcf50	-0.3082223
115	0x3df9195e	0.121630415
116	0x3e707241	0.23481084
117	0x3efb1795	0.4904143
118	0x3e0d5cff	0.13805006
119	0x3e76730d	0.24067326
120	0x3e7e46e1	0.24831726
121	0x3ed7afd1	0.42126325
122	0xbefdb7be	-0.49554247
123	0xbe1c1336	-0.15241703
124	0xbeb2e56c	-0.3494066
125	0x3ea96a58	0.33088946
126	0x3e6372b6	0.22211727
127	0x3e84f30d	0.25966683
128	0x3ead8a12	0.33894402
129	0xbe28185d	-0.16415544
130	0x3ea83332	0.3285156
131	0xbea9057c	-0.33011997
132	0x3eb61eb9	0.35570315
133	0x3dbc53ea	0.09195693
134	0xbd76447a	-0.060123898
135	0xbe1870f1	-0.14886834
136	0xbee3366f	-0.44377467
137	0xbedae178	-0.42750144
138	0xbec4877f	-0.38384625
139	0x3ea43c2a	0.32077152
140	0xbefaa1be	-0.48951524
141	0x3ecf5eae	0.40501922
142	0xbe31e554	-0.17372638
143	0x3ee17595	0.4403502
144	0xbed86029	-0.42260864
145	0xbe92e0a1	-0.28687003
146	0xbdd810aa	-0.105500534
147	0x3e9ee368	0.31032872
148	0x3e8526f6	0.26006287
149	0x3e4026e9	0.18764843
150	0x3e3ee5ff	0.18642424
151	0xbe377af9	-0.17918004
152	0xbec3da13	-0.38252315
153	0x3d800d95	0.062525906
154	0x3eead738	0.45867324
155	0x3ec59c13	0.38595638
156	0x3dc0c30b	0.094122015
157	0xbec84dea	-0.39121944
158	0xbec515c5	-0.3849317
159	0x3c30b683	0.010785702
160	0x3e5e2f50	0.21697736
161	0x3f02068e	0.5079125
162	0xbe8f7a8c	-0.28023183
163	0x3ebdd12e	0.37073654
164	0xbea2ec49	-0.31820896
165	0x3e17bb39	0.14817514
166	0x3e584d56	0.21123251
167	0xbe1df3c1	-0.15425016
168	0x3ef0f200	0.4705963
169	0x3e9e5f5b	0.30932125
170	0xbeb98612	-0.362351
171	0x3ef23fe6	0.47314376
172	0xbebbd413	-0.36685237
173	0x3e9437e7	0.289489
174	0xbee32741	-0.44365886
175	0xbf0583d7	-0.52154297
176	0x3e04fff2	0.1298826
177	0x3eefa69d	0.46806803
178	0xbe3e8f97	-0.18609463
179	0x3ee750a3	0.45178708
180	0xbeb832d3	-0.35976276
181	0x3e2ea64d	0.17055626
182	0xbdf79e4b	-0.12090739
183	0xbec8198b	-0.39081988
184	0x3e8ba0f1	0.27271226
185	0x3d5e888d	0.054329444
186	0xbd6a3fef	-0.057189878
187	0xbe8711b3	-0.2638069
188	0x3eb23967	0.3480942
189	0xbdb6309c	-0.0889599
190	0xbe29ad3e	-0.16569993
191	0x3eb7a2c1	0.3586636
192	0xbeb4f195	-0.35340562
193	0x3d4c7f45	0.04992606
194	0x3d6508bf	0.055916544
195	0x3e1c3fd1	0.15258719
196	0xbed7e442	-0.42166334
197	0x3e3e482b	0.18582217
198	0xbec2ff88	-0.3808558
199	0x3f06b0dd	0.5261362
200	0x3e5ca851	0.21548583
201	0x3ef86753	0.4851633
202	0x3e0afcfe	0.13573071
203	0xbef2fceb	-0.47458586
204	0x3ed03061	0.4066191
205	0x3daccbab	0.08437284
206	0xbe4b35e3	-0.19844775
207	0xbed5de6e	-0.41771263
208	0x3dd47c08	0.103752196
209	0xbe8dc1a4	-0.276868
210	0xbe435e8b	-0.19079034
211	0xbd7e591a	-0.062096693
212	0xbeba7242	-0.36415297
213	0x3ee9b8d5	0.45648828
214	0x3e357a94	0.17722541
215	0x3eb9447d	0.36185065
216	0x3d9c976f	0.07646071
217	0x3ed8d801	0.42352298
218	0x3ed26987	0.41096136
219	0x3f07a403	0.5298464
220	0xbe7ca418	-0.24671972
221	0xbede36c0	-0.43401146
222	0xbeb948c3	-0.36188325
223	0xbe23c386	-0.15992555
224	0xbe491c0f	-0.1963961
225	0x3eaf10ce	0.34192508
226	0xbea8dc97	-0.32980797
227	0x3ef8b430	0.48574972
228	0x3eb0fc50	0.345675
229	0xbe426a0e	-0.18985769
230	0xbecf8761	-0.40532973
231	0x3e0c54e2	0.13704255
232	0xbce50382	-0.027955774
233	0xbeda7f8e	-0.42675442
234	0xbed96300	-0.42458344
235	0xbd49da74	-0.0492806
236	0xbec1853d	-0.37796965
237	0xbe848ba4	-0.25887787
238	0xbe17558e	-0.1477873
239	0xbec5c0d5	-0.38623682
240	0xbe9631d6	-0.29334897
241	0xbd4d0740	-0.050055742
242	0xbdb839a4	-0.08995369
243	0xbee059f1	-0.4381862
244	0x3e75b5f6	0.23995194
245	0x3eb19ab7	0.3468835
246	0xbee37a2e	-0.44429153
247	0x3eabe5cc	0.3357376
248	0xbe0c555a	-0.13704434
249	0x3ee5ea28	0.4490521
250	0x3e136f78	0.1439799
251	0x3f08a352	0.5337421
252	0x3e97c49e	0.29642195
253	0xbd407cc1	-0.046993975
254	0x3e54d6d1	0.20785071
255	0x3e75ec4e	0.24015924

bias f4 [64]
0	0x3d381ff3	0.044952344
1	0xbd59cb9a	-0.053172685
2	0xbe972870	-0.2952304
3	0xbe098bf1	-0.1343229
4	0x3de54692	0.11195101
5	0x3d4d1b4b	0.050074857
6	0x3dc9914f	0.098421685
7	0xbe5bcac9	-0.21464075
8	0xbef25d93	-0.47337016
9	0x3ed38399	0.4131134
10	0x3e55c93a	0.20877543
11	0xbe8954ec	-0.26822603
12	0x3e1b1ae6	0.1514698
13	0xbe1fb398	-0.15595853
14	0xbee9b743	-0.4564763
15	0x3c6cb012	0.014446275
16	0x3eb5f0ca	0.3553527
17	0xbeea60a8	-0.45776868
18	0x3ee2e58b	0.44315752
19	0x3ee52c79	0.44760492
20	0xbec4d716	-0.38445348
21	0xbe24ebcb	-0.16105573
22	0xbebb6efc	-0.36608112
23	0xb8933451	-7.019251e-05
24	0x3e978e50	0.29600763
25	0x3df545ee	0.11976229
26	0xbeb1713e	-0.3465671
27	0xbe4ce000	-0.20007324
28	0x3ed4cb5e	0.41561407
29	0xbed4b68c	-0.41545522
30	0xbec98c3c	-0.39364803
31	0xbe9999d2	-0.30000168
32	0xbed5caca	-0.41756278
33	0xbe609488	-0.2193166
34	0xbe4a1533	-0.1973465
35	0x3ea0db93	0.31417522
36	0x3ea7432f	0.32668445
37	0xbe5ed8fe	-0.21762463
38	0x3ea33c90	0.31882143
39	0x3d2baa8c	0.041910693
40	0xbdb4e5a6	-0.088328645
41	0xbc750074	-0.014953721
42	0x3e8f6dd6	0.28013486
43	0xbd4d85b3	-0.050176334
44	0x3e9990b8	0.29993224
45	0xbec18ba1	-0.3780184
46	0x3ed581c3	0.41700563
47	0xbed10776	-0.40826005
48	0xbee3bc84	-0.44479764
49	0x3ed925f3	0.42411765
50	0x3ee89aad	0.45430508
51	0x3d7a204e	0.061065964
52	0xbdbc5ec3	-0.09197762
53	0xbeb52e13	-0.35386714
54	0x3e0fe1e0	0.14051008
55	0x3e11ab6d	0.1422555
56	0xbe0b1373	-0.13581638
57	0xbe21b14e	-0.15790293
58	0x3eda56ac	0.4264425
59	0x3d551a2f	0.052026924
60	0x3ea8b23c	0.32948482
61	0x3edb900b	0.42883334
62	0xbedd4664	-0.43217766
63	0x3c06719e	0.008205799

weight f4 [64, 64]
0	0x3c194a6e	0.009356124
1	0x3d33bcd7	0.043881264
2	0x3d8b0e2d	0.06789813
3	0xbce1cb1e	-0.027562674
4	0xbd898c39	-0.067161985
5	0x3c9b0e4a	0.018927712
6	0xbd3fd8c7	-0.046837594
7	0x3d8d2b21	0.06892992
8	0xbc830165	-0.015991876
9	0x3ca8fd16	0.020628493
10	0x3d9e19ff	0.07719802
11	0xbd2c3b22	-0.04204858
12	0x3da1ecd2	0.07906498
13	0x3d5d51dc	0.054033145
14	0x3c6a3aa6	0.014296209
15	0x3d22b405	0.03972246
16	0x3ccd267b	0.025042763
17	0xbde857a5	-0.11344842
18	0x3e048287	0.12940417
19	0xbd36e8b7	-0.044655528
20	0x3bc01449	0.005861793
21	0xbd129dfc	-0.035795197
22	0x3dadfd59	0.08495588
23	0x3dcaaeb7	0.098966055
24	0xbe07e65c	-0.13271469
25	0xbe14a1db	-0.14514868
26	0x3d55170e	0.05202394
27	0xbcc58e36	-0.024115663
28	0xbd1f2632	-0.038854785
29	0xbce03e2b	-0.027373394
30	0xbd1eab4f	-0.03873759
31	0x390304de	0.00012494947
32	0x3d8858ed	0.06657586
33	0x3ce045b4	0.027376987
34	0x3dabcf62	0.083891645
35	0x3dc28b9b	0.09499284
36	0x3dd75952	0.105150834
37	0xbd629917	-0.05532178
38	0xbcf4b719	-0.029872464
39	0xbd7abdf4	-0.06121631
40	0xbd643af1	-0.055720273
41	0xbe06fd70	-0.13182616
42	0xbd1597c1	-0.036521677
43	0xbdd9695b	-0.10615798
44	0x3d971b76	0.07378285
45	0xbde417a6	-0.11137323
46	0x3ad8905a	0.0016522512
47	0x3c4ae52e	0.012383742
48	0x3ce7e150	0.02830568
49	0x3d8711af	0.0659517
50	0xbdcfa737	-0.101393156
51	0x3d1a879f	0.037726995
52	0xbdf8f486	-0.12156014
53	0x3be6d4a9	0.007044394
54	0xbd7b8d3c	-0.06141399
55	0xbc8ef76c	-0.017451964
56	0xbd656c0a	-0.056011237
57	0x3d5c66a5	0.053808827
58	0xbddc7df5	-0.10766212
59	0xbdd2179c	-0.102584094
60	0xbdb43fe9	-0.088012524
61	0x3cfc24ab	0.030779203
62	0x3d427cfd	0.04748248
63	0xbd6eda2b	-0.05831353
64	0xbe1ccae2	-0.15311769
65	0xbce833ac	-0.028344952
66	0x3cd6502f	0.026161281
67	0xbc6fbbe7	-0.014632202
68	0xbd53b9f3	-0.051691007
69	0xbd81578a	-0.06315525
70	0xbd2f7718	-0.042838186
71	0xbd6cbc3d	-0.057796706
72	0xbcd93154	-0.02651278
73	0x3d94608b	0.072449766
74	0x3d901d36	0.070368215
75	0x3da362a9	0.07977802
76	0x3d77b720	0.060477376
77	0x3d4d2e81	0.050093178
78	0x3d469f42	0.048491724
79	0xbe331d0a	-0.17491546
80	0x3de1e8db	0.11030742
81	0xbd190d07	-0.03736594
82	0x3d209251	0.03920204
83	0x3cb82f77	0.02248357
84	0x3dfe0e04	0.12405017
85	0x3e2f75b8	0.1713475
86	0x3dac66d7	0.08418053
87	0x3e18adf8	0.14910114
88	0xbd5bb516	-0.053639494
89	0xbd22c59b	-0.039739233
90	0xbcf1a69c	-0.02949839
91	0xbe0a66d4	-0.13515788
92	0xbdb06348	-0.086126864
93	0xbd8635cd	-0.065532304
94	0xbdf15959	-0.1178462
95	0x3d43fa74	0.047846273
96	0xbcf3d4a8	-0.029764488
97	0xbd436afc	-0.04770945
98	0x3c6622aa	0.0140463505
99	0x3dee30b0	0.1163038
100	0xbcf900df	-0.030395923
101	0x3d891ff0	0.06695545
102	0x3e0e78a4	0.13913208
103	0xbe0b11c8	-0.13581002
104	0xbd361927	-0.04445758
105	0xbc0a55f9	-0.008443349
106	0x3dcc40f5	0.09973327
107	0x3d3308f9	0.04370973
108	0xbd9a8e2b	-0.07546648
109	0xbdf078c6	-0.11741786
110	0xbdfc8e61	-0.12331844
111	0x3d1958ba	0.037438132
112	0x3d727e59	0.059202526
113	0x3dc6a76e	0.096999034
114	0xbd9a441d	-0.07532523
115	0xbdffadae	-0.12484299
116	0xbdd695b8	-0.10477775
117	0xbd825af7	-0.063650064
118	0xbd21b27e	-0.039476864
119	0xbdcbfcd5	-0.09960333
120	0x3e096fef	0.13421606
121	0xbdb8c50b	-0.09021958
122	0x3cc14623	0.023593014
123	0xbe208bea	-0.15678373
124	0xbd87771d	-0.06614516
125	0xbcd7b655	-0.02633206
126	0x3da4cc35	0.08046762
127	0x3d11c9aa	0.035592712
128	0xbd9444ea	-0.07239707
129	0xbdb7d088	-0.08975321
130	0x3de5498e	0.1119567
131	0x3d93c1c5	0.07214693
132	0x3e17e774	0.14834386
133	0xbcbaebe9	-0.022817569
134	0xbd9e01f2	-0.07715215
135	0xbddc6ab8	-0.107625425
136	0xbd10ee4d	-0.03538351
137	0x3ce5161f	0.02796465
138	0xbdf11e2c	-0.11773333
139	0xbd65f31e	-0.056140058
140	0x3c2c4448	0.010514326
141	0xbe140826	-0.14456233
142	0xbcf52c50	-0.029928356
143	0xbe0ee792	-0.13955525
144	0x3d80c71e	0.062879786
145	0x3cebe7e9	0.028797107
146	0x3cecde78	0.028914675
147	0xbc812987	-0.015766872
148	0x3dd3ceef	0.10342204
149	0x3dd57f0a	0.104246214
150	0x3d4a53ed	0.049396444
151	0x3d93e3c0	0.07221174
152	0xbdb479fe	-0.08812331
153	0xbd6cf768	-0.057853132
154	0xbc43bdda	-0.01194712
155	0xbc5ea336	-0.013588717
156	0x3df17ce4	0.11791399
157	0xbd3b9986	-0.04580071
158	0xbdf62d85	-0.12020401
159	0x3d882da3	0.066493295
160	0xbcd618af	-0.026134817
161	0xbc4e4eca	-0.012592027
162	0x3db71940	0.08940363
163	0xbd71a4a6	-0.05899491
164	0xbd6036db	-0.054739814
165	0x3dad61de	0.08465932
166	0x3dfb11ec	0.12259278
167	0xbae5edbf	-0.0017542167
168	0x3acc193f	0.0015571489
169	0x3db8c62a	0.09022172
170	0xbd1a0e29	-0.03761116
171	0xbe14db08	-0.14536679
172	0x3e0d4f65	0.13799818
173	0x3bea56c9	0.007151459
174	0xbe0d32d7	-0.13788925
175	0xbd38db70	-0.045131147
176	0x3d145282	0.036211498
177	0xbc7719f0	-0.015081868
178	0xbe119069	-0.14215244
179	0xbda5b88f	-0.080918424
180	0xbc11be19	-0.0088954205
181	0x3c903b1a	0.017606307
182	0x3daa92d7	0.08328789
183	0xbd8535eb	-0.06504425
184	0x3d8f8836	0.07008402
185	0x3d218c4d	0.039440442
186	0xbd878185	-0.06616501
187	0x3d61a4c1	0.055088762
188	0xbc6f3f64	-0.014602516
189	0x3e054d9d	0.13017888
190	0xbd3758f4	-0.044762567
191	0x3de8a459	0.11359472
192	0xbe0d4489	-0.13795675
193	0x3d8878c0	0.06663656
194	0x3e0ca33c	0.13734144
195	0xbdf8eeca	-0.121549204
196	0x3d4147ce	0.04718762
197	0x3dfc5c2a	0.123222664
198	0x3dae32c1	0.08505774
199	0x3d8a63dc	0.06757328
200	0xbce7e3af	-0.02830681
201	0x3d3fc554	0.046819046
202	0x3db540a4	0.0885022
203	0xbdc42d76	-0.095789835
204	0x3d9aebe1	0.075645216
205	0x3c5f9212	0.013645666
206	0x3d833779	0.06407065
207	0x3d7abdad	0.061216045
208	0x3c7a0497	0.015259883
209	0x3d89c58d	0.06727133
210	0xbd1a476c	-0.03766577
211	0x3d007882	0.031364925
212	0xbda15985	-0.078784026
213	0x3e23ef88	0.16009343
214	0xbd1e32d7	-0.038622703
215	0x3de1b6d4	0.110212
216	0xbc51ed5f	-0.012812941
217	0xbe280c80	-0.16411018
218	0x3db7c6e0	0.08973479
219	0x3d1edf66	0.038787268
220	0x3dcf6b31	0.10127867
221	0xbca730ca	-0.020409007
222	0xbe0bed3a	-0.13664714
223	0x3de71981	0.11284161
224	0xbdd043f4	-0.10169211
225	0xbe1740e4	-0.14770848
226	0x3dba64d8	0.09101266
227	0xbd925803	-0.07145693
228	0xbda67c4f	-0.08129179
229	0xba92dd33	-0.0011204839
230	0x3c2b91a7	0.010471738
231	0xbdd0c47a	-0.10193725
232	0x3d96c264	0.07361296
233	0x3daddbee	0.08489214
234	0x3d0dc2f0	0.034609735
235	0xbd5f6807	-0.054542568
236	0xbb1ce3bd	-0.0023939454
237	0x3ca26ebd	0.019828195
238	0x3d3d6d35	0.046246726
239	0x3dace938	0.084429204
240	0xbd1356bf	-0.0359714
241	0x3c0d770f	0.008634343
242	0x3dcd84ec	0.100351185
243	0x3bdaddcb	0.006679272
244	0x3dc60108	0.096681654
245	0x3dbbfff0	0.091796756
246	0x3c9df8f4	0.01928375
247	0xbcf17b03	-0.029477602
248	0xbd20d2fd	-0.039263714
249	0x3dab7ed1	0.08373798
250	0xbd781683	-0.060568344
251	0xbdb1307f	-0.08651828
252	0xbda5581e	-0.08073448
253	0x3da5ccd7	0.08095711
254	0x3a23a168	0.0006242008
255	0xbc53cf0f	-0.012927785

bias f4 [64]
0	0xbd2b0d2d	-0.041760612
1	0xbdcb68da	-0.09932108
2	0xbbed8976	-0.0072490526
3	0x3dc5fcba	0.096673444
4	0x3d1e40d9	0.038636062
5	0xbd317445	-0.043323774
6	0xbca2911f	-0.01984459
7	0x3d8c4fd3	0.06851163
8	0xbc51998c	-0.012792956
9	0xbca1ae6f	-0.019736497
10	0x3d78edf0	0.06077379
11	0x3d2e2d00	0.042523384
12	0xbd15ba11	-0.0365544
13	0x3cae2365	0.021257112
14	0xbb37a443	-0.0028021492
15	0x3dd39f76	0.10333149
16	0x3d5ddddf	0.05416667
17	0x3d98128d	0.07425413
18	0x3d6ac709	0.05731872
19	0xbdc94e2b	-0.098293625
20	0x3d8d8ed9	0.06912012
21	0xbd979bdd	-0.074027754
22	0xbda5c830	-0.08094823
23	0xbc7cce23	-0.015430006
24	0xbcf8ce94	-0.030371942
25	0xbce18d3f	-0.027533172
26	0x3d57189a	0.052513696
27	0xbd351eea	-0.044218935
28	0xbcf0acb0	-0.029379219
29	0x3dbf49d8	0.093402565
30	0x3cf71142	0.030159596
31	0xbd1d9c1e	-0.038478963
32	0xbdcd9cd6	-0.1003968
33	0x3dbd4a2f	0.09242665
34	0xbd0da314	-0.03457935
35	0xbc211fd1	-0.009834246
36	0xbd091806	-0.033470176
37	0x3d9778ce	0.073960885
38	0xbd45c95b	-0.04828773
39	0xbdb3a178	-0.08771032
40	0xbd9fc90b	-0.07802018
41	0x3dd67cbe	0.104730114
42	0xbd065b53	-0.032801937
43	0xbcdc0b14	-0.026860751
44	0x3dd5677f	0.10420131
45	0xbdc18cac	-0.09450659
46	0xbcae28d3	-0.0212597
47	0x3cb2279e	0.021747407
48	0xbd75f7e1	-0.06005085
49	0x3dc79278	0.097447336
50	0xbc949be6	-0.018140744
51	0xbd1183ec	-0.0355262
52	0xbd3c6e23	-0.046003472
53	0x3df5084b	0.119644724
54	0xbdee3616	-0.1163141
55	0xbdc99bc5	-0.09844164
56	0xbd3b0a99	-0.045664404
57	0x3df2052f	0.11817395
58	0xbcf69886	-0.030102026
59	0xbdafad7b	-0.08578011
60	0x3d945f35	0.07244722
61	0x3da756bc	0.0817084
62	0xbdd569ec	-0.104205936
63	0xbcd42a7c	-0.025899164

weight f4 [2, 64]
0	0xbdccec57	-0.10006016
1	0xbd98d354	-0.07462183
2	0xbe29f4ce	-0.16597292
3	0xbdacba5c	-0.08433983
4	0xbdb8e985	-0.09028915
5	0x3e0ad7b6	0.1355885
6	0x3d8163ce	0.06317864
7	0x3d759fd4	0.059966877
8	0xbd4779dd	-0.048700202
9	0x3d4e4683	0.050360214
10	0x3e2944a1	0.16530086
11	0x3cfa5287	0.03055693
12	0x3d0625a0	0.032750726
13	0x3d6554cc	0.05598907
14	0xbd12d82a	-0.03585068
15	0xbe212a41	-0.15738775
16	0x3dcceb1e	0.100057825
17	0x3c23bbaf	0.009993478
18	0x3e28c06e	0.16479656
19	0xbe16889c	-0.1470055
20	0x39b61b4d	0.00034734086
21	0xbc9ee3fb	-0.019395819
22	0x3deed2fa	0.11661334
23	0xbdeb888c	-0.115006536
24	0x3ce2f4b3	0.027704572
25	0x3deaeb5c	0.114706725
26	0x3db64acd	0.08900986
27	0x3ce01d2a	0.027357657
28	0x3dd8d815	0.105880894
29	0xbda7d56c	-0.08195004
30	0xbe0f5bea	-0.13999906
31	0x3cadd3cf	0.021219162
32	0x3e02a5fc	0.1275863
33	0xbda8b2b4	-0.0823721
34	0x3de059a2	0.10954596
35	0x3e04b8da	0.1296114
36	0xbe08b0f6	-0.13348755
37	0xbdd231c9	-0.10263402
38	0x3ddc6993	0.10762324
39	0xbd81c972	-0.06337251
40	0x3d699a49	0.057031903
41	0x3db032d7	0.08603447
42	0xbd6df385	-0.058093566
43	0xbd1b2a86	-0.03788235
44	0x3a239927	0.0006240778
45	0x3b27bb95	0.0025593985
46	0xbe10e542	-0.14149955
47	0xbdd1e118	-0.10248011
48	0x3d6e2dd4	0.058149174
49	0xbe0dab68	-0.13834918
50	0xbdca0486	-0.09864144
51	0xbe167c2b	-0.14695804
52	0x3da395c1	0.07987548
53	0xbdaa187e	-0.08305453
54	0xbd07b97c	-0.033135876
55	0x3d8ae6e3	0.067823194
56	0x3d4fd3c9	0.050739083
57	0x3cbe1023	0.023201054
58	0x3d20b630	0.039236248
59	0xbde6889f	-0.11256527
60	0xbd9222c4	-0.07135537
61	0xbe140d08	-0.14458096
62	0xbd04bf42	-0.03240896
63	0xbe0b63dd	-0.13612314
64	0x3d86bcb0	0.06578958
65	0x3d6a30f1	0.05717558
66	0xbcf81539	-0.030283557
67	0x3d960ecf	0.07327043
68	0x3cfc08b5	0.03076587
69	0xbdb10999	-0.08644409
70	0xbd16c0ba	-0.036804892
71	0xbd9613fc	-0.073280305
72	0xbd577f9f	-0.052611943
73	0x3e300f9f	0.17193459
74	0xbe286438	-0.1644448
75	0xbe0b24b8	-0.13588226
76	0xbe197465	-0.14985807
77	0xbc5986a8	-0.013276733
78	0x3de32e5f	0.11092829
79	0x3d35cca0	0.0443846
80	0xbe2edb9c	-0.17075962
81	0xbe01d87a	-0.12680236
82	0xbda7e2cc	-0.08197555
83	0x3a83b60b	0.001004876
84	0xbde55524	-0.1119788
85	0xbde7ea78	-0.11324018
86	0xbd1f93bd	-0.038959254
87	0x3dfdc85d	0.12391732
88	0xbe22939f	-0.15876625
89	0x3da92ba6	0.082602784
90	0xbc91e80d	-0.017810846
91	0xbe0623bd	-0.1309957
92	0x3d71b29b	0.059008222
93	0x3d888bb1	0.06667269
94	0x3905d230	0.0001276217
95	0xbe2aa318	-0.16663778
96	0xbc4d55e2	-0.012532683
97	0x3d8c7b8c	0.06859502
98	0xbdfb7964	-0.12279013
99	0x3c591e71	0.013251887
100	0x3d2a5e7f	0.041594025
101	0xbd834a5d	-0.06410668
102	0xbcf127ab	-0.02943786
103	0xbc93503b	-0.017982593
104	0x3e00d0b5	0.12579615
105	0xbc881a09	-0.016613977
106	0x3ce75ba3	0.028241938
107	0xbe1c80b0	-0.15283465
108	0xbddc6deb	-0.10763153
109	0x3dcd276d	0.100172855
110	0x3dca72e1	0.09885193
111	0x3cc78dee	0.02435967
112	0x3db2dd39	0.08733601
113	0x3dc67752	0.09690727
114	0xbd901050	-0.07034361
115	0x3bc86af2	0.0061162645
116	0x3e150e04	0.14556128
117	0x3d268b0d	0.040659953
118	0x3db0c3c8	0.08631092
119	0x3d68b98b	0.056817573
120	0xbe2c628e	-0.1683447
121	0xbe14cf2c	-0.14532155
122	0xbe23418d	-0.15942974
123	0x3ba9f994	0.0051872227
124	0x3db857aa	0.090010956
125	0x3de7a86f	0.11311423
126	0xbccbc34c	-0.024873398
127	0x3d5a07a7	0.053229954

bias f4 [2]
0	0xbd381435	-0.044941146
1	0xbc70a689	-0.014688143

weight f4 [64, 4]
0	0xbf596b78	-0.8492961
1	0x3e5817e9	0.21102871
2	0xbff3afa9	-1.9037982
3	0xbe957107	-0.29187796
4	0x3e9fd2a2	0.31215388
5	0xbe3721e5	-0.17884023
6	0x401c4a75	2.4420445
7	0xbeb63e26	-0.3559429
8	0xbf32e331	-0.69877917
9	0x3f132748	0.57481813
10	0xc034e168	-2.8262577
11	0x3eeb5281	0.45961383
12	0x3f839d23	1.0282329
13	0xbf4f539b	-0.80986947
14	0x400b5077	2.1767862
15	0xbee13cd0	-0.4399171
16	0x3ec977dc	0.39349258
17	0xbf0ca51c	-0.54939437
18	0xbf3692bb	-0.7131764
19	0xbf858774	-1.0431962
20	0xbd5a2b97	-0.053264227
21	0xbe8c2079	-0.27368525
22	0xc02a24a8	-2.6584873
23	0xbeaa730a	-0.33290893
24	0xbd908f41	-0.070585735
25	0xbecb20a2	-0.39673334
26	0xbff27acf	-1.8943728
27	0xbeda59eb	-0.42646727
28	0xbeef464c	-0.4673332
29	0x3e81e75b	0.25371823
30	0xc016c2b1	-2.355633
31	0x3ea3ff0c	0.32030523
32	0xbec44f59	-0.38341787
33	0x3ea10e62	0.31456286
34	0xc0416285	-3.0216382
35	0x3f2b385e	0.66882885
36	0x3f9fd449	1.2486659
37	0xbe3e25dc	-0.1856913
38	0xbe9167f1	-0.28399613
39	0x3ea1911b	0.3155602
40	0xbf4773bb	-0.77910966
41	0x3f0c6d66	0.5485443
42	0xbfe4b94d	-1.7869049
43	0x3d71a715	0.058997232
44	0xbf7b4733	-0.98155516
45	0x3f298277	0.662147
46	0x3f3955a0	0.7239628
47	0x3f419762	0.75621617
48	0x3ee03f9b	0.43798527
49	0xbe8ae324	-0.2712642
50	0x4020a95a	2.5103364
51	0xbd5b0558	-0.053471893
52	0xbf0af2ac	-0.5427654
53	0x3e9e5f73	0.30932197
54	0xc0118098	-2.2734737
55	0xbccce696	-0.025012296
56	0xbdd30b40	-0.1030488
57	0x3eb235fe	0.34806818
58	0x3f826f11	1.0190145
59	0xbf160a49	-0.58609444
60	0xbe94c0b4	-0.2905327
61	0xbea57b53	-0.3232065
62	0xbff800a8	-1.93752
63	0xbf29ec40	-0.66376114
64	0x3f5ef00b	0.87085027
65	0x3f34ee40	0.7067604
66	0x3f5d5cea	0.864699
67	0x3f7274b5	0.9470933
68	0xbf069fa0	-0.5258732
69	0x3ef207c6	0.47271556
70	0xc02bbf0c	-2.6835356
71	0x3f621c47	0.883244
72	0x3cf1b125	0.029503414
73	0xbf17055e	-0.58992565
74	0xbfb91cce	-1.4461915
75	0xbf2b825c	-0.6699579
76	0x3f0bdd91	0.5463496
77	0xbe5744b5	-0.21022303
78	0x4002c4bf	2.0432584
79	0xbcd49997	-0.025952144
80	0x3ce636fd	0.028102392
81	0x3f16336a	0.586722
82	0x3fd8b555	1.6930338
83	0x3f51df59	0.81981426
84	0x3d611653	0.05495293
85	0x3e80187d	0.25018683
86	0xc02d36d3	-2.7064712
87	0xbee44d9e	-0.44590467
88	0xbe80e174	-0.25172007
89	0xbf393760	-0.7235012
90	0x402a8000	2.6640625
91	0xbe333cbe	-0.1750364
92	0x3f20ad68	0.62764597
93	0xbf1589e8	-0.58413553
94	0x4024ff27	2.5780733
95	0xbf0fc833	-0.56164855
96	0x3e72b6b3	0.23702507
97	0xbdc814f1	-0.09769619
98	0x40346910	2.8189125
99	0xbeb40a59	-0.35164145
100	0x3f34cf4e	0.7062882
101	0xbea3a284	-0.31959927
102	0x402550a1	2.5830462
103	0x3df60673	0.12012949
104	0xbd315246	-0.043291353
105	0xbf1dc275	-0.6162484
106	0x40291934	2.6421633
107	0xbe6ce3f3	-0.2313383
108	0xbca44c17	-0.020055814
109	0x3ed6b693	0.41936168
110	0x401096aa	2.2591958
111	0x3ec1b821	0.37835792
112	0x3f1cf2cd	0.61307985
113	0x3ecd2091	0.4006391
114	0xc03b22d9	-2.924002
115	0xbea5463a	-0.3228014
116	0xbf3ad7de	-0.7298564
117	0xbf5a7ddf	-0.85348314
118	0x3f9db828	1.2321825
119	0x3dba90ea	0.091096714
120	0x3f38b43b	0.7215001
121	0x3ed443e3	0.41458043
122	0xbfc4051b	-1.5314058
123	0x3e0d5d1a	0.13805047
124	0xbf4b322c	-0.7937343
125	0x3f832018	1.0244169
126	0x3f716b4c	0.9430435
127	0x3fa1999d	1.2625004
128	0x3e1b09f2	0.15140513
129	0xbf0556ab	-0.5208537
130	0xbfd9f469	-1.7027713
131	0xbec9dc9d	-0.39426127
132	0xbeadfcb1	-0.3398185
133	0x3fcebb06	1.6150825
134	0x3e6ca87a	0.23111144
135	0x3f97dc3d	1.1864086
136	0x3f6b5fca	0.9194304
137	0xbea760c0	-0.32691002
138	0x3fad0990	1.3518543
139	0xbf18143c	-0.59405875
140	0x3f978b6f	1.1839427
141	0xbda1401e	-0.078735575
142	0x3fbe9161	1.4888116
143	0x3e43b767	0.19112931
144	0x3edc457b	0.4302176
145	0xbe0668a1	-0.1312585
146	0xc0160dc4	-2.3445902
147	0xbefb89fa	-0.49128705
148	0xbf964368	-1.1739321
149	0xbf50a022	-0.81494343
150	0x40140ed3	2.3134048
151	0xbd624714	-0.055243567
152	0xc00038e1	-2.0034716
153	0xbf51d064	-0.81958604
154	0x3ec50ef9	0.38487986
155	0xbf1821ab	-0.59426373
156	0xbf007417	-0.5017714
157	0xbf70aed6	-0.9401678
158	0x3faea08a	1.3642743
159	0xbf885f4e	-1.0654085
160	0x3eeb60e2	0.45972353
161	0x3e98fb92	0.29879433
162	0x400b9f79	2.1816084
163	0x3f0cc8ed	0.5499409
164	0xbc848570	-0.01617691
165	0x3ef4260b	0.47685274
166	0x40080cc9	2.1257803
167	0x3f11d873	0.569709
168	0x3f8ce439	1.1007148
169	0xbf774d82	-0.9660264
170	0x3f92e162	1.1475031
171	0xbecc4d44	-0.399027
172	0xbf590b62	-0.84782994
173	0x3f17030e	0.58989036
174	0xbff387f0	-1.902586
175	0x3ec044b1	0.37552407
176	0xbe391679	-0.18074979
177	0xbc6bf3a0	-0.014401346
178	0xc02ecd31	-2.731274
179	0x3dba0235	0.09082452
180	0x3f63e5f0	0.8902273
181	0xbeb00dd9	-0.34385565
182	0x3fa0d412	1.2564719
183	0x3e33a810	0.1754458
184	0xbf8766a7	-1.0578202
185	0x3f3621b0	0.71145153
186	0x3f405276	0.75125825
187	0x3ec55e40	0.3854847
188	0x3f9ee46f	1.2413462
189	0x3d1eab57	0.03873762
190	0x3f745681	0.95444494
191	0x3ed12544	0.40848744
192	0x3e0b4a72	0.13602617
193	0x3df7ec0d	0.1210557
194	0x4030b79a	2.7612062
195	0x3f18ad59	0.5963951
196	0xbf2a1bd2	-0.664487
197	0xbd4cf530	-0.050038517
198	0x3ff9dec6	1.952111
199	0xbc2205a2	-0.009889038
200	0x3e84d514	0.25943816
201	0x3db2087e	0.08693026
202	0x4000f63d	2.0150292
203	0xbd0627ee	-0.032752924
204	0x3f7fb74c	0.99889064
205	0xbed562cb	-0.41676936
206	0x402c08eb	2.6880443
207	0x3e42c9e5	0.19022329
208	0xbf7be136	-0.9839052
209	0xbd07827c	-0.033083424
210	0x3fbf93f1	1.4967023
211	0xbd9bf11f	-0.076143496
212	0x3f4e4a45	0.80582076
213	0xbf0bded1	-0.54636866
214	0x402eeb91	2.7331278
215	0xbe1d4aa7	-0.15360509
216	0x3ffa211a	1.9541352
217	0x3ee534d6	0.44766873
218	0xbf070a19	-0.5274978
219	0x3f634e6f	0.88791555
220	0xbf388064	-0.7207091
221	0x3edd81d3	0.4326311
222	0xc025b7a3	-2.5893333
223	0x3e7f5c3d	0.2493753
224	0x3d7196db	0.058981758
225	0x3ef917b5	0.486509
226	0x40139f7e	2.3066096
227	0x3f0ad7f8	0.5423579
228	0xbdd2806b	-0.102784
229	0xbe3599ee	-0.17734501
230	0xc0020cba	-2.0320268
231	0xbc8dd010	-0.017311126
232	0xbeb92363	-0.3615981
233	0xbea29b81	-0.31759265
234	0xbfce2d70	-1.6107616
235	0xbe994173	-0.29932746
236	0xbe4710b0	-0.1943996
237	0x3f22fff3	0.636718
238	0x3fd11360	1.6334038
239	0x3f0fc03f	0.5615272
240	0x3f9992ce	1.1997926
241	0xbf392747	-0.7232556
242	0xbe808a3a	-0.25105458
243	0xbe91fa94	-0.28511488
244	0x3f9a6ba9	1.2064105
245	0xbea7f255	-0.32802072
246	0x3fa05943	1.252724
247	0x3e223045	0.15838726
248	0xbfa62223	-1.2979168
249	0xbe7d49c8	-0.24735177
250	0x3f370d64	0.7150481
251	0xbe0d06e3	-0.13772158
252	0x3e2bf7cd	0.16793747
253	0x3e860645	0.26176658
254	0x3ff085b2	1.87908
255	0x3e845c2b	0.2585157

bias f4 [64]
0	0x3e9ee02c	0.31030405
1	0xbea8649e	-0.32889265
2	0x3e678c01	0.22612001
3	0xbe1600f8	-0.14648807
4	0x3d852876	0.06501858
5	0xbedd878a	-0.4326747
6	0x3e907226	0.28212088
7	0xbe37bf42	-0.17944053
8	0x3e3749ae	0.178992
9	0x3b8d8307	0.004318598
10	0x3e643f59	0.2228979
11	0xbf09251f	-0.5357227
12	0xbece8f04	-0.40343487
13	0x3eb264d6	0.34842557
14	0xbe49805c	-0.19677871
15	0xbed10efc	-0.40831745
16	0xbe7582cd	-0.23975678
17	0x3e1403ae	0.14454529
18	0x3e8825c9	0.26591328
19	0xbeaf7f1b	-0.3427666
20	0xbeb621fd	-0.35572806
21	0x3f4a0a0d	0.78921586
22	0x3ed33c3b	0.4125689
23	0xbe52b0c0	-0.20575237
24	0xbe8b812b	-0.27246985
25	0xbef71310	-0.4825673
26	0x3e89472c	0.26812112
27	0x3ea161b7	0.31519863
28	0xbf47df3f	-0.7807502
29	0xbf09c293	-0.5381252
30	0x3ec5f9a8	0.38667035
31	0xbe96771e	-0.29387754
32	0x3eb8168d	0.35954705
33	0xbe898a2c	-0.2686323
34	0x3d38c61f	0.045110818
35	0x3e6a7a8f	0.22898315
36	0x3f49511d	0.78639394
37	0xbf14b7d6	-0.5809301
38	0xbeda86b1	-0.42680886
39	0x3da79a69	0.08183748
40	0x3f1bcb6d	0.6085728
41	0x3eb1fdbc	0.34763896
42	0xbcdf8fb7	-0.027290208
43	0x3f048e0b	0.5177924
44	0x3e648a07	0.22318278
45	0xbed16390	-0.40896273
46	0xbe9ad475	-0.30240217
47	0xbd306ac2	-0.043070562
48	0x3f21165c	0.6292474
49	0xbf16bb1e	-0.5887927
50	0xbe97db4c	-0.29659498
51	0x3f272558	0.6529136
52	0xbf1474bb	-0.57990617
53	0x3ee03ced	0.43796483
54	0xbe837d0d	-0.25681344
55	0x3e74e5a4	0.23915726
56	0x3f048e7f	0.5177993
57	0x3eb6a2eb	0.35671172
58	0x3e8b686b	0.27228102
59	0xbe712495	-0.23549111
60	0xbe73ab57	-0.2379583
61	0x3eeab4aa	0.4584096
62	0x3f0600e5	0.52345115
63	0x3def5a51	0.11687148

weight f4 [64, 64]
0	0xbec3aa0f	-0.38215682
1	0x3f29dab7	0.6634936
2	0xc00a3cb6	-2.1599555
3	0x3fc0aef0	1.5053387
4	0x3e898373	0.268581
5	0xbe181d23	-0.14854865
6	0xbd5404b6	-0.051762305
7	0xbeba4bf7	-0.36386082
8	0xbf8c83a7	-1.0977677
9	0x3eed7b46	0.46383113
10	0xbf64c59e	-0.8936404
11	0xbeaf7a5d	-0.34273043
12	0x3ed1005e	0.40820593
13	0xbf49ca26	-0.7882408
14	0x3ea996e5	0.33122936
15	0xbe064dcc	-0.13115615
16	0xbdd3ef02	-0.103483215
17	0xbfa940c4	-1.322289
18	0x3eb5ca28	0.35505795
19	0x3ec4aa32	0.384111
20	0xbe0793f0	-0.13240027
21	0xbe91b811	-0.28460744
22	0x3d953b45	0.072866954
23	0x3fd18bae	1.6370752
24	0x3f43913d	0.7639349
25	0x3f70a47f	0.94001
26	0x3e62f6b2	0.2216442
27	0xbd5165fb	-0.051122647
28	0x3db930d0	0.09042513
29	0x3e8d6968	0.2761948
30	0xbe16ad0e	-0.14714453
31	0xbf1c9a53	-0.6117298
32	0x3ea93fb8	0.33056426
33	0xbecc7440	-0.39932442
34	0x3ef72041	0.48266795
35	0x3ead8c8c	0.3389629
36	0xbcc964ca	-0.024584193
37	0x3e92627a	0.28590757
38	0xbb83efc9	-0.0040263874
39	0x3e718cc3	0.23588853
40	0x3dd5781f	0.10423302
41	0xbd79bedd	-0.060973037
42	0x3f530d2a	0.8244196
43	0xbf2fc7cf	-0.6866426
44	0xbef15d2a	-0.4714139
45	0x3f034e69	0.5129152
46	0xbf0caf73	-0.54955214
47	0x3f110922	0.5665456
48	0xbc694acb	-0.014239023
49	0x3d585ddb	0.052823883
50	0x3e90cbeb	0.28280577
51	0x3e0f9c1a	0.14024392
52	0xbd38e745	-0.04514243
53	0x3e690f03	0.22759633
54	0x3e92674a	0.28594428
55	0xbfadc409	-1.357545
56	0xbc2a7f9a	-0.010406399
57	0xbde32dfa	-0.11092754
58	0xbe4f04c4	-0.20216662
59	0xbead4d05	-0.33847824
60	0x3f431fa5	0.7622016
61	0x3edd5609	0.43229702
62	0xbec4373e	-0.38323396
63	0x3e39e26c	0.1815278
64	0xbe4d5dbb	-0.20055287
65	0xbe3c204a	-0.18371692
66	0x3bc425ae	0.005985937
67	0x3cb07b78	0.02154325
68	0x3f094241	0.5361672
69	0x3f8de686	1.1085975
70	0x3e2b39a1	0.16721202
71	0x3daa9830	0.08329809
72	0x3f6722e0	0.9028759
73	0x3e616b3c	0.22013563
74	0xbca3bf67	-0.019988729
75	0xbdafe3a6	-0.08588342
76	0xbdaadc1c	-0.08342764
77	0x3d1b9392	0.03798253
78	0x3ed20eba	0.4102686
79	0x3ee991ee	0.45619148
80	0x3eb9ef7c	0.36315525
81	0x3f0a4b6a	0.5402132
82	0x3e0553fa	0.13020316
83	0x3e0d8692	0.13820866
84	0xbc321630	-0.010869548
85	0xbe1609e1	-0.14652206
86	0xbf26e2c1	-0.6518975
87	0xbf07bcbc	-0.5302236
88	0xbf09f819	-0.5389419
89	0x3b07f7b0	0.0020746998
90	0xbf62a3e9	-0.8853136
91	0xbf5a3f6f	-0.8525304
92	0x3f45050c	0.76960826
93	0x3e4ce58a	0.20009437
94	0x3e0aa327	0.135388
95	0xbcecaf08	-0.028892055
96	0x3da942d5	0.082647
97	0x3e5aa900	0.21353531
98	0x3ec096b3	0.37614974
99	0xbd47861a	-0.048711874
100	0xbcc3a197	-0.023880763
101	0xbdd877ac	-0.105697006
102	0xbe34e737	-0.17666326
103	0xbeb3c6f2	-0.3511272
104	0xbf1ae13a	-0.6049992
105	0xbf33805f	-0.70117754
106	0x3e1c7292	0.1527808
107	0xbea0e78f	-0.31426665
108	0x3f0e843c	0.55670524
109	0x3e23a588	0.15981114
110	0xbea2b520	-0.31778812
111	0x3ea102eb	0.3144754
112	0xbf476b29	-0.7789789
113	0xbd929e0f	-0.071590535
114	0xbe8b1542	-0.27164656
115	0xbeec2fc6	-0.46130198
116	0x3ce874b1	0.028375955
117	0xbeecdb47	-0.46261045
118	0x3f2a2232	0.6645843
119	0x3e28a09a	0.16467515
120	0xbf6dc269	-0.9287477
121	0x3e9846b4	0.29741442
122	0xbdfa95eb	-0.12235626
123	0xbe9cdfae	-0.30639404
124	0x3e6b5560	0.22981787
125	0xbd2118fd	-0.03933047
126	0xbeca277f	-0.39483258
127	0xbeadecb1	-0.33969644
128	0x3f15c9b5	0.58510906
129	0xbe65b5fc	-0.22432703
130	0x3f448c0e	0.76776206
131	0xbf89b86f	-1.075941
132	0xbeff9d7e	-0.49924845
133	0x3c9a40df	0.018829761
134	0x3e9a7203	0.3016511
135	0x3d6536d3	0.055960488
136	0x3f288273	0.6582405
137	0xbf18e842	-0.597294
138	0x3f8c6c6a	1.0970585
139	0x3dc62e99	0.096768565
140	0xbc87bf48	-0.016570702
141	0x3f03adc1	0.51437
142	0x3f3104af	0.6914777
143	0xbdf1beeb	-0.11803993
144	0xbe4abdc0	-0.19798946
145	0x3f8cd4b3	1.1002411
146	0xbe534e9e	-0.20635459
147	0xbf0156f3	-0.505233
148	0xbe4234ac	-0.18965405
149	0x3e39e983	0.18155484
150	0x3ef5e8aa	0.4802907
151	0xbf46cf2a	-0.7765986
152	0xbf486363	-0.7827665
153	0xbf336dd1	-0.7008944
154	0x3e8395fa	0.2570036
155	0xbd2b3779	-0.04180095
156	0xbf2da995	-0.67836887
157	0xbeb35fc7	-0.3503401
158	0xbe0db266	-0.13837585
159	0x3f0b58f1	0.5443259
160	0xbe18d772	-0.14925936
161	0x3d309a5f	0.04311597
162	0xbf52a3b2	-0.8228103
163	0xbd97e7aa	-0.07417233
164	0xbd847cf9	-0.06469149
165	0xbe64c175	-0.22339423
166	0xbe4d8791	-0.20071246
167	0x3e654335	0.22388919
168	0x3bfdf533	0.0077501773
169	0xbd3fada0	-0.04679644
170	0xbf830229	-1.0235034
171	0x3f22bb3b	0.6356694
172	0x3f81e007	1.0146493
173	0xbf8ba7c4	-1.0910573
174	0x3f4a169b	0.78940743
175	0xbe8e3bd4	-0.2778002
176	0xbc014c28	-0.007891692
177	0x3e9a91d3	0.3018938
178	0xbf28a2a5	-0.65873176
179	0xbc89779d	-0.016780669
180	0xbe0d48f8	-0.13797367
181	0x3e15c37b	0.14625351
182	0xbf2901c6	-0.6601833
183	0x3f8cf173	1.1011184
184	0xbd605818	-0.054771513
185	0x3e60cc90	0.21953034
186	0x3e650628	0.2236563
187	0xbe09e0e5	-0.13464697
188	0xbf830991	-1.0237294
189	0x3d02bf61	0.031920794
190	0x3f31d604	0.69467187
191	0xbd564ce4	-0.052319422
192	0xbf1c5906	-0.6107334
193	0x3dfdd536	0.123941824
194	0xbf0b1f88	-0.5434499
195	0x3f6c3253	0.9226429
196	0x3ea6d221	0.3258219
197	0x3f56b5c5	0.8387111
198	0x3d5b2da8	0.053510338
199	0x3e86c924	0.26325333
200	0x3e483a3c	0.19553465
201	0x3f35bde7	0.70992893
202	0xbf30418a	-0.68850005
203	0x3ca9ace8	0.020712331
204	0x3eb02e98	0.34410548
205	0xbeffed89	-0.49985912
206	0x3f18324c	0.59451747
207	0x3eb5469e	0.3540544
208	0x3ee2fddf	0.44334313
209	0xbec3b250	-0.3822198
210	0xbd093084	-0.033493534
211	0x3f085c66	0.5326599
212	0x3e3cc0de	0.18432948
213	0xbebc3ad8	-0.36763644
214	0xbf4c7cc0	-0.79877853
215	0x3f561097	0.83619064
216	0xbe2bc586	-0.16774568
217	0x3f24012a	0.64064276
218	0xbf28877f	-0.6583175
219	0xbef9c3e1	-0.48782256
220	0x3f80b68f	1.0055712
221	0xbdf0c19c	-0.11755678
222	0x3e5a62e3	0.21326785
223	0xbe4b2641	-0.19838811
224	0x3ede4a0f	0.43415877
225	0x3df4ec3a	0.11959119
226	0x3ee0f901	0.43939975
227	0x3e3fe7a3	0.18740706
228	0xbe8d8859	-0.27643088
229	0xbe719ff4	-0.23596174
230	0xbe842a28	-0.25813413
231	0xbf245737	-0.6419558
232	0xbecc9847	-0.39959928
233	0xbec0ecbd	-0.37680617
234	0x3f35a029	0.7094751
235	0xbf280e89	-0.6564718
236	0x3e4e7c5d	0.20164628
237	0x3f1f0148	0.6211133
238	0xbd9fcb21	-0.07802416
239	0x3f1ec9ac	0.62026477
240	0xbf4f1fce	-0.80907905
241	0xbe5d09c3	-0.21585755
242	0x3e5aac18	0.21354711
243	0xbf3b78e2	-0.7323133
244	0xbe09b062	-0.13446191
245	0xbf134e7f	-0.5754165
246	0x3f919365	1.1373106
247	0xbf19eb03	-0.60124224
248	0xbf069f5e	-0.52586925
249	0xbc85e40c	-0.016344093
250	0xbec06b9e	-0.37582105
251	0xbed549f1	-0.41657975
252	0x3fb9862b	1.449407
253	0xbdf69a6c	-0.120411724
254	0xbf9d13d6	-1.2271678
255	0xbe8cbdb9	-0.27488497

bias f4 [64]
0	0x3d63b68a	0.055594005
1	0xbebcc393	-0.3686796
2	0xbd17e706	-0.037085555
3	0xbf0ec6fc	-0.55772376
4	0xbdbe40a2	-0.092896715
5	0x3eaf2075	0.3420445
6	0xbedee6fc	-0.43535602
7	0xbde92f90	-0.11386025
8	0x3f02bc3e	0.51068485
9	0xbec6651b	-0.38749012
10	0x3e5d04ac	0.21583813
11	0xbeae44e7	-0.34036943
12	0x3f0bd60f	0.546235
13	0x3e668ea1	0.22515346
14	0xbf0225ed	-0.5083912
15	0xbedf4760	-0.43609142
16	0x3f16e74a	0.5894667
17	0xbe9500a3	-0.29102048
18	0x3de86149	0.11346681
19	0xbe8feb7b	-0.28109345
20	0x3e1a4490	0.15065217
21	0xbe31f70e	-0.173794
22	0x3f1975d9	0.59945446
23	0x3e923cd7	0.28562042
24	0x3e0687ff	0.13137816
25	0xbeb4f6bd	-0.35344496
26	0xbf034f54	-0.5129292
27	0xbf1b1e86	-0.6059345
28	0x3eaddfc0	0.3395977
29	0x3f0c93b5	0.54912883
30	0x3efdc7a0	0.49566364
31	0x3e958c41	0.29208568
32	0xbe6d6144	-0.23181635
33	0xbdf52d5c	-0.11971542
34	0xbea5b264	-0.32362664
35	0xbdcafbae	-0.09911285
36	0xbef0ce98	-0.4703262
37	0xbe1b2b2b	-0.15153186
38	0xbeaf636b	-0.34255537
39	0x3f034b6a	0.5128695
40	0xbf068581	-0.5254746
41	0x3edd1a59	0.43184164
42	0xbef0bdee	-0.47019905
43	0xbc6303aa	-0.013855854
44	0x3f1cb54c	0.6121414
45	0xbea8ff14	-0.3300711
46	0x3ec55307	0.38539907
47	0xbe122426	-0.14271602
48	0xbf04751c	-0.51741195
49	0xbef8fbef	-0.4862971
50	0xbe863414	-0.26211607
51	0x3f050b48	0.5197034
52	0xbeb9a9ce	-0.36262363
53	0xbde176b9	-0.11008973
54	0xbe8687d6	-0.2627551
55	0xbe816b27	-0.25277063
56	0xbe51ffb7	-0.20507704
57	0x3cbd4359	0.023103403
58	0xbe4ca740	-0.19985676
59	0xbe04d379	-0.12971295
60	0x3ebb79a4	0.36616242
61	0xbe724ccf	-0.23662113
62	0x3f267caf	0.65034
63	0x3eaaed48	0.33384156

weight f4 [1, 64]
0	0xbfba7a98	-1.4568663
1	0xbf9ddd9a	-1.2333252
2	0x3f994734	1.1974854
3	0xbfe97c48	-1.8241053
4	0xbfbf1cc4	-1.4930654
5	0x3fafa7dd	1.3723103
6	0xbfe6b538	-1.8024054
7	0xbfb623d8	-1.4229689
8	0x3fd48051	1.6601659
9	0xbfb7ba99	-1.435382
10	0x3fb17da2	1.3866465
11	0xbfd0280a	-1.6262219
12	0x3f70d7b4	0.94079137
13	0x3fc0ae62	1.5053217
14	0xbfaebc6d	-1.3651253
15	0xbffc407c	-1.9707179
16	0x3f84d328	1.037694
17	0xbfac5538	-1.3463507
18	0x3f6e5e15	0.9311231
19	0xbfd54459	-1.6661483
20	0x3f83040b	1.0235609
21	0x3fa3338f	1.275011
22	0x3ff2c8e2	1.8967555
23	0x4005d76b	2.091273
24	0x3fbc9141	1.4731828
25	0xbfcb20be	-1.5869367
26	0x3fbd5418	1.4791288
27	0xc007d445	-2.122331
28	0x3fc20cc9	1.5160152
29	0xbf9856d1	-1.1901494
30	0x3fe7c874	1.8108048
31	0x3fb688c6	1.426049
32	0xbfa0584c	-1.2526946
33	0xbfdbcdaf	-1.7172145
34	0xbfbf6f2e	-1.4955804
35	0x3f9465b2	1.1593535
36	0xbf059c98	-0.5219207
37	0x3f427422	0.75958455
38	0xbf841c51	-1.0321141
39	0x3fd75ab2	1.6824553
40	0xbfb31bbc	-1.3992839
41	0x3f96e96c	1.1789985
42	0xbfcbcb73	-1.5921463
43	0x3f8e0b67	1.109723
44	0x3fbf2799	1.4933959
45	0xbf143ac2	-0.5790216
46	0x3fbe1f8d	1.4853379
47	0xbf686d5a	-0.9079186
48	0xbfa9e3f6	-1.3272693
49	0xc005d879	-2.0913374
50	0xbfed7408	-1.8551035
51	0x3fb70a3e	1.4300001
52	0xbf1dd4fb	-0.6165311
53	0x3fa181d4	1.2617745
54	0xbfacf9aa	-1.3513691
55	0xbfc61919	-1.5476409
56	0xbfd9bfd9	-1.7011672
57	0x3fa674ba	1.3004372
58	0xbfb13750	-1.3845005
59	0xbfe605ac	-1.7970481
60	0x3fb02c2d	1.3763481
61	0xbfcc70c9	-1.5971919
62	0xbf908c2e	-1.129278
63	0x3fac1b66	1.3445861
