data/1008CartPole-v0_ppo/1008CartPole-v0_ppo_s0/pyt_save/model.pt (torch, 42881 bytes, 11 tensors)

weight f4 [64, 4]
0	0x3d15258f	0.03641277
1	0xbe2864c2	-0.16444686
2	0x3f21122e	0.62918365
3	0x3eac8e7b	0.33702454
4	0x3e55241b	0.20814554
5	0x3e17052b	0.14748065
6	0xbf327590	-0.69710636
7	0x3d79ab54	0.060954407
8	0xbe653b3b	-0.22385876
9	0x3e9d03b8	0.306669
10	0xbcd03fba	-0.025421012
11	0x3ed470ba	0.41492254
12	0x3d0ab008	0.033859283
13	0x3e25d2e4	0.1619373
14	0x3eaf2cb0	0.3421378
15	0xbe8e3e85	-0.27782074
16	0xbe2d2b50	-0.16911054
17	0xbcf254b4	-0.029581405
18	0x3dfe894a	0.124285296
19	0x3f0f7636	0.5603975
20	0x3e56af9c	0.20965427
21	0x3e84bad8	0.259238
22	0x3e6a13a9	0.22859062
23	0xbe431528	-0.19051039
24	0xbdeb6d09	-0.11495406
25	0xbd6524b1	-0.055943195
26	0x3e6f7d4c	0.2338764
27	0xbf06eea6	-0.527079
28	0xbdc242f7	-0.09485429
29	0x3d08b928	0.033379704
30	0x3e29e5e4	0.16591603
31	0xbf0f57e9	-0.55993515
32	0xbecb4943	-0.39704332
33	0xbea8e9e2	-0.32990938
34	0xbf1a9645	-0.60385543
35	0xbe2e9cea	-0.17052045
36	0xbe58f5e0	-0.21187544
37	0x3e9e3455	0.308993
38	0x3f441d87	0.76607555
39	0x3f10f214	0.5661938
40	0x3edf1ad9	0.4357517
41	0x3eaaee69	0.33385018
42	0x3d28b3c9	0.04118708
43	0x3efc0424	0.4922191
44	0x3ed7ce91	0.42149785
45	0x3ed975d6	0.42472714
46	0x3f035182	0.51296246
47	0xbe07bfea	-0.13256803
48	0xbe99ef22	-0.30065256
49	0x3cf55683	0.029948479
50	0x3f2a3ed2	0.66502106
51	0x3e9798cf	0.2960877
52	0x3ddfdd89	0.10930926
53	0x3eba0299	0.36330107
54	0xbd52988e	-0.05141502
55	0x3e0136c2	0.12618545
56	0x3df0a758	0.11750668
57	0x3da81087	0.08206277
58	0xbddc6c35	-0.10762826
59	0xbe629cc2	-0.22130111
60	0x3ec49854	0.38397467
61	0xbeb40dc5	-0.35166755
62	0x3f4c910b	0.7990882
63	0x3ecd3186	0.40076846
64	0xbd036128	-0.032075077
65	0xbeb95f57	-0.3620555
66	0x3e156876	0.1459063
67	0xbda64d69	-0.081202336
68	0x3f0c6513	0.54841727
69	0x3f2cca31	0.6749602
70	0x3ee92423	0.45535383
71	0x3f192b23	0.59831446
72	0xbeb088b8	-0.34479308
73	0x3eb13299	0.34608915
74	0xbd366492	-0.044529505
75	0x3ec64311	0.38723043
76	0x3c80eef7	0.015738947
77	0x3f02f4ba	0.51154673
78	0x3f17d153	0.5930378
79	0x3ee34d1c	0.44394767
80	0x3e8e317d	0.27772132
81	0x3e0d1fa1	0.13781597
82	0x3dbdde97	0.09270971
83	0x3eb09e0c	0.3449558
84	0x3e07faa7	0.1327921
85	0x3d9a9c03	0.07549288
86	0x3e47936b	0.19489829
87	0x3f231781	0.6370774
88	0x3ec330c8	0.38123155
89	0xbe5cb2ad	-0.21552534
90	0x3e836754	0.2566477
91	0xbf0cbddd	-0.5497721
92	0x3ef783c6	0.48342723
93	0x3d9d5f7f	0.0768423
94	0x3edd6ccc	0.43247068
95	0x3f19e4bc	0.60114646
96	0x3eac97f8	0.33709693
97	0x3f0afbb2	0.54290307
98	0x3f39ba04	0.7254946
99	0x3edad49a	0.42740327
100	0x3c84d1ae	0.016213264
101	0x3eca59ff	0.39521787
102	0x3ef70aa1	0.48250297
103	0xbaed4d56	-0.0018104713
104	0xbe9821f5	-0.29713407
105	0x3ec5d453	0.38638553
106	0xbf19f9dc	-0.6014688
107	0xbe8e0390	-0.27737093
108	0x3e48195d	0.19540925
109	0xbdce1558	-0.10062665
110	0x3e4c29df	0.19937848
111	0xbe39345c	-0.1808638
112	0x3e2627e2	0.16226152
113	0xbe3bf93c	-0.18356794
114	0xbf1f4031	-0.62207323
115	0xbe2418a2	-0.16025022
116	0x3e802480	0.25027847
117	0x3ed2313b	0.41053185
118	0xbe1d6db5	-0.15373881
119	0x3f19b40a	0.6004034
120	0x3cf7f148	0.030266419
121	0xbcf8a799	-0.030353354
122	0xbecb66c8	-0.39726853
123	0xbf0b8c8c	-0.5451133
124	0x3e4c9237	0.19977652
125	0x3f0a2553	0.539632
126	0xbe01f274	-0.12690145
127	0x3ee99b11	0.4562612
128	0xbed9c0de	-0.42529958
129	0x3ed38a40	0.41316414
130	0x3ee1860a	0.44047576
131	0x3f22993e	0.6351508
132	0x3e2d1e47	0.16906081
133	0x3cc63c91	0.024198802
134	0x3eecfa19	0.4628456
135	0x3f16a3fd	0.58843976
136	0x3eb985f6	0.36235017
137	0x3e3cdca4	0.18443543
138	0x3e0b6b44	0.13615137
139	0x3e99414e	0.29932636
140	0x3e38370b	0.17989747
141	0x3ee87150	0.4539895
142	0x3ede8025	0.43457142
143	0x3e67dcc4	0.22642809
144	0xbed1ee3d	-0.41002074
145	0xbeb27717	-0.34856483
146	0x3dfbe3ae	0.12299286
147	0xbed6dde4	-0.41966164
148	0xbda39a7d	-0.07988451
149	0xbf0843d4	-0.532285
150	0xbf2eab1f	-0.6822986
151	0xbea391c2	-0.31947142
152	0xbe90df32	-0.28295285
153	0x3f0f2226	0.5591148
154	0x3ed0b9e4	0.40766823
155	0x3ed8c694	0.42339003
156	0xbf0b0d2c	-0.54316974
157	0xbea44111	-0.32080892
158	0xbe82fe59	-0.25584677
159	0x3d0ea5c9	0.034826074
160	0xbe25c0fe	-0.16186902
161	0x3e092cc0	0.13395977
162	0xbcce7052	-0.025200043
163	0xbf0bb116	-0.54567087
164	0xbe0d683b	-0.13809292
165	0x3e42231d	0.18958707
166	0x3f2072f6	0.62675416
167	0x3e605d3a	0.21910563
168	0xbe6319b2	-0.2217777
169	0x3edc2863	0.42999563
170	0x3ed28f8e	0.4112515
171	0x3eb944dc	0.36185348
172	0xbd98a85c	-0.07453987
173	0x3ea1f796	0.31634206
174	0x3f31a1c3	0.69387454
175	0x3f18db82	0.5970994
176	0xbe29c9b0	-0.16580844
177	0x3e201f9b	0.15637057
178	0xbf2da081	-0.67823035
179	0xbf04b0b2	-0.51832116
180	0xbeafc5ad	-0.34330502
181	0x3e963fc2	0.29345518
182	0x3d196cee	0.0374574
183	0xbeca467c	-0.395069
184	0xba319ce0	-0.00067753904
185	0x3e7d6a37	0.24747549
186	0x3f26130c	0.64872813
187	0x3f1fa03c	0.62353873
188	0x3dc00d11	0.09377492
189	0xbd659e07	-0.05605891
190	0x3dc76507	0.09736066
191	0xbf151bbe	-0.58245456
192	0xbe3fe08e	-0.18738005
193	0x3e901c0c	0.28146398
194	0xbceea4c9	-0.02913131
195	0x3efd0c72	0.49423558
196	0xbc0dfe74	-0.008666623
197	0xbea90ff3	-0.3301998
198	0xbf2f00d3	-0.6836063
199	0xbe85b572	-0.26114994
200	0xbd1f83de	-0.038944118
201	0x3f008a3d	0.50210935
202	0x3d9d5dc0	0.07683897
203	0x3cf3c1f3	0.029755568
204	0x3e427268	0.18988955
205	0x3e866a2e	0.26252884
206	0xbe76d883	-0.2410603
207	0x3e962f32	0.29332882
208	0xbb1a7950	-0.0023570843
209	0xbbbee53b	-0.0058256662
210	0x3e4b0f51	0.19830061
211	0x3e2828e6	0.16421852
212	0xbdedd4d1	-0.11612857
213	0xbe946674	-0.28984416
214	0x3f4c496f	0.7979955
215	0x3eedaded	0.46421757
216	0xbd27afc6	-0.040939115
217	0xbecb836f	-0.39748713
218	0xbd75c16b	-0.05999891
219	0x3ee3b69d	0.4447526
220	0xbe57a83c	-0.2106027
221	0xbd13a627	-0.036047127
222	0xbf353c56	-0.7079519
223	0x3dfcab25	0.12337331
224	0xbd6ac2ac	-0.05731456
225	0x3de50f72	0.111845866
226	0x3f37e71f	0.7183704
227	0x3ecbc6a3	0.39799985
228	0x3e6e9103	0.23297505
229	0x3ed9d163	0.42542562
230	0xbe498c86	-0.19682512
231	0x3e82bb49	0.25533512
232	0x3e22a387	0.15882693
233	0x3ea0279b	0.31280217
234	0xbe2de9ee	-0.16983768
235	0x3f267cd1	0.65034205
236	0xbe1ab877	-0.1510943
237	0x3ec59f17	0.38597938
238	0xbdc93df7	-0.09826272
239	0x3e8b0d84	0.2715875
240	0xbe81f6f8	-0.25383735
241	0x3d883043	0.0664983
242	0x3e97cac3	0.29646882
243	0x3ec1dc17	0.37863228
244	0x3e20ed2e	0.15715477
245	0xbcc56955	-0.024098078
246	0x3e2f24e9	0.17103924
247	0xbe97a918	-0.29621196
248	0xbd845b58	-0.06462735
249	0xbd96af01	-0.07357598
250	0x3debc9ea	0.115131214
251	0xbef525a4	-0.4788028
252	0x3ed76060	0.42065716
253	0x3eebfb30	0.46090078
254	0x3df64474	0.12024775
255	0x3f23d422	0.63995564

bias f4 [64]
0	0xbea42590	-0.32059908
1	0x3e599879	0.2124957
2	0x3cd57170	0.026055068
3	0xbd1b08aa	-0.03785006
4	0x3ec25b73	0.37960395
5	0x3e6328d2	0.2218354
6	0x3e45c264	0.19312435
7	0xbeb6cd92	-0.35703713
8	0x3e1b1c4f	0.15147518
9	0x3e160283	0.14649396
10	0xbd911de8	-0.07085782
11	0x3cda655f	0.026659666
12	0xbe6fa7fe	-0.23403928
13	0xbe69b34c	-0.22822303
14	0x3ec2affd	0.38024893
15	0x3e5a4451	0.21315123
16	0xbe0669ca	-0.13126293
17	0x3eae18f3	0.3400341
18	0x3d72ecb0	0.059307754
19	0xbe82f469	-0.25577095
20	0x3e925df3	0.28587303
21	0xbecba4c4	-0.39774144
22	0x3e524e7e	0.20537755
23	0x3e5798b9	0.21054353
24	0xbe73b544	-0.23799616
25	0x3ea996ad	0.3312277
26	0xbd214534	-0.039372638
27	0xbe721fcd	-0.23644944
28	0xbe8558b5	-0.2604424
29	0x3ebeea67	0.3728821
30	0xbe0a54ff	-0.13508986
31	0xbedd8e0a	-0.4327243
32	0x3e416a24	0.18888146
33	0x3cb9ab4b	0.022664687
34	0xbe64700a	-0.22308365
35	0xbeca434c	-0.39504468
36	0x3e4b8fed	0.19879122
37	0xbec702c6	-0.38869303
38	0x3da8e577	0.08246892
39	0xbb7c96fe	-0.0038542147
40	0x3ebfc9d4	0.3745867
41	0x3e99fdb4	0.30076373
42	0x3d835bda	0.06414004
43	0x3e95a927	0.29230615
44	0xbe759a8a	-0.23984733
45	0x3ed7c1ea	0.42140132
46	0x3cf34390	0.029695302
47	0xbea069a3	-0.31330594
48	0xbea9c526	-0.33158225
49	0xbe24a664	-0.16079098
50	0x3df427b9	0.11921639
51	0x3eac7dc8	0.33689713
52	0x3e6a18a2	0.22860959
53	0x3ea19441	0.3155842
54	0xbdda1ca3	-0.10649993
55	0x3e9bc225	0.30421558
56	0x3e563d00	0.20921707
57	0x3b9332b8	0.00449213
58	0xbeaebc8f	-0.34128234
59	0xbeef06ab	-0.46684775
60	0xbec1c52d	-0.37845746
61	0x3df9a841	0.12190295
62	0x3ec5dcab	0.3864492
63	0x3cc40e67	0.023932649

weight f4 [64, 64]
0	0x3d73b938	0.05950281
1	0xbdca105d	-0.09866402
2	0x3c2c1690	0.010503426
3	0x3dcc4fa7	0.0997613
4	0x3dc96bed	0.09835038
5	0xbde29749	-0.110640116
6	0xbc188bbf	-0.009310662
7	0xbcb8ab3c	-0.022542588
8	0xbd7c263d	-0.061559904
9	0x3e60ba78	0.21946132
10	0x3dfd5089	0.123688765
11	0x3e00963c	0.1255731
12	0x3dd4b792	0.10386576
13	0xbd312119	-0.043244455
14	0x3d863b09	0.06554229
15	0xbd58e454	-0.052952126
16	0x3d8ec52c	0.06971201
17	0x3e390d3a	0.18071452
18	0xbc6b375c	-0.01435646
19	0x3dc90db2	0.09817065
20	0x3ce06956	0.027393978
21	0xbc60e063	-0.013725373
22	0xbe2d34c1	-0.16914655
23	0x3db34d60	0.087549925
24	0x3e1b31a6	0.15155658
25	0x3c9b6664	0.018969722
26	0xbd41e1b0	-0.047334373
27	0xbde5d6e2	-0.11222626
28	0x3cd50620	0.026003897
29	0x3d2a7769	0.041617785
30	0xbd7c373b	-0.06157611
31	0x3e04122a	0.12897554
32	0x3e3a28d8	0.18179643
33	0x3de15a4e	0.110035524
34	0x3d29f74c	0.041495606
35	0x3e20f2a5	0.15717562
36	0xbdd94ad6	-0.10609977
37	0x3b915f35	0.0044363984
38	0x3cccf02e	0.02501687
39	0xbd19a2f9	-0.03750894
40	0xbe1f34ba	-0.15547457
41	0x3dd8713b	0.10568472
42	0x3dfda9e0	0.12385917
43	0x3e059f44	0.13049036
44	0xbe005515	-0.12532456
45	0xbd2bd14d	-0.04194765
46	0x3e47b166	0.19501266
47	0xbcb3689b	-0.021900466
48	0xbcfad30f	-0.030618219
49	0x3ca988d2	0.020695124
50	0x3d894270	0.06702125
51	0x3db2ef52	0.08737053
52	0x3d04eab8	0.032450408
53	0xbd8287c2	-0.0637355
54	0x3d043cc8	0.032284528
55	0xbd3a6e28	-0.04551521
56	0x3e157bee	0.14598057
57	0x3e5f6826	0.21817073
58	0x3e50b5f8	0.20381916
59	0xbd880418	-0.06641406
60	0x3ddcd9cb	0.10783728
61	0x3d02326f	0.03178638
62	0xbda4a869	-0.08039934
63	0x3eb44b6a	0.35213786
64	0x3d812d69	0.063074894
65	0xbd77b037	-0.060470786
66	0xbe52075a	-0.20510617
67	0xbcdfbf69	-0.027312951
68	0xbd5ac933	-0.053414535
69	0xbce34aa9	-0.027745562
70	0x3e1dfee0	0.15429258
71	0x3b769653	0.0037626221
72	0x3db3459b	0.087535106
73	0xbd32ab20	-0.04362023
74	0xbe0730c9	-0.13202204
75	0xbbedd4c9	-0.007258032
76	0xbe134978	-0.14383495
77	0x3dcde580	0.10053539
78	0xbd2469b2	-0.04013986
79	0xbd48650a	-0.048924483
80	0xbdb42d79	-0.08797736
81	0xbe0e243f	-0.13881014
82	0xbd8e65bd	-0.06952999
83	0xbe3b60e9	-0.18298687
84	0xbdc5125d	-0.09622643
85	0xbe010179	-0.12598218
86	0xbd76a00e	-0.060211234
87	0xbe5fae7c	-0.21843904
88	0xbe0edf73	-0.13952427
89	0xbd906908	-0.07051283
90	0x3e18d0d7	0.14923416
91	0xbd9f19a7	-0.07768565
92	0x3d81b9cd	0.06334267
93	0x3bb8bac6	0.0056374995
94	0x3ccbd269	0.024880605
95	0xbdd1fcbe	-0.10253285
96	0xbe28eec5	-0.16497333
97	0xbdc5cf63	-0.096586965
98	0x3c23511a	0.009968067
99	0x3d200177	0.039063897
100	0x3d446e6e	0.047956876
101	0x3e15d7ab	0.14633052
102	0xbe0a50c4	-0.13507372
103	0x3e1b24b1	0.15150715
104	0x3da34023	0.079712175
105	0xbc07ef34	-0.008296777
106	0xbcca3ec9	-0.024688141
107	0xbccc7cf1	-0.02496192
108	0x3c8e1f9c	0.017349057
109	0xbd571135	-0.052506644
110	0xbeb42b28	-0.35189176
111	0x3b3bfe15	0.002868538
112	0xbe172dcd	-0.14763565
113	0xbb1b4998	-0.0023694988
114	0xbc922da4	-0.017844029
115	0xbd63a5ba	-0.05557797
116	0xbdf1fd54	-0.11815897
117	0xbd07f469	-0.033192072
118	0x3da8a35a	0.08234282
119	0x3e02ca74	0.12772542
120	0x3bf674cb	0.007521247
121	0xbe266cb0	-0.16252398
122	0xbd8ff17e	-0.07028483
123	0xbe0526e7	-0.13003121
124	0xbd96ba71	-0.073597796
125	0xbd1d9697	-0.03847369
126	0x3e0d0346	0.1377078
127	0xbe23ef23	-0.16009192
128	0x3c8c4e24	0.017127104
129	0xbdd4f30b	-0.10397919
130	0xbe2ad382	-0.16682246
131	0xbc3378b9	-0.0109540755
132	0x3d85d5c8	0.06534916
133	0xbd699e95	-0.057036
134	0xbb4b25f6	-0.0030997968
135	0x3dffc114	0.124879986
136	0x3d80adca	0.06283148
137	0xbe3dab1c	-0.18522304
138	0xbe1625f7	-0.1466292
139	0xbbc0a041	-0.0058784788
140	0x3d1e7843	0.03868891
141	0xbcddac27	-0.027059628
142	0x3dd3169f	0.10307049
143	0x3d51f95c	0.0512632
144	0xbddd8238	-0.10815853
145	0xbd9d9a00	-0.07695389
146	0xbcd3f1b0	-0.025872082
147	0xbd6ee91b	-0.058327775
148	0xbcc5921a	-0.024117518
149	0xbda13c4a	-0.07872827
150	0x3c464c95	0.0121032195
151	0xbc2aa36a	-0.0104149375
152	0xbe25fdfa	-0.16210166
153	0x3c8cf71a	0.017207671
154	0x3e16984a	0.14706531
155	0x3df71930	0.12065351
156	0x3d0488d9	0.03235707
157	0xbdd5855f	-0.10425829
158	0x3d8f5633	0.06998863
159	0xbdbf3511	-0.093362935
160	0xbe2e6318	-0.17029989
161	0xbdf2c5e3	-0.1185415
162	0xbe285d59	-0.1644186
163	0xbe23243e	-0.15931794
164	0x3e423dcd	0.18968888
165	0x3d833ff8	0.064086854
166	0xbd59fd6c	-0.053220198
167	0x3d6e5991	0.058190886
168	0x3d8741ef	0.06604373
169	0xbd719e08	-0.0589886
170	0xbd36d79b	-0.04463921
171	0xbd68e62e	-0.05686014
172	0xbd2bdd86	-0.041959308
173	0xbcba991f	-0.022778092
174	0xbe9c9a55	-0.30586496
175	0xbdcfd7ff	-0.1014862
176	0xbd160c11	-0.0366326
177	0x3e3625d5	0.1778787
178	0xbb989c55	-0.004657308
179	0xbdc4cf7c	-0.09609887
180	0xbdcd3fcf	-0.10021936
181	0xbd9f2689	-0.07771022
182	0xbda1159a	-0.07865448
183	0xbcc422fa	-0.02394246
184	0x3d3ec8c1	0.046578173
185	0xbdde80db	-0.10864421
186	0xbdc81722	-0.09770037
187	0xbc547516	-0.012967369
188	0x3b915593	0.00443525
189	0xbc7a4fb5	-0.015277793
190	0xb9c23998	-0.00037045474
191	0xbe5b9421	-0.21443225
192	0x3db97a54	0.09056535
193	0x3d0617b3	0.032737445
194	0x3daa4725	0.08314351
195	0xbdc59ac4	-0.0964866
196	0x3ca065c8	0.019579783
197	0x3d3619eb	0.04445831
198	0xbdc7edb1	-0.09762133
199	0x3be645df	0.0070273723
200	0xbe58f153	-0.21185808
201	0x3d814036	0.063110754
202	0x3dc3db80	0.09563351
203	0xbcf0862b	-0.029360851
204	0xbd19e6bf	-0.037573572
205	0x3e03897c	0.12845415
206	0x3d556d0f	0.05210596
207	0x3e2529d3	0.16129236
208	0xbdb49fe8	-0.08819562
209	0x3e3b2c87	0.18278705
210	0x3dd5e77e	0.10444544
211	0x3da68b6e	0.08132063
212	0xbce6e783	-0.028186565
213	0x3d68fd81	0.056882385
214	0x3adf9ef9	0.0017060927
215	0x3cc525af	0.02406582
216	0x3dc2588a	0.09489544
217	0xbd858e0b	-0.06521233
218	0x3d1e0d3b	0.038586836
219	0xbd74fd2b	-0.059811752
220	0xbdc524b2	-0.0962614
221	0x3e0a7023	0.1351934
222	0xbd0f3320	-0.034960866
223	0x3e04c416	0.12965426
224	0x3e4ae1fa	0.19812766
225	0x3e08546b	0.13313453
226	0x3bea6266	0.0071528433
227	0xbd13d847	-0.03609493
228	0xbe40165d	-0.18758531
229	0x3d7b1139	0.06129572
230	0x3e6c1461	0.23054649
231	0xbdf640c6	-0.12024073
232	0xbd89eb5b	-0.067343436
233	0xbda87fce	-0.08227502
234	0x3d257168	0.040391356
235	0x3d81b697	0.063336544
236	0xbde61808	-0.11235052
237	0xbdaa40da	-0.08313151
238	0x3e5d3df0	0.21605659
239	0x3d8227cf	0.06355249
240	0x3dd8d62c	0.10587725
241	0xbe4bedac	-0.19914883
242	0xbdde1192	-0.10843195
243	0xbcfc075b	-0.030765226
244	0xbdb5e3b4	-0.088813215
245	0x3e26360b	0.16231553
246	0x3e08cfae	0.13360474
247	0x3cf29655	0.0296127
248	0xbc3edfbb	-0.011650021
249	0x3d80c982	0.062884346
250	0x3d4a8313	0.04944141
251	0x3db64156	0.088991806
252	0xbc369286	-0.011143332
253	0xbc116820	-0.008874923
254	0x3c5cac36	0.013468793
255	0x3eabe100	0.335701

bias f4 [64]
0	0x3d41c611	0.04730803
1	0x3d7df8ee	0.062004976
2	0x3d11efa9	0.03562895
3	0x3ce56dd1	0.028006466
4	0xbe026fdd	-0.12737985
5	0x3cd63592	0.026148591
6	0x3d4025c4	0.046911016
7	0x3c888da8	0.01666911
8	0xbdc9fe99	-0.09863014
9	0xbddb1f4a	-0.10699327
10	0xbd8145ff	-0.06312179
11	0xbc7080e9	-0.014679172
12	0x3da7d017	0.08193987
13	0x3dada0e6	0.084779546
14	0x3c94e153	0.01817385
15	0x3caceade	0.021108087
16	0x3e0dc8e6	0.13846168
17	0xbdf83ebe	-0.12121342
18	0x3d37a6b1	0.044836704
19	0x3d0257b7	0.031821933
20	0x3d9f91f4	0.0779151
21	0x3d9790da	0.07400675
22	0xbe096146	-0.13416013
23	0x3d5b5504	0.053547874
24	0x3de38dbb	0.11111017
25	0xbc7125b9	-0.014718466
26	0x3d18001d	0.037109483
27	0xbcc355c4	-0.023844607
28	0xbdc2fff3	-0.09521475
29	0xbd444739	-0.047919486
30	0x3d749074	0.059708074
31	0xbcab7593	-0.020930087
32	0x3d1f482c	0.038887188
33	0xbc29909d	-0.01034942
34	0xbbe59d37	-0.007007267
35	0xbd5d5b24	-0.054041997
36	0x3d0ac6e6	0.03388109
37	0xbd7ea46e	-0.06216853
38	0xbd53d1c8	-0.051713735
39	0x3d237b41	0.039912466
40	0x3d208b86	0.03919556
41	0xbdac6805	-0.08418278
42	0x3de31637	0.110882215
43	0xbc739b4e	-0.0148685705
44	0x3dcfd188	0.10147387
45	0xbd44017e	-0.047852986
46	0x3d1fded3	0.03903086
47	0x3c908c63	0.017645067
48	0xbd2fe38e	-0.042941622
49	0x3af4fc48	0.0018690908
50	0xbdd4c6df	-0.10389494
51	0xbd68160d	-0.056661654
52	0x3d3a5c03	0.045497905
53	0xbdcd68c9	-0.10029752
54	0x3da43783	0.080184005
55	0x3ccd931e	0.025094565
56	0xbe00a41a	-0.125626
57	0xbde9fa06	-0.11424641
58	0x3dce1da5	0.10064248
59	0x3c2557a8	0.0100917
60	0x3bce0957	0.0062877345
61	0xbdaaa6df	-0.083326094
62	0xbbe26a6b	-0.0069096587
63	0xbac09387	-0.0014692404

weight f4 [2, 64]
0	0xbe8d92e7	-0.2765114
1	0x3e960506	0.29300708
2	0x3e922838	0.2854631
3	0xbe21fea3	-0.15819792
4	0xbe84e45e	-0.2595548
5	0xbe3b9275	-0.18317588
6	0xbe8e67db	-0.2781361
7	0x3e8ca51a	0.27469712
8	0xbe146027	-0.14489804
9	0x3e707049	0.23480333
10	0x3e92f8fd	0.28705588
11	0xbe122882	-0.14273265
12	0xbe872138	-0.2639253
13	0x3ed5bb62	0.41744524
14	0x3e44cf90	0.19219804
15	0xbebeee6d	-0.3729128
16	0x3eb73b21	0.357873
17	0xbe79a9ca	-0.24381176
18	0xbebcfb15	-0.3691031
19	0xbe3104e8	-0.17287028
20	0xbe9474a2	-0.28995234
21	0xba772977	-0.0009428481
22	0xbe368147	-0.17822753
23	0xbea928eb	-0.3303903
24	0x3ec04822	0.37555033
25	0xbeadf808	-0.33978295
26	0xbec6aec2	-0.38805205
27	0xbe26930f	-0.16267036
28	0x3ea349aa	0.3189214
29	0x3e2d1888	0.16903889
30	0x3e967c47	0.2939169
31	0x3e6a3da6	0.2287508
32	0x3ea56785	0.32305542
33	0x3e0eff70	0.13964629
34	0xbe3e052a	-0.18556657
35	0x3e8ddcce	0.27707523
36	0xbe4213be	-0.18952844
37	0x3e35f765	0.17770155
38	0xbe349396	-0.17634425
39	0x3dace208	0.084415495
40	0xbe9c1d2a	-0.30491
41	0xbecfec35	-0.406099
42	0x3e60c634	0.21950608
43	0xbe7b6896	-0.24551615
44	0xbea4171f	-0.3204889
45	0x3e0accc9	0.13554682
46	0x3e2df499	0.16987838
47	0xbeb53608	-0.35392785
48	0xbe94bbd4	-0.2904955
49	0xbe6b5fdd	-0.22985788
50	0xbe8e5cbd	-0.2780513
51	0xbe16a1f9	-0.14710225
52	0x3e7f4b23	0.24931006
53	0xbe95fefe	-0.29296106
54	0x3ed375f0	0.41300917
55	0xbe76ab1a	-0.24088708
56	0xbea25203	-0.31703195
57	0xbea17280	-0.3153267
58	0x3e3eb883	0.18625073
59	0x3e89467b	0.26811585
60	0x3eb63c3b	0.35592827
61	0x3e6b51bf	0.22980402
62	0xbeb76cde	-0.35825247
63	0xbe952195	-0.29127184
64	0x3e861e09	0.2619479
65	0xbe83e0d0	-0.25757456
66	0xbe11547f	-0.14192389
67	0x3e534964	0.20633465
68	0x3eb8c448	0.3608725
69	0x3eab4151	0.3344827
70	0x3e50ba0f	0.20383476
71	0xbe1bf1d0	-0.15228963
72	0x3e9c59ad	0.30537167
73	0xbe76c840	-0.24099827
74	0xbe2048fd	-0.15652843
75	0x3e9b8126	0.3037197
76	0x3eab9c34	0.3351761
77	0xbe7d5f5b	-0.24743406
78	0xbe3f9927	-0.18710767
79	0x3eb6a662	0.35673815
80	0xbe38cd03	-0.18046956
81	0x3e430e2f	0.1904838
82	0x3e77664e	0.2416012
83	0x3e4cb682	0.19991496
84	0x3e8d4fba	0.2759989
85	0x3df51d6d	0.11968503
86	0x3eb84476	0.35989732
87	0x3e8786ef	0.26470134
88	0xbe8a73d8	-0.27041507
89	0x3e2233a7	0.15840016
90	0x3e8ab569	0.2709153
91	0x3e42168d	0.18953915
92	0xbdf41b78	-0.11919302
93	0xbe98b53f	-0.2982578
94	0xbe93cb03	-0.28865823
95	0xbe90ca6f	-0.28279445
96	0xbe6a0193	-0.22852163
97	0x3b295c8c	0.0025842516
98	0x3ea5a5f6	0.3235318
99	0xbe07b347	-0.13251983
100	0x3e5f442a	0.21803346
101	0xbdd4370f	-0.10362064
102	0x3da7c85e	0.08192514
103	0xbe108049	-0.14111437
104	0x3e69e138	0.2283982
105	0x3eb87377	0.36025593
106	0xbe9d3b25	-0.30709186
107	0x3ea606e5	0.32427135
108	0x3e6c26fb	0.23061745
109	0xbc3726d5	-0.011178692
110	0xbe752017	-0.23938023
111	0x3e1152e2	0.14191774
112	0x3e43a1ac	0.19104642
113	0x3e8d0609	0.27543667
114	0x3e89555d	0.2682294
115	0x3e337f3b	0.17529003
116	0xbeab84f6	-0.3349988
117	0x3e637cf9	0.22215642
118	0xbe753ea6	-0.2394968
119	0x3ec1fbb5	0.3788735
120	0x3e6147b6	0.22000012
121	0x3e084024	0.13305718
122	0xbe979b45	-0.2961065
123	0xbe2a8d1c	-0.16655391
124	0xbe9213c5	-0.28530708
125	0xbdfcc30a	-0.12341888
126	0x3e6ca536	0.23109898
127	0x3eacec56	0.3377406

bias f4 [2]
0	0xbd3168b8	-0.04331276
1	0xbca9cb95	-0.020726958

weight f4 [64, 4]
0	0x3d9d4875	0.07679836
1	0xbf447e26	-0.7675499
2	0xc081e0cc	-4.058691
3	0xbe8e0e33	-0.27745208
4	0xbfa7a5b7	-1.3097447
5	0xbe2af880	-0.16696358
6	0xc00edc0f	-2.2321813
7	0xbe5814d2	-0.21101692
8	0x3f96908b	1.1762861
9	0xbe328711	-0.17434336
10	0x401c7f25	2.4452603
11	0xbc079f33	-0.008277702
12	0xbfae40dd	-1.3613545
13	0x3e7e620f	0.24842094
14	0xc01b5f40	-2.4276886
15	0xbd7be62a	-0.0614988
16	0x3fa6dd2c	1.3036246
17	0xbeffed98	-0.49985957
18	0x40304d7f	2.75473
19	0xbebb75aa	-0.36613208
20	0xbf3e46f4	-0.74327016
21	0xbf66a586	-0.9009632
22	0x3fdc2737	1.7199467
23	0xbf303a5f	-0.6883907
24	0xbfafa3be	-1.3721845
25	0xbf86b7c1	-1.0524827
26	0xc013710f	-2.3037755
27	0xbf99bc4d	-1.201059
28	0xbed653ca	-0.418608
29	0x3f155fda	0.5834938
30	0xc05d5083	-3.458039
31	0x3ed05902	0.40692908
32	0xbfb843e3	-1.4395717
33	0x3c306e5d	0.0107685
34	0xbffdceeb	-1.9828771
35	0x3e57ed3e	0.21086594
36	0x3fb6c95a	1.4280198
37	0xbe07d829	-0.13266052
38	0x401e54fe	2.4739375
39	0x3e91c4fc	0.284706
40	0xbf3ffbe9	-0.7499376
41	0xbfa6b436	-1.3023746
42	0xc009f8a7	-2.1558015
43	0xbfad9d6d	-1.3563668
44	0x3f19d593	0.60091513
45	0xbe55b294	-0.20868903
46	0x40136fcc	2.3036985
47	0x3ec5daea	0.3864358
48	0xbfd66c01	-1.675171
49	0xbf006d59	-0.5016685
50	0x3e4cae67	0.19988404
51	0xbe70cc83	-0.23515515
52	0x3f9a7feb	1.2070287
53	0xbe68c1bb	-0.22730152
54	0x402c1cef	2.689266
55	0xbd07f1a3	-0.033189427
56	0xbf95fbb3	-1.1717438
57	0x3f75cc0b	0.9601447
58	0xc02bf0ed	-2.68658
59	0x3eeb902d	0.46008435
60	0x3f866c57	1.0501813
61	0xbf83f6c7	-1.0309685
62	0x400618fb	2.0952747
63	0xbf26cac7	-0.65153164
64	0x3fd72d81	1.6810762
65	0x3d91cce3	0.07119157
66	0xbf0f70cf	-0.5603151
67	0x3f0d440f	0.55181974
68	0xbf3442bf	-0.70414346
69	0xbf463f3c	-0.7744024
70	0xc021112f	-2.5166738
71	0xbd86a287	-0.065739684
72	0x3fe3dac1	1.7801133
73	0x3eb266ca	0.34844047
74	0x3fabb6c4	1.3415151
75	0x3dfc25d8	0.123119056
76	0xbf7d087b	-0.98841065
77	0xbe9e7095	-0.30945268
78	0xc021a028	-2.5254002
79	0xbdb16784	-0.08662322
80	0xbf132287	-0.5747456
81	0xbe9ef336	-0.3104493
82	0xc0213b35	-2.5192387
83	0xbf08819d	-0.53322774
84	0x400fe74e	2.2484927
85	0xbf3cc75d	-0.73741704
86	0xbd85cc68	-0.06533128
87	0xbf33fedc	-0.7031076
88	0x3fc0c62d	1.5060478
89	0x3faffc3c	1.3748851
90	0x3f81f57d	1.0153042
91	0x3fa0531b	1.2525362
92	0x3f5b7b1a	0.85734713
93	0xbefc3e31	-0.49266198
94	0x4044cd1d	3.0750191
95	0xbe4d1dda	-0.20030919
96	0xbfdaa538	-1.7081671
97	0x3ed52832	0.4163223
98	0x40055e9b	2.0838993
99	0x3f067225	0.5251792
100	0xbec07810	-0.375916
101	0x3e58caf8	0.21171176
102	0x4081bdaf	4.0544047
103	0xbdd957fb	-0.10612484
104	0x3ef60c36	0.4805619
105	0x3e297eb8	0.16552246
106	0x403e2562	2.9710317
107	0x3eca20f9	0.3947828
108	0x3e6be22f	0.23035501
109	0x3ec575dd	0.38566485
110	0x40596550	3.3968086
111	0xbdc35cbd	-0.09539173
112	0x3fed7c82	1.8553622
113	0xbeacc7dd	-0.33746234
114	0xbfb5529f	-1.4165839
115	0xbda75754	-0.081709534
116	0x3bf9d4c1	0.007624239
117	0x3fc4e10f	1.5381182
118	0x4012e5bb	2.2952716
119	0x3fb53ddf	1.4159507
120	0x3f617348	0.8806653
121	0x3e0757e1	0.13217117
122	0x40456529	3.0842993
123	0x3eb204d8	0.3476932
124	0xbfeb0f50	-1.8364048
125	0xbe8db7bd	-0.27679244
126	0xbf613197	-0.87966293
127	0xbee37a45	-0.44429222
128	0xbf14bb0d	-0.58097917
129	0x3f24e989	0.64418846
130	0xc05beb60	-3.4362411
131	0x3ef4ac6f	0.47787806
132	0x3fb19a99	1.3875304
133	0xbf992de5	-1.1967131
134	0x3ffbfe5b	1.9686998
135	0xbe1954de	-0.1497378
136	0x3f5d1f92	0.863763
137	0xbe0f7fc3	-0.14013581
138	0x40301c56	2.7517295
139	0xbf13eed9	-0.5778633
140	0xbfbfceb1	-1.4984952
141	0x3e40d73c	0.18832105
142	0xc01f83c2	-2.4924169
143	0x3c76b4f2	0.015057789
144	0xbf45cb91	-0.7726374
145	0xbf25165b	-0.64487237
146	0xc0296f8f	-2.647434
147	0xbef6120e	-0.4806065
148	0xbf66517a	-0.89968073
149	0xbea3f7eb	-0.32025084
150	0xc02e0ccc	-2.719531
151	0x3ea7086c	0.32623613
152	0x3e361b66	0.17783889
153	0x3fb53ca5	1.4159132
154	0x407118ca	3.767138
155	0x3f52a04b	0.8227584
156	0xbd925262	-0.071446195
157	0x3f366246	0.71243703
158	0x4052d987	3.2945268
159	0x3f21ea18	0.63247824
160	0xbf93be21	-1.1542398
161	0x3e5d5ecf	0.21618198
162	0xc0345b4b	-2.818072
163	0xbcfdff47	-0.031005515
164	0x3fabaf61	1.3412896
165	0xbedfad29	-0.43686798
166	0x40239ff9	2.556639
167	0x3e36a98b	0.17838113
168	0x3e579fc4	0.2105704
169	0xbe5c10a8	-0.21490729
170	0x4042aef4	3.0419283
171	0xbd9bc8db	-0.076066695
172	0x3f828f0f	1.0199908
173	0xbe0c0577	-0.1367396
174	0x4032976b	2.7904918
175	0x3dae03c1	0.0849681
176	0xbe3c9788	-0.1841718
177	0xbed55e2a	-0.41673404
178	0x403f94da	2.9934602
179	0xbe74e4d8	-0.23915422
180	0xbf260baf	-0.6486158
181	0xbfa0dcd4	-1.2567391
182	0xc0555cf8	-3.3337994
183	0xbf8a4615	-1.0802637
184	0xbf6bd8b3	-0.9212753
185	0xbf3fefc5	-0.74975234
186	0xc073d0b0	-3.8096123
187	0xbf236300	-0.63822937
188	0x3fce80f6	1.6133106
189	0xbd52f63c	-0.05150436
190	0x3fd6ce36	1.678168
191	0x3d351ba4	0.044215813
192	0x3fb04a7d	1.3772732
193	0xbf7dc8cd	-0.9913452
194	0x3fb6abe4	1.4271207
195	0xbeed4543	-0.46341905
196	0xbfeeaa98	-1.8645811
197	0x3e92cae6	0.28670424
198	0xbf5f6f60	-0.8727932
199	0x3eae1445	0.3399984
200	0xbf992515	-1.1964442
201	0xbcaa383f	-0.020778773
202	0xc03613c0	-2.8449554
203	0x3e9c39b8	0.30512786
204	0x3e834a77	0.2564275
205	0x3fe3deeb	1.7802404
206	0x3f3b9bac	0.7328441
207	0x3fb56793	1.4172233
208	0x3f1176a2	0.56821644
209	0xbf2553b9	-0.64580876
210	0x403e9f00	2.9784546
211	0xbea12a1f	-0.31477448
212	0x3f90c497	1.1309994
213	0xbdb5e9f4	-0.08882514
214	0x40251b2c	2.5797834
215	0xbe683652	-0.22676972
216	0x3f20dbe3	0.6283552
217	0xbfe2dbec	-1.7723365
218	0x3f7b40b0	0.9814558
219	0xbfb1bd45	-1.3885885
220	0xbf0a43ce	-0.5400971
221	0xbfb71ff4	-1.4306626
222	0x3f9e792b	1.2380728
223	0xbf1bf88f	-0.60926145
224	0x3efa7940	0.4892063
225	0xbfdf1fc4	-1.7431569
226	0xbeddb09c	-0.43298805
227	0xbfd52c9f	-1.6654242
228	0x3f2a3e3f	0.6650123
229	0x3e96e367	0.2947037
230	0xc02d3820	-2.7065506
231	0x3eb94438	0.3618486
232	0x3fe4621c	1.7842441
233	0xbf289127	-0.65846485
234	0x3f52af6c	0.8229892
235	0xbeb263e0	-0.34841824
236	0xc002fa72	-2.046536
237	0x3ece5c3c	0.40304744
238	0xbf052daa	-0.520228
239	0x3dce205c	0.10064766
240	0x40046c12	2.069096
241	0xbdba069e	-0.090832934
242	0x3f8c72f2	1.0972579
243	0xbe82db01	-0.25557712
244	0xbfd9e913	-1.7024254
245	0xbe1485a0	-0.14504099
246	0xbf53718a	-0.8259512
247	0x3e055298	0.13019788
248	0x3f3beb49	0.7340589
249	0xbf34974c	-0.7054336
250	0x40477776	3.1166663
251	0xbe37e967	-0.1796013
252	0xbf44838c	-0.76763225
253	0x3f6c336b	0.9226596
254	0x4006e029	2.1074317
255	0xbe8c11c3	-0.273573

bias f4 [64]
0	0xbf4cc0cd	-0.7998169
1	0xbf01e7f9	-0.5074459
2	0x3ef91eb8	0.4865625
3	0xbeff2019	-0.49829176
4	0x3f4940e1	0.7861462
5	0x3eb55945	0.3541967
6	0xbe8a52fb	-0.27016434
7	0xbf6f767f	-0.93540186
8	0xbee8e5d6	-0.4548785
9	0x3ed96ed9	0.42467383
10	0xbe6398df	-0.22226284
11	0xbeb815ce	-0.35954136
12	0x3f188135	0.59572154
13	0xbe25478b	-0.16140573
14	0xbe16ffd1	-0.14746024
15	0x3cf7c977	0.030247433
16	0xbecfe07b	-0.40600953
17	0x3e62b894	0.22140723
18	0x3e7474e3	0.23872714
19	0x3e6fa719	0.23403586
20	0x3e36d0a4	0.17853028
21	0x3e849710	0.25896502
22	0xbe99145e	-0.2989835
23	0x3dd23b13	0.10265174
24	0x3e2d4af8	0.1692313
25	0x3f26de17	0.6518263
26	0xbe82eb98	-0.2557037
27	0x3f14b9c6	0.5809597
28	0xbde38a7b	-0.111103974
29	0x3e50c771	0.20388581
30	0x3f3f14ee	0.7464131
31	0xbe4cb263	-0.19989924
32	0xbf06d3c3	-0.5266687
33	0x3f0f69f7	0.56021065
34	0x3d9f9bce	0.07793389
35	0xbef8e312	-0.4861074
36	0x3ed1728a	0.409077
37	0x3eab0903	0.33405313
38	0x3f23bcdd	0.6396006
39	0xbe9a1ce2	-0.3010016
40	0x3e88995b	0.266795
41	0xbe9198b4	-0.28436816
42	0x3f84620c	1.0342422
43	0xbd5781f8	-0.052614182
44	0x3d6615ef	0.05617326
45	0xbed6bf67	-0.41942903
46	0xbf26fbf4	-0.652282
47	0x3e86ae41	0.2630482
48	0x3efe2953	0.49640903
49	0xbe9cb9c4	-0.30610478
50	0xbf2c7305	-0.67363006
51	0xbeb827b3	-0.35967788
52	0x3e1a7301	0.15082933
53	0x3f2405e1	0.6407147
54	0x3e985e38	0.29759383
55	0x3f321335	0.6956056
56	0x3dc70435	0.09717599
57	0xbeaabce9	-0.33347252
58	0x3ec070c5	0.37586036
59	0xbea37720	-0.31926823
60	0x3e9b3601	0.3031464
61	0xbe73d6f7	-0.23812471
62	0x3f5e886f	0.8692693
63	0x3f3ae7ed	0.7301014

weight f4 [64, 64]
0	0xbf10a688	-0.56504107
1	0xbee1690f	-0.44025466
2	0x3f371c25	0.7152732
3	0xbf41aed8	-0.75657415
4	0x3f218822	0.6309835
5	0x3f4bf6bc	0.7967336
6	0xbec4fb7f	-0.38473126
7	0xbf391442	-0.72296536
8	0xbee01402	-0.43765265
9	0x3f15778c	0.5838554
10	0xbebfd4a3	-0.37466916
11	0xbeabd121	-0.3355799
12	0x3f1050ac	0.56373096
13	0x3e908234	0.28224337
14	0xbfa2a80c	-1.2707534
15	0x3e78a54d	0.24281807
16	0xbf06f5ea	-0.52718985
17	0xbf167199	-0.58767086
18	0x3e1cbc12	0.15306118
19	0xbee7c17e	-0.4526481
20	0xbeae23e5	-0.3401176
21	0x3db5d85e	0.088791594
22	0xbf0683a7	-0.52544636
23	0x3f848ffa	1.0356438
24	0x3f0b626e	0.54447067
25	0x3f3849fa	0.7198788
26	0x3e7c67e1	0.24649002
27	0x3f0189e1	0.5060101
28	0xbf2a9cc4	-0.66645455
29	0x3e5208bb	0.20511143
30	0x3f1bffef	0.609374
31	0xbe79a87a	-0.24380675
32	0xbfd470e3	-1.659695
33	0x3e9efb01	0.31050876
34	0x3f3f95f1	0.7483817
35	0xbf2d0abe	-0.67594516
36	0xbe6dccf5	-0.23222716
37	0xbe4f579c	-0.20248264
38	0x3e8379d3	0.25678882
39	0x3f057c9c	0.52143264
40	0xbe667315	-0.22504838
41	0x3e3b8f51	0.1831639
42	0x3f09f0f8	0.53883314
43	0x3f508cd5	0.8146489
44	0x3db72cf8	0.08944124
45	0xbf0b99de	-0.5453166
46	0xbef6dd2b	-0.48215613
47	0x3f0023dc	0.5005472
48	0x3ee1f6b7	0.4413354
49	0xbea27ce3	-0.31735906
50	0xbf2a1a51	-0.66446406
51	0xbf12fe0c	-0.57418895
52	0x3f86e8b8	1.053977
53	0x3f1ad107	0.604752
54	0x3f1995a9	0.5999399
55	0x3ebd76ba	0.37004644
56	0x3eb999c8	0.36250138
57	0xbecfd159	-0.40589407
58	0x3e93bb49	0.28853825
59	0xbe2ab7d7	-0.16671692
60	0x3e5b0b9a	0.21391144
61	0xbe13194e	-0.14365122
62	0x3f429fa8	0.76024866
63	0x3ee11d48	0.43967652
64	0x3ec15632	0.37761074
65	0x3eb094a0	0.34488392
66	0xbf29cb73	-0.66326064
67	0x3f1ebd7e	0.6200789
68	0xbeb1ee33	-0.34752044
69	0xbf5958fb	-0.849014
70	0xbedba6ac	-0.42900598
71	0x3f200d3f	0.6252021
72	0x3eded8cd	0.4352478
73	0xbee640a6	-0.44971198
74	0xbebfe16c	-0.3747667
75	0x3f119a31	0.568759
76	0xbef03b26	-0.46920127
77	0x3e055e55	0.13024266
78	0x3f739a05	0.9515689
79	0xbea95517	-0.3307273
80	0x3f209d77	0.6274027
81	0xbea4df65	-0.32201687
82	0x3e84a84d	0.25909653
83	0xbe7ab552	-0.2448323
84	0xbeb85346	-0.36001033
85	0x3e245153	0.16046648
86	0x3f659637	0.89682335
87	0xbece0c5d	-0.40243807
88	0xbe5ded26	-0.21672496
89	0xbf1aef69	-0.6052156
90	0x3e852a5a	0.26008874
91	0xbf2f586f	-0.68494314
92	0x3f432904	0.7623446
93	0x3ee8f217	0.454972
94	0xbe9bcd9c	-0.30430305
95	0xbe84a4ca	-0.25906974
96	0x3fc602d7	1.5469617
97	0xbed318ff	-0.41230008
98	0xbdc527a9	-0.09626705
99	0x3f14ef9d	0.5817812
100	0xbe8ab018	-0.27087474
101	0xbe86695a	-0.26252252
102	0x3d41a67f	0.047277924
103	0x3ee12302	0.4397202
104	0xbe6e1ca5	-0.23253115
105	0x3ce12d8d	0.02748754
106	0xbe9719c9	-0.2951186
107	0xbcd2f054	-0.025749363
108	0xbe6a4f65	-0.22881849
109	0x3d8be364	0.06830481
110	0x3e7f9378	0.24958599
111	0xbde5f311	-0.11228002
112	0xbee1d70a	-0.44109374
113	0x3de775f8	0.11301798
114	0x3f19b795	0.6004575
115	0x3f9d34fb	1.2281793
116	0xbee2361c	-0.44181907
117	0xbee66084	-0.4499551
118	0xbf4ee6cb	-0.8082091
119	0xbf200629	-0.625094
120	0xbf833a3d	-1.0252148
121	0x3e3fc6d7	0.18728195
122	0xbebc5acd	-0.36788025
123	0x3d1b908b	0.037979644
124	0x3e2b0f71	0.16705109
125	0xbe79ba37	-0.24387442
126	0xbf081119	-0.5315109
127	0xbf4a8336	-0.7910646
128	0x3e17e710	0.14834237
129	0x3eeeb3f1	0.4662166
130	0xbf7cec62	-0.9879819
131	0x3faf0fc1	1.3676683
132	0xbf3a6693	-0.72812766
133	0xbed2822f	-0.41114947
134	0x3e62a51d	0.22133298
135	0x3eff8fec	0.4991449
136	0x3ee7feb9	0.45311525
137	0xbfae319c	-1.360889
138	0xbecbd003	-0.39807138
139	0xbe843d2d	-0.25827923
140	0x3e9020e1	0.28150085
141	0xbef1b6c6	-0.47209758
142	0x3f938490	1.152483
143	0xbec7629d	-0.38942423
144	0xbe8a3a4f	-0.2699761
145	0x3e40d7c2	0.18832305
146	0xbf5249d7	-0.8214392
147	0x3ed35e91	0.41283086
148	0x3e6e2f60	0.2326026
149	0xbfd83910	-1.6892414
150	0x3c31a760	0.010843128
151	0xbf3fb9f6	-0.7489313
152	0x3ece554f	0.4029946
153	0xbd90fdb8	-0.07079643
154	0xbe89b0b0	-0.26892614
155	0xbdcea17e	-0.10089396
156	0xbf8f5705	-1.1198431
157	0x3f434e45	0.76291305
158	0xbefebcef	-0.4975352
159	0x3f00e5d9	0.5035072
160	0x3f7da680	0.99082184
161	0xc0294873	-2.645047
162	0xbf0ef8e5	-0.5584853
163	0x3f87897d	1.0588833
164	0x3e6b59b5	0.2298344
165	0x3ea8210c	0.32837713
166	0x3e56141f	0.20906113
167	0x3e3cf5e8	0.18453181
168	0x3eb76d0e	0.3582539
169	0xbf05a17c	-0.5219953
170	0xbe8b4678	-0.272022
171	0xbf241941	-0.64101034
172	0xbe9cb8cf	-0.30609748
173	0xbe6560a7	-0.22400151
174	0x3e839128	0.25696683
175	0xbf9b7fbf	-1.214836
176	0xc007171e	-2.110786
177	0x3fc68705	1.5509955
178	0x3f11d1f5	0.56960994
179	0x3f501438	0.8128085
180	0xbf31ef0c	-0.6950538
181	0xbee02e32	-0.43785244
182	0xbfab4dfa	-1.3383172
183	0xbed92ecf	-0.42418525
184	0xbf85c5b6	-1.0450962
185	0x3e7ef809	0.24899305
186	0xbf899c9e	-1.0750921
187	0x3fc0a668	1.5050783
188	0xbf9cd580	-1.2252655
189	0x3f885d00	1.0653381
190	0xbf813e75	-1.0097185
191	0x3dfd86fe	0.12379263
192	0xbf7251b8	-0.9465594
193	0xbf68b650	-0.90903187
194	0x3fb1e58b	1.3898176
195	0xbfb18335	-1.3868166
196	0x3f4da67c	0.8033216
197	0x3df4df81	0.119566925
198	0xbf6542d0	-0.8955507
199	0xbf689881	-0.908577
200	0xbf053ca6	-0.5204567
201	0x3f90541c	1.1275668
202	0xbf334bb7	-0.70037407
203	0x3dd22b95	0.10262219
204	0x3cdced5a	0.026968647
205	0x3e6d3fc8	0.23168862
206	0xbf033325	-0.51249915
207	0x3e60828b	0.21924798
208	0x3c4fccf3	0.012683141
209	0xbde28bf1	-0.11061848
210	0x3f769495	0.9632047
211	0xbdc3469b	-0.09534951
212	0x3cded6e6	0.027202081
213	0x3ebd68c2	0.36993986
214	0x3f0a8718	0.54112387
215	0x3e7d7f95	0.247557
216	0xbca9504e	-0.020668175
217	0x3fbbbe44	1.466744
218	0x3e51e93b	0.20499127
219	0x3f975fa3	1.1826061
220	0xbbd32ad8	-0.0064443164
221	0x3ee46201	0.4460602
222	0x3f3b65f0	0.7320242
223	0xbf36385b	-0.7117974
224	0xbf554b28	-0.83317804
225	0x3f62bdbf	0.8857078
226	0x3e56dbba	0.20982257
227	0xbfb4cb96	-1.412463
228	0x3d529087	0.051407363
229	0xbc06f2cf	-0.008236601
230	0x3f3ba75d	0.7330225
231	0x3dc5bfee	0.09655748
232	0xbcb789ae	-0.022404518
233	0xbb98940c	-0.0046563204
234	0x3f048b57	0.51775116
235	0x3e90df46	0.28295344
236	0x3e0c5b2b	0.13706653
237	0xbf374463	-0.71588725
238	0xbf4a07ed	-0.78918344
239	0x3f8ebd09	1.1151439
240	0x3f594216	0.84866464
241	0xbf911ab3	-1.1336273
242	0xbf467710	-0.77525425
243	0xbdb645db	-0.089000426
244	0x3ecc4cba	0.39902288
245	0x3f45d4d3	0.7727787
246	0x3ed87902	0.42279822
247	0x3e815d65	0.25266567
248	0x3e813f54	0.25243628
249	0xbd628988	-0.05530694
250	0x3edaee36	0.42759866
251	0xbeefa89e	-0.46808332
252	0x3f62860b	0.88485783
253	0xbf8332f5	-1.0249926
254	0x3f887765	1.0661436
255	0x3ea41982	0.3205071

bias f4 [64]
0	0x3ef9897f	0.48737714
1	0xbe993317	-0.2992179
2	0x3dfba514	0.122873455
3	0x3da53505	0.08066753
4	0xbd959f76	-0.073058054
5	0xbe05f2ee	-0.13080952
6	0xbe1492cf	-0.14509128
7	0xbd5d486b	-0.05402414
8	0xbd72371c	-0.059134588
9	0xbee4ee58	-0.44713092
10	0xbe367f86	-0.17822084
11	0xbee0dbb6	-0.43917626
12	0xbedfe615	-0.43730226
13	0xbf16aa33	-0.58853453
14	0xbe6c7ad6	-0.23093733
15	0xbe222353	-0.15833788
16	0xbb9b747e	-0.0047441116
17	0xbe2fa456	-0.17152533
18	0x3f10fbba	0.56634104
19	0x3e550fb5	0.20806773
20	0x3e25d10d	0.16193028
21	0x3e1728b3	0.1476162
22	0x3e1c8ebd	0.15288825
23	0x3c691fe0	0.014228791
24	0xbe07be2e	-0.13256142
25	0xbe413b1f	-0.18870209
26	0x3d61085e	0.05493962
27	0xbf048422	-0.5176412
28	0xbd01c92a	-0.031685986
29	0xbecb7f9c	-0.39745796
30	0xbdb3ef2d	-0.087858535
31	0xbdfcabd8	-0.12337464
32	0x3ea10085	0.3144571
33	0xbdf320e4	-0.11871508
34	0x3ef9fe75	0.48826948
35	0xbe8edab3	-0.2790123
36	0x3e857252	0.26063782
37	0x3d877fbc	0.0661616
38	0x3eaf9be2	0.34298617
39	0xbe8f53a4	-0.279935
40	0xbdc7fc7f	-0.09764957
41	0xbe1db264	-0.15400082
42	0xbda0f02c	-0.07858309
43	0xbebe0e30	-0.371202
44	0xbe53a860	-0.20669699
45	0xbe8351d1	-0.25648358
46	0x3eb81cf2	0.35959584
47	0xbdcad188	-0.09903246
48	0xbefcd5a9	-0.4938176
49	0x3dc82381	0.09772397
50	0xbe6be9f9	-0.23038472
51	0x3e0b7169	0.13617481
52	0xbd33d4bb	-0.043904047
53	0xbe5614f2	-0.20906428
54	0xbf093689	-0.5359884
55	0xbed25df5	-0.4108731
56	0xbc8f525b	-0.017495325
57	0xbd927196	-0.07150571
58	0x3ec7105f	0.38879678
59	0xbe29613e	-0.16541001
60	0x3e807f65	0.25097194
61	0xbe2e4248	-0.17017472
62	0x3dde6f5b	0.10861083
63	0xbe53b294	-0.20673591

weight f4 [1, 64]
0	0xbfaaead5	-1.3352915
1	0x3fb93270	1.4468517
2	0xc014c07c	-2.3242483
3	0x4028fc73	2.6404083
4	0xc003484c	-2.0512877
5	0xc030d90b	-2.7632473
6	0x3ff05483	1.8775791
7	0xc0441d14	-3.0642748
8	0xc01c942d	-2.446544
9	0xc01caa38	-2.4478893
10	0xc0419f54	-3.0253496
11	0x3fa0baf7	1.2557057
12	0xbfefa5a5	-1.8722426
13	0x3f9e60b3	1.237326
14	0xc001ae94	-2.0262804
15	0x40053d4b	2.081866
16	0xc004febf	-2.0780485
17	0xc03885f1	-2.8831751
18	0xbf99c063	-1.2011837
19	0x3ffef181	1.9917451
20	0x400a6953	2.1626785
21	0xc004257d	-2.064788
22	0x401acfe4	2.4189386
23	0xc00b226a	-2.1739755
24	0xbf9c71ca	-1.2222226
25	0xc033e545	-2.8108685
26	0x3fe36842	1.7766192
27	0x3f81fa17	1.0154446
28	0x402b0412	2.6721234
29	0x3fa3f02d	1.2807671
30	0xbf92eb77	-1.1478108
31	0x401fce16	2.4969535
32	0xbfc1df44	-1.514626
33	0xc0147508	-2.319643
34	0x4003a6e0	2.0570602
35	0xbf8f186f	-1.1179332
36	0x401afe66	2.4217772
37	0x3ffc7c2e	1.9725397
38	0xc01533c6	-2.331285
39	0x3fb51168	1.4145937
40	0xbff0978e	-1.8796251
41	0xbffe960c	-1.9889541
42	0xc01696f7	-2.3529642
43	0xc01eacc5	-2.479295
44	0xc01559ef	-2.333614
45	0x3f8aa2a3	1.0830883
46	0xbf88061d	-1.0626866
47	0xbf9665cd	-1.1749817
48	0xbffb62b7	-1.96395
49	0x4003d1bc	2.0596762
50	0xc002641f	-2.037361
51	0xc034587f	-2.8179014
52	0xc02454d4	-2.5676775
53	0xc01630c8	-2.3467274
54	0x3f90345b	1.1265978
55	0x3f8d5484	1.1041417
56	0x3f960962	1.1721613
57	0x3fdf1551	1.742838
58	0xbfb6c13f	-1.4277724
59	0x401058e5	2.2554257
60	0x3f973ad0	1.1814823
61	0xc0020f21	-2.0321734
62	0x4027c054	2.6211138
63	0xc0043244	-2.065568
