data/CartPole-v0_dueling_double_dqn/CartPole-v0_dueling_double_dqn_s0/pyt_save/model.pt (torch, 140807 bytes, 9 tensors)

weight f4 [128, 4]
000000 cd b4 86 3e b8 e6 9a 3d 63 36 52 bb 80 41 58 3e
       0.26309815 0.07563537 -0.0032075874 0.21118736
000010 c5 41 87 bf 1c 7a 34 be 2b 5a d9 be 96 3a 0e be
       -1.0566946 -0.17624706 -0.42451605 -0.13889536
000020 62 2b 55 be 48 3d 99 3e 7a 33 19 be ae 47 ab 3d
       -0.2081733 0.29929566 -0.14961043 0.08363281
000030 23 04 e2 3e 3d 0d e4 3e 95 e1 c3 3e 50 95 56 3e
       0.4414378 0.4454135 0.38258043 0.20955396
000040 34 56 6c bf 0f 4a ea be b5 73 b0 be 31 e4 3e be
       -0.92319036 -0.45759627 -0.34463277 -0.18641736
000050 05 b7 ce be bb 75 6d bf 6e 0c 3c bf 46 29 17 bf
       -0.40374008 -0.9275777 -0.73456466 -0.59047353
000060 44 37 d5 3e 41 c4 40 3e fd 5b fe 3e 24 4c cb 3d
       0.41643727 0.18824865 0.49679556 0.09926632
000070 bf 99 c2 3c ce c2 87 bd 7a 16 0e c0 1e c5 c5 be
       0.023754952 -0.06628953 -2.2201219 -0.3862695
000080 cb bd e7 3e fd dd ad bd d3 53 57 3d d9 4c 4f be
       0.45261988 -0.084896065 0.052570175 -0.20244159
000090 ac d6 ad 3e 08 7a 09 be 5d 4a 11 bf ca fd fc 3d
       0.33952844 -0.13425457 -0.56754094 0.12353094
0000a0 12 59 0a 3f 90 13 dd 3e b4 e5 8f 3f 1f a5 c3 3e
       0.5404216 0.43178988 1.1241975 0.38211915
0000b0 e6 f6 62 3e f4 76 67 be 1c 8b 1b bf 98 9a d0 be
       0.22164497 -0.22603971 -0.6075914 -0.40742946
0000c0 88 89 3b bd 23 ac 85 3c da 95 37 40 76 01 6f 3e
       -0.045785457 0.016317433 2.8685212 0.23340401
0000d0 6b 9c aa 3d 73 22 60 be b6 30 cf bf 06 6f 03 bf
       0.083306156 -0.21888141 -1.618674 -0.51341283
0000e0 cd c5 61 be 09 38 2c bf 11 b2 0f c0 71 a8 17 bf
       -0.22048111 -0.67273 -2.2452433 -0.59241396
0000f0 d2 46 e8 be 21 08 49 bf 8f cd f1 bf fc 17 15 bf
       -0.45366532 -0.7852803 -1.8890857 -0.5823972
000100 69 20 91 bd d4 1b c2 bd 32 5a ae 3e 09 c0 46 bd
       -0.0708626 -0.09477964 0.3405319 -0.048522983
000110 16 57 b6 bc 4f 85 35 3b d1 19 2b 40 1f 0f 79 3e
       -0.022258323 0.0027697866 2.6734507 0.24322174
000120 11 13 99 bf a7 97 17 bf 68 d5 fb bf 70 39 df be
       -1.1958944 -0.5921578 -1.9674501 -0.4359851
000130 4c 19 93 bd 8d 5f e9 bd 93 81 06 c0 d4 2a 03 bf
       -0.07182559 -0.11395178 -2.1016586 -0.51237226
000140 92 c6 23 be 96 b1 c6 3d 76 b9 92 3e b4 c0 a5 3d
       -0.15993717 0.097018406 0.2865712 0.08093396
000150 30 6c 52 be be 72 0d bf d9 83 ca be 85 79 b5 be
       -0.20549083 -0.5525321 -0.39553717 -0.35444275
000160 f8 cf b5 3e 2d 8c b7 3e e7 c5 92 3f f3 c2 b7 3e
       0.3551023 0.35849133 1.1466645 0.35890922
000170 14 70 b8 3d bd e6 98 3e ef 01 89 3f ba f9 9e 3e
       0.09005752 0.2986354 1.0703715 0.310499
000180 79 e7 be be 6e 73 e6 3d e1 59 32 3e b2 b0 11 3d
       -0.37285975 0.11252485 0.17417099 0.0355689
000190 e6 b0 96 3e d1 e3 a4 be 9c b8 a2 3e f3 8e c0 be
       0.29431838 -0.3220506 0.3178147 -0.37609062
0001a0 4c 3c a1 bd 0b 12 99 3e de ed e9 3e c3 a5 e0 bd
       -0.07872829 0.29896578 0.4568929 -0.109691165
0001b0 b8 50 f8 bd d0 5a 03 bd 00 0c a1 3e 40 53 47 3c
       -0.12124771 -0.032069027 0.31454468 0.012165844
0001c0 0b b6 dd 3e aa bf 2e 3e 24 ed c2 bf e5 3d 49 be
       0.4330295 0.17065302 -1.522862 -0.19652517
0001d0 57 92 b6 3e df 74 6a be e5 e5 05 3f fd d4 9f bc
       0.35658523 -0.22896145 0.52303916 -0.01951074
0001e0 84 4a 64 3e 76 16 02 3e c7 7b 89 bf 55 16 75 3d
       0.2229405 0.1270388 -1.0740899 0.05983575
0001f0 f0 6b c9 be a9 fe 37 3e 9f ba 83 3f 77 05 99 3e
       -0.39340162 0.17968239 1.0291327 0.29886982
000200 97 9a 95 3e 93 12 88 3e 44 6d c5 3f c9 6f 94 3e
       0.29219505 0.2657667 1.542397 0.28991535
000210 2e 13 d7 bc 1f b7 e7 3e e4 22 09 3f 55 c1 a0 3e
       -0.026254263 0.45256898 0.53568864 0.313975
000220 8a 56 fe ba 21 81 fb bb 4b 7b 3f 40 e4 59 a8 3e
       -0.0019404453 -0.0076753055 2.9919002 0.3288108
000230 29 52 a0 be 73 a7 50 be 14 7f f8 bf 5c 9f ae be
       -0.31312683 -0.20376377 -1.9413781 -0.34105957
000240 f0 11 07 3e 6d f9 47 be a3 e8 74 be 8d 96 9b be
       0.13190436 -0.19528742 -0.23916869 -0.303883
000250 73 a1 08 bd 3e e9 df 3c 19 5a 4d 40 73 ef d1 3e
       -0.033357095 0.027332898 3.2086241 0.41002998
000260 80 d2 fd 3e 6d d5 a9 3e 40 57 94 3f dd b1 ae 3e
       0.4957466 0.33170643 1.1589127 0.34120074
000270 42 e0 90 be 49 1b c3 3e 19 41 52 3f 0f 76 c7 3e
       -0.28296095 0.38106754 0.8213058 0.3895726
000280 49 5f bd be f5 92 34 bf 02 87 04 c0 44 b4 2b bf
       -0.3698676 -0.7053674 -2.0707402 -0.6707194
000290 0c 04 ec bd 3d 31 b5 3d 1c 9a 42 40 2e 03 01 3f
       -0.115242094 0.08847282 3.040656 0.50395477
0002a0 88 1c 8c bd 1a 45 83 3d b5 3d 23 40 56 26 d0 3e
       -0.068413794 0.064096645 2.5506413 0.40654248
0002b0 fc 96 62 3f 99 18 74 be b1 ad 94 3c a8 6d 6c be
       0.88511634 -0.23837508 0.018149229 -0.23088706
0002c0 86 b3 ae 3e 67 b7 05 3f 48 ad 3d 3e 2d 2d e1 3e
       0.3412134 0.52232975 0.18523133 0.4397978
0002d0 26 ac 35 bf 68 78 23 bf f2 35 07 c0 1b 58 ef be
       -0.709658 -0.638556 -2.1126676 -0.46746907
0002e0 58 fc 20 3f 4c cf 90 be 19 be f0 bf 50 02 bf be
       0.62885046 -0.28283155 -1.8808013 -0.37306452
0002f0 d2 34 0f bf 48 f1 87 3e ce b7 09 3f 7d 1e af 3e
       -0.5593997 0.2655127 0.5379609 0.34202948
000300 b0 9d 01 3c b2 70 09 be 85 5e 1e c0 be 19 01 bf
       0.007911131 -0.13421896 -2.474519 -0.50429904
000310 eb 24 92 bf 29 c9 49 be 40 32 00 bf 65 e7 a0 3c
       -1.1417516 -0.19705643 -0.50076675 0.019641588
000320 4b b0 39 3e 9c a4 f7 3e f8 de c3 3e c1 f0 5d 3e
       0.18133657 0.48367774 0.3825605 0.21673872
000330 b3 33 35 bf a7 ee a6 be 5f af a5 3f f1 08 39 3e
       -0.7078201 -0.32603952 1.2944144 0.18069817
000340 9e 51 cd 3d 2e d2 b9 bd 19 d7 d6 bd 75 4f d1 bc
       0.10025333 -0.09073292 -0.10490245 -0.025550583
000350 8c e3 10 bf 74 11 d0 be 54 d6 0f c0 65 ec 02 bf
       -0.5659721 -0.40638316 -2.2474566 -0.5114196
000360 57 62 4c bf 2c 9b d4 be c6 5c 95 bf 63 d2 bc be
       -0.79837555 -0.41524637 -1.1668937 -0.36879262
000370 2d 87 38 39 5b f2 62 3e 9c 0c ab 3f 8a 4e 41 3e
       0.00017597964 0.22162764 1.3363223 0.18877617
000380 dc dd 74 bf 6e 25 52 be cc 71 27 3f 68 43 99 bc
       -0.9565103 -0.20522091 0.65408015 -0.0187089
000390 e6 b8 67 bf 8d d7 71 bf 66 25 5e bf a2 5f fd be
       -0.9051651 -0.9446953 -0.86775815 -0.49487025
0003a0 59 44 69 bf 35 0a 23 bf ad 8c 9e bf ca c9 a4 be
       -0.91119915 -0.6368745 -1.2386681 -0.32185203
0003b0 5a 2d 67 3f 21 12 2e 3d e8 0e 81 3f 98 dd 20 3d
       0.90303576 0.042497758 1.0082674 0.03927383
0003c0 99 bd 60 3e 0b d8 34 bf 58 22 fd bf 65 4d 1e bf
       0.21947326 -0.70642155 -1.9776106 -0.61836845
0003d0 40 e0 36 bc 30 22 53 bd 36 0d c8 3e ae 8c 87 be
       -0.011161864 -0.051546276 0.3907258 -0.26474518
0003e0 c5 24 f0 be 8c a7 fd be 26 57 aa bf e2 5b e2 be
       -0.46903053 -0.4954189 -1.3307846 -0.44210726
0003f0 44 64 b0 bf 1b 8f 59 bf 04 c8 c2 3d 48 df ad be
       -1.3780599 -0.84983987 0.09510806 -0.33959413

bias f4 [128]
000000 82 28 43 3f fd b3 1a be 7e 6f 09 3f c0 05 27 3f
       0.76233685 -0.15107723 0.5368575 0.6524315
000010 d6 2d d1 be ad d6 af 39 99 ee c2 3e 58 57 0c bf
       -0.40855283 0.00033538547 0.3807266 -0.54820776
000020 82 13 46 3f 13 12 29 3f 57 ca d7 bc 5e 09 1a 3f
       0.77373517 0.66043204 -0.0263416 0.60170543
000030 0f 72 2d bf d8 7f 4d bf 11 42 78 3e 5a cb ad be
       -0.67752165 -0.802732 0.24243952 -0.33944207
000040 ec 14 1e 3f 3b d8 26 bf 5f 12 c8 bd e7 87 69 bf
       0.61750674 -0.6517369 -0.09769129 -0.91222996
000050 a0 39 5f be 67 99 49 bf a8 4c 99 3e f2 14 90 3e
       -0.21799326 -0.787497 0.29941297 0.2814098
000060 a7 ce 13 3f fa f5 2a 3f c4 95 38 3f 3a 75 c3 be
       0.577372 0.6678158 0.72103524 -0.38175374
000070 c4 2f f8 be b1 94 01 3f 4a 67 7b 3e 29 61 2c 3f
       -0.48473942 0.5061751 0.2455112 0.67335755
000080 06 82 02 3e f2 6e 3f 3f cc 79 1f bf bd 6c ad be
       0.12744913 0.74778664 -0.6229522 -0.33872023
000090 fe 65 3a 3f 7f 5a 33 bf 75 e6 0d be b1 dd 34 3f
       0.7281188 -0.7005996 -0.13857444 0.70650774
0000a0 5d be e3 be 50 eb 3b bf 0a cd 49 bf a8 f6 06 be
       -0.44481173 -0.73405933 -0.7882849 -0.1318003
0000b0 f9 0d 01 3f fe 6b b6 be 89 a4 12 3f 02 70 03 3f
       0.50411946 -0.35629267 0.5728231 0.51342785
0000c0 9a 91 21 bf 2e f7 98 3e 96 42 28 3f c9 b2 00 3e
       -0.63112795 0.29876083 0.657266 0.12568201
0000d0 e1 c6 82 be 76 32 13 bf bc 12 d1 bd 75 8b d1 3e
       -0.25542358 -0.5749887 -0.102086514 0.4092671
0000e0 d3 74 ba 3e 25 23 c3 3e 32 80 c7 3d 57 11 92 3d
       0.36417255 0.3811275 0.09741248 0.071322136
0000f0 6e 53 af 3e f2 8a fe be 36 7b 72 be ad 74 e1 3d
       0.3424334 -0.49715382 -0.23679814 0.11008582
000100 f1 7f fd be 75 27 1c 3f e8 fc 3f 3f 7b 22 2d bf
       -0.49511674 0.60997707 0.7499528 -0.6763074
000110 c2 94 08 be 30 a6 41 3e 44 2d 88 ba 7c 19 44 bf
       -0.13337997 0.18911052 -0.0010389467 -0.76601386
000120 ed 86 0a bf 92 03 81 be 64 d6 1a 3f 1d ec 21 3f
       -0.5411213 -0.25198036 0.60483384 0.63250905
000130 65 dc 27 3f 26 67 06 3f 24 b8 2e 3f 78 a1 ee be
       0.6557067 0.5250114 0.68249726 -0.46607566
000140 47 fc 37 3f 04 ca 2d bf 84 4f fd 3e c3 34 b4 be
       0.7186932 -0.67886376 0.49474728 -0.35196504
000150 e8 77 40 bf ce 87 b3 be fa ad d4 be 9b 94 06 bf
       -0.7518296 -0.35064548 -0.41538984 -0.52570504
000160 13 f8 9a 3e 74 39 35 bf a1 1a 3e 3e ef 04 18 3f
       0.3026739 -0.7079079 0.18564846 0.5938253
000170 a3 57 b7 3e 0d 4b 01 3f 09 59 6a bf 89 2e 26 3f
       0.3580905 0.50505143 -0.91542107 0.64914757
000180 07 d8 b5 bd fb e8 ec 3e f2 ec d6 be ec ed 08 bf
       -0.088790946 0.462715 -0.4197765 -0.5348804
000190 3c df 2b 3f 85 e8 1d 3f 87 32 e1 be 5f 8d 55 bf
       0.67137504 0.6168292 -0.43983862 -0.8341884
0001a0 ca 55 11 3f eb 8f 59 3e 85 6f 2e 3d e0 db 41 bf
       0.5677153 0.21246307 0.042586822 -0.7572613
0001b0 de 0f ed 3e da 6c 06 3f 4c f3 c3 be 2e 1e 88 3e
       0.46301168 0.52509844 -0.38271558 0.26585525
0001c0 1b a3 33 3e 07 f6 68 3e af ac d4 3e 27 2a 3c 3f
       0.17542689 0.22750102 0.41537997 0.7350182
0001d0 b0 35 2d bf 2e 57 d8 3d 39 6e 40 bf 27 54 04 3f
       -0.67660046 0.10563503 -0.75168186 0.51690906
0001e0 f4 b7 3b be 02 2c df 3e 88 ad 69 3e 98 01 23 3f
       -0.18331891 0.43588263 0.22820103 0.63674307
0001f0 0e d2 54 bf 6e ac 28 bf 18 76 b8 3e 38 69 d8 3e
       -0.8313302 -0.65888107 0.36027598 0.42267776

weight f4 [128, 128]
000000 3c f3 d0 3a 04 0d 4f bd 5d 01 21 3c 00 10 a8 bd
       0.001594163 -0.050549522 0.009826985 -0.08206177
000010 ac e8 cc bd 95 7e 7c bd 7c 5a eb bd f5 0a 92 bd
       -0.10005316 -0.061644156 -0.11491868 -0.07130996
000020 d1 63 e8 3c 05 e7 b9 bc 24 c8 1c bd 85 3e e6 bd
       0.028367909 -0.022693167 -0.038276806 -0.112423934
000030 bc e0 85 bc f3 7d 6e bc 54 fd c5 bd e5 01 b3 bd
       -0.016342513 -0.014556396 -0.09667459 -0.08740596
000040 30 cf d8 bd 35 b5 e1 3c 03 43 b0 bd fb e7 88 3c
       -0.10586393 0.027552227 -0.086065315 0.01671218
000050 71 84 a9 bd 4b 21 87 bc 10 df 93 bd 10 23 e2 bd
       -0.08277214 -0.016495368 -0.0722028 -0.11041844
000060 41 b6 94 ba d8 b4 d8 bb 29 59 ac bd 4e 18 40 bd
       -0.001134582 -0.006613355 -0.084154435 -0.04689818
000070 f6 6b ec 3b 63 cb 22 3d 31 59 e0 bb 9e ee f9 3c
       0.0072150184 0.039744746 -0.00684657 0.03050929
000080 2a ba e1 bc 05 cd a0 3c fb be 0c bd e8 fe ae 3c
       -0.02755459 0.01962901 -0.03436182 0.021361783
000090 f5 8b 34 3d 94 ed 0c 3d 4b b5 58 3d 0a d3 00 be
       0.044078786 0.03440626 0.05290727 -0.12580505
0000a0 5f 7f 09 3c e0 e0 90 bd 24 7a ce bd d6 c3 37 bd
       0.008392184 -0.070741415 -0.1008189 -0.044864498
0000b0 c2 22 9d bd 8c 98 99 bc e1 e1 24 3d 36 1c 50 bd
       -0.07672645 -0.018749498 0.040254477 -0.050808154
0000c0 c5 cf e7 bc d2 79 53 3d b1 d4 18 bd 06 98 bc bd
       -0.028297314 0.05162985 -0.037312213 -0.09208684
0000d0 d1 4c 4f bd e6 39 81 3d 58 ef d6 bc 91 b5 06 be
       -0.050610367 0.063098714 -0.026237175 -0.131552
0000e0 a1 9e f2 bd 74 e7 de bc 6d 49 c7 bd 19 20 09 bd
       -0.11846662 -0.027209975 -0.09730802 -0.033477876
0000f0 80 4b 05 bd 58 ef 93 bd a0 5b cc bd 63 f8 f2 bc
       -0.032542706 -0.072233856 -0.099784136 -0.029659456
000100 1f 1e 2b 3d 5e d0 d8 bc b3 06 fb bd c1 31 a6 3c
       0.041776773 -0.026466545 -0.12257137 0.020287396
000110 f0 23 d5 bd a2 fe 78 bd 78 b0 50 bd 62 ce 92 bd
       -0.10407245 -0.06078971 -0.050949544 -0.07168271
000120 41 c9 86 bd 94 5e 25 bc cb ea 89 3c 03 cf f0 bc
       -0.06581355 -0.01009335 0.01683559 -0.029395586
000130 57 f1 ca bd d3 bc 8c bd 07 b6 1b bc 26 22 06 bd
       -0.09909313 -0.06871953 -0.009503848 -0.03274741
000140 00 45 4a bd ae 93 80 3d 93 4c b2 3c 25 53 38 bb
       -0.04938221 0.06278168 0.021765029 -0.002812573
000150 1e f6 0e bd 41 40 e5 bb 26 05 78 3d 41 ea 32 bd
       -0.034902684 -0.006996185 0.060551785 -0.043680433
000160 de c3 8a bd d3 04 1c 3d 59 63 85 bc 00 1e 8e bd
       -0.0677564 0.03809054 -0.016282724 -0.06939316
000170 05 82 09 3d d3 e4 f0 bd 28 9e f1 3c 7e 76 10 3d
       0.033571262 -0.11762395 0.02949436 0.035269253
000180 b8 b9 c8 bc 5e ea dc bd 82 dd 41 3d dc 08 85 bc
       -0.02450262 -0.107868895 0.047330387 -0.016239576
000190 00 7a 0b bd a8 c8 c9 bc d8 3b cd 3c a7 7b 4a bd
       -0.034051895 -0.024631813 0.02505295 -0.04943433
0001a0 01 6e a6 bc a8 50 44 b8 c2 5e 82 3d a2 9e 5c bd
       -0.020316126 -4.680516e-05 0.0636573 -0.05386222
0001b0 1e 29 d5 3c fa 4e d8 bd 7e ef 8a bd 90 02 d0 bd
       0.026020583 -0.105619386 -0.06783961 -0.10156739
0001c0 9b 02 ce bd c6 09 45 bd 98 34 8a 3c 8d d4 bd bd
       -0.10059091 -0.048105024 0.016870782 -0.092690565
0001d0 66 44 2a 3d da 30 b7 bd ff b5 9c bd cd 87 7d bd
       0.041569136 -0.089448646 -0.076519005 -0.061897088
0001e0 62 a3 7b bd 02 fb 14 bc 8c ab 40 bd 25 5c cf bc
       -0.06143511 -0.009093048 -0.0470386 -0.025312493
0001f0 0e bb 2e 3d e0 40 45 bd 98 8c 28 bd 5f cf 13 bd
       0.042658858 -0.048157573 -0.041149706 -0.036086436
000200 27 7f b4 bd b0 8a ce bb d1 99 d9 bd d9 8b 23 bd
       -0.08813315 -0.006303154 -0.10625041 -0.03992829
000210 29 4b 8c 3d c8 33 2e 3d 66 b4 3d 3d 1b 79 0f 3c
       0.06850273 0.04252985 0.04631462 0.008756901
000220 ac f2 f3 bc 4e 35 1d bd 70 6b d7 3b 7d 30 a6 bc
       -0.0297788 -0.038380913 0.006574087 -0.020286793
000230 b8 9f 3d bc bf 6b ff 3b 82 4b 8c bc 86 05 0a bb
       -0.011573724 0.0077948268 -0.017125849 -0.002106042
000240 78 93 ac bd ba ad d6 bc cc 45 3c bd ff d6 55 3d
       -0.08426565 -0.026205886 -0.045965 0.05220699
000250 c2 21 35 3d b8 bf 0b bc 98 55 22 bc d9 6a af bd
       0.044221647 -0.008529596 -0.009908102 -0.085653014
000260 56 f7 93 bd 83 8f 79 bd 33 ea d0 bd d0 98 25 3c
       -0.0722491 -0.06092788 -0.1020092 0.010107234
000270 9e 45 5f bd 58 2e 9a 3c 11 97 5f bc ba d2 44 3d
       -0.05450975 0.018820927 -0.013646857 0.048052527
000280 f0 56 33 3c 28 a7 2b 3c a3 7b 7e bd 2f 45 11 3d
       0.0109460205 0.010476865 -0.062129628 0.03546637
000290 36 a9 bc bd c0 d7 b5 3c 60 96 60 3c dc 7c b3 bd
       -0.09211962 0.022197604 0.013707727 -0.087640494
0002a0 c4 29 e5 3c f7 be 88 3d f2 54 28 bc 3c f6 8f bd
       0.027974017 0.06677049 -0.010274159 -0.07029387
0002b0 aa ed 07 bd 72 d1 b0 bd 2a a3 2e 3d c6 d1 15 bd
       -0.03318564 -0.086336985 0.042636074 -0.03657701
0002c0 44 cb 82 3c 7b a5 e3 bd cc 5a cd bc 8c 1d 21 bd
       0.015966065 -0.11115547 -0.02506771 -0.03933482
0002d0 54 16 d4 bc c8 cb 41 3d a1 bc 99 bd 88 ef a4 3c
       -0.025889553 0.04731348 -0.07506681 0.020133749
0002e0 16 1a 54 3d 8b 30 a1 bd 02 6b 60 3d 96 b4 14 bd
       0.05178269 -0.07870587 0.05478955 -0.036305033
0002f0 4d 8b 9f 3b c0 4f 46 bc a8 ce e5 bd a1 df 9e ba
       0.004868901 -0.012103975 -0.11221057 -0.001212109
000300 0e f7 8c bc 67 59 dd bd d2 4c 4f 3d 75 e8 68 bd
       -0.017207649 -0.10808068 0.05061037 -0.056862313
000310 2f 42 33 bd 02 9e 4e 3d f5 f4 3b bd f0 cc dd bb
       -0.04376429 0.050443657 -0.045887906 -0.006768815
000320 c6 90 75 3d df e0 b1 3d fc ff cb 3c 2a d6 8a bd
       0.05995252 0.08685469 0.024902336 -0.0677913
000330 d6 c8 1d bd 3e e8 5d 3d b7 79 97 bd b7 05 81 3d
       -0.03852161 0.05417656 -0.07396262 0.06299918
000340 42 96 32 bc d9 50 03 3c 48 ae e0 3c c5 59 bd bd
       -0.010900082 0.008014881 0.027426854 -0.09245638
000350 ce 58 73 bd ff 25 ec bd 57 74 68 bd da 21 2e 3d
       -0.059410863 -0.11530685 -0.056751575 0.042512752
000360 3a 22 73 3d 04 ac 9c bd 04 65 59 3d 64 03 73 3b
       0.059358813 -0.07649997 0.05307485 0.0037080878
000370 7d 65 c9 bc 9d 09 b9 bd 5e c3 06 bd 74 bf 51 bd
       -0.024584526 -0.09035037 -0.03290116 -0.051207975
000380 cb 2c 43 bd e2 73 24 bd cc f2 71 bd 73 d0 95 bd
       -0.04765014 -0.040149577 -0.05906944 -0.07315149
000390 de 3b 95 bd 80 9e 1a bd 78 cf af bd 58 df b1 bd
       -0.072868094 -0.037748814 -0.085844934 -0.086851776
0003a0 b6 b5 93 bd 50 a7 28 3d 01 af cb bd 5f 48 8a bd
       -0.07212393 0.041175187 -0.09945489 -0.06752085
0003b0 0e 1b f7 bc 83 3c 05 bd 0b 92 af bc a6 7e 21 3d
       -0.030164268 -0.03252841 -0.021431943 0.039427422
0003c0 e0 49 2d bc 40 d7 5b bc fd ba ab bd b7 79 e2 bc
       -0.010576695 -0.013418019 -0.083852746 -0.027645929
0003d0 d7 fb 8f 3d ff 0e 8f 3d a8 c2 ea 3c 39 56 41 bd
       0.070304565 0.06985282 0.028657272 -0.04720137
0003e0 61 bc e9 bd a6 2e 54 bd 2c 5a be bd 1f 2a ac bd
       -0.114128835 -0.0518023 -0.09294543 -0.084064715
0003f0 74 2c c4 bc ed 06 1d bc ee 4a e8 bc 5a fb c9 3c
       -0.023946978 -0.009584171 -0.028356042 0.024655987

bias f4 [128]
000000 28 94 bf bd 90 35 75 bd f1 25 00 bd 03 69 79 3e
       -0.093544304 -0.059865534 -0.031286184 0.24356465
000010 16 9a a7 bd d3 3a 6d bd 0b 8c 06 bd 89 55 30 bc
       -0.081836864 -0.057917427 -0.0328484 -0.010762581
000020 ff e9 9f 3d de fa bc bd 00 bf 0f bd 56 d1 34 bd
       0.07808303 -0.092275366 -0.03509426 -0.04414495
000030 2e 94 8d bd 80 23 04 3e e4 25 b4 bd cf 78 b2 bd
       -0.06913029 0.12904167 -0.087962896 -0.08714449
000040 01 e7 e1 bd 85 93 da 3c 32 51 86 3c 6e ab 51 3d
       -0.110303886 0.02668167 0.016396139 0.05118888
000050 ca 79 11 be f3 15 9f bd 26 e3 e2 3c 0f 2b ce 3c
       -0.14206615 -0.07767858 0.027696203 0.025167016
000060 ef f6 46 ba 4f f7 a9 bd fb bc 5f 3e 86 55 fb bc
       -0.00075898966 -0.082991235 0.21849434 -0.03068043
000070 e6 09 fb bd 7d b3 ab bc 47 75 ea 3c 1c 1d 91 bd
       -0.12257747 -0.02095961 0.028620375 -0.0708563
000080 3e 64 21 bc 07 f1 17 be 42 89 e0 bc 4d 78 b3 bc
       -0.00985056 -0.14838038 -0.0274092 -0.02190795
000090 79 b3 45 3d 73 66 22 3c ab 38 c5 bd 72 0c 84 3e
       0.04826686 0.009912121 -0.09629949 0.25790745
0000a0 8e 85 4f bd cc 36 a6 bd 84 d9 00 be 04 f6 25 3e
       -0.050664477 -0.081159204 -0.12582976 0.16207129
0000b0 95 f0 e2 bd fa 8b ef bd 03 0e 17 bd 60 ef 02 be
       -0.11081044 -0.1169662 -0.036878597 -0.12786627
0000c0 8a ef f1 bd 74 86 da bd ac 8a 62 bd 9b 43 94 bd
       -0.118132666 -0.10670176 -0.05530803 -0.07239457
0000d0 d8 bd 77 3d 6f b1 fa bb d1 02 4d bd 43 c3 91 3b
       0.060483783 -0.0076505463 -0.050051514 0.004448326
0000e0 a5 d1 30 3c d0 56 20 bd a0 92 8c 3e 43 e5 9f bd
       0.010792171 -0.03914529 0.27455616 -0.078074
0000f0 f1 05 41 bd 8b 73 f0 bc 18 11 cc 3c fe 3a 73 bd
       -0.047124807 -0.02935197 0.024910495 -0.05938243
000100 f6 15 d8 bc 90 d4 38 bc 75 83 3f 3e 30 94 a3 3e
       -0.02637766 -0.011281148 0.1870249 0.31948996
000110 e5 d8 97 3e 40 3c ff 3a 16 93 82 3e e4 5c b6 bc
       0.29657665 0.0019472912 0.25502843 -0.02226109
000120 de 54 ff 3c 97 bc ca bc d6 71 13 3c 56 36 2e 3e
       0.031168398 -0.02474813 0.008999309 0.17012915
000130 c3 34 a1 bd b2 ed 33 3e c5 6b 93 bd ad f0 cd 3c
       -0.078713916 0.17571142 -0.0719829 0.025139177
000140 56 84 de bd 71 36 5a 3e 46 d1 01 3e 9d 7f 55 bd
       -0.10865085 0.2130983 0.12677488 -0.052123655
000150 13 02 df bd 6c 08 b5 bc dd 59 7a bd aa eb 99 3d
       -0.108890675 -0.022098742 -0.061120857 0.075156525
000160 bf 91 c2 bd 54 bb 05 3c 9c 79 c4 bb 10 29 65 bd
       -0.09500455 0.008162338 -0.0059959423 -0.055947363
000170 b9 e4 a0 bc d4 3a 95 3c dd 13 5e bc 4f f2 78 3e
       -0.019640313 0.018216528 -0.01355454 0.24311183
000180 b3 fb 7e bc 5c f8 61 3e 01 b0 22 bd 77 b8 50 3d
       -0.015562939 0.22067398 -0.03971863 0.05095717
000190 b1 85 0f be 72 6b 53 bd 64 13 05 be cb 08 6b 3c
       -0.14015843 -0.05161614 -0.12995678 0.014345358
0001a0 7f 6b 19 3c 37 83 b8 bd b7 1a c5 3c fb 87 8e bd
       0.009364008 -0.09009402 0.02406059 -0.0695953
0001b0 c9 ab 16 3d 6c a9 70 3d f4 39 8e bd 1e 3e bc bb
       0.03678492 0.058755323 -0.069446474 -0.0057447096
0001c0 1e 1b 43 bd 94 35 a4 bd c1 fa ae bd 90 42 ee bc
       -0.047633283 -0.08018032 -0.08543921 -0.029084474
0001d0 bf a7 95 3e 7f bb 47 3d 32 d0 d2 3c 5b 18 d7 bc
       0.29229543 0.048762795 0.02573404 -0.02625673
0001e0 a9 77 0b 3d 2e d2 88 3e b0 4b 8c 3e 0d ba 88 3d
       0.034049664 0.26722854 0.27401495 0.06676111
0001f0 ca 78 0b 3c ac 1b c1 bd 1a 00 05 3e 2e c3 9a bd
       0.008512685 -0.09429106 0.1298832 -0.07556759

weight f4 [2, 128]
000000 af e2 66 3d 42 83 4b 3d 17 a9 e0 3f f5 5c ac be
       0.056368526 0.049685724 1.7551602 -0.3366467
000010 a2 ee b7 3c b3 60 c5 3c 11 d9 6c bc 73 e6 7c bd
       0.022452656 0.024093961 -0.01445605 -0.06174321
000020 d7 a1 5b 3a bc 23 43 c0 5e 21 a9 bb 36 f3 8c 3d
       0.0008378303 -3.049056 -0.0051614484 0.06882326
000030 df 52 7f bd 4e 42 de 3e 51 11 62 3d df 66 0b 3f
       -0.06233489 0.4340996 0.055192295 0.54453844
000040 4c 9e 22 bc b6 f0 bc 3f ca a8 0c bd 23 73 9c be
       -0.009925436 1.4760959 -0.034340657 -0.30556592
000050 e3 6f 9c 3c 3b 2e db 3b 12 48 cc 3b 50 52 20 3c
       0.01909632 0.0066888607 0.0062341774 0.00978525
000060 c5 a8 0a 3d 3b ea 97 b9 ba 89 7b bf 89 54 81 3c
       0.033852357 -0.0002897548 -0.9825703 0.01578738
000070 1f 35 d6 bd 5e bd 81 3d c9 51 81 3d 21 02 64 3d
       -0.10459351 0.06334947 0.063144274 0.055666093
000080 56 e3 72 3c 47 9b 7e be d6 d7 a0 bd d0 86 d9 3c
       0.014824709 -0.24863921 -0.078536674 0.026553541
000090 d4 aa 90 bc 61 4a b9 3c c7 80 33 3d 38 e1 b7 be
       -0.017659582 0.022618474 0.043823984 -0.35914016
0000a0 f6 e9 c0 bd ef e3 7e bd 50 82 5e 3d f7 6d 2d 3f
       -0.094196245 -0.062229093 0.054323494 0.6774592
0000b0 50 32 b1 bd 05 df e5 3e 5f a8 da 3e 7b 3e ef 3c
       -0.086521745 0.44896713 0.42706582 0.029204598
0000c0 3b 46 b8 3b 3f e4 0b bb 7b a5 54 3d c6 9d f0 bc
       0.0056236065 -0.0021345762 0.051915627 -0.029372107
0000d0 37 d6 1a 3d da 05 e9 bc fa bd 91 3d 45 98 1a 3d
       0.037801947 -0.028445173 0.07116313 0.03774287
0000e0 ed 84 8a 3e a6 69 06 c0 a4 1a cf be 06 11 eb bc
       0.2705454 -2.1001983 -0.40450013 -0.02869464
0000f0 da 7e 51 bd 84 7b 6c 3c 0e 96 03 3d f0 b5 36 3d
       -0.051146366 0.014433745 0.032125525 0.044607103
000100 f5 fc ac bc b6 6e 43 3d b8 58 33 3f 95 d2 80 bf
       -0.021116713 0.047713004 0.7005725 -1.0064265
000110 08 05 ef 3e 26 52 0c 3c e0 71 ce be de ad 1c 3b
       0.46683526 0.008564508 -0.40321255 0.0023907344
000120 db 3a 4a bc 01 46 c6 bd e8 ba 79 3d cd 5b 9b bf
       -0.012343134 -0.09681321 0.060969263 -1.213739
000130 a5 4f 29 3c ed 62 f6 3e eb d3 90 3d 04 70 3f 3d
       0.01033393 0.4812235 0.0707167 0.046737686
000140 61 e6 34 3a bb a8 e6 be 48 18 ee 3e 1b 41 e7 3e
       0.0006900784 -0.45050606 0.465029 0.4516686
000150 7e 19 8c 3d fb 3d b8 bc dc ce 24 3d 87 2b 07 bf
       0.068408 -0.022490492 0.04023634 -0.5280079
000160 b9 b0 14 3d d7 d1 a4 3c f8 98 90 3f 16 c1 c6 3e
       0.03630135 0.02011959 1.1296682 0.38819188
000170 6a e3 21 bd 15 41 88 3d a6 23 4c bf 91 ad 0d 3f
       -0.03952352 0.066530384 -0.79741895 0.55342966
000180 a5 6a 10 bd bc 0b 9e 3e 97 b6 86 3c fd 02 23 3d
       -0.035257954 0.30868328 0.016444487 0.03979777
000190 4a 19 49 be 98 b9 0a 3d 4e 54 14 bb 8e db 37 bc
       -0.19638553 0.033868402 -0.0022633257 -0.0112217795
0001a0 11 7b ec bc 52 56 9c bc fa 88 1f bd 37 20 0a 3d
       -0.028867276 -0.01908413 -0.03894899 0.03372213
0001b0 51 54 19 3d df 69 89 bb 43 b6 48 3b 84 27 f2 bb
       0.037433926 -0.004193529 0.0030626215 -0.0073899645
0001c0 75 4a 61 bd 1a b4 66 3c 03 e7 58 39 24 3c f9 3e
       -0.05500265 0.0140810255 0.00020685424 0.48678696
0001d0 62 f8 04 3f a1 92 9d bd 08 a0 e8 3c 95 6f e8 bd
       0.519415 -0.07693983 0.028396621 -0.113494076
0001e0 fa ec 1f 3d 9d 81 c2 3e 51 7b 3a 3f ef dd 08 bf
       0.039044358 0.37989512 0.72844416 -0.53463644
0001f0 30 10 3d 3d 22 c5 36 3d 7c 7c a9 be 9c fe b8 bc
       0.046158016 0.044621594 -0.33102787 -0.022582345
000200 9c df 6d 3c 3a 9e 7b bc e1 72 d7 bf 38 5a ce 3e
       0.014518645 -0.015357548 -1.6831933 0.40303206
000210 6a b7 3a 3d d6 42 f7 bc 57 11 76 bd d8 f0 7e bd
       0.045585074 -0.030183237 -0.06007513 -0.062241405
000220 12 0a 67 bd b7 56 3b 40 e3 fa 86 bc d7 ff 59 3d
       -0.05640609 2.9271677 -0.016477054 0.053222504
000230 9e ca 8a bd 7c 24 b5 be 26 12 94 3b 91 2e eb be
       -0.067769274 -0.35379398 0.004518765 -0.45933965
000240 23 26 5e bc 6e fc c5 bf ad a4 75 bc 26 63 c7 3e
       -0.013558897 -1.546766 -0.014992875 0.38942832
000250 54 8e 10 bd 9a 21 27 3c ce c5 90 bc e6 5d 3c bd
       -0.035291985 0.010200882 -0.017672446 -0.045987986
000260 2c 76 12 3d 82 10 67 3d 0f fe 88 3f 7e a4 18 3c
       0.03575723 0.056412227 1.0702533 0.009316562
000270 38 95 36 bd 58 57 82 3d cc ae 0e 3d 31 58 c5 3d
       -0.0445759 0.06364316 0.034834668 0.09635962
000280 8d 8f 35 bc 50 5f 86 3e 18 51 c6 bc 6a 32 6f bd
       -0.011081588 0.26244593 -0.02420859 -0.058397688
000290 dd 12 0b 3d 5b e5 06 3d 1e 90 dc bc 8c 48 bb 3e
       0.033953536 0.032933574 -0.02692419 0.36578786
0002a0 ad 95 de bc 96 12 f5 3b 48 6f 47 3d f0 0b 2d bf
       -0.02717098 0.0074790223 0.04869011 -0.6759634
0002b0 b9 93 cf bc 3f 39 eb be 04 26 c6 be 1e 45 a5 3d
       -0.025338994 -0.45942113 -0.3870088 0.08069824
0002c0 d4 2a 8a 3d fd 50 92 3c 3b eb 1c 3d 20 5d 7e bd
       0.0674645 0.017860884 0.03831027 -0.06210053
0002d0 9e 5e fb ba ff 22 40 bd 23 20 78 3d b2 e0 7b ba
       -0.0019177978 -0.046908375 0.060577523 -0.00096083723
0002e0 9a 8b 9d be 33 c5 01 40 61 a9 b5 3e 91 dc c9 bc
       -0.3077057 2.027661 0.35480788 -0.024641307
0002f0 b8 81 c7 bb 91 01 ad 3d b2 30 4b bd 5c 75 39 bd
       -0.0060884617 0.084475644 -0.049606986 -0.04527794
000300 1f c1 ee 3c 2d 96 83 bc 47 ec 38 bf 5a 21 86 3f
       0.029144822 -0.01606282 -0.7223553 1.0478928
000310 8d ba 03 bf 33 04 08 bd b3 9b df 3e 51 a8 67 3b
       -0.5145653 -0.03320713 0.43673477 0.0035348127
000320 45 1f 55 3c d2 9b 8f bd d0 ad 02 3d 5c a8 a0 3f
       0.0130079435 -0.07012142 0.03190404 1.2551379
000330 04 6f 24 bb f5 bc 15 bf bd 4b a0 3d 36 7e f7 3c
       -0.0025090585 -0.5849145 0.07826946 0.03021155
000340 20 70 57 bd 64 12 dd 3e b1 7c 03 bf cc 7a f4 be
       -0.052597165 0.43178093 -0.5136214 -0.47749937
000350 e1 cd 80 3d e4 15 a0 3b 62 da 12 3d b1 6a 10 3f
       0.06289268 0.004885422 0.035852797 0.564128
000360 ca d9 ad 3d ed 38 16 bd b0 d9 80 bf a9 f3 f0 be
       0.084888056 -0.036675382 -1.0066433 -0.47060898
000370 f1 2b 53 bd c8 5b 6e 3d 5d 79 6c 3f ec 92 10 bf
       -0.051555578 0.058193 0.92372686 -0.56474185
000380 8c 73 93 bc 8b be 96 be cb 57 62 3a 42 24 9d bc
       -0.017999433 -0.29442248 0.0008634298 -0.019182328
000390 55 84 28 3e 96 70 66 3d 26 27 00 3c 4e 59 50 3c
       0.1645673 0.056259714 0.007821834 0.012716604
0003a0 8f 7e 15 bc 3f 44 0e 3d db 98 26 bd 46 ce a6 3c
       -0.009124412 0.034733053 -0.040673118 0.02036203
0003b0 a1 1b 22 bd 6e a7 eb 3c 9e d1 8c 3b 78 c5 68 3d
       -0.03957713 0.02876636 0.0042974493 0.056828946
0003c0 14 09 64 bd d9 f5 09 3d b8 9a 1e 3d c7 00 fd be
       -0.05567272 0.033681724 0.03872177 -0.49414656
0003d0 ff 16 05 bf 08 74 6f bd 20 23 e6 bc 66 22 4e bd
       -0.51988214 -0.058460265 -0.02809292 -0.050325774
0003e0 71 d5 2e bc f9 85 d5 be 13 61 4a bf c3 4d e3 3e
       -0.010671006 -0.41703776 -0.79054374 0.44395265
0003f0 3c ea b4 3d a2 4c 0c 3d 83 c8 b1 3e d5 b8 48 3d
       0.08833739 0.03425277 0.3472329 0.049004395

bias f4 [2]
000000 5f 40 82 3d 5f 06 80 3b
       0.06359934 0.0039070095

weight f4 [128, 128]
000000 11 51 b6 3e b8 cf d0 be d4 42 af 3e ad 24 a0 3e
       0.35608724 -0.40783477 0.34230673 0.3127798
000010 47 70 91 bf 4e 0f c9 be de c8 a5 3e a2 8b 93 bf
       -1.1362389 -0.3926949 0.32379812 -1.1526988
000020 e4 59 9b 3e 54 1b 91 3e 8a fe f2 bb e6 2e 71 3e
       0.3034202 0.28341162 -0.0074155973 0.23553047
000030 19 dc a4 c0 d3 59 fb be 63 3e 6a be de 05 5e bf
       -5.1518674 -0.49091968 -0.22875361 -0.867277
000040 19 3b 73 3e c1 92 84 c0 66 94 8a bf 36 52 a3 bf
       0.23753013 -4.1429143 -1.0826538 -1.2759464
000050 4c e4 92 bd 10 5d 69 bf 59 8e 10 3e a9 46 8b 3e
       -0.071724504 -0.9115763 0.14116801 0.27202347
000060 76 39 2a 3e 96 b7 0f 3e 21 0b 89 3e c6 8e 43 3d
       0.16623482 0.14034876 0.26766303 0.04774358
000070 01 9b 53 be 07 9f 3f 3e fe c2 85 3e bc 27 8b 3e
       -0.20664598 0.18713008 0.2612533 0.27178752
000080 55 23 58 bf 3b b2 ea 3e 83 8a fa bf 51 e7 53 bf
       -0.8442891 0.45839104 -1.957352 -0.82774836
000090 78 74 9c 3e 40 1b 14 c0 aa c2 9f bc 60 fc a1 3e
       0.3055761 -2.3141632 -0.019502003 0.3163786
0000a0 7b c4 77 3c 28 fc 11 c0 df a5 20 c0 a8 3d b7 bd
       0.015122528 -2.2810154 -2.510124 -0.08947307
0000b0 f9 1f ce 3e a5 da 79 bf 91 0a 6c bc 48 e9 8b 3e
       0.40258768 -0.9759925 -0.014406816 0.27326417
0000c0 29 2c a5 bf f4 90 0f 3e 65 9a b0 3e 0d 10 7b be
       -1.2904102 0.14020139 0.34492794 -0.24517842
0000d0 ea 08 04 3d 57 10 8d bf 36 31 ba be b3 65 65 3e
       0.032235064 -1.1020612 -0.3636567 0.22402076
0000e0 fc ce 39 be df d3 f6 bd b7 ea 26 be 40 f2 79 3e
       -0.18145365 -0.1205213 -0.16300474 0.24408817
0000f0 d0 a0 a6 be 54 3a 93 bd 1f 4e 94 be 41 db b3 be
       -0.32544565 -0.071888596 -0.28965852 -0.35128215
000100 db a1 05 c0 e6 59 66 3e a0 4c b7 3e a0 e1 c9 bf
       -2.0880039 0.22495231 0.35800648 -1.577198
000110 ef 09 ce be 79 e5 b9 3e b1 03 9a bd 3c 39 da bf
       -0.40241954 0.36307886 -0.07520235 -1.7048717
000120 44 da 87 3c 72 0a b7 bd f5 0e a0 3e da b1 ae 3e
       0.01658357 -0.08937539 0.3126141 0.34120065
000130 49 d1 75 3e 45 37 3a 3d d8 4f 97 3e ef 68 6f bf
       0.24005617 0.045462865 0.29553103 -0.9351949
000140 9e f7 a0 3e e9 26 96 bf 78 26 69 3e d5 99 f4 bf
       0.31438917 -1.1730624 0.22768581 -1.9109446
000150 78 4b 8e c0 cb ce e2 bf 02 84 01 bf 00 ff 1d be
       -4.4467125 -1.7719358 -0.5059205 -0.15429306
000160 dc 94 f4 be 21 19 a4 bf 51 41 4f bf 0f 81 86 3e
       -0.4776982 -1.2820169 -0.8095904 0.2627034
000170 1f 7b fb 3d b7 8b 77 3e 6b a1 5c be 8c 7c 1f 3e
       0.12279343 0.2417439 -0.21545951 0.15574855
000180 57 24 b2 bf e6 4c 79 bd 03 d5 bd 3d 80 5f 9d bf
       -1.391734 -0.06086435 0.092691444 -1.2294769
000190 d7 5d 68 3e 65 02 83 3e 82 8f aa be 38 b0 5b c0
       0.22692047 0.25587764 -0.33312613 -3.4326305
0001a0 2b 52 9d 3e f5 20 8b 3b 91 f8 3f bf 8d c0 9c be
       0.30726752 0.004245872 -0.7498866 -0.30615655
0001b0 1a 8e 08 3f 67 58 8e 3e af 1d 65 bf 0c c9 d7 3e
       0.5334183 0.2780182 -0.8949842 0.42145574
0001c0 a2 3c 1d 3f 9c 6a d5 be 15 84 3e 3e 07 a2 c7 3e
       0.61420643 -0.416829 0.18605073 0.38990805
0001d0 31 85 21 c0 67 b8 4f 3e c6 56 3a bf d6 a7 18 3e
       -2.5237544 0.20285188 -0.72788656 0.14907774
0001e0 df a1 79 bf 4c 35 de 3e f6 a1 b5 bd 83 c2 f3 3e
       -0.9751262 0.43400037 -0.08868782 0.47609338
0001f0 2f fc c3 bf b9 ee a1 bf 01 0b ae 3e 58 1b 27 3e
       -1.5311335 -1.2650977 0.3399277 0.16319025
000200 8c c6 fb bc 73 33 09 bd 0b 06 ab bd 45 21 73 bd
       -0.030734323 -0.03349633 -0.08350762 -0.0593579
000210 34 47 a0 3d 6b 4a 05 3d c4 d1 2f ba 08 2e 72 3c
       0.07826081 0.032541674 -0.0006706978 0.0147814825
000220 1e e8 3f bc 53 45 99 3c 01 4b 22 3c bf 3f bb bd
       -0.011713056 0.018709814 0.009905578 -0.09143018
000230 56 b8 da bc 3b d6 2e 3c 14 22 01 bd 6c 0a 16 3d
       -0.026699226 0.010671194 -0.03152664 0.036631033
000240 ef 02 0d bc 47 52 2f 3d 5c 64 1b bd 4f f3 a8 bd
       -0.008606656 0.042803075 -0.037937507 -0.082495324
000250 9b 2f 96 bd c4 9c 45 3d be 25 9f 3b c3 9c 73 3d
       -0.07333299 0.048245206 0.004856794 0.05947567
000260 bf 36 c3 bd 8d d5 43 bd 6f 18 e2 bd 86 bf 57 3d
       -0.09531926 -0.04781108 -0.110398166 0.052672885
000270 da e5 f6 bc 7a 0f 43 bd 89 da 33 3d 9f 72 5f bd
       -0.030138899 -0.04762218 0.043909583 -0.05455267
000280 35 83 db 3c ae 9e d8 bd ac 75 c4 bd f9 b2 c0 3d
       0.026795963 -0.10577141 -0.09592757 0.09409136
000290 b3 ad 08 3c d6 64 f9 bd 0c ef 47 bd db 3a 96 3c
       0.008342194 -0.12177436 -0.048811957 0.018338611
0002a0 00 fe 97 bd de 45 0c 3d 3c af 82 bd 19 4d 91 3c
       -0.074214935 0.034246318 -0.063810796 0.017736958
0002b0 4b a4 60 3b 6a be af bd 0a e1 5e 3d 43 06 96 bd
       0.0034277614 -0.085812405 0.054413833 -0.07325413
0002c0 c8 88 af bc 90 a2 c5 bd 11 0d 94 bd a6 02 ab 3c
       -0.021427527 -0.09650147 -0.07229055 0.020875286
0002d0 47 51 53 3d e8 53 31 bd 27 aa b3 3c 5e 4f 88 bd
       0.051591184 -0.04329291 0.02193172 -0.06655763
0002e0 3b 6c 67 3d a6 b8 1b 3d 74 aa 87 3d cd bd 88 3c
       0.0564997 0.03801789 0.06624308 0.016692067
0002f0 67 06 94 bd 9c bc a7 bd 42 14 69 bd 16 5a 84 bd
       -0.07227784 -0.08190271 -0.056904085 -0.06462495
000300 43 5e 26 bd e3 2a cc bd e9 de 0b bd dc 22 cc 3d
       -0.04061724 -0.099691175 -0.03414813 0.099675864
000310 49 1a 79 bd ed c1 7a 3d b8 62 82 bd 00 00 45 3b
       -0.060816083 0.0612201 -0.06366485 0.0030059814
000320 18 49 aa bc aa 27 9d 3b b3 34 c2 bc ef a3 83 bd
       -0.020786807 0.004795988 -0.02370677 -0.06427752
000330 70 d5 08 be 42 ce a7 3c 7e 73 da bd 92 24 b6 3d
       -0.1336267 0.020484094 -0.1066656 0.08893694
000340 00 58 81 bd 57 9c 95 3d 07 95 6b 3c 4d 41 69 3d
       -0.06315613 0.0730521 0.014378793 0.05694704
000350 c9 f2 ba bd e8 cf 33 3d b4 6c a3 bd 88 1e da 3d
       -0.09128339 0.043899447 -0.07979718 0.106503546
000360 12 a9 96 bd 88 10 9f bd 3e 07 f9 3c eb 83 3c 3d
       -0.07356466 -0.07766825 0.030398961 0.046024244
000370 67 10 30 bd 6a aa 0c 3c 14 24 5b bc 38 a1 a9 bc
       -0.042984392 0.008585552 -0.013375301 -0.020706758
000380 60 90 96 bc 2f a1 90 bb 91 37 3f bd 6e 78 3e 3d
       -0.01837939 -0.004413746 -0.04668385 0.04650157
000390 fe d2 8f bd 1e fa dc bc 5e 3e f2 bd fd e8 6c bd
       -0.070226654 -0.026974734 -0.11828302 -0.057839382
0003a0 68 c8 27 bd d9 87 27 3d 7c ff 58 3c 15 ec c0 3c
       -0.040962607 0.04090104 0.013244506 0.023550073
0003b0 33 d2 86 3b 54 37 ba 3c b9 15 35 bd 91 e0 04 bc
       0.004114413 0.02273146 -0.04421017 -0.008110181
0003c0 3c 73 1a 3d d9 d2 b9 bd 26 5e 5f 3d b1 a8 c2 bc
       0.037707552 -0.09073419 0.054533146 -0.023762079
0003d0 3f 7e 79 bd 29 84 03 bd d6 36 1d 3d f2 f2 da bd
       -0.060911413 -0.03210846 0.038382374 -0.106908694
0003e0 43 55 74 bd 81 89 a9 bd 9c 2a 21 3d f7 8f 0e bc
       -0.059651624 -0.0827818 0.039347276 -0.008701316
0003f0 80 78 12 3d 37 a0 7d bd 63 82 15 3d e8 3d 57 3c
       0.03575945 -0.06192037 0.0365013 0.013137318

bias f4 [128]
000000 97 c1 c5 3e fc 50 9b bc 7b 22 91 bd d1 2d 2d 3d
       0.3862426 -0.018959515 -0.07086655 0.042280022
000010 00 e8 63 bd b1 b1 47 3d 53 56 33 3d 95 9b c1 bc
       -0.055641174 0.048753444 0.043783497 -0.023633758
000020 e4 72 ac bd 7b d4 dc bb ff c1 e9 3e 5a 78 d3 bb
       -0.08420351 -0.006739197 0.4565582 -0.006453556
000030 2d c0 56 bd 7f 1c ea bd c8 c1 8d 3e 4e 34 67 3e
       -0.052429367 -0.114312164 0.27686906 0.22578546
000040 62 21 64 3b d4 75 18 3f a5 3b 52 3c 96 58 63 3e
       0.0034809937 0.5955479 0.012831603 0.22201762
000050 f8 a2 bc bd 70 0f bc bc fa 19 12 3f 13 12 93 3d
       -0.09210771 -0.02295658 0.5707089 0.07181182
000060 62 e7 21 bb 55 53 8a bd cb 78 8e bd 0f 4b ac 3e
       -0.0024704565 -0.067541756 -0.06956633 0.33651015
000070 01 cc 74 bd 4e d7 09 3e 19 94 62 3e 60 bb a1 3e
       -0.059764866 0.13461038 0.22126807 0.31588268
000080 1b 16 cb bc 25 ce eb 3e f2 e2 d9 3e 0d 11 8b bc
       -0.024790814 0.46055713 0.42555958 -0.016975904
000090 ce e2 57 bc 6a 84 f5 bb 5b ce 0a bd 74 ed 25 bd
       -0.013176633 -0.0074925916 -0.033888202 -0.040509656
0000a0 e3 c5 35 bd 3d 59 1a 3d 60 7a c8 3d 4f 29 87 bc
       -0.044378173 0.03768276 0.09788966 -0.01649919
0000b0 b3 a9 ed bd 95 16 35 3d da 90 a6 3c e5 33 39 bd
       -0.11604633 0.04421099 0.020332742 -0.045215506
0000c0 b4 44 f3 3c a1 0f b7 3e c5 c3 7f 3d ac 92 89 3d
       0.029695846 0.3575411 0.06244256 0.067174286
0000d0 e2 f6 57 3d 77 0c 57 bb ff 45 81 be 35 71 de 3d
       0.05272568 -0.0032813826 -0.25248715 0.10861436
0000e0 69 79 90 bd 94 59 07 be 9e 79 88 bd f9 ad 7e bd
       -0.07054407 -0.13217765 -0.06663822 -0.062177632
0000f0 04 3f 0b 3f 18 f5 5d 3e 3a d9 86 bd ec cd 86 3e
       0.5439303 0.21675527 -0.065844014 0.2632898
000100 5a a3 87 3d d3 51 5e bd 4a 68 48 3d 57 41 4e 3d
       0.06622954 -0.054277252 0.048927583 0.05035528
000110 19 a8 6c 3d a0 c4 ee 3e f3 2c a8 3d ee 64 ce bd
       0.057777498 0.46634388 0.082116984 -0.100778446
000120 35 9c 3f 3d 57 67 1f 3f cb 61 12 3d 56 5c f5 3e
       0.04677983 0.6226706 0.035737794 0.4792201
000130 2e 7f 00 3f 9c 38 6d 3e f1 bd 2e 3e e9 f0 a9 bd
       0.5019406 0.23166126 0.17064644 -0.08297903
000140 e2 40 bb 3d ce 8c a5 3e 02 37 b8 3e f1 0c 74 3e
       0.09143235 0.32333988 0.35979468 0.23833062
000150 3b dd ee 3e 98 82 16 bd 50 32 67 bd be 12 be 3e
       0.4665316 -0.036745638 -0.056444466 0.37123674
000160 32 e0 be bd e7 e8 ad be ef 59 17 3f ac 81 3d 3c
       -0.093201056 -0.33966753 0.591216 0.011566561
000170 b2 cf 79 3c 83 d0 c5 bd b1 49 ae bc 65 11 8c bd
       0.015247272 -0.09658911 -0.021275373 -0.06839255
000180 bf cf 9d bc 18 e8 76 bc 8d 2c 17 3d 3f b3 b1 3e
       -0.0192641 -0.015069984 0.03690772 0.34707066
000190 e8 8b ac 3e e7 e6 b6 3c 74 cd 28 3c 87 48 c9 3c
       0.3370049 0.0223269 0.01030289 0.024570717
0001a0 7b fb 4d 3e 0a bd fd bc 74 23 88 bd 63 e7 aa 3e
       0.20115463 -0.03097393 -0.06647387 0.3337966
0001b0 c5 88 fc 3e 8b 18 18 bc bd 01 d0 bd f4 fb a9 3e
       0.49323097 -0.009283195 -0.101565816 0.33200037
0001c0 13 b0 eb 3c bf fd 7f 3d 67 e7 9f bd a6 89 3c bb
       0.028770482 0.06249785 -0.07807808 -0.0028768568
0001d0 e1 c3 ed bd 3c 35 d2 3e b0 b6 17 3f e2 0b 74 bd
       -0.116096266 0.4105624 0.59263134 -0.059581645
0001e0 d6 96 2b bd f6 62 bc bd ee 07 ba bd 6c 00 fa 3e
       -0.041891895 -0.09198563 -0.09083544 0.48828447
0001f0 2f 80 64 3e 63 e5 8e bd 35 30 4d 3d c9 f6 12 3e
       0.22314523 -0.06977346 0.050094802 0.14351954

weight f4 [1, 128]
000000 83 2a f7 3e 62 79 09 bd a5 82 0b bd 3b f0 85 bd
       0.4827462 -0.033563025 -0.03406014 -0.06539961
000010 4c 35 1b 3d 38 7c 88 3e f6 e4 f0 3e 8f c4 b9 3e
       0.037892625 0.2665727 0.47049683 0.36282775
000020 26 b9 f6 ba 46 23 45 bd b1 a4 ef 3e 2a 36 61 3c
       -0.0018823489 -0.048129342 0.46805337 0.013745824
000030 2d aa d5 3c 86 68 b8 bc d2 2e d3 3e 6e d9 dc 3e
       0.026082123 -0.022510778 0.4124666 0.43134636
000040 65 b2 c2 3b d8 f8 17 3f f3 ad fe bf 39 1c ec 3e
       0.0059416764 0.5936408 -1.9896835 0.46115282
000050 ce 83 04 bc a1 5f a9 3d 56 a4 11 3f e6 41 66 bd
       -0.008088065 0.08270193 0.5689138 -0.05621519
000060 91 dd 3e 3b c9 03 11 3c f8 cc 81 3c 96 6d e3 3e
       0.0029123763 0.008851 0.015844807 0.44419545
000070 09 a8 25 bb b8 9f 19 c0 c7 bf 50 bf 9f 04 d8 3e
       -0.0025277159 -2.4003735 -0.8154263 0.42191026
000080 55 6d c6 3e 46 e3 03 3f 46 c6 f9 3e 57 e3 4e 3d
       0.3875529 0.51518667 0.48784083 0.050509777
000090 6f 12 92 3c 49 6a 12 bc fc 0d 3b bd b5 f0 4d bc
       0.017831055 -0.008936473 -0.045667633 -0.012569596
0000a0 e9 59 be bb 7d 16 ea 3e 09 e5 40 3f a7 32 b4 3c
       -0.005809058 0.45720282 0.7534948 0.02199681
0000b0 65 1d 2e 3c 2f 20 cf 3e c3 46 a2 3f 31 43 85 3d
       0.010627125 0.40454242 1.2677845 0.06506956
0000c0 9b 49 83 3d c0 4c e3 3e dc 92 88 bc 3e 17 b2 3e
       0.064105235 0.44394493 -0.01667159 0.34783357
0000d0 a5 b2 45 3d b5 ac f0 35 79 71 e2 bf 46 db a3 3e
       0.04826607 1.7931658e-06 -1.7690879 0.3200323
0000e0 6e 17 cf 3c bb ae 9a bc 14 6c 9f bf 14 12 77 bb
       0.025279727 -0.018882146 -1.2454858 -0.0037699984
0000f0 67 92 19 3f 9f 4d fa 3e 4f 4c 74 3a bd 3e 01 3f
       0.5998902 0.48887345 0.0009319232 0.50486356
000100 d6 6a f9 bc fa a7 8b bc e0 9d e5 bc 72 0e 01 3f
       -0.030446451 -0.01704787 -0.028029382 0.50412667
000110 cb c7 e7 3e 38 48 0d 3f 15 01 91 3e ea 37 42 bd
       0.45269617 0.5518832 0.28321138 -0.047416605
000120 34 c4 0a bc 84 c3 18 3f e1 74 d3 3c 5c 06 03 3f
       -0.00846963 0.59673333 0.025812568 0.5118158
000130 a8 98 ef 3e d9 ee f9 3e c2 d0 b0 be e7 54 85 bc
       0.46796155 0.4881504 -0.3453427 -0.016275836
000140 18 0c bc 3e 56 01 e0 3e 3a 15 04 3f ff 64 16 3f
       0.36727977 0.4375102 0.5159489 0.5874786
000150 71 bc 07 3f 43 05 24 3b aa e9 38 bd 0a a1 cf 3e
       0.53021914 0.002502755 -0.045144714 0.4055255
000160 63 b8 2c bd 76 f7 a4 bf 7f 00 18 3f a9 29 43 bd
       -0.042168032 -1.2888019 0.59375757 -0.047647152
000170 40 42 18 bc 8a f0 d5 3c 8c ff 89 bd 31 72 11 3d
       -0.009293139 0.026115675 -0.06738195 0.035509292
000180 f9 e5 22 bd e0 b2 ec bc 77 54 4b bc 28 c6 0c 3f
       -0.0397701 -0.028893888 -0.012410275 0.5498986
000190 6e 1a 12 3f 0b 1f c9 bc 7d b3 44 bb ee 27 cd 3e
       0.5707158 -0.024550935 -0.003001421 0.40069526
0001a0 a2 0c 15 3f 82 67 bb bc 1f 08 de bc 1a ad 13 3f
       0.582224 -0.022876505 -0.027103482 0.5768601
0001b0 1d ef 12 3f 11 ee 4f bd 8a cc ea bf 81 35 02 3f
       0.5739611 -0.050764147 -1.834367 0.5086289
0001c0 0a ec bc bc 4c 18 90 3b 57 1c b6 bc 18 c7 ec bf
       -0.023061771 0.0043974277 -0.02223031 -1.8498259
0001d0 15 cb bc ba 2d 47 03 3f ce 2b 18 3f e5 a3 13 bd
       -0.0014403785 0.5128048 0.5944184 -0.036044974
0001e0 83 33 46 bc c4 fe da 3c 90 a2 5e bd c0 a4 0a 3f
       -0.012097242 0.02673281 -0.05435425 0.5415764
0001f0 4e 0c f6 3e 19 85 a0 bc bc 56 8c 3f 50 bf d9 3e
       0.48056263 -0.019594716 1.0963969 0.42528772
