data/1008CartPole-v0_dqn_double/1008CartPole-v0_dqn_double_s0/pyt_save/model.pt (torch, 72599 bytes, 6 tensors)

weight f4 [128, 4]
000000 85 40 c1 be ba ce c8 3e 98 d0 ac 3e 2b ee 8c 3e
       -0.37744537 0.3922022 0.33752894 0.27525458
000010 db f4 13 bd 91 10 a9 be f9 52 06 bc 87 ed 53 be
       -0.036122184 -0.33020452 -0.008198493 -0.20696078
000020 9b 98 45 3e 72 51 85 3e cd f1 37 be c0 66 d2 3d
       0.19296496 0.260387 -0.17963333 0.10273504
000030 7d 6a f4 3d d4 d5 f8 bd 51 d6 d8 be d1 ff 3f bd
       0.119343735 -0.121501595 -0.4235101 -0.046874825
000040 f2 a5 1f bf 83 8a 74 bd b8 8f 5c bf e4 f4 50 be
       -0.6236259 -0.059702408 -0.861568 -0.20405918
000050 c0 7e d4 3e aa a4 a8 be 8f 10 e1 3b 23 9c 89 be
       0.41502953 -0.3293813 0.006868429 -0.26876935
000060 bf 1a c6 bd 5f ad 96 3c 60 33 6d bd 36 80 19 bd
       -0.0967307 0.018393217 -0.057910323 -0.037475787
000070 84 36 20 bd 55 68 3f 3e 61 34 4b be ad 6e dd 3d
       -0.03911449 0.18692143 -0.198442 0.10812125
000080 80 35 48 be 94 4c ae be e7 98 48 3e e9 c5 99 be
       -0.19551659 -0.340428 0.19589578 -0.30033806
000090 df f9 58 3b 8c e1 2c be 80 9e 8b be c5 8b 26 3e
       0.003310792 -0.16882914 -0.27269363 0.16264255
0000a0 ce da c9 3e 49 0b cb 3d d9 57 09 3e aa 90 78 3d
       0.39424747 0.09914262 0.13412417 0.060684837
0000b0 ee f0 2c 3d cf 78 25 bf 3e af b0 be 3c b0 c3 be
       0.042221956 -0.64637464 -0.345087 -0.38220394
0000c0 60 5d 01 be bd 5d 8b be 2f 31 28 bd d0 ee 32 3e
       -0.12633276 -0.27219954 -0.04106253 0.17473912
0000d0 36 e4 33 bd 2b d0 1b 3e f0 90 45 3d fe ef 60 be
       -0.04391881 0.15216129 0.048233926 -0.2196655
0000e0 f1 74 e2 3e d7 a8 37 bd fc 13 02 3d 7d 79 3e be
       0.44229844 -0.044838753 0.03175734 -0.18601032
0000f0 ad 68 f4 3e c5 55 a7 be 6f b8 94 be d1 3e bc bd
       0.4773611 -0.32682624 -0.29046962 -0.09191669
000100 48 f2 27 3f a0 c3 1e 3e f8 27 4b 3f c3 e9 ee 3d
       0.65604067 0.15504313 0.7935786 0.1166568
000110 5a 93 2a be 74 31 05 3d b3 da e9 bd ca 04 98 3d
       -0.16657773 0.032517865 -0.11418667 0.074227884
000120 39 79 86 3e cc 37 f7 be 75 27 7a be 02 12 ad be
       0.2626436 -0.48284757 -0.24429114 -0.338028
000130 00 39 89 be 89 ff 24 3e 4f f3 27 be ad 61 a8 3a
       -0.268013 0.16113104 -0.16401409 0.0012846492
000140 00 f2 a0 3e 63 48 7e 3d 6f 22 22 be 72 ae 6d 3e
       0.3143463 0.062080752 -0.15833448 0.23211077
000150 3f cc 56 3e 37 b4 d2 be 94 f0 46 3e 41 00 47 be
       0.20976351 -0.41153118 0.19427711 -0.1943369
000160 4c a6 2b bf d3 21 b3 be 6a de a1 bf 6a a4 87 be
       -0.67050624 -0.34986743 -1.2646 -0.26492625
000170 1c 36 d6 be 3d d4 9a 3e 8a 07 13 3f 84 dd c1 bc
       -0.41838157 0.3024005 0.5743338 -0.023665197
000180 16 72 03 bf ed 27 be 3e 58 35 f5 3e dd 33 cb 3e
       -0.51345956 0.37139836 0.4789226 0.39688006
000190 8f f0 5a bf d1 2e 10 be 54 b5 fd 3d 6d b2 61 bd
       -0.85523313 -0.14080359 0.12388101 -0.0551018
0001a0 1a cd 8b be d7 bd cd 3e 77 90 d2 be 73 25 be 3d
       -0.27304918 0.401839 -0.41125843 0.092844866
0001b0 c1 99 1d bf 3a 80 c2 3e c4 dd d7 bb 02 f5 9f 3e
       -0.61562735 0.37988454 -0.006587716 0.31241614
0001c0 e6 76 0b bf 61 2d 4a be fa fe e9 3c 6d 62 9d bd
       -0.544783 -0.19743873 0.028563965 -0.07684789
0001d0 bd 6a d7 3e 42 99 93 be 0d b4 be be 42 4a 98 bd
       0.42073622 -0.28827864 -0.37246743 -0.074360386
0001e0 e9 0c 1a 3c 9a 6f 5d be 6e c5 31 3e cd ba a0 bd
       0.009402492 -0.21624604 0.1736047 -0.078481294
0001f0 08 22 90 3e 51 fa a5 be 1a fa 84 3d d2 18 17 be
       0.28150964 -0.3241754 0.064930156 -0.14755562
000200 8a d1 82 be d4 86 95 3e 39 9a 9a be 3c e0 a5 b9
       -0.2555049 0.29204428 -0.30195788 -0.0003163832
000210 1c 98 f5 3a 5c c8 42 3e 4a f1 20 3f 2a d7 7d bc
       0.0018737349 0.19021744 0.6286818 -0.015493194
000220 cf 97 79 be b1 bb 50 3d f7 49 01 bd e0 cc 74 be
       -0.24374317 0.050960246 -0.03156468 -0.23906279
000230 63 e8 d0 be 24 59 ad 3e a8 b0 a6 3e 11 3d 99 be
       -0.40802297 0.3385707 0.32556653 -0.29929402
000240 f3 da aa be 1f d3 8a 3e b5 45 0e 3f c2 bf 92 be
       -0.3337017 0.27114198 0.55575114 -0.28661925
000250 76 07 79 3e cc fa 07 3e 8d 94 38 bf 44 3b f1 3d
       0.24319252 0.13279265 -0.7210167 0.11778882
000260 1d 6f 87 be 5e 3a a5 be b7 d6 9b bf d9 af a7 be
       -0.2645196 -0.32271093 -1.2174901 -0.3275135
000270 80 23 3e 3d 7f f7 b0 be de 06 60 bf 19 b8 bb be
       0.046420574 -0.34563825 -0.8751048 -0.36663893
000280 75 f8 3b 3f fe c1 82 be 14 e1 a1 3e cf 47 45 be
       0.7342599 -0.2553863 0.31617033 -0.19265674
000290 2a 2a ec bd 94 f3 84 be ef a0 8e bf f9 61 93 be
       -0.1153148 -0.25967085 -1.1142863 -0.28785685
0002a0 81 02 bd 3d 52 02 60 be fa ff b9 3e 36 4b 9b be
       0.09228993 -0.21875885 0.36328107 -0.3033082
0002b0 fc 67 0e 3f ef 2d 2f 3e 99 2c 87 3f 10 aa 14 3e
       0.5562742 0.17107366 1.0560485 0.14517999
0002c0 6b 7e d0 bd 4b e1 d7 bc bc 2a f4 bd 0a 3d 80 3e
       -0.10180362 -0.026352545 -0.119222134 0.2504657
0002d0 73 80 05 3e 01 a2 04 3e 49 16 d1 be 0d 08 bc 3d
       0.1303728 0.12952425 -0.40837315 0.09181223
0002e0 92 91 26 3e 20 21 2d bf 27 2b 85 bf 10 f5 f7 be
       0.16266468 -0.6762867 -1.0403794 -0.48429155
0002f0 19 ee af bd c3 a1 6f be 97 62 c8 bf 62 8e a0 be
       -0.085903354 -0.23401551 -1.5655087 -0.3135863
000300 9e 72 e4 3e ba 3b 3b be af e4 8a be 4b ad e9 bd
       0.44618696 -0.18284503 -0.27127597 -0.11410006
000310 ae 28 65 3e e7 ad 8e be d6 f7 73 be cb 44 42 3e
       0.223788 -0.27867052 -0.2382501 0.18971555
000320 3a cb e6 3e 2d b1 f5 3e a4 6b 07 3c 77 29 37 be
       0.45076925 0.47986737 0.00826541 -0.17886911
000330 2a 82 94 3d f4 1e d1 be 38 ad ec be 39 dd d1 be
       0.07251389 -0.40843928 -0.46225905 -0.40989092
000340 b2 ec 44 3f 3d 26 4b 3d 8f f4 b5 be 15 1b 01 bd
       0.7692367 0.049597014 -0.35538146 -0.031519968
000350 68 bf 29 3f 7b b7 90 3e 56 b1 31 3f 42 54 2b 3e
       0.6630769 0.28264984 0.6941122 0.1673136
000360 79 ef 41 be 6c 88 d3 3d 96 51 ed be 4c d2 29 3e
       -0.18939008 0.10328755 -0.46351308 0.16584128
000370 cf f2 61 be d9 ef 57 3e b1 5e 2c 3f c8 3d 48 3e
       -0.2206528 0.21087588 0.6733199 0.19554818
000380 d4 14 a6 be a6 d3 7b bd 3a ed 77 be 26 87 9e bd
       -0.32437766 -0.06148114 -0.24211589 -0.07740621
000390 13 81 9d be a8 7a 57 be 81 5f 3f 3f 91 fd e8 3e
       -0.30762538 -0.21042883 0.747551 0.45505956
0003a0 36 c5 9a be dc cb 36 be 46 30 58 bf 6a 81 3b be
       -0.30228585 -0.17851204 -0.8444866 -0.18311086
0003b0 53 06 b2 3d 7d c1 b9 be 31 84 07 3f 7b da 1c be
       0.086926125 -0.36280432 0.52936083 -0.15317719
0003c0 9e c2 a3 3d fe a8 e3 3e e2 4f 16 3f b5 1e 89 3e
       0.07996105 0.44464868 0.5871564 0.2678124
0003d0 80 2f 7a be 1c aa ba bd d0 15 84 3e 29 fd d8 3c
       -0.24432182 -0.09114477 0.25797892 0.026487904
0003e0 ce 85 56 3e db 1b 04 3e 4c 22 77 3d 76 21 79 3e
       0.2094948 0.12901251 0.060335442 0.2432917
0003f0 7a c4 5c be 7f 0c c2 be 4f 2f 7c 3e 78 dc e8 bd
       -0.21559325 -0.3790016 0.24627422 -0.11370176

bias f4 [128]
000000 3a ce fa 3e 7c 4f 95 3e 9b 7f 05 3f 0d d6 a9 be
       0.48985463 0.29162204 0.52147835 -0.3317112
000010 fa 18 21 bf 3c 44 fd 3e 3c 38 c1 3e 7a 7a be 3e
       -0.62928736 0.4946612 0.37738216 0.37202817
000020 0f b1 c2 3d 62 f5 21 bf 59 5d 2a 3f 5a 5b a4 bc
       0.095064275 -0.6326505 0.6654869 -0.020063091
000030 9d 84 1a 3f 27 2e cc 3e e6 82 29 3f c7 ae 1e bf
       0.603586 0.3987896 0.6621536 -0.6198544
000040 34 06 48 be 01 e8 03 3f 5c 75 20 3f 97 26 0c 3f
       -0.19533616 0.51525885 0.62679076 0.54746383
000050 4e bd 39 3f 33 1e 08 3f ee f5 7c be 48 43 2c 3f
       0.7255448 0.5317108 -0.2470319 0.67290163
000060 82 ca 59 bf 22 01 eb bd 03 1f 36 3f f6 bc 53 3e
       -0.8507463 -0.114748254 0.7114107 0.20677552
000070 f9 bf 0a 3f 6d 82 40 3f bb 21 f5 be 5b cc f0 be
       0.5419918 0.75199014 -0.47877297 -0.4703091
000080 26 d0 32 3f 8a 4f 60 3e 71 2d 37 3f bb 66 1d bf
       0.6984886 0.21905342 0.71553713 -0.6148488
000090 1e 96 42 bf 40 d6 0b bf 22 f9 c1 be e0 0a fb be
       -0.7601031 -0.54623795 -0.37885386 -0.49031734
0000a0 56 54 b5 be 57 8e 09 bf fb c3 13 3f a9 85 b2 be
       -0.35415906 -0.5373282 0.5772092 -0.348676
0000b0 a3 f5 2d 3f 56 d6 0c 3f 9c 42 b3 3b 77 7a b4 be
       0.67952937 0.5501455 0.005470587 -0.35249683
0000c0 96 a3 1f 3f 60 4d dc 3e 9b cb 0e bf d3 f1 e7 be
       0.6235899 0.43027782 -0.5577943 -0.45301685
0000d0 77 4b 45 bd 67 ec 3a be 26 b8 dd 3e 81 68 e3 be
       -0.048167672 -0.18254243 0.43304557 -0.44415668
0000e0 c4 2a a0 3e 68 32 34 bf c4 da d8 be a5 d9 20 3f
       0.31282628 -0.70389414 -0.42354405 0.628321
0000f0 4a 5b fb be a2 8d 65 3d 9e b9 36 3f 4c ac 10 bf
       -0.49093086 0.056043275 0.7137698 -0.56512904
000100 27 6a 6f 3d 8b 8f ed be e6 a8 13 3f ac 02 e0 3e
       0.058450844 -0.46398577 0.57679594 0.43752038
000110 93 76 0a bf a7 4b a2 be eb 17 19 bf dd 7f b9 be
       -0.5408718 -0.31698343 -0.5980212 -0.36230364
000120 59 58 1e be 35 63 a4 be 01 d4 07 3f 0b aa 87 be
       -0.1546339 -0.3210694 0.5305787 -0.2649692
000130 e3 d6 ce be 3a 18 c6 3e 99 62 f4 be 1f e0 11 bf
       -0.4039832 0.38690358 -0.47731474 -0.56982607
000140 31 c0 0a bf c3 a0 04 3f 1d d5 1d bf 3f 15 33 3f
       -0.5419951 0.518078 -0.6165331 0.69954294
000150 85 da e7 be 4a dd 94 be a9 9f cc 3e 88 33 f7 3e
       -0.45283905 -0.2907508 0.3996556 0.48281503
000160 4c 95 e5 bd e5 02 01 bf ad e1 19 3f 29 04 f6 3e
       -0.11210117 -0.5039504 0.6010998 0.4805005
000170 d9 15 0a 3f 67 f2 ce 3e e0 56 ae be 75 be 0c 3f
       0.53939587 0.40419313 -0.34050655 0.54978114
000180 ec 31 85 3e 85 f3 84 be c9 fc de be 40 a0 0f 3e
       0.2601465 -0.2596704 -0.43552235 0.14025974
000190 81 28 04 3f 95 dc a1 be f9 6e 07 3f b2 f8 12 bf
       0.51624304 -0.31613603 0.52903706 -0.5741073
0001a0 c4 52 96 be 80 78 e6 be 45 69 ed be 95 ee 3b 3f
       -0.2936002 -0.4501381 -0.46369377 0.7341092
0001b0 16 9e f9 3e f1 d0 cb be 95 5a 1d 3f e0 a8 ee 3e
       0.48753422 -0.39807847 0.6146634 0.46613216
0001c0 48 6e 0d bf c1 1f 21 bf d5 15 43 3f 3a 1d 1e 3f
       -0.552464 -0.6293908 0.7620519 0.61763346
0001d0 7c 5e 03 3f ee 0d 56 be 6a 3a 73 be cf 71 e9 be
       0.51316047 -0.20903751 -0.23752752 -0.45594642
0001e0 3e 2c 03 bf 75 d1 de 3e 9f ec 70 be dc f0 35 3f
       -0.51239383 0.43519178 -0.23527764 0.7107065
0001f0 01 f6 a2 3e 6f e5 b0 3e 93 a7 ae 3e 44 71 32 bf
       0.3182831 0.34550044 0.34112224 -0.6970408

weight f4 [128, 128]
000000 45 e1 0c 3e 1a 5c 8e 3e 6b a1 87 3e c8 82 87 3c
       0.13757809 0.27804643 0.2649034 0.016541854
000010 d1 66 c2 bc 93 a7 ac 3e 2e 82 35 3e 56 17 6f 3e
       -0.023730667 0.337216 0.17725441 0.23348746
000020 72 9f c7 bc 37 37 05 be 4f b3 3a 3e df 07 87 3d
       -0.024368022 -0.13009344 0.18232463 0.06593298
000030 96 4d 91 3e 8d 0f b2 3d 8a c1 6e 3e 37 27 f2 be
       0.28379506 0.08694372 0.23316017 -0.47295544
000040 68 e0 08 bf ee 8a b5 3e 07 e9 c9 3e 09 6c 98 3e
       -0.53467417 0.35457557 0.39435598 0.29769924
000050 84 7e 96 3e e3 ff 68 3e 4e eb ce 3e 21 df 78 3e
       0.293934 0.22753863 0.40413898 0.24303867
000060 c5 a3 ee be d7 f6 3b bd 5b 0f 8f 3e b0 59 93 3d
       -0.4660932 -0.0458897 0.27941403 0.07194841
000070 ab 17 a5 3e ef 2f 94 3e e3 97 94 3d a2 26 6a bd
       0.3224462 0.2894282 0.072555326 -0.05716575
000080 26 aa 61 3e f8 a4 fa bb 7b 1a 43 3e 0e 66 c1 bd
       0.22037563 -0.0076490603 0.1905307 -0.094432935
000090 58 3d 14 be f5 ee 3a bf cf 2b e5 bd 9d 1c 61 bf
       -0.14476526 -0.7302087 -0.111899965 -0.87934285
0000a0 ee 36 09 bf 9b f6 e3 be d1 9b 5f 3e c6 4f 24 bf
       -0.5359944 -0.44524083 0.21836783 -0.64184225
0000b0 69 aa 71 3e ff a6 9a 3e 10 28 1e bd 2a 37 db be
       0.23600163 0.30205533 -0.038612425 -0.42815524
0000c0 7e eb ad 3e cc ad 59 3e ca be 68 be 4b 1b d5 be
       0.3396873 0.21257704 -0.2272903 -0.41622385
0000d0 aa f8 46 3c 80 3b 8d be 0d be 57 3e d4 16 34 bf
       0.012144247 -0.27584457 0.21068592 -0.7034733
0000e0 24 e8 bf 3d 82 99 a6 be fb 22 10 3b 33 47 83 3e
       0.09370449 -0.32538992 0.0021993506 0.25640258
0000f0 2b c0 c1 be 89 80 14 3d 5f 5c 82 3e cd 72 eb bd
       -0.37841925 0.036255393 0.254611 -0.11496506
000100 e3 70 1a bc 31 ef 6a bd b2 4f a1 3e e8 f4 84 3e
       -0.009426328 -0.057357017 0.31506115 0.259681
000110 2e c1 2c bf 11 b8 a0 be 16 05 82 bf 74 c0 20 bf
       -0.6748227 -0.31390432 -1.0157802 -0.6279366
000120 f4 37 fc bd 10 4f 2c 3e 51 4e 45 3e 21 55 46 be
       -0.1231536 0.16827035 0.19268157 -0.19368412
000130 6e e0 fc 3c 69 1e 3a 3e 01 d9 bc bb 38 ef d0 be
       0.030868735 0.18175663 -0.0057631736 -0.4080751
000140 75 24 45 bd 6a 61 37 3e 4c 32 a3 be b1 84 9e 3e
       -0.04813047 0.17908254 -0.3187431 0.3096061
000150 0a d0 59 be de 45 67 bf b6 32 b4 3d 10 ba f3 3d
       -0.21270767 -0.90340984 0.08798735 0.11900723
000160 64 fb 72 bd 1f 8d ca 3d 8d 9c 53 3e c8 ac 8a 3e
       -0.059321776 0.09890198 0.20665188 0.27084947
000170 88 a5 20 3e c6 d7 ba 3e 54 9c 43 3e c2 23 d3 3d
       0.15688145 0.36492747 0.19102603 0.10309555
000180 1c a4 16 3e b6 bd 84 bf 42 60 f1 be 6a 6d 08 3e
       0.1471104 -1.0370395 -0.4714375 0.13322988
000190 00 33 0e 3e ca 91 5e be 1e 92 91 3e b4 f4 20 bf
       0.13886642 -0.21735302 0.2843179 -0.6287339
0001a0 4c cb df be 8b b2 58 be 54 02 d0 be e6 bf 50 3e
       -0.4370979 -0.21161859 -0.40626776 0.20385703
0001b0 e9 14 93 3e 4b 8b 95 bf 66 7d 5e 3e 3e bf 7e 3d
       0.2872689 -1.1683134 0.21727523 0.0621941
0001c0 0b 56 7c bf 16 c2 5a be 51 6e a4 3e bf e8 88 3e
       -0.9856879 -0.213631 0.32115415 0.2674007
0001d0 43 6b a1 3e 0a 7a ce bd 16 dd 9f be d1 02 0a bf
       0.31527147 -0.10081871 -0.31223363 -0.5391055
0001e0 d1 f1 a5 be 74 a1 71 3e e3 06 32 be 59 46 68 3e
       -0.32411054 0.23596746 -0.1738544 0.22683086
0001f0 d2 96 53 3e 34 c6 44 3e 9a 00 28 3e e5 2f 13 bf
       0.20663002 0.19216233 0.1640648 -0.57494956
000200 fd d6 5a 3e e4 e7 51 3e 9b c6 35 3e 29 b8 17 bd
       0.21371074 0.20498616 0.17751543 -0.037040863
000210 6e 6d 25 bd d4 fd 3b 3e 7d fa 32 3e e5 84 8f 3e
       -0.040387563 0.18358546 0.17478366 0.28031078
000220 fd 6c bb 3d 9c 83 e2 bd cf 61 25 3e df d3 44 bc
       0.09151647 -0.11060259 0.16150592 -0.012013405
000230 18 7d 4a 3e 46 50 3f 3e 56 76 6a 3e b2 a3 f2 be
       0.19774282 0.18682966 0.22896704 -0.47390515
000240 99 8d cf be 37 6b b4 3e 91 81 a2 3e 08 e4 5d 3e
       -0.40537718 0.35238048 0.31739476 0.21669018
000250 5b eb 95 3e fe 1f b2 3e 14 ed be 3e 65 63 78 3e
       0.29281124 0.34790033 0.3729025 0.24256666
000260 6a e3 38 bf d7 01 d0 bd 57 b3 81 3e 83 2e 50 3d
       -0.72222006 -0.10156601 0.25332138 0.050825607
000270 1b 40 4c 3e b3 d0 4d 3e d5 65 a2 3c 71 e5 01 3d
       0.1994633 0.20099144 0.019823948 0.031712953
000280 7e 76 ac 3e 1a ab fd 3d c8 94 85 3e 29 62 9d bc
       0.33684152 0.12386151 0.26090074 -0.019211845
000290 0e 05 0b be 8a da 2f bf 54 5c 10 be b5 ee 3f bf
       -0.13576147 -0.6869284 -0.1409772 -0.74973613
0002a0 9e f6 03 bf e6 12 d4 be ef 3e 83 3e 08 4e 21 bf
       -0.5154818 -0.41420668 0.25633952 -0.6300969
0002b0 d6 21 53 3e 3e 20 48 3e 12 8a 98 bc bd 9b db be
       0.20618376 0.1954355 -0.018620525 -0.42892256
0002c0 97 95 89 3e b0 63 0f 3e 2c d2 97 bd 22 db bc be
       0.2687194 0.14002872 -0.07413134 -0.36885935
0002d0 97 c8 16 3e f5 a7 cb be f2 a1 86 3e af 4f 39 bf
       0.14724956 -0.3977658 0.2629543 -0.7238721
0002e0 26 e3 1f 3e f1 a5 9d be be 0b 44 bd ea 03 87 3e
       0.15613994 -0.30790666 -0.04786276 0.26370174
0002f0 8f da cd be 20 4b 85 3d e4 10 94 3e e4 91 59 be
       -0.4020581 0.065084696 0.28919137 -0.21247059
000300 2c 74 ce 3c 29 25 a4 bd c3 c8 a9 3e 38 54 43 3e
       0.02520188 -0.080149 0.33160982 0.19075096
000310 a0 f8 3f bf a6 ff 5c be 5f 04 86 bf fe e8 10 bf
       -0.74988747 -0.21581897 -1.0470084 -0.5660552
000320 11 b8 03 bc a3 44 2f 3e b0 6f 0f 3e 86 4c ad be
       -0.00803949 0.17116027 0.14007449 -0.33847445
000330 8a 4e fd bd b2 e7 53 3e 95 77 9b 3c 60 ef 9b be
       -0.12368496 0.20693853 0.01897792 -0.30456066
000340 35 e7 e8 bd e5 b9 a5 3e 59 e2 5b be a3 4f a4 3e
       -0.11372224 0.3236839 -0.21473064 0.32092008
000350 cc 68 53 be cc 18 72 bf a8 17 93 3d 69 e3 2b 3e
       -0.20645446 -0.9456909 0.071822464 0.16785969
000360 df f9 ab 3d 73 ab 2f 3d da 6a 3c 3e 76 e6 20 3e
       0.083972685 0.042888116 0.18400136 0.15712914
000370 56 4f 57 3e b2 f9 a7 3e ef 73 af 3d 94 61 4b 3e
       0.21026358 0.3280769 0.085670345 0.19861442
000380 63 e1 0f 3d 9b 6c 8b bf 7d 8f 23 bf 6d 0f ce 3d
       0.035127055 -1.0892519 -0.6389082 0.10061536
000390 9b 3d 0c 3e 82 e4 84 be 39 b8 80 3e 63 3c 06 bf
       0.13695376 -0.25955588 0.2514055 -0.5243589
0003a0 66 9d d4 be 32 50 c0 be 4f d8 b4 be e3 bc 5a 3e
       -0.41526335 -0.37561184 -0.3532128 0.21361117
0003b0 e5 cb 3f 3e 8b 20 92 bf eb 7a 51 3e ce 33 02 3e
       0.18730123 -1.1416181 0.20457046 0.12715074
0003c0 3c 1d 79 bf 2d 23 9a be 00 94 48 3e 9e 33 8a 3e
       -0.97310233 -0.30104962 0.19587708 0.26992506
0003d0 ea ec ba 3e f1 9a 3e be fd 06 a6 be 90 7e 14 bf
       0.36508876 -0.18613793 -0.32427207 -0.5800562
0003e0 10 e4 9d be 10 66 75 3e 75 8e 25 bd 50 d3 79 3e
       -0.3083806 0.23964715 -0.04041906 0.24397016
0003f0 ef 20 7c 3e 31 b9 48 3e b2 a0 1f 3e 1b 18 22 bf
       0.24621938 0.19601895 0.15588644 -0.6331803

bias f4 [128]
000000 63 a7 97 3e da cf 6f 3e 03 be 70 3d 20 53 88 3e
       0.29619893 0.23419133 0.05877496 0.2662592
000010 7e 6b 7d 3e 7c 7b c8 bc 59 e1 bc 3e de 16 5d 3e
       0.24748036 -0.024472944 0.36890677 0.21590754
000020 40 59 6e 3b a3 c9 11 bd d0 5e 97 3e 3f b6 a1 bd
       0.0036369115 -0.035592686 0.29564524 -0.07896089
000030 f7 61 e6 3c cd 4a 08 3d 4d e3 a4 3d 84 e8 ae 3e
       0.028122885 0.03327446 0.08051167 0.3416177
000040 64 66 73 bd dd 02 84 3d f1 20 64 3e c8 8c fa 3c
       -0.05942382 0.06445859 0.22278191 0.030584708
000050 78 4a b4 3e 99 80 1d 3d 9d b3 ba bd 9b b1 4e bd
       0.35213065 0.03845272 -0.0911629 -0.050462347
000060 3a 44 96 3d af 7e b5 3e 2c 57 9e 3d 0c 56 46 3d
       0.07337232 0.35448214 0.077314705 0.048421904
000070 2e 76 11 bd cd 37 8e 3e 76 47 b2 bd ae 8f 4d bd
       -0.035513096 0.27776948 -0.08705036 -0.05018585
000080 d7 74 ae bc 12 e8 35 3d d4 4d 9f 3e 9c a8 d0 3c
       -0.021295948 0.044410773 0.31114066 0.025471024
000090 30 bb d2 bd 55 57 7c 3d b4 4f 9d 3e f6 7f 8b 3e
       -0.102896094 0.061606724 0.3072487 0.27246064
0000a0 62 43 c0 bc e2 11 0a 3d eb 42 fd 3c 31 4b e0 bd
       -0.02346963 0.03370846 0.030915698 -0.109518416
0000b0 c5 1c a5 3e 04 15 b3 3e 07 b3 26 3d 84 57 f0 bb
       0.32248512 0.3497697 0.040698078 -0.0073346514
0000c0 9e b9 4c 3d 34 c1 fb bc e4 20 c1 3e 6a 53 18 bd
       0.049981706 -0.030731775 0.37720406 -0.037188925
0000d0 f6 57 97 3e 2b fe 43 bc 62 61 9d 3e c8 70 a2 3e
       0.29559296 -0.011962454 0.3073836 0.3172667
0000e0 85 28 c4 3e 5b ad 63 bd 56 3d bb bd 27 dc 9e 3b
       0.38312164 -0.055585247 -0.09142558 0.0048480215
0000f0 e6 61 e3 bb 3b 9c 85 3d ed 84 b1 3c 3d 3d 4a bd
       -0.0069391606 0.06523939 0.02166983 -0.049374808
000100 bd ee 8a 3e 6e 63 64 3c a8 c0 c1 3e 88 8c 2a bd
       0.27135268 0.0139397215 0.37842298 -0.041637927
000110 cc f8 88 3e bd 9e c6 3c 97 fb a1 bd a7 90 a4 3e
       0.26752317 0.024245614 -0.07909315 0.3214161
000120 da 1b a2 3e d1 f5 c6 3e a7 4f 88 bd 35 be 95 bd
       0.31661874 0.38859418 -0.066558175 -0.0731167
000130 3b 07 97 3e 24 13 8f bd f9 eb b1 bd 37 43 88 3e
       0.29497704 -0.06986073 -0.08687586 0.2661378
000140 d3 7c db bd 57 37 b2 3d 99 fc 37 3d 46 3f 0f bd
       -0.10717168 0.087019615 0.04491863 -0.03497245
000150 2f a8 7d 3e 0a 99 b3 3e a4 b9 85 3d 69 30 05 bd
       0.24771188 0.35077697 0.06529549 -0.03251687
000160 76 bb dc bd 41 f2 82 bc 26 32 c5 3e cb 01 17 3d
       -0.10777943 -0.015984656 0.38514823 0.036866944
000170 b1 e8 b8 3e 3a 15 5c 3d b7 e7 1e 3d f4 29 83 3d
       0.3611503 0.05373118 0.0387952 0.06404486
000180 f8 8c a0 3e 6c d2 bd bd be e9 5d bd 3a 40 69 bd
       0.3135755 -0.092686504 -0.054177992 -0.056946017
000190 bb ae 8e 3e 1b 7d 9f bd 92 fd 09 bd 7d 26 ff 3c
       0.27867684 -0.07787534 -0.03368909 0.031146282
0001a0 e1 77 af bd a7 17 b5 bd fb 46 c0 3e 93 af 0a 3c
       -0.08567787 -0.08842402 0.37554154 0.008464712
0001b0 96 9b a7 3a 8d 6d 9b bd 6e 14 b1 3e 58 21 4f 3e
       0.0012787457 -0.075892545 0.345859 0.20227563
0001c0 01 e8 8f 3d 5f a4 7c 3e d5 71 b4 bd 30 df 9c 3e
       0.07026673 0.24672078 -0.08810774 0.3063903
0001d0 be 5b 87 3e 31 d1 58 3d d3 5f 8a 3e 1d 6c d2 3d
       0.2643718 0.052933875 0.27026233 0.10274527
0001e0 bb 7e 6d 3e d0 1a 04 bd 22 3d fb 3c d3 a6 92 3e
       0.23192875 -0.032252133 0.030668799 0.28642902
0001f0 e4 16 50 3b cc a9 b8 bd 65 87 b7 3e 21 38 9f 3e
       0.0031751925 -0.09016761 0.35845485 0.3109751

weight f4 [2, 128]
000000 df f3 b3 3e 9c a2 a5 3e 09 22 8a bd 1b e6 9e 3e
       0.35146996 0.32350624 -0.06744773 0.31034932
000010 75 e3 8c 3e 42 27 33 3d 5c 2f ac 3e ac 2b a5 3e
       0.27517286 0.04373861 0.33629882 0.32259881
000020 58 a0 18 bc da e2 09 3d 91 c1 a7 3e 8d 7e a0 3b
       -0.009315573 0.033663608 0.32764867 0.0048978985
000030 30 65 9e bd 2f c8 af bc f3 40 1b bd 6b e8 92 3e
       -0.07734144 -0.02145776 -0.037903737 0.28692946
000040 ba 81 d4 bc 96 73 ef bc 4b 8a 30 3e cd 17 27 bd
       -0.025940765 -0.02922992 0.17240255 -0.040794183
000050 ff 91 ae 3e 25 a5 73 bd 74 6e de 3c a5 0a 9c 3d
       0.3409576 -0.059483666 0.027152278 0.07619218
000060 79 37 78 bd de 5b 93 3e fa fd 8e 3d 7d d6 95 3b
       -0.060599778 0.28781027 0.06982036 0.004572688
000070 a4 f8 e2 bb 49 6a a9 3e 15 2e 03 bd 8d a0 9f bd
       -0.006926613 0.33088902 -0.03202637 -0.077942945
000080 5f 13 ea 3c e0 9d 23 3d fe ef b5 3e 95 83 a0 3d
       0.02857369 0.039945483 0.35534662 0.07837597
000090 70 fc b0 bc 0c f1 9f 3b af 32 76 3e 63 3e 9b 3e
       -0.021604747 0.00488103 0.24042772 0.30321035
0000a0 f2 7d 51 bd 02 9f c6 bc 1a f4 b0 3c 84 e3 3e bd
       -0.0511455 -0.024245743 0.021600772 -0.046603695
0000b0 93 b0 a3 3e 48 5d af 3e ee b0 9d 3c 95 20 bb bc
       0.31970653 0.34250855 0.019249406 -0.022842685
0000c0 42 51 85 bc f6 3b 84 ba 37 fa 90 3e 8b 00 54 bd
       -0.016274098 -0.001008867 0.283159 -0.05175833
0000d0 80 a7 25 3e 1a 24 8e bd e4 a4 82 3e 44 76 5a 3e
       0.16177177 -0.069404796 0.25516427 0.21334177
0000e0 55 5d bb 3e 05 30 00 bd 7c b6 28 bb a5 fe 77 bd
       0.36594644 -0.031295795 -0.0025743535 -0.060545582
0000f0 83 b2 17 bd 82 eb 99 bd 67 da 7f bd af dc a4 bd
       -0.037035476 -0.07515623 -0.062464144 -0.080499046
000100 f5 7a a1 3e 27 06 87 bd 80 74 a5 3e 83 6d 8b bd
       0.3153912 -0.0659297 0.32315445 -0.06807997
000110 fe 06 52 3e f8 84 1f bd 0e 4a 76 3d 05 be 99 3e
       0.2051048 -0.03894517 0.060129218 0.30027786
000120 9f 86 b5 3e ee 5c b9 3e 6a a7 5f 3d 23 1a 98 3c
       0.3545427 0.36203712 0.054603018 0.01856715
000130 67 4a 94 3e e5 2e 9f bd fa c0 c5 3c e4 56 b4 3e
       0.28963014 -0.07772616 0.02413987 0.35222542
000140 1e ba 36 3b dc b2 b8 3c 7e 91 12 bd ac 60 8a bd
       0.002788193 0.022546224 -0.035783283 -0.0675672
000150 75 9e a7 3e bc cf a5 3e 9c 06 f1 3c bb b8 e3 bb
       0.3273808 0.3238505 0.029422097 -0.006949512
000160 06 ef e1 be 5f 90 22 3c 78 1a bf 3e c3 db 37 bd
       -0.44127673 0.009922116 0.37324882 -0.044887315
000170 b5 cc 9d 3e 24 3b 14 bd 02 c0 1b 3c 77 8c 78 bd
       0.30820242 -0.036189213 0.009506227 -0.060680833
000180 88 3d a6 3e e4 40 05 3d 45 03 a4 bd 34 33 85 bd
       0.3246882 0.032532588 -0.08008436 -0.06503907
000190 b3 45 51 3e fd 59 8c bb bd 57 57 bd f7 58 7a bd
       0.20436744 -0.0042831884 -0.052573908 -0.06112
0001a0 58 1a 26 bc 2d 3c 60 bd e7 ba 79 3e 54 9d f2 bc
       -0.010138117 -0.054744888 0.24387704 -0.029616036
0001b0 ac de 3a bd 7c 29 aa bc 20 6f 8b 3e 61 67 a7 3e
       -0.045622513 -0.020771734 0.2723322 0.3269606
0001c0 13 a1 76 3c 27 80 81 3e dd 1f a8 3b 3f 92 88 3e
       0.0150530515 0.25293085 0.0051307515 0.26674077
0001d0 e1 d8 8e 3e d6 33 4c 3d 6f 5d 3c 3e fd 0f 06 bc
       0.2789984 0.049854122 0.18395017 -0.008182523
0001e0 55 f6 6f 3e 92 b0 47 bd bb bc a2 bd 31 59 b9 3e
       0.23433812 -0.048752375 -0.07946154 0.3620086
0001f0 4b 85 24 3d 2c cd a8 3b 23 b0 90 3e 5d 83 94 3e
       0.04016618 0.0051514115 0.28259382 0.29006472
000200 a3 94 a0 3e 79 76 8f 3e 21 25 69 3d bd 75 41 3e
       0.313634 0.28020075 0.056920175 0.1889257
000210 31 0b a4 3e 7a b5 c9 3c 34 3e af 3e ba b4 57 3e
       0.32039788 0.024622668 0.34227145 0.21065035
000220 af 56 b2 3d f3 90 ac 3d f1 19 ac 3e e3 d4 42 bd
       0.0870794 0.08426084 0.33613542 -0.047566306
000230 e6 29 20 bd 39 d2 30 bd 6e 6e d4 3c 82 ac 8b 3e
       -0.039102457 -0.043169234 0.025931563 0.2728005
000240 a0 cc 5c 3c 83 c8 61 bc 5a 68 bf 3e 34 8f 7a 3d
       0.013476521 -0.013780716 0.373843 0.061171725
000250 b4 5d a0 3e 80 9c cc 3c 9f 38 88 3c 10 32 fa 3b
       0.3132149 0.024976969 0.016628562 0.0076353624
000260 c9 9a 89 3d f0 9f b1 3e 71 79 91 bd 62 11 85 bd
       0.06718976 0.34692335 -0.07103241 -0.06497456
000270 1c d5 55 bd 7d 73 be 3e 80 19 33 3a b7 a4 7c bd
       -0.05220519 0.37197486 0.0006832108 -0.06168052
000280 2d e7 48 bd 5d e1 2c bc 13 a9 5d 3e 44 ab 89 bd
       -0.04904859 -0.010551778 0.21646528 -0.067221195
000290 26 17 7f 38 ff 93 e0 3b 5e c0 b5 3e 7f 2b 71 3e
       6.0818296e-05 0.00685358 0.35498327 0.23551749
0002a0 d5 30 7e 3c c5 0b 2b bd 33 62 c0 bc ba ec 4c 3c
       0.015514572 -0.04175927 -0.023484325 0.012507612
0002b0 ca 9a 83 3e 3b 74 9e 3e d9 ec 59 bd b3 a2 6d 3c
       0.25704032 0.30948052 -0.05320439 0.014504123
0002c0 48 9d 02 3d 10 f8 c8 bc 0f f9 a7 3e 80 bc 7f 3b
       0.031888276 -0.024532348 0.32807204 0.0039022267
0002d0 a7 61 ae 3e 5d 55 9f bc d8 07 ac 3e ae 3d 9d 3e
       0.34058878 -0.019449884 0.33599734 0.3071112
0002e0 c1 85 99 3e ea f1 22 bb 4a 28 8f bd cf ec 47 3c
       0.2998486 -0.002486343 -0.069901064 0.012202456
0002f0 f2 43 11 3c 0b d2 80 3d 2e 38 02 3c 82 e2 cf bc
       0.008866297 0.062900625 0.007947965 -0.025376562
000300 3b f6 95 3e 21 17 d4 bc 2c ef 73 3e 87 1f 15 3d
       0.2928942 -0.025889935 0.23821706 0.03640702
000310 bf 74 bb 3e c2 03 99 3b 22 37 31 3d 7d 33 8c 3e
       0.36612508 0.0046696374 0.04326547 0.27383032
000320 b7 b3 70 3e 72 3a 84 3e 90 f6 e8 3c 2d 53 a1 bc
       0.23506056 0.2582584 0.028437883 -0.019692982
000330 d2 cd 88 3e 02 83 ae bc b1 59 8b bd 10 2b 8e 3e
       0.26719528 -0.021302704 -0.06804217 0.2776723
000340 6f 9f 86 bc 2e 3e 20 bd d4 50 76 bd 3f 4a 59 3d
       -0.016433446 -0.0391218 -0.060135677 0.053049322
000350 d8 38 f6 3d e5 19 79 3e e8 5b e0 bc 8f ab 98 bd
       0.12022561 0.24326284 -0.027387574 -0.07454597
000360 92 e0 24 bf 9f e4 30 bd 9c 9f 96 3e 88 20 27 bd
       -0.6440517 -0.04318678 0.29418647 -0.04080251
000370 7f 57 91 3e c4 a5 c3 3c f7 c6 3c bc 86 83 a1 3e
       0.28387067 0.023882754 -0.011522046 0.31545657
000380 54 90 96 3e b5 eb 94 bd 62 65 3a 3d 46 a2 af bd
       0.2940699 -0.0727152 0.045506842 -0.08575873
000390 86 7f b3 3e f7 f3 41 bd 20 5f 8f 3d f2 d1 0c bd
       0.3505823 -0.047351804 0.070005655 -0.034379907
0003a0 58 68 5c 3c 37 44 10 bd f7 0b b3 3e 49 a8 96 bd
       0.013452612 -0.035221305 0.34970066 -0.073563166
0003b0 14 85 ea 3c 3d af b0 3d 08 2f 98 3e e4 be 62 3e
       0.02862791 0.08627174 0.29723382 0.22143131
0003c0 f4 6e 3a bd 3d eb 99 3e 48 7a 4e bc fa 7c a9 3e
       -0.04551597 0.30062285 -0.012602396 0.33103162
0003d0 4d e6 a0 3e d8 a5 26 bd 5a 06 b3 3e 1f 59 5c 3e
       0.31425706 -0.040685505 0.34965783 0.21518372
0003e0 fc 20 a7 3e 00 dd 53 bd 3a 72 8b bd 46 22 42 3e
       0.32642353 -0.051724434 -0.06808896 0.18958387
0003f0 44 33 41 bd 56 48 18 bc 96 1a a1 3e 61 79 8c 3e
       -0.04716803 -0.00929459 0.31465596 0.27436355

bias f4 [2]
000000 f1 62 ad 3e 2a 03 8e 3e
       0.3386455 0.2773679
