data/1008CartPole-v0_ppo/1008CartPole-v0_ppo_s10/pyt_save/model.pt (torch, 42881 bytes, 11 tensors)

weight f4 [64, 4]
-0.150219 -0.0044249245 0.6189327 0.4815652 0.33408502 0.22238226 -0.5952276 -0.05143409
-0.64117646 -0.80669874 -0.44310158 -0.34547454 0.02904491 0.25776497 0.31140217 0.21557152
-0.3638888 0.46348783 -0.056227364 0.59020483 -0.079975024 0.057742517 0.7225135 0.27361104
0.43776208 0.24691285 -0.39302194 0.042728312 0.1247731 -0.546726 -0.60639566 -0.3201138
-0.45535496 0.48354816 0.3767433 0.56320816 0.3819521 -0.20979851 0.006045805 0.37807173
0.17597249 -0.3013075 0.564395 0.27142933 0.5871831 0.4769601 0.664244 0.5621297
-0.077078335 0.5228773 -0.3321895 -0.0086509185 0.0580048 -0.21006036 -0.12136616 -0.479022
-0.3546743 0.5314604 0.53348005 0.31607887 -0.48898524 -0.29925808 -0.24454758 -0.5707397
0.3699222 0.11604803 0.70854306 0.30018893 -0.28916457 0.16428787 0.7842386 0.0054728608
0.19999585 -0.06904588 0.025769614 -0.44279745 0.5574642 0.0060771154 -0.27441412 0.3196641
0.026791202 -0.20705204 0.16502804 0.36314487 0.5676306 -0.24398169 -0.25339898 -0.53777957
0.46172816 0.35275513 0.12522736 0.08981378 -0.34342763 -0.25429693 0.7583772 0.26124105
0.48727453 0.65731466 0.98414207 0.34393921 -0.0780097 0.098562784 -0.86642075 -0.25680074
0.31112543 -0.1984346 0.29596215 -0.25015438 0.34580463 -0.10562273 0.5638657 0.54828525
-0.37006643 -0.081681274 -0.22671685 -0.53396505 0.43235275 -0.29114047 -0.34904248 0.23336107
0.45908383 -0.12851967 -0.2345214 0.008229525 0.43955195 -0.18406807 -0.7883019 0.13622397
0.2935111 0.16036351 -0.14636138 -0.33681843 -0.11457259 0.43866715 -0.46715844 -0.12419756
0.14921592 0.27579743 0.27057034 0.522573 0.25115544 -0.23495305 -0.381112 0.18638724
0.16995715 0.53692794 0.85773 0.03254579 -0.039530028 -0.43222728 -0.25271118 -0.6111594
-0.3387232 -0.18006924 0.009219525 0.54002976 -0.16119397 0.4685503 -0.47916785 -0.28431886
0.007903407 0.16778457 0.24570681 0.3769241 -0.23385285 0.118907675 -0.18209906 -0.28057557
0.07934374 0.54069424 0.34666565 -0.48957744 0.1623919 0.050181944 0.6534853 0.062485512
-0.39809477 -0.21554862 0.4251815 0.074279144 0.0493652 -0.19102594 -0.01174666 -0.489751
-0.3888746 -0.06323752 -0.3363418 -0.19637135 -0.368348 -0.20832364 -0.16058306 0.4750609
-0.08334714 0.33410624 -0.80595505 -0.008232356 0.21820803 -0.19476686 0.7987217 0.010542966
-0.3335092 0.04302889 0.863364 0.54989195 -0.2484493 -0.19355665 0.46522048 0.31747434
0.4577539 0.147743 -0.7398737 -0.27968913 0.28867933 0.11579478 -0.29791877 0.41700014
0.46535558 0.1946159 -0.5003495 -0.4123442 -0.23016612 -0.058273975 0.34632275 0.51158464
-0.3583696 -0.2328149 0.3279091 0.49496895 -0.4284958 -0.08196688 0.71542984 0.3773067
0.06888709 -0.33259434 0.78889394 0.26677126 -0.40215296 -0.15862331 -0.2984193 0.36064428
0.28468058 0.14600666 -0.6612501 -0.5061319 -0.49819642 -0.29189768 0.5766993 0.029755
-0.6245963 0.6020782 0.6117981 0.41864678 0.4398915 0.20348638 -0.6024697 -0.53719294
00000000: 02d3 19be f5fe 90bb 6072 1e3f b78f f63e
00000010: 310d ab3e 2db8 633e d660 18bf 8dac 52bd
00000020: 2424 24bf cf83 4ebf 36de e2be 0ae2 b0be
00000030: 97ef ed3c c5f9 833e 1b70 9f3e c8be 5c3e
00000040: a24f babe 474e ed3e aa4e 66bd aa17 173f
00000050: f2c9 a3bd 6b83 6c3d a5f6 383f bf16 8c3e
00000060: 5a22 e03e b9d6 7c3e 2c3a c9be e203 2f3d
00000070: 0a89 ff3d 3cf6 0bbf bf3c 1bbf f5e5 a3be
00000080: 4924 e9be a093 f73e 7fe4 c03e 692e 103f
00000090: 3a8f c33e 6cd5 56be e31b c63b 9e92 c13e
000000a0: 2232 343e fa44 9abe 317c 103f c9f8 8a3e
000000b0: a251 163f 1d34 f43e e50b 2a3f bbe7 0f3f
000000c0: 3fdb 9dbd 49db 053f be14 aabe 95bc 0dbc
000000d0: 7196 6d3d 101a 57be d28e f8bd 5f42 f5be
000000e0: df97 b5be ca0d 083f 2692 083f 17d5 a13e
000000f0: 465c fabe 5b38 99be ae6a 7abe ff1b 12bf
00000100: 7166 bd3e 97aa ed3d 1463 353f 5db2 993e
00000110: 610d 94be 143b 283e dcc3 483f af55 b33b
00000120: b6cb 4c3e ed67 8dbd cc1a d33c 59b6 e2be
00000130: f9b5 0e3f 8a22 c73b 0280 8cbe 03ab a33e
00000140: 3979 db3c 7305 54be 1cfd 283e 20ee b93e
00000150: 3d50 113f 56d6 79be 83bd 81be ecab 09bf
00000160: a267 ec3e 529c b43e 9a3b 003e 49f0 b73d
00000170: bfd5 afbe 3533 82be 0225 423f 63c1 853e
00000180: 0c7c f93e c645 283f bcf0 7b3f cd18 b03e
00000190: 8dc3 9fbd 49db c93d c0cd 5dbf 637b 83be
000001a0: d54b 9f3e 7132 4bbe 5a88 973e 3c14 80be
000001b0: 4e0d b13e bb50 d8bd 8159 103f 6c5c 0c3f
000001c0: 5979 bdbe 8348 a7bd 7628 68be efb1 08bf
000001d0: 575d dd3e 5d10 95be b2b5 b2be 34f6 6e3e
000001e0: 090d eb3e a99a 03be 6126 70be 21d5 063c
000001f0: f40c e13e 577c 3cbe 27ce 49bf 4c7e 0b3e
00000200: 1647 963e 5536 243e c2df 15be 7773 acbe
00000210: 09a5 eabd fb98 e03e 642f efbe 4a5b febd
00000220: 0fcc 183e 5235 8d3e 3288 8a3e 58c7 053f
00000230: 7297 803e 8897 70be 1d21 c3be 4cdc 3e3e
00000240: 3f09 2e3e 1c74 093f 3194 5b3f bc4e 053d
00000250: 3dea 21bd e54c ddbe 5c63 81be f174 1cbf
00000260: 216d adbe 1264 38be 7e0d 173c 643f 0a3f
00000270: 0810 25be d3e5 ef3e 7d55 f5be 3e92 91be
00000280: 4b7d 013c b8cf 2b3e 919a 7b3e 32fc c03e
00000290: 1f77 6fbe de85 f33d 2d78 3abe 9aa7 8fbe
000002a0: f97e a23d f06a 0a3f 297e b13e e5a9 fabe
000002b0: 104a 263e 958b 4d3d d04a 273f cff0 7f3d
000002c0: 14d3 cbbe c7b8 5cbe 64b1 d93e aa1f 983d
000002d0: 2a33 4a3d 4e9c 43be 1075 40bc a5c0 fabe
000002e0: 921a c7be ac82 81bd fe34 acbe 9215 49be
000002f0: 1c98 bcbe cb52 55be e36f 24be 2f3b f33e
00000300: e8b1 aabd f90f ab3e 1253 4ebf 01e1 06bc
00000310: ed71 5f3e f770 47be 0679 4c3f 68bc 2c3c
00000320: b8c1 aabe 103f 303d 6c05 5d3f b8c5 0c3f
00000330: 7e69 7ebe b733 46be 6131 ee3e ff8b a23e
00000340: b85e ea3e f149 173e 5d68 3dbf 6a33 8fbe
00000350: c7cd 933e d025 ed3d cf88 98be 0b81 d53e
00000360: 1643 ee3e 6449 473e e816 00bf c71e d3be
00000370: abb0 6bbe b1b0 6ebd 3751 b13e 36f7 023f
00000380: 387c b7be 0767 6ebe b4e3 a73e 926c fd3e
00000390: cd63 dbbe 40de a7bd 6926 373f 582e c13e
000003a0: ad14 8d3d ce49 aabe f4f4 493f 3e96 883e
000003b0: fee6 cdbe 266e 22be 6aca 98be 5ea6 b83e
000003c0: a7c1 913e c582 153e b047 29bf dc91 01bf
000003d0: 9a13 ffbe 9d73 95be 91a2 133f c2c0 f33c
000003e0: 8be5 1fbf cc21 1a3f cd9e 1c3f df58 d63e
000003f0: 7539 e13e bc5e 503e 743b 1abf 7a85 09bf

bias f4 [64]
0.1790126 -0.36634427 0.13935447 0.26275596 -0.058126114 0.26804823 0.38302347 -0.1230233
-0.18941416 -0.2065346 -0.12481177 -0.020807544 -0.124563806 -0.26811618 0.022896077 -0.14741927
0.33280465 0.44506595 0.23131947 -0.031688746 0.17249069 -0.1311046 0.2727374 0.2334453
0.23971422 0.03888939 0.071530394 0.4151352 -0.19509572 0.3217868 0.118354924 -0.2773675
0.40281117 0.4235342 -0.2640141 -0.15970445 -0.29505455 -0.107308246 -0.4499562 -0.37152848
0.10350321 0.043138463 0.417902 -0.33611158 -0.24612491 -0.32802162 0.26410785 0.15624931
-0.0077929324 0.08319193 -0.25999305 0.060591377 0.13017519 -0.17193979 0.38899043 -0.33564898
0.37926137 -0.40784362 -0.21118674 -0.1775372 0.27418172 -0.041502077 0.34142354 0.12364303
00000000: 144f 373e 7a91 bbbe f0b2 0e3e f387 863e
00000010: a615 6ebd 9e3d 893e a71b c43e a4f3 fbbd
00000020: c9f5 41be ce7d 53be 509d ffbd 9574 aabc
00000030: 4f1b ffbd 8646 89be 8e90 bb3c 14f5 16be
00000040: 5f65 aa3e afdf e33e 03df 6c3e 0fcc 01bd
00000050: 66a1 303e 4940 06be 3da4 8b3e 490c 6f3e
00000060: a577 753e 7b4a 1f3d 877e 923d 9a8c d43e
00000070: 2cc7 47be 3dc1 a43e 1164 f23d 1d03 8ebe
00000080: 443d ce3e 7ad9 d83e db2c 87be 9089 23be
00000090: 6411 97be 6dc4 dbbd a960 e6be fb38 bebe
000000a0: 7ef9 d33d f5b1 303d 40f7 d53e d116 acbe
000000b0: 2b08 7cbe 73f2 a7be 2539 873e d2ff 1f3e
000000c0: db5b ffbb 8860 aa3d cf1d 85be aa2e 783d
000000d0: a54c 053e fc10 30be c129 c73e 2fda abbe
000000e0: 8c2e c23e e1d0 d0be 5641 58be 50cc 35be
000000f0: 8c61 8c3e 15fe 29bd 11cf ae3e 8f38 fd3d

weight f4 [64, 64]
0.12799168 0.04124689 -0.031371232 0.03385129 0.17551655 0.14473891 -0.003984503 -0.16881596
0.23937683 -0.030685665 0.13303085 0.0412807 0.049491026 -0.15143912 0.27999854 -0.0869678
-0.014594314 0.115976416 -0.1633045 -0.06681386 0.0077740895 -0.046172235 -0.011168666 -0.0032669418
0.14693479 -0.1687713 -0.012272555 -0.07746358 -0.021441069 -0.10217855 0.021880249 -0.11072823
0.019877732 0.015787305 0.14207777 0.079492964 0.04740958 -0.14417163 -0.013723814 0.051129106
0.07430091 -0.033644386 0.0019873949 0.061511822 -0.007679369 0.008827858 -0.05278401 0.14314876
0.0038749378 0.07135986 0.23063292 0.205664 -0.037252873 0.12586299 0.011818742 0.07506495
0.079682566 0.004095121 0.00023376451 0.05020086 -0.115793034 0.11170629 0.11367058 -0.16987295
0.1498952 0.026365912 -0.15774812 0.09063914 0.06252317 -0.035252694 0.011098989 -0.054558415
0.24490054 -0.01659264 -0.11502211 0.020357253 0.11934402 0.05868024 0.22006956 0.080536835
0.08506958 -0.036043186 -0.048800483 -0.03627207 0.090174876 -0.2627772 0.05321298 0.041824125
0.13751456 -0.1918419 0.019930657 0.023202132 -0.06352471 0.061618283 -0.031814784 -0.010400286
0.05233036 -0.110209644 0.13918345 -0.040391862 0.12299599 -0.1347172 0.13534601 0.022953695
0.059491202 -0.07180894 -0.014039324 -0.026972547 0.12530178 -0.08086549 0.12712513 0.02155568
-0.11493265 -0.04062325 0.123052776 -0.013667493 -0.15647869 -0.08748123 -0.03911854 -0.07952418
0.08773523 -0.045929838 0.09313186 -0.03994255 -0.13451625 -0.058682144 0.08571927 -0.07102851
-0.016043976 -0.03241281 0.118361205 -0.10831014 -0.15815865 -0.17777526 0.058472898 0.18275025
-0.12446548 -0.023981001 0.056324776 -0.004805736 0.11386933 9.348563e-05 -0.18790005 0.03336582
-0.122247465 -0.11855492 -0.06776609 0.16255932 -0.04469871 0.04484569 0.14261772 -0.09988485
-0.061712798 0.09801362 0.06644624 -0.11980174 0.024431013 0.12573525 0.17210896 0.05292843
-0.06041166 -0.016982058 -0.14006265 0.1668985 -0.0777472 0.21107858 -0.15472253 0.12466593
-0.09799936 -0.039644364 0.00130552 0.006428522 -0.021179987 -0.04917424 -0.118027896 -0.068677485
-0.06418328 -0.07743051 -0.19530842 0.056571376 0.07088952 -0.09783609 0.18349308 0.024389088
0.009794364 -0.005880361 -0.11515293 -0.09870371 0.1574257 -0.06979074 -0.075700924 -0.039325505
0.11036503 -0.117343895 -0.046884343 0.091140375 0.15077218 0.17781334 -0.10783927 -0.122260936
0.2017037 0.081689514 0.025422899 0.1563681 0.069533914 0.053905644 0.12742455 -0.12919821
0.0095256 0.039095838 -0.0151609415 -0.015862377 0.03319495 -0.26371324 -0.0047743754 0.08345001
0.018479794 -0.13740109 -0.0554348 0.005579659 0.094752915 0.009029334 0.06304474 0.04053049
-0.07244707 0.077268764 0.059362598 -0.12971233 0.094053484 -0.117472365 0.13422593 0.07351029
0.14155604 -0.10528892 0.034313176 0.033675764 0.075884566 -0.12128644 0.031327873 -0.06065845
-0.105892316 -0.043512058 0.16026613 0.05730364 -0.15580593 0.06451057 -0.15365602 -0.008898684
0.014595544 0.034081426 0.092431016 -0.00085155235 -0.05825039 0.11437666 0.24789964 0.022474412
00000000: 4010 033e 80f2 283d 1f7f 00bd a6a7 0a3d
00000010: 9cba 333e 7036 143e 6f90 82bb 17de 2cbe
00000020: 331f 753e 8160 fbbc 3d39 083e f415 293d
00000030: 1ab7 4a3d db12 1bbe f85b 8f3e 2d1c b2bd
00000040: fd1c 6fbc 0b85 ed3d 4b39 27be b4d5 88bd
00000050: cabd fe3b 191f 3dbd c8fc 36bc 301a 56bb
00000060: 1376 163e 62d2 2cbe d412 49bc 3aa5 9ebd
00000070: 2ea5 afbc fd42 d1bd 353e b33c 7bc5 e2bd
00000080: a0d6 a23c 6154 813c d67c 113e 35cd a23d
00000090: 8c30 423d baa1 13be d9d9 60bc c16c 513d
000000a0: 132b 983d b2ce 09bd f43e 023b d2f3 7b3d
000000b0: 37a3 fbbb b8a2 103c 0c34 58bd 9795 123e
000000c0: abf2 7d3b 1e25 923d 092b 6c3e 9599 523e
000000d0: 7896 18bd 3ae2 003e 66a3 413c a7bb 993d
000000e0: 9d30 a33d 5d30 863b af1e 7539 6b9f 4d3d
000000f0: e624 edbd 44c6 e43d 1fcc e83d 2df3 2dbe
00000100: 217e 193e 53fd d73c b988 21be 03a1 b93d
00000110: 260c 803d 2165 10bd 89d8 353c a578 5fbd
00000120: 35c7 7a3e 4aed 87bc b690 ebbd 41c4 a63c
00000130: a36a f43d b15a 703d ea59 613e 7ff0 a43d
00000140: f638 ae3d 05a2 13bd 04e3 47bd 0692 14bd
00000150: 9bad b83d bc8a 86be dbf5 593d c64f 2b3d
00000160: 9ed0 0c3e 3472 44be 9e45 a33c 6612 be3c
00000170: 3e19 82bd 7463 7c3d 3850 02bd f665 2abc
00000180: 5c58 563d 98b5 e1bd 1b86 0e3e f071 25bd
00000190: 52e5 fb3d 4ef3 09be 2598 0a3e 6309 bc3c
000001a0: 0cad 733d 9110 93bd 3105 66bc 88f5 dcbc
000001b0: 1c4f 003e ce9c a5bd 172d 023e 8a95 b03c
000001c0: cf61 ebbd 9164 26bd 1803 fc3d 9fed 5fbc
000001d0: f33b 20be 5c29 b3bd c33a 20bd 93dd a2bd
000001e0: 87ae b33d ed20 3cbd ebbb be3d cd9a 23bd
000001f0: a1be 09be b05c 70bd 968d af3d 6577 91bd
00000200: a86e 83bc 4bc3 04bd 5c67 f23d b5d1 ddbd
00000210: 57f4 21be b80a 36be 4781 6f3d e222 3b3e
00000220: c2e7 febd ce73 c4bc cfb4 663d 6f79 9dbb
00000230: 5334 e93d b70d c438 df68 40be 99aa 083d
00000240: e15c fabd eccc f2bd f3c8 8abd f375 263e
00000250: ff15 37bd 1db0 373d 610a 123e 6e90 ccbd
00000260: 8fc6 7cbd 5dbb c83d f714 883d 9d5a f5bd
00000270: 8c23 c83c bec0 003e 553d 303e 7bcb 583d
00000280: 3772 77bd f51d 8bbc 956c 0fbe 71e7 2a3e
00000290: ed39 9fbd fc24 583e 956f 1ebe da50 ff3d
000002a0: e3b3 c8bd 2162 22bd fb1d ab3a 5aa6 d23b
000002b0: a781 adbc ee6a 49bd 9cb8 f1bd c8a6 8cbd
000002c0: 8672 83bd e393 9ebd eefe 47be 63b7 673d
000002d0: 862e 913d 4a5e c8bd 9ce5 3b3e a0cb c73c
000002e0: 8a78 203c 0bb0 c0bb 4dd5 ebbd 2c25 cabd
000002f0: 3434 213e 73ee 8ebd 1609 9bbd c813 21bd
00000300: 1007 e23d ff51 f0bd cc09 40bd cea7 ba3d
00000310: 0664 1a3e b314 363e d6da dcbd f163 fabd
00000320: 6a8b 4e3e d54c a73d af43 d03c f61e 203e
00000330: cc67 8e3d 2acc 5c3d 957b 023e 894c 04be
00000340: 4311 1c3c f522 203d 9965 78bc d1f1 81bc
00000350: 6ef7 073d 6c05 87be 5d72 9cbb d7e7 aa3d
00000360: f062 973c dfb2 0cbe 9a0f 63bd 92d5 b63b
00000370: d10d c23d c6ef 133c 9a1d 813d 4d03 263d
00000380: 215f 94bd 163f 9e3d 3226 733d 4fd3 04be
00000390: 1d9f c03d 5a95 f0bd 8672 093e 908c 963d
000003a0: 11f4 103e b8a1 d7bd f98b 0c3d 99ef 093d
000003b0: 5e69 9b3d 0665 f8bd a851 003d ff74 78bd
000003c0: 12de d8bd b339 32bd ce1c 243e 39b7 6a3d
000003d0: 978b 1fbe 1e1e 843d 0158 1dbe c9cb 11bc
000003e0: 2622 6f3c f798 0b3d 794c bd3d b63a 5fba
000003f0: f697 6ebd 4f3e ea3d 67d9 7d3e 421c b83c

bias f4 [64]
-0.03626719 -0.09109564 0.03000576 0.05278158 0.04868422 -0.058532007 0.08618693 0.06368418
0.0708503 -0.07301701 0.010564379 -0.027380498 0.075510465 0.054969195 -0.07089522 -0.048143096
-0.025645886 -0.045275662 -0.09066732 -0.07666581 0.10598275 0.066335194 0.010411434 -0.07772014
0.08123596 0.078844026 0.08100681 0.011584085 0.08933856 -0.07968353 -0.06903821 -0.041611746
0.07615059 -0.06095804 -0.023544151 0.004360873 0.051501796 -0.087787636 -0.0465705 -0.038805977
-0.022464408 -0.13140275 0.0011759463 0.096457995 -0.06879722 -0.09149948 0.0016568626 -0.042393003
0.097320944 0.1068969 0.009052678 -0.017209249 0.08824281 -0.019559693 -0.090327896 0.04755943
-0.10579094 -0.055244908 0.101527914 -0.10613733 0.111309126 0.045740277 -0.10960939 -0.08544914
00000000: e88c 14bd 5a90 babd a4ce f53c 7f31 583d
00000010: 1b69 473d 42bf 6fbd c682 b03d da6c 823d
00000020: f619 913d f189 95bd 3816 2d3c 114d e0bc
00000030: 3ba5 9a3d 6127 613d 8331 91bd b231 45bd
00000040: 5217 d2bc f972 39bd caaf b9bd f702 9dbd
00000050: 7c0d d93d bfda 873d b894 2a3c bd2b 9fbd
00000060: 0a5f a63d fa78 a13d e6e6 a53d 2dcb 3d3c
00000070: 23f7 b63d 1e31 a3bd e863 8dbd 1471 2abd
00000080: d7f4 9b3d 23af 79bd aadf c0bc a7e5 8e3b
00000090: 8cf3 523d 01ca b3bd b5c0 3ebd 04f3 1ebd
000000a0: 4707 b8bc 718e 06be 3622 9a3a c58b c53d
000000b0: 8fe5 8cbd 1464 bbbd 152b d93a 49a4 2dbd
000000c0: 3450 c73d c3ec da3d af51 143c 69fa 8cbc
000000d0: a5b8 b43d a63b a0bc d5fd b8bd adcd 423d
000000e0: eca8 d8bd 7c48 62bd deed cf3d 875e d9bd
000000f0: 0af6 e33d 285a 3b3d e37a e0bd f5ff aebd

weight f4 [2, 64]
-0.2495703 -0.13416135 0.31009242 -0.24454989 -0.3221453 0.22865239 0.07784732 -0.2847133
-0.10902778 -0.050017644 -0.29211667 0.120067425 0.05791485 0.31769174 -0.22164343 -0.2070928
-0.10888984 0.20657371 -0.14972089 0.1724881 0.24006915 0.13527599 0.08654794 -0.07868276
-0.15696822 0.14275235 0.23706515 0.22342879 -0.29688534 -0.17607626 0.01427415 -0.34202188
-0.22888523 0.2508138 0.17156005 0.059223127 -0.29818094 0.15445125 -0.15216076 0.14705251
-0.10334029 -0.12482045 0.11761932 -0.12967682 -0.24364997 0.18858352 -0.285092 -0.15829417
-0.17798877 0.16981626 -0.3160772 0.08821977 -0.31762892 -0.10280661 -0.13207306 -0.024508283
-0.2041377 0.19821623 0.21579856 -0.23151208 0.1529968 0.21397343 -0.15044433 0.13514952
0.20372576 0.11863937 -0.20268947 0.17399175 0.22686738 -0.18115018 -0.04142317 0.42139968
0.17837949 -0.016844159 0.29316905 -0.09885232 -0.029631393 -0.2047749 0.2275776 0.31311414
0.18493694 -0.2122362 0.25100106 -0.18544713 -0.27013615 -0.27269873 -0.2914937 0.10847931
0.19567238 -0.3258377 -0.13585 -0.3602 0.15900043 0.3738994 0.17712168 0.16499986
0.26518685 -0.07906855 -0.28264192 -0.15039209 0.24003917 -0.26225734 0.21598992 -0.2131517
0.13928571 0.13209918 -0.056461006 0.18606627 0.25066054 -0.05179854 0.28055707 0.17538986
0.19617118 -0.23346287 0.36410522 -0.20362529 0.33985522 0.24035344 0.1777776 0.13565205
0.20496008 -0.22582966 -0.1341121 0.293133 -0.24714713 -0.20472288 0.16219258 -0.09096679
00000000: 5b8f 7fbe 9861 09be 6fc4 9e3e 496b 7abe
00000010: 3bf0 a4be da23 6a3e 6a6e 9f3d f1c5 91be
00000020: f549 dfbd 4ddf 4cbd 5190 95be e9e5 f53d
00000030: 1f38 6d3d 7ea8 a23e 7ff6 62be 2310 54be
00000040: a301 dfbd 0f88 533e 6f50 19be b8a0 303e
00000050: b0d4 753e ca85 0a3e 0c40 b13d 6d24 a1bd
00000060: 47bc 20be ac2d 123e 35c1 723e 84ca 643e
00000070: 5b01 98be 564d 34be 20de 693c 7e1d afbe
00000080: e460 6abe ab6a 803e 70ad 2f3e f393 723d
00000090: 2cab 98be 7828 1e3e 08d0 1bbe ef94 163e
000000a0: 13a4 d3bd dda1 ffbd 66e2 f03d 00ca 04be
000000b0: 617f 79be 0a1c 413e 94f7 91be de17 22be
000000c0: b042 36be 50e4 2d3e dfd4 a1be 91ac b43d
000000d0: 42a0 a2be 468c d2bd 293e 07be 98c5 c8bc
000000e0: 7909 51be 32f9 4a3e 4cfa 5c3e 8111 6dbe
000000f0: 31ab 1c3e da1b 5b3e 140e 1abe a364 0a3e
00000100: 7c9d 503e 33f9 f23d d48d 4fbe e52a 323e
00000110: ec4f 683e 6f7f 39be 58ab 29bd b3c1 d73e
00000120: 1da9 363e c3fc 89bc 411a 963e 1673 cabd
00000130: 89bd f2bc 83b0 51be 1a0a 693e 7f50 a03e
00000140: 1c60 3d3e 7254 59be 3683 803e dae5 3dbe
00000150: 494f 8abe 2b9f 8bbe aa3e 95be 672a de3d
00000160: 575e 483e 33d4 a6be 431c 0bbe 226c b8be
00000170: 02d1 223e be6f bf3e 635f 353e b9f5 283e
00000180: 92c6 873e b1ee a1bd 71b6 90be 6200 1abe
00000190: d4cc 753e 9846 86be 762c 5d3e 7044 5abe
000001a0: eaa0 0e3e 0245 073e a843 67bd 2888 3e3e
000001b0: 9456 803e b52a 54bd 2da5 8f3e 6699 333e
000001c0: 19e1 483e e410 6fbe 006c ba3e 2683 50be
000001d0: 8101 ae3e 361f 763e 550b 363e 5fe8 0a3e
000001e0: 0ee1 513e e43f 67be af54 09be 8715 963e
000001f0: 2314 7dbe e0a2 51be d015 263e cc4c babd

bias f4 [2]
-0.037027903 -0.12146775
00000000: 92aa 17bd 15c4 f8bd

weight f4 [64, 4]
0.95867044 0.5844301 1.7798376 0.2570343 -1.0712895 0.21302979 1.9245104 0.5661687
-1.2576802 0.8999236 -2.2858415 0.5213747 -0.5715847 -0.034515344 1.2748334 -0.12307134
1.309812 -0.52810997 1.8576803 -0.43814874 1.2992637 0.19066577 1.6963547 0.26697084
-1.5670806 0.6097146 -0.22515042 0.23951133 2.1638708 -1.1290383 -0.16775943 -0.8972095
-0.36695814 1.4802401 0.14968602 1.2654108 1.0620643 -0.6564691 0.39730546 -0.38762444
-0.6544507 -0.5540487 -0.95619076 -0.38891685 0.52600837 -0.0785091 1.8016154 0.15274855
1.0622649 -1.225077 1.8551702 -1.1171038 -1.2145402 0.9435001 -2.926431 0.35272124
0.07178402 1.1704109 -0.12611935 0.60867894 -0.99829584 -1.0547019 -0.75350845 -0.57152414
0.9012913 0.92992806 1.6725972 0.17492601 -1.0647882 -0.6353912 1.1107112 -0.64260954
-0.16829605 0.12350703 -2.0630825 0.4667749 1.3246843 -0.9308525 0.021107998 -0.51101637
-1.4979985 1.1066707 -1.4847332 1.0476365 -1.1950908 -0.69248545 -1.9333271 -0.43077123
-1.1985226 -0.7342631 -1.2261362 -0.4517638 -1.0690486 -0.4573512 -1.7586545 -0.54273254
1.5882931 -1.1854322 1.7195748 -0.78304243 -0.96081066 -0.39444008 -2.2032795 -0.23941846
0.24659222 -0.08119492 0.8541379 0.021263879 -1.0929124 0.16914478 -1.2473426 0.1330359
-1.2270839 0.90848666 -1.3653957 0.56757915 1.3441486 0.42195028 1.3141078 0.2452015
-0.4529919 -0.62348026 1.4672112 -0.50498146 0.9845657 0.7128102 1.3329296 0.5707519
0.5502948 0.69695354 -1.3215371 0.7450928 -0.51071995 -0.29285473 -1.8753793 -0.21615778
0.54966474 0.37612808 2.048588 0.39982355 0.50769234 0.6349961 -1.266625 0.30230233
0.3538521 -1.3069272 1.0387369 -0.8145188 -1.3161987 -0.7259752 -1.6149739 -0.14288624
-1.1277828 0.17989933 -2.0377266 0.07633258 1.1002641 0.9603763 -0.6294083 0.6389804
-1.4704276 1.046562 -0.8688482 0.846832 -1.0039403 0.6884652 -1.3246094 0.6718408
0.4838794 0.70176584 1.5059696 0.5517924 0.8327506 0.9684257 -1.0448374 1.0908779
1.1444547 0.08567168 1.3400961 0.13250706 1.4752204 -0.7503227 -0.6537646 -0.8556799
-1.0105562 -0.67099863 -1.6938682 -0.33239776 0.517488 -0.63623047 2.170038 -0.27862108
0.7835533 -0.3362261 2.0364459 -0.14822015 0.74333453 0.4905711 1.5243586 0.44900045
0.97506005 -0.5513798 1.6088262 -0.051881075 -1.0965842 -0.7781395 -1.560889 -0.36770874
0.48060602 0.49664593 1.645003 0.35007712 0.67709744 0.92294717 -0.11321362 0.4509402
-0.36590722 0.071662806 -1.9171318 0.102063045 -0.73074377 -0.4428585 -1.5915003 -0.19582586
0.66124535 0.43109238 -0.85464394 -0.21930096 0.29999083 0.39474085 2.2110844 -0.032094117
-0.70874125 0.22157598 -2.095776 0.14964785 1.2366827 -0.7317197 2.8543208 -0.29922158
-0.7896193 -0.6414943 -1.9296085 -0.23608732 1.20187 -0.3562706 -0.32142073 -0.22195749
-0.38709193 -1.5543202 -1.7773529 -1.5611844 0.6173833 0.69969267 1.7519839 1.1181914
00000000: 6d6b 753f 369d 153f b8d1 e33f 009a 833e
00000010: 0420 89bf 7b24 5a3e 5b56 f63f 6ff0 103f
00000020: aafb a0bf 6561 663f 3a4b 12c0 d078 053f
00000030: 6053 12bf f65f 0dbd be2d a33f d40c fcbd
00000040: eba7 a73f 3732 07bf 78c8 ed3f 0855 e0be
00000050: 464e a63f e33d 433e 2722 d93f 67b0 883e
00000060: 1996 c8bf 4216 1c3f d58d 66be 7542 753e
00000070: dc7c 0a40 5484 90bf 21c9 2bbe 86af 65bf
00000080: f0e1 bbbe 8278 bd3f 4b47 193e fbf8 a13f
00000090: b9f1 873f 5c0e 28bf 9f6b cb3e b676 c6be
000000a0: 158a 27bf 23d6 0dbf ebc8 74bf 1c20 c7be
000000b0: 7ca8 063f 61c9 a0bd 559b e63f 1e6a 1c3e
000000c0: 4cf8 873f 53cf 9cbf 3876 ed3f 42fd 8ebf
000000d0: 0e76 9bbf 3989 713f a54a 3bc0 e197 b43e
000000e0: 8003 933d 06d0 953f 6e25 01be 62d2 1b3f
000000f0: 5190 7fbf 7900 87bf eee5 40bf 684f 12bf
00000100: 07bb 663f c40f 6e3f aa17 d63f ce1f 333e
00000110: fb4a 88bf ffa8 22bf c92b 8e3f 0f82 24bf
00000120: cd55 2cbe 41f1 fc3d 8b09 04c0 1ffd ee3e
00000130: 418f a93f 594c 6ebf aeea ac3c f8d1 02bf
00000140: 6abe bfbf 63a7 8d3f bd0b bebf f418 863f
00000150: bcf8 98bf ba46 31bf 4377 f7bf 0c8e dcbe
00000160: 3069 99bf abf8 3bbf 08f2 9cbf 964d e7be
00000170: 96d6 88bf f029 eabe 971b e1bf 85f0 0abf
00000180: 304d cb3f 3ebc 97bf 071b dc3f 7875 48bf
00000190: b0f7 75bf 0df4 c9be 8802 0dc0 1d2a 75be
000001a0: ac82 7c3e 8649 a6bd c8a8 5a3f 9631 ae3c
000001b0: 8ee4 8bbf 4a34 2d3e eca8 9fbf 903a 083e
000001c0: 1611 9dbf 9592 683f 49c5 aebf de4c 113f
000001d0: 100d ac3f de09 d83e af34 a83f 1a16 7b3e
000001e0: 8eee e7be 679c 1fbf 94cd bb3f 7746 01bf
000001f0: 7f0c 7c3f bb7a 363f 709d aa3f cc1c 123f
00000200: 1fe0 0c3f 8c6b 323f 2128 a9bf 67be 3e3f
00000210: 8bbe 02bf 0ef1 95be 6e0c f0bf 7758 5dbe
00000220: d4b6 0c3f dc93 c03e 111c 0340 acb5 cc3e
00000230: 20f8 013f 1b8f 223f c520 a2bf 5fc7 9a3e
00000240: 1a2c b53e 6449 a7bf 55f5 843f 4e84 50bf
00000250: 3379 a8bf 83d9 39bf 77b7 cebf c550 12be
00000260: 305b 90bf 8837 383e 1d6a 02c0 4154 9c3d
00000270: 74d5 8c3f 39db 753f e720 21bf 3894 233f
00000280: f936 bcbf bef5 853f d66c 5ebf fbc9 583f
00000290: 1e81 80bf 413f 303f cd8c a9bf c2fd 2b3f
000002a0: 0abf f73e eda6 333f 9dc3 c03f 4442 0d3f
000002b0: 252f 553f bfea 773f 3bbd 85bf e3a1 8b3f
000002c0: 7e7d 923f a274 af3d 4588 ab3f eeaf 073e
000002d0: 06d4 bc3f 2615 40bf 1e5d 27bf d70d 5bbf
000002e0: e859 81bf 91c6 2bbf acd0 d8bf 0a30 aabe
000002f0: 187a 043f 00e0 22bf e7e1 0a40 6ca7 8ebe
00000300: f396 483f d425 acbe 2155 0240 06c7 17be
00000310: 2c4b 3e3f 232c fb3e 2f1e c33f 63e3 e53e
00000320: 899d 793f 3a27 0dbf 04ee cd3f 4081 54bd
00000330: df5c 8cbf 2634 47bf 36cb c7bf 5244 bcbe
00000340: fe11 f63e 6048 fe3e 758f d23f 4f3d b33e
00000350: 4256 2d3f 4446 6c3f 8bdc e7bd a2e1 e63e
00000360: 3158 bbbe f3c3 923d 9364 f5bf 6e06 d13d
00000370: 0612 3bbf 59be e2be 48b6 cbbf 9386 48be
00000380: 6047 293f 24b8 dc3e f2c9 5abf 6e90 60be
00000390: 6698 993e 791b ca3e 6882 0d40 1f75 03bd
000003a0: 1170 35bf d0e4 623e 3221 06c0 493d 193e
000003b0: 9e4b 9e3f fb51 3bbf 31ad 3640 9233 99be
000003c0: 7e24 4abf f838 24bf 69fd f6bf e0c0 71be
000003d0: e0d6 993f 1a69 b6be 4291 a4be d348 63be
000003e0: ea30 c6be f7f3 c6bf 4d80 e3bf e4d4 c7bf
000003f0: d50c 1e3f 0f1f 333f 0241 e03f e520 8f3f

bias f4 [64]
0.28659526 -0.4603866 0.34502482 0.3668428 -0.531577 -0.6436431 0.40144253 0.21110865
0.28656653 -0.29600817 0.6980723 0.3106437 -0.14599787 0.3927581 -0.5277835 0.5766201
0.29594088 0.13000451 -0.29188707 -0.3389433 0.2693345 -0.36988223 -0.5248066 -0.48765787
-0.31554192 -0.42677224 0.2828744 0.50379413 -0.31740052 -0.6633788 0.4932086 -0.5092422
-0.45293167 0.7339902 -0.5505217 -0.54764384 0.35272172 0.7358683 0.53894985 0.12891527
0.23622267 -0.2563919 -0.62083924 -0.3784302 0.4391317 -0.29321033 0.69041616 0.39991373
0.49581587 0.50891167 0.4068881 -0.4480007 -0.6779865 0.46260944 0.32077205 -0.3826826
0.60562414 0.45541832 -0.47275707 -0.57711965 0.5086842 -0.44803986 -0.038594596 0.17682473
00000000: 9dbc 923e cbb7 ebbe 18a7 b03e d2d2 bb3e
00000010: 6e15 08bf cbc5 24bf e089 cd3e de2c 583e
00000020: d9b8 923e 628e 97be deb4 323f b10c 9f3e
00000030: 7780 15be 9717 c93e d21c 07bf 609d 133f
00000040: 9085 973e e71f 053e 3972 95be fa89 adbe
00000050: 36e6 893e 3461 bdbe ba59 06bf 4bae f9be
00000060: b68e a1be e481 dabe ead4 903e a7f8 003f
00000070: 5282 a2be 31d3 29bf d685 fc3e b25d 02bf
00000080: a9e6 e7be c8e6 3b3f fdee 0cbf 6332 0cbf
00000090: f197 b43e dd61 3c3f 9ef8 093f 5d02 043e
000000a0: 5be4 713e cd45 83be 52ef 1ebf 9ac1 c1be
000000b0: dfd5 e03e aa1f 96be 1dbf 303f 7ec1 cc3e
000000c0: 94db fd3e 0948 023f a353 d03e 5960 e5be
000000d0: 8690 2dbf 25db ec3e 3c3c a43e f9ee c3be
000000e0: 2f0a 1b3f 972c e93e 370d f2be 1dbe 13bf
000000f0: 2139 023f 7b65 e5be 5e15 1ebd 8b11 353e

weight f4 [64, 64]
-0.664091 1.2229326 0.66105354 0.39882967 -0.27355653 -0.106741965 1.1057456 -2.2744308
0.38899168 -0.4595701 -0.19424954 -0.317112 -0.916881 0.51829964 0.6081056 -0.35685644
-0.4894177 0.6203872 0.20359115 -0.78070945 0.9110825 0.9958442 0.61030716 0.691105
-0.86870784 0.63432664 -0.0036428499 0.35061324 1.2632041 0.0043798233 0.21710095 0.0865198
-0.3058625 -0.20799418 0.3862835 -0.053934116 -0.5390939 -0.28144252 0.05354104 -0.8292672
1.2464261 0.7661168 0.3594442 -0.33888787 -1.0380604 -0.76093924 -0.14332902 -0.5060911
-0.66164225 -0.5088139 -0.7521596 0.49938956 0.099929154 -0.3503801 -0.058477394 0.37919286
-0.20386036 -0.1037897 0.5485934 -0.24756414 -0.1498813 -0.39558047 0.10108774 -0.32654992
0.031328224 0.32185724 0.6907728 0.4838996 -0.8262025 -0.37712613 0.8618331 -0.26984802
0.4328213 -0.57162 0.6381853 0.35662714 -0.36691353 0.6704815 -0.6080977 0.4175803
0.39695928 0.60981876 -0.24070992 -0.7476991 0.71264493 -0.1611636 -0.15809748 -0.19781247
-0.63487935 -0.35752082 0.40343022 0.62157845 -0.048898056 -0.53263205 0.9153449 -0.36768156
-0.9852806 0.34044135 -0.18114401 -1.2899834 0.36245444 0.41447043 0.4033153 -0.40638417
0.49696416 -0.018146664 -0.2867891 -0.8272304 0.084894195 -0.57036215 0.43444926 0.22378777
0.20115513 0.4530009 0.24890853 -0.20295025 -0.58738434 0.07414218 0.35383153 -0.42024612
0.11182151 0.47351232 -0.51150244 -0.63908553 0.2809318 -0.7206741 -0.29692972 0.23104055
-0.9641836 -0.31502658 0.4335868 -0.050625835 -0.45887074 -0.9111074 0.21736024 -0.3671044
-0.30342835 0.036469016 0.29977036 -0.25195053 0.09779189 0.50247544 -0.46888986 0.7700606
-0.6707481 0.7173102 0.06146341 0.1511193 0.19525354 0.9346785 0.4840942 0.48782548
-0.19197837 0.57245356 0.07197086 0.7878244 0.0083641615 -0.6437369 0.38675603 -0.90287256
-0.13284247 0.34818017 -0.6730198 -0.19794993 0.34988958 0.8750203 0.879682 -0.80246633
0.17135766 0.10320969 -0.52750576 -0.8282192 -0.44879714 -0.21095966 0.7575858 0.017070588
-0.051421896 -0.5575858 -0.109727055 0.47036967 -0.3817614 -0.33583957 0.26874724 0.66914314
-0.15131368 -0.37905562 0.3297784 -0.5873353 0.9611963 -0.20583959 1.3053972 -0.4188923
-1.8046502 0.36672714 0.14059404 -0.18385842 -0.19321378 -0.41312245 0.24299659 -0.81615824
-1.0429754 0.09957287 0.3573144 -0.7964686 0.51577985 0.08455083 -0.27954558 0.5353692
-1.3836076 0.74697113 0.37829828 0.30122548 0.013480185 1.9786559 0.9980954 1.4350349
-0.0982032 1.7443147 -0.08454745 0.29410228 0.36027223 -0.520227 0.1337547 -0.582217
-0.34218943 0.026751656 -0.3923202 -0.019565778 0.28751564 0.36520478 0.47494897 -1.4789755
0.19674988 -0.08138521 -0.5419429 -0.5571166 -1.548924 -0.15544528 0.56240267 -0.1357635
-0.37024552 -1.5922848 -0.23629944 1.0885072 -0.2797303 -0.76812017 -0.057511877 1.5404493
-0.48485625 -0.45105723 0.96090734 -0.084329404 0.57773584 -0.1805585 1.837859 -1.2369049
00000000: de01 2abf 0e89 9c3f ce3a 293f 6733 cc3e
00000010: 9a0f 8cbe 889b dabd 1289 8d3f 4690 11c0
00000020: eb29 c73e c64c ebbe 5ae9 46be 815c a2be
00000030: b7b8 6abf 49af 043f cfac 1b3f e3b5 b6be
00000040: f594 fabe b2d1 1e3f 337a 503e 93dc 47bf
00000050: b43c 693f a5ef 7e3f 173d 1c3f 42ec 303f
00000060: a363 5ebf 3b63 223f e1bc 6ebb 9483 b33e
00000070: acb0 a13f 9f84 8f3b b64f 5e3e 4b31 b13d
00000080: 029a 9cbe 6dfc 54be f3c6 c53e 05ea 5cbd
00000090: 0f02 0abf 3c19 90be d94d 5b3d db4a 54bf
000000a0: e48a 9f3f 3b20 443f 1209 b83e b682 adbe
000000b0: 2adf 84bf eacc 42bf d8c4 12be 308f 01bf
000000c0: 6361 29bf a141 02bf 888d 40bf fdaf ff3e
000000d0: a8a7 cc3d 0565 b3be fe85 6fbd 9125 c23e
000000e0: c5c0 50be b28f d4bd 9e70 0c3f 7481 7dbe
000000f0: 7c7a 19be 8689 cabe 1707 cf3d 8d31 a7be
00000100: 0652 003d 79ca a43e 7cd6 303f b0c1 f73e
00000110: 0282 53bf ad16 c1be 18a1 5c3f 8529 8abe
00000120: c19a dd3e b055 12bf 1d60 233f d597 b63e
00000130: 17dc bbbe ada4 2b3f 4aac 1bbf 16cd d53e
00000140: 3f3e cb3e 151d 1c3f a97c 76be 3569 3fbf
00000150: e66f 363f 1208 25be 4ee4 21be 5a8f 4abe
00000160: 7487 22bf f80c b7be 688e ce3e c41f 1f3f
00000170: 5449 48bd 935a 08bf 0b54 6a3f c240 bcbe
00000180: 593b 7cbf 544e ae3e d17d 39be 2d1e a5bf
00000190: a193 b93e 7835 d43e 587f ce3e 9611 d0be
000001a0: 1672 fe3e 50a8 94bc 05d6 92be 5fc5 53bf
000001b0: 02dd ad3d 4103 12bf 2270 de3e 9f28 653e
000001c0: 9cfb 4d3e bcef e73e e1e1 7e3e 31d2 4fbe
000001d0: d25e 16bf dbd7 973d 6829 b53e 802a d7be
000001e0: ad02 e53d 3570 f23e d3f1 02bf 1c9b 23bf
000001f0: 4bd6 8f3e 197e 38bf 2c07 98be e595 6c3e
00000200: bdd4 76bf 2a4b a1be 17ff dd3e 095d 4fbd
00000210: 1bf1 eabe 563e 69bf af93 5e3e 1cf5 bbbe
00000220: f65a 9bbe 8960 153d 807b 993e a9ff 80be
00000230: 1d47 c83d 3ba2 003f 5512 f0be b122 453f
00000240: 26b6 2bbf a4a1 373f 0ec1 7b3d 05bf 1a3e
00000250: 8bf0 473e 1747 6f3f 32db f73e 43c4 f93e
00000260: fa95 44be 518c 123f 7565 933d dcae 493f
00000270: d609 093c f1cb 24bf e304 c63e a822 67bf
00000280: db07 08be ac44 b23e 074b 2cbf 63b3 4abe
00000290: ba24 b33e 5501 603f d732 613f 6f6e 4dbf
000002a0: 6278 2f3e 9a5f d33d 9e0a 07bf 2c06 54bf
000002b0: bdc8 e5be cf05 58be 25f1 413f 9ed7 8b3c
000002c0: c49f 52bd f1bd 0ebf 94b8 e0bd 4bd4 f03e
000002d0: 3b76 c3be 2af3 abbe 3d99 893e f74c 2b3f
000002e0: f9f1 1abe 9413 c2be b7d8 a83e 9b5b 16bf
000002f0: f610 763f 9dc7 52be 4117 a73f 0d79 d6be
00000300: c7fe e6bf a9c3 bb3e e2f7 0f3e 6245 3cbe
00000310: d5d9 45be c984 d3be 19d4 783e bfef 50bf
00000320: 3880 85bf dcec cb3d eaf1 b63e 5ee5 4bbf
00000330: 260a 043f fc28 ad3d 9920 8fbe f50d 093f
00000340: 0e1a b1bf 8039 3f3f 50b0 c13e 3a3a 9a3e
00000350: fedb 5c3c 9944 fd3f 2e83 7f3f 39af b73f
00000360: c21e c9bd b445 df3f 3727 adbd 9394 963e
00000370: 9a75 b83e 992d 05bf fef6 083e 2c0c 15bf
00000380: 7433 afbe 4a26 db3c 31de c8be 6948 a0bc
00000390: 4035 933e 1ffc ba3e 832c f33e 124f bdbf
000003a0: cd78 493e 4aad a6bd c5bc 0abf 329f 0ebf
000003b0: 2443 c6bf 0c2d 1fbe 9ff9 0f3f 9605 0bbe
000003c0: d290 bdbe fdcf cbbf 7bf8 71be 3454 8b3f
000003d0: cf38 8fbe 86a3 44bf 9391 6bbd 712d c53f
000003e0: 143f f8be f9f0 e6be 06fe 753f e5b4 acbd
000003f0: 7fe6 133f 54e4 38be f73e eb3f e652 9ebf

bias f4 [64]
-0.39671695 0.02776968 0.08588709 -0.16368495 0.19516642 -0.14843036 0.3222151 0.34175953
-0.17874947 -0.0016479396 0.18163474 -0.079697214 0.15218881 -0.28849003 -0.40718064 0.043883342
-0.385054 0.35060048 -0.38205045 0.51460695 0.63145596 -0.30673817 0.30148482 0.28355902
0.23583251 0.510714 0.30365807 -0.17200157 0.38107556 0.4256384 -0.30193055 -0.48800468
0.538818 -0.18039736 0.45674098 0.39469212 0.32703418 -0.2257766 0.5877641 -0.3289644
0.28858384 0.3145856 0.18315949 -0.34074306 0.28654042 -0.47260222 -0.3296407 0.354103
0.4819077 0.14618519 -0.23604845 0.088280074 -0.03420723 0.2590258 0.08795127 0.11248447
0.07885422 -0.060842015 0.19143437 0.24845535 -0.7270056 -0.21088345 0.5044 0.059935734
00000000: 7c1e cbbe 3d7d e33c 92e5 af3d 079d 27be
00000010: b5d9 473e 21fe 17be 61f9 a43e 1bfb ae3e
00000020: 1a0a 37be adff d7ba 75fe 393e 4b38 a3bd
00000030: 62d7 1b3e f7b4 93be fb79 d0be 05bf 333d
00000040: cc25 c5be e881 b33e 1e9c c3be 48bd 033f
00000050: 19a7 213f c90c 9dbe 385c 9a3e a62e 913e
00000060: 147e 713e 27be 023f 1279 9b3e 2e21 30be
00000070: 561c c33e 47ed d93e a496 9abe c0db f9be
00000080: faef 093f 16ba 38be f4d9 e93e 1615 ca3e
00000090: 0671 a73e fb31 67be b577 163f 066e a8be
000000a0: 43c1 933e 5d11 a13e 298e 3b3e e075 aebe
000000b0: 6db5 923e ebf8 f1be aac6 a8be fd4c b53e
000000c0: 9bbc f63e 92b1 153e afb6 71be 2fcc b43d
000000d0: e11c 0cbd 089f 843e cc1f b43d 425e e63d
000000e0: 527e a13d 7a35 79bd 5f07 443e 146b 7e3e
000000f0: 0a1d 3abf d5f1 57be 5c20 013f 2c7f 753d

weight f4 [1, 64]
-1.8425939 1.0482117 1.6652274 -2.6160755 1.1716205 -1.4896011 1.2068416 1.4956915
-1.8273522 1.87987 1.1072906 -1.5012889 -2.0264187 -1.2275041 -1.3105899 1.26806
1.4533201 1.2529763 -1.0956559 1.0429695 1.4914026 -1.4833497 1.8992244 1.3065746
-1.3596413 1.623565 0.9832414 -2.486592 1.1876905 1.0782676 -1.2538575 1.1690725
1.213241 1.8874052 1.0622579 -1.3328863 -1.7669173 -1.7257773 1.3055767 -1.253459
1.2362288 -2.0437622 -1.204603 -2.0118825 1.1356407 -1.158948 -1.3592306 1.2901231
1.3683796 1.0317861 -1.6990767 1.3772467 -1.187357 1.2631412 2.311019 1.5249702
1.591358 -1.7520528 1.096641 1.047964 -1.2635947 1.5114186 1.3445559 1.5796195
00000000: 1eda ebbf cd2b 863f 2c26 d53f c86d 27c0
00000010: a9f7 953f 40ab bebf c979 9a3f d272 bf3f
00000020: ade6 e9bf 959f f03f b3bb 8d3f 3c2a c0bf
00000030: d8b0 01c0 db1e 9dbf 69c1 a7bf ca4f a23f
00000040: 6506 ba3f 8761 a03f 743e 8cbf 0680 853f
00000050: 48e6 be3f 67de bdbf c919 f33f d63d a73f
00000060: ba08 aebf fad0 cf3f b5b5 7b3f 5324 1fc0
00000070: 3e06 983f ac04 8a3f 677e a0bf 2ba4 953f
00000080: 7b4b 9b3f 7e96 f13f 11f8 873f 059c aabf
00000090: 592a e2bf 45e6 dcbf 231d a73f 5871 a0bf
000000a0: bf3c 9e3f 00cd 02c0 6e30 9abf afc2 00c0
000000b0: ad5c 913f 6858 94bf 45fb adbf c122 a53f
000000c0: 1027 af3f 9111 843f 587b d9bf 9f49 b03f
000000d0: 50fb 97bf 9cae a13f bce7 1340 3932 c33f
000000e0: 9eb1 cb3f 4443 e0bf bb5e 8c3f af23 863f
000000f0: 79bd a1bf 2a76 c13f 681a ac3f f930 ca3f
