data/1008CartPole-v0_dqn_dueling/1008CartPole-v0_dqn_dueling_s20/pyt_save/model.pt (torch, 141503 bytes, 9 tensors)

weight f4 [128, 4]
00000000: 4461 dfbd 4f33 17be 33d3 973e ffe6 94be
00000010: fe19 673f 1bb2 5ebe 93fb f7be d9c1 36be
00000020: 8a06 903e 6b1c b03e 27ec c03f d20c 993e
00000030: a8e5 2abe 2805 6e3e eda0 263f 7c42 ad3e
00000040: a9d7 85be 6658 5bbe 4c20 d5bd f099 44be
00000050: 2bf7 7a3e 8621 f2bd 6c94 19be a680 6f3d
00000060: ed78 3c3f 1df9 683e 9360 773f 7f48 2e3e
00000070: 8457 8b3d 426a cb3d ace7 133f 6f03 74be
00000080: 1c7f 533e 9e13 793d ba96 b53d f36a 2b3e
00000090: c184 32be 0750 6a3e c81b 1d3f 6b40 393c
000000a0: 9cdb 1dbf 8c72 27be 398e 0cbd f6ef 29bd
000000b0: ef38 413f 3369 a6be 45d8 9fbf e9de cabe
000000c0: c205 053c 7a13 4b3e 30af e83e 8592 983e
000000d0: fdac c9bd 36a5 093e 17cf 9bbf 802b 29be
000000e0: 82ce debd 391f 9abe 7670 98be 523d 8f3e
000000f0: 3ca5 b93d 570c a6be d977 e7bd a6ea 78be
00000100: 4eb3 d33d a8b1 55bb 5795 683f 982c a63e
00000110: 934b d2be 23b8 e7bd 2ec4 bf3e 54f4 a2be
00000120: 71e7 683f 95b0 9cbd 182d 5bbf 6ad6 25be
00000130: 4ca8 1bbf 06ed 7c3e d9ae 60bc ffbb 3f3e
00000140: a753 d2be d55f 93be 3303 bf3e 5781 24be
00000150: 0cba 7abe b843 543e 43a7 8dbd 5a4f e2bd
00000160: 045c fcbd 6479 80be 4c83 133f cc9f 3cbe
00000170: c89f 29bd 32b5 263e 4746 0c3f bbc1 6fbe
00000180: be62 783e 1230 073f 0bfd ddbe 2d25 5e3e
00000190: ad77 893c 15cf 7fbd 2263 433f e779 9c3e
000001a0: 9886 81be 936f 6abe f031 97be b048 b33d
000001b0: d168 ee3e 8de3 8dbe 5fd8 273d ef15 8d3c
000001c0: b664 a2be eafc 1fbe 2ae8 dd3e 529e 82be
000001d0: 382e 013f ec99 42be bb2e 07bf 50d7 40be
000001e0: 9ade 033f c58d 4a3e dbb9 aebf fc9e 01bd
000001f0: d945 48be 6b13 de3e 87ed 1b3f c348 e93e
00000200: 664c 1c3f 1118 6ebe 8ba6 23bf 9af0 c1be
00000210: 0ea2 22be 43bf 2f3e 14c6 bbbc da0a 46be
00000220: bd11 abbe 111d 823e f7c9 b5be ab51 b33b
00000230: cf73 d33e e672 c9be 8c04 f1be d447 823d
00000240: 0776 113f bf48 f93e efc1 8e3f b3e7 a33e
00000250: 7d89 41bd d224 873e 8ca9 e1be 225c 4f3e
00000260: be94 263d f7a1 88be 3912 0fbf b48e 3bbe
00000270: 1df8 3b3d ce5a e93e 5808 b83f e04e e63e
00000280: 1653 533f 1976 ccbe d9da 88bf 8bce bbbe
00000290: b9da c53d a3af ca3e ff5e 973f fe90 553c
000002a0: 8954 9a3b 2da4 a23d c546 053f 6b63 713e
000002b0: 55dc cfbd 7e79 e53e 9468 5f3f abd9 cb3e
000002c0: c3f0 043f 2082 afbe dcb3 acbe 3fc8 71be
000002d0: ab9a febe 9fcd 603e 263f 2d3e 18c0 2e3e
000002e0: 243b ecbe 2149 83bd b8c7 38bf 1c77 f0bd
000002f0: c564 aa3e 416b 70be 0df0 623f 8fa9 b9bc
00000300: 0a4c a93e ce09 f73e da84 c53f ebbc c93e
00000310: c441 c7bd a884 a9be 768d 3b3e 31aa 90bc
00000320: 520e 9dbe 1a57 d43e 5895 c9be 69c3 223e
00000330: 4721 853d f020 ff3d 77d1 6cbe a34b 333e
00000340: 0cff 1ebd b382 bcbe d01a a8bf 3c4e e5be
00000350: 593f 2fbe 47eb d3be 6998 b6bf 7bcb cabe
00000360: 4571 a63e d550 d93e 153c 7c3f 0f4f d43e
00000370: 5180 9fba 106a bdbe d55d 4abe 17c0 56be
00000380: 8937 b7be a8fa 5a3e 12ef 4dbe bcd8 61be
00000390: 6021 00bf 72fb 68be 395f 3bbe ef2f 02be
000003a0: fc13 e73d 0336 853d dee8 b83e b2ce b13d
000003b0: 7d44 5ebd ec71 b4be 649d 003e b273 97bd
000003c0: 43bd 12bf a377 523e 91e6 fabe b412 5a3e
000003d0: aa20 d63e df1f 5abe 2fb6 6cbc ad5e cb3d
000003e0: a2c5 69be 844e afbe 56ae 40bf da6f acbe
000003f0: d981 a2be 4e06 a93c 3984 0b3e e708 90bd
-0.10907224 -0.14765666 0.2965332 -0.29082486 0.90274036 -0.2174763 -0.48434123 -0.17847385
0.2812999 0.3439668 1.5072068 0.29892594 -0.1668917 0.23244154 0.65089303 0.33839786
-0.26141098 -0.2142044 -0.10406551 -0.19199347 0.2450835 -0.118228 -0.14998025 0.058472298
0.7362202 0.22751279 0.96631736 0.17019843 0.06803802 0.099323764 0.5777538 -0.23829435
0.20653957 0.060809724 0.088666394 0.16740017 -0.17433454 0.2288209 0.61370516 0.011306862
-0.6166322 -0.1635229 -0.03431532 -0.04148861 0.754775 -0.32502136 -1.2487875 -0.39623192
0.008119049 0.19831648 0.45446157 0.29799286 -0.09847448 0.13441929 -1.2172574 -0.165205
-0.10879232 -0.30101946 -0.297733 0.2797647 0.09064719 -0.3243129 -0.11302156 -0.24308261
0.10336934 -0.0032607112 0.90852875 0.32455897 -0.41073284 -0.11314418 0.3745436 -0.31827033
0.9097815 -0.07650868 -0.8561568 -0.16195074 -0.60803676 0.24699792 -0.013713562 0.18724059
-0.41079447 -0.28784052 0.37307128 -0.16064964 -0.24485034 0.20728958 -0.06916668 -0.11050291
-0.12322238 -0.25092614 0.5762222 -0.18420333 -0.041412145 0.16280058 0.54794735 -0.23413746
0.24256417 0.52807724 -0.4335712 0.21693869 0.016780699 -0.06245335 0.7632314 0.30561754
-0.25298 -0.22894125 -0.29530287 0.087540984 0.46564344 -0.2771267 0.040977832 0.017222373
-0.3171746 -0.15623823 0.4334119 -0.25511414 0.5046115 -0.19004029 -0.5280568 -0.18832135
0.5151154 0.19780643 -1.3650469 -0.03164576 -0.19557895 0.4337419 0.6090931 0.45563325
0.61054075 -0.23251368 -0.63926 -0.37878877 -0.15882131 0.17162804 -0.0229216 -0.19340077
-0.3341197 0.254128 -0.3550565 0.005472382 0.41299292 -0.39345473 -0.47073781 0.063613564
0.5682072 0.48688313 1.1152934 0.3201271 -0.04725026 0.2639528 -0.44074667 0.2024999
0.040669195 -0.2668607 -0.5588718 -0.18316156 0.045890916 0.4557709 1.4377546 0.44982052
0.82548654 -0.3993385 -1.0691787 -0.36681017 0.09660859 0.39587125 1.1825866 0.013035057
0.0047097844 0.0794147 0.5206111 0.23573081 -0.10149447 0.44819254 0.8726895 0.39814505
0.51929873 -0.34278965 -0.33730972 -0.23611544 -0.49727377 0.21953438 0.1691862 0.17065465
-0.4613887 -0.064104326 -0.72179747 -0.11741468 0.33280006 -0.23478414 0.8864754 -0.02266386
0.33065826 0.48249668 1.5431168 0.39401945 -0.09729341 -0.3310902 0.18315682 -0.017659279
-0.30674988 0.41472703 -0.39371753 0.15894856 0.06500488 0.12457454 -0.2312678 0.17509322
-0.03881745 -0.36818466 -1.3133183 -0.4478625 -0.17114009 -0.4139044 -1.4265262 -0.39608368
0.32508293 0.42444482 0.9852918 0.41466567 -0.0012168979 -0.36994982 -0.19762357 -0.20971714
-0.35784557 0.2138468 -0.2011073 -0.22055334 -0.50050926 -0.22752169 -0.18298043 -0.12713598
0.112831086 0.065044425 0.36115164 0.08682002 -0.054264534 -0.35243165 0.1256004 -0.07395114
-0.5732004 0.2055345 -0.49004033 0.21296197 0.41821796 -0.2130122 -0.014447733 0.09930167
-0.22829297 -0.3423959 -0.75266016 -0.33679086 -0.3173969 0.02063289 0.13624658 -0.07032948

bias f4 [128]
00000000: bf42 263f 09c7 ebbe 7e68 1a3e da34 e9be
00000010: 470d e43e d575 b1be ff3b 27be 1dcf 1c3f
00000020: 34fc 2c3f 1f61 af3e 42a4 45be 77a6 2dbf
00000030: 24ea 2f3f 502c 0fbf 2d8e 0cbf ca89 da3e
00000040: 4db5 1cbf 01f6 353f 9696 4dbe 7471 4fbf
00000050: e92d 04bd abb0 01bf 524c 883e 5ec8 2d3f
00000060: be62 1fbf 8e26 3abf 2dff 323f 9b72 4b3f
00000070: 41a6 343f 98be ca3e 243f aebe b0ec 853e
00000080: d6da 03bf 50b0 d83e e121 1d3f 552d 2d3f
00000090: d656 dbbd d1d1 fe3e 36e0 f63e d955 f2bd
000000a0: e4b0 2dbf cf76 e1be e136 dcbe db97 c7be
000000b0: 1e40 bdbe 0538 83be ce1f 29bf c23f d3be
000000c0: 2ae0 85be d247 c33e 3942 043f 5bf5 e53e
000000d0: 126a e3be 6d2e c2be 2df2 05be 6def a63e
000000e0: 2658 40bf 49a0 32be 9bfe e73e 500e 2f3f
000000f0: f405 d6be 3bab 523f e7c1 dabe b213 f03e
00000100: 6e8b 003e c0ab ddbe d222 cebe a474 0bbf
00000110: 86a0 2e3f 923a ff3e 1c39 49be 02ff 03bd
00000120: 7903 f83e fc20 a0be 7522 01be 0eff 093f
00000130: 8f73 323f b809 8abd c3ec 6b3e e593 c6be
00000140: 013f 1cbf c9e1 cd3e 594f aa3e 5c6c f9be
00000150: 3596 b3be a771 17bf 6ece 033f fdec edbd
00000160: 0c07 46be 12ec 9fbd 406c a8be 937a ae3e
00000170: 2969 163f 2074 88be b060 23bf 2d95 0a3e
00000180: 2ac2 15be 3b85 0bbf dd0e 3a3f f1de c8be
00000190: ffa8 373f c2c1 a23b 58d9 063f 9050 d6be
000001a0: 9451 d8be 231d 343f 4a51 f6be e455 d7bd
000001b0: 111a 243f eeb8 93be 55e7 793e 805d 16bf
000001c0: f7be 463e 1949 6dbe aa19 3d3f 7b54 afbd
000001d0: 4807 24bd 648b fd3e 3f9e 8b3e ddf0 3d3f
000001e0: ed8e 113f b949 c3be bb08 c8be 26a5 7dbe
000001f0: 2a1d bbbe ce15 90be 39d6 ec3d a0d7 1a3f
0.64945596 -0.4605029 0.15078923 -0.45548135 0.4454138 -0.3466021 -0.1633148 0.6125353
0.6757233 0.34253785 -0.1930094 -0.6783213 0.68716645 -0.5592699 -0.54904443 0.4268325
-0.61214143 0.710785 -0.20076975 -0.8103249 -0.032270346 -0.506602 0.26620728 0.6788386
-0.62260044 -0.7271508 0.6992062 0.7947175 0.70566183 0.39598536 -0.34032547 0.2615714
-0.5150579 0.42322016 0.6137982 0.67647296 -0.10709922 0.49769452 0.48217934 -0.118327804
-0.6784804 -0.44035956 -0.4301062 -0.38983044 -0.3696298 -0.25628677 -0.66064155 -0.4125958
-0.26147586 0.38140732 0.5166355 0.44913754 -0.44416863 -0.37926045 -0.13080664 0.32604542
-0.75134504 -0.17443956 0.45311436 0.68381214 -0.41801417 0.82292527 -0.4272606 0.46890026
0.12553188 -0.43295097 -0.4026094 -0.54474854 0.6821369 0.49849373 -0.19650692 -0.032225616
0.4844015 -0.31275165 -0.126108 0.5390481 0.6970758 -0.06740135 0.23039536 -0.3878471
-0.61033636 0.40211323 0.33263662 -0.48715484 -0.35075536 -0.59157795 0.5148686 -0.116174676
-0.19338626 -0.07808699 -0.32895088 0.34077892 0.5875421 -0.26651096 -0.6381941 0.13533469
-0.14624849 -0.5450017 0.7267893 -0.3923259 0.7174224 0.0049669454 0.5267539 -0.4185834
-0.4224974 0.7035696 -0.48108894 -0.10514429 0.64102274 -0.28852028 0.24404652 -0.5873642
0.19408785 -0.23172416 0.73867285 -0.08561035 -0.040046006 0.4952041 0.2726917 0.74195653
0.5685871 -0.38142183 -0.3906916 -0.2477003 -0.36545688 -0.28141636 0.11564297 0.6048527

weight f4 [128, 128]
00000000: 8587 11be f238 473d 8a86 2bbe f2a2 7fbd
00000010: c791 5c3d 85c9 323e f668 22bd e474 28bd
00000020: d769 80be 7805 74be ff99 3c38 1d8c 613d
00000030: 2842 63be f8a0 423e 780a 6abc cf41 b73c
00000040: badd 29bd 452e 98bc c1a4 693e c5aa 373d
00000050: 44ff 8cbd 500e d03d a970 8dbd 2d48 45be
00000060: 8c03 62bc 6c83 cfbd d39c 08be 3b60 e0bd
00000070: 8d13 083d 4dce 9d3d 65a3 573e e9a7 dcbc
00000080: 928b 203d ec44 48be e9d8 c6bd 6c13 03be
00000090: 1541 fb3c 6044 8ebd 69b0 8f3c dd84 913d
000000a0: 0eea 953d 540a 77bd 33e7 50bc f468 553e
000000b0: b12f b8bd 3263 9c3e b825 0e3e 9d8f 44bd
000000c0: b29a 923d 07e8 33be 8ea1 2dbe 2501 12be
000000d0: e454 943e 13a2 27be 181d 0cbe 4004 2d3d
000000e0: 75f6 0f3d 2171 b33d 304b 2cbe da43 62be
000000f0: 9a97 9ebd fb6b 3bbe 4187 36be 368a 1dbc
00000100: 7e0f ff3d 5d35 b13e 5671 f83d e293 a33e
00000110: f2e4 1abe aef3 45be 6350 88bd b0d4 403d
00000120: 336c 53be c25b 3e3d 6b2e 9f3d 0d79 28be
00000130: 3d3a 1fbe 96a3 cabb a56e cbbd deb2 073d
00000140: 4783 103e fab9 adbd df25 46bd 009a 873c
00000150: ccd9 a93e 1fc6 96bd b528 e93b 9b94 d63e
00000160: 75ba 263d dfb9 893b 12b0 28bd b9b2 763c
00000170: 8eb7 15be 5918 a53d 7a87 84bc 55e8 1e3e
00000180: aa08 3e3e 9aef 39bd 6f40 30be 258c e7bd
00000190: 50b2 d2bc 01cd e2bd b084 1ebe 5b52 0bbe
000001a0: 307b 68bc 1e6f 62be ca8d 32bd e12c 703d
000001b0: a8c5 ae3c 694b 893d a748 2abd 3c27 963e
000001c0: f968 90bd 9f57 bb3d f7e7 1abe 6b8e 3b3d
000001d0: 9064 2bbe 6e78 19be 01f5 91be 9784 a7be
000001e0: 99c0 05be 1d94 a2bb ac2f 943e 3653 a53d
000001f0: ea8b a8bd 95f1 4b3e cd2f acbd 2ab4 9fbe
00000200: 2b02 8c3d f4b2 a5bd e88d 87bd 2581 a23d
00000210: fa8a 143d ef1c 8e3d e335 93bd 4ac8 b03d
00000220: ca5d ffbc 06b4 b7bc 1854 a03c 7cae 673d
00000230: 3c63 d2bb 1277 ccbc 973c ae3d 8fbb 24bc
00000240: 4063 a83b 9dd1 85bd bf19 9e3d 33b0 95bd
00000250: bcf4 adbd 60a5 b8bc 769f 813d d45f b23c
00000260: 800f 6b3b 4f1b 92bd e148 bfbd ee1e abbd
00000270: e5dc 20bd 552b 9f3c f82b feba a96d bcbd
00000280: 7b9c d9bc bf7b ba3c 3f17 123d 610d 1ebc
00000290: 8490 643d e13a 9abd 7b1f b7bd 0d49 afbd
000002a0: 3e3d 25bd a1d9 48bd e94b a4bd 5b0e 6cbd
000002b0: e64c 503d 61b6 ab3d 3e0a 813d 4db0 2fbd
000002c0: 70f5 25bd 21f7 713d 7841 54bd 5892 38bd
000002d0: 60bd 243d 42a3 2e3d 881a 08bd e1e5 3bbd
000002e0: a580 29bd 99fe 4bbd c777 3ebd 9a33 753d
000002f0: 0d8a 4e3d 6f1b 05bd e094 87bd e927 353d
00000300: 9730 8d3d 2194 1abd c4dc 7dbd 91cc 1fbd
00000310: 88c4 0c3d bd01 17bd 914b 413d 1990 ffbc
00000320: ca5c 423d 07f6 b33d 0f3f d5ba e56c 4c3c
00000330: fafd 623d d210 d6bc ea3b 3abd 1748 67bd
00000340: 3a91 5c3d c867 083d ca22 15bd 7334 11bd
00000350: 202e 5bbc c21c 7f3d 77ac 0f3d 536f 9cbd
00000360: 1fa2 6abd 82db ab3d 7df8 973d e76f 47bd
00000370: 318c 10bc e89d 59bc daee 2a3d fb2b a9bd
00000380: 65fa 29bb d99f 9b3d 19dc 073d d833 3a3c
00000390: 7030 dd3c af44 803d e509 883d 2f01 a8bd
000003a0: 64ef a63c 264e 1dbd c0f2 eaba e681 98bd
000003b0: 77d8 a0bd 52f2 b4bd 955e 6e3b 6677 5d3d
000003c0: 1d99 94bd b19c 973d dd51 66bd a68d 753d
000003d0: 7b19 36bd 9553 523d 7934 9abd 7689 0cbd
000003e0: f06b bcba 1003 1c3c 89ee 2fbc 30cd bbbd
000003f0: e522 b3bd 994e 913d 7295 3fbd 049e 913d
-0.14211853 0.04863829 -0.16750541 -0.062411256 0.05384996 0.17459686 -0.03965088 -0.0411271
-0.2508075 -0.23830211 4.4966113e-05 0.055065263 -0.22193205 0.19006717 -0.0142847225 0.022370247
-0.04147122 -0.01857675 0.22816755 0.044840593 -0.068846256 0.1015898 -0.06906254 -0.19265814
-0.013794791 -0.101324886 -0.13341074 -0.109558545 0.03322177 0.077053644 0.21058424 -0.026935535
0.039195605 -0.19557542 -0.09709341 -0.12800378 0.030670682 -0.06946635 0.017540174 0.0710542
0.07320033 -0.060312584 -0.012750435 0.20840818 -0.089934714 0.3054443 0.13881576 -0.047988523
0.07158412 -0.1756898 -0.1695616 -0.14258249 0.28971016 -0.1637042 -0.13682973 0.04224038
0.03514715 0.08761812 -0.16825557 -0.22096196 -0.077437595 -0.1830291 -0.17825033 -0.009615472
0.12454127 0.34611025 0.12130992 0.31948763 -0.15126398 -0.19331238 -0.066559575 0.047077835
-0.20646743 0.046474226 0.077725254 -0.16452427 -0.1554956 -0.0061840517 -0.09933213 0.033129565
0.14112578 -0.08482738 -0.04837596 0.016552925 0.33173978 -0.07362007 0.0071154484 0.41910252
0.040705163 0.0042030658 -0.04118354 0.015057259 -0.14620802 0.080612846 -0.016177882 0.15518315
0.18557993 -0.045394517 -0.1721208 -0.11306027 -0.025719792 -0.11074258 -0.15480304 -0.13605635
-0.014189526 -0.221127 -0.04359225 0.05863655 0.021334484 0.067038365 -0.041573193 0.29326808
-0.07051272 0.09147572 -0.1512755 0.045790117 -0.1673758 -0.14987347 -0.28507236 -0.32718346
-0.13061751 -0.004961504 0.2894262 0.08072512 -0.082298115 0.19916375 -0.08407555 -0.31192142
0.06836351 -0.08090773 -0.06618863 0.079347886 0.03626535 0.069391124 -0.071880125 0.08631952
-0.031172652 -0.022424709 0.019571349 0.056562886 -0.006420521 -0.02495912 0.0850765 -0.010054483
0.0051387846 -0.06534121 0.077197544 -0.07308998 -0.08493945 -0.022539794 0.06329243 0.02177421
0.0035867393 -0.07134115 -0.093400724 -0.08355509 -0.03927316 0.019429842 -0.0019391766 -0.092006035
-0.026563874 0.022764085 0.0356667 -0.0096467445 0.055801883 -0.075307615 -0.08941551 -0.08558855
-0.04034161 -0.049035672 -0.08022291 -0.057630878 0.050854586 0.083843954 0.06300782 -0.042892743
-0.04051727 0.05907357 -0.05182025 -0.04506144 0.040219665 0.042636164 -0.033228427 -0.045873526
-0.04138245 -0.04980335 -0.046500947 0.059863664 0.050424624 -0.032496866 -0.066201925 0.044227514
0.068940334 -0.037738923 -0.061978117 -0.03901345 0.034367114 -0.036866892 0.047191206 -0.03119664
0.04745177 0.0878716 -0.0016269403 0.012477134 0.055417992 -0.026131067 -0.045467295 -0.056465235
0.053849436 0.0333021 -0.03641013 -0.03545041 -0.013377696 0.062283285 0.035076585 -0.07638421
-0.057283517 0.08391477 0.07420442 -0.048690703 -0.008822487 -0.013282277 0.041731693 -0.08260342
-0.00259366 0.07598848 0.033168886 0.0113649 0.027000636 0.062631 0.06642512 -0.08203351
0.020377822 -0.038404606 -0.0017925128 -0.07446651 -0.078537874 -0.088352814 0.0036372293 0.054068945
-0.072557665 0.074029334 -0.056230415 0.05994954 -0.044457894 0.05134924 -0.075295396 -0.03431078
-0.001437543 0.0095222145 -0.010738024 -0.09169996 -0.0874689 0.070950694 -0.04677338 0.07110217

bias f4 [128]
00000000: cc3d 21be 5fe0 9abc 336a 34bd e6c1 80bd
00000010: 4395 59bd 5d9d 4dbb 4399 4abd d3e2 8a3d
00000020: 586b 20be ad5a e93d b10f c1bd 75f6 b4bd
00000030: b6e5 873b 0679 c0bd 488a 07bc 9868 28bc
00000040: ec23 2abc 1c0f 853d 2db6 e2bc fcae 443d
00000050: d507 4cbd 2069 1fbe a89d c6bd 05c3 0a3d
00000060: 5465 96bd 36ce 32be bb68 cfbd dcd3 723d
00000070: 8f9e 2cbe 00a4 31be 929e 00bd 178c 77bd
00000080: 72d5 b1bd a04e d8bd c0ab e73c 52c7 91bd
00000090: 6dbc 32bc df87 a5bc ab63 0a3d ec14 623d
000000a0: f3a2 10bd 7275 d7bd 7e57 dcbd 20b7 95bd
000000b0: a0be 9dbd e3b2 f53c a81d dcbd 5a09 5a3d
000000c0: 90a6 15bd 7b83 6fbd 6c37 04bd 7819 09bd
000000d0: d27c 883d 70a6 4bbe 0825 503d e041 00bd
000000e0: 70c4 04be 7e37 a8bd 42e2 8e3d 9881 22be
000000f0: 10b6 f4bd 80a9 533c 924a 09be 2175 8cbd
00000100: e823 55bc 06fe 053e 58d6 c83b 5522 fbbd
00000110: d2ec 93bd 6cb8 a4bd 6c7e b33c b063 9abd
00000120: 00b8 abbd 82ac 83bd 020c 7cbd f50b 083e
00000130: 1cc0 85bd 8d1c 5b3d 86f4 5fbd 0091 dbbc
00000140: 47d4 bcbd 312d 8dbd 551b acbd 5401 df3c
00000150: c515 bcbd b3ad 4ebe 52e7 cdbd a9c0 583c
00000160: 903d 59bd e34f b6bd 1668 84bd fcf9 96bc
00000170: 94d6 013d 6e95 663c 3f8f 73bd 95a3 c4bc
00000180: 1504 eb3c 1ab0 33bb 0774 e0bd cd3a 2bbe
00000190: 34b7 ddbd 7983 3abe 1a87 15bd 22de f53d
000001a0: 2307 6ebd 8a8c 64bc 0364 44bd f24c 0abe
000001b0: 1e32 5abd daf7 31bd ebaa ce3b c8b4 793c
000001c0: f8af a1bd c4c5 28bd c302 87bd 0f10 4dbe
000001d0: a510 e7bd 1aa3 983d d39b e1bc ad9d 16be
000001e0: 3c54 80bd a2c6 633c 0432 1dbd c7df c1bd
000001f0: 305f f4bd f033 05be 3d07 6dbd 2943 f8bd
-0.1574623 -0.018905817 -0.044046592 -0.06286983 -0.053120863 -0.0031374313 -0.049462568 0.067815445
-0.15665948 0.11394248 -0.09426821 -0.088360704 0.0041472567 -0.093980834 -0.008272715 -0.010278843
-0.010384541 0.064970225 -0.027674759 0.04801844 -0.049812157 -0.15567446 -0.09698039 0.03387739
-0.073435456 -0.17461476 -0.101273976 0.059284076 -0.1685736 -0.17347717 -0.031401224 -0.060436334
-0.086832896 -0.105618715 0.028280139 -0.071180955 -0.010909182 -0.02020639 0.033786457 0.055195734
-0.03531165 -0.10520448 -0.10758875 -0.07310319 -0.077023745 0.029992526 -0.10747844 0.053231575
-0.0365358 -0.058475 -0.032279417 -0.033471555 0.066644326 -0.1988771 0.050816566 -0.031312823
-0.1296556 -0.08213709 0.06976749 -0.15869749 -0.11948788 0.01291883 -0.13407353 -0.06858278
-0.013009049 0.13085184 0.0061290674 -0.12262408 -0.07222904 -0.08042988 0.021910869 -0.07538545
-0.083847046 -0.06429388 -0.06153489 0.13285811 -0.065307826 0.053494025 -0.054676555 -0.02680254
-0.09220176 -0.06893385 -0.08403651 0.027222313 -0.0918384 -0.20183448 -0.100538865 0.0132295275
-0.053037226 -0.08901956 -0.06465165 -0.018429749 0.03169878 0.014073713 -0.059462782 -0.024003783
0.02868847 -0.0027418197 -0.109596305 -0.1672165 -0.10825959 -0.18214215 -0.036505796 0.12005259
-0.058112275 -0.013949523 -0.04794694 -0.13505915 -0.05327045 -0.04344926 0.006306996 0.0152408555
-0.078948915 -0.04120423 -0.06592324 -0.20025657 -0.112824716 0.07452984 -0.027540123 -0.14708586
-0.062660664 0.013902338 -0.038377777 -0.0946651 -0.11932218 -0.13008094 -0.05786823 -0.12122185

weight f4 [2, 128]
00000000: fb8e 1f3e c08c 91bd 9b26 d13c e39a db3c
00000010: 6914 063e ddaf da3c 271d 42be 4de3 7cba
00000020: 7dee 63be a1e3 98be 8487 38bb a421 ef3c
00000030: ffe0 16bd cd5d 103e 40d5 1dbd 6eee 143d
00000040: 19ac 0a3d 7d9d c53b 4297 53bd 3483 ee3c
00000050: cad5 293d 6cda 8ebe a7e6 43bd 317d d7bc
00000060: ecd0 5dbd e83c ab3d 2b6f 11bd 35c2 be3c
00000070: c47b 23be 2d8c e3bb c50f ef3e 479d a8bd
00000080: 2a54 6ebe 6949 01bd 321f 913d 0b3a 863e
00000090: fc71 dc3c 21df c83c b90f 46bb c63b 363d
000000a0: 5021 4a3e d3d2 38be 0d0d 61be 2baf 213c
000000b0: 561e 86bc b00f 2fbb 9cc1 61be 11bf d7bb
000000c0: d9c0 dabd b89d ed3d 1c6c 013d f9f9 273d
000000d0: db31 673d b1e6 2fbe 46f6 a6ba 7b22 383d
000000e0: 0d0e 19bd 32e1 7f3d 7169 5a3d 8cbb debd
000000f0: 1aea 273d 80ee a5ba 7aa7 d03e 0fa7 98bd
00000100: 207b cabc b7c5 f23d 3869 8f3d 7254 713e
00000110: ea7e 93bd 8837 f0bc cf53 0a3c 0abc 1d3d
00000120: 947e 6fbe f949 41bd 05c0 22be 2c57 253e
00000130: 18d7 fc3d 188e ac3d 6588 c7bc b0d7 1abd
00000140: 67ba 283c 1388 ca3e e509 92bd 439c 033d
00000150: fced 4e3d bc61 4fbe 7f7a a7bd 423e 9bbd
00000160: 4ed5 503d 1c73 4cbd c63f f73c d462 be3b
00000170: 3e9d 0b3c f30e 9e3b e91a 1f3e 7cc3 553d
00000180: c880 6ebc 7505 17bc 1b82 0c3e 2832 48be
00000190: 0f90 513d 9524 75be 4385 193d 7ecc 0d3d
000001a0: b55e 393d fac1 893d f3a6 e1bc 5b9a 9f3c
000001b0: c800 2d3d 918d 823d 5ea4 ff3c 45f3 03bd
000001c0: fd38 a9bd fb8d 233d adf6 38be 107c 3ebe
000001d0: 1de0 05be 3a27 bbbc 2495 b23d 59d7 bdbe
000001e0: 9a28 c9bc abf1 843d 55f7 e8bc 041b 0a3d
000001f0: c031 10bd 3007 07bd b918 c43c 5ad7 3fbe
00000200: 65dc 33be ccab 0cbd 7102 3f3d 1df0 8ebd
00000210: 8afd cebc 16c0 483d 216b 793e 79c1 16bc
00000220: 2d43 723e 9049 bd3e 513e b0bb 91e4 813c
00000230: bbda 09bd 5758 88bd 8895 933d 8a71 33bd
00000240: ba1c d5bc 5a73 cf3a cb48 b0bc ea56 023d
00000250: 3ae8 503d 6dbc 863e 9e35 13bc b887 6f3c
00000260: 9e6c 58bd 6443 f6bb 141f 38bd f28a dc3a
00000270: 51e9 3d3e 7223 af3c d01a ddbe f748 47bd
00000280: e6ca e63d 29af 3fbd 93ad 283d c3d9 61be
00000290: ada7 8abd 1b95 903c affe 8d3d 2d4f d2bb
000002a0: 938b febd a7db bf3d 87f8 4a3e 7a02 033c
000002b0: c21c a73c 3b45 913d 6fe6 2e3e 13ec 353c
000002c0: c15d 4b3e fbd3 64bd b884 7cbd 8efc b73c
000002d0: 0c94 53bb a02e 793e 97c3 57bc 3cea 0b3d
000002e0: 7357 f43c 6860 b1bc c32e 5bbd 164b 433e
000002f0: 6df1 303d 308a b33c 4282 91be 7ad4 61bd
00000300: d405 7dbd 5f61 fabd c95c 1dbd a14c 82be
00000310: 1d36 0bbd 8fe5 8cbc 9aa1 aabc cf99 12bd
00000320: 333e 3f3e 688b 53bd 6b04 553e 226a 09be
00000330: 826e edbd 1e6a 9bbd f88e 0a3d 3efd 43bd
00000340: ff29 cb3c c0df abbe 13c6 303d 83c8 f43c
00000350: 7190 cb3d 1d1e 933e 813c f6bc 200f 07bd
00000360: b1d2 36bd e586 74bb 3bb1 ed3c 4bb5 c23b
00000370: 447d 673d 2cdf af3a 8fae 1ebe bd25 ba3a
00000380: 0ecf 2bbd 5500 243d 7a04 4bbe cf58 963e
00000390: 3447 59bd d4e2 2c3e 82a3 3d3b dea1 83bd
000003a0: ef16 1d3d ab64 833d fe6a 37bd 0d26 d2bb
000003b0: 6991 81bd f42e 80bd 915a 8cba a59c d03c
000003c0: fe03 373d 5e18 3d3c ec5a 093e c3ae 963e
000003d0: dba4 9dbc 6f9c 6bbc e036 45be 81f3 b23e
000003e0: 00a5 09bd 2ad8 593d 2d7b 46bd 8c6a 013d
000003f0: 8400 ea3d 98cc d13b 673e 013d f027 3e3e
0.15581886 -0.07106924 0.025531104 0.026807254 0.13093723 0.026695186 -0.18956433 -0.00096469076
-0.22258945 -0.29861167 -0.0028156945 0.029190846 -0.036835667 0.14098282 -0.03853345 0.036360197
0.03385553 0.006030737 -0.051657923 0.029115297 0.04146365 -0.27901018 -0.04782739 -0.026304813
-0.05415432 0.08361226 -0.03550641 0.023285965 -0.15965182 -0.0069442005 0.4669172 -0.08233123
-0.23274294 -0.03156415 0.07086028 0.26216158 0.02690982 0.024520459 -0.0030221774 0.0444906
0.1973927 -0.18049173 -0.21977635 0.009868423 -0.016371887 -0.0026712231 -0.22046512 -0.006584056
-0.10681314 0.11602348 0.03159724 0.041009877 0.05644403 -0.17177846 -0.001273819 0.04495476
-0.037366915 0.062470622 0.053323213 -0.108756155 0.04099474 -0.001265958 0.40752774 -0.07453739
-0.024716914 0.11854117 0.07002491 0.2356737 -0.07201941 -0.029323354 0.008442833 0.038509406
-0.2338813 -0.047189686 -0.15893562 0.16146535 0.123457134 0.0842554 -0.02435703 -0.037803352
0.010298348 0.3955694 -0.071307935 0.032131445 0.05051993 -0.20252126 -0.08177661 -0.07580234
0.050984673 -0.049914464 0.030181777 0.005810121 0.008521376 0.0048235594 0.15537609 0.05218838
-0.014557071 -0.00921761 0.13721506 -0.19550383 0.051162776 -0.23939736 0.037480604 0.034618847
0.045256335 0.06726451 -0.027545428 0.019482782 0.042237073 0.06374658 0.031206306 -0.03221442
-0.08262823 0.039930325 -0.1806285 -0.18602014 -0.13073774 -0.022845853 0.087198526 -0.3707836
-0.024555493 0.06491407 -0.02843825 0.03371717 -0.035203695 -0.03296584 0.02393757 -0.18734494
-0.17564543 -0.034343526 0.046633188 -0.06979392 -0.025267381 0.049011312 0.24357273 -0.009201401
0.23658438 0.36970186 -0.0053785224 0.01585606 -0.033655863 -0.066574745 0.07206255 -0.04380945
-0.026014674 0.0015827224 -0.021519085 0.03182117 0.05100272 0.26315632 -0.008984951 0.01461976
-0.05283796 -0.007515358 -0.044951513 0.0016826077 0.18546034 0.021379206 -0.4318452 -0.04865357
0.112691686 -0.046797905 0.04118116 -0.22055726 -0.06770263 0.017649224 0.06933343 -0.00641813
-0.124289654 0.09368067 0.19821368 0.007996196 0.020399455 0.07093283 0.17080091 0.011103648
0.19859983 -0.055866223 -0.061650008 0.022459295 -0.0032284288 0.24334192 -0.013169191 0.03415893
0.029826855 -0.021652415 -0.053511392 0.19071612 0.04319899 0.021916479 -0.2841969 -0.055134274
-0.061773136 -0.12225603 -0.038418565 -0.25449088 -0.033987153 -0.017199306 -0.02082901 -0.035791215
0.18676071 -0.05164662 0.20802467 -0.13419393 -0.11593343 -0.075885996 0.033827752 -0.047848932
0.024800299 -0.33569145 0.04315765 0.029880768 0.099396594 0.28733912 -0.030058147 -0.03297341
-0.044634525 -0.0037311849 0.029015174 0.005942022 0.056515947 0.0013417951 -0.15496276 0.0014201921
-0.04194551 0.04003938 -0.19825926 0.2936463 -0.05304642 0.16883403 0.002893657 -0.06427358
0.03835195 0.06415685 -0.04477977 -0.0064132274 -0.06326563 -0.062589556 -0.0010708143 0.025465319
0.04468154 0.011541454 0.1341359 0.29430208 -0.019243648 -0.014380558 -0.19259214 0.34951404
-0.033604622 0.053184666 -0.048457313 0.03159575 0.114258796 0.0064025633 0.031553652 0.18569922

bias f4 [2]
00000000: 2538 ca3c f099 3fbd
0.024684975 -0.046777666

weight f4 [128, 128]
00000000: 88b4 1d3e 815d 5cbf 998e 0cbf 8017 f2be
00000010: 31d2 453e 7343 20be 7c16 78bf e58c f13c
00000020: 79da 343e d9d8 f93d bb15 35be 1b93 d4bf
00000030: b822 193e 962b acbe 5c0d 99be c9ae d03d
00000040: 3feb 89be 0db2 323e 6ff1 dabe c8c7 c9be
00000050: 33fb 1fbe 9c5a 9ebe f46c 353e 4319 6c3e
00000060: 1b44 1ebf b1af 88be 3671 643e c358 813e
00000070: 09af 533e 50b2 2d3e c3e4 93bf 2d7e a6bd
00000080: 49c4 c5bf 0009 243e eb16 423e 34a2 243e
00000090: 2295 50bf 1cd8 193e 2060 453e 2f6c 4bbf
000000a0: 5f42 8bbf d5eb c6bd f584 3bbe 7417 71bf
000000b0: 5d09 27bf dd01 e4be c75a c2be b6de c1bd
000000c0: 3113 86bf cf2e f43d 7f19 f83d f693 013e
000000d0: b3a4 5cbf 7be4 f3be 7573 82be 2fa2 a93d
000000e0: 9452 bcbe e12e 28be 7962 143e 8f4f 093e
000000f0: 69d8 73be 4a62 203e ee8e 4ebe b274 303e
00000100: 5099 14bd 9daf 97bf 3b20 9bbe ab85 89be
00000110: 4a1d 6c3e 34d5 efbd 41ff 043e 16e8 96be
00000120: be04 0c3e 04b9 80bc 7f24 41be 344f 283e
00000130: 12e4 493e 5343 523e 96dc 563d a437 69bf
00000140: 9ceb 6dbf 8af7 22bd 7071 953c 04f3 dabd
00000150: e32b 87bf 4b55 c7bd 7bf1 d43c 7d82 b6be
00000160: 9659 72bf 9229 16bf 68e1 23bd 2783 fa3d
00000170: d684 c23d aa39 24be 3785 19be daad d6be
00000180: d89e 29bf 7ca7 f6bd 9ada 563e 64d8 73be
00000190: 6046 8f3e 2c89 ebbe b997 083e 4f14 0d3d
000001a0: 6e6a 433d dbaf 1e3e 18b0 91bd 40d8 ca3b
000001b0: b70a 603e 15ad 98bf 6053 d8bb 7d3a d0be
000001c0: 419b 5dbe 884c 87bf 0b41 103e ba37 31bf
000001d0: 307c 5e3d 81d8 e13c e1ec 093d 9b99 363e
000001e0: f40d 0e3e 994f e4bb 2f30 6ebf c203 72bf
000001f0: 926c 27bf 71af a2bd 69f2 003c 57ed 473e
00000200: c40b 7dbd 2734 50bd 4f95 49ba c671 23bd
00000210: d906 95bc f02d 55bd 2a11 703d 37ca b7bd
00000220: 452f 62bd 87bc 87bd b997 b0bd 58e8 173c
00000230: e549 8cbd 8532 863d e4b4 0c3d 69c4 c3bd
00000240: 40ee b0bd adc5 05bd 00a4 83ba e8e7 cabc
00000250: e139 3b3c 2383 54bd 90e2 2c3d d323 643d
00000260: 2f2c 8dbd 5c53 e93c 2cbb 783c 5e09 0dbd
00000270: 8e06 71bd 1aaa adbd e676 613d 271b aabd
00000280: 252a a13d db66 9fbc 518b 173d a0ad cb3b
00000290: 884b 7a3c 9a88 21bd 685d a4bd a332 893d
000002a0: 2091 3ebb 1e8d 3b3d 75d2 5ebd 5c95 39bc
000002b0: 6860 8bbc 3090 23bd 7820 9abd a398 0dbd
000002c0: fa37 593d fb9e c6bc 3175 3c3d 97db 0a3d
000002d0: 08c6 f43c 7afe 613d d661 80bd 26d0 49bd
000002e0: 1fa7 9f3d a526 1a3d 0f32 c5bd b09d f33c
000002f0: 1efd 433d 8893 46bd d882 35bc d71b 383d
00000300: 6e1c 0e3d 888b c7bc e009 48bb e0be c73c
00000310: a8b8 e8bc 4a9f 96bd 04ee 003d 7824 b8bc
00000320: 1a9a df3c c006 333b b664 e3bd fbae 91bd
00000330: 38ca e1bc b671 273d b5d3 a4bd 7669 a4bd
00000340: 6c84 cbbc da40 8bbd 4ee1 a0bd 8081 77bb
00000350: 9333 c7bd 2387 a33d a27a 6fbd a13f 8bbd
00000360: b096 afbb 1b1f 933d 5251 643d 8d87 64bd
00000370: 90f7 71bd 421f 813a 3c26 0b3d e0fc 59bb
00000380: ac6d 98bc 40b1 81bb 08f7 aebd c0d8 36bb
00000390: 3d50 55bd b8cc 31bd ee8d 313d c0d5 3e3c
000003a0: 904d db3b 1019 4d3d d6a7 b1bd 16eb 3e3d
000003b0: f784 b5bd 8bfb 74bd 3001 943c d6dd 5f3d
000003c0: 91d6 04bd e2df 9ebd c8e6 c23c 6cfa a3bd
000003d0: ab61 603d 65c1 62bd 6d60 debd 0168 55bd
000003e0: a524 7fbd f25a 673d df95 9e3d d4cf eabc
000003f0: 5893 b9bc 8070 b1bc 3cdb c8bc 80fe 073d
0.15400898 -0.86080176 -0.54905087 -0.47283554 0.19318463 -0.1565073 -0.9690931 0.029486129
0.17661466 0.121995635 -0.17684071 -1.6607393 0.1495465 -0.33627003 -0.29893005 0.101895876
-0.2693729 0.17450733 -0.42762324 -0.39410233 -0.15623169 -0.30928504 0.17717344 0.23056512
-0.6182267 -0.26696542 0.22308812 0.25263032 0.2067224 0.16962552 -1.1554188 -0.08129535
-1.5450526 0.16019058 0.18954055 0.160775 -0.8147756 0.15023845 0.1927495 -0.7946195
-1.087963 -0.0971295 -0.18312438 -0.9417641 -0.6524866 -0.44532672 -0.37959883 -0.09466307
-1.0474607 0.119229905 0.12114238 0.12654099 -0.8618881 -0.47635254 -0.25478712 0.08282887
-0.36781752 -0.16424133 0.1449069 0.13409255 -0.23813023 0.15662494 -0.20171711 0.17232016
-0.036279023 -1.1850468 -0.30298027 -0.26859793 0.23058048 -0.11710587 0.12987997 -0.29473943
0.13673684 -0.015713222 -0.18861578 0.16436464 0.19715908 0.20533495 0.05245646 -0.91100526
-0.92937636 -0.039786853 0.018242568 -0.10690883 -1.0560268 -0.09733065 0.025994053 -0.3564643
-0.9466795 -0.5865718 -0.040009886 0.122320466 0.09497993 -0.16037622 -0.14992224 -0.41929513
-0.66258 -0.12043664 0.20981827 -0.23813015 0.2798338 -0.4600309 0.13339128 0.034443196
0.04770892 0.15496771 -0.07113665 0.00619033 0.21879087 -1.192782 -0.006601736 -0.40669623
-0.21641256 -1.057023 0.14087312 -0.69225657 0.054317653 0.027569057 0.03367317 0.17832033
0.1387251 -0.0069674966 -0.9304227 -0.94536984 -0.6540004 -0.07943619 0.007870295 0.19524132
-0.0617788 -0.050830986 -0.000768979 -0.039903425 -0.018191742 -0.052045763 0.05861012 -0.08974116
-0.05522086 -0.066277556 -0.08622689 0.009271704 -0.06850032 0.065526046 0.0343522 -0.09558947
-0.086391926 -0.03265922 -0.0010043383 -0.024768785 0.011427374 -0.051882874 0.042208254 0.055698227
-0.06893193 0.028482132 0.015181344 -0.03443276 -0.05884414 -0.0847971 0.05504503 -0.0830596
0.078693666 -0.019458225 0.036998097 0.006215766 0.015276797 -0.039436914 -0.08025628 0.06699111
-0.00290782 0.045788877 -0.054399926 -0.011327114 -0.017013744 -0.03993243 -0.07525724 -0.034569394
0.0530319 -0.02424573 0.0460102 0.033900823 0.029879585 0.05517433 -0.06268661 -0.04927077
0.07795548 0.03763451 -0.096286885 0.029738277 0.047848813 -0.04848054 -0.011078559 0.044948425
0.03469508 -0.024358526 -0.0030523464 0.024383008 -0.028408363 -0.07354601 0.03147699 -0.022478327
0.027295161 0.0027317256 -0.111031935 -0.07113453 -0.027562246 0.040879928 -0.080481924 -0.080279276
-0.024843417 -0.06799479 -0.078554735 -0.0037766397 -0.09726634 0.0798476 -0.05846656 -0.067992456
-0.0053585395 0.07183667 0.055741616 -0.055793334 -0.059073985 0.0009851234 0.03397201 -0.0033262298
-0.018606983 -0.0039578974 -0.08543211 -0.002790019 -0.052078474 -0.043408126 0.043348245 0.011647642
0.006692596 0.05007273 -0.0867459 0.046610914 -0.08863252 -0.059810203 0.018066972 0.05465492
-0.03243119 -0.07757546 0.023791686 -0.080067486 0.054780643 -0.055360217 -0.108582355 -0.05210114
-0.062290806 0.056483217 0.077434294 -0.028663553 -0.022653267 -0.02166009 -0.024518602 0.033201694

bias f4 [128]
00000000: 7f28 583e 9aef e1bd e96c eb3b 0196 ad3e
00000010: 9ed0 ccbd 24ce 0e3e d9a9 6cbd 4406 82bd
00000020: 602d aa3e 6e80 813c cca9 6a3e faf5 af3c
00000030: 1131 41bd 63e5 d1bc 3d0e 373d 8981 aa3e
00000040: 4898 61bd f642 d5bc e4cf a5bd 60fe 933e
00000050: 56cd b63e a19b b43e 2ce1 9e3e dc33 893e
00000060: b6d1 713e 6073 6cbd f7a8 7c3b 364e cc3e
00000070: 0e2b 1dbb 71f8 eabd ca99 ad3e 0ce3 6abd
00000080: 5df9 b7bd d94c 743e 2646 afbb e182 8b3e
00000090: f9f4 cabd a81a 0fbe 1542 5abd 3bd0 c93e
000000a0: 5c93 643e b1e6 9c3e 52ae 9a3e 0f3c 863d
000000b0: c697 8f3e 73cd 8a3d f42d 01bd 4692 af3e
000000c0: d633 653e bd5c 05bd 878e 2abb 593a 4c3e
000000d0: 02b2 a13e 57fb cebd 901f 52bc 4e95 b83e
000000e0: 404f a9bd 5119 c4bd c43a 6c3e f5e8 b93e
000000f0: 98ad 05bd 8e5e ab3e e092 d9bd 8d8b 9dbd
00000100: 1771 883d b6f9 b2bd d007 703e 8b8c 4f3e
00000110: ebdb 3f3e 4452 9c3e 4e5e a03e 3146 c2bc
00000120: 24ed 96bd 4601 943e b9ce 9a3e eef9 903c
00000130: 13db 0e3c 33e0 853e 3828 4e3d 18e3 99bd
00000140: c06d 423e 3453 863c dd72 663e ad3e f9bc
00000150: e3f4 7fbd 5991 05bd 01e8 8ebd 581a 323d
00000160: bf70 96bd 9a86 6c3e fbcb 223d 125f 3f3e
00000170: 36ad fd3d fb76 393d dc0a 8bbd 16ff cc3c
00000180: 8ca0 7d3e bbae 77bd 5177 763e bbed 9bbc
00000190: 89e5 77bd 964b a6bd 4b5e 8fbd a517 afbd
000001a0: f509 933e 2a34 003d 65de ebbd bfd1 45bc
000001b0: 390e 803e 21cb 67bd e149 b23e 937a 6a3e
000001c0: 879a 8c3d 940b 973d 7dc6 863c 5baa a83e
000001d0: 758a eb3c 009d 92bd f6f8 ba3c 8e38 4fbd
000001e0: c98c 983e 8deb b43b d73b 473d 4de7 cd3e
000001f0: 2203 c13e 5f3d 9abc c2aa 103e c6fe 7cbd
0.21109198 -0.110320285 0.007184614 0.33903506 -0.10000728 0.13945824 -0.057779167 -0.06348851
0.33237743 0.01580831 0.22916335 0.021479595 -0.047165934 -0.025622075 0.044691313 0.33301952
-0.055076867 -0.026032906 -0.080962926 0.2890501 0.35703534 0.35274985 0.31031168 0.26797378
0.23615155 -0.057727218 0.003855286 0.3990342 -0.0023981961 -0.11473168 0.33906394 -0.057345435
-0.08983109 0.2385744 -0.0053489385 0.2724829 -0.09910006 -0.13975012 -0.053285677 0.3941668
0.22321838 0.30644754 0.3021112 0.06554424 0.2804548 0.067774676 -0.031537965 0.34291285
0.22383055 -0.032559145 -0.0026024894 0.19944133 0.31581122 -0.10106533 -0.012824908 0.3605141
-0.08267069 -0.09575141 0.23069292 0.36310545 -0.032636255 0.33470577 -0.10623717 -0.07692633
0.06662195 -0.08739035 0.2344048 0.20268457 0.18736236 0.30531514 0.3132195 -0.02371511
-0.0736945 0.28907222 0.30235842 0.0176973 0.008719224 0.26147613 0.050331324 -0.07514018
0.18987179 0.016397096 0.22504754 -0.030425394 -0.0624894 -0.032609317 -0.06977845 0.043482155
-0.07345723 0.23098221 0.039745312 0.1868861 0.12386553 0.045279484 -0.06789181 0.025023978
0.24768275 -0.06046937 0.24068953 -0.019034257 -0.060521636 -0.081198856 -0.07000407 -0.08549432
0.28718534 0.031299748 -0.11517028 -0.012073933 0.2501085 -0.056590203 0.3482199 0.22898321
0.06865411 0.07375255 0.016452068 0.3294247 0.028752545 -0.071588516 0.022823792 -0.050591044
0.2979491 0.005521244 0.048641052 0.4021553 0.37697703 -0.018828092 0.14127639 -0.06176641

weight f4 [1, 128]
00000000: 9948 923e 5176 12bd 1c73 c4bc ae30 9a3e
00000010: eeb9 ecbc 5d70 8a3e a252 24bf 3109 8e3d
00000020: eb1a ab3e 5545 c639 ac47 ad3e d0e2 e6bc
00000030: da34 363c baba f83c e995 6bbd 6395 be3e
00000040: 7e8d b43b 45fd 3fbd 960f 82bf d159 973e
00000050: a3c4 ae3e f2e0 953e e3a4 973e 0932 af3e
00000060: 5f62 aa3e 6a02 593d ae0e 3fbc 4487 b53e
00000070: e8f3 debb 6d6f 58bc 4a49 953e 6bf3 cfbc
00000080: abaf ccbb 26b4 9b3e 1a45 0c3c 7f70 923e
00000090: 9bd4 ebbc 61b3 20bf 507b 86bd c7fb b73e
000000a0: 0294 913e 1c97 973e d9ca bb3e b90f 34bd
000000b0: 8bea b63e 1897 953b 3914 5cbd 2e47 b43e
000000c0: 416b 933e efe6 50bd 60f5 65bd 9e04 8a3e
000000d0: 2fbc b23e f9e2 15bd eb0a 16bc 1e59 aa3e
000000e0: ea03 60bc f81f 80bc 8438 ad3e abf2 9f3e
000000f0: b26b 8c3c 5378 aa3e bc68 94bd 2ad4 b1bc
00000100: 8fa7 60bc 245e e73c 15c6 ad3e 6747 9c3e
00000110: c517 943e 034d a83e 0a5c 9e3e fd1b 573c
00000120: 849f 38bd f18b a43e de33 bd3e d444 27bb
00000130: 0289 7cbc 4b66 913e 7635 51bd 9486 8cbd
00000140: d996 113e e9df 903d 4b84 893e ac65 2cbd
00000150: 3622 a53c 645f 62bc aae1 cbbc f4be 93bd
00000160: 8820 0dbd 7bb2 963e b6e6 75bd 5d98 8a3e
00000170: d3d8 4d3e fb1e 5bbd 1f2e ccbc b178 603c
00000180: 5de2 a33e bfc2 09bd 1755 b23e e301 f93c
00000190: 0561 58bb e99d 9ebc 37ab 7f3d 7194 11bf
000001a0: 5391 ac3e 44e5 ba3b 9ab5 ad3a 5a97 abbc
000001b0: 5a94 8f3e 1476 85bd 9ca2 913e d188 963e
000001c0: 5257 e0bc 7a0e e6bc 74b6 a83c 567a 933e
000001d0: 22f3 933d 7280 96bd 2b54 b43c 58e5 cbbc
000001e0: 0293 973e 450a fe3b 9e21 963c 2051 a33e
000001f0: 3fa9 a13e bc34 a5bd 93e3 8a3e d102 3ebc
0.28571013 -0.035757367 -0.02398067 0.30115265 -0.028897252 0.2703885 -0.6418859 0.06935347
0.33418974 0.0003781716 0.33843744 -0.028184325 0.011120999 0.030362476 -0.057516012 0.37223348
0.0055100312 -0.046872396 -1.0161006 0.29560712 0.34134397 0.29273182 0.29617986 0.3421786
0.33278176 0.052980818 -0.011661215 0.35454762 -0.0068039782 -0.01321016 0.29157478 -0.025384625
-0.006246527 0.3041088 0.008561397 0.28601453 -0.028787902 -0.6277371 -0.06566489 0.35934278
0.28433233 0.29607475 0.36678198 -0.043960307 0.35725817 0.004565131 -0.053730223 0.35210556
0.28792766 -0.051001485 -0.05614221 0.26956648 0.34909198 -0.03659341 -0.0091578765 0.33271116
-0.013672808 -0.015640244 0.3383218 0.31239828 0.017141197 0.33294925 -0.07246539 -0.021707613
-0.013711824 0.028243132 0.33940187 0.30523226 0.28924385 0.32871255 0.30929595 0.0131292315
-0.045074 0.32138017 0.36953634 -0.0025523202 -0.015413525 0.28398356 -0.051076375 -0.06861606
0.142177 0.070739575 0.26858744 -0.04208915 0.020157915 -0.013816688 -0.024887878 -0.07214156
-0.034454852 0.29433045 -0.060034476 0.2706937 0.20102243 -0.053496342 -0.024924336 0.01370065
0.3200864 -0.03363299 0.34830543 0.030396407 -0.0033016813 -0.019362407 0.062419143 -0.5686713
0.33704624 0.0057036 0.0013252974 -0.020946193 0.2804287 -0.06516662 0.28444374 0.29401258
-0.027385388 -0.028083075 0.020594813 0.28804272 0.07224108 -0.07348718 0.02201279 -0.024889633
0.29604346 0.007752689 0.018326577 0.3189783 0.31574437 -0.08066699 0.2712675 -0.011597351
