data/1008CartPole-v0_dqn_dueling/1008CartPole-v0_dqn_dueling_s10/pyt_save/model.pt (torch, 141503 bytes, 9 tensors)

weight f4 [128, 4]
000000 90 1d 12 3c d2 90 94 be 49 82 ff bd 44 8d 20 bd
       0.008918181 -0.2901674 -0.12476022 -0.03919722
000010 c3 24 20 3d 91 14 13 3e bd f6 a2 bc 15 8e b8 3c
       0.03909756 0.14363314 -0.019893045 0.022528687
000020 a1 c6 14 bf 2b dd 2d be 66 d3 45 be 1d 45 7e bd
       -0.58115584 -0.169789 -0.19318923 -0.06207763
000030 d1 76 c6 3e cc b5 51 be 32 c1 6d bf c5 63 89 be
       0.38762525 -0.20479506 -0.9287292 -0.2683393
000040 3d 63 72 3e 14 b7 27 be bd 8b f6 be ff fa 2c bd
       0.23670669 -0.16378433 -0.48153487 -0.042231556
000050 94 e0 6d 3e 48 49 2f 3e e8 db b7 3f a9 2a 81 3e
       0.23230201 0.17117798 1.4363985 0.2522786
000060 da e8 18 3e 2d 15 aa 3e 94 07 1b 3f b1 d3 a5 3e
       0.14932576 0.3321928 0.6055844 0.3238807
000070 62 f3 ac bd 2a cb 4e be 60 63 05 c0 13 12 c8 be
       -0.08444859 -0.20194688 -2.0841904 -0.3907629
000080 ee 4b 3c 3e 60 3b 8e bd 56 30 ef be 79 1b 10 3e
       0.1838834 -0.06944919 -0.46716565 0.1407298
000090 5c 97 3d be 8a eb cc be 81 e6 45 bf 7a bb b4 be
       -0.1851477 -0.40023452 -0.77304846 -0.35299283
0000a0 fd 06 07 bd 9d 33 09 be 7d 7d df 3e aa 0b 57 bd
       -0.03296565 -0.13398595 0.43650427 -0.052501358
0000b0 a8 a3 12 3b 61 a4 99 3e 78 82 8e 3e 05 ba 8f 3e
       0.0022375379 0.30008224 0.27833915 0.2807161
0000c0 dd 6c e5 be a1 2e a8 be a2 1a 50 bf 5b 88 7b be
       -0.4480962 -0.32848075 -0.8129064 -0.24563734
0000d0 6c ea 00 be 24 d2 99 3c 88 65 89 be 5a 71 8d be
       -0.12589425 0.01877696 -0.26835275 -0.27625543
0000e0 ab bb f3 3e 0a ad a4 3e 49 36 5e 3f 6a 03 50 3e
       0.47604117 0.32163268 0.8680158 0.20313802
0000f0 cf 46 89 3c 2d ba a6 be a7 c8 7a 3f 1f ab 00 be
       0.016757397 -0.32563916 0.9796242 -0.12565278
000100 cc e4 ec be a1 1f b8 3e b2 e0 54 3f 29 fb 3a 3e
       -0.46268308 0.3596163 0.8315536 0.18259872
000110 4a 59 d9 3e e9 ae b7 3e e6 aa 52 be e2 e1 3d 3e
       0.42450935 0.35875633 -0.20573005 0.18543199
000120 03 4e 83 bd f0 d2 53 3e 3b df 86 be d2 ea 1b 3e
       -0.06411364 0.20685935 -0.26342186 0.15226296
000130 90 d5 e0 bd a7 3c 59 3d cd 1c 9c bf 6b 11 b0 bd
       -0.10978234 0.05303636 -1.2196289 -0.08597072
000140 d8 2a 26 be 4d 72 38 3e d9 eb a7 3d 50 2e 47 bc
       -0.16227281 0.18012352 0.08199281 -0.012157038
000150 8d 4d 24 bc b3 ac c3 be 0c 30 9e be 93 34 6b bd
       -0.010028255 -0.38217697 -0.30896032 -0.057423186
000160 28 07 85 be 2d 50 81 be 65 73 22 bf 6d 55 58 be
       -0.25982022 -0.25256482 -0.6345733 -0.21126337
000170 04 c7 2f 3e 65 00 31 be 09 c4 ed bc bd 4f d6 3d
       0.17165762 -0.17285307 -0.02902414 0.104644276
000180 9d 83 bf bd 94 28 a3 be 13 6e b1 be c2 bf 4f be
       -0.09351275 -0.31866896 -0.34654292 -0.20287994
000190 ed 88 9a 3e af 37 c4 be 33 28 1e be 0b 28 b3 be
       0.3018259 -0.38323733 -0.15445022 -0.34991488
0001a0 a1 1b 4a 3e d6 f4 4b be a1 e3 24 bf 81 35 bc 3d
       0.19737102 -0.19917616 -0.64409834 0.091898926
0001b0 0b 0a 19 be d0 ec 2f bc e2 0b 1d 3f f5 86 72 bc
       -0.14945237 -0.010737613 0.61346257 -0.014802684
0001c0 f5 ce 48 bd a2 0c fa 3e 12 38 41 3f a5 1a c9 3e
       -0.049025495 0.48837763 0.7547618 0.3927814
0001d0 72 76 7f 3e 30 a7 3c be 35 58 7b bf 2b be 61 3c
       0.24947527 -0.18423152 -0.9818147 0.01377825
0001e0 c7 80 00 be 33 49 ce 3d be ca 42 3e d3 33 4c 3e
       -0.12549125 0.100725554 0.19022653 0.19941644
0001f0 41 c8 71 bd fc d0 81 bd 44 2c b8 bf 1f 69 a7 be
       -0.059028868 -0.06338689 -1.4388509 -0.3269739
000200 6c cc 70 be c2 63 c5 be 2a fc c5 3d a6 e8 32 be
       -0.23515481 -0.38552672 0.09667237 -0.17471561
000210 73 bd 55 3e 7d 60 79 bd b1 3b 8a bf 76 c9 22 be
       0.2087305 -0.060883034 -1.0799466 -0.15897164
000220 7c ca d9 be e8 9b 75 3d f3 82 46 3f b2 e7 5e bd
       -0.42537296 0.059963137 0.7754356 -0.05442018
000230 5f 45 8f 3e c9 6e b1 3e 89 e3 d5 be 14 fe 3f 3e
       0.27982613 0.34654835 -0.41775158 0.18749267
000240 bf 7f 85 be 43 20 8c 3d f8 49 61 3d 54 b1 2a be
       -0.26074025 0.06842091 0.055002183 -0.16669208
000250 91 3f 26 3e 49 6f c6 bd 55 9e 23 3d 3d 18 2d 3d
       0.16235186 -0.09689195 0.03994592 0.042259444
000260 a3 11 c7 3e 37 37 7d 3e ff 71 75 3f 3e 98 4a 3e
       0.38880643 0.24728094 0.9587707 0.19784638
000270 e8 a9 58 3e 0c b8 c3 bd 9f fd 50 bd 5b e0 0c be
       0.21158564 -0.095565885 -0.051023122 -0.1375746
000280 87 08 7d 3e c5 ea 67 3e a5 27 67 3f 79 3b 66 3e
       0.24710284 0.22648151 0.9029487 0.22483625
000290 d6 08 8a be eb d7 a2 3d 0e 53 6f be 3a b7 c1 bd
       -0.26959866 0.07951339 -0.23371527 -0.09458776
0002a0 b3 90 55 3e 59 eb 9e be 89 c5 d0 3d 48 b5 9f be
       0.2085598 -0.3103893 0.10193927 -0.31192994
0002b0 1c 90 60 3e b6 78 e0 be 72 fb 00 be 1b 67 a9 be
       0.21929973 -0.43842095 -0.12595919 -0.33086476
0002c0 70 99 d1 3d a9 19 31 3d 79 49 87 bd 0c f6 94 3d
       0.10234344 0.043237362 -0.06605811 0.07273492
0002d0 31 1a b4 3c aa 73 f3 3c 32 ee 31 bf cf fc 5d 3c
       0.021985145 0.029718239 -0.6950408 0.013549044
0002e0 41 4e e4 bc fc c6 8b be 12 d9 df bd 9c e5 fd bd
       -0.027869346 -0.2730025 -0.10930075 -0.1239731
0002f0 ee 8e a9 be f8 a2 fb be 4d b8 68 bf 1b ef be be
       -0.3311686 -0.49147773 -0.9090622 -0.37291798
000300 76 28 7c be ed 18 a2 be 0e d9 8a be 86 ed 5e be
       -0.2462481 -0.31659642 -0.27118725 -0.21770296
000310 07 c7 bb 3c 62 66 86 bd b2 5b 10 be 23 55 ea bc
       0.022922052 -0.06562497 -0.14097479 -0.02860505
000320 4e f5 55 3e 77 9d 3d bd e9 37 fc 3e 5e 24 35 be
       0.20894358 -0.04629275 0.49261406 -0.17689654
000330 6b ca ec be 65 99 ae 3e f4 fc 87 3e d2 0f 91 3e
       -0.46248183 0.34101406 0.26560175 0.28332382
000340 ec bc 60 be d2 3c db 3e d9 66 af 3e 26 08 93 3e
       -0.21947068 0.4281984 0.34258154 0.28717154
000350 e3 87 38 3e eb 5f 86 be 49 a8 af 3d c2 fd 8e 3e
       0.18020587 -0.26245055 0.0857702 0.27927977
000360 78 62 d4 3e a1 c1 0f 3f d8 8c a8 3f 84 df d6 3e
       0.41481376 0.5615483 1.3167982 0.41967404
000370 48 ae 5d be 2e 07 e2 3d da 56 13 3f ed f1 c8 3d
       -0.21648514 0.11036526 0.575544 0.09811769
000380 ea 3b 2e 3f 82 99 0e 3e b7 38 c5 3e 6f 14 14 3d
       0.6806017 0.13925746 0.38519832 0.0361523
000390 a6 97 86 3e dc c4 73 ba 79 c1 1e bc f5 0c 9d bd
       0.26287574 -0.00092990487 -0.009689682 -0.07668487
0003a0 3a 88 5f 3f e2 37 a1 be 9d 6b 48 be 94 6c 9f be
       0.8731724 -0.31487948 -0.19572301 -0.31137526
0003b0 11 74 41 3f 18 c5 ca 3e 66 47 04 3f 72 59 6d 3e
       0.7556773 0.39603496 0.51671445 0.23178652
0003c0 6b 24 24 3d 22 1c d6 be bd ff 12 bf 78 fc e2 be
       0.040073793 -0.4181834 -0.57421476 -0.44333243
0003d0 0c d7 41 3c e0 be aa be 94 93 99 bf 5c 81 fd be
       0.011831056 -0.3334875 -1.1998162 -0.49512756
0003e0 65 39 25 be f6 01 96 3e 4f d5 08 3d c4 2d 06 3e
       -0.16135176 0.2929837 0.033406552 0.13103396
0003f0 12 2b 82 3d af c4 f2 3d ea a4 c6 3f f6 f1 7a 3e
       0.06355871 0.11853921 1.5519078 0.24506363

bias f4 [128]
000000 e3 e5 2d 3f 6e ee 06 3f 90 4f fc be b4 93 f4 be
       0.67928904 0.52707565 -0.4927945 -0.4776894
000010 f3 ee 9d be 3c be 03 be fe 8d cc be 94 ff 11 bf
       -0.30846366 -0.12865537 -0.3995208 -0.57030606
000020 b0 7c 3a 3f af c8 07 bf cd 76 f4 3e 52 74 9b 3e
       0.7284651 -0.53040594 0.47746888 0.30362183
000030 f8 5c 31 bd 37 61 f1 be 17 5b 5d be 7a a3 e1 3c
       -0.043301553 -0.47144482 -0.2161678 0.027543772
000040 ce 1f 02 3f b6 24 4d bf 3a 0e 99 be 9b f9 06 bf
       0.5082978 -0.8013414 -0.29893667 -0.5272462
000050 00 cc 06 3f 16 a6 00 3f 98 29 32 bf 2e 5e b1 3e
       0.5265503 0.5025343 -0.6959472 0.34642166
000060 64 c9 db 3e b8 17 03 bf ed 6a 32 3f 58 83 1e 3e
       0.42927086 -0.51208067 0.69694406 0.15479791
000070 ec 8a 05 bd 77 bc f4 be d0 42 fb 3e e8 6a bf bc
       -0.03260319 -0.47800037 0.4907441 -0.023366407
000080 ae c0 43 3e 64 60 98 be 6c 5a d1 3e fd c7 12 3f
       0.1911647 -0.2976104 0.408893 0.5733641
000090 71 d0 2c 3f c4 ea c0 3e c4 ab 84 be d2 3c d7 be
       0.67505556 0.37679112 -0.25912297 -0.4203859
0000a0 19 16 a0 be 75 e3 2d 3f cf 91 20 3f 5e a5 25 3f
       -0.3126686 0.67925197 0.62722486 0.64705455
0000b0 aa 4c ec 3e 8f 4f 0f 3e 9b 79 a6 3e 65 ef cc be
       0.4615224 0.13995193 0.32514653 -0.40026394
0000c0 f8 a4 35 bf 69 e8 2b be 4b 0c 23 3f aa db 09 3f
       -0.7095485 -0.16787876 0.6369063 0.53850806
0000d0 b6 cc d7 3e 22 ce 18 3f 79 fc d3 be e5 d7 16 3f
       0.4214837 0.59689534 -0.4140356 0.5892318
0000e0 12 ab d2 be 04 9b 6b 3e 00 97 8a 3e de e7 8f be
       -0.4114614 0.23008353 0.2706833 -0.28106588
0000f0 c7 40 06 bf 4b 57 f2 be d4 da fa 3e 05 02 cc be
       -0.5244259 -0.47332224 0.48995078 -0.3984529
000100 c5 30 05 bf 05 f4 cb be 8c 0d f2 3e 29 c2 16 bf
       -0.5202754 -0.3983461 0.4727596 -0.58890015
000110 ef f5 3e bf 99 da bf 3e 14 19 1f be fc ef 0c bf
       -0.74594015 0.37471464 -0.1553691 -0.5505369
000120 f9 92 1e bf 24 da 66 3e fc 83 24 bf 57 2b d6 be
       -0.6194301 0.22544152 -0.6426389 -0.4182994
000130 11 ce 01 3f d2 ec 28 bf 79 94 83 be 25 5b 41 3f
       0.5070506 -0.6598636 -0.25699213 0.755297
000140 83 a9 0c 3f 75 19 02 bf 43 7e 0c 3f 9e f4 06 bf
       0.54946154 -0.50820094 0.5488016 -0.52717006
000150 ce 2f ae be 82 00 b8 3e a6 8a 23 3f 9d 86 d9 be
       -0.34020847 0.35937887 0.63883436 -0.42485514
000160 d3 a9 db 3d ae 6b 16 3f ce 95 20 3f 02 cb 2d 3f
       0.10725751 0.58758056 0.62728584 0.6788789
000170 db 3c 22 3f e4 7a 27 3f 10 64 35 be 52 5d fa be
       0.6337411 0.6542189 -0.17713952 -0.48899323
000180 d4 9b 28 3f 78 71 10 3f 06 8b b6 be cb 24 f5 be
       0.65862775 0.5642314 -0.3565294 -0.47879633
000190 9a 01 9a be d8 50 42 bf b3 11 3c 3f f9 b1 10 bf
       -0.30079347 -0.7590461 0.73464507 -0.56521565
0001a0 5b 8c 17 bf dd 34 aa be 5f c9 51 be b5 ac a7 3e
       -0.5919854 -0.33243456 -0.20486973 0.32748953
0001b0 98 d2 fe be 46 34 d1 be 90 c4 0b bf 6d 82 df be
       -0.49770045 -0.40860194 -0.54596806 -0.43654194
0001c0 9a 6f d8 3e 69 40 d3 be 01 62 de be 86 fb 9d 3e
       0.42272645 -0.4126008 -0.43434146 0.3085596
0001d0 ab 01 1a bf ac 06 1e bf 11 9a b2 be 45 0b e0 3e
       -0.60158795 -0.6172893 -0.34883168 0.43758598
0001e0 c0 d0 a1 be 84 0b 2d 3f 48 99 eb be a7 d0 f0 be
       -0.31604576 0.67595696 -0.46015382 -0.4703419
0001f0 22 7f 4b 3e 9e 47 e2 be d8 c5 af bc 2d e4 07 3f
       0.19872716 -0.44195265 -0.021456644 0.53082544

weight f4 [128, 128]
000000 08 f3 9f bd f6 e5 ad bd 83 75 b9 3c 38 31 9f 3a
       -0.078100264 -0.08491127 0.022639042 0.0012145406
000010 0e ad 53 3d ea 26 25 3d b9 8b 51 3d 1a 22 7a 3d
       0.05167871 0.040320314 0.05115864 0.061067678
000020 76 15 97 bd 14 ec 9d bd 8d a3 a6 bc a7 4c 9d bc
       -0.0737714 -0.07711044 -0.020341659 -0.01920159
000030 72 cc 03 3b 80 c3 28 3a 88 0d 71 bc 6a 6e 31 39
       0.0020110873 0.0006437823 -0.014712699 0.00016921168
000040 60 26 66 bd 16 cf 57 3d af cc 4d bc d7 df cc 3c
       -0.05618894 0.052687727 -0.012561007 0.025009079
000050 d1 6e be bd 4e 55 3d 3d 61 93 89 3d 36 02 33 3d
       -0.0929848 0.04622393 0.067175634 0.04370328
000060 74 39 84 3d 30 bc b4 3b 2c 99 cd bd b7 5f 8e bc
       0.06456271 0.0055155978 -0.10038981 -0.017379625
000070 b5 ac 25 3d 04 33 96 bc 98 dd cf 3b 63 69 ac bd
       0.04044791 -0.018334873 0.0063435547 -0.084185384
000080 52 c8 6e bb 39 ba b0 bd af c2 2c bd 5b 09 86 bb
       -0.0036435318 -0.08629269 -0.042177852 -0.0040904707
000090 79 9c bf bb 00 f4 b0 bd 21 8d c2 bd 8d 94 67 bd
       -0.0058475104 -0.08640289 -0.094995745 -0.056538153
0000a0 b3 7e 39 3c 88 e8 d8 3c a0 5c 7d bd de fc a3 bd
       0.011321711 0.026478067 -0.061855912 -0.08007215
0000b0 7f 47 c5 3c e5 94 bb bd 45 11 93 bd 6a 26 95 3c
       0.024081944 -0.09159259 -0.07181028 0.018206794
0000c0 23 0a 8f bd c9 da 6f bd cc cc a5 bc 20 3a 65 3d
       -0.06984355 -0.05855826 -0.020239256 0.055963635
0000d0 70 9f 40 bc 78 f9 3d 3d 76 4e 58 3d 8d 91 7b bd
       -0.011756763 0.04638049 0.0528092 -0.061418105
0000e0 90 6d 1c bd bb 80 a1 3d e3 92 0b bd 85 d3 3a bd
       -0.038190424 0.078858815 -0.03407563 -0.045611877
0000f0 0e 29 a0 bd 88 09 36 bd a1 68 9a bd f3 e7 e1 bc
       -0.078203306 -0.044442683 -0.07539488 -0.027576422
000100 bd 60 e3 bc cb 55 b6 bc 4a a7 3b 3d 87 ab 93 bc
       -0.02775609 -0.022257706 0.045813836 -0.018026127
000110 93 b9 9e 3c 39 df ca bd 61 e0 24 bd ec 42 42 bd
       0.019375598 -0.099058576 -0.040253047 -0.047427103
000120 0d ce 64 bd 84 0e 84 3d 80 44 94 bc c5 c5 65 bc
       -0.055860568 0.06448081 -0.01809907 -0.014024203
000130 52 f9 86 3d 6a 85 8c bc c3 95 d3 ba b7 33 18 3d
       0.06590523 -0.01715346 -0.0016142655 0.037158694
000140 5b 2a 16 bc f6 ac 2d bd c8 da 84 3b 1e 17 de bc
       -0.009165372 -0.042401277 0.004054401 -0.027110633
000150 77 9a 90 3d c3 31 34 bd a5 cb a7 bd 48 c1 46 3c
       0.07060712 -0.04399277 -0.08193139 0.012131043
000160 c8 2f 8e bd 2a a9 05 bd 02 d2 30 3d 20 0d 21 bd
       -0.06942707 -0.03263203 0.04316903 -0.039319158
000170 22 59 b9 bd 16 53 c5 bd fe 1f ca bd e0 51 10 3c
       -0.09050204 -0.09634988 -0.09869383 0.008808583
000180 9e 17 7c 3d 56 03 06 bd 9c 0a 0d 3c 81 fb 8c bd
       0.06154596 -0.032718025 0.0086084865 -0.06883908
000190 3c e4 69 3d c2 f4 8c bd 12 ec 77 3d a3 be 56 bc
       0.057102427 -0.06882621 0.06052787 -0.013106975
0001a0 c8 ab 71 3d f7 53 39 bd fe 72 4c 3d 0e 5e 73 bd
       0.059001714 -0.04524609 0.049914353 -0.05941587
0001b0 7a 66 9f 3d 2c 03 93 3d 09 96 bd bc 0e b2 a4 bd
       0.07783218 0.07178339 -0.023142831 -0.08041774
0001c0 0c 34 5f 3d e1 86 86 3d c7 f6 41 bc 44 88 86 3d
       0.054492995 0.06568695 -0.011838621 0.06568959
0001d0 20 1c 87 bc 24 62 2a 3d 71 06 32 bd 3b bb c1 bd
       -0.016492903 0.0415975 -0.043463174 -0.094595395
0001e0 7c 8d 98 3d f0 a3 94 3d 04 c6 df bc ca ea 3d 3d
       0.07448861 0.07257831 -0.0273161 0.04636649
0001f0 cc 9d 7a 3d 0c 81 8e 3d e1 11 cd 3b a3 56 24 3b
       0.061185643 0.069582075 0.006258235 0.0025076054
000200 29 74 8f bd 13 87 bd bd 05 c1 d8 3c 38 b4 b0 3d
       -0.07004578 -0.09254279 0.026459226 0.08628124
000210 41 cb 7a 3e 98 a5 23 be d4 13 d2 3d 7b 94 09 be
       0.24491598 -0.15981138 0.10257688 -0.13435547
000220 bb 8e f0 3c 8a a6 81 3e a3 b6 91 be f3 b0 7d bd
       0.029364934 0.25322372 -0.28459653 -0.06193633
000230 4b 30 ca bd 7f 14 b8 bc 5c 46 2b be 50 61 13 bd
       -0.098724924 -0.02247071 -0.16726059 -0.035981476
000240 9a c9 cc be d5 9b 72 bb bb f6 83 3d 10 0b ce bb
       -0.3999756 -0.0037019153 0.064435445 -0.00628794
000250 dc d6 a3 be b5 37 57 3c cf 70 83 3b 24 21 be bc
       -0.31999862 0.01313584 0.0040112506 -0.023209162
000260 36 42 f8 bc 41 19 87 3c cd f8 de 3c dc ef 03 be
       -0.03030501 0.016491534 0.027218247 -0.12884468
000270 2c 7d 3c bc 8c de 8f 3e 93 a5 fa bd 13 dc b8 bd
       -0.011504453 0.28099477 -0.12238612 -0.09026351
000280 77 de 8b bc 1f c8 72 bd 3e 4f ad be 3f 43 6f 3d
       -0.017073853 -0.05927288 -0.3384952 0.05841374
000290 5e 2b 5c be c4 2a b1 bd 98 1c 36 3e 32 d1 df bc
       -0.21500918 -0.08650735 0.17784345 -0.027321432
0002a0 ce 82 3a 3e fe 29 81 be 02 69 0a be 1a 29 b9 bd
       0.1821396 -0.2522735 -0.1351662 -0.090410426
0002b0 80 73 cc bd 18 ad ea 3d 66 c4 66 3d 07 87 96 3d
       -0.099829674 0.11458796 0.056339644 0.07349973
0002c0 b7 e8 23 bc f8 72 9e bb 82 79 34 be 24 ea 2e be
       -0.010004214 -0.0048354827 -0.17624477 -0.17081505
0002d0 e1 3f 1e be 93 44 84 3d b4 07 93 3d 95 b6 5b be
       -0.15454055 0.06458392 0.07179204 -0.21456368
0002e0 e1 e2 87 3c 45 1b 52 be 31 04 7c bd 60 55 e3 3d
       0.016587676 -0.20518215 -0.061527435 0.11100268
0002f0 e5 c9 95 bd 7f 9b 3d 3d 32 9d 71 be 8f 20 50 3d
       -0.07313899 0.04629087 -0.23595122 0.0508123
000300 5b 60 83 3d e7 be 12 bd f4 95 31 bc 3f eb 64 3d
       0.06414863 -0.03582659 -0.010838974 0.05588841
000310 ee fb 29 bd 3f 18 db 3d e8 26 32 bd ea 4d 4e 3e
       -0.041500024 0.10697984 -0.043494135 0.2014691
000320 13 05 70 bc 04 7e 7f 3d 3d c0 60 bd dc 85 07 be
       -0.014649647 0.062376037 -0.054870833 -0.13234657
000330 5e 88 b6 be 82 eb ca bb 38 e7 8d bb 5b f6 b1 be
       -0.35650915 -0.0061926255 -0.004330542 -0.34758267
000340 e8 28 19 bd ce 4b 51 3d 8d fb da bd 9f b4 4a 3d
       -0.037392527 0.051097684 -0.10692511 0.04948866
000350 d0 92 85 bd bb 5b 21 be 86 12 a7 3c 2d 0a 99 3d
       -0.06522143 -0.15757649 0.020394575 0.07472644
000360 72 21 ff bd d9 b8 af 3c 85 6a f4 bc 4f ed 11 be
       -0.12457551 0.021450447 -0.029835949 -0.14250682
000370 54 0d be bd cc 31 90 bd 14 90 55 bd 3a b7 8c bd
       -0.09279886 -0.07040748 -0.052139357 -0.06870885
000380 4b 0c 51 3d 53 e0 03 be 2f 86 59 3e d7 d1 e4 3b
       0.051037114 -0.12878542 0.21242593 0.0069830227
000390 a4 3e 4c 3e b2 3f 58 be a2 7d 6c be 35 48 1f bd
       0.1994577 -0.21118048 -0.230948 -0.03888722
0003a0 0c 78 44 3e 7e 86 46 bd 60 63 09 be 68 ba 2f be
       0.19186419 -0.048468105 -0.13416815 -0.17160952
0003b0 09 cd 88 3c 2b 9c 1a 3c a9 b9 5c 3c 8f d6 2e 3d
       0.01669933 0.009436647 0.013471999 0.042685088
0003c0 f4 8c bb 3c 58 64 4a be fb a6 99 bd 6c 2f 83 3d
       0.02289436 -0.1976484 -0.07502552 0.064055294
0003d0 22 bf c9 bc 41 be c0 bd 61 ed 3d bd 81 32 a0 39
       -0.024627272 -0.09411288 -0.04636896 0.00030555206
0003e0 a0 d7 69 bd 26 3b 8a be e9 f9 5c bd d5 71 dd bd
       -0.0570904 -0.26998252 -0.05394927 -0.10812727
0003f0 81 e3 2e 3d 97 c6 31 be 75 3c d5 bd 4e 28 c8 bd
       0.042697433 -0.17360912 -0.10411922 -0.097733125

bias f4 [128]
000000 3a b4 8c bd 3a c9 bc bd 4e c8 c3 bd b8 fc 3b bb
       -0.06870313 -0.092180684 -0.095596895 -0.0028684568
000010 b1 38 93 bd 44 62 b9 bd 51 d1 f3 3c 63 e3 8a bd
       -0.071885474 -0.09051946 0.029762896 -0.06781652
000020 40 b6 82 3d 5f 98 3d bd 0c b4 9d bd ba 4d ac bd
       0.06382418 -0.04628789 -0.07700357 -0.08413263
000030 ac a1 24 bd d9 7a 18 bd 77 64 43 bd 21 1c 75 bd
       -0.040193245 -0.03722653 -0.047703233 -0.05984128
000040 2c 37 a5 bd 69 a6 a4 bd 04 28 7b 3d f2 50 ec bd
       -0.08067164 -0.08039553 0.06131746 -0.115388766
000050 65 10 b0 bd d2 96 d5 3d ae b8 09 3c df bb f8 3c
       -0.08596877 0.10429157 0.0084058475 0.030363021
000060 e4 e1 c7 3c e5 b0 92 bd da 5e a7 bd 96 ce 70 bd
       0.024399705 -0.07162646 -0.081723884 -0.058790766
000070 b6 fe 62 bd ca df 57 3d f4 7d d1 bd fa 84 73 3c
       -0.055418693 0.052703656 -0.10229102 0.014863247
000080 f3 d4 51 3c a7 11 b1 3b 56 74 8e 3d 73 50 ad 3c
       0.012807119 0.0054037157 0.06955783 0.021156525
000090 90 87 bc bd 40 ae 97 bd ce 03 ce bd 58 fe 66 bd
       -0.09205544 -0.074062824 -0.100593194 -0.056394905
0000a0 aa 3a 52 3d a0 c8 b1 bd 89 00 38 bd f2 e4 56 3d
       0.051325478 -0.08680844 -0.044922385 0.052464433
0000b0 7d 5f 48 3d 77 d9 b1 bd c3 e8 a8 bd 64 2a 0d bd
       0.04891919 -0.08684056 -0.08247521 -0.034464255
0000c0 a3 c2 df bd 3b f8 10 be e4 0a 5c bb 1f 15 7e 3d
       -0.10925796 -0.14157192 -0.0033575827 0.06203186
0000d0 cd 5d a9 bd 7f 57 cc bd 0e 41 15 3d 89 12 d3 bd
       -0.08269844 -0.09977626 0.036438994 -0.1030627
0000e0 a7 4e 98 3d 0c 33 be bd 1c c4 04 bd dc fa c0 bd
       0.07436877 -0.0928708 -0.032413587 -0.09422848
0000f0 78 d2 23 bc 67 6e b0 3c 9d f2 49 bd 77 46 97 bc
       -0.00999891 0.021537019 -0.04930364 -0.018466217
000100 1f f2 d3 bd a0 58 5b bc e5 65 9b bd 3d 79 93 bc
       -0.10348915 -0.013387829 -0.07587794 -0.018002147
000110 7b f1 5b bd 32 be 24 bd 4f 1b eb bc e9 c9 8c bd
       -0.05369709 -0.040220447 -0.028699545 -0.06874449
000120 8c c1 09 3d 61 0f cb bb f8 ab 1f bc 67 c1 f6 bb
       0.033631846 -0.0061969017 -0.00974559 -0.0075303796
000130 3d 7c 30 3d d5 9a 72 3d c9 13 b8 bd 7c bd 21 bd
       0.043087233 0.05922969 -0.08988149 -0.039487347
000140 ea 40 f6 3b 57 0c aa ba 48 ee bc bc e2 c6 0a 3c
       0.0075150626 -0.0012973648 -0.02306284 0.008470269
000150 41 8c a5 bd 66 a3 b3 bd 5e 80 ef bd b9 af 6a 3d
       -0.08083392 -0.087714 -0.11694406 0.05729649
000160 d0 0e d9 bc 56 36 15 be e0 aa 47 3d d2 0f 20 bd
       -0.026496321 -0.14571509 0.048746943 -0.039077587
000170 ce 23 1d bd 3f 9d c0 bd 9e 78 56 bb b3 f6 a6 3b
       -0.038364224 -0.09404992 -0.0032725702 0.005095327
000180 aa b1 95 bd 15 81 9c 3d 3c 81 04 be c4 6c be bd
       -0.07309277 0.07641808 -0.12939924 -0.09298089
000190 bc 21 5b bc 3e 6a d5 3d 1d 0b c0 bb 88 36 a8 3d
       -0.013374742 0.10420655 -0.0058607 0.08213526
0001a0 8b 5d 69 3d 43 db 9b bd 79 7b a1 bd 3c d9 9d 3c
       0.056973975 -0.0761018 -0.07884879 0.019268624
0001b0 a7 a8 40 bd 06 9a 35 bd d6 85 03 be 03 00 41 bd
       -0.04703584 -0.04433634 -0.12844023 -0.04711915
0001c0 88 1e b6 bd 5d 10 60 3d 7f ba 5a bd 49 5e ff bd
       -0.08892542 0.054703105 -0.053400513 -0.12469155
0001d0 37 69 09 bd e1 20 b3 bd 3e 2a 80 3d 8a 98 c7 3c
       -0.033547606 -0.087465055 0.06258057 0.024364728
0001e0 43 5e f8 b9 0c 7d 92 bc 1a 2d 74 ba 9e ba 17 bd
       -0.00047372477 -0.017881893 -0.0009314582 -0.037043206
0001f0 ba 34 35 3d 27 69 9c 3d 41 39 45 3c 02 f6 9e bd
       0.044239737 0.07637244 0.012037576 -0.07761766

weight f4 [2, 128]
000000 dd a5 95 bd 52 b7 05 3d e1 e0 01 bd 40 15 44 bd
       -0.073070265 0.03264553 -0.0317086 -0.047871828
000010 b8 d3 51 3d 0f 27 2e bc d5 c1 9f 3e 6a 29 a1 bc
       0.0512273 -0.0106294295 0.3120257 -0.019673068
000020 84 5c 4c bd 4e ed 41 bd d0 10 a4 bc 4e 4e 6e bd
       -0.049892917 -0.047345452 -0.020027548 -0.058180146
000030 4a 49 db 3b 79 d4 9e 3c cf 3b 96 bd 6a b2 68 bd
       0.0066920863 0.019388424 -0.07335626 -0.056810774
000040 f3 10 92 bd aa 96 66 3d a3 54 20 bd ce 54 ad 3c
       -0.07132139 0.05629603 -0.039143216 0.021158602
000050 b9 ad a1 3d d0 90 37 3d 6f 78 cd bc f4 e4 5e bc
       0.07894463 0.04481584 -0.025081841 -0.013604391
000060 43 5b 65 3d 06 55 24 3d f4 e4 29 3d e4 13 f4 3c
       0.055995237 0.040120147 0.041478112 0.02979464
000070 d2 a6 5e bd 4e c6 6e 3d d1 09 f1 bd 98 8b 8f 3d
       -0.05435831 0.058294587 -0.117694505 0.07009047
000080 05 fc 21 bd 56 10 5d 3d 6d b5 0e 3e 77 48 2d 3d
       -0.039546985 0.053970657 0.13936396 0.042305436
000090 87 22 11 3c c6 6e 96 3a a9 91 1d 3d d0 6c 9f bb
       0.00885833 0.0011477105 0.03846899 -0.0048652664
0000a0 8b 90 6c 3d cf 2f 2d 3b c2 9c 7d bc b7 9d a9 bd
       0.057755034 0.0026426201 -0.0154792685 -0.08282035
0000b0 3a 48 4c 3c 24 c4 73 3d f6 a8 b2 3d e0 13 95 3d
       0.012468392 0.059513226 0.08723633 0.072791815
0000c0 f9 10 76 3d 9a b6 36 be d5 ee 50 bd 75 2d 7b 3d
       0.06007478 -0.17843094 -0.051009018 0.061322648
0000d0 2a ae 7c 3d b5 49 95 3c d4 1d 45 3d 2d 07 f9 3e
       0.061689533 0.018223623 0.04812415 0.48638287
0000e0 6f 68 06 3d e8 75 4f bd 05 f5 01 bd 2f fe 1b bd
       0.03281444 -0.050649554 -0.03172781 -0.038084205
0000f0 70 61 96 bb dd 82 10 3d 5c c4 99 3d b3 5b a7 3d
       -0.004589252 0.03528105 0.07508156 0.08171787
000100 e6 92 53 bd b5 c9 cd 3a 76 3e e2 bc c5 10 31 3b
       -0.051653765 0.0015700372 -0.027617674 0.0027018052
000110 97 6d 63 3c 3a ee 51 bc 4d dc 15 3d 43 bc 9b 3d
       0.013881109 -0.012813145 0.03658705 0.076042674
000120 b9 c2 86 3d 45 e8 42 3e 3e 11 60 bd 27 74 64 bd
       0.06580109 0.19033916 -0.054703943 -0.055774834
000130 24 0c 95 bd ff 69 0d bd 1c 5d 09 3d 47 8c 5a bd
       -0.07277706 -0.034524914 0.03353606 -0.053356435
000140 8b b5 1a 3d 56 9f a9 3d 2c 61 27 bd 62 3f e5 3c
       0.03777079 0.08282344 -0.040864155 0.027984325
000150 38 42 3b 3e 69 0d 02 3d c9 06 36 bd cb a3 ff bc
       0.18286979 0.03175107 -0.044440065 -0.031206032
000160 f8 c3 ba 3d 2b e7 6a bd 6f 96 a9 bc e6 59 24 3d
       0.09119409 -0.057349365 -0.020701615 0.040124796
000170 b8 7e 07 bd 4b f4 5b 3d 7b 1a 61 3c b0 39 a5 bd
       -0.033079833 0.053699773 0.013739224 -0.08067644
000180 4a cf af bd 3b 03 34 bd 79 e9 00 3d 54 c0 61 3d
       -0.08584459 -0.043948393 0.031472657 0.05511506
000190 52 8e b3 3e 59 c3 08 be 8a 73 93 3d ea 39 3f be
       0.3506952 -0.13355769 0.07199772 -0.18674436
0001a0 cc 87 0b 3d 12 b6 46 3d 00 f0 85 b9 4e 00 8e bd
       0.034065053 0.04851348 -0.0002554655 -0.06933652
0001b0 c5 04 99 bd ab 53 81 3d 77 d3 60 3e 48 8b 95 3d
       -0.07471613 0.063147865 0.21955667 0.073019564
0001c0 ad 24 14 ba 1f 25 88 bc be 24 98 bd 37 a8 83 3d
       -0.0005651217 -0.016619263 -0.07428883 0.06428569
0001d0 9d 94 ca 3a a3 4b ac bd f9 83 39 bd b5 17 7c bd
       0.0015455667 -0.08412864 -0.045291875 -0.061546046
0001e0 80 b3 ae 3d 11 24 fc bc b7 59 94 3c 17 a4 28 bd
       0.08530331 -0.030778917 0.018109186 -0.041172113
0001f0 c9 57 90 bd 66 e1 21 3b 5f fa bf bc bf 18 e6 3b
       -0.07047994 0.0024700998 -0.023434816 0.007021993
000200 fc 34 93 39 52 85 be bd 2e 93 0f 3b 2c 56 1e bd
       0.000280775 -0.093027726 0.0021907794 -0.0386564
000210 da 2f 19 be 44 b2 1d 3d dc 1b 68 be f7 8c 21 3d
       -0.1495966 0.038500085 -0.22666878 0.039441075
000220 33 3b 5d 3d c5 a4 52 bd 78 f5 92 3d 73 91 43 3d
       0.054011535 -0.051426668 0.07175726 0.047746133
000230 1d 3a 32 3c e3 bf 11 3d 7d 90 bb bc 67 0d d4 bb
       0.010878113 0.035583388 -0.022896046 -0.0064713242
000240 2e db 3d bd ac 9b 88 3d 4b 23 87 bc fe e6 73 3d
       -0.046351604 0.06670317 -0.016496321 0.059546463
000250 5f 5c 2a 3d 18 b1 0b be 6a 1f 36 ba 9a ee e2 bb
       0.041592 -0.13641775 -0.000694743 -0.006925416
000260 67 7f b4 3c 70 8e c5 bc 5d 8d 1f 3d 82 0b 9f bb
       0.022033406 -0.024115771 0.038953174 -0.0048536668
000270 bb de 76 3c 0a a5 52 3d a2 3d 5e 3e 46 da 78 3d
       0.0150677515 0.051426925 0.21703199 0.060755037
000280 f0 f6 1e bd 19 42 18 bd 96 26 27 be 87 bb ac bc
       -0.038809717 -0.03717241 -0.16323313 -0.021085514
000290 1c 00 7d 3b a0 68 18 3c 4d d7 1b 3d 54 f0 e8 bc
       0.0038604802 0.009302288 0.038047124 -0.02843491
0002a0 c5 41 39 bd 41 36 80 3d 80 cd 8f bc ae 40 98 bd
       -0.04522874 0.06260348 -0.017554045 -0.07434212
0002b0 b2 6d c7 3b c3 e9 d6 3c 43 2c 97 bb b1 1b 79 3d
       0.0060860747 0.026234513 -0.0046134307 0.060817424
0002c0 9a 26 28 bc ac a3 8d 3d 96 63 64 bd 1d 91 1f bd
       -0.01026311 0.069159836 -0.055759035 -0.03895675
0002d0 9b 63 ee bc 3d 51 93 3d 6e 12 b3 3a e8 62 c6 be
       -0.02910023 0.07193229 0.0013662109 -0.38747334
0002e0 1c c8 11 3d 6b b0 3a bd fa 6e 7b bd 1e c6 73 bd
       0.03559123 -0.0455784 -0.061385132 -0.05951511
0002f0 1e 3d 46 bd 5c 12 b6 3c fc 7e 38 be 85 c7 99 bc
       -0.04839813 0.022225551 -0.1801719 -0.018771896
000300 3f 84 3a 3c ee 13 bc ba cf 7e 76 3d 30 7e 47 bd
       0.011384069 -0.0014349201 0.060179528 -0.048704326
000310 12 1b cc 3c 29 37 93 3d 33 85 a1 3d 28 30 da bc
       0.024915252 0.07188255 0.07886734 -0.02663429
000320 f0 6f 28 3d 33 ba 6f be 6f 78 c0 bc 91 d7 96 bd
       0.041122377 -0.23410873 -0.023494927 -0.07365335
000330 ea 2b cb 3c 3f ee 19 bd ab 06 a7 3c ec 84 77 bd
       0.024801213 -0.037580725 0.020388922 -0.0604295
000340 cd ed 17 bd 9f 78 4b 3d d8 b2 8c bd 03 f4 04 bd
       -0.03709202 0.04967558 -0.06870049 -0.03245927
000350 aa dd 32 be f8 3a cf bc 40 b3 d0 bc 31 d6 4a 3d
       -0.1746737 -0.025296673 -0.025476098 0.049520675
000360 9e ea 09 3d 12 34 89 bd af 05 84 bd 25 75 18 bd
       0.033671014 -0.06699385 -0.064463966 -0.037221093
000370 d0 72 5a bc a6 5d 65 bd 98 5d ab 3d 83 71 84 3d
       -0.0133330375 -0.055997513 0.08367461 0.06466963
000380 51 7a a5 bd 34 86 16 bd 69 b2 ce 3d 1c fd 82 3d
       -0.08079971 -0.03674908 0.10092623 0.06395933
000390 b4 1d ca be 23 10 2e 3e e8 0d 6a 3d 5a af 3e 3e
       -0.39475787 0.16998343 0.05714217 0.18621579
0003a0 8c 76 32 3d 0a 20 46 3c 46 be 9f 3c 34 02 a3 38
       0.043570086 0.0120926 0.01949991 7.772856e-05
0003b0 29 ef 82 bd c5 eb c5 bb 4f 6c 23 be 99 31 49 3b
       -0.063932724 -0.006040069 -0.15959285 0.0030699729
0003c0 eb e8 22 3c 09 a7 77 bc 4a 1a a3 3b 7f ef 5a 3d
       0.009943227 -0.015115508 0.004977499 0.053451058
0003d0 40 87 22 bc 40 e9 85 bc a3 41 19 3d ff f6 e7 bb
       -0.009919941 -0.016346574 0.03741611 -0.007079005
0003e0 a0 a0 18 3d df 44 15 bd 34 bb 3d bd 61 1d 56 3d
       0.03726256 -0.036442634 -0.04632111 0.05227411
0003f0 68 40 1d bc 1e b3 8c 3c bf a9 27 bc 47 a5 44 3c
       -0.009597875 0.017175253 -0.010233342 0.012002296

bias f4 [2]
000000 31 5c 2e bd 82 e0 42 bd
       -0.04256839 -0.04757739

weight f4 [128, 128]
000000 c1 08 bb bd 60 95 4c bb f1 0e 12 3d c4 0d 65 3c
       -0.09132529 -0.0031216964 0.03565878 0.013980333
000010 33 7e 01 bc 89 0f d1 3c d9 49 96 bd f9 8e 38 3d
       -0.007903623 0.025520103 -0.07338304 0.045058224
000020 4f 8d d2 3c 41 c1 e1 bc 92 89 5a 3d 99 13 15 3c
       0.025702147 -0.027557971 0.053353854 0.009098911
000030 9c 75 50 3d 09 af 11 3d e7 36 8e 3d 1c ee b4 3b
       0.05089341 0.035567317 0.069440655 0.005521549
000040 b4 ab 93 3d d6 e1 20 bd d5 da 4c 3d 1d e3 12 bc
       0.07210484 -0.039277874 0.050013382 -0.008965281
000050 ab eb b2 3c f9 18 8b 3c 4e b5 1c 3d 2e e2 1d bc
       0.02184089 0.016979681 0.038258843 -0.009636445
000060 10 82 87 bc d6 0d 26 3d c7 7d b0 bd 04 d2 55 bd
       -0.01654151 0.04054054 -0.0861774 -0.05220224
000070 d6 32 aa bd cf 08 f0 3c a1 5f 4c 3d 9b 8e 73 3d
       -0.083104774 0.029301075 0.049895886 0.05946217
000080 26 02 1f 3b a0 42 2b bd a9 df 35 3d be 80 6a bd
       0.0024262755 -0.041811585 0.044402752 -0.057251684
000090 70 75 23 3d cf 3a c4 bd bc 92 73 bc 92 0e 86 bd
       0.03990692 -0.09581529 -0.014866527 -0.06545748
0000a0 c4 24 cf 3c 1c ec 83 3c 00 84 85 bd db 73 2d 3d
       0.025286086 0.016103797 -0.065193176 0.042346817
0000b0 ea f0 c3 bc cb b2 60 bd 6c ef 34 bd 46 80 1c 3d
       -0.023918588 -0.05485801 -0.044173643 0.03820827
0000c0 be c0 5c 3d 4b d0 bb bb b8 bb 26 3d 59 83 e6 3c
       0.05389475 -0.0057316176 0.040706366 0.028138803
0000d0 2c 17 bf bd f3 3d b6 bc 74 3a ef bc 09 45 e1 bc
       -0.093305916 -0.022246337 -0.029202677 -0.027498739
0000e0 1b 1f 72 bd d6 cd 84 bd 3d 3b aa bd 34 31 a4 bc
       -0.059111696 -0.064845726 -0.0831208 -0.020042993
0000f0 fd 08 2d 3d 2f d0 5f 3d 9b de 11 3d 77 49 5f 3d
       0.0422449 0.0546419 0.035612684 0.05451342
000100 11 2f 5c bd de 83 c8 3c a0 34 6e 3d bd ff 97 3a
       -0.053755824 0.024476942 0.058155656 0.0011596602
000110 da 86 b4 bd 95 d7 c0 bc 6a 50 08 3d ba 84 b2 bd
       -0.088147834 -0.023540298 0.033279814 -0.08716722
000120 74 1e ed bd eb 77 19 bd a8 9e 3b 3c 94 18 e2 bb
       -0.11578074 -0.03746788 0.011451401 -0.0068999026
000130 b5 e5 f6 3b a4 96 c2 bd 3e 44 76 3d 86 cb 76 bc
       0.0075347074 -0.09501389 0.060123675 -0.015063172
000140 90 37 57 bd 4e 46 7e 3d da 3b 83 bd 9a c9 77 3d
       -0.052543223 0.062078767 -0.064079 0.060494997
000150 f4 85 fc 3c e9 24 26 bd 33 0d 5c 3d c2 ce 66 bd
       0.030825593 -0.040562544 0.053723525 -0.056349523
000160 e8 ef 86 bc 02 9c 9d bc f1 c8 93 bd f4 02 80 3d
       -0.016471818 -0.01923943 -0.07216061 0.06250563
000170 b6 2c 0f 3b fd 14 8e bd 56 5b ff bb 41 da 84 3d
       0.0021846718 -0.06937597 -0.0077928705 0.06486941
000180 4d b9 47 bc 7e 75 a8 3c 6f 59 36 ba a7 f1 76 3c
       -0.012190175 0.020563837 -0.00069560757 0.015072263
000190 a3 85 92 bd 7b d3 16 bd dd 2e 87 bd e0 3d b6 bd
       -0.071543954 -0.036822777 -0.06600735 -0.088985205
0001a0 5e 98 87 3d f3 ed 26 3d d2 87 67 bc b4 2b b8 bd
       0.066208586 0.04075427 -0.014131503 -0.08992711
0001b0 42 26 6c 3d 8c 20 29 ba c7 ff 4b 3c 2a a6 00 bd
       0.057653673 -0.0006451688 0.012451119 -0.031408466
0001c0 81 67 7b 3d be 48 2b 3d 2b 34 ad b8 49 9f ba bd
       0.061378006 0.04181742 -8.259e-05 -0.091124125
0001d0 70 cd 85 bd 72 ef 35 3c 5f 1d a9 3d 61 b1 c0 bd
       -0.06533325 0.0111044515 0.08257555 -0.09408832
0001e0 4c 27 ec 3c f5 db d9 bc d8 4d 27 bd 62 7c 71 3d
       0.028827332 -0.026594141 -0.040845722 0.05895651
0001f0 4d 7c 25 bd 6f cd b6 ba 87 26 bd bc 67 2b 89 bc
       -0.040401746 -0.0013946722 -0.02308966 -0.016744329
000200 ca 75 97 bd 01 32 ab bc 8b cb 6b bc 95 02 7f 3d
       -0.07395513 -0.020897867 -0.01439179 0.06225832
000210 84 66 92 bd c6 3e b0 3b 8d 10 8c bc 21 9f 95 bd
       -0.071484596 0.005378577 -0.017097736 -0.07305742
000220 26 92 81 3d 11 9e 97 bd 0a 6b 77 bc 6d f0 dd 3c
       0.06326704 -0.07403196 -0.015101204 0.027092183
000230 fe 49 56 bc e0 f4 c1 bc 22 88 83 bd 66 7d 9f 3d
       -0.013079165 -0.023676336 -0.0642245 0.0778759
000240 78 5f 9d bd 43 a5 fd bc b6 20 2b 3d c7 43 b3 bd
       -0.07684225 -0.030962592 0.041779242 -0.08753162
000250 4a 8b 32 bb 84 aa 35 bd ad aa 52 bd 30 b2 1e 3b
       -0.0027243667 -0.04435207 -0.0514323 0.0024215095
000260 7d c7 2b bd d8 54 1d 3d 73 be 5e bd 8b 7f 05 bd
       -0.041938294 0.03841099 -0.054380845 -0.032592338
000270 5b f8 ab bd 3e 80 99 3d 57 ca bc bd 83 4e 87 3d
       -0.083969794 0.074951634 -0.09218281 0.06606772
000280 e9 2c 8c 3d 84 8a 66 bd d5 34 5b bd f0 10 8d 3d
       0.068445034 -0.056284443 -0.05351718 0.06887996
000290 e4 cb 93 3d 4b b1 0e bd 95 31 58 3d f0 21 83 bc
       0.072166234 -0.03483705 0.05278166 -0.016007394
0002a0 fe fa 6a 3d 73 fb a7 bd 0d 6d 9d bd ed 86 28 3d
       0.05736827 -0.08202257 -0.076868154 0.0411443
0002b0 00 eb 0a bd e8 f7 69 bc 8f 45 5a bd a8 4b e5 bc
       -0.03391552 -0.014280297 -0.053288992 -0.027990177
0002c0 fa 66 89 bd d2 ef 03 bd 6e ca ca bb d4 c0 84 bd
       -0.06709094 -0.032211132 -0.0061886823 -0.064820915
0002d0 83 1d bf bd 88 db 13 3b d6 db b3 bd 10 46 46 3c
       -0.09331801 0.002256127 -0.08782165 0.012101665
0002e0 f9 a1 78 3b ae 7a b6 bd 2f 98 7c 3d 98 ec 16 3c
       0.003793834 -0.08910118 0.06166857 0.009211682
0002f0 13 61 02 bd 6a 59 8b 3d 7f 9c 9f bd c7 8e 3c 3d
       -0.03183086 0.06804164 -0.07793521 0.0460346
000300 01 f5 e2 3b 83 a9 29 3d dd a5 2a 3d 82 87 02 3b
       0.0069261794 0.041421425 0.041662086 0.0019917195
000310 21 75 a9 bd 87 b8 f1 3c 78 be 3b bc a9 f4 a2 bd
       -0.08274294 0.029506935 -0.0114589855 -0.079568215
000320 56 74 53 bd cc fc 3a bd 92 6e 37 3d ae 26 67 bd
       -0.05162462 -0.045651242 0.044783182 -0.056433372
000330 73 be f9 3c 39 31 77 3d ef 00 4b bd 1e 50 12 3b
       0.030486321 0.060349677 -0.049561437 0.0022325586
000340 8e 56 8b bd 28 c5 7d 3c 60 b8 31 bd f6 e4 73 3d
       -0.06803618 0.0154889 -0.043388724 0.059544526
000350 c9 57 92 3d c9 4e 8f 3a fd 6a ed bc 40 96 4a 3c
       0.0714565 0.0010933514 -0.02898168 0.012364924
000360 12 f8 75 bd 4f d4 69 3d 74 20 9f bd 80 b4 8d 3d
       -0.06005103 0.05708724 -0.07769862 0.06919193
000370 e7 94 2e bd 41 03 07 3d a7 56 9f bd d2 ff 91 bd
       -0.042622473 0.032962088 -0.077801995 -0.07128872
000380 a1 bc 21 bd 4d f9 ec bc 84 56 c0 bd f3 02 17 3d
       -0.03948653 -0.02892747 -0.093915015 0.036868047
000390 31 2b 20 3d e4 34 a9 bd a7 fc ca 3c 5a 41 b3 3c
       0.03910369 -0.08262041 0.024778677 0.021881748
0003a0 2e 23 a1 3d b3 72 4a bd 29 27 9a 3d 9f 8b da 3c
       0.07868038 -0.049425792 0.075270005 0.026677905
0003b0 89 a7 90 3d 3e 89 4c bd b5 1f 8b 3d ae dd 2d 3c
       0.07063205 -0.04993557 0.06793157 0.010611935
0003c0 df 1e 6e 3d 2f f0 87 bd 7f 86 0c 3d 0d 37 8b bd
       0.05813491 -0.06637608 0.034307953 -0.067976095
0003d0 0a 4e 48 3d 1f 36 bc 3b 8a d0 16 bd e8 58 cf bc
       0.04890255 0.0057437564 -0.036819972 -0.025310948
0003e0 6c 90 30 bc 67 47 11 bc 76 12 27 3d 00 c3 a0 bb
       -0.01077662 -0.008867121 0.04078909 -0.0049060583
0003f0 8a 66 9f 3a 8b 25 6b bc 08 bf 43 3d e3 af 85 bc
       0.0012161296 -0.014352213 0.047789603 -0.01631922

bias f4 [128]
000000 47 33 a0 bd 9d d4 7d 3d 18 5e 25 3b f4 d1 3b 3d
       -0.078222804 0.061970342 0.0025233086 0.045854524
000010 86 c2 54 3e 0f f2 d0 bd 27 7b 71 bd 71 e3 c6 bd
       0.2077733 -0.10202419 -0.058955338 -0.0971135
000020 25 40 ab 3e cc 84 6e 3e 97 ce 69 3e d9 c6 a5 3e
       0.33447376 0.23292845 0.22832714 0.3237827
000030 43 51 8f 3e dc 9c 56 3e 9b 38 93 3e e4 70 67 3e
       0.27991685 0.20958275 0.28754124 0.22601658
000040 0f 7b a2 bd af 25 9f 3e 44 3c 3c bb 30 fd a1 bb
       -0.07933628 0.31083438 -0.0028722445 -0.0049435124
000050 01 b9 b1 3c 50 ca 9e 3e 8c 72 58 bc 74 c4 07 be
       0.021694662 0.31013727 -0.013210904 -0.13258535
000060 86 e9 40 bd ea 76 9c 3e 82 09 3f 3e 37 4e 3d 3d
       -0.047097705 0.30559474 0.1865597 0.04621717
000070 ce ad f0 bd c7 54 4f 3e b1 c1 5c 3e af 00 80 bd
       -0.117519006 0.20247184 0.21558262 -0.062501304
000080 f4 41 6d 3e 4e 96 4c 3e a9 91 7d 3e 7e bf 56 3c
       0.2316969 0.19979212 0.24762596 0.013107179
000090 24 99 74 3d db 20 8c bd fc df 8a bd bc 29 7b 3e
       0.05971636 -0.06842204 -0.06781003 0.24527639
0000a0 f6 71 86 3e d3 65 4a bd 8e ef 24 3d 0c 4c b0 3e
       0.2625882 -0.049413513 0.04026752 0.3443302
0000b0 11 18 78 3d 88 85 12 3d 94 12 6b bd 2c 66 c2 bd
       0.060569827 0.035771877 -0.057390764 -0.09492144
0000c0 d3 97 99 bc 07 41 9a 3e 35 fa a8 3e a6 d3 66 bc
       -0.018749153 0.30127737 0.33003393 -0.014088547
0000d0 70 5e 62 3e 87 21 a4 3d 26 91 a6 3e d7 ed 87 3e
       0.22106338 0.08014207 0.32532614 0.26548645
0000e0 bf e0 9d 3e ea b2 8c 3e 0a 34 d7 bc f5 bf 8a 3e
       0.3083553 0.2748025 -0.026269931 0.27099577
0000f0 f1 cb 77 3e dd 5c 80 3e 68 21 8e 3e c0 96 ae 3e
       0.24198891 0.2507085 0.27759862 0.34099388
000100 7c d0 30 3e f4 e3 30 bd d0 73 b5 3e 13 6f ac bd
       0.1726703 -0.043186143 0.3543992 -0.08419623
000110 10 a4 9b 3e a0 4b f1 bd aa 39 4b bc 58 35 85 3e
       0.30398607 -0.117820024 -0.012403885 0.2601726
000120 53 db 99 3e 40 74 43 3e bb 17 69 bd c0 05 95 3c
       0.30050144 0.19087315 -0.056907397 0.018191218
000130 41 0e 81 3e 38 50 3a 3e 14 a0 2d bd 88 0a a3 3e
       0.25206187 0.18194664 -0.04238899 0.31843972
000140 1c ac 49 3e aa 98 2e 3e 49 bd f6 bb 9c 20 26 bd
       0.19694561 0.17050424 -0.007529889 -0.040558442
000150 63 a2 8c bd fc 94 e7 bc e4 42 8f bd 3a ba 88 3e
       -0.0686691 -0.028269283 -0.0699518 0.2670458
000160 fc 69 99 bd 70 28 ab bd ff f8 ae 3e bf d5 5e 3e
       -0.07490918 -0.08357322 0.34174344 0.21761225
000170 9f 2c 7e 3e d3 86 68 3e 80 88 8f bd 16 49 b0 3e
       0.24821709 0.22707681 -0.07008457 0.3443076
000180 3f 34 05 bd c6 08 39 bd b6 00 43 bd 7e bd 8e 3e
       -0.03252053 -0.045174383 -0.0476081 0.27878946
000190 9a 99 57 bd 3b 9c a2 3e e5 86 ed bd 5f 1c a6 3e
       -0.05263672 0.3175982 -0.11597995 0.3244352
0001a0 21 ca ae 3e db d0 97 3e 4c 03 e3 bc c2 91 c4 bc
       0.34138587 0.29651532 -0.027711533 -0.023995284
0001b0 51 25 75 3e b7 27 3a bd 9f 9e 9f 3e a2 a3 76 bd
       0.23940016 -0.04544803 0.31175706 -0.060214646
0001c0 be 8e a6 3e 50 8f 6c be da 6f b0 3e fc b6 96 3e
       0.3253078 -0.23101544 0.34460336 0.2943648
0001d0 3d 55 ab 3e 86 0b 1c 3d 89 d6 c6 3c f6 54 56 3e
       0.3346347 0.038096927 0.02427222 0.20930848
0001e0 79 4a c7 bd 7a 37 ae 3e 5c 0d 8c 3e 08 6d 8f bd
       -0.097310014 0.340267 0.27353942 -0.07003218
0001f0 15 c0 46 3d 91 98 6a bd b7 75 8c 3e 40 0c a9 3e
       0.048523027 -0.057274405 0.2743356 0.33017159

weight f4 [1, 128]
000000 42 12 2a bd 33 e5 f4 bb d9 2b f2 bc bd fe ff bb
       -0.04152132 -0.0074736117 -0.029561924 -0.0078123496
000010 09 35 7c 3e ba 99 e4 bc 88 c1 3b bc 45 90 21 3a
       0.24629606 -0.027905334 -0.011459716 0.00061631604
000020 aa 55 99 3e 27 83 79 3e 84 55 87 3e 77 e3 92 3e
       0.2994817 0.24366437 0.2643243 0.28689167
000030 b9 ac 81 3e 5d 15 a1 3e 87 c2 8b 3e 3e ca 7c 3e
       0.2532709 0.3146161 0.2729685 0.24686524
000040 ae 19 92 bc 6c d4 8a 3e 5d 20 e8 bc 2a 29 a6 bd
       -0.01783451 0.2711519 -0.028335745 -0.0811332
000050 c6 09 1b bc 79 ac 94 3e 03 52 2f 36 97 40 a3 bd
       -0.009462779 0.29037836 2.612477e-06 -0.07971304
000060 29 76 52 bd 30 5e 8d 3e 4e d1 82 3e db 77 d4 bc
       -0.051382218 0.27610922 0.25550312 -0.025936058
000070 50 7d 85 bb db d6 82 3e 99 38 9a 3e 86 5f 93 bb
       -0.0040737763 0.25554547 0.30121306 -0.0044974713
000080 ce a5 7f 3e a5 91 94 3e b8 66 78 3e a8 f6 3b b9
       0.24965593 0.29017368 0.24257934 -0.00017925596
000090 ce 00 5c bd 0b ce 18 bf 6d 03 e7 bc 02 e0 80 3e
       -0.053711705 -0.59689397 -0.028199876 0.25170904
0000a0 66 fe 98 3e f9 d2 7b bd 6b 97 87 bd 3e f2 9c 3e
       0.2988159 -0.061480496 -0.066206776 0.30653566
0000b0 93 24 ff bb 4e 76 92 bc ba 53 41 3c 38 0a 37 3d
       -0.0077863424 -0.017878678 0.011799747 0.04468748
0000c0 0c a3 ac bc f8 04 9e 3e 92 e9 7a 3e d5 a9 c6 bc
       -0.02107384 0.30863166 0.24503163 -0.024250904
0000d0 1b ef 7e 3e d1 b8 6a bd f2 b9 76 3e 3a a9 a9 3e
       0.24895899 -0.05730516 0.2409437 0.33136922
0000e0 e0 1a 9e 3e 56 50 82 3e 33 bc 78 bd 88 a6 8a 3e
       0.3087988 0.25451916 -0.060726356 0.27080178
0000f0 43 3d a0 3e 64 d3 7d 3e ea 79 9d 3e f0 67 85 3e
       0.3129674 0.2478767 0.30757076 0.2605586
000100 be bd 7c 3e 36 aa 2b 3c 19 01 97 3e 50 54 93 bd
       0.24681756 0.010477593 0.29493025 -0.07193816
000110 70 46 82 3e 3d 30 11 bf bf 33 3a bd 66 1b 96 3e
       0.25444365 -0.5671423 -0.045459505 0.29317778
000120 16 65 86 3e 7f f6 72 3e 25 09 90 bd ff c3 95 bc
       0.26248997 0.23726843 -0.07032994 -0.018281935
000130 77 34 84 3e d7 9c 77 3e 08 44 b9 bc be 3b 98 3e
       0.25821277 0.24180923 -0.022615448 0.2973308
000140 e9 62 62 3e 34 3b 77 3e 79 22 4f bd 97 b3 10 bd
       0.22108044 0.24143678 -0.050569985 -0.03532752
000150 13 0d a1 bd 50 a3 df 3c f8 eb 57 bd 39 57 72 3e
       -0.07863822 0.027299553 -0.05271527 0.23666085
000160 2f 73 f6 bc aa 4c 61 bd b5 49 9c 3e 05 c2 9d 3e
       -0.03008422 -0.055004753 0.30524984 0.30812088
000170 e1 bf 88 3e 93 a1 92 3e 42 2d 54 bd bd 6c 8a 3e
       0.26708892 0.28638896 -0.051800974 0.27036086
000180 f4 5e a3 bc 8d 54 cd bc 62 0e 9e bd 39 87 89 3e
       -0.019942738 -0.025064731 -0.07717587 0.2686098
000190 d0 e1 c4 bd 21 01 82 3e ff 32 b4 3c 02 db 90 3e
       -0.09613383 0.25391486 0.021996973 0.2829209
0001a0 f0 d1 7e 3e a8 32 8a 3e 70 ce ea ba 2c 15 58 bb
       0.24884772 0.26991773 -0.0017914306 -0.0032971604
0001b0 68 86 9c 3e f8 c8 2a bd e3 b0 99 3e d5 6c d2 bc
       0.30571294 -0.041695565 0.30017766 -0.02568666
0001c0 0a 94 87 3e 78 e1 98 bf 44 a1 86 3e a2 cd 98 3e
       0.26480132 -1.1943808 0.2629491 0.29844385
0001d0 bb 80 9a 3e ca 70 32 3b bf 19 1e bd 9e 41 9a 3e
       0.3017634 0.0027227872 -0.038598772 0.30128187
0001e0 b8 88 af bc f3 3a 9d 3e 32 10 9f 3e 65 4c 18 3c
       -0.021427497 0.30709037 0.31067044 0.009295558
0001f0 73 03 48 bc a6 1f 91 bd 94 e3 93 3e 30 3a 8b 3e
       -0.012207854 -0.070861146 0.28884566 0.2719283
