data/CartPole-v0_vpg_gpu/CartPole-v0_vpg_gpu_s10/pyt_save/model.pt (torch, 42881 bytes, 11 tensors)

weight f4 [64, 4]
0	0xbe18be5a	-0.14916363
1	0x3c66af5e	0.014079897
2	0xbeaefa5e	-0.3417539
3	0xbd91f177	-0.07126134
4	0x3ec72c99	0.38901213
5	0xbee8c11c	-0.4545983
6	0xbee3744d	-0.44424668
7	0xbebe25e1	-0.37138274
8	0xbe05090a	-0.1299173
9	0x3ea70148	0.32618165
10	0x3da42e4e	0.080166444
11	0x3f078db2	0.52950585
12	0x3dd13af2	0.10216321
13	0x3ed56afa	0.4168318
14	0x3e30ee4f	0.17278408
15	0xbeedc2cf	-0.4643769
16	0xbdb199fa	-0.08671947
17	0x3ea31386	0.31850833
18	0xbe08174f	-0.13290142
19	0xbed2b034	-0.41150057
20	0x3c2c7390	0.010525599
21	0x3e0cf0e1	0.13763763
22	0xbe6cfbed	-0.23142977
23	0xbe308b1b	-0.17240565
24	0x3cfda1bc	0.03096091
25	0xbed8a5ad	-0.423139
26	0x3eeadaa1	0.45869926
27	0xbd8b130f	-0.067907445
28	0x3d9562b6	0.07294218
29	0xbf057234	-0.52127385
30	0x3b07e4e0	0.0020735785
31	0xbecd855f	-0.40140817
32	0xbeef0b6a	-0.46688396
33	0xbe630642	-0.22170356
34	0xbe2b5c40	-0.1673441
35	0x3ef394fa	0.47574598
36	0x3e2a92e2	0.16657594
37	0xbe873948	-0.2641089
38	0x3deef3e7	0.116676144
39	0x3d7a280c	0.061073348
40	0xbe9f2b71	-0.3108783
41	0xbe911387	-0.2833521
42	0xbcc9f647	-0.024653567
43	0x3eed114c	0.4630226
44	0x3e1d4cf8	0.15361392
45	0xbec613f6	-0.38687104
46	0xbead9c21	-0.3390818
47	0x3ecfa980	0.40559006
48	0x3eabfe54	0.33592474
49	0x3e1ed6d6	0.15511641
50	0x3f0c7a8f	0.5487451
51	0x3eddfdb7	0.43357632
52	0x3dc5a97d	0.09651468
53	0xbdfe4f4f	-0.12417471
54	0x3f02ef2f	0.51146215
55	0x3d812dba	0.0630755
56	0x3d84ae06	0.06478505
57	0x3d1b9006	0.03797915
58	0xbdc26abc	-0.09493014
59	0xbe65918b	-0.22418801
60	0xbee894a6	-0.4542591
61	0xbe08713d	-0.13324447
62	0x3d0fb3c8	0.035083562
63	0x3de975b3	0.113994025
64	0x3eef55a8	0.46745038
65	0xbe957cf1	-0.29196885
66	0x3e9558e2	0.29169375
67	0x3e28d2b7	0.16486631
68	0xbe466031	-0.19372632
69	0x3edfce02	0.4371186
70	0xbcf7ca67	-0.03024788
71	0xbea4f2fe	-0.32216638
72	0xbe7c345e	-0.24629351
73	0x3d7cd1e6	0.061723612
74	0xbdc16039	-0.09442181
75	0xbe4b73de	-0.19868419
76	0x3e6d37cd	0.23165818
77	0x3d372964	0.044717208
78	0x3e99d863	0.30047902
79	0xbdde2d3f	-0.10848474
80	0x3e8423a8	0.25808454
81	0xbefa5e00	-0.4889984
82	0xbd3c5f7e	-0.045989506
83	0xbe3dd421	-0.18537952
84	0x3e9c6056	0.30542248
85	0x3e4db529	0.20088638
86	0xbec81784	-0.3908044
87	0x3eb6f466	0.35733336
88	0x3ed81c9b	0.42209324
89	0x3e998654	0.29985297
90	0x3dd2cc4d	0.102928735
91	0xbec824db	-0.39090618
92	0xbef50534	-0.47855532
93	0xbed34754	-0.41265357
94	0xbe466766	-0.19375381
95	0x3edea999	0.43488768
96	0x3ea2c2ea	0.31789333
97	0xbeb144b4	-0.3462273
98	0x3ed00476	0.40628403
99	0x3e9e49e3	0.30915746
100	0x3eee1e63	0.46507558
101	0xbf0202fa	-0.5078579
102	0xbd71bd9b	-0.059018712
103	0xbea7bc5f	-0.32760903
104	0x3e25badd	0.16184564
105	0xbdc0a1c4	-0.09405854
106	0x3ddb3be1	0.1070478
107	0x3e2889de	0.16458842
108	0xbeab8038	-0.3349626
109	0xbe960c41	-0.29306224
110	0x3da87d48	0.082270205
111	0xbe89c9cf	-0.2691178
112	0xbdbc77b5	-0.0920252
113	0x3ec7bac2	0.39009672
114	0xbe8bd37b	-0.27309784
115	0x3e78a06d	0.24279948
116	0xbdf61a8c	-0.12016782
117	0xbeca4afb	-0.3951033
118	0x3ecad00b	0.3961185
119	0x3f09d213	0.5383617
120	0xbee970a8	-0.45593762
121	0x3ed20bb1	0.41024545
122	0xbda0841e	-0.07837699
123	0xbe58c7bf	-0.21169947
124	0x3da8c03e	0.08239792
125	0xbea78ecd	-0.32726136
126	0xbea20725	-0.31646076
127	0xbea29a48	-0.31758332
128	0xbea9e3ac	-0.33181512
129	0xbe97508e	-0.29553646
130	0xbe9554ce	-0.29166263
131	0x3f0c9a74	0.54923177
132	0x3e84e2dd	0.25954333
133	0xbe88f7aa	-0.26751453
134	0xbe44586c	-0.19174355
135	0x3e8c5f63	0.27416524
136	0xbe090595	-0.13381036
137	0x3e7174d7	0.23579727
138	0x3d30ca82	0.043161876
139	0xbed94cae	-0.42441314
140	0xbdf25c34	-0.118339926
141	0x3c9b94ff	0.018991945
142	0xbe75c009	-0.23999037
143	0xbf09ce06	-0.5382999
144	0xbeb50410	-0.35354662
145	0xbd8c9414	-0.06864181
146	0xbef0620b	-0.469498
147	0xbeed026d	-0.46290913
148	0xbd108a4e	-0.035288148
149	0x3e4b2e3f	0.1984186
150	0x3eb1a91e	0.3469934
151	0xbe2ef353	-0.17085008
152	0xbd1a5367	-0.037677195
153	0xbda002c0	-0.078130245
154	0xbc60e787	-0.013727075
155	0x3e246496	0.16053995
156	0x3e9e18cb	0.3087829
157	0xbeff2850	-0.49835443
158	0x3eca3636	0.39494485
159	0xbe35d40e	-0.17756674
160	0x3c516184	0.012779597
161	0xbda6369b	-0.08115884
162	0x3e88b36d	0.2669939
163	0xbe5ffd09	-0.21873869
164	0xbeba0ac5	-0.36336342
165	0x3ee6b091	0.45056584
166	0x3e91afe7	0.28454515
167	0x3ea63ca0	0.32468128
168	0x3e663c01	0.22483827
169	0x3e94e20e	0.29078716
170	0xbe0cadea	-0.13738218
171	0x3e9ab214	0.30213988
172	0xbee8509b	-0.45373997
173	0xbd5969da	-0.053079464
174	0x3f0ea412	0.557191
175	0x3dc3c2cf	0.09558641
176	0xbe1b3840	-0.15158176
177	0xbeea17d5	-0.45721307
178	0x3e8f9d36	0.2804963
179	0x3e4dc352	0.2009404
180	0xbd6ff7f9	-0.058586095
181	0x3ea5bbf8	0.3236997
182	0xbeb0489c	-0.34430397
183	0x3eb92607	0.36161825
184	0xbe889311	-0.26674703
185	0xbced5fae	-0.028976288
186	0xbdf37c52	-0.118889466
187	0x3df85c04	0.121269256
188	0x3deffdc6	0.11718325
189	0xbeb7ac2d	-0.35873547
190	0xbe7fd283	-0.24982648
191	0x3f009cc2	0.50239193
192	0xbe471328	-0.19440901
193	0x3ea0d961	0.31415847
194	0xbe1dd162	-0.15411904
195	0x3e69d741	0.22836019
196	0xbdbbb3c2	-0.091651455
197	0xbe0894d6	-0.13338026
198	0x3e464eb9	0.19365968
199	0xbee84f9b	-0.45373234
200	0xbe8fb47c	-0.28067386
201	0x3d606eed	0.054793287
202	0x3ea01aab	0.31270346
203	0x3e974bb2	0.29549938
204	0x3e870a14	0.26374876
205	0x3e44a085	0.19201858
206	0x3eed79e9	0.46382073
207	0xbc397f17	-0.0113218045
208	0x3e936cb1	0.28793862
209	0x3e846330	0.25856924
210	0x3ed79d23	0.42112073
211	0xbe4da2ab	-0.20081584
212	0x3b857acd	0.004073477
213	0xbe282662	-0.16420892
214	0xbd5682a4	-0.052370682
215	0xbe04dd9e	-0.12975165
216	0xbebf6fff	-0.37390134
217	0x3e8c545f	0.2740812
218	0x3e6f4977	0.23367868
219	0xbeef06d4	-0.46684897
220	0x3d8a91b8	0.06766075
221	0x3dcc6d63	0.09981801
222	0xbe333576	-0.17500862
223	0x3e5b955d	0.21443696
224	0xbdfcc76c	-0.12342724
225	0xbea7447f	-0.32669446
226	0xbdb05dfe	-0.086116776
227	0x3ea098e2	0.3136664
228	0x3d738164	0.05944957
229	0x3d94afa3	0.072600625
230	0x3dc8862c	0.09791216
231	0x3de1b644	0.110210925
232	0x3eaba46c	0.3352388
233	0x3eef1152	0.46692902
234	0x3dd84abc	0.105611295
235	0x3ed538c2	0.41644865
236	0xbe2f5546	-0.17122373
237	0xbe53650e	-0.20644018
238	0x3e1b8358	0.15186822
239	0x3e7bc0d5	0.24585278
240	0xbecd6dd8	-0.40122867
241	0x3ea89df9	0.32933024
242	0xbea076eb	-0.31340727
243	0xbe91c264	-0.2846862
244	0xbaf42e88	-0.001862959
245	0x3ea14502	0.3149796
246	0xbf077c66	-0.5292419
247	0x3e16fb76	0.14744362
248	0xbe0fb309	-0.1403314
249	0xbe5573cc	-0.20844954
250	0x3e1213c2	0.1426535
251	0x3e0bcaae	0.13651535
252	0xbd0f572f	-0.034995254
253	0xbec7e687	-0.39043066
254	0xbf0f91a8	-0.5608163
255	0xbedc1738	-0.42986465

bias f4 [64]
0	0xbeaf0664	-0.34184563
1	0x3e886438	0.2663896
2	0xbe76cbd7	-0.24101196
3	0xbe925aa9	-0.28584793
4	0x3d7ed47d	0.062214363
5	0xbe964780	-0.29351425
6	0x3eb28b14	0.34871733
7	0x3d94ee3f	0.07272004
8	0xbe036634	-0.12831956
9	0xbeec531e	-0.46157163
10	0x3e07c74e	0.13259622
11	0x3ede3662	0.43400866
12	0x3d1c390c	0.03814034
13	0x3e411087	0.18853961
14	0xbdf45b4d	-0.11931477
15	0xbd9fb45a	-0.07798071
16	0xbeadf163	-0.33973226
17	0x3e1496c6	0.1451064
18	0xbecd8796	-0.40142506
19	0xbd61eaa0	-0.055155396
20	0x3ed59437	0.4171464
21	0x3e124224	0.14283043
22	0x3e5f74e7	0.21821938
23	0xbec6a648	-0.38798738
24	0xbed2f411	-0.41201833
25	0xbcd7aa10	-0.02632621
26	0x3ef7b7fb	0.48382553
27	0x3e04b79b	0.12960665
28	0xbe981f80	-0.29711533
29	0xbe5645c4	-0.20925051
30	0xbd940f0c	-0.072294325
31	0x3ed45187	0.4146845
32	0x3e23ea5c	0.1600737
33	0xbe9b4337	-0.30324718
34	0xbea8ad63	-0.32944784
35	0x3e92c784	0.28667843
36	0x3c941eaa	0.018081028
37	0x3ef30563	0.47465047
38	0x3eb7e441	0.3591633
39	0xbeeb65d6	-0.45976132
40	0x3ef75a98	0.48311305
41	0xbd2efaf9	-0.042719815
42	0x3df0e0b8	0.11761612
43	0xbe0f5978	-0.13998973
44	0x3e0eabd4	0.13932735
45	0x3e601a8d	0.21885128
46	0xbd020619	-0.031744096
47	0x3eb47555	0.35245767
48	0x3db7a036	0.08966105
49	0x3db43dd9	0.08800859
50	0x3eb42556	0.35184735
51	0x3e1b65d0	0.15175557
52	0x3e97c3de	0.29641622
53	0x3cf1df5d	0.029525453
54	0x3ec67963	0.38764486
55	0xbef4e113	-0.47827968
56	0xbe1f850e	-0.155781
57	0x3e93fe1d	0.2890481
58	0x3e2fb794	0.17159873
59	0xbe7f8b85	-0.24955566
60	0xbd458370	-0.04822105
61	0x3dc6028b	0.09668454
62	0xbe1fc6f7	-0.15603243
63	0x3e8c1e0a	0.27366668

weight f4 [64, 64]
0	0x3d1b9587	0.037984397
1	0x3d32baec	0.043635294
2	0xbde2df04	-0.11077693
3	0xbd069e94	-0.032866076
4	0xbd05f2aa	-0.032702126
5	0x3df2475c	0.11830017
6	0xbc2e312a	-0.010631839
7	0x3b737cf1	0.0037153328
8	0x3ceae95b	0.028675726
9	0x3c294629	0.010331669
10	0x3d68c297	0.0568262
11	0x3d5983c8	0.053104192
12	0xbe391993	-0.18076162
13	0x39ae7469	0.00033274599
14	0xbd20d187	-0.03926232
15	0xbd858522	-0.06519534
16	0xbe0320f8	-0.12805545
17	0xbd0a5dbc	-0.0337808
18	0x3d1e85b7	0.03870174
19	0x3db3a0c6	0.087708995
20	0x3c3f0e8d	0.011661184
21	0xbd96e9fd	-0.073688485
22	0x3d931eb4	0.071835905
23	0xbdf5baf7	-0.11998551
24	0x3d07f598	0.0331932
25	0x3dad404c	0.08459529
26	0xbd3163f4	-0.043308213
27	0x3d943b93	0.072379254
28	0xbc94fe37	-0.018187625
29	0x3d1b6ad2	0.03794367
30	0xbdda7f85	-0.10668854
31	0x3db29495	0.08719746
32	0xbdf21cb6	-0.118218824
33	0xbde1ddce	-0.11028634
34	0x3e1916ef	0.14950155
35	0x3d1207a3	0.035651814
36	0x3d22e827	0.03977218
37	0xbc88d4ef	-0.016703097
38	0x3dda665c	0.10664055
39	0x3d800d6f	0.06252562
40	0xbddd9f5c	-0.10821411
41	0x3d40ae50	0.047041237
42	0xbb09729e	-0.0020972858
43	0xbc668951	-0.014070825
44	0x3d1a9288	0.0377374
45	0x3d6b77aa	0.057487167
46	0xbd9a174e	-0.07523976
47	0xbdc542b7	-0.096318655
48	0x3d588e99	0.052870367
49	0x3dec4d3c	0.11538169
50	0xbda46edd	-0.08028958
51	0x3d61a338	0.0550873
52	0x3db9b388	0.09067446
53	0x3dd43018	0.10360736
54	0xbd8442a8	-0.06458026
55	0xbd50c3e5	-0.05096807
56	0xbd2fc9a6	-0.042916916
57	0xbd5e49d2	-0.05426962
58	0x3d3ad110	0.045609534
59	0x3dbd7ae3	0.092519544
60	0x3db972e5	0.090551175
61	0xbd9f5293	-0.07779422
62	0xbd66e3fe	-0.056369774
63	0x3e1cf226	0.15326747
64	0xbc68ca41	-0.014208377
65	0x3be41125	0.0069600516
66	0x3c0127d9	0.007883036
67	0xbd890bb5	-0.06691686
68	0x3d7335a3	0.059377324
69	0x3c42127c	0.011845227
70	0xbd229391	-0.03969151
71	0x3de204c5	0.11036066
72	0xbda9aaaa	-0.08284505
73	0x3d79cb42	0.060984857
74	0xbcdac065	-0.026703069
75	0xbdfc2052	-0.12310852
76	0xbe04ae4d	-0.12957115
77	0xbcb97e8b	-0.022643348
78	0x3e0f5629	0.13997711
79	0x3d3838a1	0.04497588
80	0xbdfec1e1	-0.12439323
81	0x3dbe82da	0.09302302
82	0x3dcdffa7	0.100585274
83	0xbd8a2706	-0.067457244
84	0xbdc767de	-0.09736608
85	0xbd86b8ff	-0.06578254
86	0x3e0d80b2	0.13818625
87	0xbd61c44a	-0.055118836
88	0xbdff3e93	-0.12463107
89	0x3db18f93	0.08669963
90	0x3d4bced2	0.049757786
91	0x3d0ba5a7	0.034093525
92	0xbd9d1c8b	-0.0767146
93	0x3d910555	0.07081095
94	0xbd88ee6a	-0.06686099
95	0x3d89c0ab	0.067262016
96	0xbd528838	-0.05139944
97	0xbd23d483	-0.03999759
98	0x3d9f955d	0.07792161
99	0xbd5a1877	-0.053245988
100	0xbd29eade	-0.041483752
101	0x3c4c62bb	0.012474711
102	0xbd4898af	-0.048973735
103	0x3cc03733	0.023463821
104	0x3db53805	0.088485755
105	0xbd9af441	-0.07566119
106	0xbd8523ae	-0.06500946
107	0xbe0e7f26	-0.13915691
108	0xbdd4c3e1	-0.103889234
109	0x3a3cf560	0.00072081946
110	0xbc4ad1af	-0.012379094
111	0x3da8443c	0.0821614
112	0x3d81b9a8	0.06334239
113	0x3d1d5b2e	0.038417034
114	0xbe09e01e	-0.134644
115	0xbcdda3df	-0.027055679
116	0x3dd89ae7	0.1057642
117	0x3c896974	0.016773917
118	0x3db3b73f	0.08775186
119	0xbdeed082	-0.116608635
120	0xbde086ab	-0.10963186
121	0xbdd10c70	-0.102074504
122	0x3c881a00	0.01661396
123	0xbd4e5af7	-0.05037972
124	0xbd79759c	-0.060903177
125	0x3da9c274	0.08289042
126	0x3d149484	0.036274448
127	0x3e22e12f	0.15906213
128	0xbc4f9976	-0.012670865
129	0xbde37f2b	-0.1110824
130	0xbd408bf3	-0.047008466
131	0xbe0c6773	-0.13711338
132	0xbe1ee827	-0.15518247
133	0x3d9d4ebc	0.07681033
134	0xbdcecab5	-0.10097257
135	0xbd0dee53	-0.03465111
136	0xbc7e44d6	-0.015519341
137	0x3dc21d2e	0.09478222
138	0x3d46ce0d	0.04853635
139	0x39a1ff88	0.000308987
140	0x3d0b7ac2	0.034052618
141	0x3da9003d	0.082519986
142	0x3d773053	0.06034882
143	0xbc8dfdb7	-0.017332895
144	0x3e03c449	0.12867846
145	0x3da53a98	0.080678165
146	0xbd9730ba	-0.07382341
147	0xbdfaa003	-0.12237551
148	0xbd439a85	-0.047754783
149	0x3d9fedbf	0.07809018
150	0xbd0223d1	-0.03177244
151	0x3d459051	0.048233334
152	0x3d3a133a	0.045428492
153	0xbe18e295	-0.14930184
154	0x3c9f6229	0.019455986
155	0xb919f110	-0.0001468102
156	0xbb75dfeb	-0.0037517499
157	0x3dbbd25f	0.091709845
158	0xbcfe0852	-0.031009827
159	0x3d483c15	0.048885424
160	0x3d25cf1c	0.040480718
161	0x3d9a4207	0.07532125
162	0xbc6c7008	-0.014431007
163	0xbdd119c4	-0.102099925
164	0xbe191efc	-0.14953226
165	0x3dc2710c	0.09494218
166	0xbcf38b06	-0.029729377
167	0x3d3f397a	0.046685673
168	0x3d04849f	0.03235304
169	0x3e220e52	0.15825775
170	0x3dc688e4	0.096940786
171	0x3deba03d	0.115051724
172	0x3d8e0da5	0.06936196
173	0x3d377ae5	0.044794936
174	0x3ca7952e	0.020456877
175	0xbda5ff2f	-0.08105313
176	0xbceb536f	-0.028726308
177	0xbe0cb989	-0.13742651
178	0xbd44ee9b	-0.048079114
179	0xbd2b5aad	-0.041834522
180	0x3c58c1b1	0.013229773
181	0xbd6a3108	-0.057175666
182	0x3dbee347	0.093206935
183	0xba810501	-0.000984341
184	0x3dcf3c71	0.1011895
185	0xbdc8b9db	-0.09801074
186	0xbbccf2b0	-0.0062545165
187	0x3dbf8f60	0.093535185
188	0xbdd7b202	-0.10531999
189	0x3ce8f3ea	0.02843662
190	0x3e0856f0	0.13314414
191	0x3d918308	0.0710507
192	0xbc08d8d7	-0.00835248
193	0xbe13b6cd	-0.14425202
194	0x3e197cd0	0.14989018
195	0x3c284346	0.0102699455
196	0x3d5bb9bd	0.05364393
197	0x3cc5f609	0.02416517
198	0xbdc5468c	-0.096325964
199	0xbc9c8fb1	-0.019111486
200	0x3d9230a0	0.07138181
201	0xbdd29cff	-0.10283851
202	0x3e1c8612	0.15285519
203	0xbd98cf9e	-0.07461475
204	0x3df750dd	0.1207597
205	0xbc82ea5d	-0.015980894
206	0xbd8e2b74	-0.06941882
207	0xbd92fae9	-0.071767636
208	0x3de9ed53	0.11422219
209	0x3d4ceb13	0.05002887
210	0x3d92d389	0.071692534
211	0x3de7a9f8	0.11311716
212	0x3db39ce0	0.08770156
213	0x3c411164	0.011783931
214	0x3b34c7a3	0.0027584813
215	0x3bb8a82f	0.0056352834
216	0xbda5f462	-0.08103253
217	0xbe0054d0	-0.12532353
218	0x3dd0d5fd	0.10197065
219	0xbdaff54a	-0.08591707
220	0x3d5fc14f	0.054627713
221	0x3d8b5b6b	0.06804546
222	0x3dc3cb91	0.095603116
223	0x3c05d69e	0.0081688445
224	0x3d3e48ad	0.046456028
225	0x3dcbf237	0.09958308
226	0x3da7bf1a	0.081907466
227	0xbdadf2f3	-0.084936045
228	0x3da98289	0.08276851
229	0x3df17d24	0.11791447
230	0xbd7c0498	-0.06152782
231	0x3ca5d98a	0.020245332
232	0x3d8c2490	0.06842911
233	0x3e03509b	0.12823717
234	0xbc160288	-0.009155877
235	0xbd801785	-0.06254486
236	0x3ca6af0b	0.020347139
237	0x3dc26ab3	0.094930075
238	0x3da54a1d	0.080707766
239	0xbd48199a	-0.04885254
240	0x3c7f6cf5	0.015589942
241	0xbd7082b0	-0.058718383
242	0xbd41ca16	-0.047311865
243	0x3d4a1879	0.049339745
244	0x3dbec9f3	0.093158625
245	0x3cb96961	0.022633256
246	0xbd5f5083	-0.05452014
247	0x3cd0bdc1	0.025481107
248	0xbda5ec8f	-0.081017606
249	0x3d92f148	0.07174927
250	0xbd37acaa	-0.0448424
251	0xbd74bc74	-0.059750035
252	0x3dd1606a	0.10223468
253	0xbbb4949e	-0.0055108806
254	0x3dff99ec	0.1248053
255	0xbe08daab	-0.13364665

bias f4 [64]
0	0x3db3aea7	0.08773547
1	0xbcc53751	-0.024074228
2	0xbdba5a4c	-0.09099254
3	0x3de260b0	0.11053598
4	0xbd6692b1	-0.05629224
5	0xbd103cfe	-0.035214417
6	0x3def78ae	0.1169294
7	0x3d2c8afa	0.042124726
8	0xbdb3c4e9	-0.08777792
9	0x3d3722ba	0.044710852
10	0x3de80cfa	0.113306
11	0x3d2a2fd8	0.041549534
12	0x3d829e7f	0.06377887
13	0xbdd5306b	-0.104096256
14	0x3c9c7e7f	0.019103287
15	0x3c019d86	0.007911092
16	0xbde73efe	-0.11291312
17	0x3cfe15e7	0.031016303
18	0xbda1f6c4	-0.07908395
19	0xbd77f848	-0.060539514
20	0x3d31d77d	0.043418396
21	0xbc35e9b6	-0.011103084
22	0x3bb79713	0.0056027262
23	0xbda6a4dc	-0.08136913
24	0xbd642ba2	-0.055705674
25	0x3dbe68fa	0.092973664
26	0x3d17cee0	0.037062526
27	0x3b0de538	0.0021651518
28	0x3e00555a	0.12532559
29	0x3dcbe69f	0.09956097
30	0xbdbbb939	-0.09166188
31	0x3ce8ff9f	0.028442202
32	0xbd9584b1	-0.073006995
33	0x3dd8e2dc	0.10590145
34	0xbcce5654	-0.025187649
35	0xbca64045	-0.020294318
36	0x3dc7d77d	0.09757898
37	0x3d8b4396	0.068
38	0x3b7c5414	0.0038502263
39	0xbb054c7e	-0.0020339782
40	0x3dae5b49	0.08513505
41	0x3d699cca	0.05703429
42	0xbd404d21	-0.046948556
43	0x3afd2f9c	0.0019316557
44	0x3d5ec2c7	0.054384973
45	0xbc580b87	-0.013186342
46	0x3da698c2	0.08134605
47	0xbda19311	-0.07889379
48	0xbd477d2c	-0.048703358
49	0x3c1acb40	0.009447873
50	0x3c9cfc5f	0.019163309
51	0xbd004d95	-0.031323988
52	0x3dd54d92	0.10415186
53	0xbd4059ca	-0.04696063
54	0xbd9da177	-0.076968126
55	0x3deabeb5	0.11462156
56	0x3db2ff0c	0.087400526
57	0xbd5c3e0a	-0.053770103
58	0xbdf0ae50	-0.117519975
59	0x3dc24e17	0.09487551
60	0x3d18e894	0.03733118
61	0x3d8c9af6	0.06865494
62	0x3b4d9c20	0.0031373575
63	0x3c7b962a	0.015355626

weight f4 [2, 64]
0	0x3d8e3edf	0.069455855
1	0x3e065327	0.13117658
2	0xbdd7c2ee	-0.10535227
3	0xbdc9b7c3	-0.09849503
4	0xbd73e581	-0.059545044
5	0xbdadbedc	-0.08483669
6	0xbe1b690b	-0.1517679
7	0x3cad7b60	0.021176994
8	0xbd9a23e8	-0.0752638
9	0x3e0195d5	0.12654813
10	0x3cac78fa	0.02105378
11	0xbd365f77	-0.044524636
12	0xbced3c68	-0.028959468
13	0xbc8e497f	-0.01736903
14	0x3cd54bf7	0.0260372
15	0xbd8fc68a	-0.0702029
16	0xbc10e336	-0.008843234
17	0x3dc2fa74	0.095204264
18	0x3e143ae3	0.14475589
19	0x3e0041fa	0.12525168
20	0x3d7289d7	0.059213486
21	0x3d69c584	0.05707313
22	0xbdb74694	-0.089490086
23	0x3dd8abb4	0.10579625
24	0x3e155994	0.14584953
25	0x3d3bf3bb	0.045886736
26	0x3dafffbc	0.08593699
27	0xbd66f1f6	-0.056383096
28	0x3d3d0cc4	0.046154752
29	0xbe031ec7	-0.1280471
30	0x3e1df579	0.15425672
31	0x3dddc096	0.108277485
32	0xbe07862e	-0.13234779
33	0x3d91913b	0.07107779
34	0x3dd63e50	0.10461104
35	0xbb6672c3	-0.0035163618
36	0xbdbf05cc	-0.093272775
37	0x3d1a3ed3	0.03765757
38	0xbd96cb01	-0.07362939
39	0xbdf788f3	-0.12086668
40	0x3d9803a8	0.074225724
41	0xbc721867	-0.014776326
42	0xbd702410	-0.058628142
43	0x3e01fb68	0.1269356
44	0xbe221f0e	-0.15832159
45	0x3d4f4f56	0.05061277
46	0xbd5cba80	-0.053888798
47	0x3b4a8ed0	0.0030907877
48	0x3d355f78	0.0442805
49	0x3e175573	0.1477869
50	0x3df5db5e	0.120047316
51	0xbd79063b	-0.060796957
52	0x3df81628	0.12113601
53	0x3d97dfba	0.07415719
54	0xbcd37ec8	-0.02581729
55	0xbd82061f	-0.06348824
56	0xbdcd7cea	-0.10033591
57	0xbe1b4e16	-0.15166506
58	0x3e117c70	0.14207625
59	0x3dc5349d	0.09629176
60	0xbe24a783	-0.16079526
61	0x3dd2ab63	0.10286596
62	0x3db2a02c	0.087219566
63	0xbc6b39c0	-0.01435703
64	0xbcf10e67	-0.029425813
65	0xbdffbd6c	-0.12487301
66	0xbd142a52	-0.036173172
67	0xbcf8c906	-0.030369293
68	0x3c5ae745	0.013360803
69	0x3d484485	0.04889347
70	0x3e1a1c32	0.15049818
71	0xbd9a0fb3	-0.07522526
72	0xbcec1be2	-0.02882189
73	0x3c94c147	0.018158568
74	0xbd9fb805	-0.07798771
75	0x3db55600	0.08854294
76	0x3e26ed2a	0.16301408
77	0xbd841c04	-0.06450656
78	0xbdc5a8b9	-0.09651322
79	0xbb5d1757	-0.0033735835
80	0x3e13f3d0	0.14448476
81	0xbcb9cbbc	-0.022680156
82	0x3d641c51	0.055691067
83	0x3d05cc1d	0.03266536
84	0x3c7b4715	0.0153367715
85	0xbe075a3d	-0.13218017
86	0x3dc4c8c2	0.09608604
87	0xbdf233be	-0.11826275
88	0xbe18544b	-0.14875905
89	0xbe09be46	-0.1345149
90	0xbd0ced03	-0.03440572
91	0x3d8cc35f	0.068732016
92	0xbdf80c32	-0.12111701
93	0x3d6add13	0.05733974
94	0x3ccd8c18	0.025091216
95	0x3d5395c8	0.051656514
96	0xbd317952	-0.04332859
97	0x3d039843	0.03212763
98	0xbe009cae	-0.12559769
99	0xbd4bb840	-0.04973626
100	0x3d8ba054	0.068176895
101	0x3e1d8b2a	0.15385118
102	0x3e0d5137	0.13800512
103	0x3c01912d	0.007908148
104	0xbdc21370	-0.09476364
105	0xbdce1f80	-0.10064602
106	0x3d5d386e	0.054008894
107	0xbd83ccde	-0.0643556
108	0x3df9b8a0	0.121934175
109	0xbe1308bf	-0.14358805
110	0xba97de77	-0.0011586685
111	0x3df783b1	0.12085665
112	0xbdef3d4f	-0.116816156
113	0xbc936e03	-0.017996794
114	0x3d65e80e	0.056129508
115	0xbd7206c4	-0.059088483
116	0xbd4628fa	-0.048378922
117	0xbd94d859	-0.072678275
118	0x3d9aea77	0.07564252
119	0xbd5e312c	-0.054246113
120	0x3d89a28b	0.06720456
121	0x3e0701cf	0.13184284
122	0xbdc624cb	-0.096749865
123	0xbb32d358	-0.0027286615
124	0x3e11db91	0.14243914
125	0xbc8e36bb	-0.017360082
126	0x3c771cd0	0.015082553
127	0x3d89cd89	0.06728656

bias f4 [2]
0	0xbdd9c787	-0.1063376
1	0x3deca1f7	0.1155433

weight f4 [64, 4]
0	0x3ec59d92	0.3859678
1	0xbe80b9f0	-0.2514186
2	0xc01f4f81	-2.4892275
3	0xbaebc342	-0.0017987269
4	0xbf30b4c1	-0.6902581
5	0x3e60eb56	0.21964774
6	0xbf85b9f0	-1.0447369
7	0xbf0b6550	-0.54451466
8	0x3e368ccf	0.17827152
9	0xbce4d46b	-0.02793332
10	0xc022aa8f	-2.54166
11	0xbe065ee8	-0.13122141
12	0xbcea9762	-0.028636638
13	0x3f81000f	1.0078143
14	0x3fb5c57a	1.420089
15	0x3ebb716c	0.36609972
16	0xbf8f91b0	-1.1216335
17	0x3f2e46aa	0.68076575
18	0x40111240	2.266739
19	0x3ee53c5b	0.4477261
20	0x3e943545	0.2894689
21	0xbea375d1	-0.31925824
22	0x40351b5e	2.8297954
23	0xbed21783	-0.41033563
24	0xc005b229	-2.088999
25	0x3d61ae0f	0.055097636
26	0x3e6385a6	0.22218952
27	0xbeb0a634	-0.34501803
28	0x3f9049f3	1.1272568
29	0xbeb5cebc	-0.35509288
30	0xbe57d713	-0.21078138
31	0xbe187647	-0.14888869
32	0xbe6283ad	-0.22120543
33	0xbf9fae35	-1.2475039
34	0x3f23a80b	0.6392829
35	0xbf030e66	-0.51193845
36	0x3f16bd13	0.58882254
37	0xbf2d4175	-0.67678005
38	0xc0026fb5	-2.038068
39	0xbec12ef1	-0.37731126
40	0xbf005d65	-0.5014251
41	0x3eb56330	0.35427237
42	0xc018b37e	-2.3859553
43	0xbeca09c4	-0.39460576
44	0xbeb49bf0	-0.3527522
45	0x3eac3c68	0.33639836
46	0xc01bc7ea	-2.4340768
47	0xbe8af3fd	-0.27139273
48	0x3f0c09c1	0.54702383
49	0xbf752f21	-0.9577504
50	0xbf72161b	-0.9456498
51	0xbf3993c0	-0.72491074
52	0x3f7c5c47	0.98578304
53	0xbb46eca3	-0.0030353449
54	0xbf932a2e	-1.1497247
55	0xbcf2d5ae	-0.029642906
56	0x3f90451d	1.1271092
57	0x3d7fa045	0.062408704
58	0x3e848584	0.25883114
59	0xbd74ec62	-0.059795745
60	0x3e7ecf2c	0.24883717
61	0x3dacaf0f	0.08431827
62	0x40324079	2.785185
63	0xbe8ff756	-0.2811839
64	0xbd77fb89	-0.060542617
65	0x3f2b8cb4	0.6701157
66	0xbfacdb46	-1.3504417
67	0xbd823252	-0.06357254
68	0xbee2a8e7	-0.44269487
69	0xbed73503	-0.42032632
70	0xbfc2e4dc	-1.5226092
71	0xbf36392f	-0.71181005
72	0xbe180383	-0.1484509
73	0xbe9dc9fb	-0.3081816
74	0xc010d350	-2.2628975
75	0xbe3f592f	-0.18686365
76	0x3d0268a6	0.03183808
77	0x3ec70cca	0.38876945
78	0xc0121a86	-2.2828689
79	0xbe7842aa	-0.2424418
80	0x3e94f1bc	0.2909068
81	0x3ea2cb7e	0.31795877
82	0x400b9be0	2.1813889
83	0x3e2f0c0e	0.17094442
84	0x3f309c24	0.6898825
85	0xbf1e8c4f	-0.61932844
86	0x3ff86bc7	1.9407891
87	0xbebc92d8	-0.36830783
88	0xbfcf5560	-1.6197929
89	0x3d88a9d8	0.0667302
90	0x3f3c34ca	0.7351805
91	0xbe80c493	-0.25149974
92	0x3f866b56	1.0501506
93	0xbc0ece61	-0.008716197
94	0xbfab5db7	-1.3387975
95	0x3dff307f	0.12460422
96	0xbe7e8700	-0.24856186
97	0x3f58f612	0.84750473
98	0x40058a19	2.0865538
99	0x3f48f698	0.7850127
100	0xbe938a19	-0.28816298
101	0xbf298e0e	-0.66232383
102	0xbf82c3c8	-1.0215998
103	0x3e44e20c	0.19226855
104	0xbec6d6a8	-0.38835645
105	0xbcfd41eb	-0.030915221
106	0xc007b0a0	-2.1201553
107	0xbe786af9	-0.24259557
108	0x3ec2997e	0.3800773
109	0x3ed6e6a0	0.41972828
110	0x3fc16922	1.5110209
111	0x3f49d4bc	0.7884023
112	0xbfccd3f3	-1.6002182
113	0xbcaedfd4	-0.021346964
114	0x3f589209	0.8459783
115	0xbd83f58b	-0.06443318
116	0xc01ce091	-2.4512064
117	0xbd69a325	-0.057040352
118	0xbf3123ad	-0.6919506
119	0xbe204247	-0.15650283
120	0x3f180bf7	0.59393257
121	0x3d5e8e22	0.054334767
122	0xbfd66294	-1.6748834
123	0xbe8645c0	-0.2622509
124	0x3e378ba1	0.17924358
125	0x3f240063	0.6406309
126	0x400c23c3	2.1896827
127	0x3eace460	0.33767986
128	0xbf6f7038	-0.9353061
129	0x3f1c4fca	0.6105925
130	0xc0144b87	-2.3171098
131	0x3e91afea	0.28454524
132	0xbe355d55	-0.17711385
133	0xbf044881	-0.5167313
134	0xc010968c	-2.2591887
135	0xbf092606	-0.53573644
136	0xc00ec9cc	-2.2310667
137	0x3e56316b	0.20917289
138	0x3f75cf8e	0.9601983
139	0x3d8ae2e4	0.06781557
140	0x3f0f6ee4	0.5602858
141	0x3ee6cc62	0.45077807
142	0x3f815be4	1.0106168
143	0x3f01bbf8	0.5067744
144	0x3f19531d	0.59892446
145	0xbf3cd461	-0.73761564
146	0x40372c9a	2.8620973
147	0xbee03264	-0.43788445
148	0x3fb3beab	1.4042562
149	0xbdbbd62c	-0.091717094
150	0xc00484f1	-2.070614
151	0xbe918cf1	-0.28427842
152	0x3f71f5e3	0.9451582
153	0xbf064057	-0.52441925
154	0x3fdd90e6	1.7309844
155	0xbe92377b	-0.28557953
156	0x3f24e5d5	0.64413196
157	0xbe980142	-0.2968846
158	0x3f8abc1c	1.0838656
159	0x3ed128aa	0.40851337
160	0xbf6a495d	-0.91518193
161	0x3e8cb0ad	0.27478543
162	0x3fcb0ba9	1.5862933
163	0x3de4029b	0.111333095
164	0xbfac3277	-1.3452901
165	0xbdbe64cf	-0.092965715
166	0x3ea89481	0.329258
167	0x3e3a39b1	0.1818607
168	0xbed18042	-0.40918165
169	0xbf1ee44b	-0.620671
170	0xbf9dac37	-1.2318181
171	0xbf3a87b5	-0.7286332
172	0xbeb4203f	-0.35180852
173	0xbf30c6e2	-0.6905347
174	0xbf976101	-1.1826478
175	0xbf33297c	-0.69985175
176	0xbd2858af	-0.0411002
177	0xbf2a1dee	-0.6645192
178	0x3e7c4c9d	0.246386
179	0xbf0e815c	-0.55666137
180	0xbfa5ab1a	-1.2942841
181	0x3debac74	0.11507502
182	0x3f4be241	0.7964211
183	0x3d182a70	0.037149847
184	0x3f2960ce	0.6616334
185	0xbde186d3	-0.11012044
186	0x3fc73d54	1.5565591
187	0x3c83a97f	0.016072033
188	0x3fc02137	1.5010136
189	0xbebca9dd	-0.36848345
190	0xbef8d0d5	-0.48596826
191	0xbdc9bbf0	-0.09850299
192	0x3f3427d1	0.70373255
193	0xbf03a868	-0.5142884
194	0x4023073d	2.5473168
195	0xbeebb6f9	-0.46038035
196	0xbf757c24	-0.9589255
197	0x3e884c9b	0.26620945
198	0x4014ca75	2.324857
199	0x3e82c588	0.2554133
200	0x3f1317e2	0.5745832
201	0xbe8e8bce	-0.27841038
202	0x40003a96	2.0035758
203	0x3e549f46	0.20763883
204	0x3fa8b4b7	1.318015
205	0xbf42c4e9	-0.7608171
206	0x3fa79cc9	1.3094722
207	0x3d5e9f7c	0.054351315
208	0x3ea5049a	0.32230073
209	0x3f845a20	1.0340004
210	0x3f5a785c	0.85339904
211	0x3f36b433	0.7136871
212	0x3f9cd6e2	1.2253077
213	0xbf429ded	-0.76022226
214	0xbfd4ebd6	-1.6634471
215	0xbec94821	-0.39312842
216	0x3f8c63bf	1.096794
217	0xbe9d9dce	-0.30784458
218	0x3fd1b3fd	1.6383053
219	0x3ef576b3	0.47942123
220	0xbf144aa0	-0.5792637
221	0x3e972f05	0.2952806
222	0xc0074054	-2.1133013
223	0x3e7eb116	0.2487224
224	0x3ef76038	0.48315597
225	0xbee8d6cc	-0.45476377
226	0xc0036ee4	-2.0536432
227	0xbf0c75a6	-0.5486702
228	0xbf9d80a9	-1.2304889
229	0x3e952d8f	0.2913632
230	0x3f78b483	0.9715044
231	0x3e03dfbd	0.12878318
232	0xbeddcfdb	-0.43322644
233	0xbec9e167	-0.3942978
234	0xbff2a918	-1.8957853
235	0xbec320a4	-0.3811084
236	0x3f0f9496	0.560861
237	0xbf7c0059	-0.9843803
238	0xbf825395	-1.0181757
239	0xbf33c3fa	-0.7022091
240	0xbd3b784c	-0.04576902
241	0xbf213d84	-0.6298449
242	0x40165bc5	2.3493512
243	0xbf8ec349	-1.1153346
244	0xbf2fe3dd	-0.68707067
245	0xbe22e964	-0.15909344
246	0x3f8ec34c	1.115335
247	0x3e37cced	0.17949267
248	0x3e448d1f	0.19194458
249	0xbdba6b84	-0.09102538
250	0x403034d6	2.7532248
251	0xbe01cb94	-0.12675315
252	0x3eca2860	0.3948393
253	0xbefaab5b	-0.4895886
254	0x403897d3	2.8842666
255	0xbecaa8ee	-0.39582008

bias f4 [64]
0	0xbe62f2b0	-0.2216289
1	0x3e8eed31	0.27915338
2	0xbeaa3f31	-0.33251336
3	0x3e9bca5f	0.30427834
4	0xbf50e82d	-0.8160427
5	0x3dda554f	0.106608026
6	0x3dcd9ad5	0.100392975
7	0x3ee8c6b9	0.45464113
8	0xbee293c4	-0.4425336
9	0x3f175c58	0.5912528
10	0xbe9e5f08	-0.30931878
11	0xbf05e5b8	-0.5230365
12	0xbed9baa2	-0.42525202
13	0xbf3c2166	-0.7348846
14	0x3d84379b	0.064559184
15	0x3dd3e8b9	0.10347123
16	0xbef5fbf4	-0.48043787
17	0xbe20e1bd	-0.15711112
18	0xbe6983eb	-0.22804229
19	0x3f3a019d	0.7265871
20	0x3e579b0c	0.2105524
21	0xbecf2965	-0.4046127
22	0xbe7c6f41	-0.24651815
23	0x3f2fc65d	0.68662053
24	0xbf305248	-0.6887555
25	0x3de3cb90	0.11122811
26	0xbd9545ce	-0.07288705
27	0x3e743e27	0.23851834
28	0xbe0a3b95	-0.13499291
29	0xbe0aad7c	-0.13542742
30	0xbf027816	-0.50964487
31	0xbda169ed	-0.07881532
32	0xbc97a3c0	-0.0185107
33	0x3f13c86b	0.5772769
34	0x3ed0e1eb	0.40797362
35	0xbf3fb5fb	-0.74887055
36	0x3e65c28d	0.22437496
37	0xbf1a841e	-0.60357845
38	0xbe01b766	-0.12667617
39	0xbea7fed4	-0.32811606
40	0xbf23161e	-0.63705623
41	0x3f43384d	0.76257783
42	0xbdbf4f1b	-0.0934126
43	0x3f4f405b	0.80957574
44	0xbf0dde04	-0.55416894
45	0x3f2505d2	0.64462006
46	0xbde2789e	-0.11058162
47	0x3eca5f28	0.39525723
48	0xbd1691c3	-0.036760103
49	0x3f0173a4	0.5056708
50	0x3e200472	0.15626696
51	0x3ef108a0	0.47076893
52	0x3e2a4326	0.16627178
53	0x3f335801	0.7005616
54	0x3dc9b4a4	0.098489076
55	0xbdad4e4b	-0.08462199
56	0x3f2c1214	0.67215085
57	0x3f1e67f9	0.618774
58	0x3f06abd9	0.5260597
59	0xbed3d23c	-0.41371334
60	0xbe2858ea	-0.16440168
61	0x3f4639fd	0.77432233
62	0x3e9647ca	0.29351646
63	0x3e6c9366	0.23103103

weight f4 [64, 64]
0	0xbf152cc4	-0.5827143
1	0x3e59ecb8	0.21281707
2	0xbf3c4a6a	-0.73551047
3	0x3e5134d5	0.2043031
4	0xbec23f74	-0.37939036
5	0x3dcefdfc	0.101070374
6	0xbe20ee01	-0.15715791
7	0x3ebfdb08	0.37471795
8	0xbe614f85	-0.2200299
9	0x3e5000b4	0.20312768
10	0xbee596ef	-0.44841716
11	0xbf4ad315	-0.79228336
12	0xbee647fa	-0.4497679
13	0xbf331788	-0.6995778
14	0x3e96c9f5	0.29450956
15	0x3e6565ac	0.22402066
16	0xbf32daed	-0.69865304
17	0xbe8214dd	-0.25406542
18	0xbe603fae	-0.21899292
19	0x3f04d885	0.5189288
20	0x3e39f548	0.18159974
21	0xbf224a5f	-0.6339473
22	0xbe4dce9c	-0.20098346
23	0x3e6c84bf	0.23097514
24	0xbec7dd8d	-0.39036217
25	0x3f0d7c90	0.5526819
26	0x3d228309	0.039675746
27	0x3e6a16c5	0.22860248
28	0xbe858e92	-0.26085335
29	0xbe9ab567	-0.30216524
30	0xbeab31aa	-0.33436328
31	0x3da4a8d0	0.08040011
32	0x3e3b30d6	0.18280348
33	0x3eafc5e8	0.34330678
34	0x3f789278	0.97098494
35	0xbf3573ae	-0.7087964
36	0x3e1ef153	0.15521745
37	0xbf514b9d	-0.81756
38	0xbecb223d	-0.3967456
39	0xbe71625c	-0.23572677
40	0xbef2d06e	-0.47424644
41	0x3f0f8b44	0.5607188
42	0xbccc8454	-0.024965443
43	0x3f063d28	0.5243707
44	0xbf54eaea	-0.8317095
45	0x3f15c184	0.58498406
46	0xbefdd556	-0.49576825
47	0x3e9647d0	0.29351664
48	0xbe5e6a95	-0.21720345
49	0x3f3ea1b1	0.7446547
50	0xbdeeee74	-0.11666575
51	0x3ee2f409	0.4432681
52	0xbde5ef32	-0.112272635
53	0x3ee38123	0.4443446
54	0x3de68a35	0.1125683
55	0x3e40158f	0.18758224
56	0x3ec26820	0.37970066
57	0x3f4e4970	0.80580807
58	0x3f14a34f	0.5806169
59	0xbe06086b	-0.13089149
60	0xbf277fcb	-0.6542937
61	0x3f13e3c7	0.57769436
62	0x3f5e850d	0.8692177
63	0x3e851cb2	0.25998455
64	0xbeb158cb	-0.34638056
65	0xbe2d9142	-0.16949943
66	0xbef3a389	-0.47585705
67	0x3f2170e1	0.63062865
68	0x3e451563	0.1924644
69	0x3ec7b8f0	0.39008284
70	0xbe076502	-0.13222125
71	0x3e85a47f	0.26102063
72	0xbf2236e5	-0.6336501
73	0xbeb141b1	-0.3462043
74	0xbf1457bc	-0.5794637
75	0xbe524244	-0.20533091
76	0xbe68e94d	-0.22745247
77	0x3e73c9ea	0.23807493
78	0x3e2a28e1	0.16617157
79	0x3f83afbd	1.0288006
80	0x3e3a9a9f	0.18223046
81	0xbf5142bd	-0.8174246
82	0xbf21fe93	-0.63279074
83	0x3e86e6b8	0.263479
84	0x3f279c3c	0.6547277
85	0x3dd180c1	0.10229636
86	0xbe3c4c01	-0.18388368
87	0x3eb13855	0.3461329
88	0x3e7937fc	0.24337763
89	0xbf63abc0	-0.88933945
90	0xbf5aa364	-0.85405564
91	0x3f0a2d73	0.539756
92	0xbe1d68d5	-0.15372021
93	0xbed780b9	-0.42090395
94	0xbe6f4fef	-0.23370336
95	0x3fa550f1	1.2915326
96	0xbe1170a3	-0.14203124
97	0xbdebf910	-0.11522114
98	0xbe81b4e0	-0.2533331
99	0x3e91cdb7	0.2847726
100	0x3f8efd06	1.1170967
101	0xbdb30a50	-0.08742201
102	0x3dc3a5ca	0.09553106
103	0xbcd82a65	-0.026387403
104	0xbd3fd1b4	-0.046830848
105	0xbd9b7fca	-0.07592733
106	0xbf83a3d9	-1.0284377
107	0xbe32d85d	-0.17465349
108	0xbe4f95d2	-0.20271996
109	0xbe7c8bbe	-0.24662682
110	0x3ede5169	0.43421486
111	0x3ec1ad71	0.37827638
112	0x3e980591	0.29691747
113	0x3e1bb4ce	0.1520569
114	0x3edeee2e	0.43541092
115	0x3e2db10b	0.16962068
116	0x3f8a282d	1.0793511
117	0xbe31ab01	-0.17350389
118	0x3e91747a	0.28409177
119	0xbf307978	-0.68935347
120	0xbccfd310	-0.025369197
121	0xbde1655e	-0.110056624
122	0xbde85565	-0.11344413
123	0xbe3b2582	-0.18276027
124	0xbedeedc6	-0.43540782
125	0xbdd41f2b	-0.10357507
126	0x3e93d47e	0.28873056
127	0x3f914261	1.1348382
128	0xbce412c0	-0.027840972
129	0xbf30387a	-0.68836176
130	0xbe77331a	-0.24140587
131	0x3e70a0cf	0.23498844
132	0xbdb965e5	-0.09052638
133	0x3f33d2cd	0.7024353
134	0xbf21cda8	-0.6320443
135	0x3eefa060	0.46802044
136	0xbf1609f3	-0.5860893
137	0xbe42a719	-0.19009055
138	0xbf73e7b2	-0.95275414
139	0xbd8782ed	-0.06616769
140	0xbe3d1153	-0.1846364
141	0x3ed2657c	0.4109305
142	0x3e4a7909	0.19772734
143	0x3f530918	0.8243575
144	0xbe6e1219	-0.23249091
145	0xbf85a753	-1.0441688
146	0xbe8a2a75	-0.26985517
147	0xbb27971e	-0.002557225
148	0x3e8423f6	0.25808686
149	0xbcada4de	-0.021196779
150	0xbf2c5247	-0.67313045
151	0x3f0083c0	0.50201035
152	0x3dd21baf	0.102591865
153	0xbf0a6e74	-0.5407479
154	0xbf8a33df	-1.079708
155	0x3f25d409	0.64776665
156	0xbf14bcf1	-0.581008
157	0xbf6c1f16	-0.92234933
158	0xbcc259f8	-0.023724541
159	0x3f4614c2	0.77375424
160	0xbf9f3c20	-1.2440224
161	0xbdbb5abe	-0.09148167
162	0xbf1bc36f	-0.60845083
163	0x3d455963	0.04818095
164	0x3fd8f44e	1.6949556
165	0x3e6c8dd8	0.23100984
166	0x3f244a88	0.64176226
167	0x3ef92a1e	0.48664945
168	0xbe812f10	-0.25231218
169	0xbea31cb7	-0.31857845
170	0xbf9b4082	-1.2129061
171	0x3d84d119	0.06485195
172	0xbe114fac	-0.14190549
173	0xbf1d5f0b	-0.6147315
174	0x3f4c5f0a	0.7983252
175	0x3f2f2f61	0.6843167
176	0x3f7a1a51	0.97696406
177	0xbe8a20f2	-0.2697826
178	0x3f8f4d82	1.1195529
179	0x3edd256f	0.43192622
180	0x3eec50dc	0.4615544
181	0x3e16c12f	0.14722131
182	0x3fb8038e	1.4376085
183	0xbf9f39d3	-1.2439522
184	0xbded846a	-0.115975216
185	0xbf074544	-0.52840066
186	0xbe35d1de	-0.17755839
187	0xbe48f920	-0.19626284
188	0xbf2ee7e8	-0.6832261
189	0xbd85b15c	-0.06527969
190	0x3e2a204a	0.1661388
191	0x3fd04c51	1.627329
192	0xbcf9c53b	-0.030489555
193	0x3f322438	0.69586515
194	0xbd0ba88d	-0.03409629
195	0x3e4a0e1f	0.1973195
196	0xbf65cc94	-0.89765286
197	0xbf38dabd	-0.7220877
198	0xbe3b62ff	-0.18299483
199	0x3ebd646d	0.3699068
200	0x3da835ad	0.08213363
201	0x3f82ec3c	1.0228343
202	0x3e34f1ce	0.17670366
203	0xbe4974e3	-0.19673495
204	0xbeeeb32c	-0.46621072
205	0xbee8926c	-0.4542421
206	0xbd51f597	-0.051259603
207	0xbf17ec7f	-0.5934524
208	0x3ccb071e	0.024783667
209	0x3e474506	0.19459924
210	0x3cdd40f5	0.027008513
211	0x3ed2363e	0.41057009
212	0xbe11ace6	-0.14226112
213	0xbf8a2893	-1.0793632
214	0xbf095e7c	-0.53659797
215	0x3f2cf489	0.6756063
216	0xbf3eaab5	-0.7447923
217	0x3ea28601	0.31742862
218	0x3ea93183	0.33045587
219	0xbd18f81c	-0.03734599
220	0xbefdc8fa	-0.49567395
221	0xbec19091	-0.37805608
222	0xbf103fd8	-0.5634742
223	0xbf09de86	-0.5385517
224	0x3f0e5ec4	0.5561335
225	0x3f98cc86	1.1937416
226	0xbd97a6d7	-0.07404869
227	0xbead3656	-0.33830518
228	0xbf2e7ae0	-0.6815624
229	0xbea7f1ab	-0.32801566
230	0xbed532a2	-0.41640192
231	0xbf3be167	-0.7339081
232	0xbf207ed7	-0.6269354
233	0x3eb7fcba	0.35935003
234	0x3e227a1f	0.15866898
235	0x3e8a348a	0.2699321
236	0x3d9c304b	0.07626399
237	0x3ec3cf80	0.38244247
238	0xbf030150	-0.5117388
239	0x3ef8930e	0.48549694
240	0xbf417063	-0.75562114
241	0x3ecf8e83	0.40538415
242	0xbe348055	-0.1762708
243	0x3e842550	0.25809717
244	0xbd721680	-0.05910349
245	0x3f51ad44	0.8190501
246	0xbdc7b858	-0.09751958
247	0x3ea3d891	0.32001165
248	0x3f4c37bf	0.7977256
249	0x3ee4530b	0.44594607
250	0x3f2224a9	0.6333719
251	0xbed0a79e	-0.40752882
252	0x3d4e11a7	0.050309803
253	0x3ed83862	0.42230517
254	0xbdd49f19	-0.10381908
255	0xbf0f69be	-0.56020725

bias f4 [64]
0	0x3f4789e5	0.77944785
1	0xbc751a39	-0.014959865
2	0x3e1b5d2b	0.1517226
3	0x3eed949c	0.46402442
4	0xbed0538b	-0.40688738
5	0xbe25db23	-0.16196875
6	0xbe74537a	-0.23859969
7	0x3dc856f7	0.09782212
8	0xbf1b0bb8	-0.60564756
9	0xbd4564f8	-0.048191994
10	0xbf079ca0	-0.52973366
11	0x3dd38330	0.103277564
12	0x3beb21d3	0.007175663
13	0xbeaeb304	-0.34120953
14	0x3d42da18	0.04757127
15	0xbe39b4e7	-0.18135415
16	0x3ed895cb	0.42301783
17	0xbe9d7e75	-0.30760542
18	0x3e13072a	0.14358202
19	0xbf16053e	-0.5860175
20	0x3f0d3c7a	0.55170405
21	0x3ee00ad1	0.43758252
22	0xbdf52432	-0.11969794
23	0xbc2605d6	-0.010133227
24	0x3ef03826	0.46917838
25	0x3d1cd826	0.038292073
26	0xbe8c4401	-0.27395633
27	0xbed26369	-0.4109147
28	0x3eef97ae	0.4679541
29	0xbeceefcb	-0.40417323
30	0xbe978c9e	-0.2959947
31	0xbb0b2976	-0.002123443
32	0x3ea613f9	0.32437113
33	0xbd4e3214	-0.050340727
34	0xbe5fe19f	-0.21863411
35	0x3e92f466	0.28702086
36	0xbe8d11ec	-0.27552736
37	0x3e0bb554	0.1364339
38	0x3be63100	0.007024884
39	0xbe97cd28	-0.2964871
40	0xbef0803f	-0.46972844
41	0x3ccacfa1	0.024757208
42	0xbe890dcd	-0.26768342
43	0x3c5ebdc1	0.013595046
44	0xbe82b5de	-0.2552938
45	0x3e9a4e9b	0.30138096
46	0x3e978545	0.29593864
47	0x3f094f1a	0.53636324
48	0x3dbeb502	0.09311868
49	0xbee07765	-0.4384109
50	0x3ecf4427	0.40481684
51	0x3e8c116f	0.2735705
52	0x3f072f47	0.52806515
53	0xbe3fc149	-0.18726076
54	0x3d923555	0.071390785
55	0xbd971f0c	-0.073789686
56	0xbebbfad9	-0.3671482
57	0x3f0126ed	0.5045002
58	0x3f4c2716	0.7974714
59	0x3e64d65e	0.223474
60	0x3e70a421	0.2350011
61	0xbea37c05	-0.31930557
62	0x3e028b9d	0.1274857
63	0xbe8b03f0	-0.27151442

weight f4 [1, 64]
0	0x3fdfda29	1.7488452
1	0xbe17f940	-0.14841175
2	0x3f18351b	0.5945603
3	0x4011bb2e	2.2770495
4	0xbfdcf605	-1.7262579
5	0xbf8f592b	-1.1199087
6	0xbfd28d7f	-1.6449431
7	0x3fb558bb	1.4167703
8	0xbfee3f9b	-1.8613161
9	0x3e145fe5	0.14489706
10	0xc00bf0da	-2.1865754
11	0xbfed1469	-1.8521854
12	0xbecbcd14	-0.398049
13	0xc0192d2c	-2.393382
14	0xbf868cf1	-1.0511762
15	0xbfeaab8a	-1.83336
16	0x3fafb643	1.3727497
17	0xbff1033e	-1.8829114
18	0x3f227d3a	0.6347233
19	0xc0051938	-2.0796642
20	0x401a6915	2.4126637
21	0x40244acf	2.567066
22	0xbf86862f	-1.05097
23	0x4000a364	2.0099726
24	0x40008566	2.008142
25	0x3fc790a7	1.5591019
26	0xbfb6b572	-1.4274123
27	0xc0016832	-2.0219846
28	0x3ff8fb95	1.9451777
29	0xbfac9128	-1.3481798
30	0xbfec67c1	-1.8469163
31	0xbfa2f2e1	-1.2730371
32	0x400abf37	2.1679208
33	0xbe019dbf	-0.12657832
34	0x3fbee591	1.4913808
35	0x3fd1cd16	1.6390712
36	0xbfd7f0d4	-1.687037
37	0x3d92d1b7	0.07168906
38	0xbfa87fd2	-1.3164008
39	0xbffdd1e9	-1.9829684
40	0xc011225f	-2.2677228
41	0x3f34a98b	0.705712
42	0x3f9af214	1.2105126
43	0x4004529c	2.067542
44	0xbee3d00c	-0.44494665
45	0x401772f0	2.3663902
46	0xbfbf90a4	-1.4966016
47	0x40070612	2.1097455
48	0xbeba2c76	-0.36362046
49	0xc008ab27	-2.1354463
50	0x40031ed6	2.048757
51	0x3ff5a4c8	1.9190912
52	0x3faeb101	1.3647767
53	0xc0173cc8	-2.3630848
54	0xbec4e797	-0.3845794
55	0xbf31f9f1	-0.69522005
56	0xbf8bf846	-1.0935142
57	0x3f0d92d5	0.5530217
58	0x3f3d43ae	0.73931396
59	0x3fcca6e8	1.5988436
60	0x3ea2ca88	0.31795144
61	0xbeea3d37	-0.45749828
62	0x3fc5e721	1.546116
63	0xbfff5f39	-1.9950935
