data/Pendulum-v0_ppo_gpu/Pendulum-v0_ppo_gpu_s0/pyt_save/model.pt (torch, 43070 bytes, 10 tensors)

weight f4 [64, 3]
000000 1e e7 a5 bd f4 86 12 3e 78 00 07 bf 90 0b 4d 3e
       -0.08100723 0.14309293 -0.5273509 0.20023942
000010 67 3c 35 bf 4d d1 4b bf cc e2 83 bd cb 4a 10 3f
       -0.7079529 -0.7961624 -0.064397424 0.56364125
000020 cd 1d 84 be f3 ac 28 be dd 8c 74 3e 92 16 dd be
       -0.25803986 -0.16472225 0.2388186 -0.43181282
000030 53 3c 02 bf 4a 13 05 3f 21 6f 2e 3d 17 8d 5c 3b
       -0.508733 0.5198256 0.04258645 0.0033653432
000040 b8 d6 aa 3e 5d 73 e4 3e ff 98 bf 3e c9 15 f6 be
       0.33366942 0.44619265 0.37421414 -0.48063496
000050 34 19 50 3e 74 0d 49 bf c4 da 05 3e 78 8f 26 3e
       0.20322114 -0.7853615 0.13071734 0.16265666
000060 70 02 d4 3e 4b 6d 17 3f 00 b5 53 3e 90 eb e5 3e
       0.4140811 0.5915114 0.20674515 0.44906282
000070 a1 7b 51 3f 6d 48 ca 3e 4f d0 2b 3f 58 2b 50 be
       0.8182927 0.3950838 0.6711473 -0.20329034
000080 ad 8e 65 be c7 23 0d 3f 57 85 c8 3e f2 b6 47 3e
       -0.22417708 0.55132717 0.3916423 0.19503382
000090 49 79 b1 3e f5 60 76 3e 68 74 b4 be 0b 61 df be
       0.34662846 0.24060424 -0.3524506 -0.43628725
0000a0 63 32 d1 bd 0e fe 81 bf c9 7c 84 3e 48 1d b1 bf
       -0.10214689 -1.0155656 0.25876454 -1.3837061
0000b0 7e 13 b7 be fc 67 ba 3e 1d c2 f5 be 75 8d 2f 3e
       -0.3575706 0.3640746 -0.4799966 0.17143805
0000c0 9b 9d 1f 3d c9 63 95 bf e0 c0 8d be 70 ef 2d 3e
       0.038968664 -1.1671077 -0.27686214 0.1698587
0000d0 2f 64 29 3f 4b d1 c2 bc f7 cf ad bc 72 c7 9f bf
       0.66168493 -0.02378144 -0.02121733 -1.2482741
0000e0 06 bb d8 be ff 7e ce 3e 99 7d a0 be 8f f5 64 3f
       -0.42330188 0.40331265 -0.31345823 0.8943719
0000f0 28 d6 3b bf 15 23 99 bc 0f 36 11 3e 8f 3a 44 be
       -0.7337365 -0.018693486 0.14180778 -0.19162963
000100 2b 12 30 bf a5 1d ac ba 3e 41 f6 3e be 31 69 3f
       -0.6877772 -0.0013131393 0.4809665 0.91091526
000110 33 f3 74 3d 7e ee 14 be c5 84 02 bf 84 a6 ec be
       0.059802245 -0.14544103 -0.5098384 -0.4622079
000120 20 f8 92 3e ef c8 c9 bd 21 01 15 3f d9 84 a7 bd
       0.2870493 -0.09852778 0.5820485 -0.081796356
000130 71 73 dc bd fb 78 41 3d 88 50 3e 3e 52 5c 02 3e
       -0.10764206 0.047234517 0.18585408 0.1273053
000140 e8 fb bf be b6 9f 83 3e 22 7f 45 bf 76 c5 84 3a
       -0.37496877 0.25707787 -0.77147114 0.0010129649
000150 26 f5 c2 be 0c fc 1f 3f dd 50 b0 be a0 99 19 3d
       -0.38077658 0.6249397 -0.34436694 0.037500024
000160 52 61 10 3e 6f 9a 1f bf de 09 ea 3e ef 8f 55 3e
       0.14099625 -0.6234502 0.45710653 0.20855688
000170 03 36 14 3e 4d 48 fe be f6 19 c2 be 8a 7a 3e 3d
       0.14473729 -0.49664536 -0.37910432 0.04650358
000180 ed 49 16 3e 51 25 6f 3e cb 08 c1 be a7 4b 80 be
       0.14676638 0.23354079 -0.3770202 -0.25057718
000190 0d ca 5a bf 94 0c 3a 3b 4f a7 15 3f 78 6d 53 bf
       -0.85464555 0.0028388845 0.5845842 -0.8258891
0001a0 f1 04 83 be d7 84 37 3e c8 aa 7f bf fd b4 18 bf
       -0.25589707 0.17921768 -0.99869967 -0.59651166
0001b0 e4 28 42 3f f1 ac dd 3c 9d 5d 44 3d c0 69 d8 be
       0.75843644 0.027060004 0.04794084 -0.4226818
0001c0 cd ba bc 3e b8 f7 d5 be 04 78 16 bf 51 46 d9 3e
       0.36861268 -0.41790557 -0.5877688 0.4243646
0001d0 15 43 34 3e 21 6b 62 bd 61 bb 4b bd d6 94 45 bf
       0.17603715 -0.055277947 -0.049739245 -0.7718023
0001e0 00 bf d7 3e 68 89 a2 be 61 fc 75 3e f6 ba 00 3f
       0.4213791 -0.31745458 0.24022056 0.5028528
0001f0 4f ce 48 be ff 0d 8d be 8c 6a 1a bf 7f 5a dc be
       -0.1960995 -0.2754974 -0.6031883 -0.43037793
000200 30 b3 68 be 22 70 74 3e 61 9e 92 bf 6a 87 c0 be
       -0.22724605 0.238709 -1.1454583 -0.37603313
000210 c9 04 f9 be d8 97 88 3e 74 fe 12 3f 6a ac 3f 3f
       -0.48636463 0.26678348 0.57419515 0.7487246
000220 b5 20 15 bf ef 54 8d be ab 64 6f be 81 e7 6f bf
       -0.5825303 -0.27603862 -0.23378246 -0.9371262
000230 9d 76 5a bd ec ca 3d 3f 64 35 ba be 85 f9 60 be
       -0.053335775 0.7413776 -0.3636886 -0.21970184
000240 e3 8f 24 bd 2f 61 50 bf 09 3c 37 bf 70 4e 16 be
       -0.040176284 -0.8139829 -0.7157598 -0.14678359
000250 b1 d7 be be fe 09 77 3e 40 92 92 be a7 88 11 3d
       -0.37273934 0.24124905 -0.28627205 0.035530712
000260 e7 8c e3 bd ff c6 06 bf 2c 01 21 bc 19 8d b0 be
       -0.11110859 -0.52647394 -0.00982694 -0.3448265
000270 33 41 47 bf 63 48 69 3f e8 0f e5 3e 6d 1f ca be
       -0.7783386 0.9112608 0.44738698 -0.394771
000280 be b1 98 be 92 17 d3 3d c3 3f 35 3f 3f 62 04 3f
       -0.29823107 0.1030723 0.7080042 0.5171241
000290 26 83 aa 3e b5 03 19 3f fa b2 31 3e 5f 93 31 3e
       0.33303183 0.5977128 0.1735343 0.17341374
0002a0 3f f8 d2 bd 56 a6 67 3e 80 91 ed be ea 33 1b bf
       -0.103012554 0.22622046 -0.4640007 -0.6062609
0002b0 b9 63 30 3c b5 32 bc be 7a 90 89 3e 8d a2 0a bf
       0.010765963 -0.36757436 0.2686804 -0.5415428
0002c0 a3 60 59 bf e6 eb 56 bf 5b 74 be 37 3c fb 10 3e
       -0.8491308 -0.839537 2.2703947e-05 0.14158338
0002d0 45 dd a4 3c 3d 53 96 3f 73 0f 88 3e ae 11 0d 3d
       0.02012504 1.1744152 0.26574287 0.03444069
0002e0 5d 44 1d bd 97 b8 03 3f 6a d5 32 bf 5a a7 30 be
       -0.038395274 0.51453537 -0.69856894 -0.1725134
0002f0 b8 05 cc 3d 5f 2e e9 3e bf c1 34 be db ee b7 be
       0.09962028 0.4554319 -0.17652033 -0.3592442

bias f4 [64]
000000 80 a9 dd 3e cd 40 b0 be 6a 5f f8 3c ce da 38 3d
       0.4329338 -0.3442444 0.030318934 0.045130543
000010 de ef d6 be 2f 3a 2d 3e 82 53 cd 3e 15 55 29 3f
       -0.4197988 0.16916727 0.40102774 0.6614545
000020 b0 71 f6 be 6c f0 1e 3f 17 52 15 3f 2e ec eb be
       -0.48133612 0.62085605 0.58328384 -0.46078628
000030 ff a0 c0 3e f3 52 77 3e 68 e9 6a be ff 8e 44 be
       0.3762283 0.24152736 -0.229406 -0.19195174
000040 64 17 09 bc 30 ed 85 bc 37 be 37 3b 7f 31 5e be
       -0.008367393 -0.016348451 0.002803696 -0.21698569
000050 7c 3e 1f 3f 4c 13 0b bf 38 a7 a6 3e 1d bf 26 be
       0.6220472 -0.5432632 0.32549453 -0.16283841
000060 11 17 38 3d 1b 08 b6 3e 6f 3f 37 bf 18 16 b4 3e
       0.044943873 0.3555306 -0.71581167 0.35173106
000070 9f 10 7f bb 60 f6 ee 3d 9d 74 c8 be b2 6b 33 3e
       -0.003891982 0.11668086 -0.3915147 0.17521551
000080 d4 d6 f4 3d 7f 45 a7 3c ad 7a fc be 26 b7 e0 bd
       0.11955038 0.02041888 -0.49312344 -0.10972433
000090 ed d0 34 bc 3b 2c 4f 3e 1e 0e ee 3e 0b 49 a6 3e
       -0.01103614 0.20231716 0.46495146 0.32477602
0000a0 c5 a6 f8 3e fc 9f 0f 3f e2 00 1a 3f 35 89 09 be
       0.48564735 0.5610349 0.601576 -0.13431247
0000b0 59 b9 ef be 0e 65 8f 3e a7 49 c1 be 63 64 31 bf
       -0.46821097 0.28006786 -0.37751505 -0.692938
0000c0 f0 eb 34 be d9 58 b4 be 2a 3a d4 3e 19 2d 94 be
       -0.17668128 -0.35224035 0.41450626 -0.28940657
0000d0 4c 7c b4 3b 54 e4 1d 3f 3f b2 16 3f b8 ce f0 be
       0.0055079814 0.61676526 0.5886573 -0.47032714
0000e0 23 bc 17 bf 87 c8 a4 be 69 87 f9 be 7c a4 4a bd
       -0.5927145 -0.3218424 -0.48736122 -0.04947327
0000f0 0a 0b 94 bd f3 ec d3 be 5a 64 c9 3e b9 19 aa 3d
       -0.07228668 -0.41391715 0.39334375 0.083056875

weight f4 [64, 64]
000000 9e f3 4e bc db 9c 13 3e 4d f5 9d bd b6 ce ec 3d
       -0.012631325 0.14415304 -0.07712803 0.115628645
000010 42 be 41 be 0d 68 2b be 4f 76 0d bd 4b b8 ca bd
       -0.18920234 -0.16738911 -0.034536656 -0.09898432
000020 37 35 67 3c 28 98 98 bd a7 ef 24 3e 75 ca 24 3e
       0.0141118085 -0.074508965 0.16107045 0.16092856
000030 5f 9a 3c 3e 17 d2 2e 3e 7c 65 04 3e d7 e5 39 3d
       0.18418263 0.1707233 0.12929338 0.045385208
000040 50 04 32 3d 31 8c 9e bd 48 03 f5 bb 58 3a e7 bd
       0.043461144 -0.07741583 -0.007477198 -0.11290425
000050 a7 83 93 bd 5f 3e 4b bd 9d 6c 96 3c a3 37 1e 3e
       -0.07202845 -0.04962003 0.018362338 0.15450911
000060 db 23 9a bd e8 bf 35 3e 28 da b5 bd c4 cc 9a 3e
       -0.0752637 0.17748988 -0.08879501 0.3023435
000070 2e eb 09 3d 90 f6 2c bd 9c 91 b8 bd d4 e9 5e 3c
       0.03367155 -0.042227328 -0.09012148 0.013605554
000080 92 c7 ae bc 26 a4 5c 3c 93 2e d1 3d 4d 1e 53 3d
       -0.021335397 0.01346687 0.102139615 0.05154257
000090 4d 52 ef 3d 3b 82 6c 3d 4e 47 ae 3d 37 7c 8f 3d
       0.116856195 0.057741385 0.08509694 0.07006114
0000a0 dc 1d f0 bb 1d 77 89 3e db fe 30 bd 6f 69 c0 3d
       -0.0073277783 0.2684869 -0.0432118 0.0939511
0000b0 11 ba 0e be bb 44 6e 3e f2 af 04 3e 2e 61 35 bd
       -0.13938166 0.23268406 0.12957743 -0.04428213
0000c0 b6 aa 34 3e b1 40 4b bd b7 bc 76 3c f2 71 7d bd
       0.17643246 -0.04962224 0.015059642 -0.061876245
0000d0 fe bf c3 bd e1 e3 22 3e 0f 09 8d bd 0f e3 06 3d
       -0.09558104 0.15907241 -0.068864934 0.032931384
0000e0 10 c8 a9 3d f4 aa e5 bc f9 2d 58 3d 0b 17 c3 bd
       0.08290112 -0.028035618 0.052778218 -0.095258795
0000f0 6d 4d 0c be 39 bf 09 be bf 93 76 bd 80 ca de bb
       -0.1370141 -0.13451852 -0.060199495 -0.006799042
000100 f3 53 12 3e c7 01 ba 3d e8 9a cf bd 09 7b 43 bd
       0.14289837 0.0908237 -0.10136968 -0.047724757
000110 14 0d 19 be 54 95 26 3d 65 c6 5e 3d 69 46 7e bd
       -0.14946395 0.040669754 0.054388423 -0.062078867
000120 e7 10 ac 3c fa 5b 86 bd 4d 8c f1 3d 2b 6f 4b 3e
       0.021004153 -0.06560512 0.117943384 0.19866626
000130 c9 fb d2 3d 2f cd 44 3d 4b 83 71 bd d3 4b 7e 3c
       0.103019305 0.04804724 -0.0589631 0.015521008
000140 2b 28 42 3c 6c 9f 27 be 88 41 38 bc 37 33 6e bc
       0.011850397 -0.16369408 -0.011246093 -0.014538578
000150 1e dc 0a 3e 4d 3a 03 3e cf 68 82 bc a0 4a 14 3e
       0.1356053 0.12815209 -0.015919117 0.14481592
000160 97 75 bc bd ab af b8 bc 68 5b 7e bc cd 36 1a 3d
       -0.09202116 -0.022544703 -0.015524723 0.03764992
000170 14 43 9b bc 81 69 0b 3e 2c dd 17 3d 90 d3 d8 3d
       -0.018952884 0.13614465 0.03707616 0.10587227
000180 63 5a fc 3c df 56 1c 3e d5 af 23 be 34 8f 72 bd
       0.030804818 0.15267514 -0.15985043 -0.0592186
000190 a1 b3 b4 3d 7a bf c0 3d f2 be 02 3e 75 6c 81 bd
       0.08823324 0.09411521 0.12768152 -0.06319515
0001a0 ec 07 40 3d 17 18 59 3c f3 27 da bd 36 b3 25 bd
       0.046882555 0.013250372 -0.10652151 -0.040454112
0001b0 cf 2e 1a be 7a 59 53 3e 41 c3 bc 3d 49 f9 d4 bb
       -0.15056919 0.20639601 0.09216929 -0.0064994437
0001c0 83 dc ce 3d b4 87 6a 3d b0 68 1a be 30 5f cc b9
       0.10100653 0.057258323 -0.15078998 -0.00038980832
0001d0 93 6c b9 bd 96 66 38 3e 8e 21 7e be b2 97 03 3e
       -0.09053912 0.18007883 -0.24817488 0.12850836
0001e0 3d c8 18 bc ba 67 cf 3d bd 16 8f 3c 8a b0 c0 bd
       -0.009325084 0.10127206 0.017466897 -0.09408672
0001f0 ff 0e 5b bd 6b ab 75 bd 9a b0 1d 3e 9f d1 68 3c
       -0.0534811 -0.05997793 0.153994 0.014210134
000200 2b 6b 8c 3d 78 f1 8c be 99 87 dd bc db 11 ed bb
       0.06856378 -0.27527976 -0.027042197 -0.0072347946
000210 a6 59 9d 3d e7 ca be 3d 90 cd 5c be 73 f6 57 3e
       0.07683115 0.09316044 -0.21562791 0.21090107
000220 41 3a b9 3e 9d b2 e8 3d 92 a2 de 3d a3 fc 6f 3e
       0.36177257 0.11362193 0.108708516 0.23436217
000230 68 ff 0f 3e 3c 16 48 3b 04 1d b7 be f2 6b 09 3d
       0.14062274 0.003053083 -0.35764325 0.03355021
000240 e1 99 e2 be 97 ee 70 3e 7b 6e 98 be 24 bd 84 bd
       -0.44258025 0.23528515 -0.2977179 -0.06481388
000250 5d d5 df 3d b0 73 b3 bc 2c 61 99 3e 3c 3e bb 3c
       0.10929368 -0.02190575 0.2995695 0.022856824
000260 5a c0 10 be 5d 35 1c bd d2 d2 98 bd 09 6c 7d be
       -0.14135876 -0.03813683 -0.07462086 -0.24748243
000270 ef da ce 3c 2e ad 80 3d 27 92 99 3e 6a 1b 1c 3d
       0.02525088 0.062830314 0.29994318 0.03811208
000280 c5 e6 16 3e 07 b1 63 be ad b4 b5 be e0 9d 9b be
       0.14736469 -0.222355 -0.35489407 -0.30393887
000290 87 97 ab 3c 24 43 c5 3d d4 9e 2f 3e 45 b6 15 3e
       0.020946277 0.09631947 0.17150432 0.14620312
0002a0 be de 3d be 41 5e 1e 3c 80 3f 81 be 97 5a 3d be
       -0.18542 0.009666027 -0.2524376 -0.18491589
0002b0 b1 23 03 3d b2 75 61 3c 08 43 6a be 89 1b 70 be
       0.03201646 0.013760971 -0.22877133 -0.23448004
0002c0 9b 97 71 be a9 3f c6 3b fb 04 6f be 0c d6 37 3e
       -0.23592989 0.0060500694 -0.23341744 0.17952746
0002d0 6a 3f 08 3e 58 45 94 bd 90 a5 95 3b 67 4e b1 3e
       0.1330544 -0.07239789 0.0045668557 0.3463013
0002e0 2b 2c 5a bd 46 5a 0a 3e 0b 8f 33 be e1 81 32 3d
       -0.053264778 0.13510999 -0.17535035 0.043580893
0002f0 65 09 e3 3e c1 52 db 3c 31 b8 ce 3b 3c 9d d7 bb
       0.44343105 0.026772859 0.0063085784 -0.006580023
000300 33 38 96 3d 17 95 db 3d 43 a2 0a 39 ca 0b af 3c
       0.07334938 0.10721796 0.00013221153 0.021367926
000310 94 2f 5b 3e 0c 1e 97 3d f0 e0 e3 bd 5e 31 05 bd
       0.21404868 0.07378778 -0.11126888 -0.032517783
000320 4d 98 70 bd 5d a8 b7 3d e7 4e 55 bd 9e 80 0d bd
       -0.058738995 0.089676596 -0.0520772 -0.034546487
000330 61 76 ef bd 61 1f 98 3d 4e dc 45 3d 32 52 77 3d
       -0.11692501 0.0742786 0.048305802 0.060381122
000340 f0 12 0f 3d 77 0b 54 3e 91 9d 9a 3d 2f 7a 08 bb
       0.03493017 0.20707498 0.07549585 -0.002082478
000350 1a 22 41 be d9 4b 0d bd 94 54 33 3e 1c 15 99 bd
       -0.18860665 -0.034496162 0.17512733 -0.074747294
000360 ae f9 5f bc 40 e2 b8 bb 10 05 0f bd 23 6d e3 bd
       -0.013670368 -0.0056422055 -0.034916937 -0.111048006
000370 4a 84 80 3c e7 24 4d bd 07 5d 00 be 53 eb 5a bd
       0.01568808 -0.05008402 -0.12535487 -0.05344708
000380 41 70 9c bd 54 3b b3 bd c1 a2 d2 3d f6 31 b3 3d
       -0.07638598 -0.0875155 0.10284949 0.08749764
000390 02 2b ff bd 42 e7 15 bd 93 42 e3 bd da 91 59 3d
       -0.12459375 -0.036597498 -0.110966824 0.05311761
0003a0 10 f3 dd bd 62 a6 91 bd 63 2c 5c 3d 04 cb c3 3a
       -0.10837376 -0.07111813 0.053753268 0.0014937823
0003b0 33 26 1d 3e 92 3f a0 bd db 11 11 be 09 eb 6d bd
       0.15346603 -0.07824625 -0.14166968 -0.058085475
0003c0 fe bd 00 bb 59 56 96 3d f3 33 6d bb 44 e8 c8 bd
       -0.0019644494 0.07340688 -0.0036194294 -0.09809926
0003d0 73 bd 02 3e 1b 4f 11 be 2a c2 69 3e 2c a5 93 bd
       0.12767582 -0.14190333 0.22827974 -0.072092384
0003e0 37 6e fd 39 1d 29 8f bd 28 a4 8a 3d 89 13 1c 3e
       0.00048338037 -0.069902636 0.067695916 0.15241827
0003f0 31 67 30 3d 55 f7 f8 bc e0 54 95 3c e6 0d 8b 3b
       0.04306716 -0.030391375 0.018228948 0.0042436

bias f4 [64]
000000 58 b4 4c 3e 12 5d 80 3c 27 67 be bd 47 63 a9 3c
       0.1999067 0.01566938 -0.092970185 0.020677222
000010 a4 c1 66 be 62 b9 ad 3d b1 15 89 3e b8 18 03 bc
       -0.22534806 0.084826246 0.26774362 -0.008001499
000020 1b fc ea 3b 3c 01 df bd 92 26 21 3d 5f 4b f8 bd
       0.0071711666 -0.10888907 0.039343424 -0.12123751
000030 04 62 f8 3d 37 dc ba 3d 81 28 de bd 21 c1 1d bd
       0.1212807 0.09124034 -0.10847569 -0.03851426
000040 88 78 69 3e 5e 35 18 3d b8 05 99 3d 02 2d 7c 3c
       0.22799885 0.03716027 0.07471794 0.01539159
000050 5e 1a 59 3d ad bc 86 3e dc 83 80 3d d7 c5 43 bd
       0.05300366 0.26315823 0.0627515 -0.047796097
000060 d7 14 8c bd 8d 4c c6 3c 05 64 e1 bd dd a1 77 bd
       -0.068399124 0.024206424 -0.11005405 -0.0604571
000070 13 01 a1 bd b5 23 24 bd 50 32 39 3d ee 77 81 bd
       -0.07861533 -0.040073115 0.045213997 -0.06321703
000080 09 de 99 bd 43 b6 5b 3d 3f 2c 3d 3d da a2 08 3e
       -0.07513053 0.053640615 0.046184774 0.13343373
000090 25 eb d7 3c d2 db 93 be 43 91 1d 3d bd 02 66 3d
       0.026357243 -0.28878647 0.03846861 0.056154955
0000a0 2b 0f 3d bd f0 1b 27 3d 95 c5 c9 3d 35 38 b5 bd
       -0.046157043 0.040798128 0.09852139 -0.08848611
0000b0 c0 1a 15 be e3 0d 3d be bb ed 8a bc cb a7 15 3e
       -0.14560986 -0.18462329 -0.016959062 0.14614789
0000c0 9e 32 00 be 67 02 82 3d 34 ef 7b be 57 20 02 3d
       -0.12519309 0.063481145 -0.24602968 0.031769123
0000d0 84 2d 22 ba 08 9b 4a 3e 29 f2 83 bd b7 2e ad 3c
       -0.0006186592 0.19785702 -0.06442673 0.02114044
0000e0 df 8a ed 3d 6e 4c ba bd 80 02 73 3d c7 e5 62 bd
       0.11598753 -0.09096609 0.059328556 -0.055394914
0000f0 49 f0 a9 bc 74 e5 7d 3d 83 4c 85 bd d9 2b d5 bd
       -0.02074446 0.0619864 -0.06508734 -0.10408754

weight f4 [1, 64]
000000 2e 9b 3d be d2 2d eb be 54 f9 b6 be ae a9 88 3e
       -0.18516228 -0.45933396 -0.35737097 0.26691955
000010 6e 72 a9 be e9 42 23 be ab de bb 3e 18 97 15 3e
       -0.33095115 -0.15943493 0.3669332 0.14608419
000020 bf 4f 08 3e bb af 58 3e 0a 91 28 bd 80 34 97 be
       0.1331167 0.21160786 -0.041153945 -0.29532242
000030 ee 05 7e be 5f c8 8a 3e de c8 14 3e ef b5 a3 be
       -0.2480695 0.27105996 0.1452975 -0.31974742
000040 24 64 84 3e ae 86 67 be 0f f9 0d be 4d a6 9f be
       0.2585765 -0.2260997 -0.1386454 -0.31181565
000050 a2 6b bd bd fa 0a d3 be 7e 01 fb be 20 b6 a2 3e
       -0.09249045 -0.41219312 -0.49024576 0.31779575
000060 77 4e da be b6 49 f4 bd af ac 92 be 9f 21 cf be
       -0.4263799 -0.11928122 -0.28647372 -0.40455338
000070 5d 33 97 be c0 0d a1 3e 3a 0c 48 3e ce 0a b0 3c
       -0.29531375 0.31455803 0.19535914 0.021489527
000080 e5 69 a9 3e c0 fc 86 be b6 33 31 3e c0 6e 28 be
       0.33088604 -0.26364708 0.17304882 -0.16448498
000090 8a 15 89 3e a5 e9 c4 3e 71 e9 3d 3e ce f5 87 3e
       0.26774246 0.38459507 0.18546082 0.26554722
0000a0 60 98 62 3e ef d6 14 be a9 f2 b7 3e 2e f0 c6 3e
       0.22128439 -0.14535116 0.35927323 0.38855118
0000b0 a5 ac 8f be e5 3f 55 3e e8 79 56 be ea 56 9b 3e
       -0.28061405 0.20825155 -0.20944941 0.30339748
0000c0 49 2a b0 be ca 02 48 3e aa fb b6 be d3 8b 96 3e
       -0.3440726 0.19532314 -0.3573888 0.29403552
0000d0 70 18 a2 3e eb 9f b8 3e a8 df 9f be 4a 85 af 3e
       0.3165927 0.36059508 -0.31225324 0.3428138
0000e0 1c 35 90 be e3 76 7c 3e d2 58 0b 3e 20 bb f6 be
       -0.2816552 0.24654727 0.13608101 -0.4818964
0000f0 4c 69 b4 be 91 6c a7 be af 14 f3 3e 85 c7 bb be
       -0.35236585 -0.32700017 0.47476718 -0.3667566

weight f4 [64, 3]
000000 6a 85 8b 3f cc 64 65 3f 59 be 02 3f 2e c2 4b 3f
       1.090009 0.8960693 0.510717 0.7959317
000010 67 40 11 3f ee 1d 31 3d 1f 1a a0 bd f0 d8 36 be
       0.56738895 0.043241434 -0.07817482 -0.17856193
000020 da fe bf be 51 38 53 bf 7c 9e b8 be 43 0a d7 be
       -0.37499124 -0.82507807 -0.36058414 -0.42000017
000030 2f 47 67 3f a8 70 cd bf cf 76 fb 3d 73 57 89 bf
       0.9034299 -1.6050005 0.1227852 -1.0729812
000040 c9 f1 d9 3f 3d 41 05 be 7b 77 05 3f 2f 1e a2 bb
       1.7026912 -0.13013168 0.5213544 -0.004947446
000050 9c b8 21 3d 5e 5b f5 be 3b 86 5a 3e 50 c9 fd bc
       0.039482698 -0.4792127 0.21340267 -0.030979782
000060 c3 37 18 3f 95 6c 96 bf a7 9d 26 3e 96 be 29 bf
       0.59460086 -1.1751887 0.16271077 -0.66306436
000070 df bd 64 3f c8 09 60 3f a5 51 04 be f5 03 2f bf
       0.8935222 0.87514925 -0.1292177 -0.6836541
000080 25 71 db 3e 0a df 98 be d8 1d 24 3f 65 35 13 bd
       0.4285976 -0.29857665 0.6410804 -0.035939593
000090 3c 47 b6 3e 2a 6b 94 3f 9f f6 0d be 53 7c 02 bf
       0.35601223 1.1595204 -0.1386361 -0.50970954
0000a0 df 83 8a bf e2 92 64 3d 90 ff 8e bf 66 34 39 3f
       -1.0821494 0.05580414 -1.1171741 0.7234558
0000b0 19 06 d0 3e df fb 32 3f 0f a3 08 bf 40 97 b4 be
       0.40629652 0.69915575 -0.5337381 -0.35271645
0000c0 ca ab a6 be 2f 40 67 bf a0 cf 2f bc 4c 51 2d 3f
       -0.3255294 -0.9033231 -0.010730654 0.67702174
0000d0 00 86 b2 be b5 5d 91 3e d5 18 17 bf c3 00 9e 3e
       -0.3486786 0.28391805 -0.59022266 0.30859956
0000e0 1e ce 92 3b 22 1a 7b bf cc 90 95 be 54 67 bf be
       0.0044801375 -0.9808675 -0.29212034 -0.3738352
0000f0 51 a6 a4 3b 43 14 7b 3f 80 db 45 bf 08 87 26 bf
       0.0050247093 0.9807779 -0.77288055 -0.6504979
000100 85 91 95 bf 7d 0c a0 3e d4 c0 9a 3f cb 1a 48 bf
       -1.1685034 0.31259528 1.2090096 -0.7816588
000110 46 27 e1 be c3 3a 3b bf 74 4c 09 bf 7b 46 8d be
       -0.43975276 -0.7313654 -0.53632283 -0.27592835
000120 11 32 2b be d7 48 8f bf 6f 91 a5 3c 3e f5 a2 3e
       -0.16718318 -1.1194104 0.02021095 0.3182773
000130 95 44 6b bf 38 60 41 bf a1 c1 8a bf 5c 0e cc bf
       -0.9190152 -0.75537443 -1.0840341 -1.5941882
000140 f8 5e 9c bf c2 83 a4 bf 19 b7 c4 3f 39 bf 1e bf
       -1.2216482 -1.2852709 1.5368377 -0.6201053
000150 f9 f2 05 bf 46 61 30 3f 72 a4 0b 3f d3 ab 6e bf
       -0.5232387 0.6889843 0.545478 -0.9323093
000160 d4 35 80 bf f2 6e b0 3e 11 6f 7c be 4f 89 2d bf
       -1.0016427 0.34459645 -0.24651743 -0.6778764
000170 7d ad d8 be 0b 50 f8 3e b9 4a 6c be 58 52 b7 3c
       -0.4231986 0.48498568 -0.2307538 0.022378132
000180 08 05 59 bf 80 07 3a 3f 7a 75 b1 3e a2 99 93 3e
       -0.847733 0.72667694 0.3465994 0.2882815
000190 c4 84 a9 3e 6c 2c d5 3e c9 84 58 3f 2b 87 9c bf
       0.33109105 0.41635454 0.84577614 -1.222875
0001a0 eb d0 8d 3e 22 63 99 3e e3 99 ee 3e 92 9d cd be
       0.27698454 0.29958445 0.4660178 -0.4015928
0001b0 94 4a 86 bf 9e bc 92 3c 36 ce b2 be c0 57 65 3f
       -1.049151 0.017912205 -0.3492295 0.8958702
0001c0 34 93 f6 3e 64 95 d0 3e 02 b0 ca be aa dc a1 bf
       0.48159182 0.40738976 -0.39587408 -1.2645466
0001d0 b8 51 1d 3e df 10 21 bf bd df 2d bf 33 0d e6 be
       0.15363204 -0.6291637 -0.6791952 -0.44931945
0001e0 34 39 1c 3f 8f a7 95 bf 1a b6 ab be 8f 81 87 3f
       0.61024785 -1.169176 -0.3353737 1.0586413
0001f0 dd d6 55 3f 3b dc f1 3e cd 41 81 3f 7d 27 a6 bc
       0.8353098 0.47238335 1.0098206 -0.020282501
000200 be f1 a0 be 04 55 92 be 27 f6 94 3f 6b c5 26 be
       -0.31434435 -0.28580487 1.163762 -0.16286246
000210 ba 30 77 bf a7 8b 42 3f d2 78 b6 3e 32 d7 11 3d
       -0.96558726 0.7599434 0.35639054 0.035605617
000220 ee 9b fe 3e 66 45 d5 bc c7 c9 44 3f bc 55 45 be
       0.4972834 -0.026034068 0.7687039 -0.19270986
000230 31 7e 91 be 13 98 cd be d5 fb 59 3e da f6 0b 3f
       -0.2841659 -0.40155086 0.21287473 0.5467354
000240 8f d2 80 3f b9 23 1d bf 14 4f c0 be 56 af c8 3e
       1.0064257 -0.61382633 -0.37560332 0.3919627
000250 be 7c 71 bf 7e 61 71 3d dd cb 63 bf db ad 13 3f
       -0.94330966 0.058930866 -0.88982946 0.5768716
000260 96 68 94 3e c1 8d c9 bf 26 45 cc bf f1 ac f4 be
       0.28986043 -1.5746385 -1.5958602 -0.47788194
000270 81 d3 9e be 6c 7b f1 3d a4 6c fe 3e fa f8 c2 be
       -0.3102074 0.11791119 0.4969226 -0.3808058
000280 95 fe 64 3f 8b e6 84 bd e3 5f 17 bf 1f 4d 69 be
       0.8945096 -0.06489285 -0.59130687 -0.22783326
000290 fe 75 59 3e 49 0e 50 bf ae ee 61 bf 82 36 d9 be
       0.21236417 -0.812718 -0.8825482 -0.424244
0002a0 96 39 b7 3e 69 84 af bf 1f d5 7d 3f ee 49 9c 3c
       0.35786122 -1.3712283 0.9915332 0.019078221
0002b0 0d fd 95 be e1 92 0c 3c d8 c3 24 3f 0e b9 95 3e
       -0.29294625 0.008579941 0.64361334 0.29242748
0002c0 55 17 92 be 39 ce 4a 3f 48 df e3 bf e9 70 06 bf
       -0.28533426 0.7922092 -1.7802515 -0.5251604
0002d0 23 ba 85 3f 24 64 b7 3f d1 6c 83 3d b6 ec 75 3f
       1.044743 1.4327435 0.064172395 0.9606432
0002e0 94 2d bc bf f3 1d 31 be 18 6d 9f be cf 06 be bf
       -1.4701409 -0.17296581 -0.3113792 -1.4845828
0002f0 f7 c7 48 3e b6 b5 14 3f c7 c4 b2 be 67 04 ab 3c
       0.1960753 0.5808977 -0.34915754 0.020876123

bias f4 [64]
000000 7d f8 57 bf 19 e7 a2 be 31 0e 1a 3f fd 6c 53 3f
       -0.8436354 -0.3181694 0.60177904 0.8258818
000010 53 55 9b be 21 d2 97 3e 3d 4f 56 3f cb ce 5f 3f
       -0.30338535 0.29652503 0.8371466 0.87424916
000020 44 64 82 bf 81 93 08 bc 2e 26 7a 3f f2 10 34 bf
       -1.0186849 -0.008335949 0.9771451 -0.70338356
000030 cb a8 55 3f cc e8 d8 3e 24 44 3c 3f a4 42 a8 be
       0.8346068 0.4236511 0.73541474 -0.32863343
000040 7f 0f 17 bf c4 60 6d bf 94 34 27 3f cb d8 3a 3f
       -0.5900802 -0.9272578 0.653146 0.7298705
000050 7f 6a 63 bf c0 30 06 3f 98 bc 46 bf d0 b9 e0 3e
       -0.88834375 0.52418137 -0.7763152 0.43891764
000060 43 01 25 bf ed 3c cc be 88 90 e6 3d 31 7a 85 3c
       -0.6445505 -0.39890233 0.11258036 0.016293617
000070 f5 bd e8 3d 89 70 a5 3e 5c df 43 3f 98 3c 6b 3f
       0.113643564 0.3231242 0.76512694 0.91889334
000080 c4 a6 20 3f d7 a0 3f bf b6 92 fc be 8e f7 62 3f
       0.62754464 -0.748548 -0.49330682 0.8865899
000090 a1 88 6d 3f 91 14 0d bf 22 eb 27 3f f4 66 4a 3f
       0.92786604 -0.55109507 0.6559316 0.79063344
0000a0 40 0f 2c be e1 8d 36 bf b8 2c 2f bf 44 91 5d bf
       -0.16802692 -0.7131024 -0.6842761 -0.8654978
0000b0 e9 4c 14 3f ee 58 51 bf d6 2e 01 bf 5a 4e 83 bf
       0.57929856 -0.8177632 -0.5046209 -1.0258286
0000c0 82 98 0c bf 16 ec 4d bf 86 b0 11 3e 04 ce 55 3e
       -0.5492021 -0.80438364 0.14227495 0.2087937
0000d0 ed c9 5f bf 54 81 38 bf 2b 0e e2 3e 5a d0 0d 3f
       -0.8741749 -0.7207234 0.44151434 0.55396044
0000e0 75 fe 55 be 83 df 39 3f 13 78 38 bf ae d6 37 be
       -0.20897849 0.72606677 -0.7205822 -0.17952988
0000f0 b0 de 99 bc cf 38 5b be 68 a2 42 3f 50 68 6f 3f
       -0.018782943 -0.2140839 0.7602906 0.93518543

weight f4 [64, 64]
000000 9b 9b 20 bf 6b 9b d3 be 95 d9 ab 3d 56 0c 2d 3f
       -0.62737435 -0.41329512 0.0839111 0.6759695
000010 9d de 3c 3f a1 1f 60 bf 91 d7 c3 bc e6 a5 8f 3e
       0.7377718 -0.8754826 -0.023906501 0.28056258
000020 0e eb 97 be e1 cd 4c bf 65 48 59 be cb cb 79 be
       -0.2967152 -0.80001646 -0.21219023 -0.24394147
000030 63 3f a8 be 05 eb 04 be c4 e4 7d be ba 4a 17 3f
       -0.3286086 -0.12980278 -0.24794298 0.590984
000040 04 e9 c8 3e 34 7c bc be 85 8d 9c 3d d9 fd 14 3f
       0.39240277 -0.3681351 0.0764418 0.5819984
000050 8f 40 ca bd 45 7e ae be 3e c7 b8 3e 84 91 45 3f
       -0.09875595 -0.3408071 0.3608951 0.77175164
000060 b3 b7 ca 3e da 78 30 3f 4c e7 7c 3d ea 41 fe be
       0.39593276 0.68934405 0.06174402 -0.49659663
000070 58 12 53 bf 67 43 0f bf e7 bc b2 3e a5 89 06 3e
       -0.82449865 -0.5596222 0.34909746 0.13138445
000080 5d 3e c9 be b4 51 29 be ae b8 36 be 01 8d c7 3c
       -0.39305392 -0.16535074 -0.17843887 0.024359228
000090 d8 e4 35 3f f7 2e e5 be 45 b9 f1 bd 91 dd 06 3f
       0.7105231 -0.44762394 -0.118029155 0.52681834
0000a0 57 48 98 3f 64 c5 3b bf 89 7f 0b 3e 34 c9 ec bd
       1.1897076 -0.7334807 0.1362287 -0.11561814
0000b0 57 5c ca be 77 be 22 3c 62 6a 15 3f 55 ca 06 3d
       -0.39523575 0.009933106 0.5836545 0.032907803
0000c0 ce d1 de 3e ce a4 27 be d1 24 0b bf 38 2e e7 be
       0.43519443 -0.16371462 -0.5435305 -0.4515245
0000d0 c7 81 6a bd fc 13 9b be ea e9 4c be d1 6b 44 3f
       -0.05725267 -0.30288684 -0.20011106 0.76727015
0000e0 b3 f1 fc 3a f5 60 bf bc f0 5a f2 3d 27 c9 7b 3f
       0.0019298106 -0.023361662 0.11833751 0.9835381
0000f0 40 31 51 3e a1 09 41 3f 95 27 82 be 29 66 25 3e
       0.20428944 0.7540532 -0.25420824 0.16152252
000100 5d 24 dd 3e 7e 28 86 be 72 ea 2d bd 74 bf fb bd
       0.43191805 -0.26202768 -0.042459913 -0.12292376
000110 54 18 0e 3e 8b 3a a7 be 4b 64 94 3e 37 aa eb 3e
       0.13876468 -0.32661852 0.28982767 0.460283
000120 22 c7 38 be 02 d2 52 3e 0b 68 40 3e 5b 39 ab 3c
       -0.18044713 0.20587924 0.18789689 0.020901373
000130 1a 4e ed 3e 3b 1b ad be f6 2c 14 3f 1d a8 45 be
       0.4634865 -0.33809838 0.57881105 -0.19302411
000140 79 38 20 bf 17 1c 46 bd 9e 1a 30 3f c2 12 96 be
       -0.6258617 -0.048366632 0.68790615 -0.29311186
000150 39 76 21 3d b3 84 f1 be 36 6e 2d bf 04 a8 33 bf
       0.039419387 -0.47171554 -0.67746294 -0.70178246
000160 dd 49 03 bf 57 1b cd be 17 55 8c bf cf 5f d1 be
       -0.5128458 -0.4005992 -1.0963467 -0.4089341
000170 9a 83 39 3e 81 cb 46 bf 5a 51 90 be c0 f3 f4 3c
       0.18116608 -0.7765427 -0.28187066 0.029901385
000180 02 f7 0f 3f 22 cf d2 3e 63 67 31 3f 96 ad a6 3d
       0.5623628 0.41173655 0.6929838 0.08138578
000190 b5 d8 ce 3d a8 8c 03 3f 90 42 05 be 73 79 dd be
       0.10099927 0.513865 -0.13013673 -0.4325672
0001a0 f0 0a 5a bf e9 2c e9 3e d8 33 a0 be 5b 9b a2 bd
       -0.8517294 0.45542076 -0.31289554 -0.07939788
0001b0 0e dd 33 3f 9d db 85 be af 39 ba be e5 72 89 3e
       0.7025918 -0.26144114 -0.36372134 0.2684547
0001c0 5f 1a 7b be 6d b7 37 be 24 2c 94 3e bd 32 ae bf
       -0.24521779 -0.17941065 0.28939927 -1.3609234
0001d0 26 68 2b 3e a9 f8 f7 3d fb 87 1c 3e a6 e6 82 bf
       0.16738948 0.12107975 0.15286247 -1.0226638
0001e0 0f ef 8f be d5 54 8f 3d 6d d3 65 be 80 54 4c be
       -0.28112075 0.06998602 -0.22443934 -0.19954109
0001f0 cc 2c b4 3f 5d 55 92 bd 3f a3 16 be cc 51 be 3d
       1.4076171 -0.07145188 -0.14710711 0.09292945
000200 71 f8 2d 3c 92 36 fd 3e c3 e6 e2 3e 32 71 d5 bd
       0.010618315 0.49455696 0.44316682 -0.10421981
000210 0c e3 63 be 99 7e 91 3e e5 04 3d 3f 10 5b 6e 3c
       -0.2225458 0.284169 0.73835593 0.014548078
000220 44 ae 46 3e 36 6f 91 3d e5 1b 82 3e b0 b1 f6 be
       0.19402415 0.0710129 0.25411907 -0.4818244
000230 70 fd 24 3f 9b 8c 98 bd 08 99 e1 3c 27 a2 81 3b
       0.64449215 -0.07448693 0.027538791 0.0039560976
000240 e7 0b 4f bf 13 b5 13 3f 42 04 3f be 5a 2e b2 be
       -0.80877537 0.5769817 -0.18653968 -0.34800988
000250 28 02 eb be a1 31 bd be dd 07 ab bd 77 52 3a bf
       -0.45900083 -0.36951926 -0.08351109 -0.7278208
000260 44 51 02 bf 92 e1 ba be d2 6d 07 3f c5 fc 47 3e
       -0.5090525 -0.36500221 0.5290195 0.19530018
000270 92 95 e3 3b 5e d0 d9 be 73 45 10 3f 3b 05 1a 3f
       0.0069453204 -0.42541784 0.5635597 0.6016423
000280 e2 60 04 3e 5c 9e e5 be d4 7c 37 3f be c2 3f 3f
       0.12927583 -0.4484738 0.7167485 0.7490653
000290 53 29 87 bf 8b 82 1c 3e c7 a4 76 3d b5 7c 3d 3e
       -1.0559486 0.15284173 0.060215738 0.18504603
0002a0 63 05 9b be 22 3f 6d bd 4b 9f 01 3f 13 78 9c be
       -0.30277547 -0.057921536 0.50633687 -0.3056036
0002b0 ba 03 0d 3e 4f 12 43 be a8 14 a3 3e 3b 03 6d bf
       0.13770953 -0.19049953 0.31851697 -0.92583054
0002c0 b2 b0 9c bd 00 8a 45 be 4e 24 3b bd 8d 57 22 3d
       -0.076508895 -0.19290924 -0.04568892 0.039634276
0002d0 36 fb 61 bf f1 d9 cf be be f2 c3 be 99 56 c1 bd
       -0.8827394 -0.40595964 -0.38271135 -0.09440345
0002e0 d6 18 3e be 2a 31 c4 3e 79 45 76 3e 65 42 f1 be
       -0.18564162 0.3831876 0.24049939 -0.47120968
0002f0 70 df 71 3e 4e 6e 66 bf 01 78 51 3e 4f 7d 11 3f
       0.23620391 -0.9001206 0.20455934 0.5683183
000300 9a fa f0 bd b8 e5 92 bf a4 de 5a 3e a0 34 99 3e
       -0.117665485 -1.1476355 0.21373993 0.29922962
000310 22 02 24 be 05 60 ab 3d d8 56 0b 3e 76 86 da 3e
       -0.16016439 0.08367924 0.13607347 0.4268071
000320 30 9a e5 be 77 77 cb 3e e4 ba 15 3f 02 b3 a4 be
       -0.44844198 0.39739582 0.584883 -0.32167822
000330 e9 e2 76 3e 32 36 ad 3f 17 f7 aa 3e f0 bb 2c bf
       0.24109997 1.3532164 0.3339164 -0.6747427
000340 64 f0 ce bc 78 41 8e be 36 31 41 3f ff 84 a5 3e
       -0.025261112 -0.27784324 0.75465715 0.3232803
000350 72 5f 9e bd c3 53 8f 3e 93 81 dc be f5 25 18 3d
       -0.077330485 0.27993593 -0.43067607 0.037145574
000360 8a 4e 6c bd aa d6 3e bf a8 ff ae 3e f1 84 d6 3c
       -0.05769209 -0.745463 0.34179425 0.026186438
000370 b1 59 e8 3e ec 0f ca 3e 2f 04 bf 3c 15 60 37 3e
       0.4538093 0.39465272 0.023317425 0.17907746
000380 3a 5d 28 3e b7 5e 83 be b0 aa f7 be 81 e9 57 3e
       0.16441813 -0.256582 -0.48372412 0.21085168
000390 5a e9 a5 3e e5 16 87 bd 2f c9 35 3f 55 e8 13 3d
       0.32404596 -0.06596164 0.71010107 0.03611024
0003a0 46 37 ec be 05 a8 83 3c 52 ec 49 be e7 49 d8 be
       -0.4613592 0.016071329 -0.19719055 -0.42243883
0003b0 34 14 15 3e 0b cb 04 bf 14 9b cd be 3b 3c 9e bd
       0.14558488 -0.5187232 -0.40157378 -0.07726332
0003c0 7c 08 a5 be 99 d1 aa be de 56 af 3e 2f ea 01 3f
       -0.32233036 -0.33363035 0.34245962 0.5074796
0003d0 05 f0 02 be c1 3f 6f be 18 5e 74 3e 78 a4 5f be
       -0.12786873 -0.23364164 0.23864019 -0.21840084
0003e0 b4 e7 91 3c dd 5f ce 3e 72 50 84 be ef 45 59 bf
       0.01781068 0.40307513 -0.25842625 -0.84872335
0003f0 72 b7 21 bf a8 2b a5 3e 3d 62 02 3f 87 33 56 3e
       -0.6317054 0.3225987 0.5093115 0.20918094

bias f4 [64]
000000 40 4a 9c bc 9c 68 8c 3e 2e 7f e7 3e 9d fc 82 3e
       -0.019078374 0.2742356 0.45214218 0.25583354
000010 55 79 e8 3e 4f 36 92 be 54 ed 2e 3e 75 57 54 3e
       0.4540507 -0.2855706 0.17082721 0.20736487
000020 0a 63 b4 be ae f4 90 be 4b 6b 94 3e 34 0f 82 3e
       -0.3523181 -0.28311676 0.28988108 0.25402224
000030 5d d4 94 be 9e 99 c4 3e a7 39 89 3d 75 88 4e 3e
       -0.2906827 0.3839845 0.067004494 0.20169242
000040 56 9f ff 3e ca 70 4d be 1e 26 fd 3e 6b b4 d0 3d
       0.4992625 -0.20062557 0.49443144 0.10190662
000050 c3 8a 8d be 60 40 bb 3e 5e b2 19 be 39 6f 54 bd
       -0.2764493 0.36572552 -0.15009448 -0.051863883
000060 b8 da 29 be c6 8c 81 3e 33 f5 95 3e 6d e1 b7 3e
       -0.16587341 0.25302714 0.29288635 0.35914174
000070 c0 e3 68 3e 0e 24 8f 3b 00 3c 99 be 05 3b bd 3e
       0.2274313 0.0043683117 -0.2992859 0.3695909
000080 98 96 70 3d 7d 83 d0 bd 41 df 27 be ef a3 be be
       0.058737367 -0.101813294 -0.16393758 -0.37234446
000090 2f 55 a8 be 64 34 da 3d 18 c0 4b be 4f b0 10 bd
       -0.3287749 0.10654524 -0.19897497 -0.03532439
0000a0 33 36 92 be a4 48 0c 3e 4e c7 e5 3e c4 2c fa bd
       -0.28556976 0.13699585 0.4487862 -0.122155696
0000b0 f4 99 4c be 0d 64 1c 3e 4a 18 32 3d c7 07 7a 3e
       -0.19980603 0.15272541 0.043480195 0.2441703
0000c0 03 8c 13 bf fc 93 01 3e 3f 8f f9 be cc 46 23 bf
       -0.57635516 0.12654108 -0.487421 -0.637799
0000d0 ae f3 35 be 15 6f 64 be 26 81 87 bd a8 95 d7 3e
       -0.17768738 -0.22308 -0.0661643 0.42106366
0000e0 a7 8a 8e be 06 85 c9 3e ad 30 e0 be 75 ed 4c be
       -0.27840158 0.393593 -0.43787137 -0.20012458
0000f0 2b f1 0a 3f 25 61 3f be 87 93 88 be fd 34 32 3e
       0.54274243 -0.18689401 -0.26675054 0.17403026

weight f4 [1, 64]
000000 12 42 71 40 75 c7 73 40 2d 33 7b c0 44 69 73 c0
       3.7696576 3.809049 -3.9249985 -3.8033
000010 e9 d6 77 c0 a7 f4 68 40 12 27 71 c0 23 01 77 c0
       -3.872492 3.6399324 -3.7680097 -3.8594444
000020 58 23 73 40 dd 33 72 40 c6 b1 73 40 31 72 6f c0
       3.7990322 3.7844155 3.8077254 -3.7413447
000030 dd 0a 75 40 aa 79 7b c0 53 a2 77 40 de 66 75 c0
       3.828788 -3.9293008 3.8692825 -3.8344035
000040 57 dd 80 40 5f fa 76 40 c1 c1 74 c0 46 d4 6f 40
       4.027019 3.8590314 -3.8243258 3.7473311
000050 53 46 81 c0 aa 6e 74 c0 50 9d 76 40 76 05 73 c0
       -4.0398345 -3.8192544 3.8533516 -3.7972083
000060 af 19 7c 40 7b 90 78 c0 77 1b 6f c0 54 6d 76 40
       3.9390676 -3.8838184 -3.7360513 3.8504229
000070 69 fe 7f 40 e7 09 6f 40 6b 8f 7a 40 5d da 81 40
       3.999903 3.7349794 3.9150035 4.0579057
000080 66 d5 72 c0 d5 cb 7f 40 94 fd 73 40 66 d5 6e 40
       -3.7942748 3.996816 3.8123522 3.7317748
000090 b6 df 6c 40 39 16 6f c0 0e 09 6e 40 83 c7 7c c0
       3.7011542 -3.7357314 3.7193027 -3.9496772
0000a0 c8 fa 6e 40 91 10 73 c0 20 fa 73 40 0e 36 74 40
       3.7340565 -3.7978861 3.8121414 3.8157992
0000b0 4c f9 7d 40 3b b9 74 c0 f9 4d 75 40 fb 78 70 c0
       3.9683409 -3.8238056 3.832884 -3.757384
0000c0 01 0b 81 c0 c7 46 73 c0 a3 1d 6c 40 be 9b 75 40
       -4.0325933 -3.801195 3.689309 3.8376307
0000d0 6c fb 7e c0 9f 2a 6b 40 0f 6e 76 c0 c9 6d 79 40
       -3.9840956 3.6744764 -3.8504674 3.8973258
0000e0 06 4d 71 40 40 5b 71 c0 99 dd 6a 40 e5 fb 76 40
       3.7703261 -3.7711945 3.6697752 3.8591244
0000f0 69 55 6f c0 b2 66 7f c0 d7 3a 75 40 87 48 6d c0
       -3.739588 -3.990643 3.8317163 -3.7075517
