data/CartPole-v0_ppo_gpu/CartPole-v0_ppo_gpu_s10/pyt_save/model.pt (torch, 42881 bytes, 11 tensors)

weight f4 [64, 4]
0.4050379 -0.5580728 -0.5125899 -0.5393089 0.48710337 0.5611659 0.6780565 0.7443726
0.38686043 0.40182012 -0.10338341 -0.8111296 0.25423956 0.018837102 -0.7802744 -0.65199864
0.015859526 -0.23473911 -0.42887786 -0.22902702 0.40695572 0.61577123 0.718543 0.6164549
-0.06434339 -0.21485333 -0.055424742 0.34935543 -0.2699157 -0.5441159 -0.47280037 -0.57943857
0.30259356 -0.26825133 -0.41946486 -0.019192666 -0.04613653 0.19596821 1.1399691 -0.15613087
0.37204602 -0.1889171 0.07771238 -0.20294416 0.23220621 -0.18002842 0.6892508 0.25306988
-0.4437924 -0.3434161 -0.18177344 0.6450936 0.099096656 0.6359671 0.36564222 0.61189294
-0.508462 0.5294728 0.74818027 0.44293842 0.5089915 0.38114244 0.71083343 0.66649693
-0.53660387 0.5881224 0.16941415 0.62422514 0.23180969 -0.1407119 0.22894186 -0.6523144
0.54989296 -0.5075041 -0.2662042 -0.8122501 0.24629948 0.6544857 0.5330295 0.7524278
0.30111498 0.3704402 0.81568086 0.28326505 0.5688402 -0.30900472 -0.20246327 -0.4497568
0.19023077 0.71750194 0.33568886 0.7424734 0.55711776 -0.3568904 -0.5392768 -0.38881585
-0.3380569 0.21673638 0.61347026 0.6261286 -0.36445397 -0.40689883 0.27963915 0.674715
-0.41590315 0.3595617 0.5717968 0.24509045 0.54504454 0.22018486 -0.7451385 -0.6317425
-0.39718556 -0.25617355 -0.56571186 -0.5913098 -0.15441784 0.14027618 -0.7886662 -0.617069
-0.4331372 -0.34458855 -0.8130094 -0.16774759 -0.120869555 -0.022420818 0.09682941 0.5458002
-0.09168518 0.13922456 -0.18036498 0.63723993 -0.122558616 -0.3215467 -0.90642613 -0.45019552
-0.5665407 0.11711539 -0.4835325 -0.39548448 0.35051537 -0.1383394 -0.6107487 -0.09193565
0.06472521 -0.13676964 0.4032162 -0.3745996 -0.09130801 0.6967317 0.46106637 0.010311352
-0.086102895 0.26085755 0.3903981 -0.10683906 0.44390464 -0.25502014 -0.5531585 -0.63334763
0.20417126 -0.51234996 -0.6271512 -0.25027367 -0.54299545 -0.15856446 0.4681851 0.5033449
-0.23113912 -0.56815886 -0.41970432 -0.65743 0.30647624 0.30417612 0.9212584 0.6737023
0.49930817 -0.043854598 0.56211525 0.47196203 0.24189873 -0.40952656 -0.51773524 -0.23280092
0.019490806 -0.56035125 -1.0031965 -0.28446475 -0.29899833 0.34587917 0.9088613 0.39263383
-0.4026177 -0.12694381 -0.6366363 -0.43371594 0.017541463 -0.38067412 -0.4848818 -0.05839612
0.15081464 -0.47487897 -0.36658734 0.37708107 -0.03323426 0.27970117 0.09643622 0.5338412
-0.36431962 -0.38872495 -0.9724156 -0.08826948 -0.057996217 -0.55311805 0.03775802 0.16500968
-0.42619932 0.07204468 -0.3876057 -0.5444422 0.14837122 -0.42643246 -0.51911736 -0.5986384
-0.42482883 0.08262271 -0.064435 0.7340297 -0.4728876 -0.2827844 0.3134234 0.76979023
0.4528069 0.3842832 0.7209009 0.5719622 0.11310389 0.23186067 0.6163248 0.4290095
-0.24194956 0.40612715 0.06899718 0.27193972 0.039605774 0.16232862 -0.1391655 0.27747256
-0.35258195 -0.31347156 -0.93951505 -0.6139818 -0.43612844 0.096049935 0.47062355 0.80784535
00000000: 2161 cf3e dcdd 0ebf 1739 03bf 2610 0abf
00000010: 9d65 f93e 92a8 0f3f 1c95 2d3f 348f 3e3f
00000020: 9212 c63e 5ebb cd3e aeba d3bd 31a6 4fbf
00000030: b02b 823e 4450 9a3c 10c0 47bf 62e9 26bf
00000040: d6eb 813c 735f 70be e195 dbbe 0f86 6abe
00000050: 805c d03e 2fa3 1d3f 6ff2 373f fdcf 1d3f
00000060: 78c6 83bd 8302 5cbe 0e05 63bd b7de b23e
00000070: 6432 8abe 2e4b 0bbf e412 f2be 1656 14bf
00000080: 8bed 9a3e 3d58 89be 19c4 d6be f039 9dbc
00000090: a8f9 3cbd e4ab 483e 82ea 913f c5e0 1fbe
000000a0: d17c be3e 7c73 41be ab27 9f3d 98d0 4fbe
000000b0: 77c7 6d3e 5f59 38be be72 303f 6092 813e
000000c0: c238 e3be 3cd4 afbe d122 3abe db24 253f
000000d0: 30f3 ca3d bdce 223f 7535 bb3e 04a5 1c3f
000000e0: 912a 02bf 888b 073f be88 3f3f d3c8 e23e
000000f0: 444d 023f 1a25 c33e 2ef9 353f 8b9f 2a3f
00000100: df5e 09bf 318f 163f e77a 2d3e 38cd 1f3f
00000110: 855f 6d3e c816 10be bc6f 6a3e 14fe 26bf
00000120: c9c5 0c3f caeb 01bf eb4b 88be 9fef 4fbf
00000130: ee35 7c3e 608c 273f 9f74 083f 1c9f 403f
00000140: be2b 9a3e 57aa bd3e 76d0 503f 1e08 913e
00000150: 839f 113f de35 9ebe 8852 4fbe 8646 e6be
00000160: dbcb 423e 35ae 373f 69df ab3e bd12 3e3f
00000170: 459f 0e3f 57ba b6be 0b0e 0abf df12 c7be
00000180: cb15 adbe 24f0 5d3e 630c 1d3f f749 203f
00000190: b699 babe 0b55 d0be dd2c 8f3e 1fba 2c3f
000001a0: 42f1 d4be 7918 b83e 4661 123f fef8 7a3e
000001b0: 0a88 0b3f 2478 613e 66c1 3ebf e0b9 21bf
000001c0: e85b cbbe 2e29 83be 7ed2 10bf 1460 17bf
000001d0: b61f 1ebe 8fa4 0f3e 07e6 49bf 3cf8 1dbf
000001e0: 29c4 ddbe e96d b0be 6221 50bf 06c6 2bbe
000001f0: 758a f7bd ddab b7bc 7f4e c63d 90b9 0b3f
00000200: 71c5 bbbd e290 0e3e 99b1 38be 2822 233f
00000210: 0300 fbbd c5a1 a4be 8b0b 68bf 0780 e6be
00000220: d008 11bf 32da ef3d 9291 f7be f17c cabe
00000230: c076 b33e d8a8 0dbe 075a 1cbf c248 bcbd
00000240: a78e 843d 570d 0cbe 5b72 ce3e 85cb bfbe
00000250: b2ff babd 025d 323f e410 ec3e f2f0 283c
00000260: b756 b0bd 1f8f 853e 42e2 c73e 70ce dabd
00000270: 7847 e33e 0092 82be cc9b 0dbf 1223 22bf
00000280: 4512 513e 5e29 03bf fb8c 20bf df23 80be
00000290: c001 0bbf b95e 22be f5b5 ef3e 36db 003f
000002a0: bcaf 6cbe dc72 11bf 7ce3 d6be 554d 28bf
000002b0: 74ea 9c3e f9bc 9b3e 97d7 6b3f c177 2c3f
000002c0: 52a5 ff3e e1a0 33bd c9e6 0f3f 02a5 f13e
000002d0: 4db4 773e 77ad d1be 4c8a 04bf 5d63 6ebe
000002e0: 2fab 9f3c 2e73 0fbf be68 80bf 5da5 91be
000002f0: 4f16 99be 1317 b13e 22ab 683f 4d07 c93e
00000300: e823 cebe 8ffd 01be 99fa 22bf 0410 debe
00000310: 1db3 8f3c b8e7 c2be 6d42 f8be c530 6fbd
00000320: 276f 1a3e 5623 f3be 56b1 bbbe c510 c13e
00000330: a620 08bd fe34 8f3e 5a80 c53d d1a9 083f
00000340: 1a88 babe f506 c7be 3bf0 78bf a1c6 b4bd
00000350: 718d 6dbd 2599 0dbf 27a8 1a3d 4cf8 283e
00000360: cc36 dabe 298c 933d 4174 c6be 9060 0bbf
00000370: a0ee 173e 5b55 dabe e0e4 04bf 5e40 19bf
00000380: 2a83 d9be 1836 a93d 7ff6 83bd 5fe9 3b3f
00000390: 531e f2be 1ec9 90be 0879 a03e f910 453f
000003a0: 4ed6 e73e c5c0 c43e f68c 383f 1d6c 123f
000003b0: 03a3 e73d e26c 6d3e 76c7 1d3f 22a7 db3e
000003c0: a0c1 77be e6ef cf3e 654e 8d3d af3b 8b3e
000003d0: aa39 223d 7939 263e 6781 0ebe e210 8e3e
000003e0: 9f85 b4be 587f a0be 0f84 70bf e92d 1dbf
000003f0: 3a4c dfbe d4b5 c43d 92f5 f03e f4ce 4e3f

bias f4 [64]
-0.39989808 0.18767917 0.07023368 -0.30224743 -0.37123716 -0.12112588 -0.21455818 -0.2777472
0.01629561 -0.13734367 0.3018341 -0.35723364 -0.023132186 -0.043967724 0.14140016 0.34055606
-0.18416165 -0.06567414 -0.25804317 -0.1966993 -0.078236155 -0.21175708 0.2610604 -0.44382867
0.24893878 -0.36788812 -0.14863095 0.34847903 -0.0009114518 -0.020029912 -0.20736635 -0.39295566
-0.4256394 0.030003155 0.47789812 -0.14485161 -0.44240627 -0.17253831 0.26930547 0.26418078
0.26741812 -0.44801912 0.26433012 0.13837983 -0.3738353 0.38576686 0.09802054 -0.016656445
-0.107702516 0.23492734 -0.4512944 -0.13843767 0.016394492 0.37832785 0.47923315 -0.30805004
-0.10275462 -0.39553523 0.3710769 -0.1469499 -0.09643756 0.2732946 0.15524259 0.30939004
00000000: 71bf ccbe f82e 403e add6 8f3d 2dc0 9abe
00000010: cc12 bebe d810 f8bd 24b5 5bbe e234 8ebe
00000020: 5f7e 853c d2a3 0cbe 008a 9a3e 54e7 b6be
00000030: b67f bdbc 8017 34bd 34cb 103e 5d5d ae3e
00000040: df94 3cbe 2a80 86bd 3c1e 84be 8b6b 49be
00000050: 473a a0bd d9d6 58be b5a9 853e 833d e3be
00000060: cfe9 7e3e d55b bcbe b632 18be d86b b23e
00000070: 7fee 6eba c515 a4bc d857 54be 7c31 c9be
00000080: 68ed d9be 2dc9 f53c 10af f43e fb53 14be
00000090: 1383 e2be e2ad 30be 68e2 893e b442 873e
000000a0: 07eb 883e c362 e5be 4756 873e 71b3 0d3e
000000b0: 5767 bfbe 3c83 c53e febe c83d 1973 88bc
000000c0: 2393 dcbd cb90 703e 0f10 e7be 9bc2 0dbe
000000d0: be4d 863c 30b4 c13e 0c5e f53e bcb8 9dbe
000000e0: 0471 d2bd 9883 cabe cbfd bd3e 097a 16be
000000f0: 0e81 c5bd 45ed 8b3e eaf7 1e3e 5f68 9e3e

weight f4 [64, 64]
-0.14545204 0.3151834 -0.029532988 -0.039312962 0.10428185 0.05928153 -0.029493771 -0.27977943
-0.08151696 0.047304932 -0.062212434 0.0020039307 -0.041610826 0.33998138 0.06032272 0.25730094
0.08248291 -0.09273716 -0.13951512 0.21908107 0.20442802 -0.0839907 0.18188633 0.04883629
-0.028518053 -0.006298115 0.11194133 -0.16144162 -0.260162 0.04929858 -0.12838544 -0.045148894
0.05861848 -0.34084597 -0.18167086 -0.04139391 -0.04643418 0.16987605 -0.016096862 -0.13360505
-0.10368653 0.12117383 -0.07528659 0.30958074 0.045264535 0.022854004 -0.33743408 0.3858681
-0.17921115 -0.10701735 -0.12750982 0.07211784 -0.15972356 0.07303705 -0.014986498 0.042490095
0.092928626 0.046827983 0.28960457 0.049406298 -0.020428833 -0.09815901 -0.18775554 0.049202062
0.0010199638 0.23875628 -0.18706372 -0.1555731 -0.068720125 0.07821718 0.09151507 0.07521046
-0.22389333 0.099325426 -0.05648569 -0.13716799 0.08870707 0.1970044 0.2189694 -0.036883835
0.23640428 0.0006439677 -0.19617097 0.15065414 0.17271502 -0.084032185 0.19581854 -0.1898854
0.040232494 0.07345662 0.1661675 -0.03383554 -0.10492852 0.012997359 -0.0027359414 0.05945339
-0.11371176 -0.16673118 0.052552823 -0.06734478 -0.0684123 -0.09469437 -0.05137255 -0.21021329
0.0085380245 0.1597667 -0.13806646 -0.008869064 -0.024388094 0.052672856 -0.078901514 0.540179
0.0938809 -0.08579949 -0.068718866 0.13881734 -0.077323176 0.0067488924 0.056918852 0.018915422
0.11403378 0.24239978 -0.0290703 0.15848842 0.16919594 0.07007793 -0.15677154 0.1525071
-0.008900258 0.25272408 -0.048402622 0.010213065 0.02545362 0.24523337 -0.016650783 -0.29308945
-0.067593925 0.07686657 0.13219346 0.05823028 0.11563654 0.3863483 0.26796237 0.23873317
0.19792098 0.035591833 -0.011016757 0.23233365 0.2305554 0.04450755 0.19687894 -0.067173496
0.0814322 -0.022358855 0.11424247 -0.02003323 -0.1624918 -0.11424978 -0.111739114 0.01718439
-0.0727229 -0.45043406 -0.09191898 0.015028705 0.018983224 0.18321924 -0.021002725 -0.15008591
-0.09675781 -0.045113206 -0.26495102 0.3545065 0.06773073 0.038906086 -0.16140978 0.4198886
-0.1798318 -0.12604605 -0.0025121793 0.26825672 -0.2088066 -0.0833927 -0.13254234 -0.24291031
-0.0459777 -0.06219683 0.2118365 0.2849089 0.21340911 0.1423086 -0.26145834 0.14247106
0.18855247 -0.22247453 0.22979851 0.22708791 0.05680624 -0.1397278 -0.064959496 -0.02048667
0.16108021 -0.09248681 -0.022685023 0.11119239 -0.21178 -0.3434037 -0.13325854 -0.004988853
-0.26004344 0.011787009 0.16990511 -0.17163943 -0.059500203 0.083181076 -0.07255467 0.10616244
-0.0968352 -0.20692044 -0.16730084 0.20687984 0.16654181 0.0025093814 -0.11622643 0.0098325955
0.014958331 0.25027734 -0.075296685 0.16485658 0.15001538 -0.061867777 -0.061682627 0.22409181
-0.032245483 -0.10315426 -0.008262381 -0.14722283 0.0004112134 0.061895598 0.16890498 -0.4229314
-0.08215999 0.093801945 -0.038833767 -0.0048312307 0.086624876 0.06330974 0.07800401 0.10037402
-0.2678716 -0.19742373 -0.11835966 -0.047805864 -0.116829544 0.0018417477 0.0942979 -0.23306693
00000000: 61f1 14be b85f a13e 2aef f1bc a106 21bd
00000010: b991 d53d 31d1 723d ec9c f1bc 403f 8fbe
00000020: 5df2 a6bd d1c2 413d 77d2 7ebd 6154 033b
00000030: 1d70 2abd 0a12 ae3e f514 773d f3bc 833e
00000040: cdec a83d fbec bdbd 0ddd 0ebe ca56 603e
00000050: 9455 513e 5103 acbd 6940 3a3e 9008 483d
00000060: b19e e9bc 6b60 cebb 7f41 e53d f450 25be
00000070: f433 85be 4fed 493d 7977 03be 0cee 38bd
00000080: ee19 703d 5d83 aebe ed07 3abe a98c 29bd
00000090: c431 3ebd fdf3 2d3e 91dd 83bc c3cf 08be
000000a0: 9a59 d4bd fc29 f83d db2f 9abd 5e81 9e3e
000000b0: 4e67 393d 5238 bb3c 29c4 acbe 8190 c53e
000000c0: 2183 37be ea2b dbbd ef91 02be 85b2 933d
000000d0: 938e 23be 7394 953d ee89 75bc 180a 2e3d
000000e0: 5d51 be3d b3ce 3f3d 0d47 943e 425e 4a3d
000000f0: 5e5a a7bc 9707 c9bd fd42 40be 1a88 493d
00000100: 4eb0 853a 877c 743e a28d 3fbe 8e4e 1fbe
00000110: 23bd 8cbd 5430 a03d 416c bb3d f107 9a3d
00000120: 4b44 65be 216b cb3d 8a5d 67bd c475 0cbe
00000130: 0dac b53d 85bb 493e 8439 603e 8113 17bd
00000140: f713 723e f1cf 283a 0be1 48be 1445 1a3e
00000150: 35dc 303e 1119 acbd a884 483e 5171 42be
00000160: d4ca 243d 6d70 963d d027 2a3e 2397 0abd
00000170: c4e4 d6bd e0f2 543c 7b4d 33bb 6685 733d
00000180: b6e1 e8bd 94bb 2abe a141 573d 0fec 89bd
00000190: bf1b 8cbd 1fef c1bd 066c 52bd 2742 57be
000001a0: 12e3 0b3c e299 233e 4b61 0dbe 8d4f 11bc
000001b0: 8ac9 c7bc 7ebf 573d 1e97 a1bd 2c49 0a3f
000001c0: a144 c03d a5b7 afbd 7abc 8cbd 2226 0e3e
000001d0: 9d5b 9ebd d025 dd3b be23 693d 84f4 9a3c
000001e0: 8b8a e93d a637 783e d624 eebc ca4a 223e
000001f0: b341 2d3e 0585 8f3d b888 20be d22a 1c3e
00000200: 63d2 11bc 0d65 813e d441 46bd b354 273c
00000210: 1c84 d03c 751e 7b3e 3967 88bc d20f 96be
00000220: af6e 8abd 386c 9d3d b95d 073e e082 6e3d
00000230: dad2 ec3d 72cf c53e 5d32 893e 7876 743e
00000240: ccab 4a3e bec8 113d a17f 34bc dfe8 6d3e
00000250: b716 6c3e 8c4d 363d a29a 493e 4292 89bd
00000260: edc5 a63d eb29 b7bc f5f7 e93d ba1c a4bc
00000270: 4064 26be cafb e9bd 7ad7 e4bd 47c6 8c3c
00000280: beef 94bd 4b9f e6be 0540 bcbd f53a 763c
00000290: b582 9b3c d39d 3b3e e80d acbc 1fb0 19be
000002a0: f528 c6bd a0c8 38bd a9a7 87be e081 b53e
000002b0: 69b6 8a3d fd5b 1f3d 9b48 25be a3fb d63e
000002c0: d425 38be 3712 01be 60a3 24bb f258 893e
000002d0: 66d1 55be cbc9 aabd 2eb9 07be 7bbd 78be
000002e0: 1d53 3cbd 1ac2 7ebd abeb 583e 94df 913e
000002f0: eb87 5a3e 58b9 113e dedd 85be efe3 113e
00000300: e613 413e 5dd0 63be 4d50 6b3e bc89 683e
00000310: a9ad 683d ce14 0fbe 7c09 85bd a9d3 a7bc
00000320: 36f2 243e ba69 bdbd f1d5 b9bc d6b8 e33d
00000330: dbdc 58be 9cd2 afbe ed74 08be 8879 a3bb
00000340: 6a24 85be 4d1e 413c 9bfb 2d3e 3fc2 2fbe
00000350: 7cb6 73bd d75a aa3d 8b97 94bd b16b d93d
00000360: 8951 c6bd f4e2 53be e950 2bbe 4fd8 533e
00000370: f089 2a3e 6f74 243b 1f08 eebd e518 213c
00000380: ca13 753c 5a24 803e 2635 9abd 2ad0 283e
00000390: a29d 193e 1169 7dbd eca6 7cbd 5378 653e
000003a0: d713 04bd 8a42 d3bd f05e 07bc 95c1 16be
000003b0: 2198 d739 3d86 7d3d 6df5 2c3e 778a d8be
000003c0: 7f43 a8bd 3c1b c03d 2810 1fbd 4d4f 9ebb
000003d0: 6268 b13d 89a8 813d 91c0 9f3d e590 cd3d
000003e0: 7726 89be 7229 4abe 8d66 f2bd 15d0 43bd
000003f0: 5444 efbd cc66 f13a 421f c13d 19a9 6ebe

bias f4 [64]
-0.03995154 0.03308081 -0.09452948 0.0023363845 -0.05111589 0.05279937 0.100228876 -0.03880468
0.13347733 0.00011343014 0.07820808 -0.048915617 0.031450395 0.0819898 -0.04442038 0.010760451
0.14131226 0.020300744 0.030887838 0.0691478 0.116220064 -0.113031 0.10626452 0.11162573
0.13015033 0.1108486 0.04744536 0.093293026 -0.058144294 0.04665724 -0.06767296 -0.0056551266
0.03148655 0.029414875 0.11534097 -0.10330576 0.058336027 0.018586997 0.0754559 -0.11741804
-0.012414267 0.063324206 -0.051439613 -0.01951551 -0.08710267 -0.12572776 -0.09176143 0.08720103
0.017097063 0.05889411 -0.046860844 0.06369303 -0.04694225 -0.08792399 0.060304075 -0.109775476
0.08557025 -0.002721202 -0.08054936 0.09517402 -0.038779262 0.026793817 0.008670118 0.01526232
00000000: 3aa4 23bd be7f 073d ac98 c1bd 071e 193b
00000010: e55e 51bd 2744 583d cc44 cd3d a8f1 1ebd
00000020: 48ae 083e 58e1 ed38 8f2b a03d be5b 48bd
00000030: 21d2 003d 45ea a73d 25f2 35bd 9a4c 303c
00000040: 29b4 103e bf4d a63c 7e08 fd3c 5d9d 8d3d
00000050: c904 ee3d cc7c e7bd 36a1 d93d 089c e43d
00000060: 2146 053e 9704 e33d 1156 423d 6a10 bf3d
00000070: b628 6ebd a91b 3f3d 1f98 8abd a44e b9bb
00000080: 0af8 003d 77f7 f03c e337 ec3d f891 d3bd
00000090: c2f1 6e3d c243 983c 9f88 9a3d df78 f0bd
000000a0: 3665 4bbc 1fb0 813d 58b2 52bd fede 9fbc
000000b0: e262 b2bd c7be 00be 6bed bbbd 7496 b23d
000000c0: 240f 8c3c f33a 713d 28f1 3fbd 7e71 823d
000000d0: 8446 40bd 7e11 b4bd 6801 773d f7d1 e0bd
000000e0: 753f af3d 3256 32bb 10f7 a4bd 99ea c23d
000000f0: 01d7 1ebd b57e db3c 1c0d 0e3c cf0e 7a3c

weight f4 [2, 64]
-0.3815008 -0.32524616 -0.2578064 0.4199998 -0.42358717 -0.38591772 0.16462706 0.27997196
-0.26569176 -0.18072024 -0.32581368 -0.36673 0.41364074 0.36982006 -0.23574561 -0.10500528
0.46918267 -0.28932443 0.23713169 0.30160713 -0.118251316 -0.30723414 -0.13889688 -0.19509552
0.31583375 0.43568367 -0.2232366 0.41027206 0.15389861 0.2608481 -0.35427052 0.16362585
0.27791658 0.3524293 -0.23630969 0.069969095 0.22346577 0.3088915 -0.36381748 0.17655952
-0.28559858 0.13309523 0.20641378 -0.33490074 -0.45288658 0.22158448 0.2660291 0.07165189
-0.3337226 -0.11920966 0.22386347 0.30750108 -0.30534223 -0.2188226 -0.35079816 0.1985561
0.19718345 0.43199942 -0.42720616 0.46043506 -0.24782674 -0.3903247 -0.43014377 -0.20807962
0.3015383 0.27617082 0.34492087 -0.42023265 0.24982814 0.2705234 -0.09002053 -0.13630699
0.2839533 0.31019378 0.3154124 0.31701788 -0.27027914 -0.23445408 0.3687229 0.28401384
-0.27005005 0.40222752 -0.45125377 -0.3621015 0.12759443 0.28803194 0.10849638 0.374856
-0.3460045 -0.35127243 0.39970896 -0.22650959 -0.19318683 -0.42438692 0.30388194 -0.2983908
-0.37637648 -0.33386216 0.39812496 -0.2721828 -0.3291077 -0.37317753 0.2893457 -0.120484695
0.19848824 -0.022834867 -0.30126023 0.23852547 0.2557624 -0.18396564 -0.42056075 -0.2558489
0.43199623 0.22040182 -0.36269346 -0.3063765 0.25408357 0.07617879 0.3877774 -0.1631501
-0.1623657 -0.25618365 0.27089247 -0.3306346 0.27004772 0.27995205 0.30929157 0.24995694
00000000: 1354 c3be aa86 a6be 33ff 83be 370a d73e
00000010: 6be0 d8be 0297 c5be ff93 283e 7c58 8f3e
00000020: c008 88be ba0e 39be 0dd1 a6be 09c4 bbbe
00000030: b8c8 d33e 0e59 bd3e 4c67 71be 020d d7bd
00000040: b638 f03e 5522 94be a6d2 723e 406c 9a3e
00000050: bf2d f2bd cb4d 9dbe fc3a 0ebe 1fc7 47be
00000060: f6b4 a13e ee11 df3e 2398 64be 2e0f d23e
00000070: 9997 1d3e e28d 853e f262 b5be 898d 273e
00000080: 154b 8e3e 9d71 b43e 2bfb 71be f54b 8f3d
00000090: 36d4 643e 0727 9e3e 4946 babe 05cc 343e
000000a0: fa39 92be 1e4a 083e 225e 533e 1c78 abbe
000000b0: c0e0 e7be 0be7 623e f734 883e 3abe 923d
000000c0: b0dd aabe 3224 f4bd 773c 653e c870 9d3e
000000d0: d155 9cbe 0813 60be d19b b3be 4a52 4b3e
000000e0: 75ea 493e 072f dd3e c4ba dabe 25be eb3e
000000f0: 4bc6 7dbe a4d8 c7be ce3b dcbe d312 55be
00000100: 3a63 9a3e 4366 8d3e 7899 b03e bc28 d7be
00000110: f3d2 7f3e 0b82 8a3e af5c b8bd 0f94 0bbe
00000120: 5462 913e b8d1 9e3e bc7d a13e 2b50 a23e
00000130: 0762 8abe bb14 70be 3fc9 bc3e 436a 913e
00000140: 0044 8abe c4f0 cd3e bc0a e7be 5e65 b9be
00000150: 1da8 023e ec78 933e 5a33 de3d 20ed bf3e
00000160: 8027 b1be fbd9 b3be a7a6 cc3e 21f2 67be
00000170: c5d2 45be 3e49 d9be 6a96 9b3e aec6 98be
00000180: 6bb4 c0be fbef aabe 09d7 cb3e 8b5b 8bbe
00000190: ce80 a8be 2011 bfbe 1f25 943e aec0 f6bd
000001a0: 8040 4b3e 3010 bbbc c83e 9abe 0540 743e
000001b0: 4af3 823e 7d61 3cbe bd53 d7be a1fe 82be
000001c0: 9c2e dd3e 04b1 613e f5b2 b9be 61dd 9cbe
000001d0: 3e17 823e a003 9c3d c28a c63e d210 27be
000001e0: 3243 26be 812a 83be 6bb2 8a3e f048 a9be
000001f0: b243 8a3e e055 8f3e 775b 9e3e b6f4 7f3e

bias f4 [2]
-0.00081148854 -0.07025671
00000000: 13ba 54ba c0e2 8fbd

weight f4 [64, 4]
2.4214818 -0.2228977 0.7080446 -0.20516007 -2.0035825 0.28847063 -1.5185881 0.21697842
-1.2943598 0.79414296 -1.5108511 0.21448511 -0.87944573 0.3607986 -2.2017543 0.16718003
-0.2825443 0.007836052 1.7156297 0.12589945 0.31256053 -0.8656304 1.4722488 -0.002356762
1.1310128 0.8355707 -0.1956124 -0.05006054 2.3964002 0.36253127 3.3789372 0.21657011
-1.2677474 0.22354254 -3.1660733 -0.24765302 1.9062947 -0.47087443 1.4075025 -0.3706351
-0.8737326 -1.3327425 -1.0819048 -1.2836441 1.1159201 1.1225705 1.3910675 1.0315033
2.3062656 0.84484905 1.2601267 -0.009288983 1.5405021 -1.404863 1.3611251 -1.3603319
-0.5793752 0.8401362 -1.8081212 0.71301043 -0.58565855 0.89445007 -1.2772888 1.0146
2.1824331 -0.47224683 2.6076622 -0.29771236 1.4075589 0.015822161 1.9052399 0.3595697
1.0691036 -1.3757964 1.0213822 -1.217864 2.4980612 0.8253486 0.5783618 0.54527676
2.452874 -0.23236369 2.0014923 -0.31454623 0.3950113 -0.08440686 -1.5578043 -0.40267375
0.09408315 -0.9748917 -2.8686254 0.055242345 0.6838495 1.4957606 0.47482884 1.1364682
1.1808255 -0.34715298 2.0380652 -0.2099297 -1.0831263 -0.54078025 -0.4589237 -0.47770283
0.77382386 -0.56336474 1.9410504 -0.42133984 -0.40011066 -1.00188 0.6063457 -0.82228816
-1.8384609 0.65637153 -1.4053763 0.15586095 0.92754775 0.22840719 2.163858 0.56402844
1.4605567 0.79217803 2.1990552 0.34067094 -1.4786758 -1.2278448 -1.3361031 -0.8723504
2.0368543 0.07216771 1.5477048 0.08583388 -2.2548182 -0.80302244 -2.395533 -0.33196884
1.5181634 -1.4045334 1.8997793 -1.0202477 -1.4297525 0.73127395 -3.2181485 0.97204196
-1.6367565 -0.41257712 -1.7626287 -0.7317507 1.4452717 -1.5525501 -0.8357465 -1.3278325
-2.0281594 -0.26999417 -3.0735672 -0.73167056 0.58068633 -1.2909662 -2.6083207 -0.4690486
-1.04986 -0.37973642 0.74519104 0.17989989 -0.41312554 -1.2642031 -2.449942 -0.82763404
-1.4542129 -1.2449316 -0.57261246 -0.22945383 0.06816453 -0.36685035 -2.4057214 -0.18371142
-1.0314102 1.037551 -1.7362677 -0.045336325 -0.5899173 -0.2826539 -2.4870415 -0.49710277
0.8647691 -1.2191205 -2.874362 -0.85781735 0.16757531 -0.12702705 -2.129357 0.30153996
-1.0866407 1.6650535 0.87809855 1.088362 1.5049411 -0.27638203 1.7537475 -0.28008068
1.4303281 0.009692496 -1.5423291 -0.1253202 -0.25588197 -1.8373499 -1.052165 -1.5758587
1.1543356 0.3543775 1.8967121 0.5113663 0.5429508 0.06637205 -1.0593601 0.25858143
-2.5525513 -0.021607665 -2.6950068 -0.20076911 1.7234834 -0.26863152 3.4830441 0.028005848
1.1393492 -0.35328653 1.6516035 -0.3228149 0.113775015 0.65330315 -1.2959869 0.3590533
0.23702994 -1.7798285 -1.3666806 -1.7599542 1.0733385 -1.8293035 0.41550285 -1.3630514
-1.4252033 0.9170044 -1.6517124 0.43122005 -2.5769246 -0.5024382 -1.9756707 -0.4886858
-0.6963265 -0.0029204222 -2.587375 1.1279323 -2.2077198 0.1394287 -3.2313988 0.048753895
00000000: 8ff9 1a40 4b3f 64be 6942 353f 7b15 52be
00000010: b23a 00c0 6cb2 933e 1861 c2bf 972f 5e3e
00000020: 95ad a5bf f44c 4b3f 9263 c1bf fca1 5b3e
00000030: 5b23 61bf 98ba b83e 8be9 0cc0 3e31 2b3e
00000040: a6a9 90be c962 003c c199 db3f c9eb 003e
00000050: ef07 a03e f499 5dbf a672 bc3f e873 1abb
00000060: 07c5 903f f6e7 553f 9e4e 48be 480c 4dbd
00000070: 9f5e 1940 b39d b93e 8240 5840 8ec4 5d3e
00000080: 8c45 a2bf 56e8 643e f2a0 4ac0 c198 7dbe
00000090: 7701 f43f 7416 f1be 0b29 b43f e2c3 bdbe
000000a0: f1ac 5fbf 4e97 aabf db7b 8abf 734e a4bf
000000b0: 78d6 8e3f 64b0 8f3f 800e b23f 4d08 843f
000000c0: db99 1340 0748 583f d54b a13f d230 18bc
000000d0: 2c2f c53f 8dd2 b3bf 5939 ae3f 5b1f aebf
000000e0: ef51 14bf 2a13 573f 8470 e7bf da87 363f
000000f0: b8ed 15bf aefa 643f 337e a3bf 6ade 813f
00000100: fcac 0b40 56ca f1be f0e3 2640 c16d 98be
00000110: e42a b43f 7a9d 813c e7de f33f 8519 b83e
00000120: 63d8 883f 191a b0bf a7bc 823f f8e2 9bbf
00000130: 3ce0 1f40 0c4a 533f 850f 143f 4297 0b3f
00000140: e3fb 1c40 bff0 6dbe 7318 0040 340c a1be
00000150: ec3e ca3e 81dd acbd 2266 c7bf 412b cebe
00000160: abae c03d 8192 79bf 8f97 37c0 cc45 623d
00000170: c310 2f3f 1575 bf3f c41c f33e ca77 913f
00000180: 4a25 973f 09be b1be a96f 0240 d0f7 56be
00000190: e2a3 8abf 9370 0abf 0cf8 eabe 7795 f4be
000001a0: 5219 463f ac38 10bf 5774 f83f dbb9 d7be
000001b0: 4edb ccbe 9b3d 80bf 7939 1b3f 7a81 52bf
000001c0: b052 ebbf f707 283f 5fe3 b3bf 039a 1f3e
000001d0: c573 6d3f 93e3 693e a67c 0a40 2b64 103f
000001e0: 86f3 ba3f 2ecc 4a3f 52bd 0c40 6c6c ae3e
000001f0: 4045 bdbf 052a 9dbf 6d05 abbf 5b52 5fbf
00000200: d25b 0240 aacc 933d 311b c63f acc9 af3d
00000210: f14e 10c0 e192 4dbf 6a50 19c0 d2f7 a9be
00000220: 2e53 c23f c0c7 b3bf f82b f33f 7a97 82bf
00000230: 2102 b7bf c534 3b3f 25f6 4dc0 bed7 783f
00000240: 3d81 d1bf 4f3d d3be d19d e1bf 0454 3bbf
00000250: aafe b83f f6b9 c6bf 7cf3 55bf 6af6 a9bf
00000260: 5dcd 01c0 ad3c 8abe 53b5 44c0 c34e 3bbf
00000270: dca7 143f 613e a5bf baee 26c0 2327 f0be
00000280: d061 86bf d06c c2be d7c4 3e3f ad37 383e
00000290: 3185 d3be 68d1 a1bf dacb 1cc0 d3df 53bf
000002a0: a623 babf eb59 9fbf bb96 12bf f2f5 6abe
000002b0: d899 8b3d cfd3 bbbe 57f7 19c0 d91e 3cbe
000002c0: 4005 84bf 79ce 843f 053e debf 95b2 39bd
000002d0: d204 17bf 03b8 90be b02b 1fc0 4184 febe
000002e0: 8261 5d3f 240c 9cbf 8cf5 37c0 eb99 5bbf
000002f0: dd98 2b3e 6113 02be 6347 08c0 7263 9a3e
00000300: 0b17 8bbf 7920 d53f 11cb 603f 724f 8b3f
00000310: e9a1 c03f f281 8dbe cc7a e03f bc66 8fbe
00000320: fe14 b73f 46cd 1e3c 0a6b c5bf f053 00be
00000330: f602 83be 482e ebbf 58ad 86bf bdb5 c9bf
00000340: 45c1 933f f870 b53e 76c7 f23f e7e8 023f
00000350: d3fe 0a3f 12ee 873d 1d99 87bf c964 843e
00000360: 005d 23c0 8f02 b1bc fe7a 2cc0 6b96 4dbe
00000370: 1b9b dc3f 128a 89be 32ea 5e40 856c e53c
00000380: 32d6 913f f9e1 b4be be67 d33f ff47 a5be
00000390: e002 e93d e03e 273f e6e2 a5bf d6d5 b73e
000003a0: fab7 723e 6cd1 e3bf 64ef aebf 2e46 e1bf
000003b0: 2863 893f 9e26 eabf cabc d43e 7878 aebf
000003c0: 106d b6bf cdc0 6a3f 506b d3bf e0c8 dc3e
000003d0: 55ec 24c0 ca9f 00bf c7e2 fcbf 0635 fabe
000003e0: 7442 32bf 8e64 3fbb 8d97 25c0 1660 903f
000003f0: 484b 0dc0 66c6 0e3e 3dcf 4ec0 2ab2 473d

bias f4 [64]
-0.34520116 -0.22087158 -0.44650915 -0.32423112 -0.28739312 0.3892654 -0.42500642 -0.32573298
0.30521193 0.26048508 -0.34800002 -0.25970802 -0.48651618 0.012290748 0.4426599 -0.13526784
-0.33412343 0.45934343 0.13272488 -0.39936042 -0.41377237 0.33551335 0.66453063 0.45717898
0.30826285 0.2628221 -0.3331244 -0.62089205 -0.1695545 0.6362914 0.21411598 0.34430164
0.23650184 0.4332791 -0.35144216 0.34407946 -0.4642917 -0.04311801 0.3818899 0.22547531
-0.35501137 -0.46040308 0.5303713 0.4323566 -0.36736667 0.41496664 -0.44680107 0.41222844
0.3221357 0.40515417 -0.38546908 -0.24083285 0.55191594 0.4545808 0.38689125 -0.3463041
0.47727883 0.5237748 0.27000567 -0.26213273 -0.21075954 0.35495594 0.098725796 0.30310935
00000000: 35be b0be 292c 62be d99c e4be 9f01 a6be
00000010: 3125 93be cb4d c73e 719a d9be 79c6 a6be
00000020: bd44 9c3e 4d5e 853e 0f2d b2be 73f8 84be
00000030: a618 f9be 225f 493c 52a4 e23e a783 0abe
00000040: 3a12 abbe 102f eb3e 08e9 073e f878 ccbe
00000050: f9d9 d3be 68c8 ab3e ae1e 2a3f 5d13 ea3e
00000060: a1d4 9d3e 9e90 863e 488f aabe c8f2 1ebf
00000070: b29f 2dbe fee3 223f 3841 5b3e 4e48 b03e
00000080: 8a2d 723e c2d6 dd3e 3af0 b3be 2f2b b03e
00000090: a4b7 edbe 839c 30bd 1387 c33e 00e3 663e
000000a0: 0dc4 b5be f4b9 ebbe 6ac6 073f d85d dd3e
000000b0: 7c17 bcbe 8276 d43e 1cc3 e4be 9b0f d33e
000000c0: f8ee a43e 5e70 cf3e 345c c5be e39c 76be
000000d0: 5d4a 0d3f d1be e83e 9c16 c63e c54e b1be
000000e0: e45d f43e 1b16 063f 2f3e 8a3e 4336 86be
000000f0: 59d1 57be c9bc b53e c030 ca3d 2631 9b3e

weight f4 [64, 64]
0.7827599 -0.14056727 0.045080874 -0.2995212 0.25413975 -0.021201069 0.338117 1.2389373
-0.79186374 0.22329932 -0.17000656 1.1825213 0.98700804 -0.056791503 -0.3018253 0.46352565
1.0902569 0.136093 -0.5042001 1.2487733 1.1337035 -0.14361411 -0.50853723 -0.0036856683
0.0018566985 -0.36905307 0.3802517 0.05159388 -0.08152399 0.22415265 -0.10580258 -0.980868
0.04384306 -1.520135 0.83041054 -0.98267424 -0.02724577 -0.14673667 -1.4447956 -0.3250687
0.014414407 0.09425553 -1.3650669 -0.37261638 0.100090995 -0.4398825 0.007486313 -0.16904072
-0.438536 0.09841791 0.37892374 0.06410981 0.03189096 -0.16271037 -1.172353 1.2207909
0.049159102 -0.1401476 -0.97374034 0.3698182 -0.064744726 -1.0523659 -0.029522158 -1.0964056
0.4165273 -1.3571191 -1.5409175 -1.3649006 -0.24662425 0.617913 0.04312192 1.0103302
-0.6976731 1.6349927 -1.0453005 0.31943557 0.32086286 1.4557958 -0.32132322 -1.140734
0.7618417 0.7638119 1.0135074 0.5699364 0.53037876 0.07182682 -0.22288251 0.3345359
0.8037709 -0.1328703 0.38667125 -0.24434142 -1.2050697 0.55602884 0.27062026 -0.34733707
0.95500416 -0.58210516 0.7076073 -0.8434392 -0.71240926 0.8613767 -0.7596001 -0.017974101
-0.25947416 -0.25613832 -0.32816955 -0.1669414 -0.85032636 -0.36233318 -0.04495532 -0.09198803
-0.29348457 0.6796955 -0.12914407 0.12029472 0.4909475 0.2619899 -0.76329094 0.860369
1.1603533 0.042655498 -0.1899908 0.67689687 -1.1052768 -0.7415442 -0.39194062 -1.2156366
-0.46527785 -0.16487838 0.037588257 0.22708066 -0.5672219 0.26438314 -0.2094599 -1.0792352
1.061226 0.16875836 -0.5588994 -0.25300303 -0.48943338 -0.21302842 0.62175345 0.40518755
-0.7260609 -0.056840952 -0.2825314 -0.62813383 -0.45185664 0.30694807 0.6654652 0.46110252
0.046140525 0.11875087 -0.52812445 -0.38067788 -0.061001647 0.15673864 0.2545335 0.3447578
0.30285573 0.55917907 -1.0482823 1.1142094 -0.10198037 0.22462855 0.6298926 0.63086355
-0.33362097 -0.4855214 0.82406163 0.84583676 -0.10754668 0.49629882 -0.30947188 0.49874723
0.54012084 0.014067153 -0.25999582 -0.4328314 0.101296425 0.38239568 0.66464955 -0.91853756
0.055052135 0.24733284 0.20253435 -0.4561224 0.19380762 0.8355357 0.21072297 0.9571152
1.0692351 -0.26097798 -0.16303767 -0.66711795 0.19916515 0.31648713 0.08392245 1.8160819
-0.8409638 0.13996583 -0.34833217 1.0930662 0.6546142 0.17206697 -0.12843761 -0.4586672
1.1495069 0.52908015 0.13951364 1.2208018 1.0399493 0.023536846 -0.4769558 0.22278951
0.49539047 -0.22504058 0.19413316 -0.16730028 -0.27267158 0.5967944 0.2899606 -0.91229093
0.2027542 -1.0480559 0.40391123 -0.7054925 -0.2879731 0.021243257 -1.2574767 -0.51776314
-0.011176851 -0.37375557 -0.61261535 -0.25602734 -0.21175751 -0.44227245 0.13479835 -0.34560853
-0.08758644 0.32687774 0.5965504 -0.2370013 0.45919663 -0.011083274 -1.5509552 0.98776287
0.42128837 -0.08129558 -0.8256894 0.40325737 -0.44046342 -1.4376743 -0.19609703 -1.705013
00000000: f462 483f def0 0fbe b9a6 383d d85a 99be
00000010: 9b1e 823e ddad adbc ac1d ad3e 7f95 9e3f
00000020: 95b7 4abf 94a8 643e 3316 2ebe dc5c 973f
00000030: 8fac 7c3f 359e 68bd d988 9abe 3c53 ed3e
00000040: 8a8d 8b3f f75b 0b3e 4213 01bf ced7 9f3f
00000050: 321d 913f 940f 13be 7f2f 02bf 418b 71bb
00000060: 775c f33a 86f4 bcbe 5ab0 c23e 1b54 533d
00000070: 0df6 a6bd 4688 653e 06af d8bd 2a1a 7bbf
00000080: c894 333d c993 c2bf c995 543f 8a90 7bbf
00000090: 8532 dfbc 2342 16be 10ef b8bf 686f a6be
000000a0: 682a 6c3c 0b09 c13d 83ba aebf 93c7 bebe
000000b0: 82fc cc3d 4738 e1be bf4f f53b 0319 2dbe
000000c0: ca87 e0be 548f c93d 4b02 c23e 014c 833d
000000d0: 18a0 023d 8c9d 26be aa0f 96bf e042 9c3f
000000e0: 0e5b 493d da82 0fbe 0c47 79bf d058 bd3e
000000f0: e298 84bd edb3 86bf 74d8 f1bc 0557 8cbf
00000100: 1143 d53e 14b6 adbf c93c c5bf 10b5 aebf
00000110: 118b 7cbe 8c2f 1e3f 9ca0 303d 8052 813f
00000120: b49a 32bf 7147 d13f 68cc 85bf 0f8d a33e
00000130: 2348 a43e 8457 ba3f 7a84 a4be 9203 92bf
00000140: 0f08 433f 2d89 433f 9cba 813f 5ae7 113f
00000150: e7c6 073f f119 933d 503b 64be 4a48 ab3e
00000160: eec3 4d3f 270f 08be c6f9 c53e a334 7abe
00000170: b93f 9abf e857 0e3f bd8e 8a3e 2ad6 b1be
00000180: 277b 743f d804 15bf c125 353f a2eb 57bf
00000190: 7460 36bf 2f83 5c3f 2775 42bf 6c3e 93bc
000001a0: ccd9 84be 9024 83be d705 a8be b0f2 2abe
000001b0: fdae 59bf bc83 b9be 1223 38bd 3864 bcbd
000001c0: 9c43 96be 8600 2e3f 583e 04be 145d f63d
000001d0: 795d fb3e 8a23 863e 0967 43bf 2541 5c3f
000001e0: 7586 943f 88b7 2e3d f38c 42be 1d49 2d3f
000001f0: b679 8dbf d7d5 3dbf 71ac c8be fb99 9bbf
00000200: e638 eebe e1d5 28be 25f6 193d d587 683e
00000210: 7435 11bf 3a5d 873e a87c 56be 6124 8abf
00000220: 41d6 873f fece 2c3e 0814 0fbf 9d89 81be
00000230: 0397 fabe 1f24 5abe 3c2b 1f3f be74 cf3e
00000240: 21df 39bf 0fd2 68bd f5a7 90be 61cd 20bf
00000250: c159 e7be 4c28 9d3e ed5b 2a3f a115 ec3e
00000260: d9fd 3c3d a833 f33d 2a33 07bf 36e8 c2be
00000270: dddc 79bd 1880 203e 3752 823e 1884 b03e
00000280: e80f 9b3e 5c26 0f3f 1d2e 86bf 6a9e 8e3f
00000290: 16db d0bd 0705 663e a440 213f 4680 213f
000002a0: 5ed0 aabe 4396 f8be b4f5 523f c288 583f
000002b0: 6f41 dcbd e11a fe3e 1973 9ebe cc5b ff3e
000002c0: 5c45 0a3f eb79 663c 2c1e 85be 149c ddbe
000002d0: 8074 cf3d 5ec9 c33e 7926 2a3f 4725 6bbf
000002e0: 597e 613d d244 7d3e 2a65 4f3e e088 e9be
000002f0: 8175 463e abe5 553f c3c7 573e 8005 753f
00000300: b2dc 883f e89e 85be 59f3 26be 3ec8 2abf
00000310: f3f1 4b3e 9a0a a23e 89df ab3d 5f75 e83f
00000320: 6749 57bf 3453 0f3e 9858 b2be 98e9 8b3f
00000330: cc94 273f 5332 303e 2685 03be 6dd6 eabe
00000340: 0b23 933f cc71 073f aadc 0e3e 3c43 9c3f
00000350: 0f1d 853f 58d0 c03c 8d33 f4be ef22 643e
00000360: d2a3 fd3e 0a71 66be d8ca 463e c450 2bbe
00000370: 9c9b 8bbe 85c7 183f b775 943e e68b 69bf
00000380: cc9e 4f3e b226 86bf 74cd ce3e 289b 34bf
00000390: 3671 93be 5706 ae3c fff4 a0bf 208c 04bf
000003a0: 1c1f 37bc e45c bfbe 5cd4 1cbf 0416 83be
000003b0: f6d6 58be 8971 e2be 9408 0a3e 9af3 b0be
000003c0: 8560 b3bd 855c a73e 87b7 183f 78b0 72be
000003d0: d21b eb3e 9f96 35bc b385 c6bf 07de 7c3f
000003e0: 1cb3 d73e 4c7e a6bd 6160 53bf c077 ce3e
000003f0: 6c84 e1be b605 b8bf a9cd 48be de3d dabf

bias f4 [64]
-0.21708004 -0.029272288 0.3281019 0.023314167 0.36231554 0.14869702 -0.42374122 -0.32601196
-0.3073794 0.29504013 0.20030731 -0.24687532 0.2236367 -0.35055885 0.18592168 0.25523272
-0.015770664 -0.15307245 -0.29021478 -0.025085814 -0.38075185 0.38264847 -0.16702838 0.21764988
0.18995102 -0.2996634 0.36522564 -0.047486607 -0.27123725 0.23289612 0.20613006 -0.017862037
0.021579683 -0.15236108 0.013315375 -0.052783463 -0.20304434 0.654044 0.18332781 -0.18025896
-0.029533708 -0.36386013 0.20427857 -0.29880926 -0.22864582 -0.07348979 -0.27247414 -0.18931301
0.2743248 -0.1595429 0.2125091 0.11900089 -0.18867576 -0.065818906 0.09965117 0.32839862
-0.35542634 -0.2182205 -0.36285186 -0.031956017 0.28706905 0.095009975 -0.6300101 0.07329737
00000000: 3b4a 5ebe 70cc efbc f9fc a73e 5afd be3c
00000010: 6c81 b93e 0844 183e 9cf4 d8be 0aeb a6be
00000020: d560 9dbe 800f 973e 5c1d 4d3e e2cc 7cbe
00000030: 0501 653e 737c b3be 4162 3e3e ddad 823e
00000040: 7b31 81bc 06bf 1cbe 0897 94be c480 cdbc
00000050: e8f1 c2be 80ea c33e 7d09 2bbe 9cdf 5e3e
00000060: 8582 423e 7b6d 99be dbfe ba3e 5181 42bd
00000070: 9cdf 8abe 527c 6e3e c213 533e 6853 92bc
00000080: e0c7 b03c 8b04 1cbe bb28 5a3c 7933 58bd
00000090: dbea 4fbe 6d6f 273f 49ba 3b3e ce95 38be
000000a0: adf0 f1bc e04b babe 672e 513e 87fd 98be
000000b0: 2122 6abe d181 96bd bb81 8bbe 45db 41be
000000c0: 4d74 8c3e 375f 23be fc9b 593e bdb6 f33d
000000d0: 3834 41be 10cc 86bd ea15 cc3d dd23 a83e
000000e0: 71fa b5be 3275 5fbe b8c7 b9be 50e4 02bd
000000f0: b7fa 923e 9794 c23d 5848 21bf ee1c 963d

weight f4 [1, 64]
-0.78522885 1.8094724 1.4234718 -1.798172 1.0029559 1.1075776 -1.5991349 -0.9551645
-0.8532884 2.1703198 1.661918 -0.70074576 -3.470027 -1.5157046 0.90956426 0.6444153
1.444408 -3.480811 -0.9957488 1.8345146 -0.92397386 1.1182498 -3.071752 0.8270608
0.80325115 -0.66787994 1.5236275 2.8484242 -0.8554685 0.9005549 1.2177479 -1.2238646
1.44336 -1.7351314 1.7007233 2.5055988 -1.5537343 -2.6215699 0.91638947 -1.278279
-2.0754242 -0.98576516 1.4662471 -1.3755568 -1.3807065 -1.3140306 -1.4486008 -0.9540459
1.3366811 -0.9450314 1.7101837 1.9165899 -1.3157861 1.774226 1.8479359 0.96779174
-1.5645148 -0.83201826 -0.90903693 -1.6011041 1.5334195 1.0653274 2.5313404 -1.5882964
00000000: c204 49bf cb9c e73f 5334 b63f 802a e6bf
00000010: dc60 803f 1ac5 8d3f 74b0 ccbf a985 74bf
00000020: 1c71 5abf 85e6 0a40 bbb9 d43f 1364 33bf
00000030: ec14 5ec0 9c02 c2bf 34d9 683f 67f8 243f
00000040: 5de2 b83f 9cc5 5ec0 65e9 7ebf 60d1 ea3f
00000050: 8d89 6cbf cf22 8f3f 9697 44c0 42ba 533f
00000060: dea1 4d3f 2efa 2abf 3a06 c33f 954c 3640
00000070: fcff 5abf c48a 663f 2adf 9b3f 98a7 9cbf
00000080: 05c0 b83f c918 debf 4db1 d93f bb5b 2040
00000090: c4e0 c6bf cdc7 27c0 8098 6a3f a59e a3bf
000000a0: c0d3 04c0 1b5b 7cbf fcad bb3f 3f12 b0bf
000000b0: feba b0bf 2832 a8bf c06b b9bf 5a3c 74bf
000000c0: 5e18 ab3f 94ed 71bf 4de7 da3f d152 f53f
000000d0: ae6b a8bf d619 e33f 2a89 ec3f 33c1 773f
000000e0: 0542 c8bf 26ff 54bf a5b6 68bf fbf0 ccbf
000000f0: 1747 c43f a65c 883f 7b01 2240 4c4d cbbf
