data/Pendulum-v0_ppo_gpu/Pendulum-v0_ppo_gpu_s10/pyt_save/model.pt (torch, 43070 bytes, 10 tensors)

weight f4 [64, 3]
1.070864 0.63832694 0.27066928 0.21474305 -0.31261474 0.18015836 0.2766974 0.91520405
0.7683659 0.40068468 -0.09305132 -0.114207886 0.4986835 -0.11274993 0.22108929 -0.6553565
0.5662598 0.23197198 -0.33260983 0.4975235 -0.426274 0.48818517 0.29819268 -0.32096818
-0.6475205 -0.27514103 -0.6005332 0.42247072 -0.87780285 -0.30019054 0.40853447 -0.059333604
-0.35116935 -0.5881697 -1.0521009 -0.33626798 -0.3476973 -0.64663315 -0.7895729 0.37852225
0.102767654 0.6618108 0.50809675 0.13251765 -0.14461462 0.09742866 -0.007087883 0.50494826
0.69031936 -0.34220725 0.07303872 0.07136989 -0.21888041 -0.0071644825 0.016977256 -0.78838867
-0.6800882 -0.7432352 0.033960305 -0.15133394 -0.3427537 0.11740986 -0.12538525 0.021271963
1.0563005 0.4965035 0.9176703 0.24972174 0.45777038 0.48101464 -0.43426955 -0.17292266
0.7844131 -0.20346269 -0.25302958 -0.68824023 -0.584258 -0.3190326 0.053277742 0.12155424
0.35348746 -0.06567573 -0.43409002 0.34104764 -0.76665896 -0.56641245 -0.37724924 -0.54220873
-0.39625618 -0.17299941 0.36687142 0.46252647 0.0048628896 -0.18729328 -1.3413402 -0.5027386
0.67128855 -0.6012637 -0.24980566 -0.024228487 0.90783435 0.22459097 -0.20273302 -0.46586007
-0.47584963 0.19267058 0.33457902 -0.53860915 0.5178951 -0.31168622 -0.4009036 -0.38087362
0.30983788 0.4596835 -0.6793959 -0.69077235 -0.2587136 0.6557647 0.106487505 -0.28694135
-0.31190038 -0.6567711 0.09702948 -0.39223686 0.20661336 -0.4157829 0.2355909 -0.7718921
-0.37066278 0.78107536 0.2969516 0.45553654 0.60040164 0.33209175 0.2070309 -0.18844591
0.8827831 0.21702741 -0.5309201 0.66009176 0.5558053 -0.5010899 0.35004595 -0.4369499
-0.24202171 0.6408657 -0.12098851 -0.4763078 -0.50892144 0.2350829 -0.025317343 -0.7573551
-0.024812018 -0.010102761 0.09122482 0.5496348 -0.6491186 0.1595109 0.6086571 0.2723453
0.7038645 0.16547653 0.21767382 -1.0297579 -0.2750054 -0.49861935 1.1965932 0.3283083
0.01791638 -1.1054159 -0.2901841 0.52501327 0.1307837 0.6733831 -0.09078895 0.95734304
0.039642256 0.6148656 -1.0804824 -0.31662336 -0.7889437 -0.2987694 -0.20565435 0.8296814
-0.047194034 -0.374549 0.56980675 -0.09804164 -0.43931776 0.5770669 0.48004147 -0.046850905
00000000: 1212 893f 6569 233f 2a95 8a3e 9ae5 5b3e
00000010: 0a0f a0be 6f7b 383e 48ab 8d3e d04a 6a3f
00000020: a1b3 443f 8b26 cd3e b191 bebd d3e5 e9bd
00000030: 7253 ff3e 6fe9 e6bd 3b65 623e 72c5 27bf
00000040: 67f6 103f 108a 6d3e d64b aabe 66bb fe3e
00000050: 9640 dabe 68f3 f93e b6ac 983e f155 a4be
00000060: e7c3 25bf 49df 8cbe 8bbc 19bf 154e d83e
00000070: b0b7 60bf 93b2 99be 6e2b d13e cb07 73bd
00000080: 78cc b3be 4a92 16bf 3eab 86bf 512b acbe
00000090: 6105 b2be c089 25bf 7321 4abf abcd c13e
000000a0: d977 d23d 6f6c 293f a112 023f b5b2 073e
000000b0: db15 14be ad88 c73d 7941 e8bb 4a44 013f
000000c0: c5b8 303f ca35 afbe 5395 953d 602a 923d
000000d0: 3022 60be 09c4 eabb e313 8b3c d7d3 49bf
000000e0: 431a 2ebf a944 3ebf f619 0b3d 49f7 1abe
000000f0: 6a7d afbe 9574 f03d fe64 00be 8a42 ae3c
00000100: db34 873f b535 fe3e 71ec 6a3f 0eb7 7f3e
00000110: e160 ea3e 8d47 f63e 9458 debe a312 31be
00000120: 4ccf 483f 8658 50be 188d 81be 8330 30bf
00000130: ef91 15bf 3e58 a3be c339 5a3d 6ef1 f83d
00000140: 4ffc b43e ff80 86bd 0c41 debe cc9d ae3e
00000150: c343 44bf 6800 11bf d026 c1be 31ce 0abf
00000160: 17e2 cabe c226 31be 92d6 bb3e 45d0 ec3e
00000170: e058 9f3b cfc9 3fbe 09b1 abbf 7ab3 00bf
00000180: 91d9 2b3f 6bec 19bf 0ecd 7fbe d27a c6bc
00000190: d567 683f 2dfb 653e 3f99 4fbe 3685 eebe
000001a0: 90a2 f3be 704b 453e f14d ab3e 4ae2 09bf
000001b0: c694 043f 5695 9fbe 3d43 cdbe de01 c3be
000001c0: 12a3 9e3e a35b eb3e e4ec 2dbf 75d6 30bf
000001d0: 1c76 84be 32e0 273f 1f16 da3d fae9 92be
000001e0: 68b1 9fbe 2722 28bf 64b7 c63d 45d3 c8be
000001f0: 7492 533e 7fe1 d4be be3e 713e b89a 45bf
00000200: 83c7 bdbe 8ef4 473f 0a0a 983e 163c e93e
00000210: ecb3 193f ee07 aa3e e9ff 533e f7f7 40be
00000220: 13fe 613f 6f3c 5e3e 61ea 07bf c6fb 283f
00000230: 4249 0e3f 6d47 00bf 3939 b33e e6b7 dfbe
00000240: 8ad4 77be c60f 243f d3c8 f7bd 9ede f3be
00000250: ad48 02bf 92b9 703e 5166 cfbc 06e2 41bf
00000260: 9342 cbbc 0d86 25bc 14d4 ba3d deb4 0c3f
00000270: a32c 26bf d356 233e f4d0 1b3f d870 8b3e
00000280: 7730 343f ae72 293e e3e5 5e3e 1bcf 83bf
00000290: 82cd 8cbe 094b ffbe f729 993f 0718 a83e
000002a0: 5fc5 923c 457e 8dbf 0393 94be 4567 063f
000002b0: 2aec 053e d662 2c3f 8fef b9bd 6f14 753f
000002c0: eb5f 223d d567 1d3f 3f4d 8abf 751c a2be
000002d0: 37f8 49bf 4ef8 98be 0e97 52be 0066 543f
000002e0: 884e 41bd e3c4 bfbe dbde 113f 0eca c8bd
000002f0: 42ee e0be a8ba 133f ffc7 f53e bce6 3fbd

bias f4 [64]
0.47828496 -0.49337468 -0.33757722 -0.47829926 -0.3966888 0.6395462 0.0046341894 -0.19209783
0.31973702 -0.46514782 0.44837973 0.5590625 0.48492718 -0.10450799 -0.6510264 0.39122483
-0.18417987 0.49135464 -0.14858966 0.6211588 0.1329552 0.068704925 0.13791384 0.28858244
0.600041 -0.5802276 0.017830418 -0.61392635 -0.21315666 0.3954941 0.4199995 0.12876059
-0.721701 0.1275667 -0.1818701 0.41961867 0.14138868 -0.58396745 0.6685956 0.23407692
0.5659438 -0.08098968 0.24361718 0.47848848 -0.7152274 0.21411783 -0.23402436 -0.2516547
0.20619603 0.08778426 0.20893057 -0.3274557 -0.48729822 -0.26735407 -0.12803693 0.5150947
-0.052348483 0.32428554 0.017536817 -0.67222315 0.78811157 -0.411203 -0.49370024 0.2917368
00000000: c4e1 f43e 9b9b fcbe ecd6 acbe a4e3 f4be
00000010: cb1a cbbe 4db9 233f 66da 973b 4bb5 44be
00000020: 92b4 a33e db27 eebe 0792 e53e b81e 0f3f
00000030: 6048 f83e 4908 d6bd aba9 26bf 9f4e c83e
00000040: a699 3cbe d692 fb3e e327 18be 4304 1f3f
00000050: 6825 083e 2bb5 8c3d 4939 0d3e 14c1 933e
00000060: 499c 193f cc89 14bf 1911 923c 472a 1dbf
00000070: bd45 5abe 347e ca3e 2d0a d73e d1d9 033e
00000080: 66c1 38bf d8a0 023e 283c 3abe 42d8 d63e
00000090: 32c8 103e e47e 15bf 1529 2b3f dcb1 6f3e
000000a0: b1e1 103f ebdd a5bd c876 793e 71fc f43e
000000b0: 2519 37bf b441 5b3e 15a4 6fbe e3d8 80be
000000c0: 0d25 533e 3cc8 b33d e5f1 553e 46a8 a7be
000000d0: 277f f9be a2e2 88be 1d1c 03be 3fdd 033f
000000e0: 5d6b 56bd c108 a63e 5fa9 8f3c d116 2cbf
000000f0: aec1 493f 3389 d2be 47c6 fcbe 875e 953e

weight f4 [64, 64]
0.0971737 -0.02055829 0.02939954 -0.030737266 -0.14514557 -0.072498076 0.021107621 -0.08433416
-0.06375626 -0.055650845 -0.07736107 0.10291814 -0.05510193 -0.041355085 0.18159662 0.051430155
-0.16936801 -0.1247667 0.036618233 0.1632427 0.103714585 -0.08072811 0.16026236 -0.056932736
-0.107165895 -0.16764948 0.12419578 0.03559509 -0.053070437 0.0616704 0.104414046 0.049817715
-0.034994103 -0.088179626 -0.11410479 -0.092024274 0.005498129 0.10449418 0.12542394 -2.5816042e-05
-0.24269222 0.03239465 0.06569506 -0.045731876 -0.16322742 -0.10308593 0.03473753 -0.054752186
0.01723766 -0.043897074 0.017858438 0.07195658 0.0071633966 -0.1058635 -0.07811813 -0.056517147
-0.03045059 0.044565096 0.0585615 0.075665444 0.2888486 -0.03182741 -0.10897937 0.089258894
0.13062878 -0.010602761 0.039580245 -0.043166567 -0.022804247 -0.12562206 -0.06313697 -0.010433184
-0.09640865 0.06317568 -0.038385577 0.15613525 0.052293956 0.038531847 0.10832374 0.031859603
-0.11664774 -0.07889919 0.049314205 -0.04213105 -0.078973465 -0.032536004 0.09466436 -0.09353937
-0.15446073 -0.055197936 -0.09971688 -0.026606428 -0.05366401 0.09312889 0.100470245 0.05132347
0.09149424 0.06643784 -0.13298705 -0.08280348 -0.092121325 0.034629595 0.1466736 -0.036921076
-0.1735174 0.015295382 -0.14190659 -0.022067858 -0.15403636 -0.09107899 -0.042504422 -0.11825623
0.09887505 -0.079982586 0.02781602 -0.047442257 0.042014286 0.11975337 0.07761712 0.06895359
0.12736413 0.159071 0.17481852 0.038630355 0.01998704 -0.11973869 0.007825211 -0.083093554
-0.054767124 -0.06126309 -0.10897339 -0.04144747 -0.15353833 -0.0024324073 0.078217216 -0.005768481
0.073237784 0.07310311 0.11236917 0.17982134 0.07975752 -0.030518293 -0.13144319 -0.065361366
-0.24460295 0.010524726 0.06156887 0.28195328 -0.011298956 -0.22224976 -0.11925167 -0.0059048682
-0.07429999 0.0014658378 -0.018432599 -0.09042031 -0.0403218 0.33611596 0.012270387 0.2897956
0.07181584 -0.19145699 -0.0074847094 -0.04964938 0.040041238 -0.10784145 0.373075 -0.1313668
0.03749343 0.09689182 -0.023292992 -0.020760365 -0.24156933 -0.1417935 0.05125099 -0.07313402
0.0711737 0.10343856 0.24300483 0.034294166 -0.08733645 -0.28685692 0.1603419 -0.2552615
0.09640196 0.027435016 -0.19073997 0.2724252 0.21564953 0.091566175 0.007292333 -0.07028188
-0.033011757 -0.03911995 -0.14274141 -0.02145802 0.014804352 0.06385772 -0.13305287 -0.08005527
0.11193181 -0.08744918 0.060257893 0.062726155 0.009575706 -0.07368606 -0.17399642 0.06252819
0.21989016 0.025975278 0.0058896854 -0.21781293 -0.13514845 0.02340214 -0.12998068 -0.025631068
0.087910645 0.18763502 -0.11720875 -0.10338348 0.08647832 -0.10163487 -0.14078562 -0.055783655
-0.01820006 0.025998462 0.0024790477 0.09933888 0.12988421 -0.10685443 0.0011911868 0.14751352
0.15857166 -0.13816778 -0.044048026 -0.06578981 0.024492182 -0.02650704 -0.12665316 0.018626783
-0.06692907 -0.018604774 0.11893809 0.08491639 -0.13038261 -0.11284597 0.10758526 -0.090228826
-0.02015013 0.0058840285 -0.14524315 -0.1719311 -0.19761652 0.09385666 0.10263621 0.0026392252
00000000: 0103 c73d dc69 a8bc 4ed7 f03c b8cc fbbc
00000010: 0aa1 14be df79 94bd e4e9 ac3c 63b7 acbd
00000020: a492 82bd 24f2 63bd 7b6f 9ebd bfc6 d23d
00000030: 90b2 61bd f363 29bd 77f4 393e 6da8 523d
00000040: cf6e 2dbe af85 ffbd 00fd 153d 1829 273e
00000050: 5068 d43d c854 a5bd d11b 243e 4d32 69bd
00000060: cb79 dbbd 4eac 2bbe 5b5a fe3d 28cc 113d
00000070: 6360 59bd 1a9a 7c3d 08d7 d53d a90d 4c3d
00000080: fa55 0fbd 8597 b4bd c6af e9bd 3977 bcbd
00000090: a629 b43b 0b01 d63d 226f 003e 878f d8b7
000000a0: 4f84 78be 41b0 043d 228b 863d 5951 3bbd
000000b0: 1725 27be b71e d3bd f148 0e3d d443 60bd
000000c0: fe35 8d3c 6bcd 33bd dc4b 923c f95d 933d
000000d0: edba ea3b f6ce d8bd 66fc 9fbd 867e 67bd
000000e0: 8473 f9bc e489 363d 2fde 6f3d 7cf6 9a3d
000000f0: f7e3 933e 755d 02bd 9330 dfbd 5ecd b63d
00000100: 8dc3 053e 34b7 2dbc e51e 223d 6dcf 30bd
00000110: f9cf babc 12a3 00be f54d 81bd f2ef 2abc
00000120: e671 c5bd 4062 813d 323a 1dbd ebe1 1f3e
00000130: 3032 563d 92d3 1d3d d6d8 dd3d 377f 023d
00000140: 03e5 eebd e695 a1bd b1fd 493d 9c91 2cbd
00000150: d7bc a1bd 7944 05bd 63df c13d 9291 bfbd
00000160: f42a 1ebe 3b17 62bd 5d38 ccbd b9f5 d9bc
00000170: cbce 5bbd 5cba be3d 58c3 cd3d 8f38 523d
00000180: 5561 bb3d 9010 883d c22d 08be df94 a9bd
00000190: 1baa bcbd c3d7 0d3d 9b31 163e 8e3a 17bd
000001a0: 8cae 31be 7b99 7a3c f64f 11be a7c7 b4bc
000001b0: b5bb 1dbe 9f87 babd 1e19 2ebd 5330 f2bd
000001c0: 017f ca3d e9cd a3bd 6cde e33c d052 42bd
000001d0: 2c17 2c3d 4141 f53d baf5 9e3d 8a37 8d3d
000001e0: be6b 023e 82e3 223e a003 333e dd3a 1e3d
000001f0: dcbb a33c 8f39 f5bd 5035 003c f42c aabd
00000200: 7e53 60bd 02ef 7abd 712d dfbd d3c4 29bd
00000210: 2739 1dbe 0669 1fbb 5930 a03d 8705 bdbb
00000220: b1fd 953d 15b7 953d cf21 e63d 1623 383e
00000230: e957 a33d 8001 fabc 0b99 06be 2edc 85bd
00000240: 3279 7abe e66f 2c3c a42f 7c3d 2e5c 903e
00000250: 421f 39bc 7195 63be 383a f4bd a07d c1bb
00000260: 982a 98bd 5b21 c03a f6ff 96bc 492e b9bd
00000270: 7928 25bd 6417 ac3e bc09 493c 1760 943e
00000280: 2f14 933d 4d0d 44be 4b42 f5bb 265d 4bbd
00000290: 4802 243d fadb dcbd b003 bf3e 0585 06be
000002a0: b692 193d 386f c63d f2d0 bebc a411 aabc
000002b0: f35d 77be 5132 11be 8fec 513d 4ac7 95bd
000002c0: 84c3 913d 99d7 d33d 42d6 783e 0a78 0c3d
000002d0: 74dd b2bd e9de 92be ab30 243e a3b1 82be
000002e0: 646e c53d 66bf e03c 5751 43be 517b 8b3e
000002f0: 3bd3 5c3e 0c87 bb3d 86f4 ee3b f2ef 8fbd
00000300: 5637 07bd 3e3c 20bd ce2a 12be bbc8 afbc
00000310: f48d 723c d6c7 823d 033f 08be 04f4 a3bd
00000320: 813c e53d 8e18 b3bd fbd0 763d 9276 803d
00000330: 6ce3 1c3c b8e8 96bd 1e2c 32be c80e 803d
00000340: e32a 613e 1bca d43c 43fe c03b 5a0a 5fbe
00000350: 5b64 0abe d8b5 bf3c a819 05be 3ff8 d1bc
00000360: 7f0a b43d 6523 403e 240b f0bd b8ba d3bd
00000370: 8c1b b13d f125 d0bd 1b2a 10be 677d 64bd
00000380: 4b18 95bc bafa d43c 8577 223b 2f72 cb3d
00000390: 5e00 053e 7fd6 dabd 9921 9c3a c90d 173e
000003a0: 9c60 223e db7b 0dbe b46b 34bd cfbc 86bd
000003b0: d4a3 c83c 4b25 d9bc 5eb1 01be 3297 983c
000003c0: 1c12 89bd 0a69 98bc d095 f33d a5e8 ad3d
000003d0: 0583 05be ca1b e7bd a955 dc3d e4c9 b8bd
000003e0: e311 a5bc cfce c03b 9fba 14be b50e 30be
000003f0: fc5b 4abe ec37 c03d ef32 d23d daf6 2c3b

bias f4 [64]
-0.16002226 -0.08955956 0.10873625 0.109985575 -0.10991683 -0.03597341 -0.053527635 -0.022984937
0.011573886 0.008710961 0.07358161 -0.034682747 -0.080225706 -0.028356828 -0.10017633 -0.0858295
-0.22298951 0.14651398 -0.014241964 -0.08489459 -0.045679376 0.08826938 0.024109786 -0.13903043
-0.108391844 0.04831855 0.053892117 -0.04073825 0.0028459867 -0.09445791 0.061550193 0.24343689
-0.054147754 0.222922 0.071149275 0.07069987 -0.0067772125 0.14718933 0.16756351 0.08750473
0.01579721 0.14631817 0.022350315 -0.022744047 0.24351135 0.054688502 -0.025733693 -0.08957123
-0.13307858 -0.04294302 0.017181994 -0.13882852 0.082970604 -0.09138324 -0.16519053 0.17433782
0.14403522 0.14633673 0.0410987 0.11660823 0.1666778 -0.10810737 -0.06060331 -0.022626445
00000000: e0dc 23be 016b b7bd 1cb1 de3d 1e40 e13d
00000010: 131c e1bd db58 13bd cb3f 5bbd e84a bcbc
00000020: 65a0 3d3c 6bb8 0e3c f5b1 963d 7f0f 0ebd
00000030: 604d a4bd 944c e8bc 3f29 cdbd 60c7 afbd
00000040: 5d57 64be c307 163e 2057 69bc 37dd adbd
00000050: 4c1a 3bbd 94c6 b43d e381 c53c fe5d 0ebe
00000060: 8bfc ddbd ace9 453d fbbd 5c3d 27dd 26bd
00000070: bc83 3a3b 2673 c1bd 0e1c 7c3d 8547 793e
00000080: 09ca 5dbd aa45 643e b6b6 913d 18cb 903d
00000090: 6113 debb cdb8 163e c595 2b3e ae35 b33d
000000a0: 2769 813c 6ed4 153e 0218 b73c b951 babc
000000b0: 0a5b 793e 0d01 603d 77cf d2bc 1f71 b7bd
000000c0: c045 08be 05e5 2fbd 41c1 8c3c 1029 0ebe
000000d0: 7eec a93d 2327 bbbd b527 29be 9d85 323e
000000e0: f87d 133e 4cd9 153e 1c57 283d 4cd0 ee3d
000000f0: 96ad 2a3e 6667 ddbd 2d3b 78bd 185b b9bc

weight f4 [1, 64]
0.38289014 0.30049136 0.24865133 -0.21528539 -0.17077196 0.17640863 -0.35462463 -0.17784718
-0.21657021 0.1568638 0.14229017 0.13965067 -0.27921462 -0.33234543 0.25715747 -0.31974456
-0.25698417 0.35746384 -0.092523664 -0.37749553 -0.2969139 -0.39324304 -0.4620628 0.122429885
0.0334177 -0.17107536 0.2612379 0.26630893 0.39126053 -0.28104648 0.52582365 0.17980476
0.115596324 -0.36605164 -0.17498238 0.27464643 -0.2612818 -0.34292996 -0.2858148 -0.37283468
0.2571284 0.35399476 -0.58766305 -0.18816796 0.2109095 -0.30444422 -0.60474354 0.27167708
0.11030007 0.09188699 -0.41580972 0.24999094 -0.45794988 0.31036255 0.2072429 -0.24160315
-0.3402469 -0.26707464 0.43822423 -0.30444768 -0.27002302 0.10610037 -0.19867547 0.23682567
00000000: 2d0a c43e 01da 993e 749e 7e3e c673 5cbe
00000010: d8de 2ebe 77a4 343e 5c91 b5be 921d 36be
00000020: 95c4 5dbe e7a0 203e 84b4 113e 9600 0f3e
00000030: 38f5 8ebe 2e29 aabe 25aa 833e 8fb5 a3be
00000040: 6e93 83be 8005 b73e 0c7d bdbd 1847 c1be
00000050: 1905 98be 2757 c9be 7f93 ecbe 85bc fa3d
00000060: 00e1 083d 612e 2fbe f9c0 853e a559 883e
00000070: 4d53 c83e 53e5 8fbe 619c 063f bd1e 383e
00000080: c4bd ec3d 1f6b bbbe 952e 33be 759e 8c3e
00000090: bac6 85be 8494 afbe 5156 92be 30e4 bebe
000000a0: 55a6 833e cd3e b53e 1671 16bf 1aaf 40be
000000b0: a9f8 573e 1de0 9bbe 79d0 1abf 4219 8b3e
000000c0: 01e5 e13d 3f2f bc3d 03e5 d4be a0fd 7f3e
000000d0: 6878 eabe d7e7 9e3e 7c37 543e d166 77be
000000e0: d734 aebe 02be 88be ed5e e03e 91e0 9bbe
000000f0: 7540 8abe 274b d93d 9571 4bbe 6e82 723e

weight f4 [64, 3]
-0.7544998 0.5068901 -0.099984355 0.18059368 -0.62086606 0.017976055 -0.16847727 0.2038753
-0.6084811 0.11963372 -0.44238728 0.6554228 -0.9858244 1.6134994 0.53062826 0.5178831
0.3268456 -0.031870693 -1.031459 -0.016521843 -0.39288375 0.46469483 -0.9685714 -0.41554698
1.0330495 0.8055324 0.42047888 -0.67553115 0.16784622 -0.5015489 -1.0253849 0.09471303
0.6832553 1.7278167 -1.0369365 0.63087696 0.0824683 0.105787806 -0.0010349542 0.1033759
-0.14276169 0.55722237 0.8685075 -1.4673836 0.194405 -1.086916 -0.923751 -0.44206184
-1.0803747 -0.51828754 -0.44704705 -0.93886477 -0.018855132 -0.35409144 -0.3082751 0.5105965
0.46443492 0.992793 -1.8662286 -0.119567685 -0.28995743 -1.2084898 0.22799376 0.101995826
0.12664793 0.008567137 -1.0005224 0.8417746 0.5099954 0.40038797 -0.55277145 0.38909754
-0.0076096104 0.12692186 0.49726012 0.23102373 -0.2782338 -0.047475252 -0.6255736 -0.9213387
0.29260096 -1.6820294 -0.8859584 0.28456268 0.8206661 -0.7775397 -0.4799005 0.36768648
0.71384305 -0.5642405 0.12916914 -1.3382947 0.7775888 1.0280577 1.1703746 1.2019771
0.857664 1.6695527 1.031638 -0.913128 -0.56903756 -0.42475235 1.3520738 -1.0718114
-0.5676047 0.05909279 0.04215598 -0.63990855 -1.0460602 0.895884 0.5320326 -0.5734631
0.47207168 0.4550084 0.5954871 0.44301292 -0.34536785 1.6481812 -1.7930049 -0.57060623
0.06492208 0.07965574 0.54733837 0.39544174 -0.5796448 0.25054118 0.33084387 -0.98609227
0.14850907 0.9156563 0.84528166 -0.041105524 -0.75656134 -0.5063338 0.78594327 0.9511155
-0.30493134 -0.91971 0.2645111 -0.15255147 -0.090852894 0.035906464 -0.23552299 -0.5255544
0.9038479 -1.4922878 -0.44227076 0.5581646 1.1743859 0.120630465 -0.44045696 0.13946071
-0.590127 -0.30100727 0.576992 0.49993384 0.86956316 0.69735116 0.4071576 -1.0453924
-0.9442565 -0.4181981 -0.526084 0.35527503 -0.35799435 0.68779355 -0.054133568 0.24899349
-0.6586784 -0.06127514 -0.35420978 0.817127 0.41020945 0.019103447 -0.91539735 -0.9452977
0.67977065 1.0459795 0.8862636 -0.651799 -1.0918134 -0.60847425 -0.42648387 1.055358
-0.9390885 -0.5437782 -0.44350109 -1.7253066 0.10909315 -0.17962241 0.4346373 -0.020073954
00000000: e626 41bf 8dc3 013f 99c4 ccbd 8ded 383e
00000010: 14f1 1ebf 8542 933c 4e85 2cbe b0c4 503e
00000020: 6bc5 1bbf 8602 f53d 9680 e2be cac9 273f
00000030: fd5e 7cbf 2687 ce3f 41d7 073f fd93 043f
00000040: 4e58 a73e d88a 02bd d906 84bf d158 87bc
00000050: 0f28 c9be 7bec ed3e 4cf4 77bf 93c2 d4be
00000060: f73a 843f 5f37 4e3f 0249 d73e 9cef 2cbf
00000070: e1df 2b3e 8265 00bf d03f 83bf e8f8 c13d
00000080: d2e9 2e3f 1929 dd3f 56ba 84bf 2781 213f
00000090: 24e5 a83d 47a7 d83d 4da7 87ba beb6 d33d
000000a0: 1f30 12be 20a6 0e3f 8256 5e3f 3ad3 bbbf
000000b0: 1b12 473e 1020 8bbf f27a 6cbf ee55 e2be
000000c0: b849 8abf 7eae 04bf 5ae3 e4be 7159 70bf
000000d0: 1476 9abc 794b b5be 3cd6 9dbe 74b6 023f
000000e0: 6aca ed3e af27 7e3f 94e0 eebf e7df f4bd
000000f0: 4d75 94be cbaf 9abf 3277 693e 30e3 d03d
00000100: ffaf 013e 2d5d 0c3c 1e11 80bf 8a7e 573f
00000110: 0f8f 023f a7ff cc3e 6e82 0dbf cb37 c73e
00000120: 0a5a f9bb cef7 013e e198 fe3e 7c91 6c3e
00000130: a974 8ebe 6975 42bd 9725 20bf dadc 6bbf
00000140: cbcf 953e bd4c d7bf 2bce 62bf 33b2 913e
00000150: 2c17 523f d70c 47bf 85b5 f5be 6741 bc3e
00000160: 6bbe 363f 1172 10bf ea44 043e 3e4d abbf
00000170: 0f10 473f 6597 833f d6ce 953f 63da 993f
00000180: de8f 5b3f e7b3 d53f b70c 843f c2c2 69bf
00000190: 72ac 11bf 2479 d9be c110 ad3f 1e31 89bf
000001a0: 8b4e 11bf 480b 723d c0ab 2c3d 0cd1 23bf
000001b0: 4de5 85bf a758 653f 4a33 083f 7ace 12bf
000001c0: 61b3 f13e dcf6 e83e d871 183f 97d2 e23e
000001d0: 0ed4 b0be 9af7 d23f 2f81 e5bf 4013 12bf
000001e0: def5 843d 8c22 a33d 5e1e 0c3f 5777 ca3e
000001f0: 9a63 14bf ef46 803e 5e64 a93e 8b70 7cbf
00000200: c312 183e 7468 6a3f 6164 583f 445e 28bd
00000210: 01ae 41bf 189f 01bf 9433 493f 4e7c 733f
00000220: f61f 9cbe 1d72 6bbf 006e 873e 7436 1cbe
00000230: 1511 babd a812 133d f02c 71be bc8a 06bf
00000240: 9362 673f 4903 bfbf 5071 e2be e0e3 0e3f
00000250: 4752 963f 1b0d f73d 9383 e1be cace 0e3e
00000260: 9012 17bf a01d 9abe bfb5 133f 54f7 ff3e
00000270: b19b 5e3f 9b85 323f f676 d03e 6bcf 85bf
00000280: cbba 71bf 101e d6be 71ad 06bf 9ce6 b53e
00000290: 094b b7be 3d13 303f 29bb 5dbd 26f8 7e3e
000002a0: 269f 28bf a4fb 7abd fc5a b5be 3c2f 513f
000002b0: f906 d23e d57e 9c3c 7b57 6abf 08ff 71bf
000002c0: 7305 2e3f a8e2 853f 2ce2 623f 4ddc 26bf
000002d0: 8bc0 8bbf f8c4 1bbf 185c dabe f915 873f
000002e0: 1b68 70bf 0c35 0bbf 9312 e3be d9d6 dcbf
000002f0: 3b6c df3d f0ee 37be c888 de3e 2272 a4bc

bias f4 [64]
-0.0700545 -0.659997 0.53466564 -0.6320086 0.117892966 -0.85705495 0.9604485 -0.23699994
-0.4966502 0.5206157 -0.39535138 0.4411572 -1.0880618 0.7245819 -0.3525399 0.4955813
0.8993628 0.78193957 0.9249959 -0.67386746 -0.9132896 -1.0679704 0.7743248 0.8732589
0.7160037 0.94021815 -0.7445987 -0.97568583 -0.81801003 -0.62059224 0.22444813 -0.13958433
-0.09479165 0.55561036 -0.87056565 -0.8509872 0.8582671 0.8898935 -0.9802402 -0.46416754
-0.5872562 -0.78281087 -0.87884355 0.042748854 0.94939065 -0.6129559 -0.9562389 -0.52267164
-1.017808 0.7252814 0.56001097 0.7515639 -0.7141429 0.49498376 0.9637683 -0.36030105
0.6669667 -0.2711427 0.6120981 -0.42903364 0.6211111 -0.67437905 0.34078968 -1.0049032
00000000: bc78 8fbd 90f5 28bf d9df 083f 51cb 21bf
00000010: de71 f13d f467 5bbf f4df 753f 1db0 72be
00000020: ef48 febe 1247 053f 7f6b cabe 5bdf e13e
00000030: 9c45 8bbf 337e 393f 1c80 b4be d5bc fd3e
00000040: a43c 663f 312d 483f 88cc 6c3f 9482 2cbf
00000050: 59cd 69bf 41b3 88bf 263a 463f e58d 5f3f
00000060: 054c 373f 23b2 703f 059e 3ebf 8cc6 79bf
00000070: 1b69 51bf 22df 1ebf bbd5 653e 32ef 0ebe
00000080: 2022 c2bd 7b3c 0e3f 64dd 5ebf 4cda 59bf
00000090: 65b7 5b3f 0fd0 633f 06f1 7abf 5ea7 edbe
000000a0: 6c56 16bf 4b66 48bf e4fb 60bf 6c19 2f3d
000000b0: 440b 733f aeea 1cbf 13cc 74bf cfcd 05bf
000000c0: 8847 82bf 0bac 393f e15c 0f3f 7e66 403f
000000d0: 12d2 36bf 836e fd3e 85b9 763f 6179 b8be
000000e0: 54be 2a3f 37d3 8abe 76b2 1c3f 4caa dbbe
000000f0: 2301 1f3f 1ba4 2cbf fc7b ae3e aba0 80bf

weight f4 [64, 64]
-0.055451624 -0.3512941 0.73943603 -0.8444138 0.027740262 0.37760964 -0.583036 -0.10766645
0.76415116 0.2031106 -0.887108 -1.3030787 -0.065145165 0.1779981 -0.6900324 -0.654681
-0.3129581 -0.49069738 0.6708505 -0.7624024 -1.2470218 -0.048109908 0.9377675 0.4735196
0.3941371 0.20363751 -1.3162954 -0.11370883 -0.8132045 -0.28584155 -1.0413479 -0.43573138
-0.056205437 -0.5307098 -1.1623192 -0.28591532 0.9338679 0.6861317 -0.6362706 -0.2626448
-0.6277863 -0.3243076 -0.45261306 0.76245695 0.062125113 -0.014958809 -0.1048906 -0.1251405
-0.8615866 0.40520868 0.31296578 0.511698 0.27256414 -0.44412893 0.12219818 0.46876055
-0.034623235 0.88494605 -0.11776734 0.13826779 -0.7557681 -0.6441154 0.6101932 -0.36552086
0.5713615 0.74434143 -0.9126666 0.82175636 -0.80230904 0.08547162 0.6053618 0.4161671
-0.08076259 -0.550749 -0.011582037 0.20039171 0.33746755 0.0843899 0.118548565 -0.18079476
0.34674627 0.397266 -0.06322421 0.6520054 0.7697305 0.40947983 -0.34247997 -0.28796095
-0.07581756 -0.13265634 0.5893222 0.66235495 0.14123775 -0.26153082 0.17670584 0.64867306
0.5849955 -0.1787744 0.5725146 0.17019008 -0.46034148 0.050978065 -0.46329814 1.189661
0.6146545 0.38499787 0.80715847 -0.42997625 0.61796707 0.5949964 0.1435842 0.14774008
0.78726363 -0.6165315 -0.75266105 -0.3010838 -0.16678 0.07402942 -0.29649395 -0.43266493
-0.1275388 -0.57381094 0.84474164 -0.82725054 0.16513364 0.52601343 0.45179954 0.34207064
-0.34956607 -0.0139397085 0.3324919 -0.024598949 0.60711575 0.4500641 -0.5847722 -0.008477181
-0.5119324 0.13137378 -0.16572376 0.3689986 0.075909905 -0.17222837 0.30380514 0.7016374
0.18041383 -0.2933923 -0.058757443 -0.73023653 -0.0647556 0.13118355 -0.078711025 0.16909015
-0.15220262 0.031073272 0.1237401 0.20837246 -0.026958127 0.5017885 0.12368637 -0.79930437
-0.84498805 0.58868384 -0.17033832 0.2826541 0.05458765 -0.11904012 0.5410626 -1.2675465
-0.28877065 0.101905294 -0.27274016 0.011163104 -1.0451996 0.32899213 0.24120274 0.19364558
-0.62440354 -0.26114187 0.21402903 -0.12012892 -0.5541692 0.7664489 -0.036382724 0.3344568
0.11906609 0.5451556 -0.8374135 0.96026176 0.20092961 -0.014966044 0.590511 -0.0124523025
0.26072288 0.2794351 -0.20788313 0.38005772 -0.4483634 -0.10685139 0.78424793 0.27484664
-1.3291852 0.22501425 1.3655925 0.5912932 0.16586234 0.16008303 -0.43031096 1.4809356
1.5846138 1.2902434 -0.4007637 0.625084 0.23561119 0.019066077 -0.371803 0.285567
0.077133864 -0.0934836 0.6673477 0.92971325 0.54375446 -0.57958496 1.1966118 -0.106235005
-0.5586846 1.0392315 0.6319154 -0.18390536 -0.50857735 -0.2321679 -0.09418674 0.34742808
0.16395141 -0.29612774 0.1098819 -0.88612485 0.22861736 -0.23581019 0.35872963 -0.09503046
0.62532645 -1.2102406 -0.11488415 -0.29361364 -1.2430081 1.7932804 0.28958145 -0.87399423
0.71357656 -0.6667692 0.8119242 -1.0106173 1.3792733 0.48277003 1.0640078 0.17240414
00000000: 3e21 63bd d2dc b3be ae4b 3d3f 812b 58bf
00000010: 8c3f e33c 0d56 c13e d941 15bf 3a80 dcbd
00000020: 699f 433f 3afc 4f3e 8319 63bf 48cb a6bf
00000030: d46a 85bd 2245 363e f7a5 30bf 2d99 27bf
00000040: 0b3c a0be b03c fbbe dcbc 2b3f ce2c 43bf
00000050: 699e 9fbf e50e 45bd 8811 703f 2971 f23e
00000060: 57cc c93e 5a86 503e 5e7c a8bf 2de0 e8bd
00000070: 2c2e 50bf d359 92be e34a 85bf 2f18 dfbe
00000080: ac37 66bd 99dc 07bf e0c6 94bf 7e63 92be
00000090: f711 6f3f 54a6 2f3f a1e2 22bf 6179 86be
000000a0: 9ab6 20bf a50b a6be e6bc e7be 6130 433f
000000b0: e776 7e3d cb15 75bc e2d0 d6bd d524 00be
000000c0: f090 5cbf 8377 cf3e 0d3d a03e a4fe 023f
000000d0: 878d 8b3e de64 e3be 0a43 fa3d 6201 f03e
000000e0: 18d1 0dbd d38b 623f 0130 f1bd 1296 0d3e
000000f0: 057a 41bf bfe4 24bf 9f35 1c3f 8d25 bbbe
00000100: bf44 123f 298d 3e3f 85a4 69bf a05e 523f
00000110: 2064 4dbf bf0b af3d fef8 1a3f db13 d53e
00000120: db66 a5bd e3fd 0cbf 96c2 3dbc 7c33 4d3e
00000130: 8cc8 ac3e 9dd4 ac3d 97c9 f23d 4322 39be
00000140: ba88 b13e 7366 cb3e b27b 81bd d3e9 263f
00000150: 0f0d 453f 57a7 d13e 8959 afbe 9e6f 93be
00000160: 3d46 9bbd 10d7 07be d2dd 163f 1890 293f
00000170: a1a0 103e 5ee7 85be 60f2 343e 700f 263f
00000180: 44c2 153f a310 37be 5190 123f 4f46 2e3e
00000190: e1b1 ebbe 60ce 503d 6a35 edbe d046 983f
000001a0: ff59 1d3f 711e c53e f0a1 4e3f d925 dcbe
000001b0: 1733 1e3f af51 183f bd07 133e 2d49 173e
000001c0: 1c8a 493f 02d5 1dbf 65ae 40bf a827 9abe
000001d0: 60c8 2abe bd9c 973d 0ece 97be 4286 ddbe
000001e0: 8899 02be 46e5 12bf fd40 583f b1c6 53bf
000001f0: cb18 293e d1a8 063f 4552 e73e e223 af3e
00000200: 53fa b2be 6063 64bc 613c aa3e bc83 c9bc
00000210: f06b 1b3f cd6e e63e a2b3 15bf e0e3 0abc
00000220: 000e 03bf d986 063e 7db3 29be 62ed bc3e
00000230: a776 9b3d a25c 30be 598c 9b3e 829e 333f
00000240: 67be 383e 8437 96be a5ab 70bd c8f0 3abf
00000250: 969e 84bd fb54 063e 3f33 a1bd f825 2d3e
00000260: 01db 1bbe 608d fe3c 736b fd3d 975f 553e
00000270: 4ad7 dcbc 3675 003f 484f fd3d 369f 4cbf
00000280: 2351 58bf fcb3 163f 2b6d 2ebe 0ab8 903e
00000290: 4d97 5f3d 4ecb f3bd 1483 0a3f f73e a2bf
000002a0: bfd9 93be b9b3 d03d 99a4 8bbe 74e5 363c
000002b0: 1ac9 85bf a871 a83e dafd 763e 074b 463e
000002c0: e9d8 1fbf 63b4 85be 6d2a 5b3e 2706 f6bd
000002d0: 08de 0dbf ff35 443f 0d06 15bd ec3d ab3e
000002e0: ecd8 f33d 518f 0b3f bb60 56bf b7d3 753f
000002f0: 7ec0 4d3e 2334 75bc bb2b 173f be04 4cbc
00000300: 787d 853e 1e12 8f3e 51df 54be ed96 c23e
00000310: e38f e5be e7d4 dabd 79c4 483f b3b8 8c3e
00000320: be22 aabf 236a 663e bccb ae3f fe5e 173f
00000330: d1d7 293e ceec 233e b851 dcbe 4c8f bd3f
00000340: a0d4 ca3f b226 a53f e630 cdbe 8105 203f
00000350: 0f44 713e 7630 9c3c f65c bebe d635 923e
00000360: 5cf8 9d3d 5474 bfbd 4dd7 2a3f b001 6e3f
00000370: 7e33 0b3f ae5f 14bf 932a 993f bd91 d9bd
00000380: f405 0fbf 8a05 853f 35c5 213f b051 3cbe
00000390: 2032 02bf 6cbd 6dbe fae4 c0bd 18e2 b13e
000003a0: e1e2 273e 0e9e 97be c309 e13d 14d9 62bf
000003b0: ab1a 6a3e 3a78 71be 69ab b73e 549f c2bd
000003c0: 6515 203f 2ae9 9abf 6248 ebbd 8754 96be
000003d0: e41a 9fbf 368a e53f 0544 943e 16be 5fbf
000003e0: f4ac 363f 63b1 2abf 44da 4f3f e85b 81bf
000003f0: 078c b03f a22d f73e 6831 883f b68a 303e

bias f4 [64]
0.09158273 -0.19796264 -0.1453576 -0.092000894 0.17409296 -0.08424314 0.12804615 -0.48392367
-0.3910898 0.14718787 -0.6772396 0.36468288 0.32729927 -0.4062466 -0.40324402 0.28476432
0.47919717 -0.547576 -0.34676754 0.21816179 -0.2488775 0.11358277 -0.04211697 0.13813676
-0.32682127 -0.19876516 -0.31752592 -0.355577 0.42156625 0.43567064 -0.33890417 0.08277456
0.39541197 -0.44972277 0.3251069 -0.26680097 0.107510015 0.41503996 0.30083773 0.30460215
-0.48669928 0.28569102 -0.44949543 -0.3049847 0.14842011 0.446495 0.15567856 -0.1457682
0.1842243 0.30207825 -0.20549488 -0.23623411 0.31517255 -0.3078953 -0.15754682 0.6929458
0.23313983 -0.54473597 -0.21930109 -0.517258 -0.18405543 0.7788169 -0.63044244 0.25744608
00000000: ba8f bb3d b8b6 4abe 9fd8 14be f76a bcbd
00000010: 6d45 323e ab87 acbd 881e 033e d8c4 f7be
00000020: ec3c c8be 6bb8 163e 935f 2dbf b7b7 ba3e
00000030: c593 a73e 8eff cfbe 0076 cebe a1cc 913e
00000040: 5559 f53e f12d 0cbf 848b b1be ce65 5f3e
00000050: bed9 7ebe 159e e83d d882 2cbd b973 0d3e
00000060: 1e55 a7be 1889 4bbe c292 a2be 300e b6be
00000070: 88d7 d73e 3910 df3e d984 adbe b585 a93d
00000080: 7073 ca3e 1042 e6be 6974 a63e 239a 88be
00000090: 362e dc3d 1e80 d43e 6707 9a3e d0f4 9b3e
000000a0: a630 f9be 1846 923e 4424 e6be f426 9cbe
000000b0: 71fb 173e fe9a e43e 336a 1f3e 4244 15be
000000c0: 4ba5 3c3e 00aa 9a3e 406d 52be 5be7 71be
000000d0: 4c5e a13e 74a4 9dbe f453 21be e564 313f
000000e0: 35bc 6e3e d173 0bbf 7790 60be 056b 04bf
000000f0: 0779 3cbe 8b60 473f ad64 21bf f9cf 833e

weight f4 [1, 64]
-3.6062508 3.596407 -3.6481025 -3.7677917 3.665629 3.6870513 -3.4968522 -3.8216543
3.367903 3.4221785 -3.9507267 3.487583 -3.2920957 3.2625442 3.3265226 -3.4140704
-3.5511112 -3.857144 3.371081 -3.385023 3.3708773 -3.390311 -3.751588 3.6621299
3.4233396 -3.6377525 3.6262836 3.2966053 -3.38869 -3.2583003 3.3339233 -3.5985088
-3.3140213 -3.8243039 -3.3091252 3.411961 -3.6400661 -3.3207288 -3.2682636 -3.2984245
3.251154 -3.3303952 3.641168 3.332287 -3.3815248 -3.579391 -3.3459342 3.332958
3.8009303 -3.3202956 3.455218 3.3965008 3.651145 3.4507518 3.3848662 3.7798762
-3.4387782 -3.871596 3.3923888 3.3757248 3.3613355 3.7841265 -3.8199468 -3.269207
00000000: d0cc 66c0 882b 6640 837a 69c0 8023 71c0
00000010: aa99 6a40 a6f8 6b40 6dcc 5fc0 fc95 74c0
00000020: b98b 5740 f904 5b40 b5d8 7cc0 8f34 5f40
00000030: b2b1 52c0 86cd 5040 bfe5 5440 2180 5ac0
00000040: 6845 63c0 73db 76c0 cbbf 5740 38a4 58c0
00000050: 74bc 5740 dbfa 58c0 051a 70c0 5660 6a40
00000060: ff17 5b40 f0d0 68c0 0815 6840 95fb 5240
00000070: 4ce0 58c0 fe87 50c0 005f 5540 f84d 66c0
00000080: ed18 54c0 65c1 74c0 b5c8 53c0 925d 5a40
00000090: d8f6 68c0 d286 54c0 3b2b 51c0 6319 53c0
000000a0: e812 5040 3225 55c0 e608 6940 3144 5540
000000b0: e76a 58c0 be14 65c0 c923 56c0 2f4f 5540
000000c0: 7142 7340 b97f 54c0 4b22 5d40 4560 5940
000000d0: 5cac 6940 1ed9 5c40 a6a1 5840 7ee9 7140
000000e0: f114 5cc0 3bc8 77c0 e61c 5940 e00b 5840
000000f0: 1f20 5740 212f 7240 027a 74c0 b03a 51c0
