data/1008CartPole-v0_vpg/1008CartPole-v0_vpg_s20/pyt_save/model.pt (torch, 42881 bytes, 11 tensors)

weight f4 [64, 4]
0.0739393 -0.078279495 0.15568227 0.26808727 -0.02759387 -0.47508112 -0.018028425 0.32630926
0.24289833 -0.25025263 0.47946602 0.27410582 0.012773344 0.11309024 -0.231402 -0.038956303
-0.20508356 0.12266692 -0.01288363 -0.1133688 0.022580562 0.30566993 0.06949072 0.4212744
0.009972811 0.29926372 -0.12024889 0.4238409 -0.35887972 -0.29654473 0.23101558 0.13753577
-0.047441777 -0.21611024 0.41639543 0.3557326 0.2756986 0.40170166 0.2582581 0.10320656
0.48391977 -0.4273545 0.30995038 -0.27208263 0.396601 -0.06389382 0.33274993 -0.22711952
0.29638538 0.13469908 0.14352228 -0.40421852 0.3825747 -0.47986066 -0.029639697 -0.10467621
0.098444164 -0.46223453 0.15029526 0.38901162 -0.37698317 0.32690105 0.017026542 0.0049952082
-0.47102997 -0.22750367 0.41043237 0.3416397 -0.2004613 -0.4024868 0.3181682 0.45606294
-0.40971997 0.138693 0.24360439 -0.22302087 0.09770706 0.118683666 -0.20015702 -0.48507166
-0.029837213 -0.50758415 0.323897 -0.29244265 0.045555748 0.38216668 0.08104156 0.31375772
-0.05881376 0.46000263 0.0117713725 -0.043908592 -0.39982116 -0.25361848 0.43279132 0.3650604
0.30328614 0.43966803 0.24977352 0.15374652 -0.0027058236 0.045762997 -0.25824904 -0.19001941
-0.11682634 -0.4096341 0.032570668 0.35843706 -0.2842206 -0.43361267 -0.38998958 0.20079152
-0.35403097 -0.40259364 0.3750307 -0.13874495 -0.060571138 -0.21150857 0.1634356 -0.540195
-0.15794672 -0.07449057 0.09675246 -0.5535244 0.08290585 0.06858141 -0.41327885 0.17521566
0.48344743 0.0008140406 -0.2044143 -0.03961738 -0.47367468 0.10403663 -0.17654271 -0.52928865
0.24695678 -0.48877332 0.1637184 -0.4878765 0.022508755 -0.2589753 0.118806414 0.36306384
-0.24125613 -0.2002365 0.5043786 0.34223548 0.054035496 -0.4076779 0.39518693 0.18676248
0.20419993 0.49775913 -0.029969614 0.053650714 -0.11393762 0.12801619 -0.44572377 -0.09825678
0.10950564 0.30958736 0.48364767 -0.3113615 0.09381016 -0.2250389 -0.2894924 -0.076421805
0.3317752 0.23104893 -0.2969242 -0.21986595 0.32475278 0.08329555 0.06703081 0.5446589
0.22207502 0.1961197 -0.10631793 -0.023833249 -0.20815025 -0.32768238 0.30715474 -0.27349865
-0.12982646 0.09573583 -0.25888354 0.45846784 0.40235737 0.1658383 -0.36117953 0.396849
-0.28595066 0.108519524 0.27330655 0.24603531 0.07322251 0.08549774 0.2909185 0.456269
-0.029531129 0.31139436 -0.06250607 0.1922823 -0.29046053 0.23782982 0.43724194 -0.35675168
-0.055288162 -0.30940706 -0.002969126 -0.4569785 -0.39123863 0.07563731 -0.25662288 0.34000313
0.43906307 0.18639502 0.21395694 0.28087175 -0.12266773 0.0058603054 0.14142889 -0.41051307
-0.12187731 -0.12818624 -0.11626312 0.018406259 -0.16953796 0.44162107 0.36449844 0.15518928
-0.009321239 -0.22977656 0.23114237 0.15232109 -0.15835749 0.2311745 0.3953906 -0.25096783
0.18136251 -0.23964396 0.49859133 0.47633284 0.31465846 -0.12772729 -0.5446049 -0.19518583
0.21632202 0.3003377 -0.32543042 0.31584623 0.25630876 -0.046098433 -0.41755357 -0.122554764
00000000: 7d6d 973d 0051 a0bd 2c6b 1f3e bc42 893e
00000010: 8a0c e2bc d53d f3be 59b0 93bc 0212 a73e
00000020: 57ba 783e 1d21 80be 927c f53e 9957 8c3e
00000030: 4a47 513c db9b e73d a5f4 6cbe a590 1fbd
00000040: 6d01 52be cb38 fb3d dc15 53bc e72d e8bd
00000050: dffa b83c c580 9c3e 2751 8e3d 47b1 d73e
00000060: 0065 233c 1839 993e 0d45 f6bd ad01 d93e
00000070: 15bf b7be b6d4 97be 598f 6c3e 2dd6 0c3e
00000080: 4f52 42bd 014c 5dbe c831 d53e 9522 b63e
00000090: 5e28 8d3e d7ab cd3e 683a 843e f65d d33d
000000a0: 55c4 f73e 36ce dabe d1b1 9e3e 6a4e 8bbe
000000b0: 490f cb3e c3da 82bd 335e aa3e 0592 68be
000000c0: d3bf 973e 8eee 093e 81f7 123e bbf5 cebe
000000d0: d5e0 c33e 4cb0 f5be f3ce f2bc 7b60 d6bd
000000e0: 189d c93d 01aa ecbe 00e7 193e 882c c73e
000000f0: f003 c1be 935f a73e 3f7b 8b3c d8ae a33b
00000100: d72a f1be b9f6 68be 3124 d23e 66eb ae3e
00000110: ba45 4dbe c012 cebe f1e6 a23e 1581 e93e
00000120: d1c6 d1be 8a05 0e3e 6e73 793e 955f 64be
00000130: a41a c83d 6c10 f33d f6f5 4cbe 505b f8be
00000140: 2c6d f4bc 09f1 01bf d4d5 a53e 0bbb 95be
00000150: aa98 3a3d 5aab c33e 1ef9 a53d daa4 a03e
00000160: b2e6 70bd 7785 eb3e b7dc 403c 7fd9 33bd
00000170: 5cb5 ccbe 48da 81be d396 dd3e 32e9 ba3e
00000180: 5248 9b3e 2b1c e13e a1c4 7f3e ba6f 1d3e
00000190: 3054 31bb fb71 3b3d 3839 84be 7394 42be
000001a0: a642 efbd 90bb d1be d268 053d 1085 b73e
000001b0: 5d85 91be 7b02 debe b7ac c7be 4b9c 4d3e
000001c0: 8c43 b5be c120 cebe 0604 c03e 2813 0ebe
000001d0: 7119 78bd b495 58be a95b 273e 384a 0abf
000001e0: c9bc 21be 838e 98bd 2726 c63d c6b3 0dbf
000001f0: 8bca a93d 6974 8c3d 4999 d3be bc6b 333e
00000200: 6c86 f73e 5765 553a fb51 51be d545 22bd
00000210: 7d85 f2be 2811 d53d 9dc7 34be 767f 07bf
00000220: 3de2 7c3e 7f40 fabe cca5 273e f3ca f9be
00000230: 4864 b83c 6998 84be c750 f33d 81e3 b93e
00000240: d90b 77be cc0a 4dbe f51e 013f 7d39 af3e
00000250: 5354 5d3d 28bb d0be f155 ca3e aa3e 3f3e
00000260: c919 513e 49da fe3e d682 f5bc dac0 5b3d
00000270: 2058 e9bd ad16 033e e835 e4be da3a c9bd
00000280: 7e44 e03d 3c82 9e3e aba0 f73e c66a 9fbe
00000290: 8b1f c03d 9970 66be 5938 94be 0983 9cbd
000002a0: 70de a93e 1798 6c3e 7306 98be 8a24 61be
000002b0: ff45 a63e db96 aa3d 7347 893d c46e 0b3f
000002c0: a267 633e 9ad3 483e 37bd d9bd f23d c3bc
000002d0: 5725 55be fcc5 a7be 6343 9d3e 0408 8cbe
000002e0: 3af1 04be 2611 c43d 628c 84be 4cbc ea3e
000002f0: c901 ce3e 84d1 293e 86ec b8be cb2f cb3e
00000300: 2068 92be 7c3f de3d d6ee 8b3e aef0 7b3e
00000310: aff5 953d 7019 af3d 45f3 943e 179c e93e
00000320: 44eb f1bc 156f 9f3e 2f03 80bd a7e5 443e
00000330: 3eb7 94be a989 733e 2dde df3e 28a8 b6be
00000340: d775 62bd 9a6a 9ebe ab95 42bb 16f9 e9be
00000350: 6e50 c8be bce7 9a3d 1364 83be e414 ae3e
00000360: e0cc e03e 56de 3e3e 8717 5b3e 6cce 8f3e
00000370: 3839 fbbd ce07 c03b bcd2 103e c52e d2be
00000380: d09a f9bd 4143 03be 5c1b eebd b9c8 963c
00000390: 5c9b 2dbe 281c e23e 8a9f ba3e f0e9 1e3e
000003a0: 1cb8 18bc 8c4a 6bbe 96b0 6c3e 0ffa 1b3e
000003b0: 7728 22be 02b9 6c3e a370 ca3e db7e 80be
000003c0: 18b7 393e 3a65 75be 5d47 ff3e e6e1 f33e
000003d0: ea1a a13e f1ca 02be 3a6b 0bbf cbde 47be
000003e0: 8583 5d3e ddc5 993e d19e a6be 99b6 a13e
000003f0: e73a 833e b6d1 3cbd 95c9 d5be fefd fabd

bias f4 [64]
-0.018755622 -0.12174605 0.39132625 0.1467288 0.31936693 -0.05938228 -0.16675192 0.056990445
0.4476967 0.18745694 0.063620344 0.39417621 -0.10771428 -0.3517491 0.07110942 -0.09859815
-0.4312053 0.46737865 -0.473024 -0.4475992 0.112498544 0.36496148 0.39810038 -0.24507365
0.24025643 -0.30359578 -0.013138329 0.4810902 0.27929193 -0.41238058 0.35103875 -0.3312152
-0.049787045 -0.15380156 -0.21322164 -0.4703515 -0.0055247084 -0.040908787 -0.017667355 0.20113815
-0.1281943 -0.33619747 -0.21583702 -0.004033897 0.23341908 0.46908644 0.21283258 0.11749523
-0.12651242 -0.36499986 0.01816261 0.38659093 -0.18386121 0.2293922 0.39897484 0.15848148
0.4548186 0.30124354 -0.2602735 0.29200563 -0.3063082 0.28910512 0.027036302 -0.29403105
00000000: 64a5 99bc fe55 f9bd ea5b c83e 1340 163e
00000010: 1084 a33e d53a 73bd 04c1 2abe d06e 693d
00000020: 8038 e53e b6f4 3f3e 624b 823d 77d1 c93e
00000030: 4e99 dcbd 7518 b4be d1a1 913d d4ed c9bd
00000040: f1c6 dcbe 414c ef3e 3430 f2be b92b e5be
00000050: a365 e63d 3bdc ba3e d0d3 cb3e 96f4 7abe
00000060: c805 763e e870 9bbe 2542 57bc 7451 f63e
00000070: 5aff 8e3e 8c23 d3be 5abb b33e 0a95 a9be
00000080: 80ed 4bbd 287e 1dbe c656 5abe e9d1 f0be
00000090: 9d08 b5bb f98f 27bd 21bb 90bc 29f7 4d3e
000000a0: 5e45 03be 1322 acbe 6104 5dbe c82e 84bb
000000b0: 6905 6f3e 192c f03e c9f0 593e 57a1 f03d
000000c0: 798c 01be 43e1 babe c1c9 943c 3fef c53e
000000d0: 1d46 3cbe cae5 6a3e 6e46 cc3e f848 223e
000000e0: fcdd e83e 983c 9a3e 9142 85be c381 953e
000000f0: 6ed4 9cbe 9605 943e 3c7b dd3c 3d8b 96be

weight f4 [64, 64]
-0.06255889 -0.003598008 0.037209455 -0.0964722 -0.046461526 0.045629267 -0.052359995 0.08197974
-0.013275958 -0.028425174 0.1669416 -0.026871292 0.12180965 -0.034263447 -0.07642622 -0.03955071
0.044755112 -0.1116266 -0.11341805 -0.016918419 0.03952661 -0.080433235 0.01084662 -0.039557032
-0.0069364877 -0.04002791 0.04141514 -0.061271664 -0.085433975 0.12975672 0.100750715 -0.04588125
0.05330692 -0.06765486 0.15809427 0.054911558 -0.1202403 0.046461307 0.02396249 0.040641263
-0.07488405 -0.04947671 0.06802659 -0.11476586 0.09322603 -0.087734066 -0.117421955 0.089936614
-0.091266625 0.056896713 -0.02317121 -0.053165402 0.15544738 -0.06606003 -0.010483007 0.1344046
0.11154407 -0.04703696 -0.14098169 0.10129875 -0.1529162 -0.08698542 0.06250796 -0.06967622
0.021186443 -0.10260079 0.07690934 -0.05798115 -0.101028934 0.01489763 0.043544672 -0.083322085
0.10886212 0.054195184 0.05654497 -0.058914803 -0.027444486 0.10923723 0.10387671 0.119144715
0.09690022 0.058119316 -0.079685435 -0.012523521 -0.14391346 -0.036382124 0.09785812 0.007601102
0.06498903 0.08949343 0.1285084 0.054845333 0.0051738443 0.008554903 -0.12066454 0.04581098
0.05944504 -0.049657978 -0.13822833 -0.024150148 0.055371553 0.13223918 0.12602952 0.04377267
0.045783304 0.0239024 -0.14288163 0.09274387 -0.101181306 -0.07018693 0.11376051 -0.07181454
0.024147227 0.0032332337 0.09920251 -0.115319826 0.023555636 0.034051623 -0.02491824 0.015643872
0.06710522 0.011586145 -0.07381381 -0.0011629481 0.0725378 -0.10127593 0.033392772 -0.027406415
0.030445507 0.031092562 0.048753314 -0.04080504 0.06440394 0.03367113 0.17608146 -0.06351467
0.10350085 -0.092429094 -0.096760534 -0.058780063 -0.11799364 -0.06526215 0.10869688 0.09439699
-0.055967685 -0.011901339 -0.0024071939 -0.02943852 -0.1097628 0.035153974 -0.107328944 0.03989189
0.06420024 -0.11872353 -0.0027352136 0.070079155 -0.115885206 -0.12716472 -0.101156384 -0.0023369135
0.06223187 0.01058489 -0.10742002 0.041163865 0.11532527 0.12209636 0.14527553 -0.15507172
-0.12678735 -0.04788335 -0.024134424 0.024511507 0.10974946 -0.059245 0.0063665994 -0.055901926
-0.05451558 -0.05624841 0.013076478 -0.06568641 0.025222858 0.12506923 -0.051159956 0.03159877
-0.12407884 0.032737963 -0.03288092 -0.07964674 0.10904884 -0.015242728 0.027286943 -0.13062404
0.03501137 0.1386673 -0.037435815 -0.08792378 -0.09244035 -0.06756886 -0.047338177 0.13407719
-0.026542595 0.03709921 -0.18212272 0.09959651 0.06934476 -0.12410944 0.11649055 0.0813067
-0.029537525 -0.07103225 -0.01188958 -0.015867483 -0.020686442 0.011859468 0.0930654 0.03740334
0.07452886 -0.11771207 0.06640035 0.10169553 0.010035325 -0.12926638 -0.10353946 -0.06207003
-0.13622928 -0.027124373 -0.12840322 0.08589299 -0.051859174 0.08851787 -0.006367121 -0.07084552
0.0042931694 -0.06564003 -0.07125014 0.038674798 -0.10196638 -0.13742398 0.14639333 0.14294995
-0.007090289 0.044802472 0.16882779 0.07333199 -0.16036516 0.023769177 -0.058274265 0.00310594
0.053677075 0.073557265 0.09566239 0.113280214 0.13101228 0.049048554 0.08802356 0.10268919
00000000: e01e 80bd 8fcc 6bbb f168 183d 3793 c5bd
00000010: 714e 3ebd c1e5 3a3d 6f77 56bd fee4 a73d
00000020: 6783 59bc e9db e8bc bdf2 2a3e 2f21 dcbc
00000030: 5677 f93d d457 0cbd 5a85 9cbd edff 21bd
00000040: 2351 373d 7d9c e4bd b947 e8bd 7f98 8abc
00000050: a8e6 213d 2eba a4bd 06b6 313c 8e06 22bd
00000060: 7a4b e3bb 4ef4 23bd eca2 293d fff7 7abd
00000070: 02f8 aebd f2de 043e 6456 ce3d faed 3bbd
00000080: 5b58 5a3d a28e 8abd 77e3 213e f1ea 603d
00000090: 8c40 f6bd 364e 3e3d fc4c c43c 7477 263d
000000a0: cf5c 99bd 17a8 4abd 8651 8b3d 5d0a ebbd
000000b0: 4aed be3d ebad b3bd ec7a f0bd b030 b83d
000000c0: ffe9 babd 870c 693d 8dd1 bdbc f7c3 59bd
000000d0: 992d 1f3e 7b4a 87bd ebc0 2bbc 5ca1 093e
000000e0: 3871 e43d d4a9 40bd 815d 10be b875 cf3d
000000f0: 1096 1cbe 6925 b2bd 2c04 803d 68b2 8ebd
00000100: 318f ad3c 5d20 d2bd a582 9d3d a47d 6dbd
00000110: 42e8 cebd 3015 743c e65b 323d c5a4 aabd
00000120: 1af3 de3d c5fb 5d3d b39b 673d a650 71bd
00000130: 42d3 e0bc c5b7 df3d 50bd d43d 2502 f43d
00000140: 9f73 c63d 850e 6e3d 1e32 a3bd 742f 4dbc
00000150: 0d5e 13be 6c05 15bd d769 c83d aa12 f93b
00000160: f818 853d 5548 b73d b597 033e 80a5 603d
00000170: 5a89 a93b dd29 0c3c f81e f7bd 4ba4 3b3d
00000180: a47c 733d 2a66 4bbd ba8b 0dbe 88d6 c5bc
00000190: 48cd 623d b569 073e e20d 013e f94a 333d
000001a0: 4687 3b3d f7ce c33c 904f 12be 80f0 bd3d
000001b0: 2538 cfbd 2abe 8fbd 45fb e83d 8013 93bd
000001c0: 68d0 c53c a9e4 533b b02a cb3d cd2c ecbd
000001d0: c0f7 c03c b779 0b3d 5621 ccbc 9427 803c
000001e0: 766e 893d d0d3 3d3c b22b 97bd 106e 98ba
000001f0: b38e 943d c169 cfbd dcc6 083d 6b83 e0bc
00000200: db68 f93c d4b5 fe3c 8eb1 473d 3023 27bd
00000210: 37e6 833d bdea 093d b34e 343e fb13 82bd
00000220: 41f8 d33d 774b bdbd 632a c6bd 5dc3 70bd
00000230: a6a6 f1bd 29a8 85bd 789c de3d 3653 c13d
00000240: 5f3e 65bd d5fd 42bc 03c2 1dbb 0d29 f1bc
00000250: 52cb e0bd 9dfd 0f3d 47cf dbbd ae65 233d
00000260: 6a7b 833d 5225 f3bd 4541 33bb a985 8f3d
00000270: 3955 edbd 7837 02be 142b cfbd e726 19bb
00000280: d8e6 7e3d 3f6c 2d3c 07ff dbbd 719b 283d
00000290: a82f ec3d a80d fa3d 1cc3 143e 1fcb 1ebe
000002a0: 8bd4 01be 5521 44bd 8eb5 c5bc 5bcc c83c
000002b0: 53c4 e03d e3aa 72bd e89e d03b 6bf9 64bd
000002c0: bb4b 5fbd bc64 66bd b93e 563c 9986 86bd
000002d0: 2ba0 ce3c 2612 003e 1a8d 51bd b66d 013d
000002e0: 0c1d febd 3e18 063d 25ae 06bd d41d a3bd
000002f0: 0055 df3d a3bc 79bc de88 df3c 4fc2 05be
00000300: 1568 0f3d cdfe 0d3e 4c56 19bd 6211 b4bd
00000310: 5e51 bdbd 8b61 8abd ade5 41bd 884b 093e
00000320: db6f d9bc 57f5 173d 617e 3abe 41f9 cb3d
00000330: a004 8e3d 172d febd 9992 ee3d 2184 a63d
00000340: aef8 f1bc 5b79 91bd 83cc 42bc 86fc 81bc
00000350: 9d76 a9bc 374e 423c 1399 be3d 3f34 193d
00000360: 96a2 983d 0713 f1bd e8fc 873d bf45 d03d
00000370: 346b 243c 685e 04be 7f0c d4bd 253d 7ebd
00000380: b07f 0bbe ef33 debc 227c 03be aae8 af3d
00000390: 496a 54bd db48 b53d 48a3 d0bb 7517 91bd
000003a0: b7ad 8c3b 486e 86bd 98eb 91bd 7769 1e3d
000003b0: c0d3 d0bd dfb8 0cbe 22e8 153e 7961 123e
000003c0: a855 e8bb cc82 373d 31e1 2c3e 152f 963d
000003d0: c436 24be 94b7 c23c ffb0 6ebd 078d 4b3b
000003e0: 7edc 5b3d 31a5 963d a5ea c33d 75ff e73d
000003f0: 1528 063e 23e7 483d b245 b43d b64e d23d

bias f4 [64]
-0.10919536 0.10935418 -0.06788287 0.020137578 0.007955133 -0.10290953 -0.12143579 -0.004430148
0.11282283 0.048903093 0.11684394 -0.08521334 0.03617932 -0.006908433 -0.07985604 -0.064499356
-0.038604315 0.114589244 0.043266576 -0.08514573 -0.101904675 0.006973483 0.10578636 0.09888405
0.03605114 0.07762683 0.10222436 0.07551427 0.056069277 -0.12523429 -0.11380658 0.046690684
0.010351368 -0.06623136 -0.05152824 -0.10662835 0.1026023 -0.0043475167 0.048256494 0.091675565
-0.07030931 0.08344356 0.0668427 0.02258423 0.10749286 0.08466665 0.11138994 0.06759912
0.06779709 -0.09115399 0.06656796 -0.11729376 0.052739736 0.06991689 -0.06546667 0.06847284
0.08064772 -0.033863645 0.12198697 0.09982422 -0.12466981 0.021325698 0.070462614 -0.048577297
00000000: d1a1 dfbd 16f5 df3d 2d06 8bbd 90f7 a43c
00000010: 3f56 023c 3bc2 d2bd 54b3 f8bd c62a 91bb
00000020: a80f e73d 9c4e 483d e04b ef3d 5584 aebd
00000030: c430 143d 2360 e2bb 908b a3bd 3d18 84bd
00000040: 8f1f 1ebd c4ad ea3d 4b38 313d e260 aebd
00000050: 66b3 d0bd d181 e43b 85a6 d83d b983 ca3d
00000060: 5caa 133d d1fa 9e3d 015b d13d 3aa7 9a3d
00000070: e6a8 653d 6b3d 00be 6d13 e9bd bb3e 3f3d
00000080: c998 293c 4fa4 87bd 470f 53bd f75f dabd
00000090: 2821 d23d 9d75 8ebb 9aa8 453d 66c0 bb3d
000000a0: 54fe 8fbd 75e4 aa3d d3e4 883d 9002 b93c
000000b0: 3725 dc3d b565 ad3d 6920 e43d 6871 8a3d
000000c0: 33d9 8a3d f1ae babd c854 883d b637 f0bd
000000d0: 9f05 583d 9630 8f3d 6413 86bd 7d3b 8c3d
000000e0: a22a a53d 9bb4 0abd 4ed4 f93d a470 cc3d
000000f0: e352 ffbd 3bb3 ae3c b44e 903d fdf8 46bd

weight f4 [2, 64]
0.10766574 -0.059708025 0.023008838 0.014055261 -0.09897234 -0.13618709 -0.12011023 -0.14784484
0.11478902 0.13256593 0.038756747 0.041685387 -0.027305136 0.03494028 0.028919572 -0.13469417
-0.0708261 -0.08519286 0.10500766 -0.10171772 -0.13829401 -0.07047144 0.11004479 0.13011478
-0.07317181 0.023258843 0.109437935 -0.13167776 -0.12595153 0.03391066 -0.08136484 -0.013479076
0.07278197 -0.11693901 0.14789931 0.15292247 -0.08781905 -0.13256733 0.054302566 0.16560231
0.14353414 -0.040148195 0.14992353 -0.14425577 0.16222636 -0.025947703 0.11380708 0.16029385
0.06533716 -0.08121969 0.1434872 0.009557514 -0.017686753 0.12236931 -0.11138387 0.15002775
0.032892108 -0.07932777 0.0129638575 0.066298574 0.046959724 -0.08159873 0.017961258 -0.09325356
-0.15463698 0.15000856 0.12415615 0.14114319 0.13473362 0.1351602 0.04569333 0.021551196
-0.13257173 -0.10183734 0.025113976 0.14275545 0.014756176 0.07461533 0.14880632 0.1421469
-0.042612042 -0.041000877 0.010607642 0.074568816 0.090804785 0.011325276 -0.089629054 0.045005236
0.09331322 -0.116702646 -0.12079808 0.11597077 0.0935032 0.094344586 0.06574205 -0.11706028
-0.022288725 -0.013889507 0.028805666 0.05225284 0.10946486 0.067976914 -0.030321619 -0.061289977
-0.10364783 -0.16142955 0.01233321 0.05865931 -0.12455573 0.14542341 -0.15988946 0.033365972
-0.05367204 0.002185356 -0.072407216 0.12707342 0.06582964 -0.13845134 0.10750969 0.06079955
-0.09282559 0.16220015 -0.042073097 -0.08404854 0.13530453 0.08396842 0.15044962 0.031915464
00000000: db7f dc3d 6790 74bd 087d bc3c 0a48 663c
00000010: 03b2 cabd a174 0bbe 5afc f5bd a364 17be
00000020: 8116 eb3d 5dbf 073e 65bf 1e3d 4cbe 2a3d
00000030: 05af dfbc 8a1d 0f3d bde8 ec3c 45ed 09be
00000040: 460d 91bd 9879 aebd 420e d73d 6151 d0bd
00000050: f29c 0dbe 5553 90bd 2a5f e13d cf3c 053e
00000060: 1adb 95bd 5489 be3c ff20 e03d 89d6 06be
00000070: 70f9 00be e7e5 0a3d 9ca2 a6bd 58d7 5cbc
00000080: b70e 953d b87d efbd eb72 173e b597 1c3e
00000090: 79da b3bd bbbf 07be 5e6c 5e3d a793 293e
000000a0: 9dfa 123e 6f72 24bd 8e85 193e c9b7 13be
000000b0: ab1e 263e 4790 d4bc b013 e93d 1224 243e
000000c0: 7dcf 853d 8256 a6bd 4fee 123e 1f97 1c3c
000000d0: cfe3 90bc c39c fa3d 3a1d e4bd e0a0 193e
000000e0: e0b9 063d 9976 a2bd 5c66 543c 8cc7 873d
000000f0: d758 403d 3c1d a7bd 7d23 933c b9fb bebd
00000100: 2859 1ebe d89b 193e 9445 fe3d d787 103e
00000110: 9cf7 093e 6f67 0a3e ee28 3b3d 228c b03c
00000120: e2c0 07be 1890 d0bd d3bb cd3c 7c2e 123e
00000130: e3c3 713c eccf 983d af60 183e f58e 113e
00000140: f789 2ebd 89f0 27bd adcb 2d3c 89b7 983d
00000150: dcf7 b93d a78d 393c 708f b7bd 6957 383d
00000160: 001b bf3d cc01 efbd fc64 f7bd 1582 ed3d
00000170: 9b7e bf3d bc37 c13d c5a3 863d 4dbd efbd
00000180: d896 b6bc d190 63bc dcf9 eb3c 1307 563d
00000190: 1d2f e03d 7b37 8b3d 0b65 f8bc 330b 7bbd
000001a0: 5045 d4bd ca4d 25be 3b11 4a3c bf44 703d
000001b0: 1317 ffbd e0e9 143e 10ba 23be c2aa 083d
000001c0: 37d7 5bbd 3138 0f3b 3c4a 94bd 891f 023e
000001d0: b1d1 863d 30c6 0dbe 0a2e dc3d f308 793d
000001e0: 581b bebd cc17 263e d754 2cbd a421 acbd
000001f0: 458d 0a3e a3f7 ab3d 770f 1a3e cab9 023d

bias f4 [2]
-0.083644025 0.008175166
00000000: 8f4d abbd 22f1 053c

weight f4 [64, 4]
-0.38373923 0.107883394 -2.6868272 -0.05937849 0.77748585 -0.5330637 -2.0237603 0.2692805
0.48091424 0.04719173 2.4072855 0.6259633 -0.8623772 0.41347218 -2.2660556 -0.32102227
-0.58757526 -0.2619159 -2.1863003 -0.4336137 0.6628866 0.5572887 0.2685878 0.1475952
0.2596007 -0.9663079 -2.2264876 -0.6874025 -0.70652187 0.33797064 -2.216115 -0.0022234276
0.47072688 -0.09155614 2.1337748 0.11552176 -1.5621319 -0.24855556 2.0972333 0.18787375
-0.17862011 -0.6822288 -2.8244104 -0.7176571 -0.27314022 -0.52970225 1.9609228 0.09544873
0.555462 -0.46497998 2.8334496 -0.7706671 -0.32805276 -0.25784084 -2.202318 -0.7353108
0.70651776 -0.14680585 1.7449279 0.31888324 -0.1235445 0.81710637 2.4874306 0.7231313
-0.4820904 0.035304714 1.5745134 0.036628768 -0.45176739 0.204314 -2.3000934 0.2560519
-0.3957601 0.041122884 -2.1892223 -0.13351929 0.1931548 0.26201567 1.9823277 0.2498189
0.013282522 -0.6030939 -2.0154185 -0.8501603 -0.3669613 -0.24155039 -2.483905 -0.19000171
0.76355803 0.40378204 -1.9646211 -0.30556485 -0.04663239 -0.4911288 -2.0878165 -0.44782814
-0.33756945 -0.2889257 2.3194904 0.3513141 -0.6776257 1.1414447 -1.8658009 1.2482233
-0.4200948 0.06119604 -2.4453526 0.522223 -0.8090456 -0.069789 1.2622991 -0.086023875
-0.8626127 0.6529721 1.6395684 0.7887512 0.6933521 -0.9861771 0.3727989 -0.33749446
-0.287112 1.0063893 -3.1156542 1.2413514 -0.50646174 -0.89856917 -0.8895362 -0.5427066
-1.3272368 0.31751102 1.1264596 -0.077257454 -0.5799475 1.2227805 -2.4539106 1.1891259
0.8936963 -0.62711614 2.2843554 -0.5016916 -0.015154649 0.3193361 -2.9117043 -0.41014987
-1.3489732 -0.09202179 0.46324226 -0.10236732 -0.04094366 -0.6946048 1.5837715 -0.17956108
1.319085 -0.5014301 -0.6423252 -0.17694792 0.16945186 -0.19021064 2.8018546 -0.5160287
0.97115827 -0.07315972 1.5273671 0.30881345 0.66561085 0.112596124 2.0737426 0.5028998
-0.7260931 0.20353551 -2.433943 -0.17803288 -0.77633625 0.6440479 0.5154081 0.2854466
0.5256409 -0.38320175 2.9564762 -0.3661862 1.3694048 0.08874732 -1.5984269 -0.3862198
-0.0058530006 -0.3518097 -2.0569146 0.080567725 -0.4921379 -0.033997037 -1.5961471 -0.62882644
-1.9410193 -0.6342809 1.143305 0.4943359 -0.92052543 0.75172216 1.0666931 0.71285623
1.3566096 -0.18463802 -0.89071864 -0.21973875 -1.0838743 0.9567341 -2.2254586 0.76758283
0.88254726 -0.57609713 1.6406246 0.034915805 0.00057961186 0.6889788 -2.3146977 -0.037916537
-0.4401983 -0.18107891 2.1491137 0.71101415 0.40468845 -0.30364257 2.517881 -0.50890267
-1.6700443 0.98622143 -0.7573661 0.27497792 0.19190991 1.0363374 0.05191566 0.6588457
0.9347695 0.2644956 1.8165702 0.55777127 0.83854485 -0.20792875 -1.649103 -0.33359942
-0.8217095 0.24693039 -0.64686364 -0.3235533 -1.2122982 0.41353327 2.2729735 0.7051402
-1.1441085 0.7874948 -0.46470633 -0.11723893 0.60891664 -0.3311322 2.655922 -0.11873808
00000000: 7879 c4be f8f1 dc3d faf4 2bc0 dc36 73bd
00000010: 5009 473f dd76 08bf 4a85 01c0 22df 893e
00000020: 643a f63e 1e4c 413d f710 1a40 213f 203f
00000030: c1c4 5cbf a0b2 d33e 0e07 11c0 085d a4be
00000040: 556b 16bf d719 86be 58ec 0bc0 9d02 debe
00000050: f0b2 293f 79aa 0e3f 5784 893e 3223 173e
00000060: 62ea 843e f45f 77bf c67e 0ec0 9cf9 2fbf
00000070: 9ede 34bf 7d0a ad3e d4d4 0dc0 edb6 11bb
00000080: 1d03 f13e c981 bbbd c48f 0840 ac96 ec3d
00000090: f0f3 c7bf 5985 7ebe 1239 0640 fa61 403e
000000a0: 31e8 36be 8ca6 2ebf 24c3 34c0 60b8 37bf
000000b0: 09d9 8bbe 919a 07bf 85ff fa3f a07a c33d
000000c0: c232 0e3f db11 eebe 3d57 3540 704a 45bf
000000d0: 88f6 a7be b703 84be c7f2 0cc0 543d 3cbf
000000e0: 59de 343f 4654 16be cc59 df3f aa44 a33e
000000f0: e604 fdbd e22d 513f 1032 1f40 221f 393f
00000100: 8ed4 f6be ad9b 103d a889 c93f 0c08 163d
00000110: 0e4e e7be b037 513e bb34 13c0 3c19 833e
00000120: 11a1 cabe 7870 283d 381c 0cc0 48b9 08be
00000130: 5fca 453e eb26 863e eabc fd3f 87d0 7f3e
00000140: ef9e 593c 5d64 1abf 9efc 00c0 1ba4 59bf
00000150: 5ae2 bbbe fc58 77be 4df8 1ec0 cf8f 42be
00000160: 8a78 433f 85bc ce3e b478 fbbf ff72 9cbe
00000170: 9b01 3fbd 3c75 fbbe c99e 05c0 bb49 e5be
00000180: e7d5 acbe 12ee 93be 8872 1440 71df b33e
00000190: e178 2dbf dc1a 923f 90d2 eebf c8c5 9f3f
000001a0: aa16 d7be b3a8 7a3d a880 1cc0 68b0 053f
000001b0: 9d1d 4fbf 89ed 8ebd 0493 a13f 492d b0bd
000001c0: 30d4 5cbf 2e29 273f 61dd d13f 99eb 493f
000001d0: 867f 313f 1a76 7cbf 7fdf be3e 13cc acbe
000001e0: 5800 93be 5dd1 803f e166 47c0 9ae4 9e3f
000001f0: 7aa7 01bf a108 66bf a5b8 63bf d2ee 0abf
00000200: e5e2 a9bf ce90 a23e d42f 903f 2839 9ebd
00000210: 7077 14bf 1284 9c3f df0c 1dc0 4735 983f
00000220: 48c9 643f af8a 20bf e132 1240 dc6e 00bf
00000230: 344b 78bc 0580 a33e 5d59 3ac0 2aff d1be
00000240: 27ab acbf ec75 bcbd 172e ed3e f5a5 d1bd
00000250: 8ab4 27bd 9fd1 31bf 06b9 ca3f dcde 37be
00000260: c7d7 a83f b95d 00bf 6d6f 24bf d631 35be
00000270: ca84 2d3e 94c6 42be 9651 3340 751a 04bf
00000280: d49d 783f c3d4 95bd c480 c33f cc1c 9e3e
00000290: 7965 2a3f cc98 e63d 33b8 0440 0bbe 003f
000002a0: 3de1 39bf 9d6b 503e b9c5 1bc0 404e 36be
000002b0: f9bd 46bf 53e0 243f c9f1 033f 0f26 923e
000002c0: 6790 063f 0533 c4be e836 3d40 c27c bbbe
000002d0: a848 af3f 28c1 b53d 4199 ccbf 9abe c5be
000002e0: 87ca bfbb 6720 b4be 7da4 03c0 b100 a53d
000002f0: 80f9 fbbe 7a40 0bbd 8c4e ccbf c5fa 20bf
00000300: 5273 f8bf 3c60 22bf d157 923f 9819 fd3e
00000310: 8ea7 6bbf dd70 403f 6689 883f bf7d 363f
00000320: 62a5 ad3f c011 3dbe 2306 64bf 3203 61be
00000330: 65bc 8abf 87ec 743f ea6d 0ec0 4f80 443f
00000340: 9eee 613f 1a7b 13bf fdff d13f e003 0f3d
00000350: 18f1 173a ea60 303f 0224 14c0 5f4e 1bbd
00000360: ac61 e1be c06c 39be 148b 0940 0605 363f
00000370: 5333 cf3e 0a77 9bbe f624 2140 7247 02bf
00000380: 03c4 d5bf 0279 7c3f bfe2 41bf e8c9 8c3e
00000390: 0884 443e b4a6 843f 84a5 543d 1daa 283f
000003a0: 0e4d 6f3f f86b 873e 5f85 e83f 19ca 0e3f
000003b0: e0aa 563f 46eb 54be cf15 d3bf 8bcd aabe
000003c0: 8e5b 52bf 52db 7c3e db98 25bf c7a8 a5be
000003d0: 962c 9bbf a2ba d33e 6678 1140 1184 343f
000003e0: 2672 92bf 4299 493f fded edbe f71a f0bd
000003f0: f6e1 1b3f 298a a9be a0fa 2940 f32c f3bd

bias f4 [64]
-0.1414583 -0.26512587 0.55972826 -0.42523208 0.59485775 -0.42867762 0.6579705 -0.1413096
0.09202322 -0.49665883 0.52696675 0.47287068 0.07153759 -0.565833 0.046129555 -0.6605156
0.28212002 -0.19141519 -0.5591078 0.09875538 -0.23333997 0.01513876 0.6582236 -0.18889007
-0.5916045 -0.064724244 -0.03232945 -0.3203314 0.5627942 -0.43824366 -0.011994687 -0.08444576
0.35020345 0.16089419 0.011293357 -0.5912675 -0.46392506 -0.41162574 -0.49411932 0.09170617
0.07319862 -0.5996151 -0.11354653 0.28590095 0.15025194 -0.6318133 -0.11824976 -0.5913186
0.7178659 0.40334508 -0.5442148 -0.09243653 0.63295394 -0.44269794 -0.78516084 0.073182434
-0.13572952 0.22795743 0.17600685 0.41972658 -0.12415041 -0.740074 -0.35306436 0.07666126
00000000: 72da 10be 94be 87be 5a4a 0f3f 05b8 d9be
00000010: 9948 183f a27b dbbe c170 283f 77b3 10be
00000020: ac76 bc3d 114a febe 4be7 063f 1b1c f23e
00000030: 4d82 923d 6eda 10bf 58f2 3c3d 8d17 29bf
00000040: 0972 903e 5802 44be b021 0fbf 4340 ca3d
00000050: acf0 6ebe 9008 783c 5881 283f 666c 41be
00000060: 6473 17bf 258e 84bd e36b 04bd 7a02 a4be
00000070: 4813 103f 7961 e0be 5d85 44bc e6f1 acbd
00000080: de4d b33e 72c1 243e c607 393c 4f5d 17bf
00000090: 9687 edbe 9cc0 d2be 35fd fcbe 72d0 bb3d
000000a0: 28e9 953d 6080 19bf 158b e8bd 9c61 923e
000000b0: a5db 193e 84be 21bf ee2c f2bd a860 17bf
000000c0: 0fc6 373f 3f83 ce3e a951 0bbf 5d4f bdbd
000000d0: 4509 223f 4ea9 e2be 4d00 49bf ace0 953d
000000e0: aefc 0abe ac6d 693e 243b 343e 67e6 d63e
000000f0: 9242 febd 7d75 3dbf dac4 b4be 9400 9d3d

weight f4 [64, 64]
0.23745844 -1.5752759 0.020721374 0.23397537 0.40141132 -0.08685118 0.13644268 0.05855297
-0.19579804 -0.23869164 0.18150595 -0.01752809 -0.8091747 -0.35594687 -0.025122952 -0.18054698
0.0990647 0.18942353 -0.014002503 0.29363206 -0.37194556 -0.1528176 0.15034118 -0.48220167
-0.3770635 0.9209812 -0.03740934 -0.113834165 1.5738279 -1.831799 1.1967772 -0.39068708
0.5796625 1.1293887 -0.55441296 -0.065520085 -0.010382676 -0.87848854 -0.785697 0.01905745
0.2059717 -0.41272944 0.2020077 1.1931205 -0.48631558 -0.44751257 -0.79370695 -0.07821456
0.3653761 1.7739799 -0.51572603 0.9825621 -0.07505466 0.09193571 -0.31393552 -0.3592769
0.36040264 0.70500904 0.28546906 -0.09669749 0.054028515 -0.12269487 0.44591433 -0.46385145
0.21539868 -0.4355731 0.5710339 -0.44762576 1.0221959 -0.6621004 0.59058565 0.044467866
-0.2180916 -0.5175561 1.5505748 0.6883826 -0.46647003 -0.57148325 -0.397252 -1.0022583
0.6852219 -0.25981897 -0.5221737 -0.124733776 0.06285374 0.6249268 0.8029359 0.18910302
-0.34971884 0.033537686 0.46398994 -0.2040802 0.84548265 -0.4135869 -0.28613174 0.12997118
0.45150086 0.099715136 -0.04524625 -0.7671232 -0.52320164 -0.118584074 -0.47401303 -0.022739267
-0.026001478 -0.85538197 -0.21852207 0.71861947 -0.006661226 -0.48035693 0.18403776 -0.5142914
0.5561451 0.65043914 -0.5232125 0.14198132 0.5204522 -0.7873985 -0.5681887 -0.13798149
-0.06381025 0.18572207 0.11189935 0.22827496 -0.15772861 -0.57876116 -0.16700295 -0.23897065
-0.6861739 -0.6094313 0.7405819 -0.80177695 0.07929509 -0.311625 -0.18834871 -0.9731312
0.80788803 -0.5388498 -0.71518964 0.47020674 0.73291135 -0.72618085 0.56409866 0.35484236
0.28365198 -0.55744 -0.52378917 0.54477805 -0.7786902 -0.48853302 0.28260386 -0.78325117
-0.40084356 -0.1509176 -0.6042131 -0.80770385 0.47241586 -0.36293834 -0.043426555 -0.33736244
0.3929122 0.4153656 0.6698814 -0.36758167 -0.83017683 -0.8202118 -0.41826743 0.46471167
0.59514594 -0.1406052 -0.62010396 0.42955616 0.8625398 -0.38781258 -0.7435049 -0.46899784
0.33247074 0.51601726 -0.23968412 -0.2878594 0.59822065 -0.17168087 -0.3473497 0.5764288
-0.30517706 0.5959754 0.67816013 0.54112846 -0.54452705 -0.6242757 -0.44852692 0.5686051
0.51724267 0.585074 -0.91550726 0.7436611 -0.281341 0.35150442 -0.36547828 0.332292
-0.4227627 0.046771545 0.44219527 -0.41707656 -0.731639 0.97026366 -0.32984602 0.37180173
-0.19762912 0.41671488 1.1942273 -0.27943075 0.47871742 0.2726331 -0.07819807 0.1966695
-0.101032436 0.43738732 0.373291 0.03777881 -0.7084263 0.527883 0.16668999 0.042614404
-0.5616992 0.30163074 -0.3749727 0.55346125 0.19861904 -0.17629972 0.6812341 -0.9212755
-0.19077834 0.26612532 0.4879562 -0.33956227 -0.69075006 0.7297665 0.30882818 1.148371
-0.7392191 -0.5459676 0.7527946 0.30398446 -1.1036247 0.35906166 -0.045905888 -0.48721242
-0.20587628 0.117862396 -0.2895074 0.03050647 0.3478027 0.17248838 0.4856887 -0.5463542
00000000: 4e28 733e a4a2 c9bf dfbf a93c 3d97 6f3e
00000010: c985 cd3e 08df b1bd a1b7 0b3e 3dd5 6f3d
00000020: 487f 48be 956b 74be b2dc 393e 1297 8fbc
00000030: 1326 4fbf ab3e b6be a6ce cdbc 4fe1 38be
00000040: 6fe2 ca3d 3ef8 413e c16a 65bc f156 963e
00000050: a66f bebe 387c 1cbe 0af3 193e 23e3 f6be
00000060: 780e c1be 6dc5 6b3f 893a 19bd e321 e9bd
00000070: 3173 c93f 6478 eabf ff2f 993f 2308 c8be
00000080: c364 143f cf8f 903f 02ee 0dbf 652f 86bd
00000090: 191c 2abc a0e4 60bf 7023 49bf 5f1e 9c3c
000000a0: 3fea 523e 4651 d3be 1bdb 4e3e 2cb8 983f
000000b0: 5bfe f8be 5e20 e5be 6130 4bbf f52e a0bd
000000c0: 9412 bb3e c611 e33f 9f06 04bf 3189 7b3f
000000d0: 42b6 99bd ca48 bc3d 28bc a0be 24f3 b7be
000000e0: b286 b83e 797b 343f 0029 923e 5509 c6bd
000000f0: 014d 5d3d 7347 fbbd e24e e43e f07d edbe
00000100: 7991 5c3e 7003 dfbe 472f 123f 342f e5be
00000110: 51d7 823f 697f 29bf 9f30 173f f023 363d
00000120: 6853 5fbe 8e7e 04bf 3c79 c63f d839 303f
00000130: 29d5 eebe ba4c 12bf 9d64 cbbe 004a 80bf
00000140: b46a 2f3f fe06 85be 2dad 05bf 6c74 ffbd
00000150: 76b9 803d 34fb 1f3f 358d 4d3f 39a4 413e
00000160: 590e b3be d05e 093d 1790 ed3e 66fa 50be
00000170: 8d71 583f aac1 d3be dc7f 92be 2a17 053e
00000180: 1f2b e73e 7337 cc3d 2254 39bd 3062 44bf
00000190: 8bf0 05bf 35dc f2bd d6b1 f2be b347 babc
000001a0: 0d01 d5bc 50fa 5abf 40c4 5fbe 72f7 373f
000001b0: 6a46 dabb 58f1 f5be 6574 3c3e 9aa8 03bf
000001c0: 865f 0e3f 2e83 263f 41f1 05bf 8d63 113e
000001d0: 5b3c 053f f392 49bf d174 11bf 054b 0dbe
000001e0: f3ae 82bd ed2d 3e3e 7d2b e53d e9c0 693e
000001f0: 9c83 21be b129 14bf d202 2bbe b9b4 74be
00000200: 18a9 2fbf b103 1cbf c796 3d3f 4141 4dbf
00000210: 7765 a23d 508d 9fbe 7cde 40be 201f 79bf
00000220: c0d1 4e3f 0ff2 09bf ab16 37bf f0be f03e
00000230: 14a0 3b3f fde6 39bf c568 103f e6ad b53e
00000240: d53a 913e 63b4 0ebf 0c17 06bf 9376 0b3f
00000250: 3e58 47bf 0021 fabe 74b1 903e 2683 48bf
00000260: 5e3b cdbe 258a 1abe b6ad 1abf aec5 4ebf
00000270: 7ee0 f13e 0ed3 b9be 0be0 31bd c5ba acbe
00000280: ca2b c93e cdaa d43e 597d 2b3f aa33 bcbe
00000290: 7886 54bf 67f9 51bf 2627 d6be b0ee ed3e
000002a0: 7c5b 183f cffa 0fbe 22bf 1ebf c9ee db3e
000002b0: 69cf 5c3f 5f8f c6be 5656 3ebf 7c20 f0be
000002c0: 9b39 aa3e b519 043f c16f 75be 4f62 93be
000002d0: fd24 193f 1ccd 2fbe d2d7 b1be d690 133f
000002e0: 2b40 9cbe d891 183f e79b 2d3f 6587 0a3f
000002f0: 2066 0bbf 88d0 1fbf 52a5 e5be 1b90 113f
00000300: 046a 043f 69c7 153f af5e 6abf 9360 3e3f
00000310: ed0b 90be 63f8 b33e f81f bbbe 2d22 aa3e
00000320: 5a74 d8be 8593 3f3d 6b67 e23e 0f8b d5be
00000330: b24c 3bbf 3363 783f 94e1 a8be cc5c be3e
00000340: 4a5f 4abe a75b d53e 71dc 983f 8c11 8fbe
00000350: 731a f53e 9196 8b3e 4f26 a0bd bb63 493e
00000360: 18ea cebd 3bf1 df3e ff1f bf3e f4bd 1a3d
00000370: 6d5b 35bf 5723 073f c8b0 2a3e 718c 2e3d
00000380: 85cb 0fbf 586f 9a3e 6cfc bfbe a3af 0d3f
00000390: ca62 4b3e ea87 34be 5c65 2e3f b6d8 6bbf
000003a0: 665b 43be 9441 883e 65d5 f93e 1bdb adbe
000003b0: ffd4 30bf fad1 3a3f ba1e 9e3e d2fd 923f
000003c0: 773d 3dbf 88c4 0bbf 26b7 403f daa3 9b3e
000003d0: 9343 8dbf eed6 b73e d007 3cbd e873 f9be
000003e0: 3bd1 52be d761 f13d 503a 94be b4e8 f93c
000003f0: 3213 b23e cba0 303e 30ac f83e dedd 0bbf

bias f4 [64]
0.14477794 0.58245236 0.2991397 -0.32562718 -0.4698328 0.2307382 -0.29528275 0.47294846
0.0697352 -0.5046275 0.028518574 0.31682813 -0.5581984 -0.1555015 -0.25698575 0.12865275
0.23636308 -0.4052175 -0.2166883 -0.33534023 0.116257966 0.5286724 0.4111613 0.11611941
0.3856694 0.18585405 -0.13217871 0.08210834 -0.4440735 -0.22636852 -0.35148293 0.52789706
0.023218973 -0.27396473 0.1960162 -0.026625872 0.38500905 0.235598 -0.27681965 -0.030448904
0.099988766 0.22030532 -0.46264794 -0.37763867 -0.3453205 0.5013521 0.016127175 -0.24972904
0.35286173 0.21581797 -0.20253697 0.31341198 0.103840426 -0.41547444 -0.38350347 0.43225697
0.028371114 0.25325254 -0.33029756 0.458779 0.5555795 -0.17962107 -0.41869438 0.11128138
00000000: ab40 143e 991b 153f d728 993e 9bb8 a6be
00000010: ed8d f0be a246 6c3e 4d2f 97be 4d26 f23e
00000020: 54d1 8e3d 452f 01bf c99f e93c 4c37 a23e
00000030: 17e6 0ebf c93b 1fbe a393 83be 8cbd 033e
00000040: 2a09 723e ab78 cfbe 8ae3 5dbe b7b1 abbe
00000050: a818 ee3d 1357 073f bc83 d23e 03d0 ed3d
00000060: 7676 c53e 8650 3e3e db59 07be 6b28 a83d
00000070: 9a5d e3be 26cd 67be 92f5 b3be 4324 073f
00000080: b735 be3c 1b45 8cbe 79b8 483e 801e dabc
00000090: e81f c53e 9a40 713e 4ebb 8dbe fb6f f9bc
000000a0: e9c6 cc3d b897 613e 31e0 ecbe db59 c1be
000000b0: d9cd b0be 9c58 003f 231d 843c f8b8 7fbe
000000c0: 4baa b43e 63ff 5c3e da65 4fbe 8977 a03e
000000d0: 4aaa d43d 11b9 d4be 915a c4be c950 dd3e
000000e0: 8a6a e83c 51aa 813e c31c a9be 15e5 ea3e
000000f0: 753a 0e3f 96ee 37be 1c5f d6be 7ee7 e33d

weight f4 [1, 64]
1.8610637 2.1161652 -0.63239664 -1.7238139 -1.1672474 1.4688562 -1.3610743 1.702777
1.1622715 1.0492456 1.5750364 1.3000852 -2.5304942 -1.316288 -1.5462196 -0.11182497
1.9323485 -0.7769968 -1.8497546 1.6634436 1.1323986 1.5623658 2.2485008 1.327182
1.2223302 0.918854 1.3625207 1.0744172 -2.5062087 -2.1214478 -1.5827378 1.7856958
-0.9531265 -1.8504531 1.5845591 -1.6300627 1.0038291 0.71441793 -0.9029921 -1.5391736
1.5655187 1.8312209 -1.4418428 -1.6664553 0.59357905 1.7105347 -1.4446094 -1.5976099
1.6543883 0.87712926 -1.7628199 1.6441618 0.53032386 -1.5299087 -1.5780213 1.7696645
1.6284665 1.5887381 -1.4260111 2.294012 1.6056451 -0.9937414 -1.0994161 1.5494195
00000000: 5637 ee3f 406f 0740 bfe4 21bf efa5 dcbf
00000010: 5d68 95bf 7b03 bc3f af37 aebf 99f4 d93f
00000020: 50c5 943f ae4d 863f cb9a c93f 3169 a63f
00000030: 9ef3 21c0 207c a8bf 86ea c5bf 7d04 e5bd
00000040: 3257 f73f 43e9 46bf c2c4 ecbf b8eb d43f
00000050: 70f2 903f 9afb c73f 70e7 0f40 1ae1 a93f
00000060: 5175 9c3f 043a 6b3f 1467 ae3f 8186 893f
00000070: b965 20c0 cdc5 07c0 2797 cabf ae91 e43f
00000080: 1900 74bf a6db ecbf d5d2 ca3f e5a5 d0bf
00000090: 797d 803f 18e4 363f 7e2a 67bf a403 c5bf
000000a0: eb62 c83f 7265 ea3f 4e8e b8bf 684e d5bf
000000b0: ccf4 173f cdf2 da3f f6e8 b8bf 7b7e ccbf
000000c0: ffc2 d33f 8b8b 603f 15a4 e1bf e573 d23f
000000d0: 4ec3 073f 0cd4 c3bf 9afc c9bf 5e84 e23f
000000e0: 9771 d03f c55b cb3f 8887 b6bf 18d1 1240
000000f0: c785 cd3f d665 7ebf abb9 8cbf 6153 c63f
