data/1008CartPole-v0_dqn_double/1008CartPole-v0_dqn_double_s20/pyt_save/model.pt (torch, 72599 bytes, 6 tensors)

weight f4 [128, 4]
0	0x3dd331d2	0.10312237
1	0xbdb866ad	-0.09003959
2	0xbf6cc1a7	-0.9248299
3	0x3e126c39	0.14299096
4	0x3eaf6f92	0.3426481
5	0xbe0c02b7	-0.1367291
6	0xbf549c1c	-0.83050704
7	0xbe22b4c5	-0.1588927
8	0xbdd8e165	-0.105898656
9	0x3e1e9ca6	0.15489444
10	0x3e95654e	0.29178852
11	0xbe856313	-0.2605215
12	0x3e439935	0.19101413
13	0xbe95b0f0	-0.29236555
14	0x3ee8ce47	0.45469877
15	0xbe7a6bb0	-0.24455142
16	0xbea1f4dd	-0.31632128
17	0xbe0b354b	-0.13594548
18	0xbe1b3367	-0.15156327
19	0xbd653102	-0.05595494
20	0xbdedfd99	-0.116206355
21	0x3eb4e8cf	0.3533387
22	0xbe50bf01	-0.20385362
23	0x3ecacd0d	0.39609566
24	0xbeb8a7f8	-0.3606565
25	0xbee33494	-0.4437605
26	0xbf50fd69	-0.81636673
27	0xbe89856e	-0.2685961
28	0x3e4dcd64	0.20097882
29	0xbd320455	-0.043461163
30	0xbe8a4887	-0.2700846
31	0x3e2fc7d6	0.17166075
32	0xbd9960a0	-0.07489133
33	0xbe99490f	-0.29938552
34	0xbe244fab	-0.16046016
35	0xbea9a6ec	-0.33135164
36	0xbe8aae6e	-0.27086204
37	0xbe8d7fd8	-0.276366
38	0xbdf15cc8	-0.11785275
39	0xbde8a66c	-0.113598675
40	0x3eca5d25	0.3952419
41	0xbd6cb868	-0.05779305
42	0x3ed1624b	0.40895304
43	0x3ae3e064	0.0017385599
44	0xbce96e8f	-0.028495101
45	0x3db13c68	0.086541
46	0xbeaf62d9	-0.34255102
47	0xbdbf1ffe	-0.09332274
48	0x3c8ccc3f	0.017187236
49	0xbdba54e4	-0.09098223
50	0xbee9eb41	-0.45687297
51	0x3d9ec908	0.077531874
52	0xbe6685eb	-0.22512023
53	0x3e1dcf20	0.15411043
54	0x3e952fa7	0.29137918
55	0x3e5265c2	0.2054663
56	0x3e120583	0.14259915
57	0x3e17bbbd	0.1481771
58	0xbef074f7	-0.46964237
59	0x3e30eadb	0.1727709
60	0xbd06495f	-0.032784816
61	0xbec776bb	-0.38957772
62	0x3f408eed	0.7521809
63	0xbe9c0d3a	-0.3047884
64	0xbe589e6e	-0.21154186
65	0x3e0045fc	0.12526697
66	0x3ffef4d4	1.9918466
67	0x3e8ff68c	0.28117788
68	0x3e9888b7	0.29791805
69	0x3efb8d92	0.49131447
70	0xbef7e2c0	-0.48415184
71	0x3e5cb5d6	0.2155374
72	0xbf086906	-0.53285253
73	0x3e369783	0.17831235
74	0x3d869942	0.065722
75	0x3d4a458b	0.049382728
76	0xbe05a417	-0.13050877
77	0x3e5c70b1	0.21527363
78	0xbf6082e7	-0.8769974
79	0xbdb4437e	-0.088019356
80	0xbedcf64a	-0.43156654
81	0x3e468c61	0.19389488
82	0xbf5406cd	-0.8282288
83	0xbecec93c	-0.40387905
84	0x3de23d5d	0.1104686
85	0x3cf4d0b8	0.029884681
86	0x3ec05748	0.3756659
87	0x3eada237	0.33912823
88	0xbf2e6eee	-0.68138015
89	0xbd7895e2	-0.060689814
90	0x3ebc92f2	0.3683086
91	0x3ddb896c	0.107195705
92	0x3f082d59	0.53194195
93	0xbe9fa51f	-0.31180665
94	0xbeb61f6f	-0.35570857
95	0x3e27c4dc	0.1638369
96	0x3e48a95d	0.19595857
97	0xbe9fed83	-0.31235895
98	0xbf121e12	-0.57077134
99	0xbe5a6832	-0.2132881
100	0x3e8b73b9	0.27236727
101	0x3ea09543	0.31363878
102	0x3fa3e86a	1.2805302
103	0x3eb9c4fa	0.36283094
104	0x3e4018ac	0.18759412
105	0x3f0fee67	0.5622315
106	0x3ed69383	0.41909418
107	0x3eb5e239	0.35524157
108	0xbe9d9387	-0.30776617
109	0x3f1757cf	0.5911836
110	0x3e6fd539	0.23421182
111	0x3effe4b6	0.4997918
112	0xbeabe145	-0.33570305
113	0xbdf67637	-0.120342664
114	0xbfb59415	-1.4185816
115	0xbe8a2cb8	-0.26987243
116	0xbeb4d780	-0.35320663
117	0xbe50aeed	-0.20379229
118	0xbe8a209c	-0.26978004
119	0xbdaecd85	-0.085352935
120	0xbd9fbac3	-0.07799294
121	0x3f0414cd	0.5159424
122	0x3fab89c7	1.3401421
123	0x3f0b98a0	0.5452976
124	0x3e2b1dd2	0.16710594
125	0x3bce4a66	0.00629549
126	0xbfe1d7c9	-1.7643977
127	0xbe27bd60	-0.16380835
128	0xbee90996	-0.45515126
129	0x3e12b000	0.14324951
130	0x3e361231	0.17780377
131	0x3d9a485d	0.075333335
132	0xbde78d46	-0.11306243
133	0xbd914943	-0.07094052
134	0x3f100077	0.5625071
135	0xbe82aba7	-0.25521585
136	0xbdebc0e2	-0.11511399
137	0xbe93c6a7	-0.28862497
138	0x3fbaaa8a	1.4583294
139	0x3dc72f2d	0.09725795
140	0x3f154eef	0.5832357
141	0x3e603112	0.21893719
142	0x3cab8f58	0.020942375
143	0x3c81a125	0.01582391
144	0xbe67a15b	-0.22620146
145	0x3d2effb6	0.042724334
146	0xbdafbf9e	-0.0858147
147	0x3dd8516a	0.105624035
148	0x3ed2e05f	0.41186807
149	0x3e008b10	0.12553048
150	0x3f4120aa	0.75440466
151	0x3de3b493	0.11118426
152	0xbe397d12	-0.18114117
153	0xbe890939	-0.2676485
154	0x3e28cf25	0.1648527
155	0xbda61df8	-0.08111185
156	0xbdd60676	-0.10450451
157	0x3d5f96e6	0.054587267
158	0xbeba3a46	-0.36372584
159	0xbd3a2288	-0.045443088
160	0x3f09915f	0.53737444
161	0x3e011d12	0.12608746
162	0xbe549904	-0.20761496
163	0x3cf41e17	0.029799504
164	0xbe8645e2	-0.2622519
165	0x3c9d7682	0.019221548
166	0xbe70c87f	-0.23513983
167	0x3e5b0794	0.2138961
168	0xbee45402	-0.44595343
169	0xbf084b7f	-0.532402
170	0xbeea66f2	-0.45781666
171	0xbee291eb	-0.44251952
172	0xbead8e68	-0.3389771
173	0xbe6d5a7f	-0.23179053
174	0x3edbc59f	0.4292421
175	0xbdd24227	-0.10266524
176	0x3efc396f	0.49262568
177	0x3ecbc305	0.39797226
178	0x3f415e12	0.75534165
179	0x3ea2bfad	0.31786862
180	0x3eb5d7e8	0.35516286
181	0xbead16a1	-0.33806327
182	0xbecd04af	-0.40042636
183	0x3e0d20fc	0.13782114
184	0x3f1833f7	0.5945429
185	0x3e31587b	0.17318909
186	0xbe251550	-0.16121411
187	0x3df1ec75	0.11812679
188	0x3e50bc31	0.2038429
189	0xbe156f34	-0.14593202
190	0x3f1d376e	0.61412704
191	0x3e6720c8	0.22571099
192	0xbe1f149c	-0.15535206
193	0x3e837e2c	0.256822
194	0xbebd2a19	-0.3694618
195	0x3e662a04	0.22476965
196	0x3eafb6d3	0.3431917
197	0xbea26df1	-0.31724504
198	0xbf724f4e	-0.9465226
199	0xbe9fff4b	-0.3124946
200	0xbe94e79b	-0.2908295
201	0xbeb157bf	-0.34637257
202	0xbf6b3634	-0.9187958
203	0xbe9e2e6c	-0.30894792
204	0x3f0cefc2	0.5505334
205	0x3e1a4433	0.15065078
206	0x3dbc13a5	0.091834344
207	0x3d6b1a3f	0.057398077
208	0x3f04b9f7	0.5184626
209	0xbeadca44	-0.3394338
210	0xbe680645	-0.22658642
211	0xbe6ce9fe	-0.23136136
212	0xbe30a65f	-0.17250966
213	0xbcd51f61	-0.02601594
214	0xbe8248fd	-0.2544631
215	0xbe3dbfb5	-0.18530162
216	0xb982af5f	-0.00024926194
217	0x3e92dd47	0.28684446
218	0x3f5d8144	0.8652537
219	0x3e99a152	0.3000589
220	0x3f015863	0.5052549
221	0x3ed305f6	0.41215485
222	0x3f2c57e7	0.6732163
223	0x3e70751a	0.2348217
224	0xbe075703	-0.13216786
225	0x3ea539c5	0.32270637
226	0x3d1ac4aa	0.03778521
227	0x3e00586a	0.12533727
228	0x3e9946f2	0.2993694
229	0xbd389f78	-0.045073956
230	0xbfd18073	-1.6367325
231	0xbeb73373	-0.3578144
232	0x3d2e8800	0.04261017
233	0xbe5e7bf6	-0.21726975
234	0xbe50a0bc	-0.20373815
235	0xbdb10af0	-0.08644664
236	0xbd84840e	-0.064705
237	0x3e13a7d0	0.14419484
238	0xbe729e25	-0.2369314
239	0x3deae250	0.11468947
240	0x3f14fbf0	0.58196926
241	0x3e1a52b1	0.15070607
242	0xbfa33718	-1.2751188
243	0xbe9e2ef3	-0.30895194
244	0x3ec27c2d	0.37985364
245	0x3e1f34dc	0.15547508
246	0xbed7cfdf	-0.4215078
247	0xbd7240e5	-0.05914392
248	0xbe076fe5	-0.13226278
249	0xbe7c1b69	-0.24619831
250	0x3ecfbb49	0.40572575
251	0xbde04c69	-0.10952074
252	0xbdf52cbb	-0.11971422
253	0xbd4416df	-0.047873374
254	0x3db13ce4	0.08654192
255	0xbe043c69	-0.1291367

bias f4 [128]
0	0x3eea0da3	0.4571353
1	0xbee920a2	-0.4553271
2	0xbf028f12	-0.5099956
3	0xbeb2d52e	-0.34928268
4	0xbe99b580	-0.30021286
5	0x3f0ff893	0.5623867
6	0xbe6222c1	-0.2208357
7	0x3f34514b	0.70436543
8	0xbf61a838	-0.88147306
9	0x3f09b834	0.53796697
10	0xbe83ff34	-0.25780642
11	0x3ea6a48e	0.3254742
12	0x3eab2894	0.33429396
13	0x3f20b82d	0.6278103
14	0x3f387851	0.7205859
15	0x3e4e9bef	0.20176671
16	0xbed65823	-0.41864118
17	0x3e2f15bd	0.17098136
18	0xbebd19ed	-0.36933842
19	0xbf27ed2e	-0.6559628
20	0xbefba94f	-0.4915261
21	0xbf150765	-0.5821441
22	0xbe845b19	-0.25850752
23	0x3ecc4221	0.39894202
24	0x3ecb04d8	0.39652133
25	0xbe880e04	-0.26573193
26	0xbe9e4c3b	-0.30917534
27	0xbdb11536	-0.08646624
28	0xbc28eb3c	-0.0103099905
29	0xbf0be7c1	-0.54650503
30	0xbf07b3c1	-0.5300866
31	0xbed4f673	-0.41594276
32	0xbf209190	-0.6272211
33	0x3efff1e3	0.49989232
34	0xbecf1c00	-0.4045105
35	0x3dfc2817	0.12312334
36	0x3efc2792	0.4924894
37	0xbe9b1084	-0.30286038
38	0x3e6238fd	0.22092052
39	0x3ea83702	0.32854468
40	0xbf09e8d9	-0.5387092
41	0x3f2a19c4	0.66445565
42	0xbe5f8bdb	-0.21830694
43	0x3eb23609	0.3480685
44	0xbed10f90	-0.40832186
45	0x3f1f9738	0.62340117
46	0x3f01cba0	0.5070133
47	0xbf4a3719	-0.7899032
48	0xbecf221f	-0.4045572
49	0xbf15c07f	-0.5849685
50	0xbf099368	-0.5374055
51	0xbed646ea	-0.41850978
52	0xbf22b363	-0.6355497
53	0x3f33a156	0.70168054
54	0xbf0cc117	-0.5498213
55	0x3ea29295	0.31752458
56	0x3f1c7d45	0.61128646
57	0xbf0e400d	-0.55566484
58	0xbf0f8c55	-0.56073505
59	0xbe7d0dc4	-0.24712282
60	0xbe1faa26	-0.1559225
61	0x3f26622c	0.6499355
62	0x3f3e5718	0.74351645
63	0x3f010c45	0.50409347
64	0xbf06a813	-0.5260021
65	0xbf2d9ce8	-0.67817545
66	0xbf358503	-0.70906085
67	0xbf1a3816	-0.6024183
68	0x3f3682ab	0.71293133
69	0xbebd73d8	-0.37002444
70	0xbf02155d	-0.5081385
71	0x3f303a1d	0.68838674
72	0x3d2e6c04	0.04258348
73	0xbf6190c7	-0.8811154
74	0xbf3ede74	-0.74558187
75	0x3edcdd22	0.4313746
76	0x3e8ac42a	0.27102786
77	0x3f1d32ba	0.6140553
78	0x3f148f24	0.58030915
79	0x3edf3464	0.43594658
80	0x3ea16d79	0.31528834
81	0xbeddb571	-0.4330249
82	0x3ec54bd7	0.38534424
83	0x3f1e95f5	0.61947566
84	0xbe9fd2cf	-0.31215522
85	0x3f22b359	0.6355491
86	0xbeee5f6d	-0.4655718
87	0xbf13bf87	-0.5771412
88	0x3e71b228	0.23603117
89	0xbf1f0673	-0.62119216
90	0x3f2b796e	0.6698216
91	0x3f174995	0.5909665
92	0xbf250d2f	-0.6447324
93	0x3efac229	0.48976257
94	0xbed47e7b	-0.41502747
95	0xbf6bfd38	-0.92183256
96	0x3e05ff8c	0.13085765
97	0xbee5d722	-0.44890696
98	0x3e3c5dce	0.18395159
99	0x3f1cf945	0.61317855
100	0x3f0e8ccc	0.5568359
101	0x3f3f415d	0.7470911
102	0x3f00c2f1	0.50297457
103	0xbebaa871	-0.36456636
104	0x3f0ea3c7	0.55718654
105	0x3f3a6076	0.7280344
106	0xbedee42b	-0.43533453
107	0xbee28026	-0.44238394
108	0xbf02cbe6	-0.51092374
109	0x3f3d1527	0.738604
110	0xbcf67322	-0.030084196
111	0x3ec3ec6c	0.38266313
112	0x3f16d29e	0.58915126
113	0xbf05282f	-0.5201444
114	0x3f326a1e	0.6969317
115	0x3ef02838	0.46905684
116	0x3f4c178e	0.7972344
117	0x3f1cd839	0.6126743
118	0xbf25feb1	-0.64841753
119	0x3ec4c776	0.38433427
120	0xbf2c2acb	-0.67252797
121	0xbec5f152	-0.38660675
122	0xbe7100ef	-0.23535512
123	0xbef6dd5e	-0.48215765
124	0xbf08109c	-0.53150344
125	0x3e90ed74	0.28306162
126	0xbf04c457	-0.5186209
127	0xbead5228	-0.33851743

weight f4 [128, 128]
0	0x3e713ca7	0.23558293
1	0x3e01aa15	0.12662537
2	0xbb96eeae	-0.0046060896
3	0xbbfebdd0	-0.0077740923
4	0xbd37eba1	-0.044902448
5	0x3e851195	0.25989977
6	0x3deb8657	0.11500233
7	0x3e8acf46	0.27111262
8	0xbe299536	-0.16560826
9	0x3e2efa0a	0.1708757
10	0x3cd6cd97	0.02622108
11	0x3dc7d6a2	0.09757735
12	0x3e3cbd45	0.18431576
13	0x3e9b1dba	0.30296117
14	0x3e9a96b8	0.30193114
15	0x3dc42c79	0.09578795
16	0xbf2d90bd	-0.6779898
17	0x3dc3d8bc	0.09562823
18	0xbe67d07d	-0.22638126
19	0xbec4a7d7	-0.38409302
20	0xbd9a730e	-0.07541476
21	0xbf3a82c4	-0.7285578
22	0xbebb163e	-0.36540407
23	0x3e19a5be	0.15004632
24	0x3eac5d82	0.3366509
25	0xbcf9bd5d	-0.030485803
26	0x3cde63d4	0.027147211
27	0x3e71fc9e	0.23631522
28	0xbd968207	-0.073490195
29	0xbe4936c7	-0.19649802
30	0xbf1ab831	-0.60437304
31	0xc0040229	-2.0626318
32	0xbef5f2c5	-0.4803678
33	0x3e905de6	0.2819664
34	0xbe5f94fb	-0.21834175
35	0x3df9a13d	0.12188957
36	0x3e765fd9	0.2406
37	0xbe794c3b	-0.24345486
38	0x3de97b1e	0.11400436
39	0x3e7ff08e	0.24994108
40	0xbe05075c	-0.12991089
41	0x3e8bfe8a	0.27342635
42	0xbe5c93a0	-0.2154069
43	0x3e0e4788	0.13894475
44	0xbeb69eda	-0.3566807
45	0x3e0f3b81	0.13987543
46	0x3d96fb17	0.0737211
47	0xbeef6801	-0.46759036
48	0x3ca5c3a8	0.020234898
49	0xbe5307be	-0.20608422
50	0xbe583a03	-0.2111588
51	0xbe5362a6	-0.206431
52	0xbed4500a	-0.41467315
53	0x3e71069b	0.23537676
54	0xbf65ffb9	-0.89843327
55	0x3e62d599	0.22151794
56	0x3eaa1c8d	0.33224908
57	0xbf83da0d	-1.0300919
58	0xbd73d1ba	-0.059526183
59	0xbd443957	-0.047906246
60	0xbd35782f	-0.04430407
61	0x3e87bfd6	0.26513547
62	0x3ea9e0f3	0.33179435
63	0x3e976ff7	0.2957761
64	0xbe67e63d	-0.22646423
65	0xbe9049b9	-0.28181246
66	0xbf03e097	-0.5151457
67	0xbf15d37f	-0.5852584
68	0x3e92ff2b	0.28710303
69	0x3ce77f07	0.028258814
70	0xbdc15d82	-0.09441663
71	0x3e588be9	0.21147121
72	0x3cab0232	0.02087507
73	0xbef6accc	-0.4817871
74	0x3b6080cf	0.0034256463
75	0x3e7b0178	0.24512279
76	0x3e507eb0	0.20360827
77	0x3e88bbd9	0.26705816
78	0x3e4dde04	0.20104223
79	0x3e9404ce	0.28909916
80	0x3dab3e55	0.08361498
81	0xbf25aae7	-0.647139
82	0x3deec42b	0.1165851
83	0x3e731670	0.23739028
84	0xbd9b7a74	-0.075917155
85	0x3e8a9cbd	0.27072707
86	0xbe2a043b	-0.16603176
87	0xbd1fd1ec	-0.039018556
88	0x3d399508	0.045308143
89	0x3e1e9f0b	0.15490358
90	0x3e7bb6c7	0.24581443
91	0x3e41cbc5	0.18925388
92	0xbf2223c2	-0.6333581
93	0x3e5eb38c	0.21748179
94	0x3dd40ab4	0.10353604
95	0xbec218dd	-0.37909594
96	0x3d894a70	0.06703651
97	0xbf9cc8db	-1.2248796
98	0x3e30513b	0.17218487
99	0x3eb52828	0.353822
100	0x3e5c945e	0.21540973
101	0x3e939be3	0.2882987
102	0x3dacc62b	0.08436235
103	0xbe934c7c	-0.2876929
104	0x3e5368c0	0.20645428
105	0x3e5a3033	0.21307449
106	0xbed56154	-0.41675818
107	0xbe7dab2e	-0.24772331
108	0xbff6b002	-1.9272463
109	0x3e2c0fc8	0.16802895
110	0xbea6fe4c	-0.32615888
111	0x3df08b73	0.11745348
112	0x3e5ee5d9	0.21767367
113	0xbee34d96	-0.4439513
114	0x3e9a175f	0.30095956
115	0x3e6b2679	0.22963895
116	0x3eb4920e	0.3526768
117	0x3e3c9b42	0.18418601
118	0xbf8c1c95	-1.0946223
119	0x3e236868	0.15957797
120	0xbe308f8a	-0.17242256
121	0xbfa22d64	-1.2670102
122	0xbd1f21ff	-0.03885078
123	0xbdaa5a83	-0.08318045
124	0xbf0f7ed4	-0.560529
125	0x3e58c05e	0.21167132
126	0xbead08d3	-0.33795795
127	0xbe74671d	-0.2386746
128	0xbda87ef0	-0.082273364
129	0x3c4ac70a	0.012376556
130	0x3c0bc7d6	0.008531531
131	0x3d9ff939	0.07811207
132	0x3cdbe9b8	0.026844844
133	0xbd01e1f3	-0.031709623
134	0x3d6e0eca	0.058119573
135	0xbd0db8cf	-0.034600075
136	0x3d960fa5	0.07327203
137	0xbdcfac94	-0.101403385
138	0x3ce7fb1d	0.028317982
139	0x3b855977	0.004069503
140	0x3d8abf14	0.067747265
141	0x3c5f954a	0.013646433
142	0x3d16b29e	0.036791436
143	0x3d012176	0.03152605
144	0xbbc247b0	-0.005928956
145	0xbd65b931	-0.056084815
146	0x3d243b9e	0.040095918
147	0xbcbe4f1c	-0.023231082
148	0xbda0ec10	-0.07857525
149	0x3cf08c94	0.029363908
150	0x3d0824e8	0.03323832
151	0xbdbea274	-0.09308329
152	0x3d54536d	0.051837374
153	0xbc26c7e0	-0.01017949
154	0xbd6a08dd	-0.05713736
155	0xbc91c30d	-0.017793203
156	0xbc6eba3e	-0.014570771
157	0x3cf1f016	0.029533427
158	0xbd92641a	-0.07147999
159	0x3d82b31d	0.063818194
160	0x3cdf9e97	0.027297301
161	0xbd52724e	-0.05137854
162	0x3da4a9f7	0.08040231
163	0x3d8d08f3	0.068864726
164	0x3af93c22	0.0019015113
165	0x3c7961db	0.0152210845
166	0xbd55cb3b	-0.05219577
167	0xbd31645e	-0.04330861
168	0xbc892824	-0.016742773
169	0xbda6def6	-0.08147995
170	0x3ce0e764	0.027454086
171	0xbd9562d4	-0.072942406
172	0x3a81a340	0.0009890571
173	0x3d1eaf53	0.03874142
174	0xbcdd57a2	-0.027019326
175	0x3cfa0e20	0.030524313
176	0x3d731a0e	0.05935102
177	0x391d5a00	0.00015006214
178	0xbd25b0a1	-0.04045165
179	0x3d562537	0.052281585
180	0xbd918030	-0.07104528
181	0x3cd23010	0.025657684
182	0xbc0d6ad0	-0.008631423
183	0x3c7a3dec	0.015273552
184	0xbd0b3dfe	-0.033994667
185	0x3d2368cb	0.03989486
186	0xbcee33b2	-0.029077385
187	0xbd97884c	-0.073990434
188	0x3cad647e	0.021166082
189	0xbb7966aa	-0.0038055577
190	0x3d8f66db	0.0700204
191	0xbbd51599	-0.006502819
192	0xbc1c24b9	-0.00953024
193	0xbc7f3cc8	-0.015578456
194	0xbd111178	-0.03541705
195	0xbdbe4a5f	-0.09291529
196	0x3c5060fe	0.012718437
197	0xbcb6a086	-0.02229334
198	0xbc141dac	-0.009040277
199	0xbd6905bc	-0.056890234
200	0x3cd64180	0.02615428
201	0xbd14d8a0	-0.036339402
202	0x3c3835d8	0.011243306
203	0xbd8d5edf	-0.06902861
204	0x3d1185a1	0.03552783
205	0xbcb42818	-0.021991774
206	0xbc4f309d	-0.012645868
207	0xbd64078f	-0.05567127
208	0xbd235b2f	-0.03988188
209	0xbdb7b188	-0.08969408
210	0xbb801612	-0.003908881
211	0x3c4b6385	0.012413864
212	0xbd6d2fcd	-0.057906915
213	0x3d3d355f	0.046193477
214	0xbcf5422c	-0.02993878
215	0xbd0ca26f	-0.034334596
216	0x3b822d8b	0.0039727143
217	0x3d8e0640	0.06934786
218	0xbc0bec87	-0.008540279
219	0xbd9f1722	-0.07768084
220	0x3d958833	0.073013686
221	0x3cf509d6	0.029911917
222	0x39ffce13	0.00048790927
223	0xbc5e3a50	-0.0135637075
224	0x391b4dfa	0.00014811
225	0x3a8fe243	0.0010977465
226	0x3d2864f5	0.041111905
227	0xbda39523	-0.0798743
228	0xbaa5cbce	-0.001264924
229	0xbd95ff50	-0.073240876
230	0xbcd557df	-0.026042877
231	0x3d45c092	0.048279352
232	0xbc46ebfb	-0.012141223
233	0xbbc89808	-0.006121639
234	0xbd106a36	-0.03525754
235	0x3c2f0c2b	0.010684053
236	0xbda953b5	-0.08267919
237	0x3bdff28b	0.0068343333
238	0xbda1aa32	-0.0789379
239	0xbc3d16d0	-0.011541083
240	0x3d50925c	0.05092083
241	0xbdb8f46e	-0.09030996
242	0x3cccc6df	0.024997173
243	0x3c82573d	0.01591074
244	0xbd8a8676	-0.06763928
245	0x3d31f2ce	0.043444447
246	0x3d6b1f82	0.057403095
247	0x3d50e309	0.050997768
248	0x3d6d4dba	0.057935454
249	0x3c7e29b2	0.015512871
250	0xbad4d240	-0.0016236976
251	0xbd132a5d	-0.035929073
252	0x3cd21768	0.025645927
253	0xbd0dca22	-0.034616597
254	0x3d1a20ee	0.03762906
255	0x3c834ead	0.016028726

bias f4 [128]
0	0x3eb572aa	0.35439044
1	0xbd4fad72	-0.05070252
2	0xbccdf345	-0.025140414
3	0xbdbbdf1c	-0.09173414
4	0x3cbf397c	0.02334284
5	0x3e91cf36	0.28478402
6	0xbc3a6bca	-0.011378238
7	0xbb4d3d60	-0.00313171
8	0x3eb659dc	0.35615432
9	0x3ebe5f5d	0.3718213
10	0xbd932e4b	-0.07186564
11	0x3eb0cb3a	0.3453005
12	0x3e2c9ad0	0.16855931
13	0x3d54964e	0.051901154
14	0x3ec8351c	0.3910302
15	0x3e7a82e8	0.24464
16	0x3eb9f805	0.36322036
17	0xbbd45b09	-0.006480579
18	0x3ea9549a	0.33072358
19	0xbd58aa4f	-0.052896794
20	0x3eaa83d2	0.33303696
21	0xbca8f96b	-0.020626744
22	0xbcf7783a	-0.030208696
23	0xbcf7b68c	-0.030238412
24	0xbd74bcba	-0.059750296
25	0x3d23fa27	0.040033486
26	0x3e9f7fcc	0.3115219
27	0x3c15b635	0.00913768
28	0x3ce45a87	0.027875198
29	0x3aaa1a65	0.0012977837
30	0x3e7708aa	0.24124399
31	0xbd3e6d68	-0.046491057
32	0xbcaffff1	-0.021484347
33	0xbce45496	-0.027872365
34	0x3d6e242b	0.05813996
35	0x3e87eb19	0.26546553
36	0x3b8966ef	0.004193179
37	0xbc85f61a	-0.016352702
38	0x3e991b02	0.29903418
39	0x3e47fd13	0.19530134
40	0xbd6f51e8	-0.05842772
41	0xbd10a26d	-0.03531115
42	0x3e8c818c	0.27442586
43	0x3e585051	0.21124388
44	0xbe0be9db	-0.13663428
45	0xbdaf4394	-0.085578114
46	0x3eb326bb	0.34990487
47	0xbda20355	-0.07910792
48	0xbd2133e4	-0.039356127
49	0x3d822580	0.06354809
50	0x3ea14f3a	0.31505758
51	0x3e695362	0.22785714
52	0xbd3d6304	-0.046237007
53	0x3ec7da9a	0.39033967
54	0x3c770b09	0.015078315
55	0x3cb1cecb	0.021705052
56	0x3e90fdc7	0.28318617
57	0xbc0d97a9	-0.008642116
58	0x3eafa9d2	0.3430925
59	0xbc9c2b72	-0.019063685
60	0x3ed05314	0.40688384
61	0xbcc8ef2c	-0.024528109
62	0x3c94f83b	0.018184772
63	0x3c7e5dc2	0.015525283
64	0x3e8e9b00	0.2785263
65	0x3eb9ac90	0.36264467
66	0x3d1515ed	0.036397863
67	0xbdc213ab	-0.094764076
68	0xbdba4fd2	-0.09097256
69	0x3ea48dfb	0.32139573
70	0x3ebbebc4	0.36703312
71	0xbd23a172	-0.039948888
72	0x3e9d119e	0.30677503
73	0x3c8d9198	0.017281339
74	0x3eabaa43	0.33528337
75	0xbded8a15	-0.11598603
76	0xbd84634d	-0.064642526
77	0xbccd7752	-0.02508131
78	0x3e813c39	0.2524126
79	0xbe21c4bb	-0.15797703
80	0xbda06e53	-0.07833543
81	0xbd4e806c	-0.05041544
82	0xbd7d7890	-0.061882555
83	0x3d45a93e	0.048257105
84	0xbdb1202e	-0.08648716
85	0x3eaf04f9	0.3418348
86	0x3ea22645	0.31669822
87	0xbc34d471	-0.011036978
88	0x3e163194	0.1466735
89	0x3d1d4ec9	0.038405214
90	0x3d40681c	0.046974286
91	0x3cc78ef0	0.02436015
92	0x3eb9d72c	0.36296976
93	0x3cbc782c	0.023006521
94	0xbd5f34d9	-0.05449376
95	0x3eaa195b	0.3322247
96	0x3e9a1948	0.30097413
97	0x3d891a6f	0.06694495
98	0xbc8b29e4	-0.016987748
99	0x3ecafa3e	0.39644045
100	0xbd9657c0	-0.07340956
101	0x3e81b1b7	0.25330898
102	0xbdbcec4c	-0.092247576
103	0x3e88e4be	0.26737016
104	0xbdaab20e	-0.083347425
105	0x3e9a7255	0.30165353
106	0x3d7ac59a	0.061223604
107	0x3e8ebd90	0.27879
108	0x3ec3c420	0.3823557
109	0xbc29a6f8	-0.01035475
110	0xbd69ee7a	-0.057112195
111	0x3eb0f241	0.34559825
112	0x3eb36b05	0.35042587
113	0xbd317f49	-0.04333428
114	0xbcf8c64e	-0.030367997
115	0x3e82392c	0.25434244
116	0xbdcc9c45	-0.099907435
117	0xbc7886d7	-0.015168867
118	0x3e8efe1f	0.27928254
119	0x3e8bf8ec	0.2733835
120	0x3e81fc27	0.2538769
121	0xbb817656	-0.0039508743
122	0x3eb0783a	0.34466726
123	0xbde0615f	-0.10956072
124	0x3c7a0714	0.015260477
125	0xbd577777	-0.052604165
126	0x3e8a5ab4	0.27022326
127	0x3ea9203e	0.3303241

weight f4 [2, 128]
0	0x3eaf72ab	0.34267172
1	0xbd5b34bb	-0.053517085
2	0xbd458e8f	-0.048231658
3	0xba943c40	-0.001130946
4	0x3d0abf5f	0.033873912
5	0x3e82f694	0.2557875
6	0x3d1636f9	0.03667352
7	0xbd3e3518	-0.046437353
8	0x3eab692a	0.3347867
9	0x3ea00546	0.31254023
10	0x3d57957b	0.05263279
11	0x3ea611e5	0.32435527
12	0x3e380a15	0.17972596
13	0xbd8366d9	-0.06416101
14	0x3ec10be0	0.37704372
15	0x3e870ec0	0.2637844
16	0x3ea420c6	0.32056254
17	0x3ba4139b	0.00500722
18	0x3e8e9435	0.27847448
19	0xbcdf662d	-0.0272704
20	0x3eb1bec4	0.34715855
21	0xbc1da41c	-0.009621646
22	0x3d1f5920	0.038903356
23	0x3c146958	0.009058319
24	0xbd93927b	-0.07205673
25	0xbd35d956	-0.04439672
26	0x3ebece41	0.37266734
27	0x3cd0a819	0.02547078
28	0x3cb0acda	0.021566797
29	0xbd195698	-0.037436098
30	0x3e86b973	0.26313362
31	0xbd2414ff	-0.040059086
32	0x3cfc73b4	0.03081689
33	0x3c0d1608	0.00861121
34	0x3c87021c	0.016480498
35	0x3eb70568	0.35746312
36	0x3d3cd4dc	0.046101436
37	0x3d4ad697	0.049521055
38	0x3e5b3e37	0.21410452
39	0x3eb8287d	0.3596839
40	0x3b9e45a0	0.0048300773
41	0xbcfa7218	-0.030571982
42	0x3ec8169a	0.39079744
43	0x3eae69a0	0.3406496
44	0x3e99262b	0.29911932
45	0x3c370201	0.011169911
46	0x3e80e522	0.25174814
47	0xbd5a6b2a	-0.053324856
48	0x3d23e9a6	0.040017746
49	0xbd0e130d	-0.034686137
50	0x3e994bb0	0.29940557
51	0x3ead664a	0.33867103
52	0x3c6f7f60	0.014617771
53	0x3eac5f18	0.336663
54	0x3dbb61d2	0.09149517
55	0xbd865969	-0.065600224
56	0x3eab30ae	0.33435577
57	0xbe2277a9	-0.15865959
58	0x3ec44980	0.38337326
59	0xbc9494d0	-0.018137366
60	0x3ea14f38	0.31505752
61	0xbd83aad9	-0.06429071
62	0xbd884132	-0.0665306
63	0xbd618278	-0.055056065
64	0x3eb99088	0.3624308
65	0x3e9b28a9	0.3030446
66	0xbd53d0d9	-0.051712845
67	0x3cef226f	0.029191224
68	0x3b434e89	0.002980145
69	0x3e231060	0.15924215
70	0x3ec200b1	0.37891153
71	0x3cd32a81	0.025777103
72	0x3eb49a70	0.35274076
73	0xbc08fbab	-0.008360784
74	0x3ea03141	0.31287578
75	0xbef23118	-0.4730308
76	0xbd8bc69f	-0.06824993
77	0x3c93a0fc	0.0180211
78	0x3e66b8c8	0.22531426
79	0x3aa73b8d	0.0012758836
80	0xbd7dbff2	-0.06195063
81	0x3d1e95a6	0.038716935
82	0x3c94cf8c	0.018165372
83	0xbd2edaae	-0.042689018
84	0x3cc21cd2	0.023695383
85	0x3e8f9321	0.28041938
86	0x3e744531	0.2385452
87	0x3d40cc3e	0.04706978
88	0xbd321743	-0.043479215
89	0xbd0b279e	-0.03397333
90	0x3da3e35f	0.08002352
91	0xbda0d1f0	-0.078525424
92	0x3e9e3680	0.30900955
93	0x3d0ab0b3	0.03385992
94	0xbe77262c	-0.24135655
95	0x3ebdc25b	0.37062344
96	0x3e832756	0.25615948
97	0xbce00d8e	-0.027350213
98	0x3d9381d1	0.07202495
99	0x3e930f27	0.28722498
100	0xbd51eedb	-0.05125318
101	0x3ebfd201	0.37464908
102	0xbc6e5db6	-0.01454871
103	0x3e750fa7	0.23931752
104	0xbc19dbe5	-0.009390806
105	0x3eaa4ef7	0.3326337
106	0xbd9711ef	-0.073764674
107	0x3e3e1174	0.18561345
108	0x3ea64306	0.3247301
109	0xbd5dde7c	-0.054167256
110	0xbd64ce57	-0.055860844
111	0x3e867dd8	0.26267886
112	0x3e86725b	0.2625912
113	0xbc25365a	-0.010083759
114	0xbb479fa0	-0.0030460134
115	0x3e903971	0.28168824
116	0xbe444e2f	-0.1917045
117	0xbe45dddf	-0.19322918
118	0x3eb742f6	0.35793275
119	0x3e9cb69e	0.30608076
120	0x3eb9ebfc	0.36312854
121	0xbd8fc226	-0.07019453
122	0x3e929611	0.28630117
123	0x3d824cc1	0.06362296
124	0x3d360fe0	0.044448733
125	0xbc85e144	-0.016342767
126	0x3ea54cae	0.32285064
127	0x3ea406c0	0.320364
128	0x3e8aa1c7	0.2707655
129	0xbc51d581	-0.012807251
130	0x3cd56e18	0.026053473
131	0xbd87b1fb	-0.06625744
132	0xbd2527db	-0.040321212
133	0x3ec2f5fb	0.38078293
134	0xbd26ae96	-0.040693842
135	0xbcb8c1d0	-0.022553355
136	0x3e8fb7d2	0.2806993
137	0x3ea63dcd	0.32469025
138	0x3d66366e	0.056204252
139	0x3ea25401	0.31704715
140	0x3eb06642	0.34453017
141	0xbcbfa9a8	-0.023396328
142	0x3e69bf39	0.22826852
143	0x3ea34c32	0.3189407
144	0x3e8e71f8	0.27821326
145	0x3d00c0cc	0.031433865
146	0x3ebed501	0.37271884
147	0xbd5d52fd	-0.054034222
148	0x3e88e0a3	0.26733884
149	0xbcb6afbd	-0.022300595
150	0x3b884d36	0.004159595
151	0xbd37511e	-0.044755094
152	0x3d942cb5	0.0723509
153	0xbd92d7eb	-0.07170089
154	0x3e94d870	0.2907138
155	0xbd03ca1f	-0.03217518
156	0xbd16034a	-0.03662423
157	0x3cb9d367	0.022683812
158	0x3ebdf8e6	0.37103957
159	0x3cbadb4e	0.02280965
160	0xbbb5c77d	-0.0055474625
161	0xbd9fb4f8	-0.07798189
162	0x3d3fa137	0.046784606
163	0x3e9ddab4	0.3083092
164	0xbce40920	-0.027836382
165	0xbd7eee57	-0.062239017
166	0x3eb3e6d0	0.35137033
167	0x3e4bbef5	0.19897063
168	0xbd0d6c77	-0.03452727
169	0xbbbd652d	-0.0057798834
170	0x3e18620a	0.14881149
171	0x3e30273d	0.17202468
172	0xc024678f	-2.5688207
173	0xbc168f30	-0.009189412
174	0x3ead0d29	0.33799103
175	0x3c167f28	0.00918559
176	0xbd7c01df	-0.061525222
177	0x3d090fe4	0.03346242
178	0x3ebe6800	0.3718872
179	0x3db97b24	0.0905669
180	0xbcb73280	-0.022362947
181	0x3e89f4d5	0.26944605
182	0xbd8fafef	-0.070159785
183	0x3cc89972	0.02448723
184	0x3e808107	0.2509844
185	0x3d85d722	0.06535174
186	0x3e916549	0.28397587
187	0x3bf4e17f	0.0074731703
188	0x3ea04660	0.31303692
189	0xbd15b134	-0.036545947
190	0xbc845d35	-0.016157726
191	0x3d3c5bf3	0.045986127
192	0x3e800317	0.25002357
193	0x3ebec65a	0.37260705
194	0xbd427245	-0.047472257
195	0xbd3839b5	-0.04497691
196	0xbbd50ef9	-0.006502029
197	0x3eb30b77	0.34969684
198	0x3e423aa5	0.18967684
199	0xbd84bf83	-0.064818405
200	0x3eb2d595	0.34928575
201	0xbb612c43	-0.0034358657
202	0x3e856f01	0.26061252
203	0xbf31d0c4	-0.69459176
204	0x3d8a8d1d	0.067651965
205	0xbd47ff72	-0.048827596
206	0x3ebe3c06	0.3715517
207	0xbb8e8b8f	-0.004350133
208	0xbd5660cb	-0.052338403
209	0xbb7e1a31	-0.0038772936
210	0xbd3d48a6	-0.04621186
211	0x3c25f864	0.010130022
212	0xbd36a0ad	-0.044586826
213	0x3e9bae85	0.30406585
214	0x3ebe6423	0.37185773
215	0xbd5b80f5	-0.05358978
216	0x3ed17d59	0.40915945
217	0x3ca45fbe	0.020065185
218	0xbd34bf2a	-0.04412762
219	0xbd8907d4	-0.06690946
220	0x3e8b08f5	0.2715527
221	0xbcc1e76c	-0.02366992
222	0xbecc47d7	-0.3989856
223	0x3e73fc41	0.23826696
224	0x3ebd33d6	0.3695361
225	0x3c9a18f8	0.018810734
226	0xbd7163ce	-0.05893307
227	0x3eabee85	0.33580413
228	0x3bb6de75	0.005580718
229	0x3e8f7e7e	0.28026193
230	0x3cb8e9b6	0.02257238
231	0x3ebd1495	0.36929765
232	0xbd84850c	-0.06470689
233	0x3e3d2dfe	0.18474576
234	0x3d2827fe	0.041053765
235	0x3eb8676b	0.36016402
236	0x3eae85a5	0.34086338
237	0x3d4a39f6	0.049371682
238	0xbd08280c	-0.033241317
239	0x3ebc32a9	0.367574
240	0x3eb7bdc2	0.3588696
241	0x3b3b522d	0.0028582916
242	0xbd86442d	-0.06555972
243	0x3ea4ebbc	0.322111
244	0x3e1deb94	0.15421897
245	0xbe5ef83b	-0.2177438
246	0x3e6c8aeb	0.23099868
247	0x3e948d9f	0.29014298
248	0x3e66f656	0.22554907
249	0x3befe106	0.007320526
250	0x3ebda4e7	0.37039873
251	0xbcb2023e	-0.021729585
252	0xbd2dbee2	-0.04241837
253	0x3c0e5260	0.008686632
254	0x3eb538ca	0.3539489
255	0x3eb7f998	0.35932612

bias f4 [2]
0	0x3e953170	0.2913928
1	0x3eb373f5	0.35049406
