data/1008CartPole-v0_dqn_dueling_double/1008CartPole-v0_dqn_dueling_double_s0/pyt_save/model.pt (torch, 140807 bytes, 9 tensors)

weight f4 [128, 4]
000000 46 4b c6 3e 72 df 06 be f5 91 ba be cc 96 fb 3d
       0.38729304 -0.13171175 -0.3643948 0.122846216
000010 cb 9c 8c be fa e4 21 3d 91 0a e9 3e 0d 42 1f be
       -0.27463374 0.03952501 0.45515874 -0.1555254
000020 c8 8a 48 3e eb e6 31 be 83 cb 04 c0 c2 02 a9 be
       0.19584191 -0.17373244 -2.0749214 -0.33009917
000030 ec a2 dd 3e 39 50 84 3d f4 e4 92 3f 3f 48 ec 3d
       0.43288362 0.06460614 1.1476121 0.11537217
000040 2a a7 c8 3e 4f 70 f9 be d3 7a 83 bf fb 72 eb bd
       0.39190036 -0.48718497 -1.0271858 -0.1149654
000050 12 c1 2f 3e 84 b6 de 3d c6 65 24 3d 10 b6 45 3d
       0.17163494 0.10874656 0.04013612 0.04826933
000060 c2 3b 0b bf c6 12 8a be 9d 5d 45 3f 81 1d d2 bc
       -0.5438806 -0.26967448 0.7709597 -0.025648834
000070 95 f4 f0 3d 73 46 de bd fc b4 c9 bf ad f1 a3 be
       0.117654 -0.10853281 -1.5758357 -0.3202032
000080 46 03 f6 bd 14 5e 80 3e 78 4b 3e bd 65 69 c3 3d
       -0.12012343 0.25071776 -0.04645869 0.09541587
000090 5c 91 db 3c 74 de e9 bd ab ac 9f be 77 7d 31 3e
       0.026802711 -0.11419383 -0.31186423 0.17333017
0000a0 5c ac f4 3e 96 7d d3 be b8 f2 1d bf 7e ee 2b 3d
       0.4778775 -0.41306752 -0.61698484 0.04197549
0000b0 7a 70 f3 be 7c 63 84 be e7 a8 82 bf 2d 90 79 be
       -0.4754675 -0.2585715 -1.0207795 -0.24371405
0000c0 62 5b 01 be c7 d1 85 3e 94 21 01 3e 3b c3 63 bd
       -0.12632516 0.2613661 0.12610465 -0.05560611
0000d0 1d 09 f5 3e 13 14 80 3e 9e 14 3b 3f 07 22 84 3e
       0.47858515 0.25015315 0.73078334 0.2580721
0000e0 d7 d7 09 3d 21 d1 d3 3d 7d 44 2d 3e c1 13 e6 bd
       0.033653107 0.103426225 0.16920657 -0.112342365
0000f0 62 6a 9e 3e a1 c6 54 be 17 62 d5 3d 04 94 0d 3e
       0.3094054 -0.20778896 0.104191 0.13825995
000100 ed 5e 95 bd a0 c9 0f 3e 7b 4b 0d 3f ca ab 98 bc
       -0.07293496 0.14041758 0.551933 -0.018636603
000110 c4 7a a3 be a1 46 b0 3e a4 ae 03 3e 70 19 4c 3e
       -0.319296 0.34428886 0.12859589 0.19931579
000120 7f d3 f7 3c 9d ee 3c bd 6a f4 1b bf f8 0f 03 bd
       0.030252216 -0.046125997 -0.6091982 -0.03199765
000130 c3 7a 71 3e 9b a6 07 be 89 e5 e0 be b1 3c 39 3e
       0.23581986 -0.13247149 -0.4392512 0.18089558
000140 69 5c e7 bd d9 8f 9a be 6a 7f 72 bf ce 13 7a be
       -0.11296923 -0.30187872 -0.9472567 -0.24421617
000150 c3 90 56 3b ea d9 1f 3e 3c 28 2b 3e 27 ab 49 3d
       0.0032740093 0.15610471 0.16714567 0.04923549
000160 3b b9 2f 3e c1 1f 31 be 8a 8a 21 3e d8 c2 36 be
       0.17160504 -0.1729727 0.15775505 -0.17847764
000170 60 89 b7 3e a3 fd 8c 3b fd ef 70 3e 41 9d b5 3b
       0.35846996 0.004302697 0.23529048 0.0055424278
000180 e9 4e df 3d 70 ac 1b be 22 f8 2f 3e 2e f8 e0 bd
       0.10903723 -0.15202498 0.17184499 -0.109848365
000190 65 7a 48 3f 8b 5d 78 3e 6b 80 38 bd 66 ec 9f 3d
       0.7831176 0.24254434 -0.045044344 0.07808761
0001a0 4d 81 73 be 1f cf 36 3c 84 c8 79 be bd 59 84 be
       -0.23779793 0.01115778 -0.24392897 -0.25849715
0001b0 af 18 be 3e 37 b4 b4 bd 5a ee 6c 3e 9a e3 aa bd
       0.37128207 -0.08823436 0.23137799 -0.08344193
0001c0 a8 f6 85 3e 76 f2 d6 3c 04 40 63 3e e9 d7 2d be
       0.26164746 0.026238661 0.22192389 -0.16976894
0001d0 55 d5 84 3e d9 6b 1e 3c 30 84 50 3f 74 d5 dc bd
       0.2594401 0.009669268 0.814517 -0.107829005
0001e0 d7 32 a3 bd d4 c0 95 bd ed 31 50 be 38 20 2a 3e
       -0.07968681 -0.0731217 -0.20331545 0.16613853
0001f0 90 3d 03 3f d3 3c d0 3d f0 7d bb be 9c 69 0f bd
       0.5126581 0.10167851 -0.3661952 -0.035012826
000200 56 8c 05 3e 4e 6a fd 3e 2d 12 1a 3e 17 84 a6 3e
       0.13041815 0.49495167 0.15045996 0.32522652
000210 9e 5d c8 be 9d 32 da 3e 8f 05 60 3f 5b 98 06 3e
       -0.39133924 0.4261674 0.8750848 0.13144056
000220 97 0d 0c 3f 1a 9d cb 3e 0d 99 49 3f 0b 56 94 3e
       0.54708236 0.39768296 0.7874916 0.28971896
000230 6f 72 ab 3e 21 cb a1 3e 16 c0 80 3f 31 2e a3 3e
       0.33485743 0.31600288 1.005862 0.3187118
000240 2f 24 f6 3e 9f b9 3d 3e f8 ec 09 3f 6f 70 1b 3b
       0.4807448 0.1852784 0.5387721 0.0023718139
000250 c0 58 ba 3c dc 09 86 bc b0 c3 2e c0 9e 6f 74 be
       0.022747397 -0.016362123 -2.7306938 -0.23870704
000260 de 0d 0f bf d2 cf dc 3d 1e c5 65 3f 69 c6 57 3e
       -0.55880535 0.10781826 0.897539 0.21071781
000270 8a fa 16 3e da 04 07 be 82 a9 24 bf 8a fc 26 be
       0.1474401 -0.13185444 -0.6432115 -0.16307274
000280 7f e9 18 3f 09 30 67 3d 01 4c d3 be b7 f0 d3 bd
       0.59731287 0.056442294 -0.41268924 -0.10348647
000290 17 0e e5 3d 7e 59 4c bd 47 91 f0 bf 90 75 7d be
       0.11184328 -0.049890034 -1.8794335 -0.24751878
0002a0 3f 39 bb 3d e9 91 9d bc ed f6 53 bf 6c 41 36 be
       0.09141778 -0.019234614 -0.82798654 -0.17798394
0002b0 66 e7 92 3e 26 2d 99 be e8 61 c5 bf bb 4a a1 be
       0.28692168 -0.29917258 -1.5420504 -0.31502327
0002c0 f2 5c a9 be 32 51 8c be e0 17 84 bf b2 1c 93 be
       -0.33078724 -0.27405697 -1.0319786 -0.2873283
0002d0 b9 44 64 3d 49 59 85 3d 9c 44 db 3e 63 5a 0b 3e
       0.0557296 0.065111704 0.42825782 0.13608699
0002e0 60 da ec be 9e 04 a4 3c 7c e7 4a 3f 74 30 e7 3d
       -0.46260357 0.020021733 0.7925947 0.112885386
0002f0 51 9e 46 3d 86 87 62 3e 17 81 bf 3f e9 5d 9f 3e
       0.048490826 0.2212201 1.496127 0.31126335
000300 50 ea d5 bd ae 62 aa 3e d8 a5 72 3e 84 bb 6e 3e
       -0.10445082 0.33278412 0.23696077 0.23313719
000310 7b 12 f5 be 26 25 26 be 63 6e 30 bf 32 32 02 be
       -0.47865662 -0.16225109 -0.68918437 -0.1271446
000320 44 3d 3c 3d 48 bc 07 be 42 8b e7 bf 3f 25 95 be
       0.045956865 -0.13255417 -1.8089373 -0.2912998
000330 94 28 2e 3e 9d ab d4 3e cb 9f 57 3f f8 a0 e3 3e
       0.17007667 0.4153718 0.842282 0.44458747
000340 1b 27 2e 3e 91 80 17 bd ca 05 df bd ea 6b 03 be
       0.17007105 -0.036987845 -0.10889776 -0.12834135
000350 5a 5b fb 3d 86 8e af 3d 7b b9 f2 be 96 fb 84 3e
       0.12273283 0.08572106 -0.47407135 0.25973195
000360 0e 2b eb 3e ff e4 04 bf 2f 0c ca 3d 45 af c5 be
       0.45931286 -0.5191192 0.09865605 -0.38610283
000370 9e 3b d7 be 8a 36 5f 3e 72 25 29 3f 8a e5 91 3e
       -0.42037672 0.21798149 0.6607276 0.28495437
000380 54 a8 f9 3c 42 d6 a0 be 2c c2 9a be 58 19 b0 bd
       0.030475773 -0.31413466 -0.30226266 -0.08598584
000390 bc 05 62 3e b2 66 fc be 6a 2a 13 bf d3 ba c6 be
       0.220725 -0.492971 -0.57486594 -0.3881441
0003a0 75 2e 6a 3e 86 af c1 be c0 cf 15 bf 20 48 ac be
       0.22869284 -0.37829226 -0.58520126 -0.33648777
0003b0 7c e1 66 3d c7 70 9b 3d 50 fa 22 bd 85 73 80 3e
       0.056367382 0.0758987 -0.039789498 0.25088134
0003c0 61 14 20 be ad 23 06 3e 46 f5 c4 3f 12 08 dd 3e
       -0.15632774 0.13099547 1.5387352 0.4317022
0003d0 42 90 b5 3d 53 ff cf be 30 b1 51 bf 88 62 96 be
       0.088654056 -0.40624484 -0.8191099 -0.29372048
0003e0 15 e5 84 be 7c 5f 9a be a9 6c f1 be f9 bb 1e be
       -0.25956026 -0.30150974 -0.47153214 -0.15501393
0003f0 e4 33 b2 be e9 f2 03 be 27 a8 72 bf 07 9a 10 be
       -0.34805214 -0.12885632 -0.9478783 -0.14121257

bias f4 [128]
000000 46 15 30 3f 7a 97 f0 3e 63 b9 1d bf 15 1c d0 be
       0.6878246 0.46990567 -0.61611 -0.40646425
000010 97 71 d8 be 88 ec 4e 3d 0c 03 a1 be bc dc c2 be
       -0.42274162 0.050518543 -0.31447637 -0.38059032
000020 ae 61 c6 3e 01 f3 2f 3f 24 09 2e bf 85 5e e4 bd
       0.387464 0.6873017 -0.679827 -0.11150841
000030 81 4e 0c 3f a7 bc ba be dc 5f 27 3f 27 f9 15 bf
       0.5480729 -0.36472055 0.65380645 -0.585833
000040 6d 2c 42 3e 75 fe be 3e 46 52 64 be dc 66 0f 3f
       0.1896226 0.3730351 -0.2229701 0.56016326
000050 37 3d f7 be 0f c0 c0 3e 37 9e 23 3f 97 f6 e9 3c
       -0.4828889 0.3764653 0.6391329 0.028559966
000060 36 ee 86 3e 34 03 21 3f 0d ef 41 3f 95 38 bf be
       0.26353616 0.6289551 0.7575539 -0.37347856
000070 41 06 3c 3f 49 74 09 bf 35 ed 21 3f fc 9f db be
       0.7344704 -0.5369306 0.63252574 -0.42895496
000080 b8 1a 0f 3f d7 20 b7 3e 95 1d 0d be 44 86 fc be
       0.55900145 0.35767242 -0.13780816 -0.49321187
000090 2e 8a 22 bf 1a 15 13 bf 5b 54 3a be 82 90 98 be
       -0.63492095 -0.57454073 -0.18196242 -0.2979775
0000a0 a0 b6 18 be b7 be f6 be e2 07 b3 be ab bd 18 bf
       -0.14913416 -0.4819238 -0.34966952 -0.5966441
0000b0 30 a3 cb be 59 9b 00 3f 61 fc 16 bf b1 46 05 bf
       -0.3977294 0.5023704 -0.5897885 -0.5206099
0000c0 68 3f dc be 7f 3d 35 be 2d e8 e2 be 5a bf fb be
       -0.43017125 -0.1769924 -0.4431776 -0.49169427
0000d0 aa fa 1d bf 24 34 02 3f da e9 0d 3f 28 c4 3d 3e
       -0.6171061 0.5086081 0.55434954 0.18531859
0000e0 d6 31 fe 3e d3 ed 85 3e 98 f0 f8 be e8 60 2d 3f
       0.49647397 0.26158008 -0.48621058 0.6772599
0000f0 eb 97 26 bf a5 ab 6a 3e 44 18 e8 3e 36 c2 ba be
       -0.6507556 0.2291704 0.45331013 -0.36476296
000100 d5 95 38 3f 7c 27 7f be 68 39 d4 be 5e c2 c8 3e
       0.72103626 -0.24917406 -0.41450047 0.3921079
000110 9c 4d d0 3e 62 84 13 3f a5 ab 46 3e 2b ae 21 bf
       0.4068421 0.57623875 0.19401415 -0.63156384
000120 fe a8 f7 3e 21 1e 0f 3f d9 78 a7 be 9d a8 a5 3e
       0.48371118 0.5590535 -0.32709387 0.32355204
000130 68 44 20 bf d1 fb 06 3f ed f2 2b 3f f5 c1 e4 be
       -0.6260438 0.5272799 0.6716755 -0.44679227
000140 e0 fc ec be d4 cc 1e bf 22 b0 3d 3f d0 c1 39 3f
       -0.46286678 -0.6203129 0.7409688 0.7256136
000150 74 75 31 bf a6 f5 15 3f f9 fe 46 be 47 1a b9 be
       -0.69319844 0.58577955 -0.19433202 -0.3615286
000160 a7 2d e3 3e 63 4e 43 bf ed 4b 31 3f c0 37 45 3f
       0.44370767 -0.76291484 0.6925648 0.7703819
000170 56 e0 0b 3f 4d da 97 3e d6 b0 86 be 03 09 d8 3e
       0.54639184 0.29658738 -0.2630679 0.42194375
000180 47 bd dd be 79 2e b7 3e 5e b6 37 3f e6 d2 26 3f
       -0.4330847 0.35777643 0.71762645 0.65165555
000190 1e ae 92 be b5 b1 36 3f 66 51 1e 3f 53 1a 09 bf
       -0.28648466 0.7136491 0.61842954 -0.5355579
0001a0 2d 36 07 3f 09 3c 04 3f fa f2 b1 3e 32 de 36 bf
       0.5281704 0.51654106 0.3475569 -0.71432793
0001b0 8a fe e8 be 84 a8 d8 3d f5 e4 4b bf b8 95 28 bf
       -0.45506698 0.10579017 -0.79646236 -0.6585345
0001c0 75 81 a1 3e fa 6e 25 3f 80 06 3d be cc 5b 2e 3f
       0.3154408 0.6462246 -0.18459511 0.6810882
0001d0 0c 27 15 3f f3 67 1c bf 70 73 22 3f 7e 22 f9 be
       0.58262706 -0.61096114 0.63457394 -0.48659128
0001e0 d4 aa f8 3e 43 30 03 3f 2c ea 14 bf 71 7d dd be
       0.48567832 0.51245517 -0.5816982 -0.43259767
0001f0 7e 1f 0e bf b0 53 29 3f 88 dd 24 bf 78 f3 37 be
       -0.55516803 0.6614332 -0.6440053 -0.1796397

weight f4 [128, 128]
000000 03 3a a8 bd 8d b3 b0 bd 60 89 1f 3b 66 a7 84 bd
       -0.0821419 -0.086279966 0.0024343356 -0.06477241
000010 d9 8e 84 3d 9b 9b e4 3c c1 67 bb bd 56 05 73 3d
       0.064725585 0.02790623 -0.09150649 0.05933126
000020 6a 3d e2 3c 0f 14 84 3d bf 5e 36 bd c8 53 05 bc
       0.027617175 0.064491384 -0.04452395 -0.008137651
000030 8f e6 13 ba 6a 48 7d bd 39 ec 93 3c a4 7f ab bc
       -0.0005641961 -0.061836638 0.018056976 -0.020934887
000040 3d b0 80 bc 3d 55 8a bd 39 e2 1f 3d c4 08 88 3d
       -0.015709037 -0.06754539 0.039034102 0.06642297
000050 c0 8c 70 3c 2f eb 9c bc 70 86 84 3d eb 32 70 3d
       0.014681995 -0.019155113 0.064709544 0.05864231
000060 7e 2f 3f 3c f1 d9 24 bc 71 9f f5 3c f2 cf 70 3d
       0.011669038 -0.010061727 0.029983254 0.058792062
000070 c9 28 ed 3c d1 d2 a2 3d cd e2 22 3d e1 f8 56 bd
       0.028950112 0.07950366 0.039767075 -0.052483443
000080 92 3b 88 3d 06 40 f1 3c d8 47 63 3c 90 63 c6 bc
       0.06651987 0.029449474 0.013872109 -0.024217397
000090 e5 c0 0b bd a0 ff d5 3b f6 c5 6b 3d 7c 5a 0a 3d
       -0.034119505 0.006530717 0.057561837 0.0337777
0000a0 bf 16 7b 3d cd 1b 8a bd 1a 9e 80 bd 90 e6 45 bc
       0.06130099 -0.06743584 -0.062801555 -0.012078896
0000b0 61 79 8a bd 4d 93 0a 3c 7a 63 68 3d c8 83 14 bd
       -0.067614324 0.008457971 0.056735493 -0.03625849
0000c0 3e ab 5a 3d 14 44 87 bd f4 f8 b9 3c af d2 b9 3d
       0.053385966 -0.06604782 0.022701718 0.09073388
0000d0 09 8c 96 3d a4 0b 7c ba 53 4b b4 bd 2e a5 ff 3b
       0.07350928 -0.00096147717 -0.088034295 0.0078016734
0000e0 a1 a9 1b 3c 92 fb 14 3b b7 e5 a0 bd 7f cd 1f bd
       0.009500892 0.0022732955 -0.07856315 -0.039014336
0000f0 53 b1 a3 3d 6a c8 17 3d 3e 1f 96 3d e0 2c e0 3c
       0.07992806 0.037056364 0.07330178 0.027365148
000100 c1 78 fb bb 3c b7 49 bb b4 c6 a6 bd 52 ba 28 3c
       -0.007674307 -0.0030779382 -0.08143368 0.0102983285
000110 db e1 9c 3d a3 33 3f 3c c5 67 a6 3b de 8d 01 3d
       0.07660266 0.011670026 0.0050782883 0.031629436
000120 34 42 50 bd 0b dc 55 bc 70 bf 4e bc 17 63 37 bc
       -0.050844386 -0.013052951 -0.012618884 -0.011193058
000130 f6 26 5e bd ea c9 5a bd 3a aa b1 3c a0 f3 ca bb
       -0.054236375 -0.053415217 0.021687616 -0.006193593
000140 f2 9c 3a 3d 7e ad 01 bd 17 03 b8 bd f9 69 85 bd
       0.04555983 -0.031659596 -0.08984964 -0.06514353
000150 ea 88 00 3d db 12 b0 bc bb 07 b0 bc 28 48 27 bd
       0.03138057 -0.021493366 -0.021488061 -0.040840298
000160 6b 87 2e bd 99 5c 42 bd 50 82 6a 3d df 72 80 3d
       -0.042609613 -0.04745159 0.057253182 0.0627191
000170 e9 48 c0 bd 05 6e 8c 3d ae 03 c3 bd 78 a6 0c bd
       -0.093889065 0.06856922 -0.09522186 -0.034338444
000180 34 e9 7b bd 6f 4c bf bd 99 99 81 bd 8b 14 2f 3c
       -0.061501697 -0.093407504 -0.063281246 0.01068605
000190 a9 e0 52 3d 4c 84 89 3d 29 07 86 bd 40 82 9f bc
       0.051483784 0.06714687 -0.065443344 -0.019471288
0001a0 1a 19 97 bc 40 52 83 3c 53 55 98 3d ac 64 04 bd
       -0.018444587 0.01603043 0.07438149 -0.03232257
0001b0 3e 02 59 3d a8 b2 a7 3c 2a 22 1d 3d d0 e5 aa 3d
       0.052980654 0.020470932 0.03836266 0.083446145
0001c0 25 43 b0 bd ad 0a bc bd 70 29 3d 3b 44 a7 6d 3d
       -0.08606557 -0.09181724 0.002886381 0.058020845
0001d0 aa 82 8a 3d c7 5a ac bd c9 f9 8c 3c 19 0a 3c bd
       0.067632034 -0.08415752 0.01720895 -0.045908067
0001e0 3c 6c af bd d0 dd 01 bd fc 8b 95 bd a4 54 a6 bd
       -0.08565566 -0.031705678 -0.073020905 -0.08121613
0001f0 97 da eb bc c3 72 74 bd a2 0c 8f 3b 2d d4 a6 bd
       -0.028790755 -0.059679758 0.0043655196 -0.08145938
000200 fc 8b b8 bd 19 bb 62 3c 12 c9 fc bc 30 71 c1 bb
       -0.09011075 0.013838553 -0.030857597 -0.0059033856
000210 7b 8f 92 3d 2f c2 63 bd d1 ac 3c 3d 24 1c 17 bd
       0.07156273 -0.05560511 0.046063248 -0.03689207
000220 d2 3d 69 3d 1c 65 48 bd 67 93 83 3b ee 2c 52 bd
       0.056943722 -0.04892455 0.0040153745 -0.05131238
000230 66 89 aa bd c5 2d 63 3c 2e 6a de 3b d9 fe 4c 3d
       -0.08326988 0.013865893 0.00678756 0.05004773
000240 80 ce 3d 3c 04 80 90 bd a3 9d af bd 35 ba e1 bc
       0.011584878 -0.07055667 -0.08574989 -0.02755461
000250 2a df a2 3d 49 c7 36 bd c7 bb 56 3c cf 07 1a bd
       0.079527214 -0.044623647 0.013106293 -0.037605103
000260 aa 82 68 bd f6 2e 03 bd 54 9e 1e 3d 80 c0 4a bd
       -0.056765236 -0.032027207 0.038725212 -0.04949999
000270 e4 e4 a3 bd d9 84 35 3d d4 02 64 bd 57 59 44 3a
       -0.08002642 0.044316147 -0.05566676 0.00074901193
000280 72 c7 36 bd ee b7 19 3c 48 1e 0b 3d f0 ad e8 bb
       -0.0446238 0.009382231 0.033964425 -0.007100813
000290 b4 29 3e bd ff 29 6a bc a8 9d 8f 3d c8 5f 91 bc
       -0.04642649 -0.014292239 0.070124924 -0.017745867
0002a0 2e 28 bf bb 16 04 b3 bd 7e 30 c3 bc e9 68 d0 3c
       -0.005833647 -0.08741014 -0.023826834 0.02544065
0002b0 b6 59 59 3d b8 4c e1 ba a0 96 8e 3d af 6f a4 bc
       0.05306407 -0.0017189002 0.06962323 -0.020072786
0002c0 ab cf 98 3d c4 6c 8a bb d9 0a b8 bd 6b 4a 9d bc
       0.074614845 -0.0042243917 -0.08986444 -0.019200524
0002d0 b0 2b cd bb 09 c6 b3 bd d3 39 fb bc 6e 13 28 bd
       -0.0062613115 -0.087780066 -0.030667221 -0.041034155
0002e0 47 15 40 3d bf a1 df bc 45 28 53 bd 00 92 41 3d
       0.04689529 -0.027298806 -0.051552076 0.047258377
0002f0 d5 52 00 3d b4 ae 92 bd 5c d4 ae bd 5d b1 61 bb
       0.031328995 -0.07162228 -0.08536598 -0.0034437992
000300 94 8c 10 3d 27 4a bc bc 40 46 8f 3a 7e 1f 96 3c
       0.035290316 -0.022984577 0.001093097 0.018325564
000310 f7 f2 68 3c b6 f2 6f 3d b4 09 60 3d cd d6 8e bd
       0.014218084 0.058581077 0.054696754 -0.06974564
000320 e7 4a 69 3c c6 0e 7a 3c f0 6f 00 3d 26 d5 7f bd
       0.0142390495 0.015262311 0.031356752 -0.062459134
000330 f9 3c a9 3d d7 eb b2 bd 31 7a 82 3c 8c 4a d4 3c
       0.08263583 -0.08736389 0.015927406 0.025914453
000340 30 65 ff 3b d5 76 98 3d 70 20 98 3d 77 ce 34 3d
       0.007794045 0.074445404 0.07428062 0.044142213
000350 18 2e 12 bd e3 0e 11 3d e8 1e 8d bc 97 06 c5 3c
       -0.03568849 0.035414588 -0.017226651 0.024050994
000360 0a af 8c bd cb f4 06 bd 38 a2 0b bc d1 61 78 3d
       -0.068693236 -0.032948297 -0.008522563 0.06064016
000370 da a6 38 3d 6b ec f3 bc 4c 59 9a 3d dd f7 39 3c
       0.045080997 -0.029775819 0.07536563 0.011350599
000380 69 7e 15 3d 5e 75 37 3d 91 64 4c 3d 19 34 d5 3b
       0.036497507 0.044789664 0.049900595 0.0065064547
000390 da 19 8c bd 4a 2f ce bc 2e b8 c8 ba 27 c0 83 3d
       -0.06840868 -0.025169034 -0.0015313679 0.064331345
0003a0 e9 b7 8d 3d 3c fc 8e bd f7 3f 02 bd 9f 11 b2 bd
       0.06919844 -0.06981704 -0.031799283 -0.08694767
0003b0 08 83 ae bc 78 96 ba bd de af 9e bd f4 1c 61 3d
       -0.021302715 -0.09110731 -0.07748388 0.054959252
0003c0 84 fc e2 bb 49 65 28 3c 15 59 0d 3d 66 be bc 3b
       -0.006927075 0.0102780545 0.034508783 0.005760002
0003d0 85 1a be bc d4 2a ec 3c ea 24 b3 bd 45 fe 6e 3c
       -0.023206005 0.028829016 -0.08747275 0.01458699
0003e0 88 ba 84 3d 7a 97 1a bc 27 4b 26 3c 8c e7 36 bd
       0.064808905 -0.009435529 0.010149754 -0.044654414
0003f0 bd 5d a8 bd b9 82 86 bd 7f 1e ad bd 53 ab 64 3d
       -0.08221004 -0.06567902 -0.08453082 0.05582745

bias f4 [128]
000000 35 ba 8a bd 23 c1 aa bd 36 35 22 bd 4e 57 85 bd
       -0.067737974 -0.08337619 -0.039601527 -0.06510793
000010 c8 8f 81 bd 07 e3 e4 bd a3 24 c3 bd 1b cb 9f bb
       -0.06326252 -0.111761145 -0.09528472 -0.004876507
000020 16 fe 7c bd 65 d1 a8 3c 22 21 8e bd 39 8c 80 bd
       -0.061765753 0.02060766 -0.06939913 -0.06276745
000030 73 62 9e bd 02 86 b3 3c 9f e9 d2 bd 3b 3b a0 3c
       -0.077336214 0.021914486 -0.10298466 0.019559493
000040 44 07 92 bd a7 5a 7a bd 1b b5 00 bd 5e 65 cc bd
       -0.07130292 -0.06112161 -0.031422716 -0.09980272
000050 fb d8 3c 3d f1 17 b4 bd c9 b9 0e 3d 92 4d d2 3b
       0.046105366 -0.08793629 0.034845147 0.0064179385
000060 6d d7 46 bd 8f 79 23 bd a3 50 0e be bc 0e fc bd
       -0.04854529 -0.03991085 -0.13897948 -0.12307498
000070 f0 74 86 3d e2 12 89 bd 0f 8f 68 3d 94 ee 57 bd
       0.06565273 -0.06693055 0.056777056 -0.05271776
000080 7d b2 9d 3c c6 29 47 3d 1d 6f ef bc cf c1 23 3d
       0.019250149 0.048623823 -0.029227788 0.039979752
000090 cc 0d 05 be 90 f6 b4 bb 4f d1 4b 3e 8c f9 b4 bd
       -0.12993544 -0.0055225566 0.19904064 -0.0883666
0000a0 62 b7 72 b9 23 5b b8 bd 34 1c 7f bd 6d 88 95 bd
       -0.00023147234 -0.09001758 -0.062282756 -0.07301412
0000b0 0e ea 62 3c 0e ee 72 3d 07 e0 68 3d 5b ce 1f 3c
       0.013849748 0.059309058 0.056854274 0.009753789
0000c0 8c 6a 60 bd f0 be 22 be c6 34 0b bd 8f 38 48 bd
       -0.05478911 -0.1589315 -0.033985876 -0.048882063
0000d0 df 2e c3 bc e8 8b f5 3c 15 51 95 bd a2 15 b5 3b
       -0.02382606 0.029973939 -0.07290856 0.0055262605
0000e0 8f 62 50 3d 15 d5 55 bc c2 93 ea 3c c3 51 72 3d
       0.050875243 -0.013051291 0.02863491 0.059160005
0000f0 6e de 4e bd b1 46 d3 bd 2c 1c 52 bd 6c 12 8a bc
       -0.050505094 -0.10316218 -0.051296398 -0.016854487
000100 32 42 76 bd b5 23 f9 bd 1c eb 9f bd 45 fd a1 bd
       -0.060121723 -0.12165014 -0.078085154 -0.079096355
000110 72 f1 82 bd f4 60 9e bd 7e f7 61 3c f0 ac 21 bd
       -0.06393708 -0.07733336 0.013791917 -0.039471567
000120 fa 82 56 3d 6a bd 9b 3c ea d6 ec bc 54 a2 98 bd
       0.052371003 0.019011218 -0.028911073 -0.07452837
000130 a2 97 b4 bc aa 24 81 3c 86 e3 85 bd 35 76 9c bd
       -0.02204496 0.015764553 -0.06537537 -0.07639734
000140 47 1f c0 3d e8 6d 0b be 49 60 0b 3d f8 3d f9 bc
       0.09380966 -0.13616145 0.03402737 -0.030425057
000150 50 e3 98 bd 21 7f 9a bc 25 80 8b 3c 30 af 0f bc
       -0.074652314 -0.018859448 0.017028878 -0.008769795
000160 74 bb b8 bc f2 2b d6 3a 0e d1 72 3d 9c 2f a1 bd
       -0.022550322 0.0016340001 0.0592814 -0.07870409
000170 94 70 7d 3d 9f 51 a4 bc 67 86 20 bd e4 40 a3 bc
       0.06187494 -0.020058451 -0.039190676 -0.019928403
000180 a4 f8 9b bd 13 6d 8f bd 20 a5 21 3c 24 1f a6 bd
       -0.07615784 -0.07003226 0.009866029 -0.08111408
000190 ce a5 24 be c5 61 80 3e 62 48 37 3c 7f 87 02 3d
       -0.16078874 0.25074592 0.011186691 0.0318675
0001a0 a3 37 a1 bd a2 3e e7 bd 19 e5 8b bc 49 c3 39 bd
       -0.0787194 -0.11291243 -0.017077016 -0.045352254
0001b0 27 71 00 3e 9e 97 59 bd 5d 28 90 3b d0 ef a7 bd
       0.12543164 -0.05312311 0.004399343 -0.082000375
0001c0 67 48 f1 bd 8d 38 24 3c 9d ee 0f be da 34 12 be
       -0.11781388 0.010023248 -0.14055867 -0.14277974
0001d0 b2 32 f1 3c e0 89 d1 bc 6b 48 05 3d 0a 42 bc bc
       0.029443119 -0.02557844 0.032539766 -0.022980709
0001e0 bf 68 4a bd 6a 55 fb bb 8c 87 9f 3b 70 ec 43 bd
       -0.0494163 -0.0076700943 0.0048684534 -0.047832906
0001f0 1d 31 31 3e 7b b9 82 3c 01 a5 62 bc 27 75 05 3c
       0.17303891 0.015957585 -0.013833285 0.008145607

weight f4 [2, 128]
000000 53 4f f8 3c df 47 9c bd a6 2d 46 be 58 60 13 3c
       0.030311262 -0.07630896 -0.19353351 0.008995138
000010 d8 06 10 3d a5 86 17 be f9 03 98 bd 21 d1 71 be
       0.035162777 -0.14797457 -0.07422633 -0.23614933
000020 b9 ec 35 3f 5e f9 11 3d f4 f9 5e 3f f9 5a 91 bd
       0.71064335 0.035638206 0.8710015 -0.0709743
000030 6b a0 8d bd 08 96 6e 3d 97 7c 4d be 2b 4e 62 3c
       -0.06915363 0.05824855 -0.20067059 0.013812582
000040 e9 b1 8b 3d 4c 31 a0 bd 04 3e 6b be 8d ae 07 3d
       0.06821043 -0.07821903 -0.22972876 0.03312545
000050 2b 17 38 3c 6c 23 09 3d 7d fc 5e bd ee d3 45 bd
       0.011235992 0.033481047 -0.05444001 -0.048297815
000060 54 7e dc 3c 09 c8 db bd 19 d4 39 3e 5e 27 5f be
       0.026915707 -0.10731513 0.18147315 -0.21792361
000070 ea 08 01 3d 28 e7 29 3c a7 dc 1e 3c 68 23 4f 3d
       0.03150264 0.010370053 0.009696162 0.050570875
000080 0c 87 b5 bd 2c 15 70 3c 6f ea 94 bd 38 7c dc bc
       -0.08863649 0.014653485 -0.07271277 -0.0269147
000090 de 38 29 3d 80 f7 48 3b ad 74 77 3e 5b ac 2a 3e
       0.041314 0.00306651 0.24165602 0.16667311
0000a0 33 41 93 bc 52 04 7a bc 74 72 08 3c 67 66 0f bc
       -0.017975425 -0.015259819 0.008328069 -0.008752442
0000b0 df a9 cc be a5 2d 19 3d 90 d8 1d be 7c 85 89 bd
       -0.3997335 0.037397046 -0.15414643 -0.06714913
0000c0 3d 6e 84 bc 09 76 51 be aa 92 18 bc 51 fd 8f 3d
       -0.016165847 -0.20455183 -0.009312311 0.07030738
0000d0 0f da a3 bb de fb 8d be 74 d8 d1 3b ca a7 c2 3d
       -0.00500036 -0.27731222 0.006403977 0.095046595
0000e0 e9 5d 24 bd b7 65 1c bd a8 b1 65 bd 91 14 3a 3d
       -0.040128622 -0.03818294 -0.05607763 0.04542977
0000f0 40 89 aa 3a 8d de ea 3d a4 33 7c bd 72 56 6c bc
       0.0013010874 0.114682294 -0.061572686 -0.014424907
000100 6e ae 26 3d ab 26 99 bd 0f 43 47 be 60 5a 2b bc
       0.040693693 -0.074780785 -0.19459175 -0.010458559
000110 44 36 0d 3d 84 a9 d1 3d f1 da 25 bd d9 83 b5 be
       0.03447558 0.10237411 -0.040492002 -0.35452154
000120 7e 2a 0f bd 5e bc 51 3c f8 b4 0e bd 4a 36 ce 3c
       -0.034952633 0.012801258 -0.034840554 0.025172371
000130 67 14 10 be 53 1f 24 3d 2b e3 9a 3c 61 c6 b2 3d
       -0.14070283 0.040068936 0.01890715 0.08729244
000140 25 d1 87 3e da 93 64 bd cd 22 ad be e7 39 79 bc
       0.26526752 -0.055805065 -0.33815613 -0.015211559
000150 6e 44 58 3d fc d6 fa bc 28 da 20 be 0f 23 58 be
       0.052799635 -0.03062009 -0.1570822 -0.21107124
000160 fd 73 2e 3c 6f 93 85 be 78 ea 99 3c 61 1e 56 bc
       0.010647771 -0.26089045 0.018788561 -0.013068766
000170 e4 a4 66 bd 42 11 9c bc eb c4 a3 3d 56 06 a4 bc
       -0.056309596 -0.019051198 0.079965435 -0.020022552
000180 90 1e 33 bd 24 64 cf 3b 44 c9 bc bc ab 9b 6f 3c
       -0.04373032 0.0063290764 -0.02304519 0.0146245165
000190 2f cc 91 be 5a 9b 95 3e 98 de 47 bd e8 a4 09 3e
       -0.28476092 0.29220086 -0.048796266 0.13441813
0001a0 f2 d2 ad 3c 97 b6 92 bc 05 ab 00 3d cf 54 f1 bc
       0.02121875 -0.017909331 0.031413097 -0.029459385
0001b0 81 90 8b be 9a 7f c7 bc d2 7b 1c bd 42 1a 72 3d
       -0.27258685 -0.024352837 -0.03820402 0.059107073
0001c0 6f 02 32 be 04 5e 39 3e 76 6b a1 3c ae 0f 16 be
       -0.17383741 0.1810227 0.019704562 -0.14654419
0001d0 ea fd 93 be d7 7b 2c 3d 02 e0 53 bd 46 15 af 3e
       -0.2890466 0.04211029 -0.051727302 0.34195918
0001e0 39 75 74 3e 70 d0 6d be 45 cf a8 bc 89 59 d2 3e
       0.23872842 -0.23224044 -0.020606646 0.41083935
0001f0 ce 10 6f 3e 50 bb 41 3d 7a 49 58 bd 27 33 6b bd
       0.23346254 0.047297776 -0.052804448 -0.05742183
000200 6b 9b 1f 3d a4 38 67 bd 77 5d 47 3d e8 37 3f bc
       0.038966578 -0.0564505 0.04867312 -0.011671044
000210 9d d8 99 3d 24 d1 0a 3e 99 26 31 bd b1 99 89 3e
       0.07512019 0.13556343 -0.0432497 0.2687507
000220 60 e0 1a bf 57 72 0e 3d b8 3e 60 bf ea 7b 8e 3c
       -0.6049862 0.03477701 -0.875957 0.017393071
000230 9d 08 3e 3e f0 41 1b 3c c9 84 76 3e bb d8 c2 bb
       0.18557973 0.00947617 0.24074091 -0.0059462464
000240 f8 53 df bc 99 d3 48 bd eb 1f 88 3e 0c 91 dd bc
       -0.02726172 -0.04902992 0.2658685 -0.027046703
000250 e6 c1 72 3c e0 19 48 3a 89 63 94 bd 92 5b 2a bd
       0.014816737 0.000763325 -0.07245547 -0.041591235
000260 1a 5f 94 bb 99 e1 b4 3b 5b 42 47 be 3d 58 56 3e
       -0.0045279386 0.0055200574 -0.19458906 0.20932098
000270 07 24 d9 3c 52 a3 5e 3d 6d 90 13 3d 96 a8 31 3d
       0.026506437 0.054354973 0.036026407 0.043373667
000280 03 2b 9c 3d 31 b9 9c 3c 67 77 7b bb 25 eb 63 bd
       0.07625391 0.019131275 -0.003837073 -0.055644173
000290 be 08 3f 3d 10 a2 23 bc aa a1 63 be a3 80 15 be
       0.046639197 -0.009987369 -0.22229639 -0.14599852
0002a0 35 12 81 bd 17 94 db bc f4 b7 33 3d ea 61 4e 3d
       -0.06302301 -0.026804013 0.043876603 0.050386347
0002b0 fd c4 9b 3e f7 51 eb bc 9a 32 95 3e 25 ed 7a bd
       0.30423728 -0.028725607 0.29140168 -0.061261315
0002c0 b9 c4 68 bd 1d 9f 8b 3e 3a 0a a2 bb 97 33 df 3a
       -0.056828234 0.2726983 -0.0049450668 0.0017028925
0002d0 37 f1 3f bd 76 cc 53 3e 7f 5f 06 bd 60 05 81 be
       -0.0468609 0.20683464 -0.032805916 -0.25199413
0002e0 cc 5e 3f bd 11 0d f2 bc 25 e6 7f bc cb f3 09 3d
       -0.046721265 -0.029547246 -0.015618836 0.033679765
0002f0 f2 8c 44 bd ec 11 6b 3d 30 e8 4a bc b4 2c 05 bd
       -0.04798598 0.05739014 -0.012384459 -0.032513335
000300 0a 2c 5b bd 5b 20 2e 3d f5 6b 1d 3e ff 59 41 bd
       -0.053508796 0.042511325 0.15373214 -0.047204968
000310 26 d5 6a bd 09 c8 21 3d a1 84 3b bd 76 84 54 3e
       -0.05733218 0.03949741 -0.04578078 0.20753655
000320 f7 c9 1a 3d 49 a4 d5 bc 30 23 42 bc 13 3c 4d 3c
       0.037790265 -0.026079314 -0.01184921 0.01252653
000330 19 35 62 3d cc ac 4f bc a1 61 67 bd c4 a9 b3 bc
       0.05522642 -0.012675475 -0.05648959 -0.021931536
000340 10 55 6a be 12 62 9f 3d 9c 8c ba 3e 4b 90 27 3e
       -0.22884011 0.07782377 0.364354 0.16363637
000350 8b 14 ee 3c 28 5a 74 bd b5 c6 c8 3d 37 db 92 3e
       0.02906253 -0.059656292 0.09803525 0.28682873
000360 ad db 3e bd 12 86 1d 3e 98 b1 8f bd 46 01 a4 bc
       -0.046596218 0.15383175 -0.07016295 -0.020020138
000370 d0 43 65 bd dc b3 03 bd a8 a9 08 3d 1c ff f5 bc
       -0.055972874 -0.03215395 0.03336492 -0.030028872
000380 3b 28 21 bc 9b d0 73 bd 20 16 6c 3c 0b b2 18 bd
       -0.009836252 -0.059525114 0.014409572 -0.03727917
000390 5b 71 8e 3e 3b db 95 be 3b c8 30 bd 19 96 c0 bd
       0.27820858 -0.29268822 -0.043159705 -0.09403629
0003a0 fb 5f 84 bb 31 0c f1 bb c3 e7 15 bd 6b d0 40 3c
       -0.004039762 -0.0073561897 -0.03659798 0.011768441
0003b0 01 e4 bd 3e 3d 7d 68 3d 9a 6e 03 bd 06 cb 24 3d
       0.37088016 0.05676006 -0.0320879 0.04023268
0003c0 c2 ab 38 3e ea ce f2 bd d7 8c 95 bc 76 37 7e 3d
       0.1803427 -0.11855872 -0.018255634 0.06206461
0003d0 26 3c 81 3e 3a 50 8b 3d df bd 79 bd 05 00 ce be
       0.25241202 0.068024114 -0.06097209 -0.4023439
0003e0 6a fd 46 be 8b 34 1f 3e da 15 d1 3c 56 e8 c2 be
       -0.19432607 0.15547387 0.025523115 -0.38067883
0003f0 ef 94 8f be b0 1b 74 bc 95 56 37 bd 74 d4 a6 bd
       -0.28043315 -0.014899179 -0.044760305 -0.08145991

bias f4 [2]
000000 dc f4 3a 3e f4 fc 58 be
       0.18257469 -0.21190244

weight f4 [128, 128]
000000 b4 f2 2b 3b f8 52 45 bd 7f c2 3f 3d 82 97 88 bd
       0.0026237192 -0.04817483 0.046816345 -0.06669523
000010 c6 c2 2e 3d 1b ca 01 3d 04 4c 35 3d d0 f2 8e 3b
       0.04266622 0.031686883 0.044261947 0.0043624416
000020 14 98 2f 3c 0e 53 a3 bd 34 ff 30 3c c6 16 8a bd
       0.010717411 -0.07974826 0.010803033 -0.06742625
000030 de a8 cc bc 46 7a 19 3d 72 06 e9 bd 30 56 26 3d
       -0.024982866 0.037470125 -0.113781825 0.04060954
000040 c5 b3 40 3c 29 03 93 3c 4b 50 54 3c 6b f1 5a 3c
       0.01176161 0.017945843 0.012958596 0.013363223
000050 45 4a 91 3d 4a 29 3f bc 03 e1 e5 3b 80 5b 56 3d
       0.07094244 -0.011667559 0.007015349 0.052333355
000060 1b d4 58 bc ee 01 70 bd bd 1a 73 bc 46 a7 53 bd
       -0.013234164 -0.05859559 -0.014837918 -0.051673196
000070 c7 cf 55 3d 7a f0 2b 3d 77 88 b6 bc 32 cf a3 bc
       0.052200105 0.041977383 -0.022281868 -0.01999626
000080 e6 32 90 3d ed 3e 82 3c 90 37 da 3c e2 7f 03 3d
       0.07040958 0.015899146 0.026637822 0.03210438
000090 35 64 b2 bd f2 fb 0d 3d ba e7 c9 3b 27 ef f5 3c
       -0.08710519 0.034664102 0.006161657 0.030021263
0000a0 31 6d 01 3d b9 0d aa bd f8 d0 a2 3c 97 92 6a bd
       0.031598274 -0.08303399 0.019875035 -0.057268705
0000b0 78 9a 4a 3d 3d a9 d3 3b 21 2d 6e 3d f6 00 7d 3d
       0.04946372 0.0064593838 0.058148507 0.061768495
0000c0 1a 30 54 3d b1 49 ea bc 67 05 ac bd 62 3f 00 3d
       0.051803686 -0.028599592 -0.08399468 0.031310447
0000d0 6e 14 6e 3d 60 7d bc 3b bf c6 67 bd a6 4a ff 3c
       0.058124952 0.0057522506 -0.056586023 0.031163525
0000e0 7d a1 82 bd 33 92 44 bd 09 fe 2f bd dd e5 17 3d
       -0.06378458 -0.04799099 -0.042966876 0.03708445
0000f0 2d f6 15 bd 35 08 bb bd af 0f 79 bd c7 af 4c 3d
       -0.036611725 -0.09132425 -0.060805973 0.04997232
000100 23 d4 6e 3d c8 f9 a9 bd b0 40 a9 3d 9b cb 02 bd
       0.058307778 -0.08299595 0.08264291 -0.031932455
000110 87 16 dd bc 6d 08 da bd a0 45 b1 bd 57 6f 91 3d
       -0.026988281 -0.10646138 -0.08655858 0.071013145
000120 29 d8 7e 3d 3b 78 2e bd e6 b9 16 3d 3e f9 7a 3d
       0.062217865 -0.04259513 0.03679838 0.061272852
000130 5c 5f 18 3c 2e 4f f8 bc df 5c d5 bd cc 23 96 3d
       0.009300079 -0.030311193 -0.104181044 0.073310465
000140 d0 0f 0e bc d3 71 66 bc 6f 68 e8 bc 88 a4 e4 bd
       -0.008670762 -0.014065224 -0.02837011 -0.11164194
000150 1e 85 d1 38 5b 33 86 bc 2e f7 c5 bc 35 5a 9d 3c
       9.9906916e-05 -0.01638191 -0.024165716 0.019208053
000160 c1 b0 b0 bd 6f d5 af bc 9b 09 84 3c 23 5c 99 bd
       -0.08627463 -0.021464078 0.016117861 -0.07488277
000170 fc 9e c7 bd 2b e0 39 bc 87 a3 1c bd c8 c0 c7 3a
       -0.09747121 -0.01134495 -0.03824189 0.0015239948
000180 3d a6 26 bd 0f 78 c6 3c 77 74 3d 3d 1c cc b5 bd
       -0.04068588 0.02422717 0.046253648 -0.088768214
000190 4f e3 f9 3c 83 18 8f bd 92 df 92 bc 2a fd b1 bd
       0.030503897 -0.06987097 -0.017928872 -0.08690865
0001a0 7f 91 89 bd 7f 87 4a 3d 0b 2c a8 bd b8 10 6f 3d
       -0.06717204 0.049445625 -0.082115255 0.058365554
0001b0 91 18 ae 3a 00 d6 af bd b1 87 6b bd a9 e3 81 3d
       0.0013282468 -0.08585739 -0.057502452 0.06342251
0001c0 8c c3 b0 bd a0 53 dd bd 53 a5 ff bb 0c f0 0a bd
       -0.086310476 -0.10806966 -0.0078016906 -0.033920333
0001d0 b7 6d 82 3c fa 03 69 3d a5 78 40 3d 39 4b 8d 3d
       0.015921457 0.056888558 0.046990056 0.06899113
0001e0 f1 65 31 bc 96 3f 48 3d ab b2 27 3d 3f b9 a4 bd
       -0.010827527 0.048888765 0.040941875 -0.080431454
0001f0 eb ff a0 3c 3e 8b 40 bd 3a 96 44 bd 29 07 cd bc
       0.019653281 -0.04700779 -0.04799483 -0.025027828
000200 63 a5 18 3e 3a 00 d7 3d e4 02 1d c0 b4 1c 23 be
       0.1490684 0.1049809 -2.4533014 -0.15928918
000210 8c 88 57 be 8e a1 17 bd 63 a7 05 be 72 44 d4 be
       -0.21048182 -0.037019305 -0.13052134 -0.4145847
000220 80 13 5b 3e 81 bd a1 3e e6 fa 53 be f1 8f ac bd
       0.21394157 0.31589893 -0.20701179 -0.08425892
000230 9d 09 10 3e ac 1c 83 be 97 51 9a 3e d8 7b 04 be
       0.14066167 -0.25607812 0.30140373 -0.12937868
000240 0d ca 77 3a 36 8a 1a 3e 1d 43 a1 be eb 70 56 3e
       0.000945241 0.15091786 -0.31496516 0.20941512
000250 46 01 13 bf 94 cb 23 3e 0a 96 91 3e 3a 53 0d bc
       -0.5742382 0.15995628 0.28434783 -0.0086258
000260 07 90 10 3e 21 63 51 3e 3a a9 19 3e 05 ff 29 bf
       0.14117442 0.20447971 0.15005961 -0.66404754
000270 bc e1 7f 3e f0 8f 6f be e2 fe 2d 3e 36 7f 42 be
       0.24988455 -0.23394752 0.16991761 -0.1899384
000280 a6 bb 59 3e 49 ab 3e 3e 5d eb 62 be f5 7d cc be
       0.21262988 0.18620028 -0.22160096 -0.39939848
000290 00 01 25 bf 47 7b 3b bf 24 f6 6b be 6a e4 a1 be
       -0.6445465 -0.7323498 -0.23043114 -0.3161958
0002a0 ad 74 fa bc 89 ff 9a bf ec e3 34 bf 8a 82 f5 bf
       -0.030573213 -1.2109233 -0.7066028 -1.9180462
0002b0 fb 93 e5 be 74 7f a6 3e 56 e0 c7 be c4 cc 42 bf
       -0.44839463 0.32519114 -0.39038342 -0.760937
0002c0 ef 13 28 bd 03 8d 98 3a 03 d6 83 bf 22 ae 10 bf
       -0.041034635 0.0011638704 -1.0299686 -0.56515706
0002d0 18 0e e3 bc c1 35 1d 3e a7 07 4f 3e 26 20 6e 3d
       -0.027716681 0.15352537 0.20217763 0.058136128
0002e0 b9 6e 77 3e bb 48 7d 3e 74 5f b1 be 07 08 a2 3e
       0.24163331 0.24734776 -0.34643137 0.3164675
0002f0 9b ef 8d bf a7 44 d8 3d fc 94 37 3e ca 56 f8 be
       -1.1088747 0.105599694 0.17927927 -0.48503715
000300 e2 86 67 3e ba 9c d2 bc 2a 6c 66 be 3b f8 36 3e
       0.22610047 -0.025709499 -0.22502199 0.1786813
000310 fd 99 21 3e a3 da 89 3e dd 0b df bd 13 d3 6d be
       0.15781398 0.2692462 -0.108909346 -0.2322505
000320 e9 4a 32 3e 52 a5 15 3e a6 46 d7 bc 67 1b fc 3d
       0.17411388 0.14613846 -0.026278805 0.12309914
000330 ea 9e f9 bf c1 74 70 3e 4f 06 9b 3e f7 54 1d bf
       -1.9501622 0.23482038 0.3027825 -0.6145777
000340 2b 2f 92 bf 74 38 94 be 91 b1 55 3e e3 fd 7c 3e
       -1.1420645 -0.2894932 0.20868517 0.24706225
000350 c2 e5 45 bf 72 d9 37 3e 5b f9 25 bd 01 c0 5e be
       -0.7730371 0.17954043 -0.040521007 -0.21752931
000360 f3 cb 25 3e 70 9d 9a be 61 a1 8c 3e 00 31 ab 3e
       0.16191082 -0.3019824 0.27466872 0.33435822
000370 d3 d8 8d 3e c8 df 03 3e 42 e3 22 3e c0 f7 27 3e
       0.27704486 0.12878335 0.15907004 0.16403103
000380 97 57 ae be d2 49 06 3e 23 9c 82 3e 14 e4 92 3e
       -0.340512 0.13114098 0.25509748 0.28689635
000390 14 c1 21 be 8b 55 54 3e 32 ae 6c 3e 40 a3 33 bf
       -0.1579631 0.20735757 0.23113325 -0.70170975
0003a0 06 23 6b 3e 3a 1a 1b 3e 75 0a 33 3e 00 fb 45 be
       0.22962579 0.15146723 0.17484458 -0.1933403
0003b0 10 23 a4 3c 56 c1 85 3c 0d 18 8b be 52 8d 35 bf
       0.02003625 0.016327541 -0.27166787 -0.7091876
0003c0 f9 86 bf 3d df a8 8b 3e ae 12 74 3e a7 3a a6 3e
       0.09351916 0.27277276 0.2383525 0.32466623
0003d0 5c a4 e1 3d 68 2c 0b be 40 69 3a 3e 1c 6c c3 be
       0.11017677 -0.13591158 0.18204212 -0.38168418
0003e0 48 d5 50 3e de 9f 35 3e 88 9f ed be da 3d ee bd
       0.2039386 0.17736766 -0.46410775 -0.11632891
0003f0 53 6d 7e be 51 78 7a 3e 0d 1c fb be 3c b3 59 bd
       -0.24846391 0.2445996 -0.4904484 -0.053149447

bias f4 [128]
000000 7d ba 53 bd 81 42 98 3e 6e 38 9b bd 8e 26 96 3e
       -0.05169152 0.29738238 -0.075791225 0.2932629
000010 b1 e7 8d bd 93 93 74 3e 03 9c 79 3c 28 ca 8a 3e
       -0.06928957 0.2388442 0.01523495 0.27107358
000020 96 68 b4 3e 2c 9b ef bc d1 6a 03 bd 56 3f ba bd
       0.35236043 -0.029248796 -0.03208429 -0.090941116
000030 44 bb 90 bd 3c 65 ea 3c d4 1b b5 3e 2a 12 aa 3e
       -0.07066968 0.028612725 0.35372794 0.33216983
000040 15 a0 b5 bd 7d 48 71 3d 0f 50 5c 3e 8c 83 7a 3e
       -0.08868424 0.05890702 0.21514915 0.24464244
000050 d3 3b ab 3e c5 8e 94 bd 02 05 7f 3d 37 97 26 bd
       0.3344408 -0.072537936 0.062260635 -0.040671553
000060 7d 80 cc bd ed 0a 61 3c 30 98 b4 3e 22 33 b9 3e
       -0.09985445 0.013735515 0.3527236 0.36171824
000070 25 4d 54 3e 54 61 10 3c 7b c9 87 3e ca 13 5b ba
       0.20732553 0.008812267 0.26520905 -0.0008357136
000080 f0 f7 20 3d ac 5c 48 3e c2 9f bd 3e d1 3d 55 3e
       0.03929895 0.19566602 0.37035948 0.20824362
000090 2e 1f 20 3d ad c1 b6 3e 80 70 b9 bd 54 cf e9 3c
       0.039092235 0.35694638 -0.09054661 0.028541245
0000a0 24 3f 06 be a5 6e 83 3e 1c a3 5e bd aa 0f 9f 3e
       -0.13110024 0.25670353 -0.054354772 0.31066638
0000b0 8f cd 77 3e 6b e5 b3 3e a6 48 c1 bc bb 52 98 3e
       0.24199508 0.3513597 -0.023594212 0.29750618
0000c0 9f 48 ef 3c 23 47 74 3e ee 5f eb bd 8e a4 90 bd
       0.029209433 0.23855262 -0.114929065 -0.07062636
0000d0 33 c5 e9 bd c8 bd 15 be d8 eb 0c be 4c be 0b 3d
       -0.11414566 -0.14623177 -0.13761842 0.034117028
0000e0 e4 47 99 bd 1c 4f bf bd 53 d0 d7 bc 6d de e0 3c
       -0.07484415 -0.09341261 -0.026344454 0.02744981
0000f0 d2 b3 b5 3e 2d 50 8d bd 14 10 9b 3d 68 12 2f 3a
       0.35488755 -0.06900058 0.07571426 0.0006678463
000100 3c f0 95 3e 33 f3 95 3e aa db 59 3d 34 e8 00 be
       0.29284847 0.2928711 0.053188004 -0.12588578
000110 db 54 87 3e 98 2a 8b bd 02 19 52 3e 02 5c b7 3e
       0.26431927 -0.067952335 0.20517352 0.35812384
000120 d4 c5 b7 bd 7b 1a 7d 3e c0 a8 ee ba 73 cb 3a 3d
       -0.089732796 0.24717133 -0.001820825 0.04560418
000130 a6 ce 66 bd f6 f1 71 3d be 7f 90 bd 1e 53 aa bd
       -0.05634942 0.059068643 -0.07055615 -0.083166346
000140 81 6d 4b 3e 6f 55 74 3e 04 4e c9 bd b4 f4 72 bc
       0.19865991 0.23860715 -0.098293334 -0.01482885
000150 64 ae 5b 3e ca 73 94 3e 09 8c 7d bd 38 88 1a bd
       0.21453243 0.2899459 -0.061901126 -0.037727565
000160 42 4c 2a 3d 67 ae b4 3e aa 45 34 3d da 0f 0f bd
       0.04157663 0.35289308 0.04401175 -0.034927227
000170 48 b1 07 3c ea f0 a1 bd f5 01 91 3e ed ee 6e 3d
       0.008282013 -0.07907279 0.28321806 0.058333326
000180 11 87 cb bc d9 60 3a bb c5 8e 58 3e d4 5b 3e 3d
       -0.024844678 -0.0028439073 0.21148212 0.046474293
000190 1e 4a be bd 0b ca b0 bc 31 e8 1b bd ab 88 0a 3c
       -0.092914805 -0.021580717 -0.03806323 0.008455436
0001a0 e0 2c f9 bc f1 a4 be bd 8b 00 63 3e 10 a2 9c 3e
       -0.030416906 -0.09308804 0.22168176 0.30592394
0001b0 da af 43 bd 69 06 b7 bd c0 74 41 bc d9 9e 57 3e
       -0.047775127 -0.089367695 -0.0118076205 0.2105669
0001c0 3e 7a 87 bb 23 6f aa 3e c1 2a 11 3d 71 a0 b2 3e
       -0.0041344455 0.33287916 0.035441164 0.34888032
0001d0 17 c7 b6 bd 38 7b 8a bd e3 9c 85 3d 8e c6 a3 3e
       -0.08924692 -0.06761783 0.065240644 0.31987423
0001e0 69 49 dc bc c9 3e 73 3e 0c 23 9c 3e 78 d6 0a 3d
       -0.026890473 0.2375442 0.3049549 0.03389594
0001f0 74 f9 a3 3e 36 27 59 bd ba 31 c2 bd 46 d5 8f 3e
       0.32026255 -0.05301591 -0.09482141 0.28092402

weight f4 [1, 128]
000000 37 64 80 3c 4e a3 96 3e bf f5 2a bd 64 71 bd 3e
       0.015672786 0.29421467 -0.041738268 0.37000573
000010 47 63 f1 3c 75 47 92 3e 39 e7 06 ba 0d 33 8e 3e
       0.029466284 0.28570142 -0.0005146149 0.27773324
000020 9d a6 9d 3e 10 60 ff bc e2 e3 9d bd 50 36 e9 bc
       0.30791178 -0.031173736 -0.07709481 -0.028468281
000030 8c 0a 80 bc 80 6a af bc 6c d7 af 3e a8 b3 97 3e
       -0.01563003 -0.021413088 0.3434404 0.29629254
000040 30 d1 48 3d 37 6e be 39 7b 14 9d 3e 3d d4 91 3e
       0.04902762 0.0003632174 0.30679688 0.28482237
000050 0c 3f 94 3e db a5 b8 bc 95 8f 25 bd 20 2e 10 bd
       0.2895435 -0.022540024 -0.040420134 -0.03520024
000060 b6 f7 4b bf da bd b1 bb 40 26 a8 3e c1 c5 ac 3e
       -0.7967485 -0.0054242434 0.32841682 0.33744624
000070 32 8e a5 3e 05 10 74 bd 8e 1f a4 3e 01 be 07 bd
       0.3233505 -0.05958559 0.32055324 -0.033140186
000080 7b 72 05 b9 93 67 94 3e c8 02 b2 3e f5 2e a2 3e
       -0.00012726516 0.2898527 0.34767747 0.3167645
000090 4e bb f9 3b ad 6c 9a 3e 06 d8 a1 bc 16 d4 55 bd
       0.0076212054 0.30161038 -0.019756328 -0.052204214
0000a0 ff 93 37 bf ba 0a 98 3e 15 bb 8b bd 88 cc 91 3e
       -0.717102 0.29695684 -0.068227924 0.28476357
0000b0 ea 9e b6 3e 87 f8 a5 3e 59 72 15 bd 0d 20 93 3e
       0.35668117 0.32416174 -0.036486004 0.2873539
0000c0 34 57 58 bd 71 19 ad 3e 8d ed 06 bc 11 01 d6 bb
       -0.05281754 0.33808473 -0.008235347 -0.006530889
0000d0 44 23 27 bf e1 19 99 bf 33 b3 2b bf 8f 47 88 bd
       -0.65288186 -1.1961023 -0.6707031 -0.06654274
0000e0 f9 62 f6 3c 29 28 b9 bc 5f bb 14 bd 30 e3 68 bc
       0.03007649 -0.022602158 -0.036311503 -0.014214322
0000f0 80 30 8a 3e 49 33 89 bd fd b0 8f bd cf 36 e3 bb
       0.26990128 -0.06699235 -0.0701618 -0.006934024
000100 02 70 a8 3e 4f cb a6 3e 88 96 73 bd e7 4c c6 3c
       0.32897955 0.32576987 -0.05946973 0.024206592
000110 3e 8a a4 3e 96 cf c9 3c dc a5 9b 3e 5a 50 91 3e
       0.3213672 0.024635118 0.30399978 0.28381616
000120 13 3d 4a 3b 51 ae a7 3e 46 4e 18 3d 7d 15 09 bd
       0.0030859157 0.3275018 0.037184022 -0.03346776
000130 87 6e 64 bd 83 3c 46 bd a2 a7 1a bd a2 bb bf bc
       -0.05576947 -0.048397552 -0.037757523 -0.0234049
000140 5c fe 6d 3e c6 5f 94 3e 98 ee 8e bd 21 21 15 bd
       0.23241562 0.2897932 -0.06979102 -0.036408547
000150 4f e1 9c 3e d9 70 97 3e 76 96 25 3b d4 91 0a bd
       0.30640647 0.29578283 0.0025266684 -0.03383048
000160 4d cc 9c bd e2 69 a7 3e 40 21 6b bd 98 f4 9d bd
       -0.07656155 0.3269797 -0.057404757 -0.07712668
000170 87 25 a8 bd 0d 5b 39 3d 4a 9d a9 3e d5 82 1e bd
       -0.08210283 0.04525285 0.33127815 -0.03869899
000180 e3 d2 d8 3a ca f0 1d bd a7 d9 90 3e 05 fc 89 bd
       0.0016542341 -0.038559712 0.28291056 -0.06737522
000190 d5 59 c3 3c 3d 79 44 bd 74 18 7e 3b 01 88 81 bc
       0.023846546 -0.047967184 0.00387719 -0.015811922
0001a0 d6 f0 b0 bc 51 eb ca bb fa f2 9c 3e 63 d1 a2 3e
       -0.021599215 -0.0061926027 0.30654126 0.31800374
0001b0 17 86 6d bc ee 77 4e 3c d6 cf 2b bd 8e af 92 3e
       -0.014497302 0.012601836 -0.041946255 0.28649563
0001c0 2e 91 0c bc 11 0a 97 3e 29 a4 52 bd b3 f9 95 3e
       -0.008579535 0.29499868 -0.051426087 0.29292068
0001d0 8d 26 24 bc 91 90 c4 bc 10 13 c6 bb bb 72 a8 3e
       -0.010018957 -0.023994716 -0.006044753 0.32900032
0001e0 16 c9 d3 bc 02 32 81 3e 39 73 a6 3e 88 c1 8a bc
       -0.025852721 0.25233465 0.32509783 -0.016937986
0001f0 65 fc 8a 3e c8 e8 60 bd 0e e2 4b bd f2 39 90 3e
       0.27145687 -0.054909497 -0.04977613 0.2816921
