data/CartPole-v0_vpg_gpu/CartPole-v0_vpg_gpu_s20/pyt_save/model.pt (torch, 42881 bytes, 11 tensors)

weight f4 [64, 4]
0	0xbd82b6b3	-0.06382503
1	0x3e287ef3	0.16454677
2	0xbdfea437	-0.12433665
3	0x3f07ea3a	0.53091776
4	0xbebc6ce5	-0.3680183
5	0x3c2cabe2	0.010539027
6	0x3dbd4978	0.09242529
7	0x3dd0a140	0.10187006
8	0xbc1172db	-0.008877481
9	0xbdc589be	-0.09645413
10	0x3e610cad	0.21977492
11	0x3e9fa5b7	0.31181118
12	0x3e03c314	0.12867385
13	0x3efde6eb	0.4959024
14	0xbe27b7fb	-0.16378777
15	0xbe2bb006	-0.16766366
16	0x3ee6e375	0.4509541
17	0x3dea5baa	0.11443265
18	0x3e59070f	0.21194099
19	0xbef3773b	-0.47551903
20	0xbc140a27	-0.009035624
21	0x3dd10af7	0.102071695
22	0x3e844f5c	0.25841796
23	0x3d8bdc2d	0.068291046
24	0xbef8f32e	-0.4862303
25	0x3ef32921	0.47492316
26	0xbed52ef3	-0.41637382
27	0xbd60bfe4	-0.0548705
28	0x3ea446c6	0.32085246
29	0x3caea268	0.021317676
30	0xbeffda10	-0.49971056
31	0xbdbb2cb2	-0.09139384
32	0x3da8607b	0.08221527
33	0xbeb89cc8	-0.36057115
34	0xbec97d0a	-0.3935321
35	0xbec0a33e	-0.37624544
36	0xbed5d389	-0.4176295
37	0x3d44d8b9	0.048058245
38	0xbc025274	-0.007954229
39	0xbea621a9	-0.32447556
40	0xbec6a354	-0.38796484
41	0x3e7a33a4	0.24433762
42	0x3e8ca255	0.274676
43	0xbeac457f	-0.3364677
44	0x3eafcbf8	0.34335303
45	0x3ec589ba	0.3858164
46	0xbed041fb	-0.4067534
47	0xbe5c365c	-0.21505111
48	0x3ebfe505	0.37479416
49	0x3e30b6c5	0.17257221
50	0xbedcccdc	-0.43125045
51	0xbca96d27	-0.02068193
52	0x3eb99e4e	0.3625359
53	0x3eae3319	0.3402336
54	0xbeb10c37	-0.34579632
55	0xbe06a694	-0.13149482
56	0x3eea72b6	0.45790642
57	0xbe20c8c9	-0.15701593
58	0xbeb30e58	-0.3497188
59	0xbe536239	-0.20642938
60	0x3ebd9274	0.37025797
61	0x3e3fed4a	0.18742862
62	0x3d846c3d	0.06465957
63	0xbec11b61	-0.377162
64	0x3d662188	0.05618432
65	0x3ec7921a	0.38978654
66	0xbecba317	-0.39772865
67	0xbe8fc302	-0.28078467
68	0x3ecfd209	0.40589932
69	0xbe93cf91	-0.28869298
70	0xbe952d4e	-0.29136127
71	0xbf04a8dc	-0.5182016
72	0xbea70ed5	-0.32628503
73	0x3e0a26ce	0.13491365
74	0x3df9e10d	0.12201128
75	0xbd19701c	-0.03746043
76	0x3ef74be2	0.48300081
77	0xbe052e88	-0.13006032
78	0xbe84b5a3	-0.25919828
79	0x3eca5808	0.39520288
80	0xbe7bc5c9	-0.24587168
81	0x3e6f343a	0.23359767
82	0xbdfb2d26	-0.12264471
83	0xbd6a2035	-0.05715962
84	0x3ea60b54	0.32430518
85	0x3dc341b1	0.09534014
86	0xbf0ae063	-0.54248637
87	0x3bf6d2f4	0.007532472
88	0x3d6991cb	0.057023805
89	0x3e7e02d3	0.24805765
90	0xbda83c96	-0.08214681
91	0x3e83c681	0.25737384
92	0x3e8cdfd3	0.27514514
93	0xbe8152cd	-0.25258484
94	0x3e113062	0.14178613
95	0xbeb25d02	-0.34836584
96	0xbe845788	-0.2584803
97	0xbe08082e	-0.1328437
98	0x3c324d05	0.010882621
99	0xbea84edb	-0.32872662
100	0x3d7c2f33	0.06156845
101	0xbeed7501	-0.4637833
102	0xbdf7af4c	-0.12093982
103	0xbebaf1c7	-0.36512586
104	0x3e53e2c0	0.20691967
105	0xbedee704	-0.43535626
106	0x3e859e62	0.260974
107	0xbef594b6	-0.4796502
108	0xbeabb5ad	-0.33537045
109	0x3e468a88	0.19388783
110	0x3eafd157	0.343394
111	0x3ec46535	0.38358465
112	0x3ea55ee8	0.3229897
113	0xbeef1115	-0.4669272
114	0xbd500036	-0.05078145
115	0x3e14eaf1	0.14542748
116	0xbebe452f	-0.37162158
117	0xbe42bd93	-0.1901763
118	0x3f11d1cb	0.56960744
119	0x3cef5ce7	0.029219104
120	0x3ee22b2c	0.44173563
121	0x3dfcdc86	0.12346749
122	0x3e5cd139	0.21564187
123	0x3e4412b8	0.19147766
124	0x3dbc8dbc	0.09206721
125	0x3eee6381	0.4656029
126	0x3eaffc99	0.34372404
127	0x3efc996d	0.49335805
128	0xbe0446db	-0.12917654
129	0xbeaaa9fb	-0.3333281
130	0x3de6d0fe	0.11270331
131	0xbeb9c064	-0.36279595
132	0x3e06235e	0.13099429
133	0xbbfd74ab	-0.007734855
134	0x3e748ba7	0.23881398
135	0xbd3f7718	-0.046744436
136	0x3d7df6a7	0.062002804
137	0xbe326fa8	-0.17425406
138	0xbd2f6a80	-0.042826176
139	0x3e77f776	0.24215493
140	0xbae89025	-0.0017743154
141	0x3e389d3b	0.18028729
142	0x3edc972e	0.4308409
143	0xbe98b08b	-0.29822192
144	0xbe955cf8	-0.29172492
145	0x3ef48c9d	0.4776353
146	0xbddf8b6c	-0.109152645
147	0x3ee343e9	0.4438775
148	0xbce7f384	-0.02831436
149	0xbed8a78e	-0.42315334
150	0xbd3b8e01	-0.045789722
151	0xbe6dc2fc	-0.23218912
152	0xbefd26ff	-0.49443814
153	0xbdf3d467	-0.11905747
154	0x3e9cf784	0.3065759
155	0xbee23851	-0.4418359
156	0xbed3c167	-0.41358492
157	0xbee07925	-0.43842426
158	0x3d2999f1	0.041406576
159	0x3dcfdce8	0.101495564
160	0xbe1ac0eb	-0.15112655
161	0x3eaee22d	0.34156933
162	0xbefcec1f	-0.49398896
163	0x3db1bb62	0.086783186
164	0xbedc3825	-0.43011585
165	0x3ec67425	0.38760486
166	0x3e1d77f5	0.15377791
167	0x3eac4469	0.33645943
168	0x3ef9b05c	0.48767364
169	0x3e9798b1	0.29608682
170	0xbebe732f	-0.37197253
171	0x3dd5872b	0.10426172
172	0x3de3c5b7	0.111216955
173	0xbe8d95f6	-0.27653474
174	0x3e5bfa08	0.21482098
175	0x3e54342e	0.2072303
176	0xbd4cdbb5	-0.050014216
177	0xbeb7dbec	-0.35909975
178	0xbe6dc5af	-0.23219942
179	0xbd8e43cc	-0.06946525
180	0xbdf16406	-0.11786656
181	0xbe2e281f	-0.17007492
182	0xbcda587c	-0.02665352
183	0x3e600759	0.21877803
184	0x3d5ba619	0.0536252
185	0x3e44258e	0.19154951
186	0xbeb0ab70	-0.34505796
187	0x3ea84c0f	0.32870528
188	0xbe89d426	-0.2691967
189	0xbe628686	-0.22121629
190	0x3e4468d2	0.19180611
191	0x3ec6d175	0.38831678
192	0xbdbdbe40	-0.09264803
193	0xbe9ae5a7	-0.30253336
194	0xbf0f8088	-0.560555
195	0xbc2ca2ca	-0.010536859
196	0x3de3b829	0.1111911
197	0xbe57c83f	-0.21072482
198	0x3e9870df	0.29773614
199	0x3e455599	0.19270934
200	0xbe986165	-0.29761806
201	0x3da02e60	0.07821345
202	0xbed4961a	-0.41520768
203	0xbd9e4e90	-0.07729828
204	0x3e6a55fd	0.22884364
205	0x3df6697b	0.120318376
206	0xbe2a1627	-0.16610013
207	0x3e3e489f	0.1858239
208	0xbd160e93	-0.036634993
209	0xbe88e726	-0.26738852
210	0xbe700846	-0.23440656
211	0x3ec6bf24	0.38817704
212	0x3ebb0ee4	0.36534798
213	0xbeb1d242	-0.34730726
214	0xbda6c474	-0.08142939
215	0x3ea628e7	0.3245308
216	0xbd0f2665	-0.034948725
217	0xbe921969	-0.2853501
218	0x3e711eaa	0.23546854
219	0xbe476dad	-0.19475432
220	0xbdea4fd7	-0.114410095
221	0xbeed0c79	-0.46298578
222	0xbf01fd80	-0.50777435
223	0xbdfa35d6	-0.122173
224	0xbb824e86	-0.003976646
225	0x3e366bc2	0.17814544
226	0x3e970436	0.294954
227	0xbeb620ee	-0.35571998
228	0x3e89f91d	0.2694787
229	0xbee58932	-0.44831234
230	0x3ec2820a	0.37989837
231	0xbcee486f	-0.029087273
232	0xbe8e4abd	-0.27791396
233	0xbdbd6cf2	-0.09249295
234	0xbd2567f4	-0.04038234
235	0xbec517cc	-0.38494718
236	0x3e39e03b	0.18151943
237	0x3d069e13	0.032865595
238	0x3eb4938c	0.3526882
239	0xbe8324a8	-0.25613904
240	0xbec576ca	-0.3856719
241	0x3d968fe7	0.07351666
242	0xbefc1810	-0.49237108
243	0xbf0efcb3	-0.5585434
244	0xbe4b50fb	-0.1985511
245	0x3dd48e5a	0.10378714
246	0x3e06f957	0.13181053
247	0xbe6373de	-0.22212169
248	0xbe2f3648	-0.1711055
249	0xbe55dcca	-0.20885006
250	0x3e969f54	0.29418433
251	0xbf0a58cf	-0.5404176
252	0xbe4c1e21	-0.19933368
253	0xbeb6b4ca	-0.35684806
254	0x3e94c6ce	0.29057926
255	0x3ec99049	0.39367893

bias f4 [64]
0	0xbd55599e	-0.05208742
1	0xbcd9d242	-0.026589517
2	0xbe50ab78	-0.2037791
3	0xbec18e85	-0.37804046
4	0x3e2f8d50	0.1714375
5	0x3e9f9930	0.3117156
6	0x3dec6003	0.1154175
7	0x3b6f7d9a	0.003654337
8	0xbc002a7d	-0.00782263
9	0x3edff52c	0.4374174
10	0xbd1ea05e	-0.038727157
11	0x3e8292b8	0.25502563
12	0xbe0fbf2f	-0.14037775
13	0xbe97f3d0	-0.29678202
14	0x3eb98096	0.36230916
15	0xbeecc7e0	-0.46246243
16	0xbda0a71d	-0.07844374
17	0xbe557676	-0.2084597
18	0xbee56657	-0.44804642
19	0x3eac293e	0.33625215
20	0x3ee4512a	0.44593173
21	0x3eaab8e1	0.33344176
22	0x3e0bbc72	0.13646105
23	0x3e5e8d03	0.21733479
24	0xbdf5fcf4	-0.120111376
25	0x3e007917	0.12546192
26	0xbeb73557	-0.35782883
27	0xbec29411	-0.3800359
28	0x3ef3dcc4	0.47629368
29	0x3e5bc2d4	0.2146104
30	0x3e0a4b41	0.1350527
31	0xbdf4aec6	-0.11947398
32	0x3e564c0a	0.20927444
33	0x3e5d69c2	0.21622375
34	0x3ed80ad6	0.42195767
35	0xbe196818	-0.14981115
36	0xbebc52a3	-0.36781797
37	0xbe7cad24	-0.24675423
38	0xbde0f83c	-0.10984847
39	0xbe8c0ef0	-0.27355146
40	0x3e84f4ea	0.25968105
41	0xbe7fbabc	-0.24973577
42	0x3e34d3fb	0.17658989
43	0x3dd85946	0.105639026
44	0xbdec07be	-0.11524914
45	0xbe12c426	-0.14332637
46	0xbd9f8791	-0.07789529
47	0xbd655ea1	-0.05599845
48	0xbeef8ae2	-0.46785647
49	0x3eb60b1a	0.35555345
50	0x3e4e036e	0.20118496
51	0xbd5bb9b6	-0.053643905
52	0x3ee233ae	0.44180053
53	0x3e99d317	0.3004386
54	0xbeee2735	-0.46514288
55	0xbc67e8eb	-0.014154653
56	0x3e0f2715	0.13979752
57	0xbe2cbd10	-0.16868997
58	0xbd4ece81	-0.050489906
59	0x3ecad0f9	0.39612558
60	0xbeb739b8	-0.35786223
61	0xbee4a419	-0.44656447
62	0xbda30f2e	-0.0796188
63	0xbec7b71e	-0.39006895

weight f4 [64, 64]
0	0xbd478b19	-0.04871664
1	0xbc6c07b5	-0.014406134
2	0xbe12afad	-0.14324827
3	0x3de03bac	0.109488815
4	0x3dd1d552	0.10245766
5	0xbcd76dd4	-0.026297487
6	0x3b491b93	0.0030686602
7	0x3da22e2c	0.07918963
8	0xbcd1c6ae	-0.025607433
9	0x3a19d9cb	0.00058689405
10	0x3b9ce3ac	0.004787883
11	0x3e196a2d	0.14981909
12	0xbd91661c	-0.07099554
13	0x3df75bd3	0.12078061
14	0xbd7308a1	-0.0593344
15	0xbdbea003	-0.093078636
16	0x3d8bc741	0.06825114
17	0xbb54f20f	-0.003249291
18	0x3b891cdb	0.004184348
19	0xbe1469d7	-0.144935
20	0x3d13922f	0.036028083
21	0xbdde9d42	-0.10869838
22	0x3d6519b7	0.055932727
23	0x3d8805d8	0.066417396
24	0xbd86421f	-0.0655558
25	0xbcbc5975	-0.022991875
26	0x3db5e202	0.08880998
27	0x3b6ab4e2	0.003581338
28	0x3d4fb420	0.05070889
29	0xbdb4c53b	-0.08826681
30	0x3da98c65	0.08278731
31	0x3cf1a2e3	0.029496616
32	0xbd8d5199	-0.06900329
33	0x3ca7f932	0.020504568
34	0xbe0eea9b	-0.13956682
35	0x3d6fe5e4	0.05856885
36	0x3d1a8d38	0.037732333
37	0x3d81a3f7	0.06330102
38	0xbd98587c	-0.07438752
39	0xbde154f2	-0.1100253
40	0xbd873705	-0.06602291
41	0xbe1625df	-0.14662884
42	0x3dc108cc	0.09425506
43	0x3d6edac4	0.0583141
44	0x3dd5e5b5	0.10444204
45	0x3a85066c	0.0010149009
46	0xbe080913	-0.13284712
47	0xbdc3d1ed	-0.095615245
48	0xbd1a4bf1	-0.03767008
49	0x3daa32a8	0.08310443
50	0x3dfc8285	0.12329582
51	0x3bf75609	0.007548098
52	0x3d5b3f3d	0.053527106
53	0xbd845487	-0.06461435
54	0xbdc18cac	-0.09450659
55	0xbda8b3de	-0.08237432
56	0x3df7328b	0.12070187
57	0xbdb6aed4	-0.089200646
58	0xbce81cca	-0.02833404
59	0x3ae1f62f	0.0017239506
60	0x3ca705d1	0.020388516
61	0xbd837ec2	-0.064206615
62	0x3de05fc7	0.10955768
63	0xbbc91955	-0.006137053
64	0xbdae7149	-0.08517701
65	0x3d72e72c	0.059302494
66	0xbd7aba0a	-0.061212577
67	0xba838a79	-0.0010035775
68	0x3d6a7dea	0.057248987
69	0xbddeb9af	-0.1087526
70	0xbd311aeb	-0.04323856
71	0xbd2ca7aa	-0.042152084
72	0xbd790325	-0.060794014
73	0x3dbf1e40	0.093319416
74	0xbd9506c4	-0.07276681
75	0x3db13185	0.08652023
76	0xbd9a9baf	-0.075492255
77	0xbd863928	-0.065538704
78	0x3dd3f218	0.1034891
79	0x3bffc17f	0.007805049
80	0xbd1ef9d1	-0.038812462
81	0xbd7b85b2	-0.0614068
82	0xbda81405	-0.082069434
83	0xbd59a10a	-0.053132094
84	0xbdc0dc32	-0.09416999
85	0x3df4d2d2	0.11954273
86	0x3d07b2a5	0.033129353
87	0x3dcedca4	0.101006776
88	0x3dbea19a	0.09308167
89	0xbb7c747e	-0.0038521583
90	0x3e109422	0.14119008
91	0x3d9a8129	0.075441666
92	0x3d5ea2d4	0.054354504
93	0x3d7b2383	0.061313163
94	0xbe02ade7	-0.12761651
95	0xbc1dd104	-0.009632353
96	0x3df5a94e	0.11995183
97	0x3d9460e8	0.07245046
98	0x3dc9e882	0.098588005
99	0xbddda399	-0.108222194
100	0xbcf76e69	-0.030204015
101	0x3dfc21c3	0.12311127
102	0x3cf1445b	0.02945154
103	0x3d6956f2	0.056967683
104	0x3dd64caf	0.10463845
105	0xbd4e2fb8	-0.050338477
106	0xbd553cb6	-0.05205985
107	0xbdf4ced8	-0.11953515
108	0x3dbed7d0	0.09318507
109	0xbde0025c	-0.1093795
110	0xbe2665fb	-0.1624984
111	0x3d42913e	0.047501795
112	0x3defdd61	0.117121466
113	0x3dd25cfe	0.10271643
114	0x3de8b61d	0.1136286
115	0x3b9e5e17	0.0048329937
116	0x3dd7d540	0.10538721
117	0x3d2017fc	0.039085373
118	0x3d1d6f65	0.038436312
119	0x3d3f5690	0.04671341
120	0x3d5f5b98	0.05453071
121	0xbd846f6e	-0.06466566
122	0x3d73e686	0.059546016
123	0xbd92bf5f	-0.071654074
124	0x3d72ea31	0.059305374
125	0x3dafef2c	0.0859054
126	0xbd87803f	-0.06616258
127	0xbdcc90cd	-0.09988556
128	0xbda5cbb3	-0.08095493
129	0x3cc45412	0.02396587
130	0x3b1c307e	0.0023832615
131	0x3dcf3ac8	0.101186335
132	0xbd45aba1	-0.04825938
133	0xbdc423b9	-0.09577126
134	0xbd4acaaf	-0.0495097
135	0xbd85f24f	-0.06540357
136	0xbceff1ec	-0.029290162
137	0xbdd8891c	-0.105730265
138	0x3d9cc29c	0.07654306
139	0xbd99e1ea	-0.07513793
140	0x3dbbfe66	0.09179382
141	0xbd9b1f31	-0.07574309
142	0x3d959c00	0.07305145
143	0xbdd1f0a4	-0.10250977
144	0xbd2f204e	-0.042755418
145	0xbc247ea5	-0.01003996
146	0x3d84f8af	0.06492745
147	0xbdb6efd7	-0.089324646
148	0xbc8da278	-0.017289385
149	0x3ca7701e	0.020439204
150	0x3ca43933	0.020046806
151	0xbd030f82	-0.03199721
152	0x3dae4d48	0.08510834
153	0x3d09fd9b	0.033689123
154	0x3d3c54a3	0.045979153
155	0x3b0b8cc2	0.0021293615
156	0x3d7bf6a3	0.061514508
157	0xbd1739d5	-0.036920387
158	0x3db1cb11	0.0868131
159	0x3df6e985	0.12056259
160	0xbdcc6cde	-0.09981702
161	0x3d865d2b	0.06560739
162	0xbd634d01	-0.05549336
163	0xbe080f9c	-0.13287205
164	0x3bc71563	0.0060755475
165	0x3dad6cf2	0.08468045
166	0xbd66ad50	-0.056317627
167	0x3d830da8	0.06399089
168	0xbdbefaaa	-0.09325154
169	0xbdb340a3	-0.08752563
170	0x3dd5705c	0.104218215
171	0xbd4cca4f	-0.049997624
172	0xbd82ff36	-0.06396334
173	0x3d364c58	0.0445064
174	0x3da6c13e	0.08142327
175	0x3d9e326e	0.077244624
176	0x3db46216	0.08807771
177	0x3d80d680	0.06290913
178	0xbd8c5fe7	-0.068542294
179	0x3c9028e7	0.017597629
180	0x3ce55180	0.027992964
181	0x3d7ca208	0.061677963
182	0xbde599e9	-0.11210997
183	0x3d8fb3ae	0.07016693
184	0x3d6bdc7d	0.05758332
185	0x3dd6c599	0.104869075
186	0xbdfbec9f	-0.12300991
187	0xbb7924d4	-0.0038016336
188	0x3d6593b5	0.056049068
189	0xbdba126d	-0.09085546
190	0x3dac3efa	0.08410449
191	0x3e127126	0.14300975
192	0xbde7ee3d	-0.11324737
193	0x3d8613c1	0.065467365
194	0xbc421a03	-0.011847022
195	0x3dd76b81	0.105185516
196	0xbdb6d301	-0.089269646
197	0x3ca2b45c	0.019861393
198	0xbdc91090	-0.09817612
199	0x3d84e03b	0.06488081
200	0x3c35ff97	0.011108301
201	0xbda2a6ca	-0.07941969
202	0xbd1c469b	-0.038153272
203	0x3cd9fa86	0.026608717
204	0x3d8e80d9	0.069581695
205	0x3de9e784	0.11421111
206	0x3d8ee508	0.06977278
207	0x3d99ec7e	0.075158104
208	0x3c6243e5	0.013810133
209	0x3da8d02e	0.08242832
210	0xbd2f0d04	-0.042737022
211	0x3c6e5fda	0.01454922
212	0x3ddf5808	0.109054625
213	0x3e0094f9	0.12556829
214	0xbd632d48	-0.055463105
215	0x3d0be719	0.03415594
216	0x3d5a4d8e	0.05329662
217	0xbd00a6bc	-0.03140901
218	0x3e1f0465	0.1552902
219	0xbce91bd7	-0.028455658
220	0xbccfba8f	-0.025357513
221	0x3cbd79d3	0.02312938
222	0x3d330386	0.043704532
223	0xbd918b4a	-0.071066454
224	0x3e113ab1	0.14182545
225	0xbdd79c16	-0.10527818
226	0x3d10b673	0.035330247
227	0xbd8cf333	-0.06882324
228	0xbe148ccf	-0.14506839
229	0x3e02e57f	0.12782858
230	0x3bb46cc5	0.0055061304
231	0x3c922cf8	0.017843708
232	0x3dbc5387	0.09195619
233	0x3c6e6296	0.014549872
234	0xbbed672c	-0.007244965
235	0x3d8838d6	0.066514656
236	0xbce13662	-0.027491752
237	0x3d17b179	0.037034485
238	0xbc3997a5	-0.011327659
239	0xbd94e416	-0.072700664
240	0x3bdc86d1	0.0067299386
241	0xbd56c581	-0.05243445
242	0x3d221e16	0.039579473
243	0xbd41fa24	-0.047357693
244	0xbd6f669e	-0.058447473
245	0xbdff2ec2	-0.1246009
246	0x3dbd21f5	0.092349924
247	0xbcecdea3	-0.028914755
248	0x3dd6312e	0.10458599
249	0xbd3b6170	-0.04574722
250	0x3e103597	0.14082943
251	0xbd81adf2	-0.063320056
252	0xbd4ce6cd	-0.050024796
253	0x3c5ed618	0.013600849
254	0x3e10a9c3	0.14127259
255	0xbe14adaa	-0.14519373

bias f4 [64]
0	0x3d6cb1d5	0.05778678
1	0x3b820ed0	0.003969051
2	0xbd9e1e52	-0.07720627
3	0xbd4585da	-0.048223354
4	0x3ce305f5	0.027712801
5	0x3dbbc871	0.091690905
6	0xbda286b7	-0.07935851
7	0xbca2481f	-0.01980978
8	0xbde593c7	-0.11209827
9	0xbd915072	-0.07095422
10	0xbdd971f6	-0.106174394
11	0x3ded076c	0.11573681
12	0xbd90a844	-0.07063344
13	0x3ddcd8c1	0.1078353
14	0xbd8e1a23	-0.06938579
15	0xbdb57265	-0.0885971
16	0xbdaeb9c9	-0.085315295
17	0xbc8f8a12	-0.017521892
18	0xbd5a4eae	-0.05329769
19	0xbd9db544	-0.07700589
20	0xbddd7d2f	-0.108148925
21	0xbdf36ed2	-0.11886372
22	0x3dd89032	0.10574378
23	0x3dc205f1	0.094737895
24	0x3df03073	0.11727991
25	0xbc059198	-0.008152388
26	0xbdedf9d0	-0.116199136
27	0x3dd475a6	0.10374002
28	0xbc20a79e	-0.009805588
29	0xbdc454ba	-0.09586473
30	0xbd4aeb55	-0.049540836
31	0x3daf3bf0	0.08556354
32	0xbd1a737a	-0.037707783
33	0xbd9bbe83	-0.076046966
34	0x3d64bba3	0.055843007
35	0xbdf011ce	-0.11722146
36	0x3ca6f946	0.020382535
37	0x3d830880	0.063981056
38	0xbd64c5dd	-0.05585276
39	0xbd460d0c	-0.048352286
40	0x3ca0b8c5	0.019619355
41	0xbdcb3cb7	-0.0992369
42	0xbd64e536	-0.055882655
43	0x3d77d3f5	0.060504872
44	0x3c490599	0.012269401
45	0xbdf02e75	-0.11727611
46	0xbcd985b7	-0.026553018
47	0x3dca47a0	0.09876943
48	0x3d291bc9	0.041286264
49	0xbdb484e9	-0.08814413
50	0xbdc01325	-0.093786515
51	0xbdeeeb5f	-0.11665987
52	0xbdfa2133	-0.122133635
53	0x3c4578ac	0.012052696
54	0xbd169fff	-0.036773678
55	0xbdd99f87	-0.106261306
56	0x3dbd9469	0.092568226
57	0x3dbe7705	0.09300045
58	0xbd7c7c67	-0.061642077
59	0xbd993450	-0.07480681
60	0xbd50fc6b	-0.051021975
61	0x3c4d27f9	0.012521737
62	0xbc5a4e94	-0.013324399
63	0xbda16b44	-0.078817874

weight f4 [2, 64]
0	0x3d4b8024	0.04968275
1	0xbccd102d	-0.025032127
2	0xbd8cf1f9	-0.0688209
3	0x3e2eae44	0.17058665
4	0xbe165433	-0.14680557
5	0x3de5a4a9	0.11213047
6	0x3e0581e4	0.1303783
7	0xbd0ea692	-0.034826823
8	0xbdc962a2	-0.09833266
9	0x3e0844a0	0.13307428
10	0xbc8b301f	-0.01699072
11	0xbca39245	-0.019967208
12	0xbce41214	-0.027840652
13	0x3dd8cd98	0.10586089
14	0xbdf37937	-0.11888354
15	0x3c77e43f	0.015130102
16	0x3dc5325d	0.09628747
17	0xbe106d9d	-0.14104314
18	0xbda0de3b	-0.07854887
19	0xbd07e844	-0.03318049
20	0x3d652e62	0.055952437
21	0x3cff029e	0.031129178
22	0xbd15c2ea	-0.036562838
23	0xbd89cb81	-0.067282684
24	0x3e1a16ee	0.1504781
25	0x3e0dadd6	0.13835844
26	0x3c9994fc	0.0187478
27	0x3decb17c	0.1155729
28	0x3e13e590	0.1444304
29	0xbe19f58e	-0.15035078
30	0x3e1a7234	0.15082628
31	0x3d0988d5	0.03357776
32	0xbc98249a	-0.01857214
33	0x3daed74c	0.08537158
34	0xbde40979	-0.11134619
35	0x3dd9a426	0.10627012
36	0xbda3a1bb	-0.07989832
37	0xbdc3ea29	-0.09566147
38	0xbdea1fd0	-0.11431849
39	0x3d03e93e	0.03220486
40	0x3d979c90	0.07402909
41	0xbe1f0df9	-0.15532674
42	0xbdc8d1c0	-0.09805632
43	0xbd3bd7cf	-0.045860108
44	0xbdbe40a5	-0.09289674
45	0xbe027634	-0.12740403
46	0xbd7fa662	-0.062414534
47	0x3dc5d8a1	0.09660459
48	0x3dabe3df	0.08393072
49	0xbaaf5e8e	-0.001337962
50	0xbdcc9b8f	-0.09990608
51	0xbc29af90	-0.010356799
52	0x3e0be81a	0.13662758
53	0xbda2b1b2	-0.07944049
54	0xbc18e69e	-0.009332327
55	0xbcc0314b	-0.023461005
56	0x3cd4f68c	0.025996469
57	0x3e005614	0.12532836
58	0xbddc61da	-0.10760851
59	0xbdff3c9f	-0.124627344
60	0xbce0d73b	-0.02744638
61	0x3d9a917b	0.075472794
62	0xbcea06e8	-0.028567746
63	0x3d3e5c01	0.04647446
64	0xbc2f4030	-0.010696456
65	0xbde9f081	-0.114228256
66	0xbcaa8eb5	-0.020820001
67	0x3d599dd1	0.05312902
68	0xbd1bb28a	-0.038012065
69	0xbd0c7ac1	-0.034296755
70	0xbe2933ea	-0.1652371
71	0x3e0054e9	0.1253239
72	0x3d86525c	0.065586776
73	0xbdbcc97a	-0.09218116
74	0xbdb364a0	-0.08759427
75	0xbd81bf92	-0.06335367
76	0x3e108219	0.14112128
77	0xbd4567b1	-0.04819459
78	0x3e20ab9c	0.15690464
79	0x3ddc494e	0.10756169
80	0xbd09a845	-0.03360774
81	0x3b3dfa15	0.0028988172
82	0xbc075252	-0.008259373
83	0x3d9c460e	0.07630549
84	0xbdf5cbc4	-0.12001756
85	0xbc3f59e3	-0.0116791455
86	0x3e19d869	0.1502396
87	0x3d83d943	0.06437924
88	0xbe014d59	-0.12627162
89	0xbd080c1a	-0.033214666
90	0xbe046f23	-0.1293302
91	0xbdd137e9	-0.10215742
92	0x3d7256a9	0.059164677
93	0x3b893fc9	0.004188512
94	0xbdeebf1c	-0.11657545
95	0xbe092ef2	-0.13396814
96	0xbdb3a863	-0.087723516
97	0xbe06f9fe	-0.13181302
98	0x3de31121	0.110872515
99	0x3e032c34	0.12809831
100	0x3d71661a	0.058935262
101	0x3e2158ed	0.15756579
102	0x3d0b379b	0.033988576
103	0x3e14d899	0.1453575
104	0xbd4b8ce9	-0.04969493
105	0x3dda14ed	0.106485225
106	0xbc4554d6	-0.012044152
107	0x3d6e3059	0.058151577
108	0x3c614a80	0.013750672
109	0x3cb5278d	0.022113586
110	0xbe23d927	-0.16000806
111	0xbdc27e07	-0.09496694
112	0xbd47d5b4	-0.048787788
113	0x3e1861de	0.14881083
114	0x3db54b1e	0.08852218
115	0x3d897d80	0.0671339
116	0x3d8368b5	0.06416456
117	0x3dbd58f9	0.09245486
118	0x3e133a16	0.14377627
119	0x3cd711d0	0.02625361
120	0x3e25cbbb	0.16190998
121	0xbce9d6ea	-0.028544862
122	0x3e1ee80b	0.15518205
123	0x3e1b01a1	0.1513734
124	0xbdf7be61	-0.12096859
125	0xbcd02600	-0.025408745
126	0x3dd8795e	0.10570024
127	0x3e026ad1	0.1273606

bias f4 [2]
0	0xbdb590b3	-0.0886549
1	0xbda6e05f	-0.08148264

weight f4 [64, 4]
0	0xbf0dfd28	-0.5546441
1	0x3dce0b38	0.100607336
2	0xc0343f72	-2.8163724
3	0x3d2b6210	0.041841567
4	0xbf722ca0	-0.9459934
5	0x3f69dd32	0.9135314
6	0xbfcc3d67	-1.5956239
7	0x3f8d0f42	1.1020281
8	0x3f93a5e2	1.1534998
9	0xbe05844c	-0.13038749
10	0xc0069167	-2.1026247
11	0xbe211f1f	-0.15734528
12	0x3ea271ce	0.3172745
13	0xbe93d94e	-0.28876728
14	0x402b3a18	2.6754208
15	0xbe8eac09	-0.27865627
16	0xbf758613	-0.95907706
17	0x3e585182	0.21124843
18	0xbfd6a66f	-1.6769542
19	0xbd1fbd14	-0.03899868
20	0x3f2b98a0	0.6702976
21	0xbc224514	-0.009904165
22	0xbfbd8189	-1.4805156
23	0xbf1ff165	-0.62477714
24	0xbf02461c	-0.5088823
25	0xbad4615a	-0.001620333
26	0xc004c825	-2.0747159
27	0xbc07fd32	-0.008300113
28	0xbe0da18a	-0.13831154
29	0x3d2b6152	0.04184086
30	0x40468dbc	3.1024008
31	0x3e968af9	0.29402903
32	0xbf3313e8	-0.6995225
33	0x3e316419	0.1732334
34	0xc01b68eb	-2.4282787
35	0x3d92f383	0.071753524
36	0xbf596fba	-0.84936106
37	0x3dc7951e	0.09745239
38	0xbffb8451	-1.9649755
39	0xbea11f52	-0.31469208
40	0xbf12050c	-0.5703895
41	0xbdd3945c	-0.10331032
42	0x403380b6	2.804731
43	0x3f095e8b	0.53659886
44	0x3e8d6105	0.27613083
45	0x3f54c97f	0.8311996
46	0x3f0c4c38	0.548038
47	0x3f46c244	0.77640176
48	0x3dbea4ef	0.09308802
49	0xbef67fd6	-0.48144406
50	0xc009ff37	-2.156202
51	0xbf207df3	-0.62692183
52	0xc007837e	-2.1174006
53	0xbf01b926	-0.5067314
54	0x3fe3e4f0	1.7804241
55	0x3c689d23	0.014197621
56	0x3cd63901	0.026150228
57	0x3f0561d2	0.52102387
58	0x4020b534	2.5110598
59	0x3d1673c5	0.0367315
60	0x3f5ea6c2	0.869732
61	0x3eb9581e	0.3620004
62	0x3e42b34c	0.19013709
63	0x3ea447bc	0.3208598
64	0x3f6368fa	0.88832057
65	0xbe27f004	-0.16400152
66	0x3f73e121	0.95265394
67	0xbd150c47	-0.03638866
68	0xbd7a907d	-0.06117295
69	0xbe36bcb0	-0.17845416
70	0xc028cbfb	-2.63745
71	0xbeaed79e	-0.34148878
72	0x3f3979d1	0.724515
73	0xbf430646	-0.7618145
74	0x40073797	2.112768
75	0xbf1aa189	-0.60402733
76	0xbf10d9e6	-0.56582487
77	0xbebc9d6f	-0.36838862
78	0xc003af02	-2.0575566
79	0xbe94cb56	-0.29061383
80	0xbf52b9d0	-0.8231478
81	0xbd9219c2	-0.07133819
82	0x4029386d	2.644069
83	0x3f1e2ea7	0.61789936
84	0xbec0ab49	-0.3763068
85	0xbf042d69	-0.5163179
86	0xbfbe2f49	-1.485818
87	0xbee88a8d	-0.45418206
88	0xc00b0304	-2.172059
89	0x3ec64d53	0.3873087
90	0x3f5daf8a	0.86595976
91	0xbd08c200	-0.033388138
92	0xbce58b81	-0.028020622
93	0x3fb385cd	1.4025208
94	0xbf5e34bb	-0.8679921
95	0x3f7662dc	0.962446
96	0x3f815e91	1.0106984
97	0x3f032a65	0.51236564
98	0x3fafef43	1.3744892
99	0x3f1f31da	0.6218544
100	0xbf03f2fd	-0.51542646
101	0x3e101fbe	0.14074609
102	0xc0311d24	-2.7674036
103	0xbd8dfac5	-0.06932596
104	0xbde17ef6	-0.11010544
105	0xbf57a99e	-0.8424319
106	0xbfac8aa1	-1.3479806
107	0xbf0575c1	-0.52132803
108	0xbe9b5bbc	-0.30343425
109	0xbf58cf9c	-0.84691787
110	0xbf1ba7e9	-0.60803086
111	0xbf49246c	-0.785712
112	0x4006a3ab	2.1037395
113	0x3f1feeb2	0.62473595
114	0xbfdd5424	-1.7291303
115	0x3f7fa822	0.99865925
116	0x3fb2c2c7	1.3965691
117	0xbea59700	-0.32341766
118	0x3e74c53d	0.23903365
119	0xbc9c79fd	-0.019101137
120	0x3ed17669	0.40910652
121	0x3ded2e18	0.11581057
122	0x3fe86522	1.8155863
123	0x3e9c4235	0.30519262
124	0xbecd2d87	-0.40073797
125	0xbdc83f0e	-0.09777652
126	0xc030e049	-2.7636893
127	0xbeab286e	-0.33429283
128	0x3faf7c6f	1.3709849
129	0xbf7fab65	-0.998709
130	0xbf1714ee	-0.5901631
131	0xbf457d44	-0.77144265
132	0xbe8d2e18	-0.2757423
133	0xbe927ca9	-0.28610733
134	0xc0193d30	-2.3943596
135	0xbe91dc1a	-0.28488237
136	0xbf561132	-0.8361999
137	0x3f53b6f3	0.82701033
138	0x3fac6f90	1.3471546
139	0x3ed91e6e	0.42406029
140	0x4002705e	2.0381083
141	0x3f049579	0.5179058
142	0xc014a243	-2.3224037
143	0x3e023581	0.12715723
144	0xbeb0f8ca	-0.3456481
145	0xbedcbda3	-0.4311343
146	0xbff965a5	-1.9484144
147	0xbebf20ea	-0.373298
148	0x3f968b78	1.1761312
149	0xbf7e27ee	-0.9927968
150	0x3ee4e37e	0.44704813
151	0xbf460ffd	-0.77368146
152	0xbf2a553d	-0.66536313
153	0x3f0d9727	0.55308765
154	0xc02a95f4	-2.6654024
155	0x3ed13c8c	0.40866506
156	0x3f2f5afb	0.684982
157	0x3e35b4bb	0.17744724
158	0x3f69354b	0.91096944
159	0x3eefdb8f	0.46847197
160	0xbf5a019a	-0.85158694
161	0xbe7bc093	-0.2458518
162	0x40060697	2.0941522
163	0xbdd1bac6	-0.10240702
164	0x3f0d89cc	0.55288386
165	0xbe1e6406	-0.15467843
166	0x4022dc17	2.5446832
167	0x3dd0830a	0.10181244
168	0x3fb93422	1.4469035
169	0x3e111d50	0.14171338
170	0xbf6f222d	-0.93411523
171	0xbe5345fc	-0.20632166
172	0xbde34ac1	-0.110982426
173	0x3f8b5b1b	1.0887178
174	0xbf033efe	-0.51267993
175	0x3f648615	0.8926709
176	0xbf6cc444	-0.9248698
177	0x3f0b6c0f	0.5446176
178	0x3ff3735d	1.9019581
179	0x3d82c09c	0.063843936
180	0xbe8c073f	-0.27349278
181	0xbf0d1360	-0.5510769
182	0x4031fce9	2.7810614
183	0x3f0822fb	0.53178376
184	0x3f70dce0	0.9408703
185	0xbf8c914b	-1.098184
186	0x3e083796	0.13302454
187	0xbf50ea54	-0.81607556
188	0x3ed7b68e	0.42131466
189	0xbe931f26	-0.28734702
190	0x40137607	2.3040788
191	0x3c921146	0.017830502
192	0x3f21ab50	0.6315203
193	0x3d92eb85	0.07173828
194	0x40202fe0	2.502922
195	0x3ddb661b	0.107128344
196	0x3f8532e1	1.0406152
197	0xbf0d86dd	-0.5528391
198	0x3fe94b0c	1.8226027
199	0xbd906547	-0.07050567
200	0xbebf8688	-0.37407327
201	0xbddb5585	-0.10709671
202	0xc01543d4	-2.332265
203	0xbe9e7647	-0.30949613
204	0x3e46c961	0.19412757
205	0xbfbaeecc	-1.4604125
206	0x3fe3c021	1.7793008
207	0xbfa55bb0	-1.2918606
208	0x3f3f6131	0.7475768
209	0xbf605927	-0.87636036
210	0x3fe7e62b	1.8117117
211	0xbf57f6a9	-0.8436075
212	0xc02088b9	-2.508345
213	0xbf416d09	-0.75557
214	0x3fcf2736	1.6183841
215	0xbe8a6e78	-0.27037406
216	0xbf0b2f13	-0.54368705
217	0x3e1a2a89	0.15055288
218	0xbfefa84a	-1.8723233
219	0x3e9961df	0.29957482
220	0xbe8ffe44	-0.28123677
221	0x3dc494e9	0.09598715
222	0xc0300123	-2.7500694
223	0x3e56dd7e	0.2098293
224	0x3f16353b	0.58674973
225	0x3ebac98d	0.36481896
226	0x3f823049	1.0170985
227	0x3f0014a0	0.5003147
228	0xbf5b8e23	-0.8576376
229	0xbe514447	-0.20436202
230	0xbfcc233c	-1.5948253
231	0xbec5333d	-0.38515654
232	0xbed3bf86	-0.41357058
233	0xbdcfef18	-0.101530254
234	0xc0263b3b	-2.5973651
235	0x3d8b5496	0.06803243
236	0xbed25328	-0.41079068
237	0xbe80a79d	-0.2512788
238	0xc0241c4a	-2.5642266
239	0xbe59b36b	-0.21259849
240	0x3ec62604	0.3870088
241	0xbe1a8878	-0.15091121
242	0x400d820f	2.2110631
243	0x3dd83103	0.10556223
244	0xbeeac26a	-0.4585145
245	0x3ecf68d0	0.40509653
246	0x3fb2e090	1.3974781
247	0xbebf1707	-0.37322256
248	0xbf69e2dd	-0.9136179
249	0x3e6f25a1	0.23354198
250	0xbfb44292	-1.4082816
251	0x3d9c35d3	0.07627454
252	0xbf8e117a	-1.1099083
253	0x3e1a9172	0.15094545
254	0x3f651ca3	0.8949682
255	0x3f0fb7a8	0.5613961

bias f4 [64]
0	0x3e967d0b	0.29392275
1	0x3e069b78	0.13145244
2	0x3f1cc3f4	0.612365
3	0x3d059127	0.03260913
4	0xbf0c5c89	-0.548287
5	0x3ed67eb8	0.41893554
6	0xbebd6abc	-0.36995494
7	0x3ef7d6bf	0.48406026
8	0xbeeb4ffb	-0.45959458
9	0x3d6facf4	0.05851455
10	0xbf3b2211	-0.73098856
11	0x3dae2f25	0.08505086
12	0x3ec022af	0.3752646
13	0x3f34aaf1	0.70573336
14	0x3ee02a04	0.43782055
15	0xbe0f1bd2	-0.13975456
16	0x3e981147	0.29700682
17	0x3eb3448b	0.35013232
18	0x3b24c48d	0.0025141567
19	0xbed422bb	-0.41432747
20	0x3f5eb296	0.8699125
21	0xbf080457	-0.5313162
22	0xbcaaa052	-0.0208284
23	0x3de7d245	0.113194026
24	0xbdb29ca3	-0.08721282
25	0x3eab283e	0.3342914
26	0x3d2e580b	0.042564433
27	0xbea70c4f	-0.32626578
28	0xbdfc5722	-0.12321307
29	0xbdb82cf2	-0.08992948
30	0xbe40609a	-0.1878685
31	0x3eb9c3db	0.36282238
32	0xbec64e41	-0.38731578
33	0x3e4ba04e	0.1988537
34	0x3ee681b4	0.4502083
35	0x3f09fd35	0.5390199
36	0x3e8c6e49	0.2742789
37	0x3e9432b8	0.28944945
38	0x3e16d3d0	0.14729238
39	0xbea272ff	-0.3172836
40	0x3f136320	0.5757313
41	0xbe56780c	-0.20944232
42	0xbf1b98e7	-0.60780185
43	0x3d98a453	0.07453217
44	0xbeb15be0	-0.34640408
45	0x3f4d6b83	0.80242175
46	0x3da066d4	0.07832113
47	0xbdb30b55	-0.08742396
48	0x3f01a684	0.5064471
49	0x3c809eda	0.015700746
50	0x3e573fe2	0.21020463
51	0xbb71b502	-0.003688157
52	0xbd8b6dc5	-0.06808046
53	0xbedacc64	-0.42734063
54	0x3d871033	0.06594887
55	0xbc475220	-0.012165576
56	0xbe47fe0b	-0.19530503
57	0x3d36cba0	0.044627786
58	0x3e6fc919	0.23416556
59	0x3eab2d77	0.33433124
60	0xbe8856a7	-0.2662861
61	0xbd8ee9de	-0.069782004
62	0xbe9cf12b	-0.30652747
63	0x3f2a1c11	0.66449076

weight f4 [64, 64]
0	0x3e179093	0.14801244
1	0xbf13ae90	-0.57688236
2	0x3f3de8b8	0.74183226
3	0x3f530592	0.82430375
4	0xbeac2261	-0.3361998
5	0x3f21446d	0.62995034
6	0xbf2e2b71	-0.68035036
7	0x3eee357d	0.46525183
8	0xbe95303b	-0.2913836
9	0xbe91d8db	-0.2848576
10	0xbf1f0673	-0.62119216
11	0xbf29dd79	-0.66353565
12	0x3ec610ac	0.38684595
13	0xbd77c595	-0.060491163
14	0x3f0a355f	0.5398769
15	0x3f01a6d4	0.50645185
16	0x3e8b74f3	0.27237663
17	0x3eba4058	0.36377215
18	0x3f2fadcf	0.68624586
19	0xbd48a0d1	-0.04898149
20	0xbcfea55c	-0.031084709
21	0xbf27dfe7	-0.6557602
22	0xbfa079f7	-1.2537221
23	0xbf5f7f38	-0.87303495
24	0xbce8066c	-0.028323375
25	0x3e9417d0	0.28924417
26	0x3f5b2501	0.8560334
27	0x3e9ce810	0.306458
28	0x3f2ebd0c	0.6825721
29	0x3f161300	0.5862274
30	0xbe114aad	-0.14188643
31	0x3edf171b	0.43572316
32	0x3f32bb4a	0.6981703
33	0x3f1376c6	0.5760311
34	0xbf0da472	-0.5532905
35	0x3f567efa	0.837875
36	0x3efa3436	0.4886796
37	0x3f92ef50	1.1479282
38	0xbdda640d	-0.106636144
39	0xbda7c4a9	-0.08191807
40	0xbe8c4c09	-0.2740176
41	0xbd37551f	-0.044758912
42	0x3e795a28	0.24350798
43	0xbf2246e3	-0.63389415
44	0xbf511f4a	-0.8168837
45	0x3e145ab6	0.14487728
46	0x3fcb31c8	1.5874567
47	0x3e0b26d1	0.13589026
48	0x3e48f83d	0.19625945
49	0x3f8829cb	1.0637754
50	0x3d090b24	0.03345789
51	0x3f348278	0.7051158
52	0x3f5d5316	0.86454904
53	0xbf634843	-0.8878214
54	0x3e189179	0.14899243
55	0xbeae2c4f	-0.3401818
56	0x3ec6e947	0.3884985
57	0xbd2fba6e	-0.042902403
58	0x3ee6dc82	0.4509011
59	0x3eb3e7d7	0.35137817
60	0xbdd04d24	-0.101709634
61	0xbf2b0e1f	-0.6681842
62	0xbecd276a	-0.40069133
63	0xbe559050	-0.20855832
64	0xbf85d2f1	-1.0454999
65	0xbf4d6196	-0.8022703
66	0xbecfa207	-0.40553305
67	0x3f3e24bb	0.74274796
68	0xbdd42328	-0.10358268
69	0xbe170d4f	-0.1475117
70	0xbe8af316	-0.27138585
71	0x3ef8f0d0	0.48621225
72	0xbdeed446	-0.11661582
73	0xbe15d3d0	-0.14631581
74	0x3f355681	0.7083512
75	0xbe7d316c	-0.24725884
76	0xbec8577c	-0.39129245
77	0x3ea508dd	0.32233325
78	0x3e9f9a77	0.31172535
79	0x3d83265f	0.06403803
80	0x3d6263ed	0.055271078
81	0xbf51e635	-0.81991893
82	0x3ed5ade4	0.4173423
83	0xbd3fbf3b	-0.04681323
84	0xbdb4e174	-0.08832064
85	0x3e0188bf	0.1264982
86	0x3e60772f	0.21920465
87	0xbeb18b18	-0.34676433
88	0xbd46267a	-0.048376538
89	0xbfb2a19e	-1.3955572
90	0xbdd4a6b5	-0.10383359
91	0x3e4cb98d	0.19992657
92	0xbf1a827e	-0.60355365
93	0x3df6bead	0.12048087
94	0x3e5b91fb	0.21442406
95	0xbf7fbd52	-0.99898255
96	0x3ee3b0da	0.44470865
97	0xbf278e43	-0.6545145
98	0xba68d490	-0.0008881772
99	0xbf80ba84	-1.005692
100	0xbeb9d2b4	-0.36293566
101	0xbd7e7d18	-0.062131017
102	0xbf874181	-1.0566865
103	0x3e389fbf	0.18029688
104	0x3e6803d0	0.22657704
105	0x3f037501	0.5135041
106	0xbe301475	-0.17195304
107	0xbea28090	-0.3173871
108	0x3f1310a8	0.5744729
109	0x3bfccb32	0.0077146525
110	0x3e68c546	0.22731504
111	0x3ee6e7d3	0.45098743
112	0xbc380144	-0.0112307705
113	0x3e1d4575	0.15358527
114	0xbe8f4456	-0.27981824
115	0x3f6da1c3	0.92824954
116	0x3f0e9236	0.5569185
117	0x3f3c5b1b	0.73576516
118	0xbeb92d16	-0.3616721
119	0xbee897aa	-0.4542821
120	0xbdfadd70	-0.12249267
121	0x3de629ab	0.11238416
122	0xbf8a7db5	-1.0819613
123	0xbeccc93a	-0.39997274
124	0x3ecdad2a	0.40171176
125	0x3ed59bb6	0.4172036
126	0xbe3f1626	-0.18660793
127	0xbe07113b	-0.13190167
128	0x3dfbc163	0.12292745
129	0xbca22cc8	-0.019796744
130	0xbe2120a6	-0.1573511
131	0xbf4d3386	-0.80156744
132	0x3eccd5fd	0.4000701
133	0xbe94e45f	-0.29080483
134	0x3f91081c	1.13306
135	0xbf9f7e6c	-1.2460456
136	0x3f43a74a	0.7642714
137	0xbd881308	-0.06644255
138	0x3ee0fb34	0.43941653
139	0xbce17905	-0.027523527
140	0xbd1220e6	-0.035675906
141	0xbf69eb76	-0.9137491
142	0xbf5ad8e9	-0.8548723
143	0x3ec3b853	0.38226566
144	0xbe467239	-0.1937951
145	0x3cbc7b07	0.023007883
146	0xbda557e9	-0.08073408
147	0x3f23c1ea	0.63967764
148	0xbfae8cbe	-1.3636701
149	0x3f8a2ce1	1.0794946
150	0xbf017839	-0.5057407
151	0x3e86731c	0.26259696
152	0x3e505646	0.2034541
153	0xbdfdf33b	-0.12399908
154	0xbd8d46fd	-0.068983056
155	0x3e3daaee	0.18522236
156	0x3f33b1a6	0.70192945
157	0x3ef8c7e4	0.48590004
158	0x3d65dbd5	0.05611785
159	0xbd703d23	-0.058652055
160	0x3f040530	0.51570415
161	0xbc1c8032	-0.0095520485
162	0xbf0a16e0	-0.53941154
163	0xbde810d1	-0.113313325
164	0xbd7b9a4d	-0.06142645
165	0xbecdf1b7	-0.40223476
166	0x3eb59fcb	0.35473475
167	0x3e34fed6	0.17675337
168	0xbf4582c3	-0.7715265
169	0xbe15454f	-0.1457722
170	0x3f42ebf6	0.761413
171	0x3eadd8aa	0.33954364
172	0xbd8afe93	-0.067868374
173	0xbf91e4bc	-1.1397929
174	0x3dfb7965	0.122790135
175	0xbe5352ad	-0.20637007
176	0xbf50dc1e	-0.8158587
177	0x3e864f15	0.2623221
178	0x3e32d819	0.17465247
179	0xbf20f5dd	-0.6287516
180	0xbc8953b7	-0.016763551
181	0x3b142a78	0.002260832
182	0xbdc2f052	-0.09518494
183	0x3f04821a	0.5176102
184	0x3e0e079b	0.13870089
185	0xbde0318d	-0.10946951
186	0xbbf4b774	-0.0074681584
187	0xbe1ceeec	-0.15325516
188	0xbea5bc96	-0.32370442
189	0x3de19f34	0.11016694
190	0x3e8cb08f	0.27478454
191	0xbf47dd74	-0.78072286
192	0x3ee9064a	0.4551261
193	0x3f735715	0.9505475
194	0x3b717827	0.0036845298
195	0xbf6ef470	-0.9334173
196	0x3f1a9045	0.6037639
197	0x3df6ce44	0.12051061
198	0x3f7970fc	0.97438025
199	0xbf55ef92	-0.8356868
200	0x3f909d9e	1.1298101
201	0x3e3dd461	0.18538047
202	0xbbfd6670	-0.007733159
203	0x3e386d69	0.18010487
204	0x3e07f63c	0.13277525
205	0xbf099c28	-0.537539
206	0xbf237aca	-0.63859236
207	0x3ec0e35c	0.3767346
208	0xbeff9819	-0.4992073
209	0x3dfcc61c	0.12342474
210	0xbf58d9b9	-0.8470722
211	0x3eeefec1	0.46678737
212	0xbefc8c90	-0.4932599
213	0x3eb9db80	0.36300278
214	0x3d72173b	0.059104186
215	0x3f4a10d0	0.78931904
216	0x3e87c6a8	0.2651875
217	0x3f0a3773	0.5399086
218	0xbe759841	-0.23983862
219	0xbe80d177	-0.2515981
220	0x3f050920	0.5196705
221	0x3d127012	0.03575141
222	0xbe2ed46a	-0.17073217
223	0x3e050d65	0.12993391
224	0xbf053b79	-0.52043873
225	0x3d89d1e9	0.0672949
226	0x3eafbcc8	0.34323716
227	0x3dd4974f	0.10380422
228	0x3dcfc726	0.101454064
229	0xbf554b81	-0.83318335
230	0x3f69ee3c	0.9137914
231	0xbdb375b3	-0.08762684
232	0xbf0e5a06	-0.55606115
233	0xbe84d7f9	-0.25946024
234	0x3e82995e	0.25507635
235	0x3f1e2294	0.6177151
236	0xbe2f78b7	-0.17135893
237	0xbf410f28	-0.7541375
238	0xbf313f37	-0.69237083
239	0xbe5b3f31	-0.21410824
240	0xbf7dd0d8	-0.99146795
241	0xbe72dd68	-0.23717272
242	0x3e16887c	0.14700502
243	0xbfc4457d	-1.5333706
244	0xbf5cc0dc	-0.8623178
245	0xbe084f62	-0.13311532
246	0x3ee0875c	0.4385327
247	0x3eb58ccf	0.3545899
248	0x3e62ab50	0.22135663
249	0xbd1d31fc	-0.038377747
250	0x3eb4a0d6	0.35278958
251	0x3e85e688	0.26152444
252	0xbe6f90db	-0.23395102
253	0xbe853510	-0.26017046
254	0x3f166bbb	0.58758134
255	0xbe7e0b11	-0.24808909

bias f4 [64]
0	0x3d9b948b	0.07596692
1	0xbe8b9089	-0.2725871
2	0xbe4ce339	-0.20008554
3	0xbd0cf61a	-0.03441439
4	0xbe37efea	-0.17962614
5	0xbe36924d	-0.17829247
6	0xbf1e5965	-0.61855155
7	0x3f03304e	0.5124558
8	0xbe26e2ed	-0.16297503
9	0xbee9cf74	-0.45666087
10	0xbe873a32	-0.26411587
11	0x3d8a075f	0.06739687
12	0xbe84c7dc	-0.2593373
13	0x3f064cb0	0.52460766
14	0xbe00e37b	-0.12586777
15	0x3e548afd	0.20756145
16	0xbe86efd0	-0.26354837
17	0xbd9d4fad	-0.076812126
18	0x3e7a7084	0.24456984
19	0x3a83217a	0.0010004484
20	0x3debbc62	0.115105405
21	0x3f291279	0.6604381
22	0x3e389d82	0.18028834
23	0x3ef1c3dc	0.4721974
24	0xbe21dc0a	-0.15806594
25	0xbed7083e	-0.41998476
26	0x3eb907b9	0.36138704
27	0x3eb19454	0.34683478
28	0xbd19d57b	-0.037557106
29	0xbee82069	-0.45337227
30	0xbe9d2ca0	-0.3069811
31	0x3ecf3472	0.404697
32	0xbe18732f	-0.14887689
33	0x3efadeec	0.489982
34	0xbeb038df	-0.3441839
35	0x3d1249bb	0.035714846
36	0xbe5f578e	-0.21810743
37	0xbb314648	-0.0027049948
38	0x3d87975c	0.066206664
39	0xbec94a05	-0.39314285
40	0x3eac14e0	0.33609676
41	0xbe9a065c	-0.30082977
42	0xbda2af81	-0.07943631
43	0x3ddfd231	0.10928763
44	0x3e22dbfd	0.15904231
45	0xbf0e6ed3	-0.55637854
46	0xbdb865c9	-0.09003789
47	0x3e902214	0.28151
48	0xbf001b6b	-0.50041837
49	0x3e340717	0.1758083
50	0xbd173b1c	-0.036921605
51	0x3e2e12b6	0.16999325
52	0xbf038863	-0.51379985
53	0x3e91af10	0.28453875
54	0x3ee78f1d	0.45226374
55	0x3e7a92fa	0.2447013
56	0xbe8498cc	-0.25897825
57	0x3e5a1d6f	0.2130029
58	0xbe9a57ad	-0.30145016
59	0xbe89c107	-0.2690508
60	0x3cd6050b	0.026125452
61	0x3d573013	0.05253608
62	0x3d5f105c	0.05445896
63	0xbc9784f6	-0.018496018

weight f4 [1, 64]
0	0x3f9af056	1.2104595
1	0xbfe634bd	-1.7984844
2	0xbfcffc3b	-1.624885
3	0xc0037136	-2.0537848
4	0xc002a99f	-2.0416028
5	0xc01398bd	-2.3061974
6	0xbfb6ea1f	-1.4290198
7	0x3fb2a6a2	1.3957102
8	0xbfd4dbf7	-1.6629628
9	0xbf5ba75b	-0.8580224
10	0xbf2519d6	-0.6449255
11	0xbf4e8873	-0.80676955
12	0x3f6fc570	0.9366064
13	0x3f3018fa	0.6878811
14	0xbfcf0aee	-1.617521
15	0x3ff7a63f	1.9347609
16	0xbfd8b9f3	-1.6931747
17	0xbff41372	-1.9068434
18	0x3fb8fd5d	1.445232
19	0xbff31039	-1.8989326
20	0x3f710d64	0.9416106
21	0x3fe840d3	1.8144783
22	0x3fc1c134	1.5137086
23	0x40052762	2.0805287
24	0x3fa17a80	1.2615509
25	0x3fbd2ed3	1.4779915
26	0x3f0524ff	0.52009577
27	0x400e6eb4	2.2255068
28	0xbfd7e5e4	-1.6867032
29	0xbf8f54bc	-1.1197734
30	0xbf9e0977	-1.2346638
31	0xbe8f881f	-0.2803354
32	0x3f6c292f	0.9225034
33	0x3fb9da0a	1.4519665
34	0xbfb639f1	-1.4236432
35	0x3fc69f38	1.551734
36	0xbfccde64	-1.6005368
37	0x3fcc79bb	1.5974649
38	0xbf725b24	-0.9467032
39	0xbfc091b7	-1.5044469
40	0x40012757	2.018026
41	0xbf78885b	-0.9708306
42	0xbfd001a0	-1.6250496
43	0xbffb5c99	-1.9637634
44	0x3fe8ac9d	1.8177677
45	0xbf928681	-1.1447297
46	0x3fb69b7e	1.4266202
47	0x3f9429a2	1.1575205
48	0xbfc6a127	-1.551793
49	0x4004ce50	2.0750923
50	0xbf98a595	-1.1925532
51	0x3f90638d	1.128038
52	0xbfbbc836	-1.4670475
53	0x3fe56e7b	1.7924341
54	0x3f240496	0.640695
55	0x3fa8a472	1.3175185
56	0xbfd15fbc	-1.6357341
57	0x3f987740	1.1911392
58	0xbf227359	-0.63457257
59	0xbf8bb49c	-1.0914493
60	0x3fa1f4bd	1.2652813
61	0xbfacbdbc	-1.3495402
62	0x3f8d35bc	1.1032023
63	0x3f94d638	1.1627874
