data/1008CartPole-v0_dqn_noisy/1008CartPole-v0_dqn_noisy_s30/pyt_save/model.pt (torch, 208443 bytes, 14 tensors)

weight f4 [128, 4]
0	0x395334c9	0.00020142192
1	0xbeeed03c	-0.46643245
2	0xbfcc1cba	-1.5946267
3	0xbf02a615	-0.5103467
4	0x3e662376	0.22474465
5	0x3e826190	0.2546506
6	0x3ee75318	0.45180583
7	0x3db35d00	0.08757973
8	0xbfa29f77	-1.2704915
9	0xbee9a7dc	-0.4563588
10	0xbf9cbfc3	-1.2246021
11	0xbe76f883	-0.24118237
12	0x3eefdbd6	0.4684741
13	0xbee7d129	-0.45276764
14	0xbc7f5e74	-0.015586484
15	0xbecc3394	-0.398831
16	0xbed042d8	-0.40675998
17	0x3c84f512	0.01623014
18	0x3e908307	0.28224966
19	0x3dad50a0	0.084626436
20	0x3a905e4a	0.0011014428
21	0x3d029202	0.031877525
22	0x3eb54d2c	0.3541044
23	0xbe31969b	-0.17342608
24	0xbda42580	-0.08014965
25	0x3de89296	0.11356084
26	0x3e35bea6	0.17748508
27	0x3ca3549b	0.019937804
28	0x3e218251	0.15772368
29	0x3de2da61	0.11076809
30	0xbec1090c	-0.37702215
31	0x3dfe7fa4	0.12426689
32	0xbe54185c	-0.20712417
33	0x3e6e2f54	0.23260242
34	0xbea14d66	-0.31504363
35	0x3e90cda6	0.28281897
36	0xbf63a140	-0.8891792
37	0xbf1d1094	-0.6135342
38	0xbe601e81	-0.21886636
39	0xbedad43e	-0.42740053
40	0xbd965df3	-0.07342138
41	0x3e0076a7	0.12545262
42	0xbe955eb4	-0.29173815
43	0x3d8bd494	0.068276554
44	0xbe94a3ce	-0.29031223
45	0x3e1a63d8	0.1507715
46	0x3ec0cc3e	0.37655824
47	0x3e6a5f48	0.2288791
48	0x3ea817ff	0.32830808
49	0x3c590a05	0.013247018
50	0x3fcff8c8	1.6247797
51	0x3e3f6e55	0.18694432
52	0x3dbfc700	0.09364128
53	0x3df2436e	0.118292674
54	0xbed01644	-0.40641987
55	0xbe31f975	-0.17380317
56	0x3d2058ff	0.039147373
57	0x3e94b615	0.29045168
58	0x3f73cc77	0.95233864
59	0x3eae3411	0.340241
60	0x3ee51313	0.44741115
61	0x3f16f46f	0.58966726
62	0x3ea15552	0.31510407
63	0x3ee088ea	0.43854457
64	0xbdbf44d8	-0.09339303
65	0x3d883d69	0.06652338
66	0x40262952	2.596272
67	0x3ebd1570	0.36930418
68	0x3d482adc	0.048869
69	0xbcccd88b	-0.0250056
70	0x3ea71805	0.32635513
71	0x3e1f188f	0.15536712
72	0xbec68ae0	-0.38777828
73	0x3e6e46b1	0.23269154
74	0x3f174560	0.5909023
75	0x3e51bd30	0.20482326
76	0xbdf89237	-0.12137263
77	0xbee98844	-0.45611775
78	0xbea29280	-0.31752396
79	0xbe7595e8	-0.23982966
80	0x3f0b9c66	0.5453552
81	0xbd5a01e2	-0.05322445
82	0x3d2ed56f	0.042684015
83	0xbe0fecc9	-0.1405517
84	0x3e99c833	0.30035552
85	0x3e8bc3cc	0.2729782
86	0x3f6e752a	0.9314753
87	0x3e358a70	0.17728591
88	0xbc4f1577	-0.012639395
89	0x3de1b468	0.11020738
90	0xbebe99b4	-0.3722664
91	0xbd8097a9	-0.06278927
92	0xbdf8d4e0	-0.12149978
93	0x3d661500	0.05617237
94	0xbdd27a38	-0.102772176
95	0x3e2574a4	0.16157776
96	0xbcef39b5	-0.029202322
97	0xbe58312b	-0.21112506
98	0xbec04f52	-0.37560517
99	0xbe9cd71d	-0.30632868
100	0x3e262400	0.1622467
101	0xbe03a176	-0.12854561
102	0x3ede122f	0.43373248
103	0xbcae0904	-0.021244533
104	0x3e7ac34b	0.24488561
105	0x3d31e9ce	0.043435864
106	0xbf6adfb3	-0.9174759
107	0xbc0ecdaa	-0.008716026
108	0x3b88cbe9	0.0041746986
109	0xbef04657	-0.46928665
110	0x3eb67df2	0.35642964
111	0xbe9eb9df	-0.31001183
112	0x3c663e3b	0.014052923
113	0xbdaebc91	-0.0853206
114	0xbe1fa9bb	-0.15592091
115	0xbe600fda	-0.21881047
116	0x3d759cb4	0.059963897
117	0xbe3a49ae	-0.18192169
118	0xbf9e5cf8	-1.2372122
119	0xbea4893f	-0.3213596
120	0xbeb181c6	-0.34669322
121	0xbe08643a	-0.13319483
122	0xbf0564d4	-0.52106977
123	0xbe588b60	-0.21146917
124	0xbef85ab4	-0.485067
125	0xbe1330fb	-0.14374153
126	0xbf05169d	-0.5198763
127	0xbe15efec	-0.14642304
128	0x3df7cc56	0.12099521
129	0x3eac3393	0.33633098
130	0xbee6b9fc	-0.4506377
131	0x3e789158	0.24274194
132	0xbea3efe2	-0.32018954
133	0x3e5ae242	0.21375373
134	0xbc6331ec	-0.013866883
135	0x3e312584	0.17299467
136	0x3df482fa	0.11939044
137	0xbe6bae06	-0.23015603
138	0xbda87c18	-0.08226794
139	0xbea00431	-0.31253198
140	0xbc3eb315	-0.011639376
141	0xbecfbb2d	-0.4057249
142	0xbf71b666	-0.9441894
143	0xbebefa40	-0.373003
144	0xbed7057b	-0.4199637
145	0xbe1a037d	-0.15040393
146	0x3e2c01ae	0.16797516
147	0x3d94e454	0.07270113
148	0xbd85d78d	-0.06535254
149	0xbd8885f9	-0.06666178
150	0xbedbfea0	-0.429677
151	0xbdda29ce	-0.10652505
152	0xbe80321e	-0.25038236
153	0x3e4e3f26	0.20141277
154	0x400fbde7	2.2459657
155	0x3ee74c07	0.45175192
156	0xbf4bd39a	-0.79619753
157	0xbe387f34	-0.18017274
158	0xbd9c3ef4	-0.07629195
159	0xbd7178fd	-0.058953274
160	0xbc75d698	-0.015004776
161	0xbedd0586	-0.43168277
162	0xbe89d6b7	-0.26921627
163	0xbea7a40d	-0.32742348
164	0x3ef8d9cc	0.48603666
165	0x3d325a84	0.043543354
166	0xbec971db	-0.39344677
167	0xbd4d3a99	-0.05010471
168	0x3d42114d	0.04737978
169	0xbca4720e	-0.020073917
170	0xbf005f60	-0.5014553
171	0x3d2b778c	0.041862056
172	0x3d24ddd2	0.040250607
173	0x3dd1b01c	0.10238668
174	0xbe8d1fc9	-0.27563313
175	0xbe60e44b	-0.21962087
176	0x3eba784c	0.36419904
177	0x3d23d088	0.039993793
178	0xbe8fc551	-0.28080228
179	0x3d11119d	0.035417188
180	0x3eee7020	0.4656992
181	0xbe8e5666	-0.27800292
182	0xbee87da5	-0.4540836
183	0xbe1c37c4	-0.15255648
184	0x3e769790	0.24081254
185	0x3ed239e7	0.410598
186	0x3f303ff3	0.6884758
187	0x3e975b06	0.29561633
188	0xbdb08b04	-0.08620265
189	0xbe1a49ce	-0.15067217
190	0x3ef1f02e	0.47253555
191	0xbd7cb2e1	-0.06169403
192	0x3c9425cb	0.018084427
193	0xbe8d840d	-0.2763981
194	0xbfdcb38d	-1.7242295
195	0xbef6b647	-0.48185942
196	0xbd884fef	-0.06655871
197	0xbd61fdcc	-0.05517368
198	0xbfda20e7	-1.7041291
199	0xbe85cd70	-0.261333
200	0xbf2f3e48	-0.6845441
201	0xbe563d45	-0.2092181
202	0x3fe1a73e	1.7629163
203	0x3ea394be	0.3194942
204	0x3e2cd634	0.16878587
205	0xbce43024	-0.027854986
206	0x3e4d0a6e	0.2002351
207	0x3e300173	0.17188053
208	0x3e6e1623	0.23250632
209	0x3ec47886	0.38373202
210	0x3f001e7a	0.50046504
211	0x3d80690e	0.062700376
212	0xbe310a75	-0.17289145
213	0x3e566bb3	0.20939521
214	0xbee99abf	-0.45625874
215	0xbdb7b690	-0.08970368
216	0x3e00730f	0.12543891
217	0x3ebe37df	0.37152
218	0x3fb060ba	1.3779519
219	0x3ebcb2bb	0.3685511
220	0x3c7db615	0.015485306
221	0x3e99b1cd	0.30018464
222	0x3f0f73dd	0.5603617
223	0x3e68d638	0.22737968
224	0x3ec61880	0.38690567
225	0xbe96659d	-0.293744
226	0xbf064d36	-0.52461565
227	0xbe7daaea	-0.2477223
228	0x3e8d2704	0.2756883
229	0xbd9bfb14	-0.07616249
230	0xbf150b7b	-0.5822064
231	0x3e0e0b4a	0.13871494
232	0x3f21e4aa	0.6323954
233	0x3e86f728	0.2636044
234	0x3f7fd5ae	0.99935424
235	0x3e6bb7c7	0.23019324
236	0xbc94e29b	-0.01817446
237	0xbee11817	-0.43963692
238	0xbfbea2fc	-1.4893489
239	0xbed89c7c	-0.42306888
240	0xbb0849b4	-0.0020795884
241	0xbd6a3fbf	-0.0571897
242	0xbedd1175	-0.4317738
243	0xbe570a9a	-0.21000138
244	0x3cad82f0	0.0211806
245	0x3e2e4c60	0.17021322
246	0x3e95bf9e	0.29247755
247	0x3df8ba8b	0.12144955
248	0xbf04ed4f	-0.51924604
249	0xbea7bda5	-0.32761875
250	0xbfad2710	-1.3527546
251	0xbea42bb3	-0.3206459
252	0x3e6d2440	0.2315836
253	0xbe38bd20	-0.18040895
254	0xc0159729	-2.337351
255	0xbeffc3ca	-0.49954063

bias f4 [128]
0	0xbda5fa21	-0.08104349
1	0x3eb3b17b	0.35096344
2	0x3eb2bc63	0.34909353
3	0x3f019566	0.5061859
4	0x3e7cf183	0.24701504
5	0x3e80ff90	0.2519498
6	0x3e8a01c8	0.26954484
7	0x3f2cb4e1	0.674635
8	0x3f0006c5	0.5001033
9	0x3e444170	0.19165587
10	0xbe0a4c03	-0.13505559
11	0x3ec37633	0.38176116
12	0xbe87b897	-0.26508018
13	0x3ef29cff	0.47385404
14	0xbf173b3c	-0.5907476
15	0xbec37c09	-0.3818057
16	0xbf20e0d8	-0.62843084
17	0x3ecc3452	0.39883667
18	0xbd9ab7a5	-0.07554559
19	0x3f254f35	0.64573985
20	0xbe71a1a5	-0.23596819
21	0xbe01ca50	-0.12674832
22	0x3f187a20	0.5956135
23	0xbeff216c	-0.49830186
24	0xbd9e5bd4	-0.077323586
25	0x3e98c6f4	0.2983929
26	0xbddc3e82	-0.1075411
27	0x3eb98140	0.36231422
28	0x3f16d500	0.5891876
29	0x3d2b8cdf	0.041882392
30	0x3e928fca	0.28625327
31	0x3c2196e3	0.009862634
32	0x3f14234b	0.5786635
33	0x3ec6df8f	0.38842437
34	0x3f367b7b	0.71282166
35	0x3eb91bf0	0.36154127
36	0x3f218f85	0.6310962
37	0x3f420e9e	0.75803554
38	0xbf32cd3b	-0.69844407
39	0xbd99305a	-0.074799255
40	0x3eeec458	0.46634173
41	0xbda35210	-0.079746366
42	0x3dfaec2e	0.12252079
43	0x3f0ab8b2	0.5418807
44	0x3cf9122e	0.030404177
45	0x3e84017e	0.25782388
46	0xbe223f59	-0.15844478
47	0x3e284433	0.16432266
48	0xbeb3116c	-0.3497423
49	0xbec9d051	-0.39416745
50	0xbf294dde	-0.6613444
51	0x3f0bfaa9	0.5467935
52	0x3ed1acac	0.4095205
53	0x3f2a192e	0.6644467
54	0xbe4a8fe2	-0.1978145
55	0xbef36dd5	-0.47544733
56	0x3eacc581	0.33744434
57	0x3f11dd1c	0.5697801
58	0xbe9b03ee	-0.30276436
59	0xbe106527	-0.14101087
60	0x3f17ebc1	0.59344107
61	0x3f024f7a	0.5090252
62	0xbe54c097	-0.20776592
63	0xbef401ee	-0.47657722
64	0x3f1acec1	0.6047173
65	0x3f184d7b	0.59493226
66	0x3e75d3cc	0.24006575
67	0x3eaae392	0.33376747
68	0xbeb86223	-0.36012372
69	0x3d948c13	0.072532795
70	0xbe6c529b	-0.23078386
71	0xbf22bb35	-0.63566905
72	0x3de880b2	0.11352672
73	0x3e9223f3	0.28543052
74	0x3eb3642b	0.3503736
75	0x3dead35b	0.11466094
76	0xbe68269b	-0.22670977
77	0xbeffd09f	-0.49963853
78	0x3e978edc	0.2960118
79	0x3ea92114	0.3303305
80	0xbef31f1e	-0.47484678
81	0x3ee866d8	0.45390964
82	0xbe031199	-0.12799682
83	0x3f0ddbb1	0.5541335
84	0x3ee3accc	0.4446777
85	0xbea0986c	-0.3136629
86	0xbeee1bdd	-0.46505633
87	0x3f0da3c4	0.5532801
88	0xbe3d7f19	-0.18505515
89	0x3eacaee3	0.33727178
90	0x3e813f9e	0.2524385
91	0xbed108b8	-0.40826964
92	0xbf0b33e3	-0.5437605
93	0x3f12d345	0.5735362
94	0x3e9fe5b1	0.31229928
95	0xbebcdbf7	-0.3688657
96	0x3f34366c	0.7039554
97	0x3cb621d6	0.022232931
98	0xbd7c888f	-0.06165367
99	0x3f159430	0.5842924
100	0x3dd4a1bb	0.1038241
101	0x3f003db3	0.50094146
102	0x3f263d2b	0.64937085
103	0xbdd54ea7	-0.10415392
104	0xbf0e4748	-0.55577517
105	0x3eae1798	0.34002376
106	0x3e86bd36	0.2631623
107	0xbed0db66	-0.40792388
108	0x3f250cd9	0.6447273
109	0xbe5db443	-0.21650796
110	0xbed60a68	-0.41804814
111	0x3e51f8f2	0.20505121
112	0x3f2d2383	0.6763231
113	0xbf27c8e2	-0.655409
114	0x3f032243	0.51224154
115	0x3de1f613	0.11033263
116	0x3eed0481	0.462925
117	0xbef5d6eb	-0.48015532
118	0xbf14444e	-0.57916725
119	0x3ec77f3e	0.38964266
120	0x3f1c72bd	0.61112577
121	0xbe6cc136	-0.23120579
122	0xbf346e1d	-0.7048052
123	0x3c9eb799	0.019374656
124	0xbece0f5d	-0.40246096
125	0xbbf7c33e	-0.0075611165
126	0x3ecb6a8e	0.39729732
127	0xbea7298a	-0.3264888

weight_mu f4 [128, 128]
0	0xbf680ad3	-0.90641516
1	0x3d7daf34	0.061934665
2	0xbf82ff44	-1.0234151
3	0x3d54a3cd	0.051914025
4	0xbeff16c6	-0.49822062
5	0xbdf93ee2	-0.12170197
6	0x3dacd640	0.084393024
7	0x3dbff2d8	0.09372491
8	0x3e3024d0	0.17201543
9	0xbf8909c3	-1.0706104
10	0xbde8b3fa	-0.11362453
11	0x3b822933	0.0039721965
12	0xbf3e5ce9	-0.7436052
13	0x3df657a5	0.120284356
14	0xbf23f90a	-0.6405188
15	0xbe5ec746	-0.21755704
16	0xbfcb3cce	-1.5877931
17	0x3d9d2f6d	0.076750614
18	0x3dc1fa2a	0.09471543
19	0xbea7becb	-0.3276275
20	0x3e10e980	0.14151573
21	0xbdf9316d	-0.1216763
22	0x3d6742c8	0.056460172
23	0x3da38589	0.07984454
24	0xbf6df740	-0.929554
25	0xbc976696	-0.018481534
26	0x3e6302f0	0.2216909
27	0xbef33434	-0.47500765
28	0x3ca2a2ce	0.019853022
29	0xbf0f1687	-0.5589375
30	0xbf97e62b	-1.1867117
31	0xbf87edea	-1.0619481
32	0x3e279a98	0.16367567
33	0x3e086aa4	0.1332193
34	0x3dff2891	0.12458909
35	0xbf78a448	-0.97125673
36	0xbdeff963	-0.117174886
37	0x3d10a0e2	0.03530968
38	0xbf66b5dc	-0.90121245
39	0xbfa9b021	-1.3256875
40	0xbef75979	-0.4831045
41	0x3eaa8642	0.33305556
42	0xbebf995f	-0.374217
43	0x3dbf3e3c	0.09338042
44	0xbebaf78e	-0.36516994
45	0x3c001739	0.007818037
46	0xbea34282	-0.3188668
47	0xbede5e09	-0.43431118
48	0xbe5ebea5	-0.21752413
49	0x3e15fd4e	0.1464741
50	0xbeb1206e	-0.34595054
51	0x3dd3996d	0.10331998
52	0x3dc79793	0.09745707
53	0x3e28d941	0.16489126
54	0xbe870e3a	-0.26378042
55	0xbee67cd2	-0.45017105
56	0xbd835762	-0.06413151
57	0x3e3fbd6f	0.18724607
58	0xbf13c547	-0.57722896
59	0xbed8ffc4	-0.42382634
60	0x3e0f0f61	0.1397071
61	0x3dca9409	0.09891517
62	0xbe19e5c5	-0.15029056
63	0xbe6a26fa	-0.22866431
64	0x3e10bb7f	0.14134024
65	0x3deb8a66	0.11501007
66	0xbd432137	-0.047639098
67	0xbeff1097	-0.49817345
68	0xbf2b3fed	-0.6689442
69	0xbec07abc	-0.3759364
70	0x3bf1de13	0.0073812096
71	0x3c3d91e3	0.011570427
72	0xbe0a311a	-0.13495293
73	0xbf77ac3a	-0.9674717
74	0xbdd011ad	-0.101596214
75	0xbf85e2c6	-1.0459831
76	0x3e485441	0.1956339
77	0xbf37ed6a	-0.7184664
78	0xbf85eeb2	-1.0463469
79	0xbcb7b5f1	-0.022425624
80	0x3db30a2f	0.08742177
81	0x3df43ef3	0.11926069
82	0x3e1f5964	0.15561444
83	0x3dfd4069	0.12365801
84	0xbd6eaac9	-0.058268342
85	0xbed57de4	-0.4169761
86	0xbd894661	-0.06702877
87	0x3e16a235	0.14710315
88	0xbe78169e	-0.24227378
89	0x3e18fbe1	0.14939834
90	0xbcd6628b	-0.026170036
91	0xb991e500	-0.00027827173
92	0xbf2e7930	-0.6815367
93	0x3d0706d7	0.032965507
94	0xbefa91c6	-0.4893934
95	0xbeea9857	-0.4581935
96	0x3d2ef00e	0.042709403
97	0xbfb3bb7d	-1.4041592
98	0xbf6c0cfa	-0.922073
99	0xbe1c8eee	-0.15288898
100	0xbfad0128	-1.3515978
101	0x3d85b0e8	0.06527883
102	0x3de8a22b	0.11359056
103	0x3d53a538	0.051671237
104	0xbf82e3aa	-1.0225728
105	0xbd988838	-0.07447857
106	0xbf48b251	-0.7839709
107	0x3be2a550	0.0069166794
108	0x3d2dbb09	0.0424147
109	0xbe80c989	-0.2515376
110	0xbe76565e	-0.24056384
111	0xbe8b5ca2	-0.2721911
112	0x3e216759	0.1576208
113	0xbe0a2e99	-0.13494338
114	0x3d0b2ae5	0.033976454
115	0x3db233af	0.08701264
116	0xbff36c7d	-1.9017483
117	0x3c9262fb	0.017869463
118	0xbdecb3c7	-0.11557727
119	0x3cd1d861	0.025615873
120	0x3be43a6f	0.0069649736
121	0xbdb0617c	-0.08612344
122	0x3e3127f6	0.173004
123	0xbed3ca50	-0.4136529
124	0xbf083d6a	-0.5321871
125	0xbf88bf95	-1.0683466
126	0xbf0299a4	-0.51015687
127	0xbf4544a8	-0.77057886
128	0xbe2594db	-0.16170065
129	0x3def576a	0.11686595
130	0xbe719113	-0.23590498
131	0x3e137502	0.14400104
132	0xbefc18ca	-0.49237663
133	0x3ca40dab	0.020026049
134	0xbd37d26f	-0.04487842
135	0x3e1549b5	0.14578898
136	0xbd74b702	-0.059744842
137	0xbee8531b	-0.45375904
138	0xbe81b878	-0.2533605
139	0xbebceb4d	-0.3689827
140	0xbf9f40d1	-1.2441655
141	0x3e71cded	0.2361371
142	0xbfad3350	-1.3531284
143	0xbf88907c	-1.0669093
144	0xbe2417ff	-0.16024779
145	0xbea71427	-0.32632563
146	0x3e033248	0.1281215
147	0xbc355842	-0.011068406
148	0xbf7174f0	-0.9431906
149	0xbf563475	-0.83673793
150	0x3e3ff8a2	0.1874719
151	0xbcf42968	-0.0298049
152	0xbff22f14	-1.8920617
153	0xbe868ca8	-0.26279187
154	0x3f0641dd	0.5244425
155	0xbe10ff18	-0.1415981
156	0x3dd97e49	0.1061979
157	0xbfa0a8b2	-1.2551482
158	0xbf4df3fb	-0.8045041
159	0xbf9c92c6	-1.2232292
160	0x3de36cfa	0.1110477
161	0xbdb0a0bb	-0.08624407
162	0x3da6d98d	0.08146963
163	0x3f25029f	0.64457124
164	0xbe5e9eb0	-0.21740222
165	0x3dc8c0fc	0.09802434
166	0x3c8cbb65	0.0171792
167	0xbf1c20cb	-0.6098754
168	0x3dccccdc	0.10000011
169	0x3f764c48	0.96210146
170	0xbdede553	-0.11616006
171	0x3e666692	0.22500065
172	0x3e864883	0.26227197
173	0x3dc798b8	0.09745926
174	0xbf74b165	-0.9558318
175	0xbec20982	-0.3789788
176	0x3ff2eef5	1.8979174
177	0x3fc433ff	1.5328368
178	0xbdf6bcea	-0.12047751
179	0xbe43ff29	-0.19140305
180	0xbcfb3d48	-0.03066887
181	0x3d9166dc	0.07099697
182	0xbf63186b	-0.88709134
183	0xbf8ae228	-1.0850267
184	0x3e17e4d3	0.14833383
185	0x3c81a6e9	0.01582666
186	0xbf263fa8	-0.6494088
187	0x3f12b89d	0.5731295
188	0x3e4ceb50	0.2001164
189	0xbd111ccf	-0.035427865
190	0xbda61e93	-0.081113
191	0x3fa4907c	1.2856593
192	0xbe73b716	-0.2380031
193	0xbb699cfc	-0.0035646548
194	0xbd8a1207	-0.0674172
195	0xbe9aec2b	-0.30258307
196	0xbe8ca8b3	-0.27472457
197	0xbf25b3d0	-0.647275
198	0x3bf18a16	0.0073711975
199	0xbe1bbff6	-0.15209946
200	0xbd92adf1	-0.07162083
201	0x3e23c519	0.15993156
202	0x3d848873	0.06471338
203	0xbf56d968	-0.83925486
204	0x3f9b3fb5	1.2128817
205	0xbe661264	-0.22467953
206	0x3f305091	0.68872935
207	0x3d8d9709	0.06913573
208	0xbc2244f8	-0.009904139
209	0x3e1a96b6	0.15096554
210	0x3e6eecb0	0.23332477
211	0x3c9a8dc3	0.018866425
212	0x3e0ed7bd	0.13949485
213	0x3f359325	0.7092765
214	0x3e346059	0.17614879
215	0xbd09cb6c	-0.033641264
216	0xbf90650e	-1.128084
217	0xbea7bb71	-0.32760194
218	0xbe104dbc	-0.14092153
219	0x3c9e6a04	0.019337662
220	0x3f8f88bf	1.1213607
221	0x3e1df4df	0.15425442
222	0xbd4e9909	-0.050438914
223	0xbf895869	-1.0730106
224	0xbe1e265d	-0.15444322
225	0xbf10ee36	-0.5661348
226	0xbfd584bf	-1.6681136
227	0x3d3a8aea	0.045542635
228	0xbefa6668	-0.48906255
229	0x3cf0e6ff	0.029407023
230	0x3d18deb3	0.037321758
231	0x3dcfb642	0.10142185
232	0xbe30fbec	-0.172836
233	0xbedc5d89	-0.43040112
234	0x3ee8de0b	0.45481905
235	0xbd539af7	-0.051661458
236	0xbdb40bb3	-0.08791294
237	0x3e337681	0.17525674
238	0xbe35a7ac	-0.17739743
239	0xbd523c11	-0.051326815
240	0xbe1b2044	-0.15149027
241	0xbf1ccf5a	-0.61253893
242	0xbdb86800	-0.090042114
243	0x3d90a42e	0.07062565
244	0xbefbf0d8	-0.49207187
245	0xbf867603	-1.0504764
246	0x3ed8f402	0.42373663
247	0xbe350e5b	-0.17681257
248	0x3da10a42	0.07863285
249	0xbf1c25e0	-0.6099529
250	0xbd4b2dbd	-0.049604166
251	0xbf016f08	-0.50560045
252	0xbdfc2c6e	-0.12313162
253	0xbf89ad8c	-1.0756087
254	0x3e230402	0.15919498
255	0xbfa443c9	-1.2833186

weight_sigma f4 [128, 128]
0	0x3d112205	0.035432834
1	0x3dcd85a0	0.100352526
2	0x3e0f7088	0.14007771
3	0x3e24ca14	0.16092712
4	0xbd3cd8e7	-0.04610529
5	0x3b67d9cb	0.0035377617
6	0x3dc4f8ea	0.09617789
7	0xbac9f6d7	-0.0015408647
8	0xbdb4b2e5	-0.08823184
9	0x3e924ae6	0.28572768
10	0x3d0feed3	0.03513987
11	0x3dd650b5	0.104646124
12	0xbe3faea7	-0.18718968
13	0xbd0be74d	-0.034156132
14	0x3d49825e	0.049196593
15	0xbd7dd9e9	-0.061975393
16	0x3f1770a5	0.59156257
17	0xbcc841fc	-0.024445526
18	0xbc8a8a39	-0.016911613
19	0x3da9b9fe	0.08287428
20	0x3df68b8d	0.12038336
21	0x3ab5a320	0.0013857819
22	0xbc21c785	-0.009874229
23	0x3d3504f3	0.044194173
24	0xbe2775ab	-0.1635348
25	0xbdbbc8f7	-0.091691904
26	0x3d2ce102	0.04220677
27	0xbda7cf4c	-0.081938356
28	0x3dd2c41a	0.1029131
29	0x3e262f42	0.16228965
30	0x3e816318	0.25270915
31	0x3e9197e2	0.2843619
32	0xbd5d5260	-0.054033637
33	0xbcb14a32	-0.021641824
34	0xbcd86073	-0.026413178
35	0xbe247040	-0.16058445
36	0xbc5c14ff	-0.01343274
37	0x3d7faa40	0.062418222
38	0xbd932438	-0.071846426
39	0x3e9ddbd0	0.30831766
40	0xbe050698	-0.12990797
41	0xbe03dabf	-0.12876414
42	0x3e2d6a26	0.16935024
43	0xbd472189	-0.048615966
44	0xbd97ff21	-0.07421709
45	0x3cd7ab08	0.026326671
46	0xbd08a86e	-0.033363752
47	0x3ec46bb3	0.38363418
48	0x3e92438b	0.28567156
49	0x3e085fa3	0.13317733
50	0xbe115fba	-0.14196673
51	0xbd7b6a30	-0.061380565
52	0xbcddab88	-0.027059332
53	0xbc3291a3	-0.01089898
54	0x3e14905d	0.14508195
55	0xbd3bafb0	-0.045821846
56	0xbe1e9ee9	-0.15490307
57	0xbcf7b479	-0.030237423
58	0xbd5461e0	-0.051851153
59	0xbe1ba89b	-0.15201037
60	0x3c14d5a8	0.009084143
61	0xbbe9809c	-0.007125927
62	0xbd59ceba	-0.053175665
63	0xbdf2bed7	-0.11852806
64	0x3c95bccd	0.018278504
65	0xbdbb3931	-0.09141768
66	0xbcf8d0ac	-0.03037294
67	0x3e0d4a17	0.13797794
68	0x3dcfc0cb	0.10144194
69	0xbd1f1edc	-0.03884779
70	0x3e553454	0.20820743
71	0x3e01049c	0.12599415
72	0x3e53ae44	0.20671946
73	0xbe10bfbd	-0.14135642
74	0x3d2dbd70	0.04241699
75	0x3e730c9c	0.23735279
76	0xbd52947e	-0.051411144
77	0xbe661867	-0.22470246
78	0xbeb079a6	-0.3446781
79	0x3de44fac	0.11148009
80	0x3d3504f3	0.044194173
81	0x3c4c7ba3	0.012480649
82	0xbdee3830	-0.11631811
83	0x3d1ed052	0.03877289
84	0xbb763686	-0.003756912
85	0x3db39066	0.08767776
86	0x3ca25880	0.01981759
87	0xbbd6545f	-0.0065408195
88	0x3cbb0f56	0.022834461
89	0x3bcd9e28	0.006274957
90	0x3c2e17c4	0.010625783
91	0x3d3504f3	0.044194173
92	0x3e3a3939	0.18185891
93	0x3d0128eb	0.031533163
94	0xbd3ccf51	-0.04609615
95	0xbdd82ed8	-0.1055581
96	0xbd8ab921	-0.06773592
97	0xbd26e686	-0.040747188
98	0xbe2918a9	-0.16513313
99	0xbe1015b8	-0.14070785
100	0xbd9f6ee4	-0.077848226
101	0x3d2e35d4	0.042531803
102	0x3dc93366	0.098242566
103	0xbdafdfd9	-0.085876174
104	0xbdbe0cba	-0.09279771
105	0xbdf5fd18	-0.120111644
106	0xbd89a484	-0.06720832
107	0x3d3504f3	0.044194173
108	0x3d75018a	0.05981592
109	0x3d857761	0.0651691
110	0xbea4d12b	-0.32190832
111	0x3e313cc1	0.17308332
112	0xbdeafae5	-0.114736356
113	0xbe2d027b	-0.16895477
114	0xbae66fbf	-0.001758091
115	0xbb30a7d8	-0.0026955511
116	0xbd2e0aff	-0.042490955
117	0x3e315165	0.17316206
118	0x3e082c1c	0.13298076
119	0x3e01fdaa	0.12694421
120	0xbd2e91b5	-0.042619426
121	0x3c7a5c99	0.015280866
122	0xbeb59379	-0.35464075
123	0xbe414c04	-0.18876654
124	0x3e0c81d0	0.13721395
125	0xbdd4ddf4	-0.10393897
126	0xbcc2f743	-0.023799544
127	0xbdd664ea	-0.104684666
128	0x3e148fc4	0.14507967
129	0xbe0d6308	-0.13807309
130	0x3d7189a9	0.058969174
131	0xbb4fe1f1	-0.0031720365
132	0x3bcc2f2c	0.0062312093
133	0xbd87a1e6	-0.066226766
134	0x3ddf4f13	0.10903754
135	0xbcb5e69c	-0.02220469
136	0xba2acde8	-0.0006515668
137	0x3e4cbefe	0.19994733
138	0xbc0f174d	-0.008733583
139	0xbd1091b1	-0.035295192
140	0xbdfc233d	-0.12311409
141	0x3dc06155	0.093935646
142	0xbd295da7	-0.04134908
143	0xbe0d874c	-0.13821143
144	0x3daf07db	0.0854642
145	0x3cd836dc	0.026393346
146	0x3d61668d	0.05502944
147	0xbdc2b705	-0.095075645
148	0x3b4f611e	0.003164358
149	0xbe16e1cd	-0.14734574
150	0x3e1490a8	0.14508307
151	0x3d3504f3	0.044194173
152	0x3ddf7a57	0.10912006
153	0x3d555893	0.052086424
154	0xbdc54571	-0.096323855
155	0xbc85de62	-0.016341392
156	0xbd14bf50	-0.036315262
157	0xbc55599a	-0.013021851
158	0xb89d5d40	-7.5037125e-05
159	0xbe11f7d8	-0.14254701
160	0x3a3feb23	0.000732111
161	0x3b86ea31	0.0041172733
162	0x3d6b3cee	0.057431154
163	0xbc3a932e	-0.011387629
164	0xbc4ec5de	-0.012620417
165	0xbc628f0b	-0.013828049
166	0x3cca3cbe	0.024687167
167	0x3e3db0d4	0.18524486
168	0x3d4c006f	0.0498051
169	0x3d7555aa	0.05989615
170	0x3c6785d0	0.0141310245
171	0x3d03add3	0.032148194
172	0x3e45bb4b	0.19309728
173	0xbe153996	-0.14572749
174	0x3d99fb3d	0.07518623
175	0x3ca372c1	0.01995218
176	0x3eb3491b	0.35016713
177	0x3ccca1a8	0.024979427
178	0x3daf270e	0.08552371
179	0x3b3b1594	0.0028546797
180	0x3bfeb261	0.0077727293
181	0xbdbe0a6d	-0.09279332
182	0xbe3fd936	-0.18735203
183	0xbdad59a3	-0.084643625
184	0xbd29f5e8	-0.04149428
185	0x3d80f669	0.06296999
186	0x3e9f10f4	0.31067622
187	0xbeb09791	-0.34490636
188	0xbca423da	-0.020036627
189	0x3d12a178	0.03579852
190	0x3e676720	0.22597933
191	0x3e2e9be6	0.17051658
192	0xbe02330a	-0.12714782
193	0xbc811188	-0.01575543
194	0x3d3a80a3	0.045532834
195	0x3c9d1574	0.019175269
196	0x3e2b79c2	0.16745666
197	0xbc5ba04e	-0.013404919
198	0x3d3d6e76	0.046247922
199	0x3ea772cf	0.3270478
200	0xb9b5edea	-0.0003470027
201	0x3b9c9ea0	0.0047796518
202	0x3ddd2284	0.10797599
203	0xbd235975	-0.039880235
204	0xbe414f84	-0.18877989
205	0xbc63c7e6	-0.01390264
206	0xbb04a0df	-0.0020237488
207	0xbd1f6bcf	-0.038921174
208	0x3d3504f3	0.044194173
209	0xbca5ee03	-0.020255094
210	0x3c0927b7	0.008371285
211	0xbd066799	-0.032813642
212	0xbcb2e777	-0.021838887
213	0x3d7468c5	0.05967023
214	0x3e260b59	0.16215266
215	0x3e29eafa	0.16593543
216	0x3d13a6bf	0.036047693
217	0xbdfe661a	-0.12421818
218	0x3e3a9ddf	0.18224286
219	0x3d3504f3	0.044194173
220	0xbe8f67fd	-0.28009024
221	0xbcc1eda2	-0.023672882
222	0x3d2f7d83	0.042844307
223	0x3e0f4d71	0.13994385
224	0xbdf7ec07	-0.121055655
225	0x3cbbf279	0.022942768
226	0xbdbe0844	-0.0927892
227	0x3d63e448	0.055637628
228	0x3e3040a2	0.17212155
229	0x3df8a60a	0.121410444
230	0xbd1a2e57	-0.03764185
231	0x3dc426f4	0.09577742
232	0x3ac9df9b	0.0015401723
233	0xbbda71b9	-0.006666389
234	0xbd8217f3	-0.06352224
235	0x3d3504f3	0.044194173
236	0x3be2de47	0.00692347
237	0x3dac983a	0.084274724
238	0xbdd2e834	-0.102981955
239	0xbd8c03a9	-0.068366356
240	0xbb0f0e68	-0.0021828655
241	0xbe03b5a0	-0.12862253
242	0xbcf8e422	-0.03038222
243	0x3cf7b9c3	0.030239945
244	0x3cb39c33	0.021925068
245	0xbe81833f	-0.25295445
246	0x3ecf9c86	0.40549105
247	0x3ddf2653	0.10895982
248	0xbcabeed3	-0.020987904
249	0xbde44511	-0.11145986
250	0x3dd8e3f4	0.105903536
251	0xbd66243c	-0.0561869
252	0x3e5f5acb	0.21811979
253	0x3e5209a6	0.20511493
254	0xbcdbada6	-0.0268162
255	0x3d4202ac	0.04736583

bias_mu f4 [128]
0	0x3e67709b	0.2260155
1	0xbcceba3e	-0.025235292
2	0xbdcb6180	-0.09930706
3	0xbe6bf737	-0.23043524
4	0xbd87d920	-0.0663321
5	0xbd008194	-0.031373575
6	0x3f1522a7	0.58256
7	0xbda88d4d	-0.08230076
8	0xbe7d6b31	-0.24747922
9	0x3d98dfa1	0.07464529
10	0x3de200a7	0.11035281
11	0x3f0bfe73	0.54685134
12	0x3e271ced	0.16319628
13	0xbdd13dd2	-0.102168694
14	0x3ef2f864	0.47455132
15	0x3efd3f32	0.49462277
16	0x3eb8add5	0.36070123
17	0xbe016bf0	-0.12638831
18	0xbe812246	-0.2522146
19	0x3deb4c7e	0.11489199
20	0x3d70104a	0.058609284
21	0x3d4d4fb6	0.050124846
22	0x3f01f4c8	0.5076413
23	0x3de7a6fb	0.11311146
24	0xbe082e92	-0.13299015
25	0x3d83b6fb	0.06431385
26	0x3da19ecd	0.07891617
27	0x3eecf5bb	0.46281227
28	0xbc1a07e5	-0.009401296
29	0x3ef58c63	0.4795867
30	0xbd33e017	-0.04391488
31	0xbc4b8476	-0.012421718
32	0x3d260ab4	0.04053755
33	0x3ee5c384	0.4487573
34	0xbc93345d	-0.017969305
35	0xbe2f1900	-0.1709938
36	0x3ee9e1bd	0.45680037
37	0x3f05c7df	0.52258104
38	0xbe824285	-0.25441375
39	0xbddaba5a	-0.10680075
40	0x3edbd4aa	0.42935687
41	0xbc0f58ba	-0.008749181
42	0xbe77f404	-0.24214178
43	0x3dc4fcb8	0.09618515
44	0x3f0df893	0.5545742
45	0x3d42bcc7	0.047543313
46	0x3ec22c38	0.3792436
47	0xbcddc873	-0.02707312
48	0xbea6cb9c	-0.32577217
49	0x3d352a5a	0.044229843
50	0x3d9ed3a4	0.07755211
51	0xbe1e7a7b	-0.1547641
52	0x3ede1082	0.4337197
53	0x3ee90156	0.45508832
54	0xbe420201	-0.18946077
55	0x3ed44b6c	0.41463792
56	0x3d7f6d24	0.062359944
57	0x3ee55806	0.4479372
58	0xbe1e0e76	-0.15435204
59	0xbd9a9d94	-0.07549587
60	0xbe0a6bd1	-0.13517691
61	0xbd62ad63	-0.055341136
62	0xbd9dbf58	-0.077025115
63	0x3dbcb1d7	0.09213608
64	0x3f1b691c	0.6070726
65	0x3f02b286	0.51053655
66	0x3ed0aaee	0.4075541
67	0xbd334b6e	-0.043773107
68	0x3eb60718	0.35552287
69	0xbe39bad0	-0.1813767
70	0xbea3770c	-0.31926763
71	0x3ee283d5	0.44241205
72	0xbcd57799	-0.026058005
73	0x3ca70561	0.020388307
74	0x3f002573	0.5005714
75	0x3db99ce5	0.090631284
76	0x3e2eb5f7	0.17061602
77	0x3bda82bb	0.0066684163
78	0x3ece108c	0.40247
79	0xbe2bf609	-0.16793074
80	0x3edede96	0.43529195
81	0xbc4c61d3	-0.012474495
82	0xbca3f81c	-0.020015769
83	0x3f0b9032	0.545169
84	0x3ef55052	0.47912842
85	0x3ede3e5d	0.43406954
86	0xbd12d9e5	-0.03585233
87	0x3f01e3af	0.5073804
88	0xbdca9231	-0.09891165
89	0xbde881af	-0.1135286
90	0x3dd42750	0.10359061
91	0xbdafbce1	-0.08580948
92	0x3eacfc53	0.33786258
93	0x3de59fd4	0.112121254
94	0xbe0b5d25	-0.1360975
95	0x3e2056bb	0.15658085
96	0x3b93d302	0.004511238
97	0xbd20fcd4	-0.039303616
98	0x3ef52619	0.4788063
99	0x3de7939c	0.11307451
100	0xbeb48405	-0.35256973
101	0xbe258ae3	-0.16166262
102	0x3eedfe30	0.46482992
103	0x3e52de28	0.20592558
104	0xbd7ccfb6	-0.061721526
105	0xbc491194	-0.012272257
106	0xbeaeb127	-0.34119532
107	0xbd84f818	-0.06492633
108	0x3ebae7d6	0.36505002
109	0x3dada43c	0.08478591
110	0xbda3809f	-0.07983517
111	0xbd27aa93	-0.040934157
112	0x3d9bccca	0.0760742
113	0xbd6b891e	-0.057503812
114	0x3f01cd04	0.50703454
115	0x3f095c85	0.536568
116	0xbdb8da46	-0.09026007
117	0xbe0471ff	-0.12934111
118	0x3d8fab04	0.070150405
119	0xbd8a9da3	-0.06768348
120	0x3e15f214	0.14643127
121	0x3ecfcdb6	0.40586632
122	0xbe53dccf	-0.206897
123	0xbeb5832b	-0.35451636
124	0xbd41a692	-0.047277994
125	0x3eeb7eda	0.45995218
126	0x3c1f5052	0.00972374
127	0x3e23330e	0.15937445

bias_sigma f4 [128]
0	0xbe05a5fb	-0.13051598
1	0xbd5b1e5c	-0.05349575
2	0xbb2a9e82	-0.002603442
3	0x3dc52a0f	0.09627163
4	0xbc8faa78	-0.01753734
5	0x3c645497	0.013936183
6	0x3aeef1b8	0.0018229997
7	0x3e50905e	0.20367572
8	0xbce7f71c	-0.028316073
9	0x3ce443c7	0.02786435
10	0x3d801521	0.0625403
11	0xbd6af9b0	-0.057367027
12	0xbccaa179	-0.0247352
13	0x3cf06a7f	0.029347656
14	0xbc7d6f1f	-0.015468388
15	0x3d2b71dc	0.04185663
16	0xbd90c1b4	-0.07068196
17	0xbd6aa031	-0.057281677
18	0x3c853ba8	0.016263798
19	0x3bbbb88d	0.0057287873
20	0x3d2c2af8	0.042033166
21	0xbc7152b8	-0.014729194
22	0x3b924bdd	0.00446461
23	0xbc33f3ab	-0.010983388
24	0x3d27ac23	0.040935647
25	0xbdeb2070	-0.11480796
26	0x3b5302df	0.0032197756
27	0x3ce64e65	0.028113553
28	0xbd4ce769	-0.050025377
29	0xbd98bb9c	-0.07457659
30	0x3d3ed9d9	0.046594474
31	0x3e20c768	0.15701067
32	0x3cb90018	0.022583053
33	0x3d48de3f	0.049040075
34	0xbd8ee6d4	-0.06977621
35	0x3cdd2945	0.026997218
36	0xbb8005b2	-0.003906929
37	0xbd0380fe	-0.03210544
38	0x3dbfe3a8	0.09369594
39	0xbdea5736	-0.114424154
40	0x3c51aa09	0.012796887
41	0xbdafaa7c	-0.08577439
42	0xbd5e694e	-0.054299645
43	0xbd06395a	-0.03276954
44	0xbc770eb0	-0.015079185
45	0x3c0a22d9	0.00843116
46	0xbcc5c364	-0.024141021
47	0xbb644c04	-0.0034835348
48	0xbc820b8c	-0.015874647
49	0x3c48fe57	0.012267671
50	0x3d099d92	0.033597536
51	0xbdf00edc	-0.11721584
52	0xbd04fcbf	-0.0324676
53	0x3d443433	0.047901344
54	0x3e085ee9	0.13317455
55	0x3c76657f	0.015038847
56	0x3d441d21	0.047879342
57	0x3bede652	0.0072601223
58	0x3e175dca	0.14781871
59	0x39ea1d71	0.00044653894
60	0x3d24d5a3	0.040242802
61	0xbd1e6746	-0.038672708
62	0x3deb1e20	0.11480355
63	0xbbf781a8	-0.007553298
64	0xbc16df82	-0.009208562
65	0xbcdb0e06	-0.026740085
66	0x3c44d6e0	0.012014121
67	0xbceafd35	-0.028685192
68	0xbd592b4c	-0.053019807
69	0x3d7c084f	0.06153136
70	0xbded95f8	-0.1160087
71	0xbc111205	-0.008854394
72	0x3d57b1af	0.052659687
73	0x3cee87a1	0.029117407
74	0x3cef96d7	0.02924673
75	0xbd1ceb7c	-0.038310513
76	0x3dc7e892	0.09761156
77	0x3d30ad49	0.043134008
78	0xbd043b34	-0.032283023
79	0xbe0932d3	-0.13398294
80	0xbba78b50	-0.005113043
81	0xbe4337b6	-0.19064221
82	0x3d047878	0.03234145
83	0xbca57476	-0.020197134
84	0xbd42741b	-0.047474008
85	0xbcc18027	-0.023620678
86	0x3dd787d4	0.10523954
87	0xbca11e9f	-0.019667922
88	0xbd4090b6	-0.047013007
89	0x3e1269ce	0.14298174
90	0x3d07b8c8	0.033135206
91	0xbca5052d	-0.02014407
92	0x3d7885a6	0.060674332
93	0xbb4879fd	-0.0030590289
94	0x3c0bedc7	0.008540577
95	0x3c278e42	0.010226788
96	0x3d9c3120	0.07626557
97	0x3c026226	0.007957971
98	0xbc448729	-0.011995115
99	0x3c3b3e1f	0.011428385
100	0xbc9f14ae	-0.01941904
101	0x3cb2bcb5	0.021818498
102	0xbc55da99	-0.013052606
103	0x3d95c2f9	0.07312579
104	0x3c0bb7b9	0.00852769
105	0x3c0548ff	0.008135079
106	0xbd945869	-0.072434254
107	0x3d0c37d6	0.034232937
108	0x3c88f637	0.016718967
109	0x3cec063a	0.028811563
110	0xbc74953e	-0.01492816
111	0xbbe6ccbe	-0.00704345
112	0x3d8702d9	0.0659234
113	0x3d0efd85	0.034909744
114	0x3d3b1293	0.04567201
115	0x3c64dc25	0.013968502
116	0x3e0d6696	0.13808665
117	0xbdc21dec	-0.094783634
118	0x3b55a46b	0.0032599221
119	0x3e0e6fba	0.13909808
120	0x3d113742	0.03545309
121	0x3d7efe67	0.062254336
122	0x3dff36ef	0.124616496
123	0xbde86656	-0.11347644
124	0xbc0a27e2	-0.00843236
125	0xbc4dd354	-0.012562592
126	0x3d6c05d2	0.05762274
127	0x3cd3fa7c	0.025876276

weight_epsilon f4 [128, 128]
0	0x3f6560aa	0.8960062
1	0xbf087de3	-0.5331709
2	0xbf27dfba	-0.65575755
3	0xbee71f6e	-0.45141166
4	0xbebc2192	-0.36744362
5	0x3f728d91	0.94747263
6	0x3efd523c	0.49476802
7	0x3f76c97c	0.9640119
8	0x3ef05918	0.46942973
9	0xbf3a8189	-0.72853905
10	0x3f0cb2ff	0.54960626
11	0xbe217a48	-0.15769303
12	0x3ed4676d	0.41485158
13	0xbf25b9f2	-0.64736855
14	0x3effba51	0.49946836
15	0xbf1c1983	-0.6097643
16	0x3f30c5b3	0.69051665
17	0x3e835085	0.2564737
18	0x3f0b9627	0.5452599
19	0xbec62dac	-0.3870672
20	0x3f048870	0.5177069
21	0x3f077c1d	0.52923757
22	0xbf20e0c8	-0.6284299
23	0xbf6b89dc	-0.9200723
24	0xbf2e1f53	-0.68016547
25	0x3e4df7f8	0.20114124
26	0xbf141fda	-0.578611
27	0xbf264cfe	-0.6496123
28	0x3f3dda89	0.74161583
29	0x3ebe71d2	0.37196213
30	0x3f0e6feb	0.55639523
31	0x3e520d54	0.20512897
32	0xbed512ec	-0.41616
33	0x3f194e19	0.5988479
34	0x3effade2	0.4993735
35	0xbef943c6	-0.4868452
36	0xbec2811e	-0.37989134
37	0x3f70ac3f	0.94012827
38	0x3f2770d8	0.6540656
39	0xbee4a645	-0.44658104
40	0xbf01443c	-0.5049474
41	0xbeb36980	-0.35041428
42	0x3f88f748	1.0700464
43	0x3f133ac9	0.57511574
44	0x3f8434e4	1.0328641
45	0xbf102065	-0.5629943
46	0xbf1e7360	-0.618948
47	0x3f489907	0.783585
48	0x3f0247f1	0.50891024
49	0xbf2455bb	-0.64193314
50	0xbe6c8d32	-0.23100737
51	0xbf0a922e	-0.541293
52	0x3f5fc0e9	0.8740373
53	0xbeb9f450	-0.36319208
54	0xbea14c92	-0.3150373
55	0xbf37d794	-0.7181332
56	0xbf65bb07	-0.89738506
57	0xbf07614e	-0.5288285
58	0xbf291207	-0.6604313
59	0xbf0fb531	-0.5613585
60	0x3f3b4be9	0.73162705
61	0xbf0ef5d2	-0.5584384
62	0xbf0637f5	-0.52429134
63	0x3e1bfa32	0.1523216
64	0x3ef4cbb7	0.47811672
65	0xbf43641d	-0.76324636
66	0xbdf036e9	-0.11729223
67	0xbf4846ce	-0.7823304
68	0x3ee1db4e	0.4411263
69	0x3f1d0cd4	0.613477
70	0xbf2b76ff	-0.6697845
71	0x3f346f2e	0.70482147
72	0xbf6d4acb	-0.9269225
73	0x3f8d0f57	1.1020306
74	0x3f306cf8	0.68916273
75	0xbe972eaa	-0.2952779
76	0xbec55a20	-0.38545322
77	0x3effa816	0.49932927
78	0xbf45df74	-0.7729409
79	0xbef59b9d	-0.47970286
80	0xbeacd65f	-0.33757302
81	0xbf179a3a	-0.59219706
82	0x3f34ced0	0.7062807
83	0x3f1b3722	0.60631
84	0x3e99a88b	0.300114
85	0x3f41d0c1	0.7570916
86	0xbea3807c	-0.31933963
87	0xbf5a5acc	-0.85294795
88	0x3f6c7ea2	0.92380726
89	0xbeff98ad	-0.4992117
90	0xbea50e8a	-0.32237655
91	0xbf2787a1	-0.6544133
92	0xbf43cd21	-0.76484877
93	0xbf40c99a	-0.7530762
94	0xbdb3d896	-0.08781545
95	0xbf57ec5c	-0.8434503
96	0x3ea64b34	0.3247925
97	0xbd7fc8fa	-0.062447526
98	0x3f02d4e8	0.5110612
99	0x3ee70944	0.45124257
100	0xbf1f15ad	-0.6214245
101	0xbf1f6668	-0.62265635
102	0xbf5299e3	-0.8226606
103	0xbf300788	-0.6876149
104	0x3f14b707	0.5809178
105	0x3f6dd625	0.92904884
106	0xbf2c5995	-0.6732419
107	0xbf760108	-0.96095324
108	0x3e88c405	0.2671205
109	0x3f4dac69	0.803412
110	0xbf0c3cd1	-0.547803
111	0x3f2bb820	0.6707783
112	0xbecfd033	-0.4058853
113	0x3f2554f7	0.6458277
114	0xbf0a7b4a	-0.54094374
115	0xbea1b35c	-0.31582153
116	0xbf5ea09e	-0.8696383
117	0xbebaf864	-0.36517632
118	0xbee8d1e1	-0.45472625
119	0x3eb89e85	0.3605844
120	0x3f00a8c5	0.5025752
121	0x3ee09f25	0.43871418
122	0xbf66efc1	-0.90209585
123	0xbf0c9859	-0.54919964
124	0xbea9b6ae	-0.33147186
125	0x3e289af5	0.16465361
126	0xbf3b362b	-0.7312953
127	0x3f07f8f1	0.5311423
128	0x3fad0edf	1.3520163
129	0xbf4df515	-0.8045209
130	0xbf7d4fa3	-0.9894964
131	0xbf2e5ff1	-0.68115145
132	0xbf0df05f	-0.554449
133	0x3fb6ff9f	1.4296759
134	0x3f3f1f71	0.7465735
135	0x3fba3167	1.4546326
136	0x3f3555be	0.7083396
137	0xbf8cb67d	-1.0993191
138	0x3f544e60	0.8293209
139	0xbe73a8d6	-0.23794875
140	0x3f204087	0.6259846
141	0xbf7a120e	-0.976838
142	0x3f40f041	0.753666
143	0xbf6b8b61	-0.9200955
144	0x3f855e7a	1.0419457
145	0x3ec62530	0.38700247
146	0x3f52a090	0.8227625
147	0xbf1584f1	-0.5840598
148	0x3f47fbda	0.7811867
149	0x3f4c701f	0.79858583
150	0xbf72c136	-0.94826066
151	0xbfb1b4d1	-1.3883306
152	0xbf835eaa	-1.0263264
153	0x3e9b6593	0.30350932
154	0xbf5f82a4	-0.87308717
155	0xbf7aeff0	-0.98022366
156	0x3f8f3d11	1.1190511
157	0x3f0faf35	0.5612672
158	0x3f56edbc	0.83956504
159	0x3e9e7a44	0.30952656
160	0xbf20c1eb	-0.62795895
161	0x3f6753de	0.90362346
162	0x3f40e6df	0.7535228
163	0xbf3c0ff4	-0.7346184
164	0xbf12bf53	-0.5732319
165	0x3fb5947b	1.4185938
166	0x3f7ca852	0.98694336
167	0xbf2c823e	-0.67386234
168	0xbf430e13	-0.7619335
169	0xbf075c59	-0.52875286
170	0x3fceac43	1.614632
171	0x3f5e28ff	0.86781305
172	0x3fc77dca	1.5585263
173	0xbf597a50	-0.8495226
174	0xbf6f178d	-0.9339531
175	0x3f97583a	1.18238
176	0x3f4495f6	0.7679132
177	0xbf77f88c	-0.9686363
178	0xbeb2787a	-0.3485754
179	0xbf511847	-0.8167767
180	0x3fa8d0a0	1.3188667
181	0xbf0c4bf1	-0.5480338
182	0xbef363dd	-0.47537127
183	0xbf8ab3f9	-1.0836173
184	0xbfad530c	-1.3540969
185	0xbf4c47aa	-0.7979685
186	0xbf7f1dd4	-0.9965489
187	0xbf58d88d	-0.8470543
188	0x3f8d4f2c	1.1039786
189	0xbf57b7c8	-0.842648
190	0xbf4a86fd	-0.79112226
191	0x3e6b5c20	0.22984362
192	0x3f38b0cc	0.7214477
193	0xbf936a96	-1.1516902
194	0xbe353bf4	-0.17698652
195	0xbf971a31	-1.1804868
196	0x3f2a66d4	0.66563153
197	0x3f6cfa87	0.92569774
198	0xbf815d60	-1.0106621
199	0x3f8821c7	1.0635308
200	0xbfb30786	-1.3986671
201	0x3fd4d9b7	1.6628941
202	0x3f851b88	1.0399027
203	0xbee41fdc	-0.44555557
204	0xbf14e556	-0.5816244
205	0x3f40e280	0.7534561
206	0xbf9549ed	-1.1663185
207	0xbf394da7	-0.72384113
208	0xbf02667a	-0.50937617
209	0xbf64c229	-0.89358765
210	0x3f8869ee	1.0657327
211	0x3f6a35ca	0.91488326
212	0x3ee7dc57	0.45285293
213	0x3f923a43	1.142403
214	0xbef6b6c6	-0.4818632
215	0xbfa4bddd	-1.2870442
216	0x3fb26d7d	1.3939663
217	0xbf40d6df	-0.7532787
218	0xbef90f69	-0.4864457
219	0xbf7ccab4	-0.987468
220	0xbf93b9d1	-1.1541082
221	0xbf9173b9	-1.1363441
222	0xbe07b029	-0.13250794
223	0xbfa2e841	-1.2727128
224	0x3efaed3d	0.49009123
225	0xbdc0fb50	-0.09422934
226	0x3f456aaa	0.7711588
227	0x3f2e4f39	0.68089634
228	0xbf700c75	-0.9376901
229	0xbf708645	-0.9395488
230	0xbf9ee450	-1.2413425
231	0xbf84cf00	-1.0375671
232	0x3f6066c2	0.87656796
233	0x3fb370a9	1.4018756
234	0xbf820854	-1.0158792
235	0xbfb99a2b	-1.4500173
236	0x3ece5ee9	0.40306786
237	0x3f9b2c91	1.2122976
238	0xbf539c0d	-0.8265999
239	0x3f818e84	1.0121617
240	0xbf1cc9dc	-0.6124551
241	0x3f7979ae	0.97451293
242	0xbf50f5bd	-0.81624967
243	0xbef3fef7	-0.4765546
244	0xbfa7f71e	-1.3122289
245	0xbf0d1029	-0.55102783
246	0xbf2fa7b8	-0.68615294
247	0x3f0b4a11	0.5440989
248	0x3f42237e	0.75835407
249	0x3f29784b	0.6619918
250	0xbfae3bfa	-1.3612053
251	0xbf54262a	-0.82870734
252	0xbf000b23	-0.50016993
253	0x3e7e6a29	0.24845184
254	0xbf8d3ec5	-1.1034781
255	0x3f4d2c7a	0.8014599

bias_epsilon f4 [128]
0	0xbf377b62	-0.7167264
1	0xbf8a6e6a	-1.0814946
2	0xbf7bd1eb	-0.98367184
3	0xbfafe5d8	-1.3742018
4	0x3ef36244	0.47535908
5	0xbf94a924	-1.1614118
6	0x3fc77fe0	1.5585899
7	0xbf0ba2e1	-0.5454541
8	0xbf1a7363	-0.60332316
9	0x3f9b2141	1.2119523
10	0xbf9975ee	-1.1989114
11	0x3efbe939	0.49201372
12	0x3f4b80f8	0.79493666
13	0xbf36e43b	-0.71442
14	0xbf5f1d2a	-0.87153876
15	0xbf886e60	-1.0658684
16	0x3f0a9efb	0.54148835
17	0xbf4efbf1	-0.8085318
18	0x3fae2a84	1.3606725
19	0xbfa6fa58	-1.3045149
20	0x3f01b72c	0.50670123
21	0xbf8300cc	-1.0234618
22	0x3ef86b56	0.4851939
23	0xbf51055b	-0.81648797
24	0x3f6c8459	0.92389446
25	0x3f4564bb	0.7710683
26	0xbeaf111b	-0.34192738
27	0xbf3a8dd2	-0.7287265
28	0x3f7ab6f5	0.9793542
29	0xbf77219d	-0.96535665
30	0xbf02a34e	-0.51030433
31	0xbf82a821	-1.0207559
32	0xbf877aaa	-1.0584309
33	0x3ec67d8a	0.38767654
34	0xbf8bdd06	-1.0926826
35	0xbf969a17	-1.1765774
36	0xbeaba03d	-0.3352069
37	0xbf622b5d	-0.8834742
38	0x3f4b9c42	0.79535306
39	0x3ea740de	0.32666677
40	0xbf800c2d	-1.0003716
41	0x3f7a76a9	0.9783731
42	0x3dc2feae	0.095212325
43	0x3fbcc6fe	1.4748228
44	0x3fa709c0	1.304985
45	0x3f739164	0.95143723
46	0x3f6142bc	0.87992454
47	0xbf379cb9	-0.71723515
48	0xbf92a08c	-1.1455245
49	0x3f66f57c	0.9021833
50	0xbf2ce122	-0.67531025
51	0x3eaee6f8	0.3416059
52	0x3f6b1079	0.9182201
53	0x3f16b318	0.58867025
54	0xbfb3a42d	-1.4034477
55	0xbef8c595	-0.48588243
56	0xbee50009	-0.4472659
57	0xbf1dd0ba	-0.61646616
58	0x3f270596	0.652429
59	0x3f92480f	1.142824
60	0xbf696141	-0.9116402
61	0x3eade5e1	0.33964446
62	0x3e85b165	0.26111904
63	0xbf446412	-0.76715195
64	0xbed3b93e	-0.41352266
65	0x3f48273c	0.78184867
66	0xbf266050	-0.6499071
67	0xbf2a463a	-0.6651341
68	0x3f891d01	1.0711976
69	0xbfa76bec	-1.307981
70	0xbf81e497	-1.0147885
71	0x3f184cfd	0.59492475
72	0x3f07504c	0.528569
73	0xbf7e410c	-0.99318004
74	0x3f94eadc	1.1634173
75	0xbf8472c2	-1.0347521
76	0xbfa568a1	-1.2922555
77	0x3ea9e71c	0.33184135
78	0x3f40cc59	0.7531181
79	0xbf01a445	-0.5064128
80	0x3fb1ca74	1.3889909
81	0xbf99ac6a	-1.2005742
82	0x3f75a8ba	0.9596058
83	0x3e55b71d	0.20870633
84	0x3f37ad01	0.7174836
85	0xbf479f19	-0.7797714
86	0xbf65c132	-0.8974792
87	0xbd8c8c6c	-0.06862721
88	0xbf173db6	-0.5907854
89	0x3f076937	0.5289492
90	0xbf975f59	-1.1825973
91	0x3f781a14	0.9691479
92	0xbedb0ea8	-0.4278462
93	0xbf371e6c	-0.71530795
94	0xbe0ec84e	-0.13943598
95	0xbf86b898	-1.0525084
96	0xbeb8358e	-0.3597836
97	0xbf46422d	-0.77444726
98	0x3f726370	0.9468298
99	0xbf369729	-0.713244
100	0x3f8345ab	1.0255636
101	0x3f8c92cf	1.0982302
102	0x3f558619	0.8340774
103	0xbf7a0a51	-0.9767199
104	0xbfab278e	-1.3371446
105	0xbe971eb8	-0.29515624
106	0xbf894779	-1.0724937
107	0x3f55e321	0.83549696
108	0x3f7cd9f2	0.9877006
109	0xbf242fdc	-0.6413553
110	0xbf9ed350	-1.2408237
111	0xbf530827	-0.82434314
112	0xbf9c35f8	-1.220397
113	0xbf4fcb3a	-0.81169474
114	0x3f6fd5ab	0.93685406
115	0xbf1700a3	-0.58985347
116	0x3f3454a6	0.70441663
117	0xbfa13e9a	-1.259723
118	0xbf52e785	-0.8238452
119	0x3f8e2db9	1.1107703
120	0xbf9b0695	-1.2111384
121	0x3e73b524	0.23799568
122	0x3f32a2f9	0.69779927
123	0x3f91b11a	1.1382172
124	0xbf57c03e	-0.84277713
125	0x3f2574a0	0.6463108
126	0xbf5c6ef6	-0.8610681
127	0xbf2953b7	-0.66143364

weight_mu f4 [2, 128]
0	0x3c925459	0.017862486
1	0x3d3e792f	0.04650229
2	0xbfcc86b1	-1.5978605
3	0xbe4add8d	-0.19811077
4	0x3c942b2c	0.018086992
5	0xba51f6de	-0.00080095034
6	0x3ec8ed37	0.3924348
7	0xbe2260b8	-0.15857208
8	0xbeab8d9d	-0.3350648
9	0x3dcd1933	0.10014572
10	0x3e5a9281	0.2134495
11	0x3ed69092	0.41907173
12	0x3e560b77	0.20902811
13	0xbfe37e8d	-1.7772995
14	0x3e9be23e	0.30446047
15	0x3ecc5ac6	0.39913005
16	0x3ebf4156	0.37354535
17	0xbdbe9f5c	-0.09307739
18	0x3a5ac587	0.0008345474
19	0x3e451477	0.19246088
20	0x3cd95b46	0.02653278
21	0x3e321af5	0.17393096
22	0x3ea64dc4	0.32481205
23	0x3d0ac260	0.033876777
24	0xbfd987d7	-1.699458
25	0x3e450f15	0.19244035
26	0x3d7dd74b	0.061972897
27	0x3eb0e12f	0.345468
28	0xbd5e7f4c	-0.05432062
29	0x3ed12a24	0.40852463
30	0x3cff9278	0.031197771
31	0xbc450a07	-0.0120263165
32	0x3d1ccc35	0.038280685
33	0x3eaefacd	0.3417572
34	0xba206820	-0.00061190315
35	0x3c8c0446	0.017091881
36	0x3e861f84	0.2619592
37	0x3ea98cb3	0.33115157
38	0xbd4dabb3	-0.050212573
39	0x3d9e2196	0.0772125
40	0x3eb54b17	0.35408852
41	0xbe90e822	-0.28302103
42	0xbeff77d4	-0.4989611
43	0x3e5a7575	0.21333869
44	0x3eb9d61b	0.36296162
45	0xbfdd1bcc	-1.7274108
46	0x3eb4d9f0	0.35322523
47	0xbcd53571	-0.02602646
48	0xbf893b14	-1.0721154
49	0x3e532600	0.20619965
50	0x3e81c29f	0.25343797
51	0xbc94d214	-0.01816658
52	0x3ec1073c	0.37700832
53	0x3eac6096	0.3366744
54	0xbf028f41	-0.5099984
55	0x3e9faeca	0.3118804
56	0xbfa4631c	-1.2842746
57	0x3ed011a2	0.40638453
58	0xbe22ba26	-0.15891322
59	0xbab70729	-0.0013963926
60	0x3ca271cd	0.019829655
61	0x3bcdca42	0.0062802145
62	0xbc12b226	-0.008953607
63	0xbbd1cf31	-0.006402873
64	0x3ed709ad	0.4199957
65	0x3edff3a3	0.43740568
66	0x3ea04dfe	0.31309503
67	0x3d67057e	0.056401722
68	0x3e935286	0.28773898
69	0x3d506382	0.050876148
70	0xbfc41fed	-1.5322243
71	0x3eac697d	0.3367423
72	0xbd97d0d6	-0.07412879
73	0x3ccbcb89	0.024877327
74	0x3eb0ff96	0.34569997
75	0x3e43bc8f	0.19114898
76	0x3df9ae4e	0.12191449
77	0x3cec4f95	0.028846541
78	0x3ebef05a	0.3729275
79	0xbd515bd1	-0.051112954
80	0x3eb8c3bf	0.36086842
81	0x3d8da747	0.06916671
82	0xbc8cd1cd	-0.017189885
83	0x3e79bb6f	0.24387906
84	0x3e892ab3	0.2679039
85	0x3e8ea8ec	0.27863252
86	0xbc6e199f	-0.014532476
87	0x3ed1d170	0.409801
88	0xbd37d5ef	-0.044881757
89	0xbd782f42	-0.060591944
90	0x3e4da936	0.2008408
91	0x3cc9f3a1	0.024652304
92	0x3da08947	0.078386836
93	0xbe2ba52c	-0.16762227
94	0xbc239baf	-0.009985848
95	0x3e46af9d	0.19402929
96	0xba31ac0f	-0.0006777653
97	0x3d34ad06	0.04411032
98	0x3ebd6a38	0.369951
99	0x3f0439be	0.5165061
100	0xbfaf6667	-1.3703126
101	0xbd3568ff	-0.044289585
102	0x3eb8f2b3	0.36122665
103	0x3e6fccd5	0.23417981
104	0xbc9ea5c3	-0.01936615
105	0xbcd002d2	-0.02539197
106	0xbf1a3707	-0.60240215
107	0xbbebd411	-0.007196911
108	0x3e70587f	0.23471259
109	0x3edd62d5	0.43239465
110	0x3aa8b3a5	0.0012870921
111	0x3c43dda0	0.011954695
112	0x3ea0aed5	0.31383386
113	0x3ccb54bb	0.024820676
114	0x3e89c049	0.26904514
115	0x3eba447b	0.3638037
116	0xbcf0f825	-0.0294152
117	0x3e6057d1	0.219085
118	0x3e93f659	0.28898886
119	0x3cbb39e1	0.022854747
120	0x3de34ac2	0.11098243
121	0x3ebfc37c	0.3745383
122	0xbfc21008	-1.5161142
123	0xbef7ab1b	-0.4837273
124	0xbc19ed40	-0.009394944
125	0x3eaff991	0.34370092
126	0x3ca5cf60	0.020240486
127	0x3f1d1323	0.61357325
128	0xbe6313d7	-0.22175537
129	0xbec8a04b	-0.39184794
130	0xbed270ac	-0.41101587
131	0xc0014276	-2.0196815
132	0xbcea840d	-0.02862742
133	0xbd611ede	-0.054961078
134	0x3ee173d0	0.4403367
135	0x3d3997aa	0.045310654
136	0xbff7878f	-1.9338244
137	0x3e2f5b62	0.17124704
138	0x3dacf4a6	0.084451005
139	0x3ee0aff5	0.43884245
140	0x3e020b80	0.126997
141	0x3e9717aa	0.29510242
142	0x3ea3acfd	0.31967917
143	0x3eebcff2	0.46057087
144	0x3e9dde5c	0.3083371
145	0x3bec497c	0.0072109085
146	0xbfaf309a	-1.3686707
147	0x3dda3051	0.10653747
148	0x3e733737	0.23751532
149	0x3e3f32aa	0.1867167
150	0x3ece7742	0.40325361
151	0xbe739bfc	-0.23789972
152	0x3ebfcc32	0.37460476
153	0x3cc1e459	0.023668455
154	0xbe0eb907	-0.1393777
155	0x3e8341b8	0.25636077
156	0xb985410d	-0.00025416203
157	0x3ec7fb96	0.39059132
158	0x3d4c2977	0.04984423
159	0xbba50610	-0.005036123
160	0x3cce3468	0.025171474
161	0x3ebad1ef	0.36488292
162	0xbd2a5140	-0.041581392
163	0x3d6d52e2	0.05794037
164	0x3e9f484a	0.3110984
165	0x3eab403c	0.33447444
166	0xbe166470	-0.14686751
167	0xbdca59e9	-0.0988043
168	0x3eb7ea61	0.35921004
169	0xbf053e03	-0.5204775
170	0xc0115a32	-2.27113
171	0x3e626126	0.22107372
172	0x3ecf88bc	0.40534008
173	0x3eb140f9	0.34619883
174	0x3e724627	0.23659573
175	0x3ce3b7f5	0.027797678
176	0xbf75cbb7	-0.9601397
177	0xbbb46088	-0.0055046715
178	0x3dc23f6a	0.094847515
179	0x3c13c2cf	0.009018614
180	0x3e84e77f	0.25957868
181	0x3ee430ee	0.4456858
182	0xc01da37e	-2.4631038
183	0x3e8dd2f2	0.277
184	0x3e86e2b5	0.2634484
185	0x3eded319	0.4352043
186	0xbe124bd5	-0.1428674
187	0x3b55164e	0.0032514515
188	0xbc9006e0	-0.017581403
189	0xbbca12f6	-0.006166811
190	0xbc84dffe	-0.016220089
191	0x3e6bb8aa	0.23019662
192	0x3eea04a7	0.45706674
193	0x3e9b1208	0.30287194
194	0x3e7681d9	0.2407297
195	0xbdc29f20	-0.09503007
196	0x3e928f49	0.28624943
197	0x3d936851	0.07197631
198	0xbf89759d	-1.0739018
199	0x3ea72aac	0.32649744
200	0x3c70a0bb	0.014686759
201	0xbd85d627	-0.06534987
202	0x3eabb7a2	0.33538538
203	0xbe7900c5	-0.243167
204	0x3e26abb6	0.1627644
205	0x3c78a0a4	0.015175018
206	0x3eb7930c	0.35854375
207	0x3cffef61	0.031242074
208	0x3e9f047a	0.31058103
209	0x3ce08b25	0.0274101
210	0x3c301eb6	0.01074951
211	0x3ecbeaf3	0.3982769
212	0x3ebd18fa	0.36933118
213	0x3e897539	0.26847246
214	0xbc3634a7	-0.011120952
215	0x3ecea6f4	0.4036175
216	0xbf28320d	-0.6570137
217	0xbd2c1843	-0.042015325
218	0x3e003dba	0.12523547
219	0x3cf83b8e	0.030301835
220	0x3e73174e	0.23739359
221	0x3eeda3f1	0.4641414
222	0xbb76fd6e	-0.0037687677
223	0x3e76d721	0.24105503
224	0x3da565be	0.080760464
225	0xbdc9d0fb	-0.09854313
226	0x3ec1e67f	0.37871167
227	0x3f0a3bc5	0.5399745
228	0xbfc7a171	-1.5596143
229	0x3cbfb247	0.023400439
230	0x3e65bc2d	0.22435065
231	0x3e406671	0.18789078
232	0xbcce89f9	-0.025212275
233	0x3d7754d7	0.060383644
234	0xbfdd7b67	-1.7303284
235	0x3cd91184	0.02649761
236	0x3e9e76b4	0.30949938
237	0x3eb1f606	0.34758013
238	0xbd4eff0e	-0.050536208
239	0xbd64f937	-0.055901732
240	0xbd9ea442	-0.077461734
241	0xbd5edd0c	-0.054410025
242	0x3edd1219	0.4317787
243	0x3ed23e7a	0.4106329
244	0xbcc45427	-0.023965908
245	0xbfd9c254	-1.7012429
246	0x3e0ac78f	0.13552688
247	0xbbee8efc	-0.0072802287
248	0xbd944ea3	-0.07241561
249	0x3e67d951	0.22641493
250	0xbf8acc53	-1.0843605
251	0xbe97dca0	-0.2966051
252	0x3cdec665	0.027194211
253	0x3e96eb68	0.29476476
254	0x3d0cb3ae	0.034351043
255	0x3f0ac68c	0.5420921
