data/1008CartPole-v0_vpg/1008CartPole-v0_vpg_s10/pyt_save/model.pt (torch, 42881 bytes, 11 tensors)

weight f4 [64, 4]
0	0xbe76a1c2	-0.24085143
1	0x3e4108a3	0.18850951
2	0x3e378061	0.17920066
3	0x3ef30dcc	0.47471464
4	0x3e8eebae	0.27914184
5	0xbeaa0fd6	-0.33215207
6	0xbf0c8cd7	-0.54902405
7	0xbec76342	-0.38942915
8	0x3db02349	0.0860048
9	0x3e836d5a	0.25669366
10	0x3e390d2e	0.18071434
11	0xbcd4e0ac	-0.025986038
12	0x3e6ac1a6	0.22925434
13	0xbde7af38	-0.11312717
14	0x3def9d01	0.11699868
15	0xbece4f74	-0.40294993
16	0xbdeaf0d8	-0.114717185
17	0x3ee2b168	0.44275975
18	0x3ea7537c	0.3268088
19	0x3ee59493	0.44839916
20	0x3cd0dd52	0.025496159
21	0xbe2199c7	-0.15781318
22	0xbe9a8993	-0.30183086
23	0x3e36e041	0.17858984
24	0xbed307e5	-0.4121696
25	0xbee10a6c	-0.43953264
26	0x3e6c6c61	0.23088218
27	0x3e8ff942	0.28119856
28	0x3e80d478	0.251621
29	0xbe232563	-0.1593223
30	0xbdfe0bf4	-0.12404624
31	0x3d522879	0.05130813
32	0x3e4339e2	0.1906505
33	0x3e1c6a26	0.15274867
34	0x3dec4b65	0.11537818
35	0x3e4f8250	0.20264554
36	0xbe2ccec2	-0.16875747
37	0xbd91f40d	-0.07126627
38	0x3ec384b9	0.38187197
39	0xbe05c284	-0.13062483
40	0x3e223e47	0.1584407
41	0xbef1a21d	-0.47193995
42	0x3f09affd	0.5378416
43	0x3ec45259	0.38344076
44	0xbe93ca2e	-0.28865188
45	0x3e2d82d9	0.16944446
46	0xbe7ed6b7	-0.24886595
47	0xbe741d37	-0.2383927
48	0xbe423a0e	-0.18967459
49	0x3edb681f	0.42852876
50	0x3ee2632d	0.4421629
51	0x3dc87ecc	0.097898096
52	0xbdd59ebb	-0.10430666
53	0x3e45ef04	0.19329458
54	0x3e2ed8f7	0.17074953
55	0xbdcb4540	-0.09925318
56	0x3cc2c561	0.023775758
57	0xbe85d920	-0.26142216
58	0xbec51c28	-0.38498044
59	0x3ed58aba	0.41707402
60	0x3db537e9	0.08848555
61	0x3e26587f	0.16244696
62	0x3dee66b7	0.11640685
63	0xbe962e6f	-0.293323
64	0xbe948d40	-0.29014015
65	0x3eecd6b2	0.4625755
66	0x3e67767a	0.22603789
67	0x3edf6b66	0.43636626
68	0xbd928697	-0.07154577
69	0x3eaa3180	0.3324089
70	0x3eeb881e	0.46002287
71	0xbe5972f3	-0.21235256
72	0x3da7bc58	0.081902206
73	0x3ed7a187	0.42115423
74	0x3ea5d290	0.3238721
75	0xbeba650a	-0.36405212
76	0xbdc16e62	-0.09444882
77	0x3e7bc520	0.24586916
78	0x3e16e886	0.14737138
79	0x3ebf05d3	0.3730913
80	0x3ef3d653	0.47624454
81	0x3e2a12ac	0.16608685
82	0x3f031fd1	0.51220423
83	0x3e944fae	0.2896704
84	0x3e70634d	0.2347538
85	0x3e20621a	0.15662423
86	0x3e1e819a	0.15479127
87	0x3e5604f3	0.20900325
88	0x3e128357	0.14307915
89	0x3eb4b9ba	0.35297948
90	0xbdbc8c3a	-0.092064336
91	0x3e9c6347	0.30544493
92	0xbe4e531d	-0.20148893
93	0x3ea2c4a6	0.31790656
94	0x3df2d8b1	0.11857737
95	0xbed60d47	-0.41807005
96	0xbeedb006	-0.46423358
97	0xbec93fcb	-0.39306483
98	0x3e7a274d	0.24429055
99	0x3ea247ec	0.31695497
100	0xbe4629fd	-0.19351955
101	0x3e5ca444	0.21547037
102	0x3ec4fb56	0.38473004
103	0x3e833499	0.25626066
104	0xbdf9684b	-0.121780954
105	0xbe12b4c3	-0.14326768
106	0x3e9de53c	0.30838954
107	0xbe83a1ed	-0.25709477
108	0x3d4c7020	0.04991162
109	0xbe888f7f	-0.2667198
110	0xbe3c2d6a	-0.18376699
111	0x3f0b0847	0.54309505
112	0xbe02cb0c	-0.12772769
113	0x3e6989bb	0.22806446
114	0x3e4ea314	0.20179397
115	0xbefea1b7	-0.49732754
116	0x3e345aa5	0.17612703
117	0x3e9dfc55	0.30856577
118	0x3cb0d7ac	0.021587215
119	0x3d1d51e0	0.03840816
120	0xbc9ff9b9	-0.019528257
121	0xbe9797b3	-0.29607925
122	0x3f0f5ff0	0.56005764
123	0x3e730aff	0.23734663
124	0x3e3d5d67	0.18492661
125	0xbd56845b	-0.052372318
126	0x3cef1d15	0.029188672
127	0xbdc8a3ad	-0.09796844
128	0xbdb2f6fb	-0.08738514
129	0xbe8d9d99	-0.276593
130	0xbed97172	-0.42469364
131	0xbdbd6329	-0.09247429
132	0x3da600a5	0.08105592
133	0xbe941461	-0.28921798
134	0x3eda7574	0.42667735
135	0x3eba9f25	0.36449543
136	0xbe1b9f33	-0.15197448
137	0x3d633a64	0.055475608
138	0x3f0babea	0.54559195
139	0xbe5e7d37	-0.21727453
140	0x3d61c7fb	0.055122357
141	0x3ed1b012	0.40954643
142	0x3f06aeba	0.5261036
143	0x3e6af7df	0.22946118
144	0x3eeb0933	0.45905456
145	0xbeb29472	-0.3487888
146	0xbe1647a3	-0.14675765
147	0x3ed74214	0.420426
148	0x3eaee3ea	0.3415826
149	0x3ea34ff6	0.31896943
150	0x3ebf312d	0.37342206
151	0xbdc997b7	-0.098433904
152	0xbe7f76b1	-0.24947621
153	0x3ddc864b	0.10767802
154	0xbe510097	-0.20410381
155	0xbdb151dc	-0.086581916
156	0xbe6db4b9	-0.23213471
157	0x3e672075	0.22570975
158	0x3f014831	0.5050078
159	0x3e7b9a3e	0.24570557
160	0xbf032d26	-0.51240766
161	0x3e2a61ab	0.1663882
162	0x3eff6e13	0.49888667
163	0x3eb4ee4b	0.35338053
164	0x3e40d823	0.1883245
165	0x3ea2e430	0.31814718
166	0x3dbd85cd	0.09254036
167	0x3e1645c5	0.14675052
168	0x3e61ba94	0.2204383
169	0xbc16a446	-0.009194439
170	0x3c0b1436	0.008488705
171	0xbce48010	-0.027893096
172	0x3ed304a7	0.41214487
173	0x3e9632cc	0.2933563
174	0x3e2de17b	0.16980545
175	0xbe05c57c	-0.13063616
176	0x3ee3509b	0.44397435
177	0xbd9c2cf0	-0.07625759
178	0x3e6de583	0.23232083
179	0x3ef309b4	0.4746834
180	0x3da71e86	0.08160119
181	0xbeebabd8	-0.46029544
182	0x3d1639a9	0.036676083
183	0xbe106bef	-0.14103673
184	0x3b4a1901	0.0030837657
185	0xbeacc502	-0.33744055
186	0xbeb9458a	-0.36185867
187	0x3ef2c65d	0.47416964
188	0xbe9a2853	-0.3010889
189	0xbe558c9a	-0.20854416
190	0xbed86108	-0.4226153
191	0x3e0299a7	0.12753926
192	0x3d30f915	0.043206293
193	0x3e0f33ad	0.13984556
194	0x3e9b0596	0.302777
195	0xbee3752b	-0.4442533
196	0x3ee7c2c6	0.45265788
197	0xbe1309e9	-0.14359249
198	0x3e2cead7	0.1688646
199	0x3e3f353f	0.18672656
200	0x3e48852c	0.19582051
201	0x3c5ce331	0.013481901
202	0x3ecd2a55	0.4007136
203	0x3e29502c	0.1653449
204	0xbee03f95	-0.4379851
205	0xbe0a93ee	-0.13532993
206	0x3e038150	0.12842298
207	0xbe4d9d31	-0.20079495
208	0x3e307684	0.1723271
209	0xbee35fa2	-0.444089
210	0xbec59690	-0.38591433
211	0x3e9bb2ba	0.30409795
212	0x3dc455b4	0.09586659
213	0x3dd5fc94	0.10448566
214	0x3f03d566	0.51497495
215	0xbdea3b3c	-0.11437079
216	0xbe7004a4	-0.2343927
217	0x3e89ac74	0.26889384
218	0xbd70638c	-0.058688685
219	0xbec96339	-0.39333513
220	0xbd8faf50	-0.0701586
221	0x3daf0ac6	0.08546977
222	0xbe211682	-0.15731242
223	0x3d8cc90f	0.068742864
224	0x3ec2cc6f	0.38046595
225	0x3edce36f	0.43142268
226	0x3efdcb71	0.49569276
227	0x3ebc452e	0.3677153
228	0x3e99534c	0.29946363
229	0xbd8f2f5e	-0.069914564
230	0x3eb98c64	0.36239922
231	0xbed8e28e	-0.42360348
232	0xbde07316	-0.10959451
233	0x3e3c456e	0.1838586
234	0xbee9d099	-0.4566696
235	0xbe9dc62f	-0.30815265
236	0x3e9c2cda	0.3050297
237	0x3e4bcf64	0.19903332
238	0xbcb0c68a	-0.021579046
239	0x3f0035e9	0.5008226
240	0xbdd266b2	-0.10273494
241	0x3dd8e10d	0.105898
242	0x3e0e0961	0.13870765
243	0x3eb04dc2	0.34434325
244	0xbed93d63	-0.42429647
245	0x3d1775a7	0.036977436
246	0xbf0f3346	-0.5593761
247	0xbe55d439	-0.20881738
248	0xbe98f1fb	-0.29872116
249	0x3eb94f9e	0.36193556
250	0xbeccba44	-0.3998586
251	0xbea87eed	-0.32909337
252	0x3f01117f	0.5041732
253	0xbd16b731	-0.0367958
254	0xbdc0a146	-0.094057605
255	0xbe79ad13	-0.24382429

bias f4 [64]
0	0xbefb79d7	-0.49116394
1	0xbe0f1284	-0.13971907
2	0x3e280186	0.16406831
3	0x3e06f8b7	0.13180815
4	0x3e9d6c7a	0.30746824
5	0x3ddccdb4	0.10781422
6	0xbd0f0fd4	-0.034927204
7	0xbede2c88	-0.4339335
8	0x3e4c6c48	0.19963181
9	0x3ec42388	0.38308358
10	0x3eee3f1f	0.46532533
11	0xbe2b9d60	-0.16759253
12	0x3ee4d7a3	0.44695768
13	0x3ef23697	0.47307274
14	0xbe5b8def	-0.21440862
15	0x3e03d3ad	0.12873717
16	0x3e806237	0.25074932
17	0xbdef4767	-0.11683541
18	0x3ed09871	0.40741304
19	0xbeacf501	-0.33780673
20	0x3de2cf15	0.11074654
21	0xbe8714c3	-0.26383027
22	0x3e9690c0	0.2940731
23	0x3d52879c	0.05139886
24	0x3e444601	0.1916733
25	0xbe1d017e	-0.153326
26	0x3ecbe98f	0.3982663
27	0xbeb1dc4c	-0.34738386
28	0xbed40d0f	-0.41416213
29	0xbd88e089	-0.06683452
30	0xbeb23162	-0.348033
31	0xbed32efa	-0.41246778
32	0xbed0c8be	-0.40778154
33	0x3ee59b8e	0.4484524
34	0xbef4d42e	-0.4781813
35	0xbdfd768c	-0.12376127
36	0x3ec1b61d	0.37834254
37	0x3e5c4b91	0.21513201
38	0x3edb0ba2	0.42782313
39	0x3e779db7	0.24181257
40	0xbeb18c05	-0.3467714
41	0xbea3373b	-0.31878075
42	0xbebf8dd5	-0.37412897
43	0xbd52b1bb	-0.05143903
44	0x3e7a130a	0.24421325
45	0xbe615c0e	-0.22007772
46	0x3ee93883	0.45550928
47	0xbded7f71	-0.11596573
48	0x3edde9c3	0.4334241
49	0x3ec6cc1f	0.38827607
50	0x3ec0cde7	0.3765709
51	0xbec18333	-0.3779541
52	0x3e68b8b1	0.22726704
53	0xbe04c506	-0.12965783
54	0x3df8b207	0.12143331
55	0x3e3a0fb7	0.18170057
56	0x3ecad7e0	0.39617825
57	0x3e9f2bbd	0.31088057
58	0xbe1ed772	-0.15511873
59	0xbed806d5	-0.42192712
60	0xbda86f74	-0.08224383
61	0x3ea46add	0.3211278
62	0xbe5a36ba	-0.21309939
63	0x3e4ac3fb	0.19801323

weight f4 [64, 64]
0	0x3c176e46	0.0092426
1	0xbd0f3b0f	-0.034968432
2	0x3dd18dea	0.10232146
3	0x3d6233dd	0.055225242
4	0xbd5a9d8b	-0.0533729
5	0x3d883e50	0.0665251
6	0xbcf10982	-0.029423479
7	0xbda27c9b	-0.07933923
8	0x3dba3c44	0.09093526
9	0x3dae4245	0.08508734
10	0xbd8d8f5b	-0.069121085
11	0xbd628b67	-0.055308726
12	0xbddfa923	-0.10920932
13	0xbdad3541	-0.08457423
14	0xbcc022d4	-0.023454107
15	0x3e0c8ac6	0.13724813
16	0xbe2cb42b	-0.16865604
17	0xbda95b3f	-0.08269357
18	0xbda549b4	-0.080706984
19	0x3c286799	0.010278606
20	0xbd096b7e	-0.03354978
21	0xbdf6fe1a	-0.12060185
22	0x3d6fc10f	0.058533724
23	0xbd21723d	-0.039415587
24	0xbdd1f8f4	-0.10252562
25	0xbe21983b	-0.15780728
26	0x3cddd048	0.027076855
27	0x3d287245	0.0411246
28	0x3e05162b	0.12996738
29	0xbdf15b35	-0.117849745
30	0xbdf9e3aa	-0.122016266
31	0x3d4d81f3	0.050172757
32	0x3d5f141a	0.05446253
33	0xbd54cba0	-0.051952004
34	0xbde4cf47	-0.111723475
35	0xbe24e79c	-0.16103977
36	0x3dc9b137	0.09848254
37	0xbdc7c8ae	-0.097550735
38	0x3d2915dd	0.041280616
39	0xbe232f3c	-0.15935987
40	0xbcf1fb09	-0.029538648
41	0x3c5506d6	0.013002118
42	0xbd0812f4	-0.0332212
43	0xbdc78d07	-0.09743696
44	0xbe0c0b6c	-0.13676232
45	0x3debdc6c	0.115166515
46	0xbd8a507a	-0.06753631
47	0xbdd1a026	-0.10235624
48	0x3d7bb123	0.061448228
49	0xbdf1a16b	-0.11798366
50	0x3d6f8482	0.05847598
51	0xbdf7ce4c	-0.12099895
52	0xbd94d524	-0.07267216
53	0x3d3c8f9d	0.046035398
54	0x3d0e3323	0.034716737
55	0x3dddae0f	0.10824215
56	0xbd43ee79	-0.047834847
57	0xbd998135	-0.074953474
58	0x3dbedbd0	0.0931927
59	0xbd93b14c	-0.07211551
60	0xbcec6819	-0.028858231
61	0x3e0170f1	0.1264074
62	0x3dbe4bfc	0.092918366
63	0xbd509e99	-0.0509325
64	0xbd4984c7	-0.049198892
65	0x3d209e2d	0.03921335
66	0x3cd309e7	0.025761558
67	0xbc2e04d3	-0.010621267
68	0xbb2a11a5	-0.0025950458
69	0x3d185500	0.037190437
70	0xbc8d169d	-0.017222697
71	0x3d5dc991	0.054147307
72	0x3c14325a	0.009045208
73	0x3c428c3d	0.011874256
74	0x3e03018a	0.12793556
75	0x3da0585f	0.078293554
76	0x3da35808	0.07975775
77	0x3d3af942	0.045647867
78	0xbd38d2ec	-0.045123026
79	0x3dc818e4	0.097703725
80	0x3ca8b410	0.020593673
81	0x3dc4206d	0.09576497
82	0xbd2556aa	-0.040365852
83	0xbc9f7266	-0.01946373
84	0xbcc09816	-0.02351002
85	0xbd9fb8a4	-0.07798889
86	0xbd8e468c	-0.069470495
87	0xbd8b6aa5	-0.0680745
88	0xbd5a2877	-0.053261247
89	0xbbba0a69	-0.0056775105
90	0x3db2e54d	0.08735142
91	0x3bf41741	0.007449061
92	0x3dcbb1d7	0.0994603
93	0x3d959ad2	0.0730492
94	0x3d96f963	0.073717855
95	0xbdc20cca	-0.094750956
96	0xbde57015	-0.112030186
97	0x3c64cfd5	0.013965567
98	0x3c1f5549	0.009724923
99	0x3d78db8b	0.060756247
100	0x3dda3b66	0.106558606
101	0x3db6407f	0.088990204
102	0xbdd79f15	-0.10528389
103	0x3c9dacaf	0.019247381
104	0xbdc1be2d	-0.09460101
105	0xbdc0ec43	-0.09420063
106	0x3dc06866	0.093949124
107	0x3db513b2	0.08841647
108	0xbdbafc67	-0.09130173
109	0x3c92b9e8	0.017910913
110	0x3b4dc110	0.0031395592
111	0x3df592e3	0.11990907
112	0xbdb0e14f	-0.08636724
113	0x3bba187e	0.005679189
114	0x3ce56409	0.028001802
115	0x3d763568	0.060109526
116	0xbd987b87	-0.07445436
117	0x3da551c5	0.08072237
118	0x3d9e4f3e	0.07729958
119	0x3ceab4b9	0.028650628
120	0xbd43da05	-0.04781534
121	0x3d94db1b	0.072683536
122	0xb8a2f7a6	-7.77089e-05
123	0xbd05b528	-0.032643467
124	0x3dac28dd	0.084062316
125	0xbd31dca7	-0.04342332
126	0xbe1056c8	-0.14095604
127	0xbd0bec05	-0.034160633
128	0x3e185b36	0.14878544
129	0xbdf35318	-0.11881083
130	0x3dc482e1	0.09595276
131	0xbdc119db	-0.0942876
132	0xbc1f7c4f	-0.009734227
133	0x3d885b73	0.066580676
134	0x3ddd76fa	0.108137086
135	0x3dec7e2c	0.11547503
136	0xbda88187	-0.082278304
137	0xbde06426	-0.10956602
138	0x3cf5555f	0.029947935
139	0x3db733ae	0.08945404
140	0xbdb45375	-0.08804981
141	0x3cea20a9	0.028580027
142	0x3c9e9b17	0.019361062
143	0x3cd4203e	0.02589428
144	0x3da3e676	0.08002941
145	0x3abcfca8	0.0014418559
146	0xbc0a7b99	-0.00845232
147	0x3e2a8be2	0.16654924
148	0x3b6f3706	0.0036501302
149	0x3dd09bfb	0.10186001
150	0xbd47eb21	-0.04880822
151	0xbd9a38d7	-0.075303726
152	0x3daec844	0.085342914
153	0x3df257fd	0.11833189
154	0x3dab2b88	0.08357912
155	0x3c21a35f	0.009865611
156	0xbdc99d3d	-0.09844444
157	0x3de5d6ec	0.11222634
158	0x3d39b575	0.045339067
159	0xbe043d0e	-0.12913916
160	0xbd199774	-0.037497953
161	0x3db1bb97	0.08678358
162	0xbd1f1b73	-0.038844537
163	0x3d56f9c4	0.05248429
164	0xbd671fd2	-0.05642683
165	0x3dff68d4	0.12471166
166	0xbcb20a06	-0.021733295
167	0x3c5335f5	0.012891282
168	0xbccda095	-0.025100986
169	0xbd8e7bf5	-0.06957237
170	0xbd381fe7	-0.0449523
171	0xbcb507cb	-0.022098443
172	0xbd41c694	-0.04730852
173	0x3cce8767	0.02521105
174	0xbc7e4669	-0.015519717
175	0x3dc2f9ab	0.09520277
176	0xbdc5f7f3	-0.09666433
177	0x3cd22a09	0.02565481
178	0xbdc5b6fc	-0.09654042
179	0x3d70d235	0.05879422
180	0x3dc2eefc	0.09518239
181	0xbdb72008	-0.08941656
182	0x3daa1383	0.08304503
183	0xbda15b37	-0.07878726
184	0x3d9ece20	0.07754159
185	0x3bf76860	0.0075502843
186	0xbccccfd5	-0.025001446
187	0xbcbc7ea3	-0.023009604
188	0xbd3f69c3	-0.04673172
189	0x3d7ebedc	0.062193736
190	0x3d206352	0.03915722
191	0xbe2ae604	-0.16689306
192	0x3d8224de	0.06354688
193	0xbcc9a1d0	-0.024613291
194	0xbdce6bd1	-0.10079158
195	0xbc810773	-0.015750622
196	0x3c68302e	0.014171643
197	0xbddc25d8	-0.107494056
198	0xbd9b3fa1	-0.075804956
199	0x3b1dbd20	0.0024069026
200	0xbd611017	-0.054946985
201	0x3de63a78	0.11241621
202	0x3d9820ec	0.07428154
203	0xbc67ca45	-0.014147346
204	0xbdb8165c	-0.0898864
205	0xbc25a3c6	-0.010109847
206	0xbcbb334e	-0.022851612
207	0x3dc507ac	0.09620604
208	0xbd140f79	-0.03614757
209	0x3d7bbf95	0.061462004
210	0xbdcc0588	-0.099619925
211	0xbe154982	-0.14578822
212	0xbe0b45ac	-0.13600796
213	0x3dc5a794	0.096511036
214	0xbe024e4d	-0.12725182
215	0x3d367759	0.044547413
216	0x3daa089b	0.083024226
217	0xbdfa19fd	-0.12211988
218	0xb9e661cf	-0.00043941892
219	0xbd80fc34	-0.06298104
220	0x3d98499d	0.074359156
221	0x3d706a57	0.058695164
222	0xbd82084d	-0.063492395
223	0x3d4fdcf3	0.050747823
224	0xbdc9f081	-0.098603256
225	0x3d298e5f	0.04139554
226	0x3dab5da2	0.083674684
227	0xbd382e04	-0.04496576
228	0xbc9dab48	-0.019246712
229	0xbc8f865d	-0.017520124
230	0xbdd4fb0c	-0.10399446
231	0xbdbd8af8	-0.09255022
232	0x3d8d6fc8	0.06906086
233	0xbdccd231	-0.10001028
234	0x3d17cb5b	0.03705917
235	0xbdb5009a	-0.08838005
236	0xbe0f3915	-0.13986619
237	0x3d906d92	0.07052149
238	0x3c7ff20e	0.015621675
239	0xbdc1ccd5	-0.09462897
240	0xbdb5f9e2	-0.08885552
241	0xbda22430	-0.079170585
242	0x3d910c09	0.07082374
243	0xbdfa61b4	-0.12225667
244	0x3d26e66a	0.040747084
245	0x3dcdd2e0	0.10049987
246	0xbda02cd2	-0.07821049
247	0xbd169c08	-0.036769897
248	0x3d2b4317	0.04181203
249	0x3e1bf45f	0.15229939
250	0xbd25f465	-0.040516276
251	0xbde08b9c	-0.109641284
252	0xbe2cff60	-0.16894293
253	0x3c67c072	0.014145004
254	0xbd8cf6bb	-0.068829976
255	0xbdaace04	-0.083400756

bias f4 [64]
0	0x3d4aee3c	0.049543604
1	0xbdabdc13	-0.08391585
2	0xbdd8657f	-0.10566234
3	0x3d5e7e9d	0.054319967
4	0xbdce3bfe	-0.10070036
5	0xbdad1679	-0.08451552
6	0x3d241d47	0.040066984
7	0xbd8a1575	-0.06742374
8	0xbc90b062	-0.01766223
9	0xbc342ad7	-0.010996542
10	0x3d7eb754	0.062186554
11	0xbce318ff	-0.02772188
12	0xbd21d7aa	-0.039512314
13	0x3da156af	0.07877862
14	0xbd805185	-0.062655486
15	0xbc9496e3	-0.018138355
16	0xbd0b7195	-0.034043867
17	0xbca74dbb	-0.020422807
18	0x3dc64209	0.09680564
19	0xbc0a3aff	-0.008436917
20	0x3de03bca	0.10948904
21	0x3dc07fcd	0.09399376
22	0xbdb2c8d6	-0.08729713
23	0x3dab61a1	0.083682306
24	0x3d27a4df	0.040928718
25	0x3c8a0458	0.016847774
26	0x3dcfd2d4	0.10147634
27	0xbdf199ae	-0.1179689
28	0x3c9d0c83	0.019171005
29	0x3dc933d9	0.09824342
30	0xbd87a76f	-0.06623732
31	0xbdd8dd60	-0.10589099
32	0x3d10aeb9	0.03532288
33	0xbd72d33c	-0.05928348
34	0x3dbfa517	0.0935766
35	0x3da0c1d9	0.078494735
36	0x3c97d98a	0.018536348
37	0xbddefbf1	-0.10887898
38	0xbd404d8b	-0.04694895
39	0x3dda917a	0.10672279
40	0xbd7fe438	-0.062473506
41	0x3b879a30	0.0041382536
42	0xbda7ddb6	-0.08196585
43	0xbdb1256f	-0.08649718
44	0xbd352b0e	-0.044230513
45	0x3d9f7324	0.07785633
46	0xbdc83bcd	-0.09777031
47	0x3d799cd5	0.060940582
48	0x3d97da27	0.07414656
49	0xbda9e601	-0.08295823
50	0x3d99ff83	0.07519438
51	0xbcb43df3	-0.022002196
52	0xbd495268	-0.049150854
53	0x3dc5eb05	0.09663967
54	0x3db49805	0.08818058
55	0xbd6559f5	-0.055993993
56	0xbde4f3b0	-0.11179292
57	0xbc31d8a3	-0.010854873
58	0x3cfe4bbc	0.031041972
59	0xbdde7bc8	-0.10863453
60	0x3dfc01fa	0.123050645
61	0xbda87de9	-0.082271405
62	0xbd809a3e	-0.06279419
63	0xbcb96898	-0.022632882

weight f4 [2, 64]
0	0x3c3eb2b4	0.011639286
1	0x3d91cfcc	0.07119712
2	0xbc4f1a88	-0.012640603
3	0x3cf030ff	0.029320238
4	0x3d4efd99	0.05053482
5	0xbc930a26	-0.017949175
6	0x3d839386	0.06424622
7	0xbb754df6	-0.0037430502
8	0xbe2bf486	-0.16792497
9	0x3cf90010	0.030395538
10	0x3dff6da4	0.12472084
11	0x3d61cf0a	0.05512909
12	0xbe106adc	-0.14103264
13	0xbdc4e8ec	-0.09614739
14	0x3e0084ce	0.12550661
15	0x3d822675	0.06354991
16	0x3da67444	0.08127645
17	0x3d8da3b0	0.069159865
18	0xbe2de5d7	-0.16982208
19	0x3dd52e4d	0.10409222
20	0x3d79161f	0.060812112
21	0xbdd2e407	-0.10297399
22	0xbaef9b2d	-0.0018280499
23	0xbe188909	-0.14896025
24	0xbbc8f3ef	-0.006132595
25	0x3de22a83	0.11043265
26	0x3d8dfd12	0.06933035
27	0x3c8151ce	0.015786078
28	0xbad1644e	-0.0015975328
29	0xbe158db3	-0.14604835
30	0x3ab59d3f	0.0013856067
31	0x3da796d3	0.08183064
32	0xbdf139cf	-0.11778604
33	0x3ce12b72	0.027486537
34	0xbdd69b73	-0.10478868
35	0xbdad5c09	-0.0846482
36	0x3defee63	0.117153905
37	0x3d73819e	0.059449784
38	0xbc92d7b4	-0.01792512
39	0x3e07e884	0.13272291
40	0xbda2e492	-0.079537526
41	0xbdb3ca0c	-0.08778772
42	0x3d22f2b9	0.03978226
43	0xbd27e9d8	-0.040994495
44	0xbdaeca68	-0.085347
45	0x3d2c9c68	0.042141348
46	0x3d658ddb	0.056043487
47	0xbe1744c4	-0.14772326
48	0xbdd90ed5	-0.10598532
49	0xbda85b7f	-0.082205765
50	0x3e2140d3	0.15747385
51	0x3d5bf316	0.05369862
52	0x3e12bf16	0.14330706
53	0xbd93742f	-0.07199895
54	0x3ca3998c	0.019970678
55	0xbdc1ec49	-0.09468896
56	0x3d2e3c4b	0.04253797
57	0xbddc2d0f	-0.10750782
58	0xbd540289	-0.05176023
59	0xbc40a714	-0.0117585845
60	0xbccaeee5	-0.024772117
61	0x3e077dd0	0.13231587
62	0xbe27b175	-0.16376288
63	0xbd96f93d	-0.07371757
64	0xbdea9837	-0.11454814
65	0x3daa83d6	0.08325927
66	0x3d720dfd	0.05909537
67	0xbcc98fb8	-0.024604663
68	0xbe17a0ad	-0.14807387
69	0xbd697a1c	-0.05700122
70	0x3e0781f9	0.13233174
71	0x3e1f0dbe	0.15532586
72	0x3d8882fd	0.06665609
73	0xbdde5f0e	-0.10857974
74	0x3b7fbfde	0.0039024274
75	0xbdf75396	-0.120764896
76	0xbd4e238c	-0.05032687
77	0xbccea438	-0.02522479
78	0x3b289b13	0.0025727197
79	0xbe1a7813	-0.15084867
80	0xbd276dba	-0.040876128
81	0x3d453709	0.04814819
82	0xbd7b9b29	-0.06142727
83	0xbdbebe89	-0.093136854
84	0x3b99588e	0.004679746
85	0x3c62d84f	0.013845517
86	0xbda8b6fa	-0.08238025
87	0xbd814ee2	-0.06313874
88	0xbe28ee7d	-0.16497226
89	0xbe30b480	-0.17256355
90	0x3dbac004	0.09118655
91	0x3e0b63eb	0.13612334
92	0xbceac7d9	-0.028659748
93	0x3dc78cce	0.09743653
94	0xbdb429f2	-0.08797063
95	0xbdfdf010	-0.12399304
96	0x3c2f9b7a	0.010718221
97	0x3dbadb3a	0.091238454
98	0x3d523491	0.051319662
99	0x3d6d5f19	0.05795202
100	0xbdd38681	-0.10328389
101	0xbe1661ac	-0.14685696
102	0x3cc4c404	0.024019249
103	0xbb9f1aa6	-0.0048554717
104	0x3c96f4ec	0.018427335
105	0x3e283f5a	0.16430417
106	0xbd1ecd32	-0.03876991
107	0x3d7c5487	0.06160405
108	0x3d8d8cb1	0.069116004
109	0xbe178321	-0.14796115
110	0xbd266d6e	-0.040631704
111	0x3de09167	0.10965233
112	0x3d0e84fc	0.034794793
113	0x3e302d1e	0.17204711
114	0xbdf2d5be	-0.11857174
115	0xbe0c8c01	-0.13725282
116	0xbdca865a	-0.09888907
117	0xbe1d82cc	-0.15381926
118	0x3de3a839	0.1111607
119	0xbc97f626	-0.01854999
120	0x3dda2a5f	0.10652613
121	0xbc40af3e	-0.011760531
122	0x3dc2e237	0.09515803
123	0x3dcb709f	0.0993359
124	0xbe200135	-0.1562546
125	0x3da7a3a2	0.08185507
126	0xbb8557e1	-0.004069314
127	0x3d9e77b8	0.07737678

bias f4 [2]
0	0x3dabc347	0.083868556
1	0x3d1e2563	0.038609874

weight f4 [64, 4]
0	0x3e9c4946	0.30524653
1	0x3f18e116	0.59718454
2	0x3ffbcf5e	1.9672658
3	0x3ed03078	0.4066198
4	0x3fcd7ba9	1.6053363
5	0xbeab61b3	-0.33472976
6	0xbf98a341	-1.1924821
7	0xbe934086	-0.28760165
8	0x3f11f82d	0.5701931
9	0x3eb7cabc	0.35896862
10	0x3fb0645f	1.3780631
11	0x3f1a9f7c	0.60399604
12	0x3fe861e0	1.8154869
13	0xbdbca11c	-0.09210417
14	0xbf5c6636	-0.8609346
15	0xbe6052b8	-0.21906555
16	0x3f60f83d	0.8787878
17	0xbe294eed	-0.16534014
18	0x40046bab	2.0690715
19	0xbd66e3d0	-0.056369603
20	0xbfd230dd	-1.6421162
21	0xbec8d32a	-0.39223605
22	0xbf9da1e9	-1.2315036
23	0xbe5e3977	-0.21701609
24	0xc0158776	-2.3363929
25	0x3db643e6	0.08899669
26	0x3eff5c3f	0.49875066
27	0xbe17ac7f	-0.14811896
28	0xbef36aec	-0.47542512
29	0xbea50c38	-0.32235885
30	0xbf7fa1f7	-0.99856514
31	0x3db08c29	0.086204834
32	0xbe453bcd	-0.19261093
33	0xbf3e29ef	-0.74282736
34	0xc00347f1	-2.051266
35	0xbec03daf	-0.3754706
36	0xbf142dda	-0.57882464
37	0xbe075837	-0.13217245
38	0xbf80e845	-1.0070883
39	0xbe8893d3	-0.2667528
40	0x3f254432	0.6455718
41	0x3cde18ec	0.027111493
42	0xbf4fd0bd	-0.81177884
43	0xbf204219	-0.62600857
44	0xbef060c1	-0.46948817
45	0xbec2d63a	-0.38054067
46	0xbff38ded	-1.9027687
47	0xbef28f93	-0.47375163
48	0x3ef68b25	0.48153034
49	0x3f773be3	0.96575755
50	0x3f5b73f7	0.85723823
51	0x3f7cb1da	0.9870888
52	0xbf7fb0a9	-0.99878937
53	0x3d9057f6	0.07048027
54	0x4005d8d3	2.091359
55	0x3edf0bab	0.4356359
56	0x3ebc8ca9	0.36826065
57	0xbf4ad006	-0.7922367
58	0xbfdab3ac	-1.7086082
59	0xbf36a769	-0.713492
60	0xbc88a13e	-0.016678449
61	0x3f4912f6	0.7854456
62	0x3fc73f7d	1.556625
63	0x3e4cbfab	0.1999499
64	0xbef82e0a	-0.48472625
65	0xbeb4f6e0	-0.353446
66	0xbf6c3051	-0.92261225
67	0xbede1f10	-0.43383074
68	0x3ed3639f	0.41286942
69	0x3ea39dc8	0.31956315
70	0x3ff322b8	1.899497
71	0x3e855469	0.26040962
72	0x3f446a72	0.7672492
73	0x3ec9250b	0.39286074
74	0x3fa9da72	1.3269789
75	0x3eff7714	0.49895537
76	0xc01fe872	-2.4985623
77	0xbe3531c7	-0.1769477
78	0x3f848d8f	1.03557
79	0xbeaa4c2d	-0.33261243
80	0xbf64fcb8	-0.8944812
81	0x3f14228f	0.5786523
82	0xbfd5759b	-1.6676515
83	0xbcbb8cb4	-0.02289424
84	0x3f8924cb	1.0714353
85	0xbf69747e	-0.9119338
86	0xbf9e8be1	-1.2386438
87	0xbf7841e5	-0.9697555
88	0xbfac5390	-1.3463001
89	0x3c33c7ba	0.0109729115
90	0xbfb202e4	-1.3907132
91	0xbe5a4be2	-0.2131801
92	0x3f22a826	0.63537824
93	0xbf146b19	-0.5797592
94	0xbfcdbe3e	-1.6073682
95	0xbf0fa699	-0.5611358
96	0xbfa4d66f	-1.287794
97	0x3f038579	0.5137554
98	0xc0191fbf	-2.3925626
99	0x3cefc5a5	0.029269049
100	0xbe7677f2	-0.24069193
101	0xbf51a2b0	-0.81888866
102	0xbffa5a76	-1.9558856
103	0xbf225158	-0.6340537
104	0x3f11edfd	0.57003766
105	0x3e89ad3e	0.26889986
106	0x400d8817	2.2114313
107	0x3e947aab	0.28999838
108	0x4001f853	2.0307815
109	0x3d3c81fb	0.046022397
110	0xbf9f7a24	-1.2459149
111	0xbe307916	-0.1723369
112	0x3f53923b	0.82645005
113	0xbf6de2cb	-0.92924184
114	0xbf9800de	-1.1875265
115	0xbeb4e745	-0.35332695
116	0xbf6cfbf5	-0.92571956
117	0x3f160072	0.5859443
118	0xbfee15f5	-1.8600451
119	0x3e4c5b5c	0.19956726
120	0xbf72251c	-0.94587874
121	0x3f3d2b82	0.7389451
122	0x3e92bd7d	0.28660193
123	0x3ef53080	0.47888565
124	0x3f859cae	1.043844
125	0x3d966f08	0.07345396
126	0x3fef58d1	1.869898
127	0x3f10388f	0.563363
128	0x3eef9ca1	0.46799186
129	0x3ef7d8df	0.48407647
130	0x400b2d47	2.1746385
131	0x3ea93133	0.3304535
132	0x3fcceef5	1.6010424
133	0xbe85220e	-0.26002544
134	0xbfa7fb49	-1.3123561
135	0xbe0343d8	-0.12818849
136	0xc038cc38	-2.8874645
137	0x3d83e2bd	0.06439731
138	0x3ec8235f	0.39089486
139	0xbdfe13a8	-0.12406093
140	0x3f83ef9b	1.0307497
141	0xbe984148	-0.29737306
142	0x3fa6dd38	1.3036261
143	0xbd9fba4e	-0.07799207
144	0x3f36012f	0.71095556
145	0x3d8c2e98	0.068448246
146	0x3fb68f7d	1.4262539
147	0x3ecbe459	0.39822653
148	0xbdd6daf8	-0.10490984
149	0x3f83bf48	1.029275
150	0x3f46136a	0.77373374
151	0x3f5b6718	0.85704184
152	0x3f83386d	1.0251595
153	0x3e912545	0.28348747
154	0x3f2db245	0.6785014
155	0x3f08652f	0.53279394
156	0x3f9a564b	1.2057585
157	0xbe99f07e	-0.30066293
158	0xbfeb3c40	-1.8377762
159	0xbd190cc9	-0.03736571
160	0xbf672fc0	-0.90307236
161	0x3eb8389c	0.3598069
162	0x3faef167	1.366742
163	0x3f3a3730	0.7274046
164	0xbf910bcc	-1.1331725
165	0x3f047580	0.5174179
166	0xc00e1b82	-2.220429
167	0x3e7552e6	0.23957404
168	0xbf234505	-0.6377719
169	0x3edae49f	0.4275255
170	0x3faa77a0	1.3317757
171	0x3f1aa65c	0.60410094
172	0xbf94dab2	-1.162924
173	0xbe391542	-0.18074515
174	0xbe476116	-0.19470629
175	0xbe2b5f64	-0.16735607
176	0xbf7e148b	-0.99250096
177	0x3f30432c	0.68852496
178	0x3fcb954b	1.5904936
179	0x3f287f23	0.65818995
180	0x3f296eb4	0.66184545
181	0x3e88c823	0.26715192
182	0x3fa85611	1.3151265
183	0x3f283653	0.6570789
184	0x3f7ae4db	0.98005456
185	0xbf30faf5	-0.6913293
186	0xc00f5f04	-2.2401743
187	0xbf88f4ab	-1.0699667
188	0xbec81a61	-0.39082626
189	0xbec33728	-0.38128018
190	0xbf71805b	-0.9433648
191	0xbe53d991	-0.20688464
192	0xbf7eb20c	-0.9949043
193	0x3f048680	0.5176773
194	0x3ea711b9	0.3263071
195	0x3dbca0f3	0.09210386
196	0x3fc6d4af	1.5533656
197	0x3e86b225	0.26307788
198	0xbfc6c837	-1.5529851
199	0xbe2f49e9	-0.17118038
200	0x400c9d4f	2.1971014
201	0x3e3708f3	0.17874508
202	0xbfa4099e	-1.2815435
203	0xbc5af880	-0.013364911
204	0xbe987d44	-0.2978307
205	0xbf3f75b9	-0.74789006
206	0xc0041ff2	-2.0644498
207	0xbf2d6ae7	-0.67741245
208	0x3e23fe8f	0.16015075
209	0xbe6a7e67	-0.22899781
210	0xc022b93f	-2.5425565
211	0xbf759f2b	-0.95945996
212	0xbe75429b	-0.23951189
213	0xbf242502	-0.6411897
214	0xbff17911	-1.8865072
215	0xbef968e9	-0.48712853
216	0x3fcb6bb9	1.5892249
217	0x3e658ea5	0.22417696
218	0xbfb95a37	-1.4480656
219	0x3d9b8145	0.075930156
220	0x3f8e0325	1.109471
221	0xbec5690b	-0.38556704
222	0xc017ed0b	-2.373843
223	0xbf0881f8	-0.53323317
224	0xbe6215a5	-0.22078569
225	0x3f97a23c	1.1846385
226	0x3f36c466	0.7139343
227	0x3f88b60c	1.0680556
228	0x3ee6c55c	0.45072448
229	0x3e22ccb4	0.158984
230	0xbff9d802	-1.9519045
231	0x3e61b828	0.22042906
232	0xbf5298b9	-0.82264286
233	0xbe832d5d	-0.25620547
234	0xbfd98b83	-1.6995701
235	0xbed9e8ce	-0.42560428
236	0x3fe1466a	1.7599614
237	0x3bf3158c	0.00741834
238	0xbfae5d08	-1.3622141
239	0xbd44e0da	-0.048065998
240	0xbf440eef	-0.76585287
241	0x3f7a39ef	0.9774465
242	0x3fb0180d	1.375734
243	0x3f59de1a	0.85104525
244	0x3fd71cb1	1.6805631
245	0xbf0287af	-0.50988287
246	0x3eb15c45	0.3464071
247	0xbee7a522	-0.45243174
248	0x3f0302d2	0.5117618
249	0x3f21b626	0.6316856
250	0x3f9155e4	1.1354337
251	0x3f040cba	0.5158192
252	0x3f0eba0c	0.55752635
253	0x3ea05951	0.31318143
254	0x400c482d	2.1919053
255	0x3e7dbc20	0.24778795

bias f4 [64]
0	0xbd794e80	-0.06086588
1	0xbe716d69	-0.23576893
2	0xbe6ac1fa	-0.22925559
3	0x3f46c29a	0.7764069
4	0xbeb58bc2	-0.3545819
5	0x3d6f7f2c	0.05847089
6	0x3d899cda	0.0671937
7	0x3efd5c75	0.49484602
8	0x3f0fa23d	0.5610693
9	0xbeff1840	-0.4982319
10	0x3f5430df	0.8288707
11	0xbed016dd	-0.40642443
12	0xbef88d03	-0.48545083
13	0x3f2e3b6a	0.6805941
14	0xbefa9641	-0.4894276
15	0x3deb5d16	0.11492364
16	0x3efc76f5	0.49309507
17	0xbde3a6e7	-0.111158185
18	0xbf037643	-0.5135233
19	0x3e5d7bde	0.21629283
20	0xbf26ff53	-0.65233344
21	0xbf0e30f8	-0.5554347
22	0x3ea90dff	0.3301849
23	0x3f153470	0.5828314
24	0x3ef78fa1	0.48351768
25	0xbdcd6deb	-0.10030731
26	0x3e6999aa	0.22812524
27	0x3ec94738	0.39312148
28	0x3f1add05	0.604935
29	0xbeb4c619	-0.35307387
30	0xbf3b2523	-0.7310354
31	0xbf387f99	-0.720697
32	0xbf12114b	-0.57057637
33	0xbeb0a9a4	-0.34504426
34	0x3dec55cd	0.11539803
35	0x3e8f3c2f	0.27975604
36	0x3f30013d	0.6875189
37	0xbe7208fe	-0.23636243
38	0xbec11074	-0.37707865
39	0xbe84ff14	-0.2597586
40	0xbf80f097	-1.0073422
41	0x3f034a85	0.5128558
42	0xbf212c4e	-0.6295823
43	0xbe854193	-0.26026592
44	0x3f08fcdc	0.5351083
45	0x3f2dc9cf	0.6788606
46	0xbf543c00	-0.8290405
47	0xbe9da750	-0.30791712
48	0x3eba55fb	0.36393723
49	0xbf0409d9	-0.51577526
50	0x3e4f9184	0.20270354
51	0x3c454e27	0.012042559
52	0xbf3d17d3	-0.7386448
53	0x3e6218bb	0.22079746
54	0xbed5a1ee	-0.41725105
55	0x3f5a8534	0.853595
56	0xbd536139	-0.05160639
57	0x3eceb084	0.40369046
58	0x3f396d91	0.7243281
59	0x3e7cf3d2	0.24702385
60	0x3eb1d11e	0.34729856
61	0x3e9ab4ff	0.30216214
62	0xbe90cf99	-0.28283384
63	0xbf098e54	-0.537328

weight f4 [64, 64]
0	0xbf4e05cd	-0.804776
1	0x3d53ab6d	0.051677156
2	0xbf989c61	-1.1922723
3	0x3e89c748	0.26909852
4	0xbf4ee82c	-0.80823016
5	0x3e8db2e3	0.27675542
6	0x3b9503c4	0.004547568
7	0x3ee20b68	0.44149327
8	0x3f1d7160	0.6150112
9	0xbeafd606	-0.34342974
10	0x3eaf84d6	0.34281033
11	0x3db0bcdc	0.08629772
12	0xbf4dd72c	-0.8040645
13	0x3c9c9f5d	0.01911896
14	0x3e2b41a7	0.16724263
15	0xbd95340a	-0.07285316
16	0x3f6a8802	0.9161378
17	0xbf89cebd	-1.0766217
18	0xbf2dac44	-0.6784098
19	0xbc2998c8	-0.010351367
20	0xbe97ef10	-0.29674578
21	0x3d9c8530	0.07642591
22	0x3f143976	0.5790018
23	0x3eebc068	0.46045232
24	0x3f1d2a4d	0.6139267
25	0x3f54f3a4	0.83184266
26	0xbf6ba06a	-0.9204165
27	0x3d425f28	0.04745403
28	0x3eadf9ca	0.33979636
29	0x3dbb2039	0.09137005
30	0xbe836f08	-0.25670648
31	0xbf3dd1b8	-0.7414813
32	0xbf6db5b7	-0.928554
33	0xbcadc740	-0.021213174
34	0x3d67223b	0.05642913
35	0xbe3527a2	-0.176909
36	0x3e6b6461	0.2298751
37	0xbedd755c	-0.432536
38	0xbee33b1b	-0.4438103
39	0x3d8a45a2	0.06751563
40	0xbee64a65	-0.44978634
41	0x3f04fc3a	0.5194737
42	0xbeff526b	-0.49867567
43	0xbdfe4684	-0.124157935
44	0xbd925f25	-0.07147054
45	0x3e7d68be	0.24746987
46	0x3cb7d349	0.022439616
47	0xbead03e7	-0.3379204
48	0x3e734baf	0.2375934
49	0xbd0e437a	-0.03473232
50	0x3e7968f8	0.24356449
51	0x3f5ccd62	0.8625089
52	0xbd8bb7e0	-0.06822181
53	0x3f827983	1.0193332
54	0xbdd77093	-0.10519519
55	0x3ec7a4c4	0.38992894
56	0xbea5c64d	-0.32377854
57	0x3efb32aa	0.4906209
58	0x3f455d30	0.7709532
59	0x3eadb1d0	0.33924723
60	0xbda00d44	-0.0781503
61	0xbc0f3a1c	-0.008741882
62	0xbf1fbf12	-0.62400925
63	0xbf59bb62	-0.8505155
64	0xbede2621	-0.43388465
65	0xbf346797	-0.70470566
66	0xbe82d581	-0.25553516
67	0xbe50c8c3	-0.20389085
68	0xbf1402ae	-0.5781659
69	0x3e8bb269	0.27284554
70	0x3f7948d1	0.97376734
71	0x3da5eefd	0.08102224
72	0x3ebeaf1a	0.37242967
73	0x3ea91147	0.33020994
74	0xbd27b22f	-0.040941413
75	0x3e8a3971	0.2699695
76	0xbd7f3a13	-0.062311243
77	0x3ea4dab8	0.3219812
78	0xbd6be2f8	-0.0575895
79	0xbe247c3c	-0.16063017
80	0xbdfbf833	-0.123031996
81	0xbf07d7af	-0.5306348
82	0xbedc4b0e	-0.43026012
83	0x3f606eda	0.87669146
84	0x3f07a99e	0.5299319
85	0xbea0e6e4	-0.31426156
86	0x3f5944bf	0.84870523
87	0xbe8d97ff	-0.27655026
88	0x3f4976fc	0.7869718
89	0x3e0a7aa6	0.13523349
90	0xbf17f178	-0.5935283
91	0xbe30d4d1	-0.17268683
92	0xbed99201	-0.42494205
93	0x3f336328	0.70073175
94	0x3ea67363	0.32509908
95	0xbef5b3f0	-0.47988844
96	0xbf810517	-1.0079678
97	0xbf50737c	-0.81426215
98	0x3f694501	0.91120917
99	0xbf1d1e2d	-0.6137417
100	0xbe8996a6	-0.26872748
101	0x3e4810c9	0.19537653
102	0xbf1c7e42	-0.61130154
103	0xbf1c452a	-0.61043036
104	0x3dc1fbfe	0.09471892
105	0x3f2a9a65	0.6664184
106	0x3eac796f	0.33686396
107	0x3e8f0687	0.27934667
108	0x3e9d933d	0.30776396
109	0xbe2820ca	-0.16418758
110	0xbe91b327	-0.28456995
111	0x3df9b791	0.12193216
112	0x3f2ef474	0.68341756
113	0xbf1ff840	-0.62488174
114	0xbe1278a8	-0.14303839
115	0x3e94334d	0.2894539
116	0x3c67c4a4	0.014146004
117	0x3e8c1f5c	0.27367675
118	0xbf2a9df2	-0.66647255
119	0xbc86c7eb	-0.01645275
120	0x3dcb5d59	0.09929914
121	0xbe0816e4	-0.13289982
122	0x3ecec638	0.40385604
123	0xbe5a6277	-0.21326624
124	0x3eb10956	0.34577435
125	0xbf238f71	-0.6389075
126	0xbd680e83	-0.056654464
127	0xbf32925c	-0.69754577
128	0x3ed9d448	0.4254477
129	0xbd573270	-0.052538335
130	0x3edaebfa	0.4275816
131	0x3b6256bd	0.0034536563
132	0x3f9c1ded	1.2196633
133	0xbe4ba639	-0.19887628
134	0xbe47e7b1	-0.19521977
135	0xbe8a58a5	-0.27020755
136	0xbf1777cd	-0.59167176
137	0xbdd3237e	-0.10309504
138	0xbe3464f4	-0.17616636
139	0xbe21a6a4	-0.15786225
140	0x3c899618	0.016795203
141	0x3c858ea9	0.016303377
142	0x3e5aa6cb	0.21352689
143	0x3d8d7d75	0.06908695
144	0xbe39f7af	-0.1816089
145	0x3f2bc1ab	0.6709239
146	0x3f06b67e	0.5262221
147	0xbe01b5f3	-0.12667064
148	0xbee9b083	-0.4564248
149	0x3ef8d2b3	0.4859825
150	0xbf246c3c	-0.6422765
151	0xbe2c0f02	-0.168026
152	0xbf98edf7	-1.1947621
153	0xbe4edf04	-0.20202261
154	0x3f06b556	0.52620447
155	0x3defca9d	0.11708567
156	0x3ed587a1	0.4170504
157	0xbf4fa14b	-0.8110549
158	0xbe90daf4	-0.28292048
159	0x3f21a0bc	0.63135886
160	0x3fb8f9b7	1.4451207
161	0x3dcc1032	0.099640265
162	0xbe4a5d83	-0.19762234
163	0x3f1faf59	0.62376934
164	0x3cbe8be2	0.02326006
165	0xbdf440fa	-0.11926456
166	0x3e8401bf	0.25782582
167	0xbe17521a	-0.14777413
168	0x3e84d96d	0.25947133
169	0xbfa5b905	-1.2947088
170	0xbcef0ac4	-0.029179938
171	0xbdbba65b	-0.09162589
172	0xbeeaaa2e	-0.45832962
173	0xbb99fc38	-0.0046992563
174	0x3ec66167	0.38746187
175	0x3d4dda87	0.050257232
176	0xbf1a96ff	-0.6038665
177	0xbdedc2a7	-0.116093926
178	0xbe58fc73	-0.21190052
179	0xbe82d499	-0.25552824
180	0x3dc9e496	0.098580524
181	0xbe9e348d	-0.30899468
182	0xbca45b88	-0.020063177
183	0xbf04f69e	-0.5193881
184	0xbe4a6c33	-0.19767837
185	0xbf1000e2	-0.5625135
186	0xbed92064	-0.42407525
187	0xbe2f3e93	-0.17113714
188	0xbeae131b	-0.3399895
189	0x3ebe29bb	0.37141213
190	0x3cd41d40	0.025892854
191	0x3fb06d23	1.3783306
192	0xbedda9e7	-0.43293688
193	0xbf21b20b	-0.63162297
194	0xbf3c5d6f	-0.7358007
195	0x3e88961c	0.26677024
196	0xbd80f8f6	-0.062974855
197	0x3efa02c5	0.48830238
198	0x3e3f51b8	0.18683517
199	0x3d39ddc7	0.04537752
200	0x3ead5970	0.33857298
201	0xbf1609b9	-0.58608586
202	0xbdb20239	-0.0869183
203	0xbec4f677	-0.38469288
204	0xbec420a1	-0.38306144
205	0x3f8bc447	1.0919274
206	0xbf268b39	-0.65056187
207	0x3f025623	0.50912684
208	0x3f0ba37d	0.5454634
209	0xbf449f37	-0.7680544
210	0xbe1a3a97	-0.15061413
211	0x3e643442	0.2228556
212	0xbeba5a9e	-0.3639726
213	0xbf854abf	-1.0413436
214	0x3e890715	0.26763216
215	0x3d91b3bc	0.0711436
216	0x3f47316d	0.7780979
217	0xbdb802fc	-0.08984944
218	0x3db415c6	0.087932155
219	0xbd35995e	-0.044335715
220	0x3e968538	0.29398513
221	0x3e664604	0.22487646
222	0x3d86702f	0.06564366
223	0xbec6fe87	-0.38866064
224	0xbf3c854f	-0.7364091
225	0xbf4c7045	-0.7985881
226	0x3d2ad754	0.04170926
227	0xbe9d5823	-0.30731305
228	0x3e99dee3	0.30052862
229	0x3f411694	0.75425076
230	0xbe79339a	-0.2433609
231	0xbf3261e2	-0.6968061
232	0x3c8120ae	0.015762653
233	0x3f5bed5d	0.8590906
234	0xbde69450	-0.11258757
235	0x3e0b4feb	0.13604705
236	0x3f496ebf	0.7868461
237	0x3ebed09f	0.3726854
238	0xbf89edc5	-1.0775687
239	0xbe636bc8	-0.22209084
240	0x3f759f79	0.9594646
241	0xbf2b9011	-0.670167
242	0xbe0821fb	-0.13294213
243	0x3d58327a	0.052782513
244	0xbf390c00	-0.72283936
245	0x3ed0f762	0.40813738
246	0xbf11152c	-0.5667293
247	0x3eab7374	0.3348652
248	0x3f5fb3b2	0.8738357
249	0x3c20e4c3	0.009820166
250	0x3eb6b23f	0.35682866
251	0xbd06a5b3	-0.032872867
252	0x3f817de3	1.0116543
253	0xbefd7e70	-0.49510527
254	0xbeb4a5cf	-0.35282752
255	0xbec34f40	-0.381464

bias f4 [64]
0	0x3f0e220a	0.5552069
1	0x3db0a57f	0.08625316
2	0xbeae0179	-0.339855
3	0x3f037600	0.5135193
4	0xbda93d4c	-0.082636446
5	0x3f49b23c	0.7878759
6	0xbeadb963	-0.339305
7	0x3ebe332f	0.37148425
8	0xbeb37e1c	-0.3505715
9	0xbea94ae5	-0.33064952
10	0x3e89e9e7	0.26936266
11	0xbdeef844	-0.11668447
12	0x3f2ec00a	0.6826178
13	0xbddc861f	-0.10767769
14	0xbee8a258	-0.45436358
15	0xbe233ecc	-0.15941924
16	0xbd2b1d81	-0.041776184
17	0xbe56e6bf	-0.2098646
18	0xbe928683	-0.2861825
19	0xbef7071a	-0.48247606
20	0x3ed9a6c2	0.4251004
21	0x3e9b8a1e	0.30378813
22	0xbeef71dc	-0.46766555
23	0x3f2d5b45	0.6771739
24	0x3d693d62	0.056943305
25	0x3ed6884e	0.41900867
26	0xbf05c39e	-0.52251613
27	0xbf3ac91b	-0.7296311
28	0xbe04b863	-0.12960963
29	0xbf1a7437	-0.6033358
30	0x3ea1c5b6	0.31596154
31	0xbf05bdfe	-0.5224303
32	0xb8b48767	-8.6082895e-05
33	0x3ebfb2dd	0.3744115
34	0xbf01daa7	-0.5072426
35	0xbedfb386	-0.43691653
36	0x3eae6c00	0.34066772
37	0xbe84f257	-0.2596614
38	0x3e303d3c	0.17210859
39	0xbebb6113	-0.365975
40	0xbe769d9b	-0.24083559
41	0xbe9dfd2d	-0.3085722
42	0xbdb84c0a	-0.08998878
43	0x3e4d305f	0.20037983
44	0xbea993a0	-0.3312044
45	0xbeaf4d54	-0.34238684
46	0x3f07c2d1	0.5303164
47	0xbb8d2125	-0.0043069297
48	0xbe849350	-0.2589364
49	0xbed372f7	-0.4129865
50	0x3f3c9610	0.7366648
51	0xbef49378	-0.4776876
52	0x3e9b2b60	0.3030653
53	0x3ecf7b3d	0.4052371
54	0x3e6d9c5a	0.23204175
55	0xbece079a	-0.40240175
56	0xbd86f019	-0.06588764
57	0x3f25c5dd	0.6475504
58	0xbe11694b	-0.14200322
59	0xbe28ac17	-0.16471897
60	0x3e0ffb55	0.1406072
61	0xbe27329c	-0.163279
62	0x3ec6b89b	0.38812718
63	0x3f190cb2	0.59784997

weight f4 [1, 64]
0	0xbf3cddf7	-0.7377619
1	0x3fd79e67	1.6845216
2	0xc0191420	-2.3918533
3	0x3f847a1a	1.0349762
4	0xc00622d8	-2.0958767
5	0x401154a0	2.27079
6	0x3ebee6d2	0.37285477
7	0x3fd33fb9	1.6503822
8	0xbf40584a	-0.7513472
9	0xbf396f00	-0.72435
10	0x3f302323	0.68803614
11	0x3fcc06d3	1.5939583
12	0x3fc1ed2f	1.5150508
13	0xbf8a55f7	-1.0807484
14	0xc003d4bd	-2.0598595
15	0xbfaa8a83	-1.332352
16	0xbfeecf29	-1.865697
17	0x3f91f989	1.1404277
18	0xc0108a20	-2.2584305
19	0xc00d2c17	-2.205816
20	0x3f559d59	0.8344322
21	0x3fde3189	1.7358867
22	0x3f21c7f0	0.63195705
23	0x3fcf8628	1.6212816
24	0x3fa29583	1.2701877
25	0x40017dce	2.0233035
26	0xbfd691c7	-1.6763238
27	0xc006d605	-2.1068127
28	0x3fc8e868	1.5695925
29	0xc000b693	-2.0111434
30	0x3fed59dd	1.8543049
31	0xbfed07f2	-1.851805
32	0xbf94fac1	-1.1639024
33	0x3fca62a5	1.5811354
34	0xbf3bd69f	-0.7337436
35	0xc00a5123	-2.1612022
36	0x3f13f2b6	0.5779222
37	0xc007254e	-2.111652
38	0xbf93cba2	-1.1546519
39	0xc0015e2b	-2.0213726
40	0xbf944039	-1.1582099
41	0x3f857aca	1.0428097
42	0xbfbb2477	-1.4620503
43	0x3ff652e4	1.9244046
44	0xbfc923c5	-1.5714041
45	0xbfeeb3ae	-1.8648584
46	0x401a9a15	2.4156544
47	0xbf5550b5	-0.83326274
48	0x3fd04f9c	1.6274295
49	0xbf480622	-0.7813436
50	0x3f9f496e	1.2444284
51	0xc006c767	-2.1059206
52	0x3fa90d49	1.3207179
53	0xbf5d0c59	-0.86346966
54	0x3fbaa4fa	1.4581597
55	0xbfe652b2	-1.7993987
56	0x3f4ac4ae	0.7920636
57	0x3ff4665c	1.9093738
58	0xbfb39a64	-1.4031491
59	0xbfd0b67f	-1.6305693
60	0x3fdf00f2	1.7422163
61	0xbf2aeaa5	-0.6676429
62	0x3f8b7fc0	1.0898361
63	0x3ff5fa74	1.9217057
