data/CartPole-v0_ppo_gpu/CartPole-v0_ppo_gpu_s0/pyt_save/model.pt (torch, 42881 bytes, 11 tensors)

weight f4 [64, 4]
0	0xbe5bc6b2	-0.21462515
1	0x3f37b75f	0.7176418
2	0x3f372f2a	0.7155634
3	0x3f1a18d5	0.6019414
4	0x3e9a1c9d	0.30099955
5	0xbd046736	-0.032324992
6	0xbf02e27d	-0.51126844
7	0xbf4667e8	-0.775023
8	0xbdccbe10	-0.09997189
9	0xbdfd7a3a	-0.123768285
10	0x3f3f1730	0.74644756
11	0x3f4b9629	0.79526
12	0xbecf278c	-0.4045986
13	0xbf5323c6	-0.8247646
14	0xbf00ab80	-0.5026169
15	0xbf4410e2	-0.7658826
16	0x3f15ab36	0.5846437
17	0x3d650483	0.055912506
18	0xbf375af5	-0.71623164
19	0xbedd4333	-0.4321533
20	0x3e16641e	0.14686629
21	0x3ea87f02	0.329094
22	0xbf55d906	-0.83534276
23	0xbf219f81	-0.6313401
24	0x3f04fc1e	0.519472
25	0x3eac3b1a	0.3363884
26	0xbe01c76a	-0.12673727
27	0xbe8b4b87	-0.2720606
28	0xbea88a8c	-0.32918203
29	0x3e9312f5	0.287254
30	0x3f59199a	0.8480469
31	0x3eba597e	0.36396402
32	0x3d147e27	0.03625312
33	0x3e70badd	0.23508783
34	0x3f56ef83	0.83959216
35	0x3f2a6e29	0.6657434
36	0xbf001d3d	-0.50044614
37	0xbf4601f0	-0.77346706
38	0xbf186958	-0.5953574
39	0xbe8dda76	-0.27705735
40	0x3ea9b1dc	0.33143508
41	0x3ecd3d41	0.40085796
42	0x3de8873d	0.1135392
43	0x3f03ad52	0.5143634
44	0x3e1f3079	0.15545835
45	0xbe1c77d3	-0.15280084
46	0xbdf21785	-0.11820892
47	0x3f2587c0	0.64660263
48	0x3e90e51a	0.2829979
49	0x3e2fcb28	0.17167342
50	0x3ebc7037	0.36804363
51	0x3f3c4445	0.7354167
52	0x3e85e82f	0.26153705
53	0xbf097fb7	-0.537105
54	0xbf6bbd87	-0.9208607
55	0xbefadef4	-0.48998225
56	0xbe070107	-0.13183986
57	0x3ebc1f60	0.36742687
58	0x3c1aa9f7	0.009439937
59	0xbf2891cf	-0.65847486
60	0xbf19991e	-0.59999263
61	0x3f190b94	0.5978329
62	0x3ec7e9db	0.39045605
63	0x3ea84fa4	0.3287326
64	0x3f1d8e58	0.61545324
65	0xbd18a7b2	-0.0372693
66	0xbe68e85a	-0.22744885
67	0xbf4e1881	-0.8050614
68	0x3e811b80	0.25216293
69	0xbefbc111	-0.49170735
70	0xbeb44aa3	-0.35213193
71	0xbe80429d	-0.25050822
72	0xbe5814e1	-0.21101715
73	0xbf44b3c0	-0.76836777
74	0xbf1f8ffe	-0.6232909
75	0xbf21bf64	-0.63182664
76	0xbe9557d5	-0.29168573
77	0xbd9377ab	-0.07200559
78	0x3f7ecb0d	0.9952858
79	0x3e5ff976	0.21872506
80	0xbe4e25e4	-0.20131642
81	0xbf10ecd7	-0.5661139
82	0xbedd15ec	-0.43180788
83	0x3d29a8cb	0.04142074
84	0x3e4b332b	0.19843738
85	0xbd99c652	-0.0750853
86	0x3e55b514	0.20869857
87	0x3f18a23f	0.5962257
88	0x3e774ae0	0.24149656
89	0x3dc3a372	0.09552659
90	0x3f0d5a80	0.5521622
91	0x3d75e947	0.060036924
92	0x3da8cd1f	0.08242249
93	0x3f3e965b	0.74448174
94	0x3f06d89e	0.5267428
95	0x3e0588a0	0.130404
96	0xbe7097a5	-0.23495348
97	0x3c58280a	0.01319314
98	0x3f40578e	0.751336
99	0x3ec4bacf	0.38423774
100	0xbe6fd344	-0.23420435
101	0x3ef07d2e	0.46970505
102	0x3df8aa96	0.12141912
103	0x3f3651ac	0.7121837
104	0xbd8828c1	-0.06648398
105	0x3f366687	0.71250194
106	0x3f549b58	0.83049536
107	0x3f161252	0.58621705
108	0x3eaad7d6	0.33367795
109	0x3e24d743	0.16097741
110	0xbf192be5	-0.598326
111	0xbeb5c46b	-0.35501418
112	0x3dde6823	0.10859706
113	0xbf22eb27	-0.63640064
114	0xbe9bdf45	-0.3044378
115	0xbf14267e	-0.57871234
116	0xbed1e3cb	-0.40994105
117	0xbf4ecc15	-0.80780154
118	0xbc392026	-0.011299169
119	0xbf146347	-0.57963985
120	0xbd97f480	-0.074196815
121	0xbe2738a1	-0.16330196
122	0xbf834606	-1.0255744
123	0xbe979af5	-0.2961041
124	0xbf0d7c72	-0.55268013
125	0x3efa51ae	0.48890442
126	0x3f13344c	0.57501674
127	0x3f1ce13e	0.6128119
128	0x3df2d5d2	0.11857189
129	0x3ef37e9c	0.47557533
130	0xbedebc21	-0.43502906
131	0x3e049eb6	0.12951168
132	0xbd8cba69	-0.068714924
133	0xbedbaae8	-0.4290383
134	0xbe27b167	-0.16376267
135	0x3ed657c7	0.41863844
136	0xbf07c4de	-0.5303477
137	0x3db4b4bd	0.088235356
138	0x3f7cc2a6	0.9873451
139	0x3eee193f	0.46503636
140	0x3db5af06	0.08871274
141	0xbf409e8a	-0.7524191
142	0xbc9155ab	-0.017741045
143	0xbe676fa8	-0.22601187
144	0xbe929437	-0.28628704
145	0xbe564b0e	-0.20927069
146	0x3f6877d0	0.9080782
147	0x3eeb0327	0.45900843
148	0xbe46f479	-0.19429196
149	0x3f28a3be	0.6587485
150	0x3ea44fab	0.32092032
151	0x3eff363a	0.4984606
152	0xbecf44f0	-0.40482283
153	0xbf2ddd5b	-0.67915887
154	0xbe8229bc	-0.25422466
155	0xbeefea59	-0.4685848
156	0x3efd4381	0.49465564
157	0xbf291bbc	-0.66057944
158	0xbf6c94b7	-0.9241442
159	0xbf02cf30	-0.51097393
160	0x3e90d1c6	0.28285044
161	0xbf158c80	-0.5841751
162	0x3edd967c	0.43278873
163	0xbbac0626	-0.0052497564
164	0x3ee5df00	0.44896698
165	0xbf0f73a3	-0.5603582
166	0xbf6ae444	-0.91754556
167	0xbf1468f1	-0.5797263
168	0x3e075279	0.13215055
169	0xbf36dbf4	-0.7142937
170	0xbf57401e	-0.8408221
171	0xbe2562ff	-0.16151045
172	0xbf0cc42a	-0.5498682
173	0x3ef22cc7	0.47299787
174	0x3f22348e	0.6336144
175	0x3eb8f52e	0.36124557
176	0x3e1bf857	0.15231453
177	0x3f446e64	0.7673094
178	0x3f110bc6	0.5665859
179	0x3e8a0f4c	0.26964796
180	0x3eaa4217	0.33253548
181	0xbbed3dc6	-0.00724003
182	0xbee589a4	-0.44831574
183	0xbe95dd1a	-0.2927025
184	0x3eac6704	0.33672345
185	0x3e80a987	0.2512934
186	0x3f070483	0.5274126
187	0x3f2d1082	0.67603314
188	0xbd6e3550	-0.05815631
189	0xbf0c7378	-0.5486369
190	0xbf1ee640	-0.62070084
191	0xbe7042e0	-0.23463011
192	0xbeb954ea	-0.36197597
193	0x3e0e82e6	0.13917121
194	0xbf778fc1	-0.96703726
195	0xbedd09d0	-0.4317155
196	0xbea0f992	-0.31440407
197	0xbe1cb6c4	-0.15304095
198	0xbf5bc0b9	-0.85840946
199	0xbee809e1	-0.45320037
200	0xbdd03b23	-0.101675294
201	0xbe637da6	-0.222159
202	0x3eaef390	0.34170198
203	0x3f4f9a25	0.8109458
204	0x3e671b6c	0.22569054
205	0x3f37849f	0.7168674
206	0x3d805e60	0.062680006
207	0x3f4037bb	0.7508504
208	0x3ecfb853	0.40570316
209	0x3f54eb53	0.83171576
210	0x3eba911a	0.3643883
211	0x3ec691db	0.38783154
212	0xbce947e0	-0.028476655
213	0x3ebda465	0.37039486
214	0xbe27b468	-0.16377413
215	0xbf1cde29	-0.6127649
216	0x3ed364c8	0.41287827
217	0xbee96fa3	-0.45592985
218	0xbf077fbe	-0.52929294
219	0xbdd238a4	-0.102647096
220	0x3e9059ac	0.28193414
221	0xbf17f834	-0.593631
222	0xbdffede6	-0.124965474
223	0xbf0514c0	-0.51984787
224	0xbeb02fa4	-0.34411347
225	0xbf3c357e	-0.7351912
226	0xbe7fcb68	-0.24979937
227	0xbb07b9d8	-0.0020710137
228	0x3e81f7d7	0.253844
229	0x3e22e581	0.15907861
230	0x3e6e5f05	0.23278435
231	0x3eaa425b	0.3325375
232	0x3e47ae0a	0.19499984
233	0x3f4d58c9	0.802136
234	0x3f5de51b	0.8667771
235	0x3f05b225	0.5222495
236	0xbe8fb63a	-0.28068715
237	0xbe000fa0	-0.1250596
238	0xbe399714	-0.18124038
239	0xbf3c20d8	-0.73487616
240	0x3c66a00f	0.014076247
241	0x3e114b58	0.14188898
242	0x3f89cd2e	1.0765741
243	0x3daa05ac	0.08301863
244	0xbe85ca58	-0.2613094
245	0x3dcc4788	0.09974581
246	0x3f84cad5	1.03744
247	0x3c0b8779	0.008516186
248	0xbe7e7099	-0.2484764
249	0x3f2e7e81	0.6816178
250	0x3f4a9b47	0.79143184
251	0x3ec7fbe0	0.39059353
252	0x3e9b208f	0.30298278
253	0x3b5bd4cc	0.0033543585
254	0x3f2c444e	0.67291725
255	0x3f3377da	0.70104754

bias f4 [64]
0	0x3e3cf9b5	0.1845463
1	0x3eb02a1c	0.34407127
2	0x3dc1f783	0.09471037
3	0x3e9da7e0	0.3079214
4	0x3ee87b21	0.4540644
5	0x3d5f4158	0.054505676
6	0x3eb04a99	0.34431913
7	0x3ebaa0e8	0.36450887
8	0x3ea11e81	0.31468585
9	0x3e4c3013	0.19940214
10	0x3ed1a330	0.40944815
11	0x3d430d3c	0.047620043
12	0x3dd6f890	0.10496628
13	0x3e44b7db	0.1921076
14	0x3e2aebdf	0.1669154
15	0xbe678b34	-0.22611696
16	0x3ec01e8d	0.37523308
17	0xbe15dd20	-0.14635134
18	0xbcd527aa	-0.02601989
19	0xbe86bff1	-0.26318315
20	0xbe29cc9b	-0.16581957
21	0x3e97dbe8	0.29659963
22	0x3e997afc	0.29976642
23	0xbec8312f	-0.39100024
24	0x3ec1ae5f	0.37828347
25	0xbe9a62d2	-0.3015352
26	0x3e12de9d	0.14342733
27	0xbe91016d	-0.283214
28	0xbe1d70fe	-0.15375134
29	0xbe635c38	-0.22203147
30	0x3ca0e379	0.019639717
31	0xbee71093	-0.45129833
32	0xbe40d0d7	-0.18829666
33	0xbe1bfa01	-0.15232088
34	0xbd9e8040	-0.077393055
35	0xbe96955e	-0.29410833
36	0xbc2e3e3b	-0.010634954
37	0xbed3e2a1	-0.41383842
38	0xbe66c16c	-0.22534722
39	0x3e19df00	0.15026474
40	0xbd9f2f19	-0.07772655
41	0x3ec383d5	0.38186517
42	0x3e5e8556	0.21730551
43	0x3eb5741e	0.35440153
44	0xbec3b1ca	-0.3822158
45	0xbe1f7dfb	-0.15575401
46	0x3ea6fd99	0.32615355
47	0xbe960403	-0.29299936
48	0x3e5545e2	0.2082744
49	0x3d4107ab	0.047126453
50	0xbe3fd239	-0.18732537
51	0xbe1ca819	-0.15298499
52	0x3ece9740	0.4034977
53	0x3e9cc1d8	0.3061664
54	0x3d0a9219	0.033830736
55	0xbe6656f0	-0.22494102
56	0x3eb7cbb0	0.3589759
57	0x3e2ef356	0.17085013
58	0xbe6cee16	-0.23137698
59	0xbc92cb76	-0.017919283
60	0xbe1b48d1	-0.15164496
61	0x3eec2d88	0.46128488
62	0x3d3b4ef0	0.045729578
63	0x3ed18147	0.40918943

weight f4 [64, 64]
0	0x3e8b3881	0.27191547
1	0x3c071543	0.008244815
2	0x3dd8da80	0.105885506
3	0xbe850630	-0.25981283
4	0xbd1aac5c	-0.03776203
5	0xbd4970ce	-0.049179845
6	0x3db010fb	0.08596989
7	0x3d402fcb	0.04692058
8	0x3e0a8f0f	0.13531135
9	0xbe28740b	-0.16450517
10	0x3dc203b3	0.09473362
11	0x3c00573e	0.0078333
12	0x3e455022	0.1926885
13	0xbe8e3398	-0.27773738
14	0x3d9260fd	0.07147405
15	0xbcc2e415	-0.023790399
16	0xbd887be2	-0.06664254
17	0xbe2e3d7b	-0.1701564
18	0xbec375d4	-0.38175833
19	0x3cf691c1	0.030098798
20	0x3d07c133	0.033143234
21	0x3babc8c4	0.005242439
22	0x3d034305	0.032046337
23	0x3e2b5717	0.16732441
24	0x3d1342c7	0.035952356
25	0x3d4c827e	0.049929135
26	0x3dfe142a	0.1240619
27	0xbdade45b	-0.08490821
28	0xbe33b00d	-0.17547627
29	0xbdbb4b1b	-0.091451846
30	0xbee125f8	-0.4397428
31	0x3d6bb398	0.05754432
32	0x3d3eeb57	0.046611156
33	0xbd98bcc0	-0.07457876
34	0x3e06e4b9	0.13173188
35	0x3c4d19d8	0.012518369
36	0x3e62666e	0.22109386
37	0xbc763a59	-0.01502856
38	0xbdc89cc0	-0.09795523
39	0xbe810fd9	-0.25207403
40	0x3cc9e4ff	0.024645327
41	0xbe3831ab	-0.17987697
42	0xbe394fea	-0.18096891
43	0x3dcb9b04	0.09941676
44	0x3deffd99	0.11718292
45	0xbbf273a3	-0.007399039
46	0x3e39a1ea	0.18128172
47	0xbd9a4073	-0.07531824
48	0xbe1b17a0	-0.15145731
49	0xbdb0a293	-0.086247586
50	0x3e15f94f	0.14645885
51	0x3d823c75	0.063591875
52	0xbd3b2522	-0.04568971
53	0xbd224301	-0.03961468
54	0xbe7b4ee8	-0.24541819
55	0xbdaa0332	-0.08301391
56	0xbe227791	-0.15865923
57	0x3e2d9761	0.16952278
58	0x3df50255	0.119633354
59	0xbe549362	-0.20759347
60	0xbcede51a	-0.029039908
61	0x3dffb297	0.12485235
62	0x3ef6ed02	0.48227698
63	0xbd201b3e	-0.03908848
64	0xbe02a723	-0.1275907
65	0x3e296eff	0.16546248
66	0xbd8c97c2	-0.06864883
67	0x3d10985e	0.03530156
68	0xbd2552f2	-0.040362306
69	0x3e3c096e	0.18362972
70	0x3cae4cea	0.02127691
71	0xbc7fad51	-0.015605287
72	0xbdc10002	-0.094238296
73	0x3e0db98d	0.13840313
74	0xbdd7f4f4	-0.10544768
75	0xbdd3aa81	-0.103352554
76	0xbded40bf	-0.11584615
77	0x3e8b5042	0.2720967
78	0xbd33381d	-0.043754686
79	0xbc00581e	-0.007833509
80	0x3e23df59	0.16003169
81	0x3de9269e	0.11384319
82	0x3ea0a76a	0.31377727
83	0xbe37d544	-0.17952448
84	0xbc85a1ad	-0.016312445
85	0xba971752	-0.0011527336
86	0x3c9a6e5a	0.018851448
87	0x3ca738a4	0.02041275
88	0xbce3d143	-0.027809745
89	0x3d3a73b7	0.04552051
90	0xbe902cce	-0.28159183
91	0x3bdb2f1e	0.0066889664
92	0x3e3267ae	0.17422363
93	0x3d38c658	0.04511103
94	0x3e742019	0.2384037
95	0xbdf4ea77	-0.11958783
96	0x3d0b4ea8	0.03401056
97	0xbe1148d2	-0.14187935
98	0xbe93a70b	-0.2883838
99	0xbc1e33c7	-0.009655899
100	0xbe804b83	-0.2505761
101	0x3b580613	0.0032962605
102	0xbcc0cdf1	-0.0235357
103	0x3e5b5a76	0.21421227
104	0xbddbf036	-0.10739176
105	0x3d6732ba	0.05644486
106	0xb9e173dc	-0.00043001666
107	0xbc78a1d2	-0.0151753
108	0x3ccfc294	0.025361337
109	0xbaa8dfb9	-0.0012884057
110	0xbdf2dd1b	-0.11858579
111	0x3defaaa2	0.117024675
112	0x3c3e2f9c	0.011608031
113	0x3e02e95f	0.12784337
114	0x3c5eb088	0.013591893
115	0xbd766025	-0.060150284
116	0x3dcac4f2	0.099008456
117	0x3de24dd0	0.11049998
118	0x3e0b7abe	0.13621041
119	0x3e09f313	0.13471632
120	0xbcdf8015	-0.027282754
121	0x3c8fc81b	0.017551472
122	0xbd8be0a8	-0.06829959
123	0x3de797d9	0.113082595
124	0xbdd507a1	-0.10401846
125	0xbdb1eb73	-0.086874865
126	0xbe898373	-0.268581
127	0xbdd1c88c	-0.102433294
128	0xbd445fe0	-0.047942996
129	0xbae0daa1	-0.0017155
130	0xbd4c3a76	-0.04986044
131	0x3d1d0835	0.038337905
132	0xbd671b1d	-0.05642234
133	0xbd3a4900	-0.045479774
134	0x3c6de519	0.014519953
135	0xbd7ff8e3	-0.062493216
136	0x3d16546e	0.036701612
137	0xbcd92523	-0.026506966
138	0xbdb50da9	-0.08840496
139	0xba9269f5	-0.0011170494
140	0xbe040e41	-0.12896062
141	0x3e9737ed	0.29534855
142	0x3d2e6a13	0.04258163
143	0xbd937f1e	-0.0720198
144	0x3dc386ce	0.09547196
145	0x3c12253a	0.008920008
146	0x3ee1282f	0.4397597
147	0xbe2d0e7d	-0.16900058
148	0x3d22ebec	0.039775774
149	0xbdcca692	-0.09992708
150	0xbddd9b35	-0.10820619
151	0x3d6038e7	0.054741766
152	0x3dc3e27c	0.09564683
153	0x3bc0a41f	0.0058789398
154	0xbe83594f	-0.25654075
155	0xbda6e4f6	-0.081491396
156	0x3e007e83	0.1254826
157	0x3de82ffd	0.11337278
158	0x3ecc40b9	0.3989313
159	0xbc282316	-0.010262271
160	0xbdf17513	-0.11789908
161	0xbdd7b27d	-0.10532091
162	0xbe3fba0a	-0.18723312
163	0x3d55a46e	0.052158765
164	0xbe405968	-0.18784106
165	0x3d2c6626	0.042089604
166	0xbd502f85	-0.05082657
167	0x3e86dcf0	0.26340437
168	0x3c43e7b2	0.011957096
169	0x3d94f5a2	0.07273413
170	0x3e19802d	0.14990301
171	0xbe446d59	-0.19182338
172	0xbd72e6cf	-0.059302147
173	0xbcde1d72	-0.02711365
174	0x3b015b6b	0.0019738327
175	0x3d9732af	0.07382714
176	0xbd4e0213	-0.050294947
177	0x3c9d33b1	0.019189687
178	0x3b7ffbbc	0.0039059957
179	0xbe0a0138	-0.13477027
180	0xbd90ddc7	-0.07073551
181	0xbce1e403	-0.027574545
182	0x3e8e762e	0.2782454
183	0x3cb271fe	0.021782871
184	0xbd90d856	-0.07072513
185	0x3dae8f9b	0.08523484
186	0xbc4540bd	-0.012039361
187	0x3e076316	0.13221392
188	0xbe1c3e1b	-0.15258066
189	0xbde6ef15	-0.1127607
190	0xbe868d65	-0.2627975
191	0x3ccfdb1e	0.025373038
192	0x3e8c890e	0.27448314
193	0x3d04ef46	0.03245475
194	0x3d0186b1	0.031622592
195	0xbe102296	-0.14075693
196	0x39f30d2a	0.0004635838
197	0x3c92cfd7	0.017921371
198	0x3e067559	0.13130702
199	0x3e0effbf	0.13964747
200	0x3e51156e	0.20418331
201	0xbe65de9d	-0.22448201
202	0x3e1f14ee	0.15535328
203	0x3e0f3b19	0.13987388
204	0x3d43b781	0.047782425
205	0xbe745239	-0.2385949
206	0x3d9f8004	0.07788089
207	0x3d9bb3b4	0.07602635
208	0x3d29f104	0.041489616
209	0xbe3b2f40	-0.18279743
210	0xbe92e4a8	-0.28690076
211	0x3dd8440b	0.10559853
212	0xbdbc40fb	-0.091920815
213	0x3d836030	0.06414831
214	0x3d27d061	0.04097021
215	0xbd1d422b	-0.03839318
216	0xbd3005e4	-0.042974368
217	0x3e3e055a	0.18556729
218	0x3e94f5d3	0.290938
219	0xbd11b565	-0.035573382
220	0xbe4791de	-0.19489238
221	0x3c7b3bd4	0.015334088
222	0xbe5d132d	-0.21589346
223	0x3dc2c122	0.095094934
224	0x3defae32	0.11703147
225	0x3dad28d8	0.08455056
226	0x3e49aa17	0.1969379
227	0xbc8c0393	-0.017091548
228	0x3dab42af	0.08362328
229	0xbcbce63c	-0.023059003
230	0xbdf81e2a	-0.12115128
231	0xbeadad4d	-0.3392128
232	0x3bff6a6e	0.00779467
233	0xbd2829bb	-0.041055422
234	0xbbc9b90a	-0.0061560916
235	0x3d14df09	0.036345515
236	0x3e314d5d	0.17314668
237	0xbcc7618d	-0.024338508
238	0xbc97e898	-0.018543527
239	0xbe07a6f6	-0.13247284
240	0x3d5e1eab	0.054228466
241	0xbe2cfe47	-0.16893874
242	0xbca35a0e	-0.019940402
243	0x3e33c4d1	0.17555548
244	0xbd4a9e3b	-0.049467307
245	0x3d11117b	0.03541706
246	0xbe3d5cad	-0.18492384
247	0xbd90d708	-0.07072264
248	0xbe1bb9ea	-0.1520764
249	0xbdb414bf	-0.087930195
250	0x3e71f940	0.23630238
251	0xbbb1ee39	-0.0054300097
252	0xbd6fd3ed	-0.058551718
253	0x3d8a447c	0.067513436
254	0x3ea4afb0	0.3216529
255	0xbd2ddf5b	-0.042449336

bias f4 [64]
0	0x3d9b8e27	0.07595473
1	0xbda64c87	-0.08120065
2	0x397affac	0.00023937103
3	0xbd93e58c	-0.07221517
4	0xbdc50404	-0.096199065
5	0x3b0b89ad	0.0021291778
6	0x3ce4feb8	0.02795349
7	0xbd9812c8	-0.07425457
8	0xbd901848	-0.07035881
9	0x3dc2c321	0.09509874
10	0xbd2d1ae0	-0.042261958
11	0xbde26635	-0.11054651
12	0xbdb22fae	-0.087005004
13	0xbda0ce35	-0.07851831
14	0xbcf6410c	-0.030060314
15	0x3d84d0bc	0.064851254
16	0x3c4ac070	0.012374982
17	0x3cb11942	0.02161849
18	0x3c2b9009	0.010471352
19	0x3d82e8ef	0.06392085
20	0xbdf96585	-0.121775664
21	0xbd98ba54	-0.07457414
22	0x3ce71fd7	0.028213425
23	0xbe04c482	-0.12965587
24	0xbdca3e5c	-0.09875175
25	0xbcda29f7	-0.026631339
26	0x3cc42a4d	0.023945952
27	0xbe1d6045	-0.15368755
28	0x3aea491f	0.0017874575
29	0x3de72bb8	0.112876356
30	0xbdadc752	-0.08485283
31	0xbdccc9cb	-0.099994265
32	0x3dfeaa06	0.12434773
33	0xbc375297	-0.011189125
34	0x3d98dd5e	0.074640974
35	0x3dd1f36b	0.102515064
36	0x3d23baf4	0.039973214
37	0xbd53f659	-0.051748607
38	0xbb4244c2	-0.0029643034
39	0xbda00c90	-0.07814896
40	0x3d7303df	0.059329864
41	0x3da6bd8a	0.081416205
42	0x3d723f94	0.059142664
43	0x3dcb77c8	0.09934956
44	0x3df97795	0.121810116
45	0x3da818f5	0.08207885
46	0x3d9f4c1f	0.07778191
47	0x3d97d7c0	0.07414198
48	0x3db213d1	0.08695186
49	0xbde5b299	-0.112157054
50	0xbd8f520a	-0.069980696
51	0xbda7fc0c	-0.08202371
52	0x3e06b2d7	0.1315416
53	0x3d980abb	0.07423922
54	0xbce48d48	-0.0278994
55	0xbdcf2225	-0.101139344
56	0x3db518cd	0.08842621
57	0xbc84174f	-0.016124396
58	0xbd3732f9	-0.044726346
59	0xbddf1e92	-0.10894503
60	0x3db0195c	0.08598587
61	0x3dcf0084	0.1010752
62	0x3d07e13a	0.033173777
63	0x3da1b7c4	0.07896379

weight f4 [2, 64]
0	0xbecd29fe	-0.400711
1	0x3ebec52e	0.3725981
2	0x3e4376f2	0.19088343
3	0xbebecc3a	-0.37265188
4	0x3e2f3e88	0.17113698
5	0xbe99e68b	-0.30058703
6	0xbf080005	-0.5312503
7	0xbe518cc3	-0.20463853
8	0x3e76652b	0.2406203
9	0xbf22a27e	-0.63529193
10	0xbf35b21b	-0.7097489
11	0x3e9f204e	0.31079334
12	0xbe4742ad	-0.19459029
13	0x3f494354	0.7861836
14	0x3ede6795	0.43438402
15	0x3ea3e442	0.32010084
16	0xbe81c16f	-0.2534289
17	0x3e8dffe3	0.2773429
18	0x3f1af138	0.6052432
19	0x3eb42e9e	0.35191816
20	0xbeef8650	-0.4678216
21	0xbe878a1b	-0.26472554
22	0x3f195883	0.59900683
23	0x3e4f3d6c	0.20238274
24	0x3effca50	0.4995904
25	0x3f42da0b	0.7611396
26	0xbf29c744	-0.6631968
27	0x3e8810c8	0.26575303
28	0xbf120320	-0.5703602
29	0xbf2e93e1	-0.68194395
30	0xbea284bb	-0.3174189
31	0x3eb8b027	0.36071894
32	0xbe3327cf	-0.17495655
33	0xbf157c4e	-0.583928
34	0xbf078d51	-0.52950007
35	0xbef45650	-0.477221
36	0x3f303dc8	0.6884427
37	0xbe4e9de8	-0.20177424
38	0x3ee8db0f	0.45479628
39	0x3f2e0726	0.6797966
40	0x3eb4ce36	0.35313576
41	0x3e9d4b1c	0.30721366
42	0xbf1d0414	-0.6133435
43	0xbe9a47ae	-0.30132812
44	0xbe87787b	-0.26459107
45	0x3edf2b6d	0.4358782
46	0x3f0f6a51	0.560216
47	0xbedfe012	-0.4372564
48	0x3e5e921c	0.21735424
49	0x3f278246	0.65433156
50	0xbf092a04	-0.53579736
51	0x3f25949d	0.6467989
52	0xbf47ac02	-0.7799684
53	0xbf3edeff	-0.74559015
54	0xbee35d44	-0.44407094
55	0x3e732ab3	0.23746757
56	0x3ee71f74	0.45141184
57	0xbeee011d	-0.46485224
58	0x3ee00f8a	0.43761855
59	0x3f01d1ac	0.5071056
60	0xbe4db70a	-0.20089355
61	0xbf3eb7b5	-0.74499065
62	0xbf2a71af	-0.6657972
63	0xbe9bc5df	-0.304244
64	0x3f11a356	0.56889856
65	0xbed0f0d6	-0.40808743
66	0xbe533cc9	-0.20628656
67	0x3eafaeca	0.3431304
68	0xbe850fbc	-0.25988567
69	0x3e7eb121	0.24872257
70	0x3f18f671	0.5975104
71	0x3e6a8fda	0.22906438
72	0xbe7f9ac6	-0.24961385
73	0x3ef5e531	0.48026422
74	0x3f2b4ac6	0.6691097
75	0xbdfd268c	-0.12360868
76	0x3eae0f81	0.33996204
77	0xbf2af9a2	-0.6678716
78	0xbe9ff8dd	-0.31244555
79	0xbecdfa64	-0.40230095
80	0x3e5cd6bb	0.21566288
81	0xbe40d6a4	-0.18831879
82	0xbf17464e	-0.5909165
83	0xbe9a83f1	-0.30178788
84	0x3ec8eca3	0.3924304
85	0x3e6eaa77	0.23307215
86	0xbf2bf7da	-0.67175066
87	0xbe5ad025	-0.21368463
88	0xbe8bac0c	-0.272797
89	0xbf1c8558	-0.61140966
90	0x3f1678c9	0.58778054
91	0xbeb77137	-0.35828564
92	0x3f1368d4	0.5758183
93	0x3f2c0b01	0.6720429
94	0x3ef4e0d4	0.4782778
95	0xbe833e2a	-0.25633365
96	0x3eb36a76	0.3504216
97	0x3f1b525e	0.6067256
98	0x3f21a67d	0.63144666
99	0x3ef00292	0.4687696
100	0xbf13c2a5	-0.5771888
101	0x3e2a311c	0.16620296
102	0xbed9345e	-0.42422765
103	0xbf2cfb8c	-0.6757133
104	0xbec1e57e	-0.378704
105	0xbf060665	-0.5235351
106	0x3f24202f	0.6411161
107	0x3d96d665	0.07365111
108	0x3e7b322b	0.24530856
109	0xbec3b3db	-0.38223156
110	0xbf1c632e	-0.61088836
111	0x3ee70f8a	0.45129043
112	0xbe824d21	-0.2544947
113	0xbf11c09d	-0.5693453
114	0x3f0b8950	0.545064
115	0xbf1ff856	-0.62488306
116	0x3f4dabd7	0.8034033
117	0x3f29a11c	0.6626146
118	0x3ed2d85b	0.4118069
119	0xbeca0a54	-0.39461005
120	0xbf085716	-0.5325788
121	0x3eccbf92	0.39989907
122	0xbeb3fbba	-0.3515299
123	0xbede5a1b	-0.4342812
124	0x3ec2e0e6	0.3806221
125	0x3f279664	0.6546385
126	0x3f2ffbff	0.6874389
127	0x3e934547	0.28763792

bias f4 [2]
0	0xbdffe0f2	-0.12494077
1	0x3d71c436	0.059025012

weight f4 [64, 4]
0	0x3fa92a9d	1.321613
1	0x3f22a92d	0.6353939
2	0x3faba26f	1.3408946
3	0x3eb03e76	0.34422654
4	0xbf89fbd5	-1.0779978
5	0xbe95222a	-0.29127628
6	0xbeac4490	-0.3364606
7	0xbf2c6dfc	-0.6735532
8	0x40035742	2.0522008
9	0x3d8dd11c	0.0692465
10	0x3f4bfd3e	0.7968329
11	0xbe84f489	-0.25967816
12	0xbf5eb21f	-0.8699054
13	0xbf1472e2	-0.579878
14	0xc00bb4c5	-2.1829083
15	0xbf267634	-0.65024114
16	0xbfae5aa7	-1.3621415
17	0xbf2b8d3c	-0.6701238
18	0xbfccda1c	-1.6004062
19	0xbee088ce	-0.43854374
20	0x3fbdf5a9	1.4840595
21	0x3ed9681d	0.42462245
22	0x3fe5fc76	1.796767
23	0x3ef0b3f5	0.47012296
24	0x3fada92f	1.3567256
25	0x3f1235cf	0.57113355
26	0x3febdef7	1.8427418
27	0x3dacaa9b	0.08430978
28	0x3ff70c72	1.9300673
29	0xbcdc8a96	-0.026921552
30	0x3ff69530	1.9264278
31	0xbd9e1b97	-0.07720106
32	0x3fd366a1	1.6515695
33	0x3f0e7547	0.556477
34	0x400ead85	2.2293408
35	0x3f58397b	0.8446271
36	0x4014205b	2.3144748
37	0xbf242277	-0.6411509
38	0x3f8549e0	1.041317
39	0xbf02a646	-0.51034963
40	0x3f2f1d0f	0.68403715
41	0x3e507774	0.20358068
42	0xbf123147	-0.5710644
43	0x3e4f80e9	0.20264019
44	0x3fb3a70c	1.4035354
45	0x3eee74a3	0.46573362
46	0x3fac5adb	1.3465227
47	0x3e58354c	0.21114081
48	0x3fe37c2e	1.7772272
49	0x3da25ed0	0.0792824
50	0x3ff2f442	1.8980792
51	0xbb66bcac	-0.0035207672
52	0xbfc85749	-1.5651637
53	0xbe61497f	-0.22000693
54	0xbf2f3291	-0.68436533
55	0x3d872483	0.06598761
56	0xbdcb77a8	-0.09934932
57	0x3eb4d347	0.35317442
58	0x3ee5c7f4	0.44879115
59	0x3f5c1c97	0.85981125
60	0xbe9413ca	-0.28921348
61	0x3f4b492e	0.7940854
62	0xbeb64881	-0.3560219
63	0x3ea2cc53	0.31796512
64	0x3fe3895f	1.7776297
65	0x3f04f1c0	0.5193138
66	0x3fa2a5dd	1.2706867
67	0x3e95eaa3	0.29280576
68	0x3ed144e5	0.40872875
69	0xbf3097dc	-0.6898172
70	0x3f448d60	0.7677822
71	0xbf20ff47	-0.6288952
72	0xbff93c61	-1.9471551
73	0xbf041d56	-0.51607263
74	0xbf9127ff	-1.1340331
75	0xbec670b4	-0.3875786
76	0x3df5c94f	0.12001287
77	0xbeaa7191	-0.3328977
78	0xbea035d5	-0.3129107
79	0xbf31e733	-0.69493407
80	0x3fa76299	1.3076965
81	0xbe06f8e4	-0.13180882
82	0x3d80fafd	0.06297872
83	0xbee9227e	-0.45534128
84	0xbe94a3ee	-0.29031318
85	0x3ef58fc1	0.47961238
86	0xbde90d2d	-0.11379466
87	0x3e409d65	0.18810041
88	0x3efe3f24	0.49657547
89	0x3ea5034b	0.32229075
90	0xbe89b6c0	-0.2689724
91	0x3ed8297b	0.42219147
92	0x3f9f6dca	1.245538
93	0xbf86adb8	-1.0521765
94	0x3f1c5dbf	0.61080545
95	0xbf1e0ca0	-0.61738014
96	0xbec47d6d	-0.38376942
97	0x3edef770	0.43548155
98	0x3fa1632f	1.2608393
99	0x3f43a3d6	0.7642187
100	0x3f65be44	0.8974345
101	0x3f09643a	0.5366856
102	0x3fd6c4c1	1.6778795
103	0x3efc8d8e	0.49326748
104	0x3ffec3a5	1.9903456
105	0xbc8f76f0	-0.017512769
106	0x400ef5ce	2.2337527
107	0xbea8a15a	-0.329356
108	0x40114e5f	2.2704084
109	0xbf4f26ec	-0.80918765
110	0x3fc5655d	1.5421559
111	0xbed2337e	-0.4105491
112	0xbf472cd6	-0.7780279
113	0xbf31bb99	-0.69426876
114	0xbf5e9494	-0.8694546
115	0xbf06d045	-0.52661544
116	0x3fa5756a	1.2926457
117	0xbebb1f15	-0.3654715
118	0x3ff4346a	1.9078496
119	0x3c0cc0f8	0.008590929
120	0x3f5afdb6	0.8554338
121	0xbf0edbde	-0.5580424
122	0xbf85ffbe	-1.0468671
123	0xbf6577ca	-0.8963591
124	0xbfb593c1	-1.4185716
125	0xbeb65d0b	-0.3561786
126	0xbfb98476	-1.4493549
127	0xbd9a0dc7	-0.07522159
128	0xbfe26a19	-1.7688628
129	0xbec1c8f6	-0.37848634
130	0xbfaf4297	-1.3692197
131	0x3d57dd6f	0.05270141
132	0xbfb5f622	-1.4215739
133	0xbe838296	-0.25685567
134	0xbf831c72	-1.0243056
135	0xbf084090	-0.53223515
136	0xbf965304	-1.1744084
137	0xbe57951e	-0.21052977
138	0xbfe9a955	-1.8254801
139	0xbb60eb6f	-0.0034320017
140	0xbfc1cf10	-1.5141315
141	0xbed76e67	-0.42076418
142	0xbf931ca2	-1.1493113
143	0xbf090327	-0.53520435
144	0x3fe7cca3	1.8109325
145	0x3db2f731	0.08738554
146	0x3f9459fd	1.1589962
147	0x3ea4772d	0.32122174
148	0xbfc0320e	-1.5015275
149	0xbf3513e0	-0.7073345
150	0xbfecee3b	-1.8510202
151	0xbf350818	-0.70715475
152	0xbfe349b0	-1.7756863
153	0x3e6c72f1	0.23090722
154	0xc019c9ff	-2.4029539
155	0x3e09c390	0.13453507
156	0x3fa63fbf	1.2988204
157	0x3f213453	0.62970465
158	0x3f6c803d	0.92383176
159	0x3e562814	0.20913726
160	0x40047e7b	2.0702198
161	0xbe7b051b	-0.24513666
162	0x3fd51aa7	1.6648759
163	0xbe8a49ef	-0.27009532
164	0x3fb5f383	1.4214939
165	0x3f0934e2	0.5359632
166	0x3f93d7c9	1.1550227
167	0x3f1c0bff	0.60955805
168	0x3f5bfe94	0.8593533
169	0x3f2dabd5	0.6784032
170	0x3f5fa44a	0.8736006
171	0x3ef6a834	0.48175204
172	0xbffa26bf	-1.9543074
173	0x3e223f8b	0.15844552
174	0xbfaca618	-1.3488188
175	0xbdd175f4	-0.10227576
176	0x3f966b96	1.1751583
177	0x3f0b0dc1	0.5431786
178	0x3f273726	0.65318525
179	0x3e21ebaa	0.15812555
180	0x3fdb9be7	1.7156953
181	0x3f285b2a	0.65764105
182	0x3f9d8d07	1.2308663
183	0x3ed0700a	0.4071048
184	0x3f8d98ac	1.1062217
185	0xbf10be7f	-0.56540674
186	0xbec13349	-0.3773444
187	0x3d461b53	0.048365902
188	0xbf0be8da	-0.5465218
189	0xbee6500f	-0.44982955
190	0xbfb57946	-1.4177635
191	0xbf2c8eeb	-0.67405576
192	0xbf155aa4	-0.5834143
193	0xbf0016a7	-0.50034565
194	0xbf4e1069	-0.8049379
195	0xbeef3571	-0.4672046
196	0xbfa65924	-1.2995954
197	0x3ef2c7ca	0.47418052
198	0xbfbe8dca	-1.488702
199	0x3f1d7865	0.6151183
200	0xbfd58438	-1.6680975
201	0xbf104d6f	-0.56368154
202	0xbfb9b4ba	-1.4508278
203	0xbdc9772b	-0.098371826
204	0x3f3e7e3f	0.74411386
205	0xbf6e6d02	-0.9313508
206	0x3efd577f	0.49480817
207	0xbee0469f	-0.4380388
208	0x3fb03746	1.3766868
209	0xbf5f101e	-0.8713397
210	0x3f499fb7	0.7875933
211	0xbf5e3696	-0.8680204
212	0x3fd9702b	1.6987356
213	0x3f1cab82	0.611992
214	0x3f5ce570	0.86287594
215	0x3e4e8d71	0.20171143
216	0x3fd7afdd	1.6850544
217	0xbf126b74	-0.5719521
218	0x3fe03e46	1.7519004
219	0xbe53603d	-0.2064218
220	0xbddfce90	-0.109280705
221	0x3ef10a3a	0.47078115
222	0x3f98d1c1	1.1939012
223	0x3ea6f54b	0.3260902
224	0xbf74c73c	-0.9561651
225	0xbf391240	-0.7229347
226	0xbe65f732	-0.22457579
227	0xbe0f74bb	-0.14009373
228	0x3fcaaa57	1.5833234
229	0x3ef80401	0.48440555
230	0x3fdde06c	1.7334113
231	0x3ed03809	0.4066775
232	0xbfeceb44	-1.8509297
233	0x3f585c87	0.84516186
234	0xc00a1629	-2.1576025
235	0x3f64630a	0.8921362
236	0x3f5728b2	0.8404647
237	0xbf87fb1c	-1.0623507
238	0x3e0fc1e8	0.14038813
239	0xbecabf9b	-0.39599308
240	0xbfb6ae1e	-1.4271886
241	0x3e8c2a69	0.27376106
242	0xbffc1bf6	-1.9696033
243	0x3f604329	0.8760248
244	0x3ff97de9	1.949155
245	0xbdb08ca9	-0.08620579
246	0x3f9fd314	1.2486291
247	0x3e6d4293	0.23169927
248	0x3f163318	0.5867171
249	0x3f589e37	0.84616417
250	0x3e88c6ed	0.26714268
251	0x3ef1ba25	0.4721233
252	0xbffee1b4	-1.9912629
253	0x3e984431	0.29739526
254	0xc0097437	-2.1477182
255	0x3e6ee08f	0.2332785

bias f4 [64]
0	0xbec09d11	-0.37619832
1	0x3df35cc7	0.1188293
2	0xbebebde8	-0.37254262
3	0xbdfbdb3a	-0.122976735
4	0x3ec27cd0	0.3798585
5	0xbe930157	-0.2871196
6	0x3ee1802b	0.44043097
7	0x3e237f17	0.1596645
8	0x3e0e72f2	0.13911036
9	0xbe96764f	-0.29387137
10	0xbe735e0f	-0.2376635
11	0xbe7f9ecc	-0.2496292
12	0x3e178707	0.14797603
13	0xbdfb10cf	-0.12259065
14	0x3edb5220	0.42836094
15	0xbe8844af	-0.266149
16	0x3e55776f	0.20846342
17	0x3e06fc98	0.13182294
18	0xbe64d16d	-0.22345515
19	0xbf085447	-0.532536
20	0x3da129f4	0.0786933
21	0x3cdced59	0.026968645
22	0xbc25e656	-0.010125717
23	0x3de48ff5	0.1116027
24	0x3f0773b3	0.5291092
25	0x3e395238	0.1809777
26	0x3e28fff1	0.16503884
27	0xbdebe4a7	-0.11518221
28	0x3e64d368	0.2234627
29	0xbe3ec701	-0.18630601
30	0xbee5dcbe	-0.44894975
31	0x3e98ea86	0.29866427
32	0x3ecbf539	0.39835528
33	0x3e92baa3	0.28658018
34	0x3e0853e9	0.13313259
35	0xbe356ea0	-0.17717981
36	0x3e0ace81	0.13555337
37	0xbe1f5a59	-0.15561809
38	0xbe2033ef	-0.15644811
39	0x3e6dc911	0.23221232
40	0xbe821033	-0.25402984
41	0x3e3d7d33	0.18504791
42	0xbe4dc736	-0.20095524
43	0x3e8ef3b9	0.2792032
44	0xbe9a6f7a	-0.30163175
45	0x3e82ddc6	0.25559825
46	0xbd344b41	-0.04401708
47	0xbe4c41c6	-0.19946966
48	0xbecce033	-0.400148
49	0x3e0d53c9	0.13801493
50	0xbe739467	-0.2378708
51	0x3d4bf14d	0.04979067
52	0x3e21c672	0.15798357
53	0x3eb19980	0.34687424
54	0xbe5d1b7d	-0.21592517
55	0x3d4d63d9	0.05014405
56	0x3eec1010	0.46106005
57	0xbea378ae	-0.3192801
58	0xbde32ca2	-0.110924974
59	0x3d7365ea	0.059423365
60	0xbdd5e2ea	-0.10443671
61	0xbe8e413f	-0.27784154
62	0xbe83d2e2	-0.25746828
63	0xbe14702c	-0.14495915

weight f4 [64, 64]
0	0x3f36a7a5	0.71349555
1	0xbeae4f8d	-0.34045067
2	0x3fddd412	1.7330344
3	0xbcf72305	-0.030168066
4	0xbf0696dc	-0.52573943
5	0x3fa225e2	1.2667811
6	0x3e3713d6	0.1787866
7	0x3ed89952	0.42304474
8	0x3ed46019	0.41479567
9	0x4015e7c3	2.3422706
10	0x3dcf2881	0.101151474
11	0x3f7a5b69	0.9779573
12	0x3ec34913	0.3814169
13	0xbe81e948	-0.25373292
14	0xbdb08c98	-0.08620566
15	0xbe7edfed	-0.24890108
16	0x3ea74afb	0.32674393
17	0x3e261635	0.16219409
18	0xbed92f01	-0.42418674
19	0x3e3a20fa	0.18176642
20	0x3e297ba7	0.16551076
21	0x3e567760	0.20943975
22	0x3e09345e	0.13398883
23	0x3ef248a7	0.47321054
24	0xbe6ccb2f	-0.23124383
25	0x3dbcdb01	0.09221459
26	0x3e8b994c	0.27265394
27	0x3f7d2f44	0.98900247
28	0xbe0bf313	-0.13666944
29	0x3f17e655	0.59335834
30	0x3d8eb866	0.06968765
31	0xbf5e4ab7	-0.86832756
32	0xbfab103c	-1.3364329
33	0xbf3e4709	-0.7432714
34	0xbf03f6d6	-0.51548517
35	0xbea07eb9	-0.31346682
36	0x3eece129	0.46265534
37	0xbec433ee	-0.3832087
38	0xbec22313	-0.37917385
39	0x3e89eef4	0.2694012
40	0x400e0d03	2.2195442
41	0x3ebdc3a3	0.3706332
42	0x3d8ad75b	0.06779357
43	0xbff6dada	-1.9285538
44	0x3f1a8416	0.603578
45	0x3e1b6365	0.15174635
46	0x3efa3577	0.48868915
47	0x3dbda762	0.09260441
48	0xbd841896	-0.06450002
49	0xbf6d7fca	-0.92773116
50	0xbe8b0283	-0.27150354
51	0x3ebf2554	0.37333167
52	0x3e98de1b	0.29856953
53	0x3e6835ab	0.22676723
54	0x3fa8f5fa	1.3200066
55	0xbaa2736e	-0.001239402
56	0xbebd7064	-0.3699981
57	0x3fa0f488	1.2574625
58	0xbf0f15f7	-0.5589289
59	0x3ea55bde	0.32296652
60	0xbe78c985	-0.24295624
61	0x3feba38b	1.8409284
62	0xbc95328b	-0.018212577
63	0xbe946239	-0.28981188
64	0x3d39ca49	0.04535893
65	0xbefa8486	-0.48929232
66	0x3e34488a	0.17605796
67	0xbf51d42e	-0.81964386
68	0x3d8adaf0	0.0678004
69	0x3e89fb43	0.2694951
70	0x3e8ad069	0.2711213
71	0x3fc5f4a6	1.5465286
72	0x3fc496a9	1.5358478
73	0x3f017102	0.5056306
74	0x3e115c61	0.14195396
75	0x3d8c52f2	0.06851758
76	0x3ffcecea	1.97598
77	0xbf957d4b	-1.1678861
78	0x3c50d9f5	0.0127472775
79	0xbf057eb3	-0.5214645
80	0x3fa01d68	1.2508974
81	0x3f09b5cf	0.5379304
82	0xbfad8d61	-1.355877
83	0x3d049285	0.032366294
84	0x3f42a17b	0.7602765
85	0xbe761168	-0.24030077
86	0xbe5d4081	-0.21606638
87	0x3f4cbb48	0.7997327
88	0xba70f3e5	-0.00091916166
89	0x3eeab222	0.4583903
90	0x3fd6c1e4	1.6777921
91	0x3f85f8fc	1.0466609
92	0x3e56d36f	0.20979093
93	0x3df7a263	0.1209152
94	0x3e9d2615	0.30693117
95	0xbda7d44f	-0.081947915
96	0xbdb64766	-0.08900337
97	0xbe79ec2c	-0.24406499
98	0xbdb4ab74	-0.088217646
99	0xbf74354b	-0.9539382
100	0x3fac5fe2	1.3466761
101	0xbfad1e7b	-1.3524927
102	0xc00d4b31	-2.2077143
103	0x3f0e84ec	0.5567157
104	0x3ed75b95	0.4206206
105	0x3f76b909	0.9637609
106	0xbd7b381b	-0.061332803
107	0xbf1b7e15	-0.6073926
108	0xbd835556	-0.06412761
109	0x3f41d02e	0.7570828
110	0x3f26a8c1	0.6510125
111	0xbeb12c0a	-0.34603912
112	0xbe205048	-0.15655625
113	0xbe6e3441	-0.23262121
114	0xbf665694	-0.8997586
115	0x3f0f32dd	0.55936986
116	0x3f647028	0.89233637
117	0x3f23a45f	0.63922685
118	0x3e233789	0.15939154
119	0xbd9599b5	-0.07304708
120	0x3e0863b3	0.13319282
121	0x3d96f873	0.07371607
122	0xbfc132dc	-1.5093646
123	0x3f1a2bdd	0.6022318
124	0xbf98dbfc	-1.1942134
125	0x3ee45363	0.4459487
126	0xbe1c3100	-0.15253067
127	0xc002a480	-2.0412903
128	0xbe20e38e	-0.15711805
129	0xbe90d8a2	-0.28290278
130	0xbe0c0fd3	-0.13677911
131	0xbee0dadd	-0.4391698
132	0x3d82fd11	0.06395925
133	0xbe8eda5d	-0.27900973
134	0x3f2774b5	0.65412456
135	0x3e5233b5	0.20527537
136	0x3ec57fe2	0.3857413
137	0xbf013bf1	-0.5048209
138	0x3e24a289	0.16077627
139	0xbd43c311	-0.04779345
140	0x3e65c494	0.2243827
141	0xbef19f99	-0.47192076
142	0x3f9a4920	1.2053566
143	0xbd96f888	-0.07371622
144	0x3f2acc31	0.6671782
145	0xbcb9a37a	-0.02266096
146	0xbf0f4896	-0.5597013
147	0xbf9954ff	-1.1979064
148	0x3ca465ed	0.020068133
149	0x3cb96882	0.022632841
150	0x3e5f3b39	0.21799935
151	0xbd91346f	-0.07090079
152	0x3f8d7cb1	1.1053678
153	0x3f2d6e45	0.6774638
154	0x3e3fcd3c	0.18730634
155	0xbeb8b869	-0.36078194
156	0x3dbabf89	0.09118564
157	0xbeb9e62c	-0.3630842
158	0xbf57a75c	-0.84239745
159	0x3db04e1f	0.086086504
160	0x3e81e4ce	0.25369877
161	0xbc8d8fa8	-0.017280415
162	0x3db538a5	0.08848695
163	0xbf1a7c77	-0.6034617
164	0x3e754d64	0.23955303
165	0xbf0169ef	-0.50552267
166	0xbd080ee9	-0.033217344
167	0x3f462d3c	0.7741277
168	0xbeaa06f7	-0.3320844
169	0x3f30e9ed	0.6910694
170	0x3d9ae8c2	0.07563926
171	0x3e9b1def	0.30296275
172	0xbcdf5797	-0.027263446
173	0x3f1e0dd4	0.6173985
174	0xbe2b5271	-0.16730668
175	0xbf2d5ca5	-0.6771949
176	0xbf8c7bba	-1.0975258
177	0x3eeb24e9	0.45926598
178	0xbf207fe0	-0.6269512
179	0xbe083327	-0.13300763
180	0x3ac05e23	0.0014676492
181	0x3f0c7fb3	0.54882354
182	0xbf0b0278	-0.5430064
183	0x3dc94363	0.09827306
184	0x3a613a93	0.0008591797
185	0xbcd7c79f	-0.026340304
186	0x3e8c76fa	0.27434522
187	0x3d68d47e	0.056843273
188	0x3d0d56ee	0.03450673
189	0xbe403dfb	-0.18773644
190	0x3dbc82ed	0.092046596
191	0x3dc6e7ae	0.09712158
192	0x3ef66ffa	0.48132306
193	0x3d71f047	0.059067037
194	0x3f5db1f7	0.8659968
195	0x3f162bf7	0.58660835
196	0xbefff910	-0.49994707
197	0x3f1ba506	0.6079868
198	0xbec9c64c	-0.394091
199	0x3ecf7ea8	0.4052632
200	0xbd1e9132	-0.038712688
201	0x3f7c85ec	0.9864185
202	0x3f0dded1	0.55418116
203	0x3eb823d6	0.3596484
204	0x3e960e70	0.2930789
205	0xbddc0d1b	-0.10744687
206	0xbf88f63a	-1.0700142
207	0x3d4a3aef	0.04937261
208	0xbe81a5c8	-0.25321794
209	0x3d7e7d8b	0.062131446
210	0x3e52c688	0.20583546
211	0x3f58c9fd	0.8468321
212	0x3d845216	0.06460969
213	0x3e43afaa	0.1910998
214	0x3c3afcb5	0.011412789
215	0x3e5c12ad	0.21491499
216	0xbfbf9c9b	-1.4969667
217	0xbf299792	-0.662469
218	0x3eb68181	0.3564568
219	0x3f6f7671	0.935401
220	0xbe5de3f7	-0.21668993
221	0x3f2d07ed	0.6759022
222	0x3f831ff3	1.0244125
223	0xbed6af1d	-0.41930476
224	0xbf19d376	-0.6008829
225	0xbefafc64	-0.49020684
226	0xbf061034	-0.52368474
227	0xbc837754	-0.016048111
228	0x3eb949ee	0.36189216
229	0x3e612bc4	0.21989352
230	0xbe85f124	-0.26160538
231	0xbe8f095a	-0.27936822
232	0x3f534ce2	0.8253919
233	0xbea19fb8	-0.31567168
234	0x3e689df2	0.22716501
235	0xbf4dfec5	-0.8046687
236	0x3e70fce0	0.23533964
237	0xbe2ec726	-0.17068157
238	0x3e19c48d	0.15016384
239	0x3f6ab98b	0.91689366
240	0x3f4c40dd	0.79786474
241	0xbf493872	-0.78601754
242	0x3e4c4982	0.19949916
243	0x3e1926d5	0.1495622
244	0x3e696108	0.2279092
245	0xbe231821	-0.15927173
246	0x3f506870	0.8140936
247	0x3d683743	0.056693327
248	0xbe1a5c33	-0.15074234
249	0x3f29c0a6	0.66309583
250	0xbf20ae3d	-0.62765867
251	0x3e55dbb4	0.20884591
252	0xbec36c95	-0.3816878
253	0x3f60e13f	0.878437
254	0x3e756cd6	0.23967299
255	0xbecb0a32	-0.39656216

bias f4 [64]
0	0xbe08838e	-0.13331434
1	0x3e4bc84b	0.19900624
2	0x3e9be2b1	0.3044639
3	0xbeccb11b	-0.3997887
4	0x3d27221c	0.040804014
5	0x3d80a4f2	0.06281461
6	0x3e7a3703	0.24435048
7	0x3f0cbe82	0.5497819
8	0xbe0f591e	-0.1399884
9	0xbe4a8954	-0.19778949
10	0xbcb4c747	-0.02206768
11	0x3e1db3d8	0.15400636
12	0x3de209b7	0.11037009
13	0xbcd75961	-0.026287736
14	0x3f024ed0	0.5090151
15	0xbe2e790b	-0.17038362
16	0xbec82894	-0.3909346
17	0x3ed9fcbd	0.42575637
18	0x3e79c742	0.24392417
19	0x3cd277b3	0.025691843
20	0x3e467162	0.1937919
21	0x3e279334	0.16364747
22	0xbe329596	-0.17439875
23	0xbdcf28fe	-0.101152405
24	0xbe3eaf66	-0.18621597
25	0xbee5b842	-0.4486714
26	0xbe5316fc	-0.20614237
27	0xbdeb6df3	-0.114955805
28	0xbf05cec9	-0.52268654
29	0xbd747194	-0.05967863
30	0xbe0c4473	-0.13697986
31	0xbdfed5ef	-0.12443148
32	0x3dadbc1a	0.08483143
33	0xbd59c369	-0.053164873
34	0x3ebcee79	0.3690069
35	0x3c0f0e96	0.008731505
36	0xbd799a61	-0.060938243
37	0x3e768711	0.24074961
38	0xbd92fada	-0.071767524
39	0xbf04a4cc	-0.5181396
40	0x3edaaf04	0.4271165
41	0xbd12009b	-0.03564511
42	0x3dbff6cc	0.09373245
43	0x3eccd8dc	0.400092
44	0x3e066d9b	0.13127749
45	0x3e808d7c	0.25107944
46	0xbe97f3a8	-0.29678082
47	0xbe19055c	-0.1494345
48	0x3d902632	0.07038535
49	0xbf0ecde4	-0.55782914
50	0x3e2a72d1	0.16645361
51	0xbdb3e5d4	-0.087840706
52	0x3e189c65	0.1490341
53	0x3dbabf01	0.09118462
54	0xbf13ff92	-0.57811844
55	0x3c8d4ebc	0.017249458
56	0xbe98aa10	-0.29817247
57	0x3df070c5	0.11740259
58	0x3e69e742	0.22842124
59	0xbd92aaec	-0.07161507
60	0xbda2be95	-0.07946507
61	0x3d4870ce	0.048935704
62	0x3e10a100	0.14123917
63	0xbdc29aaa	-0.09502156

weight f4 [1, 64]
0	0xbf98d08e	-1.1938646
1	0x3f9a39ed	1.2048928
2	0x3f94adfa	1.1615593
3	0xbfae3b88	-1.3611917
4	0xbf8696af	-1.0514735
5	0x3f927aa5	1.1443678
6	0x3f7b29e7	0.9811081
7	0xbfba65eb	-1.4562353
8	0xbfba5f74	-1.456038
9	0xbf92c708	-1.146699
10	0xbf8df4b3	-1.1090301
11	0x3fb04747	1.3771752
12	0x3f9944f6	1.197417
13	0xbf9cd2a9	-1.2251788
14	0x3fd331c6	1.6499565
15	0xbfad5605	-1.3541876
16	0xbf7ecd1f	-0.9953174
17	0x3f985515	1.1900965
18	0x3fbca401	1.473755
19	0xbffacfb7	-1.959464
20	0xbf7f10c6	-0.9963497
21	0x3fa9f739	1.3278571
22	0xbfa24800	-1.2678223
23	0x3f92acd8	1.1458998
24	0xbf96b2dc	-1.1773334
25	0x3fa489b1	1.285452
26	0xbfc0656e	-1.5030954
27	0xbfd1ad51	-1.6381017
28	0x3f9c1f73	1.2197098
29	0x3f94e5d9	1.1632644
30	0xbf8987aa	-1.0744526
31	0xbf7f73be	-0.99785984
32	0x3fac4751	1.3459264
33	0xbfa4ccfa	-1.2875054
34	0x3fba9fdd	1.4580036
35	0x3f873452	1.0562842
36	0x3f8d09d8	1.1018629
37	0x3fb7e5df	1.4367026
38	0x3f9829f9	1.1887809
39	0xbfccaa2c	-1.5989432
40	0xbfa95283	-1.3228306
41	0xbfa178da	-1.2615006
42	0xbf8fa41f	-1.1221961
43	0x3fa973c4	1.3238454
44	0x3f80d289	1.006425
45	0x3f9e639e	1.2374151
46	0xbfb0dcd3	-1.381739
47	0xbf8bd30b	-1.092378
48	0x3f8980e5	1.074246
49	0x3fb4f5bb	1.4137491
50	0x3faf5db2	1.3700469
51	0xbfbd13af	-1.4771632
52	0x3f9d3fdb	1.2285112
53	0xbf7b41c2	-0.98147213
54	0xbf8b8c6c	-1.0902228
55	0x3fb980a0	1.4492378
56	0xbfdb2660	-1.7121086
57	0xbf9726c3	-1.1808704
58	0x3fb61692	1.4225638
59	0xbf996ae0	-1.1985741
60	0xbfa4ac70	-1.2865124
61	0x3f85dabe	1.045738
62	0x3fb97ca8	1.4491167
63	0x3f81f78d	1.0153672
