data/1008CartPole-v0_dqn_double/1008CartPole-v0_dqn_double_s10/pyt_save/model.pt (torch, 72599 bytes, 6 tensors)

weight f4 [128, 4]
000000 24 6f a8 3e 08 98 eb bd a6 da a4 be ed 57 2e 3e
       0.32897294 -0.11503607 -0.32198066 0.17025729
000010 a8 1c 13 bd 85 6f 34 be ed ed 4e be 08 55 82 be
       -0.035916 -0.17620666 -0.20207949 -0.254555
000020 f0 96 e7 3e 0b a9 cc 3d 5b 4f 9f 3d bf 4e 1c bd
       0.45232344 0.0999318 0.07778808 -0.038161036
000030 4c f9 5f be b6 60 3f 3d 7b 1d f5 be d1 4b 94 bd
       -0.21872443 0.04672309 -0.47874054 -0.07241023
000040 2e bd 1d bf 38 2e a3 bd 9e 8d 55 bf 0b e2 68 bd
       -0.6161679 -0.079678 -0.83419216 -0.056856196
000050 7a 7e 84 be 05 49 37 3e 44 29 e7 be a6 b4 d1 3d
       -0.25877744 0.17898948 -0.4514867 0.10239534
000060 83 51 24 bf b8 b6 9f be 0d cd 50 bf a2 09 51 be
       -0.64186877 -0.3119409 -0.8156288 -0.20413831
000070 71 18 17 be 05 10 fb be 36 b7 4a bf 9f fb d1 be
       -0.14755417 -0.4903566 -0.7918581 -0.41012284
000080 d4 61 08 bf fa 77 25 be df 13 b5 be ca 3f b6 bd
       -0.53274274 -0.16159049 -0.35366723 -0.088988855
000090 45 85 b1 be db fa ec be 53 40 30 bd 37 eb 81 be
       -0.3467199 -0.46285138 -0.043030094 -0.25374767
0000a0 71 8f f7 bd 23 ad a4 3e 88 17 c1 be 5b ff c7 3e
       -0.12087906 0.32163343 -0.37713265 0.39062008
0000b0 1c 71 b7 3e bf 42 ca be cb d7 02 be 79 59 61 be
       0.35828483 -0.39504048 -0.12777631 -0.22006787
0000c0 56 95 e5 bd ee b6 9d 3e c0 8e 6f bd 08 07 12 3e
       -0.11210124 0.30803627 -0.058485746 0.14260495
0000d0 fa 90 c3 be db 3a 11 3e 8b 72 01 3e 73 fd 84 bd
       -0.38196546 0.14182608 0.12641351 -0.06493654
0000e0 f9 80 ca be 52 ea 5f be c7 ad f0 bf 0f 9e ac be
       -0.39551523 -0.2186673 -1.8803033 -0.3371434
0000f0 3e 62 cb 3e 85 50 90 be b9 91 73 be 1e 9d 83 be
       0.3972339 -0.28186432 -0.23786058 -0.25705808
000100 2c 9a 91 3e c4 f7 9e bd ec 72 53 3d 0b 87 c5 3d
       0.28437936 -0.07762101 0.05162327 0.09644898
000110 47 ac f0 be 0a 99 1a be 9e e3 57 bf d0 ed e6 bd
       -0.47006437 -0.15097442 -0.8433169 -0.11275828
000120 b5 4b 3f bf ab 19 0e bf ad 6d 1e bf bb cc b7 be
       -0.74724895 -0.55507916 -0.618861 -0.35898384
000130 f8 14 f8 bd 02 75 5b be 5e b4 ea bd e2 5f c0 3e
       -0.121133745 -0.21431354 -0.114601836 0.37573153
000140 6e 83 40 3e b3 08 4a 3e fa be 6d 3f b5 40 28 3e
       0.18800136 0.19729881 0.9286953 0.16430934
000150 cc 3a 93 3e ff 80 20 3e 0a e1 99 3e 56 97 98 bd
       0.28755796 0.15674208 0.30054504 -0.0745074
000160 ad d9 32 bf 94 ed e6 be 93 da 92 be 76 14 85 be
       -0.69863397 -0.45103133 -0.28682384 -0.25992173
000170 69 47 26 3f 94 9b 67 3e 6a fa a8 be a4 a0 af 3d
       0.64952713 0.22617942 -0.3300355 0.08575562
000180 18 38 70 3e 85 6d 81 be eb f0 9f be 66 52 10 3d
       0.23458898 -0.2527887 -0.31238493 0.03523483
000190 00 5e c7 3d 90 bf 3f bd f6 3b 8a 3e 90 d0 68 3d
       0.09734726 -0.046813548 0.26998872 0.056839526
0001a0 c1 bd db 3e 41 4f 82 be 48 1b 34 be 4f 25 6d 3e
       0.42918208 -0.2545109 -0.17588532 0.23158763
0001b0 b3 40 94 be 48 12 a1 be 1c 4b 2e 3d 79 02 59 bd
       -0.28955612 -0.3145926 0.0425521 -0.052980874
0001c0 87 11 77 bd 64 ad 84 3e c2 02 ce be 3d 96 2d 3e
       -0.06031945 0.25913537 -0.4023648 0.16951843
0001d0 25 80 9e bd 00 06 68 3d 05 c2 15 bf 7d 91 1c be
       -0.077392854 0.056646347 -0.58499175 -0.15289874
0001e0 2f 8a ad 3d 93 b8 80 be 0f 38 c3 3e a6 9b 66 bd
       0.08473622 -0.2514082 0.38128707 -0.05630078
0001f0 6f 0a 95 be d4 f1 89 3e 37 79 a3 3e 4d e9 26 3e
       -0.29109523 0.26942313 0.31928417 0.16299935
000200 c9 62 0a 3e e2 07 88 3e ea b0 38 be d7 bf cf bd
       0.13514246 0.26568514 -0.18036237 -0.101440124
000210 1a d4 ed be 99 82 59 be d5 73 e8 3d ec 95 39 be
       -0.46450883 -0.21241225 0.11350218 -0.18123597
000220 da 76 48 3e 8b a8 8c 3d 2b 77 91 3e 78 57 ea 3b
       0.19576588 0.068680845 0.2841123 0.0071515404
000230 99 72 af be a6 bf 61 bd cc 6a 81 3f df 05 a7 3e
       -0.3426712 -0.05511441 1.0110717 0.32621667
000240 ae 8b 05 3c ea c5 83 bd 0d 47 a2 3e e1 64 8c be
       0.008150978 -0.064342335 0.31694832 -0.27420714
000250 e1 c6 05 bf 0b 0b 9f 3e fb ca 94 3e 3c e5 82 3e
       -0.5225659 0.31063113 0.29061112 0.25565517
000260 79 8f 85 be bc 6e cf be 4c 7d a7 bf 69 f9 e3 be
       -0.26086023 -0.4051417 -1.3085113 -0.44526222
000270 a8 88 3f 3e 20 0f 14 bd 6a 08 79 3e e7 d6 60 be
       0.18704474 -0.036147237 0.24319616 -0.21956979
000280 02 10 0f bf 06 4b a4 be 78 8b 9e bf ff ed 56 be
       -0.558838 -0.32088488 -1.2386312 -0.20989226
000290 c7 7d 01 3d 46 fd 3a 3e 35 d7 0c bf 7c 40 63 3e
       0.03161409 0.18260679 -0.5501588 0.22192568
0002a0 5f e9 6f 3e 85 08 9d 3e 74 9e 95 3e 71 46 98 3e
       0.23428868 0.30670562 0.29222453 0.29741243
0002b0 33 1b 83 3d 3b 53 3d be 17 d7 fe be 6c 3d aa 3d
       0.06401672 -0.18488781 -0.49773476 0.083124965
0002c0 c1 0b 04 3f b0 39 4a bd 15 52 a7 be e4 91 20 be
       0.51580435 -0.04937142 -0.3267981 -0.15680653
0002d0 fe b3 1a be 3b de 96 bd 45 39 ef 3e f3 99 97 be
       -0.15107724 -0.07366606 0.4672338 -0.2960964
0002e0 c3 2e a4 3e bd 02 9f be 19 6e 87 bd c2 fe 77 bd
       0.32066926 -0.31056777 -0.06612796 -0.06054569
0002f0 6b 07 20 3e 6a da 1b 3e 69 5a 9f bd af 83 64 3e
       0.1562783 0.15220037 -0.07780916 0.22315858
000300 39 27 5a be bb 36 d2 3e 15 db 1f 3f 46 f7 bd 3e
       -0.21304025 0.4105738 0.6244367 0.37102717
000310 dd 88 9b 3d 75 ac 17 be 3f c1 58 be 3e a2 1b be
       0.07594464 -0.14811881 -0.21167468 -0.15198609
000320 b4 3f c0 3e 83 eb cd 3d 4f 8d b5 3e 42 cb 90 3e
       0.37548602 0.10054686 0.35459372 0.28280073
000330 d2 95 b7 be 10 a9 d0 3e df b4 1c 3e 57 a6 31 3e
       -0.3585649 0.40753984 0.15303372 0.1734861
000340 d3 b4 18 bd 55 ff 97 3e aa 06 2b be 31 b5 3d 3d
       -0.037281822 0.2968699 -0.16701761 0.046315376
000350 ad 16 28 bf 9c 2a 0a bf 18 29 d3 bf 52 16 eb be
       -0.656596 -0.53971267 -1.6496916 -0.45915467
000360 56 50 2b bc 4d bc a0 3e 52 71 8f be d1 0d a2 3c
       -0.010456165 0.31393662 -0.28016144 0.019781979
000370 20 4c 35 3e 7e 4f d7 3d 62 2e 97 bd c4 e8 24 bd
       0.1770482 0.10513209 -0.07381894 -0.040261045
000380 90 e7 b6 be d4 5f 2b bc 9c 8f 8c 3e 24 0b 8e be
       -0.35723543 -0.010459859 0.27453315 -0.27742875
000390 80 9f 5d be 9e 39 ed be da ac bb bf fd 19 05 bf
       -0.21642876 -0.4633302 -1.4662125 -0.5199278
0003a0 bd cf 11 3f 86 ea d1 bb 28 c3 f8 3d ae ad a9 3d
       0.5695761 -0.006406131 0.12146598 0.0828508
0003b0 ea 22 32 3e ab 59 b1 3e a1 15 ce be 84 40 5a 3d
       0.17396131 0.34638724 -0.40250877 0.053284183
0003c0 f2 c2 c6 be 6f ff 3b 3e eb 64 10 40 ca 8b ad 3e
       -0.38820606 0.18359159 2.2561595 0.33895713
0003d0 40 5f ed be f5 01 0f bf 30 0e b0 bf e3 89 d5 be
       -0.46361732 -0.5586236 -1.375433 -0.41706762
0003e0 bf e6 94 3e ad 93 06 3e ac e3 96 3f cd b5 8b 3e
       0.29082295 0.13142271 1.178823 0.2728714
0003f0 9e 58 18 3f 01 8e 1e be 87 c3 a4 bd 50 57 42 be
       0.5951022 -0.15483858 -0.080451064 -0.1897862

bias f4 [128]
000000 88 2d 22 3f e9 76 26 3f cd 2f fa 3e 9f f4 2e 3f
       0.63350725 0.6502519 0.48864594 0.6834201
000010 dc 22 c4 be 55 8d 85 be 7a c0 5f 3d 6a f4 d3 be
       -0.38307846 -0.2608439 0.05462692 -0.4139741
000020 43 1f cd be eb b0 b8 3e 2c 38 17 3f 30 cf ea 3e
       -0.40062913 0.36072478 0.59070086 0.45861197
000030 71 84 13 3f da 6e 17 bf 26 07 a8 be 6d 85 70 3e
       0.57623965 -0.5915352 -0.32817954 0.23488398
000040 0d b8 12 3f 4d d7 9d be a3 bb b0 be 3d 36 09 3f
       0.5731209 -0.30828324 -0.34518155 0.53598386
000050 f5 89 03 bf c6 f8 21 3f 6c 6a 20 3f 71 a4 9f be
       -0.5138238 0.63270223 0.62662387 -0.31180146
000060 96 9e 09 bf 8e ad 9a be 6a e1 f0 be 55 bf 2d 3f
       -0.5375761 -0.30210537 -0.47046977 0.67870075
000070 ad a0 e2 be 9b 2c 08 bf 11 39 1b 3f 58 51 8a 3e
       -0.4426321 -0.5319306 0.6063395 0.27015185
000080 bb 8a 32 3f 28 d7 20 3f ac ea 86 bd 41 b2 40 bf
       0.69742936 0.628283 -0.06587729 -0.75271994
000090 b1 47 fb 3e 20 3b c8 3e f1 37 7c be 66 3e eb 3e
       0.49078134 0.3910761 -0.24630715 0.45946044
0000a0 b5 fd 81 be 9d 27 03 bf 9b 7e 23 be 5d 2d 32 3f
       -0.25388876 -0.5123232 -0.15966265 0.6960047
0000b0 c3 31 f9 be ef 30 21 3f 0a ae ff 3e 00 28 db 3e
       -0.48670778 0.6296529 0.4993747 0.42803955
0000c0 ed 38 fb be 43 4d bc be 61 a7 16 bf c1 99 37 3f
       -0.49066868 -0.36777696 -0.5884915 0.71718985
0000d0 76 99 28 3f 0e e7 8e be 30 29 38 3f ad 84 cd be
       0.6585916 -0.27910656 0.7193785 -0.40140286
0000e0 84 8d 37 3f e2 3f e3 be f7 4f ef be f0 99 01 bf
       0.7170031 -0.44384676 -0.46740696 -0.50625515
0000f0 b4 4c 03 bf 6c cf 6b bd 7b 83 92 be 2d 98 34 be
       -0.51288915 -0.05757086 -0.28615937 -0.17636175
000100 75 d6 fe be c5 43 06 bf 63 97 1a bd ac 94 0a 3f
       -0.49772993 -0.5244716 -0.03774203 0.54133105
000110 26 88 19 3f 8d a9 cc 3e 76 2b c5 3e a3 42 da 3e
       0.5997337 0.39973107 0.3850972 0.42628965
000120 df 56 a7 3d b3 b7 af be 72 7d 04 bf f9 a7 dc 3e
       0.08170866 -0.3431984 -0.51753914 0.43096903
000130 45 2a 06 3f df 01 f1 be 24 16 ea be 5a d5 c4 bd
       0.5240825 -0.4707174 -0.45720017 -0.09611006
000140 f4 fd 29 3f 8e dc f7 be 06 f7 c0 be 44 7b f2 be
       0.66403127 -0.48410457 -0.37688464 -0.4735967
000150 1c 6c 27 3f 5e 63 29 3f fd f1 ec be 63 ce e5 be
       0.65399337 0.6616725 -0.46278372 -0.44884023
000160 cc 25 d8 be a8 93 82 be 65 fd be 3e 47 1c 30 be
       -0.42216337 -0.25503278 0.373027 -0.17198287
000170 ff 0d ab 3e f9 c5 10 3f c1 6e c1 3c 45 33 d1 3e
       0.33409116 0.5655208 0.023612382 0.40859428
000180 a4 1a b0 be d5 de 70 3e fb 9d 40 3f e8 57 a9 3e
       -0.34395325 0.23522504 0.7524106 0.3307488
000190 ff bc 1a 3f f6 56 69 3e 8c f1 9b be 7a 32 51 bd
       0.60444635 0.22787079 -0.30457723 -0.05107353
0001a0 1b 46 e5 3e 4a 9c f1 be 3a a3 ef be ef e7 88 3e
       0.4478005 -0.47189552 -0.4680422 0.2673945
0001b0 fb 38 a4 be a5 38 cf be fd b1 29 bf 83 2d 12 bf
       -0.32074723 -0.40472904 -0.66287214 -0.57100695
0001c0 94 72 04 bf 15 9a d1 3e ba 7a da be e9 15 f9 be
       -0.5173733 0.40937868 -0.42671758 -0.4864953
0001d0 64 58 f6 3e 81 fd 83 3e 7c 21 b9 3e e2 83 83 3e
       0.48114312 0.25779346 0.3615836 0.25686556
0001e0 09 47 95 be b3 aa e9 3e 3f c0 7e 3e b6 5d 1c bf
       -0.29155758 0.45638046 0.24878024 -0.6108049
0001f0 21 79 13 bf 24 33 fb 3e 6d 97 fa be bf 9d f4 be
       -0.57606703 0.49062455 -0.48943654 -0.477766

weight f4 [128, 128]
000000 15 1a 2d bd f2 d6 4c 3d 24 35 86 bc ef 4f 85 3d
       -0.042261202 0.050009675 -0.016382761 0.06509387
000010 01 08 5c bd f6 1a 0a bd 4a db 77 bd d8 7e bf bc
       -0.05371857 -0.03371712 -0.060511865 -0.023375914
000020 47 55 a4 3d 9a bb 16 bd e0 05 9b 3c 10 84 77 3c
       0.08024078 -0.036800005 0.0189237 0.01510717
000030 30 c1 73 bc 18 6c fa 3c cc b1 9a bc ea 38 aa bd
       -0.014877602 0.030569121 -0.018883608 -0.08311637
000040 0b 33 44 bd 79 51 84 3d c8 d0 ab bd 80 0e 8e bd
       -0.04790024 0.06460852 -0.08389431 -0.069363594
000050 2c 0e f2 bc 88 96 95 bc 11 b8 68 bd de bd 4a 3d
       -0.029547773 -0.018260255 -0.056816164 0.049497478
000060 c7 b1 ac 3d 00 c8 17 bc 86 1c 5c 3d 19 ab 50 bd
       0.08432346 -0.009263992 0.05373814 -0.05094442
000070 6e f1 df bc 67 64 9d bd 20 56 63 bc 80 4a 7a 3b
       -0.027336802 -0.07685166 -0.013875514 0.0038191378
000080 fd 04 96 3d e4 00 eb bc 28 06 c3 3c e1 1d a0 bd
       0.0732517 -0.028686948 0.023806646 -0.07818199
000090 28 59 d7 bc ae 19 34 3d d8 18 7c bc 2b e9 a8 3d
       -0.02628763 0.043969803 -0.015386783 0.08247598
0000a0 3e 7e 0d bd 9a 9b a2 bd cf fb 9d 3d 4c 6c 5b bd
       -0.034544222 -0.07939835 0.07714044 -0.053570077
0000b0 71 7e a0 3d d8 08 9e bd e0 53 c5 3b 48 8b 65 3c
       0.07836617 -0.077165306 0.0060219616 0.014010258
0000c0 f8 dd 7a bc 69 51 82 3d b4 c4 b2 3c 40 cf dc 3a
       -0.015311711 0.06363184 0.021822311 0.0016846433
0000d0 48 c7 53 3c e0 4c a6 3b b6 da 84 bd f6 06 6d 3d
       0.01292593 0.005075082 -0.06487028 0.057867967
0000e0 70 d4 4d 3c b4 aa 9a bd c4 04 88 bd ac bb 8b bd
       0.012562856 -0.0755209 -0.06641534 -0.06822905
0000f0 a3 91 a3 bd 82 ce 19 3d 74 10 72 bd 5a 01 51 3d
       -0.079867624 0.037550457 -0.059097722 0.05102668
000100 14 b4 9b bd 18 d9 e0 3c 6a 9e 80 bd 54 66 bd 3c
       -0.076027066 0.027447268 -0.06280215 0.023120083
000110 70 ef b3 bd 3a 2f ae bd e5 98 08 bd 54 51 11 3d
       -0.087859035 -0.085051015 -0.033348937 0.03547795
000120 38 23 74 3c 90 b6 98 3c 32 e1 1d bd 0a 5d 30 3d
       0.014900975 0.01864174 -0.03854484 0.04305748
000130 45 09 ac 3d fb a4 30 bd e2 55 88 bd d1 23 44 bd
       0.084002055 -0.043126088 -0.06657006 -0.04788572
000140 82 8a 0f 3d 95 14 33 bd f5 17 5e bd 4b 2e 4e bd
       0.0350442 -0.0437208 -0.054222066 -0.050337117
000150 bb 18 83 3d 17 74 8a 3d d4 cb 10 3d f9 c6 96 3d
       0.06401201 0.06760424 0.035350636 0.0736217
000160 12 0e a1 bd b3 25 b2 3d a0 3c e9 bc cf 78 97 3d
       -0.07864012 0.08698597 -0.028471291 0.07396089
000170 f0 3d 5b bd 78 b2 ec 3c 00 72 61 3b d4 01 1f bd
       -0.053525865 0.028893694 0.0034400225 -0.038820103
000180 64 29 11 3d 24 4d 5b bd 4a 72 2e bd 00 f7 4b ba
       0.035439864 -0.053540364 -0.042589463 -0.00077806413
000190 cd fb 5a bd e0 6f 22 3b e8 13 88 bc d0 fd 62 bc
       -0.053462792 0.002478592 -0.016611055 -0.013854459
0001a0 80 39 36 bc 38 90 92 bc 1f 5b 92 3d a2 b5 14 3d
       -0.0111221075 -0.017891034 0.07146286 0.03630603
0001b0 de c4 7b 3d d8 d1 7b bd a4 13 d0 bc 31 b7 87 3d
       0.061467044 -0.06147942 -0.02539999 0.06626738
0001c0 94 3d 98 bc 4e 67 ec bc 72 03 5c 3d 43 d9 89 3d
       -0.01858405 -0.028857853 0.053714223 0.067308925
0001d0 39 bb aa 3d a0 27 93 3b fa e9 36 3d a2 c7 31 3d
       0.08336491 0.0044908077 0.04465673 0.043403275
0001e0 5c 29 21 bd 60 0c 17 bd 05 15 a1 bd 7e 14 73 3d
       -0.039346084 -0.036877036 -0.07865337 0.059345715
0001f0 ba 36 5a 3d a8 df 85 3c ad 26 51 bd 60 27 0f 3d
       0.053274848 0.016342 -0.051062275 0.03494966
000200 88 35 9d 3e 89 3c b7 3e ff 09 18 3e 18 99 a5 3e
       0.30704904 0.35788372 0.14847563 0.32343364
000210 17 46 ed 3d eb fb bd bd a3 be 47 3e b0 fb 14 3e
       0.11585634 -0.09276565 0.19506316 0.14549136
000220 cc a2 d9 bd 22 e5 8c 3e 9e 59 a2 3e 76 47 a1 3e
       -0.10626754 0.27518564 0.31708997 0.31499833
000230 d0 90 50 3e 81 8e 43 3d 67 f8 c4 3d 61 f3 25 3e
       0.20367742 0.047743324 0.096176915 0.16206123
000240 ec d8 27 3e 28 6a 33 3e 60 96 97 bd a3 3a 63 3e
       0.16391343 0.17520964 -0.07401729 0.22190337
000250 d7 b3 5d bf 22 21 88 3e 2a 0e a1 3e 16 6d 04 be
       -0.8660254 0.26587778 0.3145612 -0.12932238
000260 55 18 8b bd 5e 67 26 3d e4 e1 88 bd 28 35 5f 3e
       -0.0679175 0.040625922 -0.0668371 0.21797621
000270 93 e5 d8 bb f2 ef 11 3d 76 23 9d 3e c3 df 24 3e
       -0.0066191643 0.03562922 0.30691117 0.16100983
000280 66 b4 38 3e 9f bc 97 3e 26 04 74 3c c8 1f b5 be
       0.18037567 0.29636094 0.014893567 -0.3537581
000290 b6 df 31 3e 73 45 a4 3e a2 7a 64 3d 4c 3e 6b 3e
       0.17370495 0.32084236 0.055781014 0.22972983
0002a0 3d cd 56 3d 17 8f 57 3d 30 d3 f3 bb fc 47 9c 3e
       0.052441824 0.052626695 -0.007440947 0.3052367
0002b0 2a f4 16 bf cd 66 86 3e e9 bc a1 3e 59 db 89 3e
       -0.58966315 0.26250306 0.3158944 0.2692516
0002c0 01 61 17 bf f0 b3 99 3b f4 12 b2 be 65 db b0 3e
       -0.5913239 0.0046906397 -0.34780085 0.34542385
0002d0 dd 66 38 3e c5 9e 18 bd 56 fb 7b 3e d4 8c f7 be
       0.18007989 -0.03726079 0.24607596 -0.4834963
0002e0 29 ba 9a 3e 30 53 2e bf 04 92 84 be 9e 18 4d be
       0.30220154 -0.68095684 -0.2589265 -0.20028922
0002f0 0e 9d 7e bf a5 70 62 3e 2b 9d aa 3c 71 82 b0 be
       -0.99458396 0.22113283 0.020826897 -0.3447452
000300 78 e8 84 be 52 92 0f be b9 81 1e bd bf 68 99 3e
       -0.2595861 -0.1402066 -0.038697932 0.29962727
000310 41 af 26 3e 3b 84 05 3e d1 61 48 3e b9 b6 47 3e
       0.16277792 0.13038723 0.19568564 0.19503297
000320 ab d6 0c 3e 71 77 ca bf 54 51 0f bd c6 31 9a 3e
       0.13753764 -1.5817701 -0.03498967 0.301161
000330 42 5e 69 3e ba a8 26 bf 9d a1 8f 3e 37 89 24 be
       0.22789863 -0.65101206 0.2805299 -0.16067968
000340 07 42 94 3e bc 88 4f be dd 26 4f bf b1 7d bc bd
       0.28956625 -0.20267004 -0.80918676 -0.09203661
000350 5e c6 2c 3e 7c 2c 93 3e c9 dc a5 bf c8 ef f1 be
       0.16872546 0.28744876 -1.2958003 -0.4725325
000360 ef b1 83 bd 61 be 44 3e cf aa 4e 3e 13 93 56 bd
       -0.064304225 0.19213249 0.20182346 -0.052386355
000370 14 c0 16 3d 5d 34 8e 3e 06 30 42 3d 69 f7 9f 3e
       0.036804274 0.27774325 0.04740908 0.31243446
000380 12 43 1b bf 20 ef 4a 3e af b8 80 3e 2d ae 0c 3e
       -0.60649216 0.19817781 0.25140902 0.13738318
000390 59 0e 33 3e 9b 51 ed 3d da 84 15 be b0 ac 40 be
       0.17485942 0.11587831 -0.1460146 -0.18815875
0003a0 64 78 83 3e 67 6c de be 58 26 54 bf 69 b9 6f 3e
       0.25677788 -0.4344208 -0.8287101 0.23410572
0003b0 1b 6c 25 bd f3 32 77 bf ee 3a 48 be a5 d2 70 be
       -0.0403863 -0.9656212 -0.1955373 -0.23517855
0003c0 67 c6 9b bf 51 a9 6e 3e 86 a6 09 bb c0 f1 c3 3c
       -1.2169923 0.23306777 -0.0021003797 0.023918986
0003d0 17 f5 5f 3e 24 d7 e1 3d f3 ab 55 3e 79 c4 5b 3e
       0.21870838 0.11027363 0.20866375 0.21461667
0003e0 5b ce 60 3e f1 65 27 3e d2 e6 31 3d 49 e0 0a be
       0.21953718 0.16347481 0.043433018 -0.1356212
0003f0 bf db 25 be 0e d5 16 3e 4c e6 49 be 9e ca b0 bd
       -0.16197108 0.14729711 -0.19716758 -0.08632396

bias f4 [128]
000000 fc 87 86 bd 7f cd 8e 3e 0c 4c dc 3c 99 67 ae bd
       -0.06568906 0.27891156 0.02689173 -0.085158534
000010 9c 0e 3c bd 21 db 75 bd e4 b8 39 3b 37 7f 67 3e
       -0.04591237 -0.06002343 0.0028338963 0.22607122
000020 00 34 0e bb df d0 6a 3e 9d 4b 8d bd ed 3b 0f 3e
       -0.0021698475 0.2293124 -0.06899188 0.13987704
000030 fc 39 8d 3e 70 b8 82 bc 6f 43 8c 3e 6e a8 de bd
       0.275833 -0.015957087 0.27395198 -0.10871969
000040 3f 59 84 3e 90 8e 8d bd 57 6f 74 bc e1 47 7d bd
       0.2584934 -0.06911957 -0.014919124 -0.061836127
000050 a8 7c 8c 3e f4 d9 5a 3e 0d 0f 11 bd 79 7e 5b bd
       0.27438855 0.21372205 -0.035414744 -0.05358741
000060 6c c8 5c bd fe 72 4e 3e df be 6a 3e 1f 16 82 3e
       -0.053902075 0.20161054 0.22924374 0.25407502
000070 cf a3 8b 3e 88 2c 16 be bb 12 af 3e af a0 81 3e
       0.27273414 -0.14665425 0.34193978 0.25317904
000080 49 d3 06 3d 54 84 85 3e a8 fa 1c 3d 63 c7 5a 3e
       0.03291634 0.2607752 0.038324982 0.21365122
000090 72 e5 34 bd ec 33 79 3d 5e de 9d 3e 8d ff 81 3b
       -0.04416413 0.060840532 0.30833715 0.0039672316
0000a0 43 97 84 bd d1 cd a5 3e 9d 9a 65 3e ac 15 4f 3e
       -0.064741634 0.32383588 0.22422262 0.20223111
0000b0 be de 5c 3e 41 21 5c 3e 69 01 92 3e b0 ea d0 3b
       0.21569344 0.2149706 0.285167 0.006375633
0000c0 e4 3e a8 3e bd e3 97 3e b6 e6 12 3d 82 f1 ad 3e
       0.32860482 0.29665938 0.035864554 0.33973318
0000d0 8c 7f 20 bd 2d 84 36 3e aa 73 7d 3e 7e 05 a1 bd
       -0.03918414 0.17823859 0.24751154 -0.07862376
0000e0 9a 6d 2b 3d 93 93 6b 3e 51 23 9d 3e 6a 98 8c 3d
       0.04185257 0.23005514 0.30691007 0.06865008
0000f0 50 30 87 3e fc 22 6f 3e fa 2f 00 be 2e e3 d6 bd
       0.26404047 0.23353189 -0.12518302 -0.1049255
000100 00 e7 84 bc ac f8 a7 3e a4 b2 82 bd 17 16 88 3e
       -0.01622343 0.3280691 -0.06381729 0.26579353
000110 1f b2 cd bd d0 e0 ae bd ed f3 3c bd 80 95 ba 3c
       -0.100437395 -0.08538973 -0.046131063 0.022776365
000120 3d d8 c9 bd 2b 0c 99 3d 7e 8f a5 3e 2b 1b e7 bc
       -0.09855697 0.07473024 0.32336038 -0.028211197
000130 42 61 6e 3e 1d 89 84 3e d4 e1 48 3e 15 2a 8d 3e
       0.23279288 0.2588586 0.19617397 0.2757117
000140 17 29 82 bd a1 59 5b 3e 7b 3c 6d 3d 91 c4 34 3e
       -0.063554935 0.2142091 0.057919007 0.17653109
000150 6f f1 4d 3c 16 f5 64 bd 49 78 28 bb cb ab a9 3d
       0.012569769 -0.055897795 -0.0025706461 0.0828472
000160 7e f1 8a 3e bf 64 59 3e 78 92 68 bd b3 b9 62 bd
       0.2713737 0.21229838 -0.05678031 -0.055352878
000170 c7 35 ec bd 49 c4 7b 3e 97 f8 ae bd 05 62 e7 bd
       -0.11533695 0.24586596 -0.085435085 -0.112979926
000180 cf ea 35 bd e7 a6 7f bc c9 ba 80 3d ac d1 58 bd
       -0.044413384 -0.015603757 0.062856264 -0.052934334
000190 1f 6e a4 bd 4b a7 a3 3e ad de b8 3e 0a 80 54 bd
       -0.080288164 0.31963572 0.36107388 -0.05187992
0001a0 ab 26 72 3e 14 09 47 3d 93 5d a5 3e af 0e 8e 3e
       0.23647563 0.048592642 0.32297954 0.27745578
0001b0 e6 fc 03 bd 0b ee 77 3d 8d 29 8c bd 70 20 8a bb
       -0.032223605 0.06052975 -0.06843863 -0.0042152926
0001c0 2b f8 48 3e 41 25 82 3e 4b 5a ba bd 41 30 8d 3e
       0.19625919 0.25419047 -0.09099253 0.27575877
0001d0 8e 5f ab 3e 9f 55 89 3e c2 a6 03 be f6 9c a6 3e
       0.3347134 0.26823136 -0.12856582 0.32541627
0001e0 0a 5a 89 3d 5d 89 6e bc 78 84 e0 bc b1 70 c0 3e
       0.06706627 -0.014559117 -0.027406916 0.37585977
0001f0 e8 2c a7 bd ef 32 ac bc fa c3 31 3d 69 d9 af 3e
       -0.08162862 -0.02102038 0.04339979 0.34345558

weight f4 [2, 128]
000000 78 1a 84 3c 02 b0 ac 3e 06 dd 17 bd a1 f6 51 bd
       0.016125903 0.33728033 -0.03707602 -0.051260594
000010 f6 9d 83 3b 72 b8 70 bd 62 6f 0b bd 13 3b a2 3e
       0.004016633 -0.05876965 -0.03404177 0.31685695
000020 d1 f7 2b 3b d6 32 3a 3e e1 c4 7e 3d f1 c2 9d bd
       0.002624024 0.18183455 0.062199477 -0.07703198
000030 fb bc 92 3e 5c 94 1d 3c ad 01 3b 3e 40 20 ee 3c
       0.28659806 0.009617891 0.18262358 0.029068112
000040 3e f2 a6 3e 91 d1 4c bd fe 75 00 3b 82 04 ff 3c
       0.3260669 -0.050004546 0.0019601579 0.03113008
000050 73 27 b3 3e a8 05 b2 3e b3 b1 ab 3d b3 e6 37 3b
       0.34991035 0.3476994 0.08383503 0.0028061091
000060 ff 39 6c bd 01 1f 6d 3e a8 9d 3c 3e 68 4d a3 3e
       -0.057672497 0.23156358 0.18419516 0.31894994
000070 38 02 a2 3e 8b 82 76 3e 1d 16 87 3e 7e f6 bd 3e
       0.31642318 0.24073236 0.2638406 0.3710212
000080 eb 14 8a bc ec c6 a7 3e ae 21 df 3c db 4e b9 3e
       -0.016855678 0.32768953 0.02723774 0.36192974
000090 c8 2c 8a bd 59 8f 4e bd e8 c3 68 3e 1d f4 5d bc
       -0.067468226 -0.050429676 0.22730982 -0.013546971
0000a0 c6 1f 3b 3d 5c 88 9c 3e af ce 80 3e e3 85 a1 3e
       0.0456846 0.30572784 0.25157687 0.3154746
0000b0 72 0d 62 3e 4b 95 97 3e 61 f3 57 3e df c0 2a bd
       0.22075441 0.2960609 0.21088935 -0.041687842
0000c0 ca 28 b2 3e 04 75 9b 3e 89 58 80 bc d6 d4 89 3e
       0.34796745 0.30362713 -0.015667217 0.26920193
0000d0 9a 7a 5c 3d 29 c6 8d 3e 32 3f 9f 3e 79 03 90 bc
       0.05382786 0.27690247 0.31102902 -0.01757978
0000e0 43 bc 10 3d ae 74 67 3e ca 3e 7e 3e 65 65 96 bd
       0.03533579 0.22603104 0.2482864 -0.07343558
0000f0 f4 5d 7b 3e 5e 0d b9 3e c1 5c bf bc ab 4a 89 3d
       0.24547559 0.3614301 -0.023359658 0.06703695
000100 af 6c 6e bd 78 fc 45 3e a0 65 a8 bb 09 85 94 3e
       -0.058209118 0.1933459 -0.005139068 0.29007748
000110 80 55 d7 bd b7 dd a0 bd c0 43 b3 3c cc bf 83 bc
       -0.10514355 -0.07854789 0.021882892 -0.016082667
000120 c4 08 d8 bb 33 61 d6 bc 4d ae a9 3e 9c b8 24 3d
       -0.006592842 -0.026169395 0.33140793 0.04021512
000130 32 b4 97 3e 53 89 a0 3e c7 36 a2 3e 16 32 84 3e
       0.29629666 0.3135477 0.31682417 0.25819463
000140 5b 0b 91 3c a9 4f b0 3e 1b 9d 61 bd c7 52 57 3e
       0.01770561 0.34435776 -0.055081468 0.21027671
000150 5e 0a 07 3d 93 37 a1 3d 22 6b 13 bd 2c 49 95 bc
       0.03296887 0.07871928 -0.03599084 -0.018223368
000160 09 d5 a7 3e ec e8 a9 3e 12 cd 2b bd ab f7 ad bc
       0.3277972 0.33185518 -0.041943617 -0.021236261
000170 0b 41 5e be ca e9 94 3e 4f ed 58 3c 87 ab 12 bd
       -0.217045 0.29084617 0.0132401725 -0.035808112
000180 48 dc 7b 3c a4 b0 66 3c 80 be d9 bc 9a f7 97 bd
       0.015372343 0.0140802 -0.026580095 -0.07420273
000190 8e b4 0b bd 63 9f a8 3e 07 24 be 3e 58 01 5d 3b
       -0.034107737 0.32934102 0.37136862 0.0033722725
0001a0 b6 8f 85 3e 53 18 83 3c 06 54 89 3e 2b 18 8b 3e
       0.26086205 0.01600281 0.26821917 0.27166876
0001b0 30 bf b0 3b 99 8c 9a bc 61 1d b7 3c 6b 1c ad 3d
       0.005393885 -0.01886587 0.022352876 0.08452686
0001c0 c1 db 91 3e fb aa a2 3e d7 9b 40 bd 7c 75 a9 3e
       0.2848797 0.31771073 -0.04702362 0.33097446
0001d0 15 0d 9e 3e c0 33 82 3e 08 ae ce bc 5a 93 62 3e
       0.30869356 0.25430107 -0.025229469 0.22126523
0001e0 7e b6 23 bb e5 d2 4b 3c e9 2c 84 bc 74 15 a5 3e
       -0.00249806 0.012440418 -0.016134696 0.3224293
0001f0 1a a1 ad bc 2d 36 4e bc 0c 7b a2 bd 0f 20 b5 3e
       -0.021194983 -0.012586159 -0.079336256 0.3537602
000200 28 0f 8f bc 32 cf b1 3e f8 06 2d bd a0 d9 cc bc
       -0.017463282 0.3472839 -0.042242974 -0.025006115
000210 c9 3c 76 bd 39 9d 5b bd 91 6c 0a 3c c1 15 9a 3e
       -0.060116563 -0.053616736 0.008448736 0.30094722
000220 6b 1b c8 bc c0 4a b5 3e d0 79 62 bd d8 0c a4 3e
       -0.024427136 0.35408592 -0.05529195 0.3204105
000230 3c 67 95 3e 98 56 c8 3b 2b f1 b2 3e 0c 84 02 3d
       0.29180324 0.0061138384 0.34949622 0.03186421
000240 9e 24 b3 3e aa ca 2d bd 3f f0 25 3d dc a5 51 bd
       0.34988874 -0.042429604 0.04051232 -0.051183566
000250 13 e4 1a 3e 70 cc a3 3e b1 4b 37 3c 20 da c2 bc
       0.15126066 0.3199191 0.01118748 -0.02378565
000260 00 d1 28 bd 5e 9f 95 3e a2 da ae 3e 9c 8e 4b 3e
       -0.041214943 0.2922315 0.3415118 0.1987862
000270 f1 90 99 3e 75 5a cd be c5 23 a5 3e b2 27 8b 3e
       0.29993394 -0.40108076 0.32253852 0.27178723
000280 c2 87 9b bd 1e 2b a6 3e e2 8c fd bc 16 8a 7f 3e
       -0.07594253 0.3245477 -0.030950967 0.2495502
000290 e8 69 da 3c bf a8 80 bd 61 be b5 3e 7b 4b c2 bc
       0.026661828 -0.06282186 0.3549681 -0.023717633
0002a0 de 2d 59 3d 33 3b 64 3e 95 a1 a4 3e 9b 4c 9a 3e
       0.053022258 0.22288208 0.32154527 0.3013657
0002b0 4c 45 ab 3e 7e 16 8b 3e e7 0a a4 3e a7 43 96 3c
       0.33451307 0.27165598 0.32039568 0.018342806
0002c0 7f ea 49 3e 11 c1 89 3e 8a 6a 87 bd 14 77 9e 3e
       0.1971836 0.2690511 -0.066121176 0.30950224
0002d0 31 b6 84 bd 8e 63 87 3e b7 b8 6c 3e 21 79 8e bd
       -0.06480063 0.26443142 0.23117338 -0.06956697
0002e0 66 3b 74 bd ad e9 a5 3e 42 30 90 3e fb ec 93 bd
       -0.05962696 0.32404843 0.28161818 -0.07222935
0002f0 5c a5 af 3e e6 33 81 3e f8 2d 2e 3d 8d 62 47 3c
       0.34305847 0.25234908 0.042524308 0.012169492
000300 ce 25 3f 3d 1e f0 a1 3e 71 9f 28 bd d3 94 43 3e
       0.046666913 0.31628507 -0.04116768 0.1909974
000310 02 09 fc 3d da 82 89 be 85 4d 68 bb 6d 55 92 3d
       0.123064056 -0.26857644 -0.0035446596 0.071452
000320 4f 13 26 3d aa aa 7f bd 72 e2 a5 3e 85 ed c5 bb
       0.040545758 -0.062418617 0.32399327 -0.0060402774
000330 67 5d 9b 3e 74 d8 9f 3e a0 7d 9f 3d db e7 90 3e
       0.30344698 0.31219828 0.07787633 0.28301892
000340 42 39 08 bd 45 33 97 3e 3a 2a 67 bd f4 9a 9a 3e
       -0.03325773 0.29531303 -0.056436755 0.30196345
000350 43 b9 7c bd 50 16 82 bd 14 49 24 3d 80 af db 3c
       -0.061700117 -0.06351912 0.040108755 0.026817083
000360 c6 2a 9d 3e 78 15 61 3e e0 18 2c bb 89 d0 80 bc
       0.30696696 0.21980846 -0.0026259944 -0.015724437
000370 e7 14 1b 3d f8 0b 9e 3e 08 56 3d bd 63 f8 6d 3c
       0.03786173 0.30868506 -0.046224624 0.014524552
000380 ed 00 54 bd e7 12 94 bd 44 29 36 ba c8 bd 8c bc
       -0.051758695 -0.07230168 -0.0006948898 -0.017180339
000390 e0 d4 94 3c 67 dd 69 3e 7a d2 73 3e 6e fb 85 ba
       0.018167913 0.22838365 0.23810759 -0.0010222027
0003a0 4e 38 9f 3e 84 46 94 b9 2f fd a2 3e ef 13 94 3e
       0.31097645 -0.00028281298 0.3183379 0.28921458
0003b0 30 15 c6 bb 17 b8 78 3c cd 65 48 bd c3 90 96 bd
       -0.006045006 0.015180609 -0.04892521 -0.0735183
0003c0 0c 70 67 3e fd cd 88 3e 76 7d 6d bd c7 91 a5 3e
       0.22601336 0.26719657 -0.057980977 0.32337782
0003d0 aa ad af 3e e5 3d a6 3e 45 fd 04 bc dc 19 bb 3e
       0.34312183 0.32469097 -0.008117025 0.36543167
0003e0 7c 76 e3 3c 56 87 6f bd 86 51 6e bd 47 1b ad 3e
       0.027766459 -0.058478676 -0.058183216 0.33809873
0003f0 3f af 3f 3c 30 71 28 3d c7 86 9a bd 42 c3 77 3e
       0.011699497 0.04112357 -0.07545238 0.24195579

bias f4 [2]
000000 de ea bc 3e 61 4b 8e 3e
       0.3689794 0.27791885
