data/1008CartPole-v0_dqn_dueling_double/1008CartPole-v0_dqn_dueling_double_s20/pyt_save/model.pt (torch, 140807 bytes, 9 tensors)

weight f4 [128, 4]
0	0xbe8da9a1	-0.2766848
1	0xbea95bce	-0.33077854
2	0xbf8c2de5	-1.0951506
3	0xbea52289	-0.3225291
4	0x3d0092d7	0.031390037
5	0xbee3deaf	-0.44505832
6	0xbf8b7979	-1.0896446
7	0xbefe29b7	-0.496412
8	0x3ec05d86	0.37571353
9	0xbea42a6f	-0.32063624
10	0xbe57f1e0	-0.21088362
11	0xbe9edf3a	-0.31029683
12	0x3f3887ba	0.720821
13	0xbc14dd50	-0.009085968
14	0xbf0160b6	-0.50538194
15	0x3ea3b4a1	0.31973746
16	0x3ee94ce5	0.45566478
17	0x3e377090	0.17914033
18	0xbd8deb4d	-0.06929646
19	0x3db1dff7	0.08685296
20	0x3f3f79b9	0.7479511
21	0xbdf25932	-0.11833419
22	0x3da51c83	0.08062079
23	0xbdb88184	-0.09009078
24	0x3ed1cc7a	0.40976316
25	0xbe760967	-0.24027024
26	0xbf279b8a	-0.6547171
27	0xbe5679be	-0.20944878
28	0x3ee5dbf1	0.44894364
29	0xbd57b8e2	-0.052666552
30	0x3e85fb3d	0.26168242
31	0xbdbee0d2	-0.09320225
32	0xbe60e567	-0.2196251
33	0xbe922fd5	-0.28552118
34	0x3e813693	0.2523695
35	0x3b8f3294	0.004370043
36	0xbda52885	-0.08064369
37	0x3e5b46eb	0.21413772
38	0xbe03a918	-0.12857473
39	0x3e9404be	0.28909868
40	0xbf2df5e5	-0.6795333
41	0xbefa98be	-0.48944658
42	0xbeedab07	-0.46419546
43	0xbe83ea55	-0.2576472
44	0xbf36d315	-0.71415836
45	0x3e11b9cc	0.14231032
46	0x3ef2b380	0.47402573
47	0x3e334dff	0.17510222
48	0xbe69f739	-0.22848214
49	0x3eb2c8c1	0.34918788
50	0x3f0095f7	0.5022883
51	0x3ec7f836	0.39056557
52	0xbf4fa2b8	-0.81107664
53	0xbe8333ba	-0.25625402
54	0x3f0ff555	0.5623372
55	0xbd295d8c	-0.04134898
56	0xbe0c611f	-0.13708924
57	0xbef48f3c	-0.4776553
58	0xbf5a0bff	-0.85174555
59	0xbec81213	-0.3907629
60	0x3e72c585	0.2370816
61	0xbe416516	-0.18886217
62	0xbec7988c	-0.38983572
63	0x3e1aefd3	0.15130548
64	0xbd2ef6f0	-0.042715967
65	0x3e035528	0.12825453
66	0x3ea27382	0.3172875
67	0xbd122980	-0.03568411
68	0xbeb4d758	-0.35320544
69	0xbe44c050	-0.19213986
70	0xbf216c8f	-0.6305627
71	0xbdbbb596	-0.09165494
72	0xbf1e15b5	-0.6175187
73	0xbe2cd596	-0.16878352
74	0x3f3e0c24	0.74237275
75	0xbd08d26e	-0.033403806
76	0x3cdd8298	0.027039811
77	0x3ebeee9a	0.37291414
78	0xbec1a860	-0.37823772
79	0x3e645b77	0.22300516
80	0xbeeaae69	-0.4583619
81	0x3ea0426e	0.31300682
82	0xbe08f710	-0.13375497
83	0x3d72b217	0.05925187
84	0x3da06dbf	0.078334324
85	0xbdf2105a	-0.11819525
86	0x3fbf5b61	1.4949762
87	0x3e09a937	0.13443457
88	0x3e602aa6	0.21891269
89	0x3ecf7d1c	0.40525138
90	0x3dbed6c6	0.093183085
91	0x3e5548fb	0.20828621
92	0xbed91991	-0.42402318
93	0xbeb8f4b8	-0.36124206
94	0xbf9ee3ea	-1.2413304
95	0xbee54e3c	-0.4478625
96	0x3e3c788c	0.1840536
97	0xbe9fadeb	-0.31187376
98	0xbe6f4b5c	-0.23368591
99	0xbead4466	-0.33841246
100	0x3e210bee	0.15727207
101	0x3f0d7023	0.5524923
102	0x3f912860	1.1340446
103	0x3ee6c8f3	0.45075187
104	0xbec218ee	-0.37909645
105	0xbe18fd66	-0.14940414
106	0x3e7d2968	0.24722826
107	0xbdf036bc	-0.1172919
108	0x3dc0a5ca	0.09406622
109	0x3dda46a0	0.10658002
110	0xbf05b20b	-0.52224797
111	0xbca35920	-0.019939959
112	0xbe10575c	-0.14095825
113	0xbe5775ca	-0.21041027
114	0xbcdd09b3	-0.026982164
115	0xbeaf7497	-0.34268638
116	0x3ec06007	0.37573263
117	0xbe96062d	-0.29301587
118	0xbf6cb86c	-0.92468905
119	0x3cedad6f	0.029013364
120	0xbade3ff2	-0.0016956313
121	0xbded079f	-0.11573719
122	0x3b95ed19	0.0045753834
123	0xbcd22f5b	-0.025657346
124	0x3eba86b0	0.36430883
125	0xbe397199	-0.1810974
126	0xbfaf2989	-1.368455
127	0xbecac471	-0.39602998
128	0x3e8897e2	0.26678377
129	0xbe868f81	-0.2628136
130	0x3f113647	0.56723446
131	0xbe494084	-0.19653517
132	0xbf114e14	-0.5675976
133	0xbf03a8eb	-0.51429623
134	0xbf5d53b0	-0.8645582
135	0xbec645c5	-0.38725105
136	0xbf2c4604	-0.67294335
137	0xbd6e903d	-0.058243025
138	0xbf51c198	-0.81936026
139	0xbdac1919	-0.084032245
140	0x3e0ee2f4	0.13953763
141	0xbd3665db	-0.04453073
142	0xbd9eca87	-0.07753473
143	0x3d6d2c94	0.05790384
144	0x3e3cd41b	0.18440287
145	0x3eb7d5c4	0.35905278
146	0x3e41bb75	0.18919165
147	0x3ea1ce32	0.31602627
148	0xbe9708e8	-0.29498982
149	0xbf3ca030	-0.73681927
150	0xbf4080a6	-0.751963
151	0xbeef5b00	-0.46749115
152	0x3ee73553	0.4515787
153	0xbda68596	-0.08130948
154	0xbf4d31b8	-0.8015399
155	0xbdc38994	-0.09547725
156	0x3f12d1f2	0.573516
157	0x3e872a7d	0.26399603
158	0xbe30eaa3	-0.17277007
159	0x3e2670cd	0.16253968
160	0x3e9bde6b	0.3044313
161	0xbe669bea	-0.22520414
162	0x3fa4ebc3	1.2884449
163	0x3e12e4bb	0.14345066
164	0x3f0bcaba	0.5460621
165	0xbec82e3f	-0.39097783
166	0xbf0a6420	-0.5405903
167	0xbe9d86c5	-0.30766883
168	0x3e9bcecd	0.30431214
169	0x3f077bb5	0.52923137
170	0x3e9facb1	0.3118644
171	0x3d8d4b8e	0.068991765
172	0x3f005a10	0.50137424
173	0x3ed27b72	0.41109806
174	0x3e21cef4	0.15801603
175	0x3e7d3c72	0.2473009
176	0x3e81fdf9	0.25389078
177	0xbe8fb22b	-0.2806562
178	0xbf862518	-1.048007
179	0xbedfa2ba	-0.43678838
180	0xbe9fc6bc	-0.3120631
181	0xbd80020f	-0.06250393
182	0x3e12e0be	0.14343545
183	0xbeccc03b	-0.3999041
184	0xbf28e7f7	-0.6597895
185	0x3d4c86be	0.049933188
186	0xbd824456	-0.0636069
187	0x3cc40722	0.023929182
188	0xbe9f3f3e	-0.31102937
189	0x3e9b8ce0	0.30380917
190	0x3e368d76	0.178274
191	0xbd207b73	-0.03918023
192	0x3f5986ef	0.8497152
193	0xbd993079	-0.074799486
194	0x3e9cbd54	0.30613196
195	0xbe4c32b3	-0.19941215
196	0xbf1f152d	-0.62141687
197	0xbe6e9f05	-0.23302849
198	0xbe505ef0	-0.20348716
199	0xbeaeb51d	-0.34122553
200	0x3e92053c	0.2851962
201	0xbc8990ca	-0.016792674
202	0x3f544faf	0.8293409
203	0x3e015f90	0.1263411
204	0xbf139af3	-0.5765831
205	0xbd911f58	-0.070860565
206	0x3f26f62c	0.6521938
207	0x3b6deb74	0.003630367
208	0xbedab8b1	-0.42719033
209	0xbe84ef14	-0.25963652
210	0x3d09e45e	0.033665054
211	0xbe0e278c	-0.13882273
212	0x3e399634	0.18123704
213	0x3b87f280	0.0041487813
214	0xbe99913c	-0.29993618
215	0xbcebae40	-0.028769612
216	0xbea72466	-0.32644957
217	0xbe09bf33	-0.13451843
218	0x3e85c58a	0.26127273
219	0x3dcaf87b	0.09910675
220	0xbeb0f9e0	-0.3456564
221	0x3ed75234	0.42054904
222	0x3ed7f8d8	0.4218204
223	0x3ea7ee2f	0.32798907
224	0x3eaca9fb	0.33723435
225	0xba769366	-0.00094061194
226	0x3f80a839	1.0051337
227	0x3d92dd69	0.07171137
228	0x3ebaf7bf	0.3651714
229	0x3e1256f7	0.14290987
230	0xbf514ba0	-0.8175602
231	0x3cb049a5	0.021519491
232	0xbe8d1b50	-0.275599
233	0x3e75d1f2	0.24005869
234	0xbea37cfb	-0.3193129
235	0xbe0fb518	-0.14033926
236	0x3dfbae9e	0.12289165
237	0x3ed238fc	0.410591
238	0x3f543eff	0.82908624
239	0x3eaeb47c	0.34122074
240	0xbebbdad4	-0.3669039
241	0x3bcac0f5	0.006187553
242	0x3f27668c	0.6539085
243	0x3dbb551c	0.09147093
244	0x3ef92bfc	0.4866637
245	0x3ef7594c	0.48310316
246	0x3fa44f23	1.2836651
247	0x3ed624cd	0.41824952
248	0xba843d1f	-0.0010089016
249	0x3ea1ca69	0.3159974
250	0xbe98e88b	-0.29864916
251	0x3e35fb65	0.1777168
252	0xbdc3f1cb	-0.09567603
253	0xbec4f672	-0.38469273
254	0xbecc8baf	-0.3995032
255	0xbdc485aa	-0.09595807

bias f4 [128]
0	0xbe28071a	-0.16408959
1	0xbecf8fd5	-0.40539423
2	0xbee127d5	-0.43975702
3	0xbf11ebbc	-0.5700033
4	0x3ed376d2	0.4130159
5	0x3df7d8c8	0.121018946
6	0xbebf9bca	-0.37423545
7	0x3e808be1	0.2510672
8	0x3f14d5fb	0.5813901
9	0xbed46940	-0.4148655
10	0xbe92658a	-0.28593093
11	0xbee66704	-0.4500047
12	0x3f290ee0	0.6603832
13	0xbeafa4a3	-0.34305295
14	0x3e02359b	0.12715761
15	0xbf235569	-0.638022
16	0xbec50996	-0.38483876
17	0x3ed3befd	0.4135665
18	0xbe9f1728	-0.31072354
19	0x3f079abf	0.529705
20	0x3ef4f5ad	0.47843686
21	0xbf0ed8e1	-0.5579968
22	0xbe870530	-0.26371145
23	0xbb3ea0d2	-0.0029087556
24	0x3f1993dd	0.59991246
25	0xbe64da8c	-0.22348994
26	0x3ea63916	0.32465428
27	0xbf0af9e9	-0.5428758
28	0x3eb7efa9	0.35925034
29	0x3f149e02	0.580536
30	0x3ef9bd5e	0.48777288
31	0xbf0f75e3	-0.56039256
32	0x3dad1dbc	0.08452937
33	0xbdaf1fcf	-0.08550989
34	0xbc507341	-0.012722791
35	0x3f04be00	0.51852417
36	0x3ecfa210	0.4055333
37	0x3f0d9c1a	0.5531632
38	0xbec20c4b	-0.37900004
39	0xbe8b8ad8	-0.27254367
40	0xbf25d8a8	-0.64783716
41	0xbed7b023	-0.4212657
42	0xbc1227c6	-0.008920616
43	0xbe7f3962	-0.24924234
44	0xbf2d27a5	-0.6763862
45	0x3f1f0fa6	0.6213325
46	0xbe72e242	-0.23719123
47	0x3eee3997	0.46528313
48	0x3e940132	0.28907162
49	0x3f260fe6	0.6486801
50	0xbeedb019	-0.46423414
51	0xbe91ce64	-0.28477776
52	0x3f128dcb	0.5724761
53	0xbee7056a	-0.45121318
54	0x3f23aeb4	0.6393845
55	0x3e0beff8	0.1366576
56	0xbe216e94	-0.15764838
57	0x3ddca47f	0.10773563
58	0x3f323618	0.6961379
59	0xbdeca82c	-0.11555514
60	0xbf088c16	-0.53338754
61	0xbe0cb86f	-0.13742231
62	0x3ea76318	0.3269279
63	0x3f09ee57	0.538793
64	0x3ee2a993	0.4427
65	0xbefebb8d	-0.49752465
66	0x3e8bef00	0.2733078
67	0xbf08cbac	-0.5343578
68	0xbf14c115	-0.5810712
69	0xbee0f38f	-0.4393582
70	0xbdd92fee	-0.10604845
71	0x3ef2e770	0.47442198
72	0xbf38752e	-0.720538
73	0x3f1b158b	0.60579747
74	0x3f0d686f	0.5523748
75	0xbeedb834	-0.46429598
76	0xbea2dbbd	-0.31808272
77	0xbf00eb4f	-0.5035905
78	0xbf1c2a3b	-0.6100194
79	0xbeaba4d2	-0.33524185
80	0xbf1813d0	-0.5940523
81	0xbf256470	-0.6460638
82	0x3ea92977	0.33039448
83	0xbe8b9be8	-0.27267385
84	0xbf114391	-0.56743723
85	0xbe9195f5	-0.2843472
86	0xbe5d7247	-0.21625625
87	0x3e0bf176	0.13666329
88	0x3f0b4b17	0.54411453
89	0xbee17d92	-0.44041115
90	0x3e07a77f	0.13247488
91	0xbec196d5	-0.37810388
92	0xbf01e087	-0.50733227
93	0x3def144f	0.116737954
94	0xbecf8fef	-0.405395
95	0x3e52d122	0.2058759
96	0xbee13943	-0.43989
97	0x3f043a23	0.5165121
98	0x3e5a8402	0.2133942
99	0x3f2f748d	0.6853722
100	0x3efdf3bb	0.49600014
101	0xbea0fbac	-0.3144201
102	0xbe90ecf9	-0.28305796
103	0xbeccb86c	-0.39984453
104	0xbefac4f4	-0.48978388
105	0xbee57b77	-0.4482076
106	0xbea9a2dc	-0.33132064
107	0x3eb17602	0.34660345
108	0x3e785a7a	0.24253264
109	0xbf03d80b	-0.5150153
110	0x3eedfcea	0.4648202
111	0x3f0c861d	0.5489214
112	0xbea88d2b	-0.32920203
113	0x3f0fbfdf	0.5615215
114	0x3f2a748f	0.66584104
115	0x3e4a5cd4	0.19761974
116	0x3ee2c655	0.4429194
117	0x3dd8e54d	0.10590611
118	0x3dbdd80a	0.09269722
119	0x3ef737ce	0.48284763
120	0xbf2d3723	-0.67662257
121	0x3e7f5be6	0.249374
122	0x3f2f474a	0.68468153
123	0x3e770b77	0.24125467
124	0x3e9298dc	0.28632247
125	0x3f3d46b3	0.73936003
126	0x3ee5c1de	0.4487447
127	0x3f0b9ebf	0.545391

weight f4 [128, 128]
0	0xbcf72a7f	-0.03017163
1	0xbdfbeb64	-0.123007566
2	0x3d696614	0.056982115
3	0x3d5664dd	0.052342284
4	0xbd59b786	-0.053153537
5	0x3dc5453c	0.09632346
6	0x3d14d9da	0.036340572
7	0xbd587c9b	-0.052853208
8	0xbd2dc36d	-0.0424227
9	0xbae2c500	-0.0017301142
10	0xbd2c050d	-0.041997004
11	0xbd422738	-0.047400683
12	0xbd407d46	-0.04699447
13	0xbd6b5cfb	-0.05746172
14	0x3c1ff5ab	0.009763162
15	0x3baabd61	0.005210564
16	0xbd870494	-0.0659267
17	0xbccd58c2	-0.025066737
18	0x39e277b4	0.00043195265
19	0xbe09f9e9	-0.1347424
20	0xbcd4b859	-0.02596681
21	0x3cf17b82	0.029477838
22	0x3b7f419f	0.0038949025
23	0xbcd8d730	-0.026469797
24	0xbc9749c6	-0.018467795
25	0xbd6550a0	-0.055985093
26	0x3c119c51	0.008887366
27	0x3cc808a8	0.02441819
28	0x3cfb5bb7	0.030683381
29	0xbda0dd0a	-0.0785466
30	0x3c20079f	0.009767442
31	0x3c8937d6	0.016750257
32	0x3c32538c	0.010884177
33	0xbd77a945	-0.060464162
34	0x3d46c300	0.04852581
35	0x3d1d626d	0.038423944
36	0x3c1706ca	0.009217927
37	0xbdb55ca3	-0.0885556
38	0x3d602310	0.05472094
39	0x3d8495cb	0.06473883
40	0xbc88634c	-0.016648911
41	0x3d4b988f	0.049706038
42	0x3d44f55f	0.048085567
43	0xbd438bd8	-0.047740787
44	0x3a0cd7dc	0.0005372742
45	0xbd4d104f	-0.05006438
46	0xbc9b7439	-0.018976318
47	0xbe0d2eb1	-0.13787343
48	0xbb9eb73b	-0.00484362
49	0xbd8e2297	-0.06940191
50	0x3d9d6b5a	0.07686491
51	0xbdd9af5e	-0.10629152
52	0x3cd9f894	0.02660779
53	0x3d93880d	0.07203684
54	0x3bdf2f79	0.006811079
55	0x3b994aae	0.004678092
56	0x3af8c6c0	0.001898013
57	0xbe0da29d	-0.13831563
58	0xbde25234	-0.11050835
59	0xbdc8b565	-0.09800223
60	0xbca2660c	-0.01982405
61	0x3c9a36e7	0.018825008
62	0x3d7d73b8	0.061877936
63	0xbcaa6b3d	-0.020803088
64	0x3b936b10	0.004498847
65	0x3d957300	0.07297325
66	0xbe0c19d9	-0.13681735
67	0xbdb53896	-0.088486835
68	0xb9af5c28	-0.00033447263
69	0xbd1d9e73	-0.038481187
70	0xbd4a3469	-0.04936639
71	0x3ccf86f7	0.025332911
72	0x3ca4e7b5	0.020130018
73	0xbd638b38	-0.05555269
74	0x3c8885ad	0.016665304
75	0x3c22370b	0.009900819
76	0xbc881bf6	-0.016614895
77	0x3d8c04d9	0.06836862
78	0xbcec28f9	-0.028828131
79	0xbc320b18	-0.010866903
80	0x3986cbb8	0.00025710254
81	0xbd6071fa	-0.054796197
82	0xb987352d	-0.00025788826
83	0x3c811777	0.01575826
84	0xbd594c80	-0.05305147
85	0x3da18c32	0.07888068
86	0xbd1fd211	-0.039018694
87	0xbdf98557	-0.12183636
88	0xbda04e39	-0.0782742
89	0x3dc6937b	0.096960984
90	0x3b8e32bc	0.004339544
91	0xbbcef420	-0.006315723
92	0x3deaadc2	0.11458923
93	0x3d0d6827	0.034523156
94	0xbde8c6c6	-0.11366038
95	0x3ccc9467	0.024973108
96	0x3db4dfd9	0.08831758
97	0xbcea6b3b	-0.028615585
98	0x3d0fe74e	0.0351327
99	0x3c01b2e4	0.007916186
100	0xbd74b254	-0.05974038
101	0xbdb594c8	-0.088662684
102	0xbd7f7d77	-0.062375512
103	0x3c4b5bea	0.012412051
104	0xbcd17c00	-0.025571823
105	0xbb16f425	-0.0023033705
106	0xbdb79901	-0.0896473
107	0xbcdd15f8	-0.026988015
108	0xbd992b9c	-0.07479021
109	0x3d064d83	0.032788765
110	0xbd32aa68	-0.043619543
111	0x3ad9cdf6	0.0016617167
112	0xbd359a9b	-0.044336896
113	0xbd8701ae	-0.06592117
114	0x3b74e2eb	0.00373667
115	0xbd13167f	-0.035910126
116	0xbc33e147	-0.010979003
117	0xbdb9d0a5	-0.09072999
118	0xbdebb242	-0.11508609
119	0xbd39f331	-0.04539794
120	0x3d61efe3	0.055160414
121	0xbd801d0c	-0.0625554
122	0xbcaf680a	-0.021411914
123	0x3d413919	0.047173593
124	0xbd9ec5e2	-0.07752587
125	0x3bd416f1	0.0064724614
126	0xbd2ddb9a	-0.042445756
127	0xbcff8b55	-0.031194368
128	0x3c850e83	0.016242271
129	0xbda29e9e	-0.0794041
130	0x3bbacc57	0.0057006287
131	0xbbf7df0a	-0.00756443
132	0xbd001a06	-0.031274818
133	0x3bc51cec	0.0060154106
134	0x3c9152ec	0.017739736
135	0xbd3b353d	-0.04570507
136	0x3d6b9c28	0.05752197
137	0xbdccf2e2	-0.10007264
138	0xbc9d190e	-0.019176986
139	0x3c4d754e	0.012540175
140	0x3c6e9f10	0.014564291
141	0xbd3f3fbc	-0.04669164
142	0xbd9b2c6b	-0.075768314
143	0x3d45b71f	0.04827034
144	0x3dade24d	0.08490429
145	0xbc3d1333	-0.011540222
146	0x3d1dece1	0.038555983
147	0xbd33d624	-0.043905392
148	0x3ce04f46	0.02738155
149	0xbd984791	-0.07435525
150	0x3c8423fa	0.016130436
151	0xbd102356	-0.03518995
152	0xbc58ab30	-0.013224408
153	0x3cd07822	0.025447909
154	0x3d512e66	0.05106964
155	0xbdaf8c6d	-0.08571706
156	0x3c9acc94	0.018896379
157	0xbdd2d947	-0.102953486
158	0xbd745c77	-0.059658494
159	0xbdc80c5d	-0.09767983
160	0x3d54fc2e	0.05199831
161	0xbc8e2bf4	-0.017354943
162	0xbd5e3991	-0.05425412
163	0x3d77bccf	0.060482796
164	0xbcc94465	-0.024568746
165	0x3d482ba3	0.04886974
166	0xbc80d537	-0.015726669
167	0x3d3231f6	0.043504678
168	0xbd7aa7c3	-0.061195146
169	0x3d68887f	0.056770798
170	0xbc62690b	-0.0138189895
171	0xbce391d4	-0.027779497
172	0xbd3eca27	-0.046579506
173	0xbb8f801a	-0.0043792846
174	0x3a8b6bf1	0.0010637027
175	0xbcfb0bdb	-0.030645302
176	0x3c5f1f86	0.013618356
177	0xbd81cff1	-0.0633849
178	0xbc2cc3d8	-0.01054474
179	0x3c2c1dee	0.010505183
180	0x3d609c43	0.054836523
181	0x3d9a1ddf	0.07525229
182	0x3d74d31f	0.059771653
183	0xbce07ac5	-0.027402291
184	0x3d6b2ef6	0.057417832
185	0xbda6ca58	-0.08144063
186	0xbd4bf3ff	-0.04979324
187	0xbd59d068	-0.053177267
188	0xbcd82197	-0.026383204
189	0xbd1b5ece	-0.03793221
190	0x3c36b101	0.011150599
191	0xbdbafae0	-0.09129882
192	0xbcf79e20	-0.030226767
193	0xbdaab1ff	-0.08334731
194	0x3d8c783a	0.06858869
195	0xbd86b452	-0.06577362
196	0x3d92923f	0.071568005
197	0xbd9e421e	-0.077274546
198	0xbd398af3	-0.045298528
199	0xbc3221eb	-0.0108723445
200	0xbc9f4219	-0.019440698
201	0x3cfad4f3	0.03061912
202	0x3c9e5568	0.019327834
203	0xbcbf41d5	-0.02334682
204	0x3ced9a3b	0.029004207
205	0xbdb3f769	-0.08787424
206	0x3d5e5ded	0.054288793
207	0xbcdb0b56	-0.026738804
208	0x3d12df40	0.03585744
209	0x3b1ea212	0.0024205488
210	0xbc92db46	-0.017926823
211	0xbd8fd6e7	-0.07023411
212	0x3d633bbd	0.055476893
213	0x3d8c1e89	0.068417616
214	0x3d9c0205	0.07617573
215	0xbd1fd4fb	-0.039021473
216	0x3cf29a7f	0.029614685
217	0xbd276755	-0.04087003
218	0x3d5eb769	0.054374132
219	0xbcfb0fc1	-0.03064716
220	0x3daa1246	0.08304267
221	0x3b55a792	0.00326011
222	0xbd0bac69	-0.03409997
223	0x3c8fa84c	0.017536305
224	0xbce0d2ec	-0.027444325
225	0xbc4a080c	-0.01233102
226	0xbdb4e4c4	-0.08832696
227	0xbd6c0937	-0.057625975
228	0xbdc709af	-0.09718644
229	0xbc52bc7f	-0.012862324
230	0xbd151442	-0.036396272
231	0x3dac7be2	0.08422066
232	0x3baafff3	0.0052185
233	0x3d389c89	0.04507116
234	0xbdac62de	-0.08417295
235	0x3d54416f	0.051820215
236	0x3b532c82	0.0032222574
237	0x3d72e655	0.059301693
238	0xbd063a76	-0.032770596
239	0xbc7946e0	-0.015214652
240	0x3bc8f214	0.0061323736
241	0xbd1f71ec	-0.038927004
242	0xbd312742	-0.04325033
243	0xbd9bb659	-0.076031394
244	0xbd92f6b3	-0.071759604
245	0xbd67c510	-0.056584418
246	0x3d9dddb0	0.07708299
247	0xbdb6c579	-0.08924384
248	0x3c0bd77f	0.008535265
249	0x3b2b18ba	0.0026107267
250	0x3c8655a5	0.01639826
251	0x3d83923e	0.06424378
252	0x3d0fb2c9	0.035082612
253	0xbc4b8641	-0.012422145
254	0xbd52b006	-0.0514374
255	0xbc4030f0	-0.011730418

bias f4 [128]
0	0xbe0340d8	-0.12817705
1	0xbcff9dd4	-0.031203188
2	0xbad3cacb	-0.001615846
3	0xbdd5d1b1	-0.10440386
4	0xbd9f45dd	-0.07776997
5	0x3c96d7b1	0.018413397
6	0x3bac5180	0.005258739
7	0xbdb2fe14	-0.08739868
8	0xbd3ec7a1	-0.0465771
9	0xbd28749d	-0.041126836
10	0xbd35d61f	-0.044393655
11	0xbc4980ac	-0.012298744
12	0x3d7b30a9	0.061325703
13	0x3ddd978c	0.10819921
14	0xbdc22aa9	-0.09480793
15	0x3d01ce9f	0.03169119
16	0xbdeb37f8	-0.114852846
17	0x3c16fb6a	0.009215215
18	0xbdfcf177	-0.12350743
19	0xbdcbdd7e	-0.09954356
20	0xbd01706f	-0.031601366
21	0x3c9a58fb	0.018841257
22	0xbd0df00e	-0.034652762
23	0xbe001a67	-0.12510072
24	0xbd9fc2a1	-0.078007944
25	0xbd35ac87	-0.044353988
26	0xbc9522b9	-0.018205034
27	0xbce5a042	-0.028030518
28	0xbbba0d53	-0.005677858
29	0xbd5d2a81	-0.053995613
30	0xbd113187	-0.035447624
31	0xbdc6ee19	-0.09713382
32	0xbd6af0d9	-0.057358596
33	0x3d2e8cbc	0.042614684
34	0x3b11e100	0.0022259355
35	0xbd93dade	-0.0721948
36	0x3c597df8	0.013274662
37	0xbd7998b6	-0.060936652
38	0xbcb79de6	-0.022414159
39	0x3d90b186	0.0706511
40	0xbdddba4b	-0.10826548
41	0x3cb37d01	0.021910192
42	0xbd171e7a	-0.0368943
43	0x3d31fe1b	0.043455224
44	0xbd3d174c	-0.046164796
45	0xbd728ee7	-0.059218314
46	0x3dbe7b87	0.09300905
47	0x3c1eeee0	0.009700507
48	0x3e2de1b9	0.16980638
49	0xbcec1549	-0.028818743
50	0xbdcb1b89	-0.09917361
51	0xbda2eece	-0.07955705
52	0xbd2d8f80	-0.04237318
53	0x3d326b27	0.04355922
54	0x3c1863bc	0.009301122
55	0xbda92a0f	-0.08259975
56	0x3d661050	0.0561679
57	0xbd31ee73	-0.043440294
58	0xbbd1dd84	-0.0064045805
59	0xbd5505ec	-0.0520076
60	0xbdbdb62f	-0.092632644
61	0xbd036989	-0.032083068
62	0xbdd9245d	-0.10602639
63	0xbd938b50	-0.07204306
64	0xbdbf647e	-0.09345339
65	0xbd8106b7	-0.06300109
66	0xbdcbdebb	-0.09954592
67	0xbdccd397	-0.10001295
68	0xbd5aaa3b	-0.053385
69	0xbdad1c27	-0.08452635
70	0xbd668d80	-0.05628729
71	0x3c66d2fb	0.014088388
72	0x3e10463e	0.14089295
73	0xbd8c08f3	-0.068376444
74	0xbe0a0580	-0.1347866
75	0xbd55e7b8	-0.052222937
76	0xbc06886f	-0.008211239
77	0x3da3848c	0.07984266
78	0xbd2e0404	-0.0424843
79	0xbd4077b3	-0.046989154
80	0xbdbc9547	-0.0920816
81	0xbd49edfd	-0.04929923
82	0xbd3c0ea0	-0.045912385
83	0xbda4ee53	-0.08053269
84	0xbe0a3efc	-0.13500589
85	0x3e87ffdd	0.26562396
86	0xbe13385e	-0.14376971
87	0x3d232600	0.03983116
88	0xbc650e03	-0.013980391
89	0xbdee84fe	-0.1164646
90	0xbda942a2	-0.08264662
91	0x3d25a3b5	0.040439326
92	0xbe3266d2	-0.17422035
93	0xbd1b2f7b	-0.037887078
94	0xbbf39d66	-0.007434535
95	0xbdc8bd91	-0.09801782
96	0xbe537d43	-0.20653252
97	0x3c4df57d	0.012570736
98	0xbcbb3792	-0.022853646
99	0xbe0e51bc	-0.13898367
100	0x3cd35a34	0.025799848
101	0x3d74b6c5	0.059744615
102	0xbd28c022	-0.041198857
103	0xbd1ced3b	-0.038312178
104	0xbde56390	-0.11200631
105	0x3bbf6a63	0.0058415397
106	0xbd8dd81c	-0.06925985
107	0xbdafb8bc	-0.08580157
108	0x3ca94ccc	0.020666502
109	0x3d187730	0.03722304
110	0xbdbd6175	-0.09247104
111	0xbd5b3b4a	-0.05352334
112	0xbd1329a0	-0.03592837
113	0xbdea6244	-0.11444524
114	0xbd2dedbf	-0.04246306
115	0x3d7b35da	0.061330654
116	0xbce29eeb	-0.027663669
117	0x3d0fc6d2	0.03510172
118	0xbdedf21a	-0.11618443
119	0x3d483df1	0.048887197
120	0xbd3a2750	-0.045447648
121	0x3d8efbad	0.06981597
122	0x3cf2d397	0.02964191
123	0xbdaff629	-0.08591873
124	0xbc7e676a	-0.0155275855
125	0xbdbb9662	-0.091595426
126	0xbd81ab37	-0.06331485
127	0xbcc4d8e0	-0.024029195

weight f4 [2, 128]
0	0xbcd56172	-0.026047442
1	0xbd06b090	-0.032883227
2	0x3cd3ddc7	0.025862588
3	0x3dc730b5	0.09726087
4	0xbe44284f	-0.19156002
5	0x3d9d0773	0.076674365
6	0xbd47f5d0	-0.04881841
7	0xbd7642a0	-0.060122132
8	0x3d671957	0.05642065
9	0x3ce3b5f5	0.027796725
10	0x3d27cffc	0.040969834
11	0x3d346bb8	0.04404804
12	0xbd699568	-0.05702725
13	0xbee08fd8	-0.43859744
14	0x3d9e3530	0.077249885
15	0x3d5de252	0.054170914
16	0xbdecd0d2	-0.11563267
17	0xbd5f013e	-0.054444544
18	0x3e9eb35d	0.30996218
19	0xbe60eb99	-0.21964873
20	0xbd984654	-0.07435289
21	0x3b7673dd	0.003760568
22	0x3d26a7ee	0.040687494
23	0xbde5399d	-0.111926295
24	0x3d991c3f	0.07476091
25	0xbc82c644	-0.015963681
26	0xbeb63b9e	-0.3559236
27	0xbd48e258	-0.049043983
28	0xbda382c6	-0.079839274
29	0xbcf38790	-0.029727727
30	0xbd78771a	-0.06066046
31	0x3d8136ae	0.063092574
32	0x3ce28335	0.027650455
33	0xbd4098ed	-0.04702084
34	0xbd8e946c	-0.06961903
35	0x3db36f47	0.08761459
36	0xbb534f6d	-0.0032243386
37	0xbb9fb26e	-0.0048735654
38	0x3d3d98b2	0.0462882
39	0xbd690db4	-0.056897834
40	0xbb589d8f	-0.0033052897
41	0xbdaaf381	-0.08347226
42	0x3be2d3fa	0.006922242
43	0xbd818428	-0.06324035
44	0x3c8a3f0b	0.016875764
45	0xbb08893e	-0.0020833756
46	0xbe9912e8	-0.29897237
47	0x3d84f11c	0.064913005
48	0x3e8b83b6	0.27248925
49	0xb989b9c6	-0.00026269088
50	0x3e067857	0.13131844
51	0xbd534a96	-0.051584803
52	0x3d82654e	0.063669786
53	0xbd8b6b14	-0.06807533
54	0xbe919086	-0.28430575
55	0xbd5c9950	-0.053857148
56	0xbd06dcc7	-0.032925393
57	0x3cd5062a	0.026003916
58	0xbd18eb86	-0.037333988
59	0x3dd5fba9	0.10448391
60	0x3deea7b1	0.11653078
61	0xbcbd77b0	-0.02312836
62	0xbd28fd88	-0.04125741
63	0x3cd7964a	0.02631678
64	0xbe23d9a6	-0.16000995
65	0xbc6dda96	-0.014517447
66	0xbd625eee	-0.055266313
67	0xbde44d87	-0.111476
68	0xbd8cbea7	-0.068723015
69	0xbd238f7d	-0.039931763
70	0xbd06933e	-0.032855265
71	0xbce2dee3	-0.027694171
72	0xbed1b056	-0.40954846
73	0x3dfc07d9	0.12306184
74	0x3ee115e6	0.4396202
75	0x3c083390	0.008313075
76	0x3bc295d4	0.005938271
77	0x3e05e41f	0.13075303
78	0xbc499abc	-0.012304958
79	0xbc41f9ab	-0.011839311
80	0xbcebb920	-0.028774798
81	0x3d80e2f5	0.062932886
82	0x3c5ecfb6	0.013599327
83	0xbdd91919	-0.1060049
84	0xbcf79f3e	-0.0302273
85	0x3ea56e4c	0.32310712
86	0x3e8f5818	0.27996898
87	0x3c91fac1	0.017819764
88	0xbed4ac3a	-0.41537648
89	0x3d1bfe02	0.038084038
90	0xbd8c2e5e	-0.06844781
91	0x3bfb3244	0.0076659042
92	0x3d9dd7c5	0.077071704
93	0x3d1f4ef0	0.03889364
94	0xbe393642	-0.18087104
95	0x3dc336a0	0.09531903
96	0x3e2669b0	0.16251254
97	0xbc38b4ff	-0.011273622
98	0xbf5c8cab	-0.8615214
99	0x3e19211d	0.14954038
100	0xbd84ae44	-0.06478551
101	0x3c3e2b5d	0.011607018
102	0xbddd7ae6	-0.10814457
103	0xbcde1010	-0.027107269
104	0x3c66d97b	0.014089937
105	0xbe268bcf	-0.1626427
106	0xbe5cec1b	-0.21574442
107	0xbe2d79c4	-0.16940981
108	0x3d379847	0.044822957
109	0xbc07f840	-0.0082989335
110	0x3d28ce00	0.041212082
111	0xbcca0070	-0.024658412
112	0xbebd7e99	-0.3701065
113	0x3d11a9b7	0.035562243
114	0x3d381ca3	0.044949185
115	0xbdcfc78b	-0.10145482
116	0xbcc883c3	-0.024476891
117	0x3e8d510a	0.2760089
118	0x3cd26b9f	0.025686083
119	0x3d157843	0.036491644
120	0x3ceef0fb	0.029167643
121	0xbd668597	-0.056279745
122	0x3db45dd3	0.08806958
123	0x3db21a4b	0.08696421
124	0xbea92f8f	-0.33044097
125	0x3cd29df1	0.025710078
126	0xba1a5783	-0.0005887674
127	0xbd71ed8b	-0.05906443
128	0xbd2ced82	-0.042218693
129	0xbd058298	-0.032595247
130	0xbd3e8b1f	-0.046519395
131	0x3d56b54c	0.052418992
132	0x3e04fe5e	0.12987658
133	0xbd7938b4	-0.060845092
134	0x3d896b53	0.067099236
135	0xbdb2f65f	-0.08738398
136	0x3c9ad1f9	0.01889895
137	0x3c265800	0.010152817
138	0xbc730bec	-0.014834385
139	0xbbe9500e	-0.007120139
140	0xbbd0ec38	-0.0063758157
141	0x3ee19010	0.44055223
142	0x3c9b6486	0.018968832
143	0x3d224098	0.039612383
144	0x3dc509dc	0.09621021
145	0xbb9016d0	-0.0043972507
146	0xbecfa51b	-0.40555653
147	0x3e35319d	0.17694707
148	0xbd4c9893	-0.049950194
149	0x3b07edfd	0.0020741217
150	0x3d14ba6e	0.036310606
151	0x3b6f8aaa	0.0036551156
152	0xbd5e2105	-0.05423071
153	0xbd3b5587	-0.045735862
154	0x3ecbe5c3	0.39823732
155	0xbd601482	-0.054707058
156	0x3d03b769	0.032157335
157	0xbda9e820	-0.082962275
158	0xbcfdb6dc	-0.030970983
159	0x3d0d1e4f	0.034452733
160	0x3d1e418f	0.03863674
161	0xbd572ce5	-0.05253305
162	0x3cf57724	0.029964037
163	0xbdee9234	-0.1164898
164	0x3d50cc26	0.05097594
165	0x3c14fe30	0.009093806
166	0x3d5c9322	0.053851254
167	0xbcee9bd9	-0.029127048
168	0xbd2b449a	-0.04181347
169	0x3d160535	0.03662606
170	0x3c1b6e34	0.009486724
171	0xbd2c92b1	-0.042132083
172	0x3cfd4596	0.03091697
173	0xbd2d47d1	-0.042304818
174	0x3e883ec2	0.2661038
175	0xbd547758	-0.051871628
176	0xbe97a933	-0.29621276
177	0x3d0e180e	0.03469091
178	0xbe380f64	-0.17974621
179	0x3e55af03	0.20867543
180	0xbc85dc9e	-0.01634055
181	0xbd744337	-0.059634414
182	0x3ec11f85	0.3771936
183	0x3d153b64	0.036433592
184	0xbcd26353	-0.025682127
185	0x3d082571	0.033238832
186	0x3ba48b90	0.00502152
187	0xbd7c0fc7	-0.061538484
188	0xbe63bbc5	-0.22239597
189	0xbb54a03b	-0.0032444138
190	0x3cd3e826	0.025867533
191	0xbd0c8b68	-0.034312636
192	0x3e62184d	0.22079583
193	0xbd526971	-0.051370088
194	0xbd17c2f3	-0.037051152
195	0x3b7c487c	0.0038495352
196	0xbd8f2ef9	-0.06991381
197	0xbd0d3660	-0.034475684
198	0xbd47ebdf	-0.04880893
199	0x3d5e24f1	0.05423445
200	0x3ed8f40f	0.42373702
201	0xbdd3ccf1	-0.10341824
202	0xbec5f0a3	-0.38660154
203	0xbd49a430	-0.049228847
204	0x3d145b16	0.03621968
205	0xbe30d3fb	-0.17268364
206	0x3d2822c6	0.041048788
207	0x3d80d9f1	0.06291569
208	0x3c17fc53	0.009276467
209	0xbddbc298	-0.10730475
210	0xbd454518	-0.048161596
211	0x3e1f3722	0.15548375
212	0x3c819196	0.015816491
213	0xbe806f9f	-0.2508516
214	0xbe440f75	-0.19146521
215	0x3d2032ee	0.03911107
216	0x3ebff6aa	0.37492877
217	0xbd7dfa78	-0.062006444
218	0xbd3954f2	-0.045247026
219	0x3bf761c7	0.0075494978
220	0xbdb0d6c1	-0.08634711
221	0xbd20b288	-0.03923276
222	0x3e385360	0.18000555
223	0x3d41b7c3	0.04729439
224	0xbe4ea246	-0.2017909
225	0x3d39e271	0.045381967
226	0x3f5fbf10	0.87400913
227	0xbe872633	-0.2639633
228	0x3da58c69	0.08083422
229	0xbc0c3d24	-0.008559499
230	0x3dec2000	0.11529541
231	0x3c984815	0.018589059
232	0xbb090db1	-0.0020912702
233	0x3ca4962a	0.020091135
234	0x3e7895e1	0.24275924
235	0x3dc6b4ff	0.09702491
236	0x3d0363b1	0.032077495
237	0xbdb848d6	-0.08998267
238	0x3c82f88a	0.015987653
239	0xbd472fe3	-0.048629653
240	0x3ed1d77f	0.40984723
241	0x3c7e2af9	0.015513175
242	0x3d81c519	0.063364215
243	0xbd70b083	-0.058762085
244	0xbd5bcd83	-0.053662788
245	0xbea438e0	-0.32074642
246	0xbac454f7	-0.0014978935
247	0x3d6bcc47	0.05756786
248	0xbcff7b07	-0.031186594
249	0xbd6874ef	-0.05675214
250	0x3d95ff4d	0.073240854
251	0xbdd3ba0a	-0.103382185
252	0x3e3fb183	0.18720059
253	0x3d22ac5e	0.039715163
254	0xbbd02104	-0.006351592
255	0x3d83e8b0	0.06440866

bias f4 [2]
0	0x3e016058	0.12634408
1	0xbd19b57c	-0.037526593

weight f4 [128, 128]
0	0xbdc3136b	-0.09525188
1	0xbdad541c	-0.08463308
2	0xbd9646e1	-0.07337738
3	0x3d2842a9	0.041079197
4	0x3ce741b9	0.028229581
5	0xbd4b8f15	-0.049697
6	0x3c3719f0	0.011175618
7	0x3cdbf64f	0.026850848
8	0xbdbc1437	-0.09183543
9	0x3dcbdca7	0.099541955
10	0xbd30a816	-0.04312905
11	0xbc4f89cd	-0.012667132
12	0x3c25b3d9	0.01011368
13	0xbd953eaf	-0.072873466
14	0xbd407cbe	-0.046993963
15	0xbcb1097f	-0.021610973
16	0xbd01785c	-0.031608924
17	0xbd8159c8	-0.063159525
18	0x3d40de59	0.047087047
19	0xbcc35efa	-0.023849
20	0x3c234ff7	0.009967796
21	0x3d829dc5	0.063777484
22	0x3ca171d6	0.019707602
23	0xbc8556f1	-0.016276808
24	0x3c7fd808	0.015615471
25	0xbc16f21a	-0.009212995
26	0xbd368d0c	-0.044568107
27	0x3a0e0b00	0.0005418509
28	0xbcec2e40	-0.028830647
29	0x3d52a213	0.051424097
30	0x3d247606	0.04015162
31	0x3cf80705	0.030276785
32	0x3d0fb28f	0.035082396
33	0xbd24802b	-0.040161293
34	0xbe21b2cf	-0.15790866
35	0x3bc6aadb	0.006062848
36	0x3c53b632	0.012921857
37	0x3d1b0ba6	0.037852906
38	0xbdaa44ab	-0.083138786
39	0xbe27b6b7	-0.16378294
40	0x3df3ef1d	0.119108416
41	0xbdc16fa6	-0.094451234
42	0xbc855df2	-0.016280148
43	0x3de14c32	0.11000861
44	0x3d1d8bf7	0.03846356
45	0x3d88bad7	0.06676262
46	0xbbff38f9	-0.007788774
47	0xbddc31c9	-0.10751683
48	0x3d054c4c	0.032543465
49	0x3c2b3bf4	0.010451306
50	0x3e032359	0.12806453
51	0xbc01dcad	-0.007926148
52	0xbdc398b3	-0.095506094
53	0x3da9bb55	0.08287684
54	0x3d26a5b2	0.040685363
55	0xba861a06	-0.0010231144
56	0x3d16b876	0.03679701
57	0xbd2c597f	-0.042077538
58	0xbd4fd4a3	-0.050739896
59	0x3c590ebf	0.013248145
60	0xbc1782a3	-0.009247455
61	0x3d7969ae	0.0608918
62	0xbd4ab077	-0.049484696
63	0x3cc6ce6f	0.024268357
64	0xbd8d6cc8	-0.06905514
65	0xbb0edece	-0.0021800282
66	0x3d182b91	0.037150923
67	0xbcee818c	-0.029114507
68	0xbdbeafb1	-0.09310854
69	0xbd82e5c3	-0.0639148
70	0xbd8da442	-0.06916095
71	0xbd4f1707	-0.05055907
72	0xbdcb5daa	-0.099299744
73	0xbe04203e	-0.12902924
74	0xbd8ad31c	-0.06778547
75	0x3c68f279	0.014217966
76	0x3e2a14b7	0.16609465
77	0x3e0251b5	0.12726481
78	0xbd8282ab	-0.06372579
79	0xbd6e3eb6	-0.058165275
80	0x3c8df00c	0.017326377
81	0xbe0ee41c	-0.13954204
82	0xbd8c7a4c	-0.06859264
83	0xbe1971d9	-0.14984836
84	0xbd08b590	-0.033376276
85	0x3d6fedf4	0.05857654
86	0x3cf46d40	0.02983725
87	0x3ccad146	0.024757992
88	0x3cbc31b9	0.022972928
89	0xbd409f2b	-0.047026794
90	0xbc1311ef	-0.008976444
91	0x3d31fdc4	0.0434549
92	0xbd1694b7	-0.03676292
93	0xbd6c271c	-0.057654485
94	0xbd41c155	-0.047303516
95	0x3d90da91	0.07072938
96	0x3dc1bd0a	0.094598845
97	0xbca4a7e2	-0.020099584
98	0xbd15d4c1	-0.03657985
99	0xbd400d78	-0.046887845
100	0xbdd6229c	-0.1045582
101	0xbd93f7d2	-0.07225002
102	0xbdca49d4	-0.09877363
103	0xbd272f8d	-0.040816832
104	0x3ddc970c	0.107709974
105	0xbdbd385d	-0.09239266
106	0xbdc5d4a4	-0.096596986
107	0xbd163853	-0.03667481
108	0x3d1d8fff	0.038467404
109	0x3de45a7d	0.11150072
110	0x3d06d426	0.032917164
111	0xbc649371	-0.013951168
112	0xbd63bb47	-0.055598523
113	0xbc20b8f2	-0.009809719
114	0xbdafe1a2	-0.08587958
115	0xbc7ca078	-0.015419118
116	0x3c54222c	0.0129476
117	0xbd823456	-0.063576385
118	0xbd9651c8	-0.07339817
119	0x3bbebe36	0.0058210148
120	0xbdb42ed4	-0.08797994
121	0xbc5072ef	-0.012722715
122	0xbca85e11	-0.020552667
123	0x3c4cd593	0.012502092
124	0xbd89e40a	-0.06732948
125	0x3c20fd72	0.009826051
126	0xb875901c	-5.8546764e-05
127	0xbdfac7ac	-0.12245116
128	0xbdc8816a	-0.09790309
129	0xbb3837b5	-0.0028109376
130	0x3d85e2ba	0.06537385
131	0x3b54fe44	0.0032500187
132	0xbd7137ee	-0.05889123
133	0xbdf3ec55	-0.11910311
134	0xb9f75e00	-0.00047181547
135	0xbd4ea3f2	-0.05044932
136	0x3c780de0	0.015140027
137	0xbda9f946	-0.08299498
138	0x3c9bf2d8	0.019036695
139	0x3ce69813	0.028148687
140	0xbdd9f221	-0.106418855
141	0x3bb9f94e	0.0056754714
142	0xbcbfcc5b	-0.023412874
143	0x3d4d6c9e	0.050152414
144	0xbd586845	-0.052833814
145	0x3d4b5298	0.049639314
146	0xbd739703	-0.059470188
147	0x3c1610d4	0.009159286
148	0x3cdb8efe	0.026801582
149	0xbbd6fa95	-0.0065606334
150	0xbb2a58b2	-0.0025992808
151	0x3c9d4eef	0.019202678
152	0xbda5d722	-0.08097674
153	0xbd41ffa1	-0.047362927
154	0x3d281b17	0.04104146
155	0x3d88aa3d	0.066730954
156	0xbd87ef16	-0.06637399
157	0xbdcd9d31	-0.100397475
158	0x3c8ce0a6	0.017196964
159	0xbcdaff53	-0.026733076
160	0xbd2ab901	-0.04168034
161	0xbd607c7e	-0.054806225
162	0x3d8331b8	0.064059675
163	0xbdf66bb6	-0.12032263
164	0x3cfee412	0.031114612
165	0xbd8288c9	-0.06373746
166	0xbde7ba8d	-0.113148786
167	0xbdc8198d	-0.097704984
168	0xbc168ca6	-0.009188807
169	0xbcf6cd09	-0.030127065
170	0xbda2236c	-0.079169124
171	0x3c925487	0.017862571
172	0xbd895cf1	-0.0670718
173	0x3d0ed3e7	0.034870055
174	0xbcab4ec6	-0.020911586
175	0xbd696ee3	-0.056990515
176	0x3be2afee	0.006917945
177	0xbc962e6e	-0.018332686
178	0xbdd366bc	-0.103223294
179	0xbd1cc967	-0.03827801
180	0x3c2f2e7d	0.010692236
181	0xbc311bb0	-0.010809824
182	0xbbb54ef5	-0.005533094
183	0xbde81fb0	-0.11334169
184	0xbca86cad	-0.020559633
185	0x3cdadaba	0.026715625
186	0xbce1364f	-0.027491717
187	0xbd49d8ac	-0.0492789
188	0x3b9f6731	0.0048645963
189	0xbd7838c9	-0.06060103
190	0xbe075010	-0.13214135
191	0xbdac786b	-0.084214054
192	0x3cdb7243	0.026787883
193	0xbd82aa7a	-0.06380172
194	0xbd5906a7	-0.05298486
195	0x3d4daddc	0.050214633
196	0xbd70d235	-0.05879422
197	0xbd50df43	-0.05099417
198	0x3c68a9f3	0.014200675
199	0x3d42be4b	0.04754476
200	0xbd54f56b	-0.05199186
201	0x391edc96	0.00015150229
202	0x3c7668af	0.015039607
203	0xbdb85eac	-0.09002432
204	0xbd804527	-0.0626319
205	0xbd041ee9	-0.03225604
206	0xbd91906b	-0.07107624
207	0x3d77684a	0.060402192
208	0x3d1d2902	0.038369186
209	0xbde32612	-0.11091246
210	0xbd8caf75	-0.06869403
211	0x3bdd5e3a	0.0067556174
212	0x3d344e79	0.04402015
213	0xbd1b7bfe	-0.037960045
214	0x3d9a2871	0.07527245
215	0x3c395dcb	0.011313866
216	0xbc9d9000	-0.019233704
217	0x3d9d9365	0.07694129
218	0xbdb6bc27	-0.08922606
219	0x3d47e646	0.04880359
220	0x3c713440	0.01472193
221	0x3d334a19	0.043771837
222	0x3ca06cd5	0.019583145
223	0xbd18a439	-0.03726599
224	0x3ca905e0	0.020632684
225	0xbd20e9ea	-0.039285578
226	0xbb19e499	-0.0023482202
227	0xbc1c1e6e	-0.009528739
228	0x3a2f0bc3	0.0006677473
229	0xbdf5c258	-0.11999959
230	0xbd959083	-0.07302954
231	0xbcbdc27d	-0.023164028
232	0x3d2b108e	0.041763835
233	0xbda2a8c0	-0.07942343
234	0xbd99a660	-0.07502437
235	0xbd0a8813	-0.033821177
236	0xbe09d1f5	-0.13458999
237	0x3d2eaf6c	0.042647764
238	0xbdc3182a	-0.09526093
239	0xbdd2434f	-0.10266744
240	0x3ce552b9	0.027993547
241	0x3c0ead87	0.008708364
242	0x3d0f98da	0.03505788
243	0x3d3c7312	0.046008177
244	0xbd15436a	-0.036441244
245	0xbd76d6b8	-0.060263366
246	0xbd144d67	-0.03620663
247	0x3d08f53b	0.033436995
248	0x3c2475bb	0.010037835
249	0x3d004198	0.031312555
250	0xbe07ba16	-0.1325458
251	0x3cf76e40	0.030203938
252	0xbde679bd	-0.112536885
253	0xbc10888e	-0.00882162
254	0xbc6c5efc	-0.014426943
255	0xbe00b821	-0.1257024

bias f4 [128]
0	0xbd760851	-0.060066525
1	0x3b911c06	0.0044283895
2	0xbd736870	-0.05942577
3	0xbd6278bf	-0.055290934
4	0x3ba38247	0.0049898955
5	0x3d37e11c	0.044892415
6	0x3cfc784f	0.030819086
7	0xbd83006f	-0.06396567
8	0xbd80b813	-0.06285109
9	0xbd8461df	-0.0646398
10	0x3d1b620d	0.037935305
11	0xbc035a31	-0.008017109
12	0x3e98f83f	0.29876897
13	0x3ecc2a41	0.39875987
14	0x3d428ed3	0.04749949
15	0x3eb12eb9	0.3460596
16	0x3eb52c3c	0.3538531
17	0x3bd1ce2c	0.0064027514
18	0x3eccc202	0.39991766
19	0xbcaecc9b	-0.021337798
20	0x3ead5f5f	0.33861825
21	0x3d49679a	0.049171068
22	0x3ec8d87f	0.39227673
23	0x3e3e4f91	0.1858504
24	0x3e1cf059	0.1532606
25	0x3d9b77cc	0.07591209
26	0x3d72a434	0.059238628
27	0xbbf0dac4	-0.0073502976
28	0xbe86c6ea	-0.26323634
29	0x3ea28f75	0.31750074
30	0x3cb6aa8d	0.022298122
31	0xbdc3d98a	-0.09562977
32	0x3daf7b8a	0.08568485
33	0xbd501122	-0.05079759
34	0x3bd59f1a	0.0065192105
35	0x3e9a271f	0.30107972
36	0x3ecf3f34	0.40477908
37	0x3ebec5c2	0.37260252
38	0xbba50982	-0.005036534
39	0xbc01aad3	-0.007914263
40	0xbbb1778c	-0.0054158624
41	0xbcd414c4	-0.025888808
42	0xbda688de	-0.08131574
43	0x3ecd8460	0.40140057
44	0xbdcc255d	-0.09968064
45	0xbdf1b8be	-0.11802815
46	0x3b64248c	0.0034811823
47	0xbd908d9e	-0.07058261
48	0x3eb0e05c	0.34546173
49	0xbe86b7a7	-0.2631199
50	0xbd0e6a4a	-0.034769334
51	0x3e976815	0.29571596
52	0x3de736b3	0.1128973
53	0x3d55548f	0.052082594
54	0x3ea9237b	0.33034882
55	0xbbc63634	-0.006048942
56	0x3eb49fae	0.35278076
57	0xbd83175d	-0.064009406
58	0x3dd733de	0.1050794
59	0xbd38ef42	-0.04515005
60	0xbd44b568	-0.048024565
61	0x3ed05ebb	0.40697274
62	0x3ec558a8	0.38544202
63	0xbd89a7b1	-0.06721438
64	0x3eb990e4	0.36243355
65	0x3e3503dc	0.17677253
66	0x3cc286c0	0.023745894
67	0x3edb2f3c	0.42809474
68	0xbd4a7669	-0.04942933
69	0x3cb5b4e0	0.022180974
70	0x3d88ce07	0.066799216
71	0xbd114b82	-0.0354724
72	0xbd2f705c	-0.042831764
73	0x3e3ed784	0.186369
74	0x3cdb5488	0.026773706
75	0xbd5f48f1	-0.05451292
76	0x3bfd3e8d	0.007728404
77	0x3e9f0129	0.31055573
78	0x3eb4b20b	0.35292086
79	0x3cfbcbb7	0.030736787
80	0xbc3bf05f	-0.011470883
81	0x3ea5309e	0.32263654
82	0xba084c0b	-0.00051993196
83	0x3e8a0612	0.26957756
84	0xbd31af4a	-0.04338006
85	0x3c91e36d	0.01780864
86	0xbe061530	-0.1309402
87	0x3e133d46	0.14378843
88	0x3ed96897	0.42462608
89	0x3ea1ee2c	0.31627023
90	0xbd5065eb	-0.050878447
91	0xbdcb77e4	-0.09934977
92	0xbc178b17	-0.00924947
93	0x3e5ce36f	0.21571134
94	0xbc883531	-0.016626926
95	0x3cbed243	0.02329362
96	0xbda24951	-0.0792414
97	0x3d1db537	0.038502898
98	0x3ed16d2c	0.40903604
99	0x3ed510f4	0.41614497
100	0xbc257adc	-0.010100093
101	0x3d5c7e57	0.053831425
102	0xbdf3340f	-0.11875164
103	0xbcd7b28b	-0.026330253
104	0x3ed09d0d	0.4074482
105	0x3db891bc	0.090121716
106	0xbddd881c	-0.108169764
107	0x3ece89fc	0.4033965
108	0xbdd0f754	-0.10203424
109	0xbdfef38c	-0.12448797
110	0x3e8473e3	0.25869665
111	0x3e6e880f	0.2329409
112	0x3d2fb3cd	0.04289608
113	0x3edd31a7	0.43201944
114	0x3ed708f3	0.41999015
115	0x3ecfabd2	0.40560776
116	0x3eb75879	0.35809687
117	0x3eb18f08	0.34679437
118	0xbc4bde43	-0.012443128
119	0xbd1a0c1b	-0.0376092
120	0x3d4872dd	0.048937667
121	0x3eb0b79a	0.34515077
122	0x3d40dd88	0.04708627
123	0xbbddde70	-0.0067709014
124	0x3dd6653f	0.1046853
125	0x3e66c2fd	0.2253532
126	0x3e962262	0.29323107
127	0xbce6f341	-0.028192164

weight f4 [1, 128]
0	0xbd15a901	-0.036538128
1	0x3cb0de34	0.02159033
2	0x3cc03460	0.023462474
3	0x3daaa7db	0.08332797
4	0xbc8299d6	-0.015942495
5	0x3e37c95b	0.17947905
6	0x3e6394ba	0.22224703
7	0xbcb52438	-0.022111997
8	0xbd698146	-0.05700805
9	0xbceb6d0e	-0.028738525
10	0xbf4c7a7c	-0.79874396
11	0xbc8b7b12	-0.017026458
12	0x3eb8e2ab	0.36110434
13	0x3ec495e9	0.38395622
14	0x3e9ccabd	0.30623427
15	0x3eb9ae89	0.36265972
16	0x3ec9b548	0.3939612
17	0x3a7d3a41	0.00096598646
18	0x3eaeef8e	0.3416714
19	0xbd806d8c	-0.062708944
20	0x3ea0f219	0.31434706
21	0xbcf7fe55	-0.030272642
22	0x3ec2b0c0	0.38025475
23	0x3eb72231	0.35768273
24	0x3e423979	0.18967237
25	0xbd902e8b	-0.07040127
26	0xbcf3a84c	-0.029743336
27	0x39d5e85c	0.00040799647
28	0xbf358c71	-0.7091742
29	0x3e995d95	0.2995421
30	0xbd533e5f	-0.051573154
31	0xbd7c7573	-0.061635446
32	0x3eb1c06a	0.34717113
33	0xbbb5cec6	-0.005548331
34	0x3d3ff328	0.04686275
35	0x3eb5e548	0.3552649
36	0x3eac90bd	0.33704177
37	0x3eacb8e6	0.33734816
38	0xbd09d434	-0.03364964
39	0x3e7319d0	0.23740315
40	0xbc971dfe	-0.018446919
41	0xbd09c917	-0.03363904
42	0xbbfa658c	-0.0076415
43	0x3ec1e1a6	0.3786747
44	0xbc80f62b	-0.015742382
45	0xbad875e5	-0.0016514627
46	0xbd9a6ed5	-0.07540671
47	0xbcf5a5ea	-0.02998634
48	0x3ea31b77	0.31856892
49	0xbf257f6b	-0.6464755
50	0xbd3c1995	-0.045922834
51	0x3eadfd51	0.33982328
52	0x3ea3ec73	0.32016334
53	0xbd85cfb1	-0.065337546
54	0x3ecdd96f	0.4020495
55	0xbaa1cd08	-0.0012344429
56	0x3ed0cd2c	0.40781534
57	0xbf93394f	-1.1501864
58	0x3e8a1ae9	0.26973656
59	0xbc91bf17	-0.017791314
60	0xbb82f62c	-0.003996631
61	0x3ec0a97d	0.3762931
62	0x3eb5cad8	0.3550632
63	0x3d1785cb	0.03699283
64	0x3eb44569	0.35209206
65	0x3e9eb46d	0.3099703
66	0x3e7fa411	0.2496493
67	0x3ece84c9	0.40335682
68	0x3c80f898	0.015743539
69	0x3a40ffc0	0.00073623285
70	0xbd2e4065	-0.04254188
71	0x3cf12908	0.02943851
72	0x3e83bf54	0.2573191
73	0x3eaebe5e	0.34129614
74	0xbd01a6ee	-0.031653337
75	0xbc3cfc29	-0.011534729
76	0x3e8d478b	0.27593645
77	0x3eb2693a	0.34845906
78	0x3ecb5d75	0.3971974
79	0xbcca2277	-0.024674637
80	0xbccc9772	-0.024974559
81	0x3eb3fb90	0.35152864
82	0x3e4c1c68	0.19932711
83	0x3eafde5f	0.34349343
84	0x3bafc7f9	0.005364415
85	0xbd7eb0f8	-0.06218049
86	0xbf7fe633	-0.9996063
87	0x3e8655a0	0.26237202
88	0x3ec3c2b8	0.38234496
89	0x3ec0b17f	0.3763542
90	0x3b93a9be	0.004506319
91	0x3d49c7b1	0.049262706
92	0x3bbcb3a8	0.0057587214
93	0x3eadb594	0.33927596
94	0xba4580f7	-0.0007534171
95	0xbd7c2112	-0.061554976
96	0x3b304b78	0.0026900452
97	0xbd986fdb	-0.0744321
98	0x3ec4e3eb	0.38455138
99	0x3eb196b9	0.34685305
100	0x3e7b1e15	0.24523194
101	0xbd1636bc	-0.036673293
102	0xbd27586a	-0.040855803
103	0xbd83f563	-0.06443288
104	0x3ec62ab1	0.38704446
105	0x3e8b785a	0.27240258
106	0xbac0bfe6	-0.0014705628
107	0x3eb7bb18	0.3588493
108	0xbd92e466	-0.0717247
109	0xbbdd39ae	-0.0067512607
110	0x3ec61823	0.3869029
111	0x3eb863f4	0.36013758
112	0xbd89db2c	-0.06731257
113	0x3ecb193b	0.39667687
114	0x3eaf15f3	0.34196433
115	0x3eafabe3	0.34310827
116	0x3eb997de	0.36248678
117	0x3ead3e38	0.33836532
118	0xbbee899d	-0.0072795884
119	0xbd5bae77	-0.05363318
120	0xbbebc920	-0.007195607
121	0x3e9b9195	0.30384508
122	0xbd1b1c24	-0.037868634
123	0x3e7d421f	0.24732254
124	0x3e9be9cf	0.3045182
125	0x3ea7a310	0.32741594
126	0x3ebb3ba8	0.36568952
127	0xbd72a17e	-0.059236042
