data/1008CartPole-v0_dqn/1008CartPole-v0_dqn_s10/pyt_save/model.pt (torch, 72599 bytes, 6 tensors)

weight f4 [128, 4]
00000000: 438e b2bb a8a0 763e 0f35 d83d 6df4 28bd
00000010: 897f 0b3f 3bd4 b73e 70fc 623f af9d 863e
00000020: a6e7 8bbf 1841 67be c641 4d3e 60b7 70bd
00000030: d848 223f a05d e2bd 08c2 9abe aee2 f3bd
00000040: 8147 0dbf f573 9b3e 4785 31bf 48ee 363e
00000050: e751 d33e d1b0 ea3e cf68 993f 0420 cd3e
00000060: ffac e5be a096 fabe 04f5 8fbe a97d 93be
00000070: 59da 5d3e 6bbf 273e e1a8 7c3f 75d8 9a3e
00000080: d62d 023e 356b e5bd acd4 20bf 3f66 8abe
00000090: 2626 35be bf78 2d3d b296 db3e 002c 36be
000000a0: 7587 b13d c18a 963e f0ae 593f 9b66 9a3e
000000b0: 4cdf 083e d380 9d3e 4a59 873e bf41 d83c
000000c0: aea1 a73e a461 d43e 0caf 2e3f 97dc a53e
000000d0: e67c b93e 94f9 7bbe be27 8e3e 44e7 a6bd
000000e0: 5a73 ea3b 0ad2 d2bd 0f01 66be 5aee d03d
000000f0: ec23 093f 5495 9abe 8754 6dbe 0fdd 20be
00000100: d6e7 983d 3091 c53e 6f35 593e 1d63 ee3e
00000110: b77b f03d 5398 873e 9f24 e33e 9207 37be
00000120: 6435 d83d 3296 963b 8a30 13bf 9055 ef3d
00000130: fc7a aabb 0905 8b3e 5ab9 0540 130d 0d3f
00000140: 0e60 84be dbee c0be cea4 683f ecba a03e
00000150: 863f 223f c301 0a3f af9e e73e 5e24 b03e
00000160: c73d 1cbf 4fdd 1c3e 7f7c 333e 4e22 583e
00000170: 37f9 b0be 2145 873c b43d e13f 0706 ab3e
00000180: de58 0dbf 6920 a23d 703a 0e40 58eb 883e
00000190: c361 e83e 845a 14be 4431 ad3d 1e0b 09be
000001a0: baf6 b33e e68f 86be 3cd2 d5bd 02bf 91be
000001b0: 59b8 79bc 2f32 773d c1f8 d0be cc98 333e
000001c0: de2d 4dbf e508 523e 514b 383f ef1f a23d
000001d0: 192f 30bd 6f77 073e 63cc 1ebf 1f1d bd3e
000001e0: 27c2 ffbe 0d32 82be c1c3 80bf a221 55be
000001f0: a6f3 7f3b 9531 39bd f95e a13d 1973 cdbd
00000200: ee1b 263e 2636 89be 971e bfbe d0c7 8cbb
00000210: d68b b6bd 71c2 623d 0d53 f43e 9aec f33d
00000220: f1a7 aabd 096f 8e3e b8ed 8d3d cee0 8a3e
00000230: 828d dc3e 766b 7e3c 8601 413e d407 d3bc
00000240: aa61 a53c 6e89 fc3d 1b7e 043e 3805 2abe
00000250: 90b9 423e 1467 a1bd 8a6c c03f 61a6 b13e
00000260: 03a4 ca3d 9dff d03d 6a1c ed3e ba14 17be
00000270: c5ea 3cbf e523 8fbd 626a 00bf b0f9 9fbc
00000280: db11 8f3e 2655 e6bd deaa 35bd 79eb 0a3e
00000290: aba1 153f 146b 853c 4c1a 293f 210b a1bd
000002a0: 8c21 3b3d f97c 5abd ba29 193d ab4c 49be
000002b0: c32d 0cbe b42e 8a3e e71b 023f 2870 bbbc
000002c0: af3f 24be 4a48 023f bc8a b03e 6ad3 cf3e
000002d0: 30ad 32bf e282 2c3a cb32 dcbb fd96 e23d
000002e0: 21c6 173e f7d5 7fbe 37e4 c73e f1a3 89be
000002f0: 5e27 c63e 7edd 4dbe 9475 c63c a477 1bbe
00000300: a89c 01bd 9bd9 51bd 57f0 59bf c4c5 d8be
00000310: b4ec 73bf d2dc e0bd 35ec b33e fba1 083e
00000320: 76c7 02be c9de 933e 48ad f9bd f531 2d3e
00000330: 4822 b7be 4477 c5be 9e89 7dbf 8027 b5be
00000340: af3b b0be 62e5 dabe b493 52bf 6f12 bfbe
00000350: dac0 013f 24f5 e2be 4a82 1dbf b462 c3be
00000360: 595c 44bf 3a3d 8fbd 0eea 40bf 928d 9dbd
00000370: 2f75 fbbe 756a 723e 394d 76bd 4d9c 9bbe
00000380: c8b6 8cbd 5e2f ad3e 75fe 1d3e 56fc 45be
00000390: 90b2 0f3f 0ac7 f43d 6496 633f abc1 f03d
000003a0: de00 df3d f51f abbe df12 92bf 42a8 f1be
000003b0: 728f 9dbe cf27 ebbe 50ae e7be 87e3 bfbe
000003c0: 0dc5 c23d 0666 9a3e 09d9 923e 944f 993e
000003d0: c929 603e 1a70 e2be 554d e9bb 02f3 9bbe
000003e0: 63fc e3be 744d 593e dfd7 8a3e 0aa7 9ebe
000003f0: d398 bebd dd2e 4bbd 1d87 e53d 00cd 113d
-0.005449088 0.24084723 0.10556995 -0.041248728 0.5449148 0.35904106 0.8866644 0.26292178
-1.0930068 -0.22583425 0.20044622 -0.05876863 0.633924 -0.11053014 -0.3022616 -0.1190847
-0.5518723 0.30361906 -0.6934399 0.17864335 0.41273424 0.45838025 1.198511 0.40063488
-0.44858548 -0.48943043 -0.2811662 -0.2880681 0.21665324 0.16381614 0.9869519 0.3024327
0.12712798 -0.11202089 -0.6282451 -0.27031133 -0.17690334 0.04235148 0.4288841 -0.17790222
0.086684145 0.29402736 0.8503256 0.30156407 0.13366431 0.30762348 0.2643531 0.026398538
0.3274054 0.41480744 0.6823585 0.3239486 0.36228102 -0.24606925 0.27764696 -0.08149579
0.0071548643 -0.10293968 -0.22461341 0.10201712 0.5357044 -0.30192053 -0.23176776 -0.15709327
0.07466094 0.38587332 0.2121179 0.46559992 0.11742347 0.26483402 0.44363877 -0.17873982
0.105570585 0.0045955414 -0.5749594 0.116862416 -0.005202649 0.2715228 2.089438 0.55098075
-0.25854534 -0.37682232 0.9087647 0.3139261 0.6337818 0.5390894 0.45238253 0.34402746
-0.61031765 0.15318798 0.1752796 0.21106836 -0.34565136 0.016512455 1.7596955 0.33403036
-0.55213726 0.07916338 2.2223167 0.26742053 0.45387086 -0.14487654 0.08456662 -0.13383147
0.35149175 -0.2628166 -0.1044049 -0.2846604 -0.015241706 0.060350593 -0.40814784 0.17538756
-0.8014811 0.20511205 0.71989924 0.07916247 -0.043013666 0.13229154 -0.6203062 0.3693628
-0.49952814 -0.2542881 -1.0059739 -0.20813611 0.0039055138 -0.0452133 0.07879443 -0.10031719
0.16221592 -0.26799124 -0.37328026 -0.0042962804 -0.0891339 0.055361215 0.47719613 0.119103625
-0.083328135 0.27819088 0.06930107 0.27124637 0.43076712 0.01552855 0.18848237 -0.025760569
0.020188171 0.123309 0.1293873 -0.16603553 0.19016099 -0.07880989 1.5033123 0.3469725
0.09894564 0.10205004 0.4631074 -0.14754 -0.7379573 -0.06989268 -0.5016233 -0.01952824
0.2794331 -0.112467095 -0.044352405 0.13566388 0.5844981 0.01628641 0.6605575 -0.07863451
0.04568629 -0.05334184 0.03739331 -0.19658153 -0.13689332 0.26988757 0.50823826 -0.022880629
-0.16039918 0.50891554 0.34480846 0.40590984 -0.69795513 0.00065807824 -0.006719922 0.11063955
0.14821674 -0.24983965 0.39041302 -0.2688289 0.3870191 -0.20104024 0.024225987 -0.15182358
-0.03164354 -0.051232915 -0.85132354 -0.42338383 -0.95283055 -0.10979618 0.3514115 0.1334304
-0.12771401 0.2888091 -0.12191254 0.16913588 -0.35768342 -0.38567555 -0.9903811 -0.353817
-0.34420535 -0.4275313 -0.8225663 -0.3731875 0.50684893 -0.44327652 -0.6152693 -0.38161242
-0.7670341 -0.069941 -0.7535714 -0.07693018 -0.4911284 0.23673423 -0.06013224 -0.30392686
-0.068708 0.338252 0.15429099 -0.1933454 0.5613184 0.11952026 0.8890135 0.11755689
0.10888837 -0.3342282 -1.1412009 -0.47198683 -0.30773503 -0.4592881 -0.45250177 -0.37478277
0.09510241 0.30155963 0.2868121 0.29943526 0.2189094 -0.44226152 -0.0071198144 -0.30458838
-0.44528493 0.21220952 0.27117822 -0.30986816 -0.09306493 -0.04960524 0.112074114 0.035595894

bias f4 [128]
00000000: eb52 3c3f 3ebb 09bf 0396 753e 42ba 1dbe
00000010: 93cd e2be 666a 303e 9997 763e 1166 e1be
00000020: da83 20bf fa9b 123f fd6a ffbe 7dfe f73e
00000030: fb09 21bf bc0a f73e a94f e8be c143 833e
00000040: d1c9 3b3f 4e06 2e3f 304d 5b3e 928d 98be
00000050: 18a6 05bf 0263 88be 12ed 08bf 7d62 e6be
00000060: 1c12 03bf 3932 f6be 903d 153f 7f7a ed3e
00000070: a949 9cbe 6e50 1e3f ee3d 5ebe b24d b73e
00000080: 38b9 e33e a60e 003f 8264 e0be 4abd 00be
00000090: 54bc 1d3f 3747 35be 0a82 3a3f 1c80 883e
000000a0: 6999 d23e 8253 93bd e81e 2b3f 9e32 2f3f
000000b0: c050 e43e ebf6 7b3e 3d39 ddbe 2e77 223f
000000c0: a5c1 3ebf 892e debe fc42 053f 9214 81be
000000d0: d954 70be a1d0 cbbe 5e71 6ebe 7f4c 4bbf
000000e0: 8508 063f 9479 fb3d d967 0ebf 6d61 86be
000000f0: c7fb f73e da25 ddbe 1cff 0dbf 3081 2a3f
00000100: 24e2 10be d109 64be ee13 36bf 693c 5bbf
00000110: f254 f8be e231 f3be ed4b 30bf 1743 a9be
00000120: e094 f73e 6d0d 383f 0749 e5be 97ef 0dbe
00000130: d986 3a3d 17be 093f 8b0b 313f b9bf 0bbf
00000140: 6a87 04bf b29b 2cbf a5b0 86be 56ed b93e
00000150: 9612 33be cb05 303f 6196 303f 6a7c 2e3e
00000160: 4a2f b8be aac6 033f 65ad af3e 6144 3a3f
00000170: faa7 92be 84f0 ccbe 641a b83e 7276 f3be
00000180: 1d59 0dbf 9656 cc3e d8a1 84be d180 4b3e
00000190: e915 b83e 3b74 2c3f 0717 19bf 056a 123f
000001a0: 4575 fabe b24a f03e f332 8c3e 1dea 093f
000001b0: 6d16 3dbf 614e f93e 7ae3 203f 7b9b a13e
000001c0: 2340 f73e 3add 113f 8143 aa3e e61d 283f
000001d0: 4174 b0be f1db bc3e e60f 073f c581 113f
000001e0: f212 2dbe 0bc5 c83d 0558 8d3e 1009 cbbe
000001f0: 4f5a 4dbf fa79 2dbf e0f5 3d3f d4ed 313f
0.7356402 -0.53801334 0.23983006 -0.15403083 -0.44297466 0.17228088 0.24081267 -0.44023183
-0.6270119 0.5726925 -0.49886313 0.48436347 -0.62905854 0.48250377 -0.45373276 0.2563763
0.7335482 0.6797837 0.21416163 -0.2979551 -0.52206564 -0.26638037 -0.5348674 -0.44997016
-0.5119951 -0.48085192 0.5829706 0.4638252 -0.30524948 0.61841476 -0.21703312 0.35801464
0.44477248 0.5002235 -0.4382668 -0.12572208 0.6161549 -0.17702948 0.72854674 0.2666024
0.41132668 -0.07193662 0.66844034 0.6843661 0.44592857 0.2460591 -0.43207732 0.63463104
-0.7451423 -0.43394879 0.52055335 -0.25211006 -0.23469867 -0.3980761 -0.23285434 -0.794136
0.5235675 0.122790486 -0.5562721 -0.26246205 0.48434278 -0.4319294 -0.5546739 0.66603374
-0.14148766 -0.2226937 -0.7112416 -0.85639054 -0.48502308 -0.47498995 -0.68865854 -0.33058998
0.4835577 0.71895486 -0.44782278 -0.13860928 0.045538757 0.5380568 0.6915824 -0.5458942
-0.51769125 -0.6742507 -0.26306644 0.36313885 -0.17487559 0.6875884 0.6897946 0.17039648
-0.3597358 0.5147501 0.34311977 0.7276059 -0.2864378 -0.4002725 0.35957634 -0.47551304
-0.552141 0.3990981 -0.25904727 0.19873358 0.35954216 0.67364854 -0.5980076 0.5719302
-0.48917595 0.46931988 0.2738262 0.53872854 -0.73862344 0.4869261 0.628471 0.31563935
0.4829112 0.5697819 0.33254626 0.6567062 -0.34463695 0.36886552 0.52758634 0.5683864
-0.16901758 0.09803208 0.27606216 -0.39655352 -0.80215925 -0.67764246 0.742033 0.6950352

weight f4 [128, 128]
00000000: 2295 38bd 62f5 493d a275 4dbd e4c5 5e3e
00000010: cf64 4fbd 5f68 00bc c864 1d3d 8a82 d2bd
00000020: 426c 99bd 953d c2bd cbde 15be 555c 723b
00000030: 85a3 c4bd 424b d7bd 00f8 0f3b c92d 12be
00000040: b88e 2bbe 6a50 813b 2110 11be 2d40 81bd
00000050: 087a a7bb f7e1 19bd f812 ffbd 85eb 123c
00000060: a56e 01bd cfc7 943d dff1 13bd 96c1 76bd
00000070: 9e02 293d 7c01 83bd 35bb 813c 9bb4 0dbc
00000080: 5164 cb3c 3404 eabd 1777 56bc e74c c6bd
00000090: d949 e3bd a0af d6bc 9b75 72bd c31d 08bb
000000a0: 3684 48bd 38fd 523c 95b0 aabd 02f6 08bd
000000b0: 6839 24be 93c6 e53c 9c02 ad3c a070 76bd
000000c0: c577 bebd 6b8c dabd 69c2 e1bb b146 453d
000000d0: 6add eb3c e2b0 8cbd aba3 05bd 377b b0bd
000000e0: 5efd b03c 505e 79bb 8e45 9cbd 829a 3b3d
000000f0: a8ed d6bc c592 71bd c31e b8bd 521b 11bd
00000100: ef3d ed3c 7408 b9bd b043 083d 88e0 debc
00000110: aa53 123f 6277 263d ecc7 a43d b8e7 8ebd
00000120: ae00 dc3c c1b4 ebbd 712f 6e3b b87c e5bd
00000130: e11a 4e3d 9d77 88bd 4954 3dbd c215 b73d
00000140: e89f c53c 5ae4 27bd 10d7 213c 3970 9ebd
00000150: 0aca 6bbc 6a36 973b 7c48 dbbd 7ab3 a1bd
00000160: 7cdf bf3e f9ba 6bbd b71b 8b3d d543 053c
00000170: adca 9dbc 70b8 4bbd 72fd 0d3d 7807 dcbc
00000180: 6411 20bd 3af3 fe3c f1f8 a1bc 5914 663c
00000190: 4b3f 103c 05bd 393c 937f 0fbe cad0 a23d
000001a0: 0658 833d ace3 0fbe c055 4bbd d662 d63c
000001b0: 084d a9bd d449 58bc 8a8e c4bc ae7f cbbd
000001c0: 11eb 9cbd 15ee 603a fbc5 823c e23f 9ebb
000001d0: a45c 733d 2be7 1e3d 314b f4bd 38ed 523c
000001e0: de1a afbb 262c c0bd 2ea5 c4bd 8ed8 2ebc
000001f0: 937b 92bd 46b1 3fbd 7b76 bebd 9e13 0dbb
00000200: d5f3 3c3d 2eb3 94bd 60ca 8cbd c032 bebb
00000210: 9873 b1bc e5d1 2d3d 159c a73d 1737 943d
00000220: 88ff 453c 8eb7 41bd bc6b 543d 777e 96bc
00000230: c309 5abc f36c b2bd 60e0 333c 8947 c0bd
00000240: 653c 203b c154 afbd 9746 823d bba0 2c3d
00000250: 7f3c a1bc ff59 7c3d 967a abbd 2837 bb3d
00000260: 8e7b ae3b 8380 8f3d f9a4 8f3b 0d08 31bd
00000270: 2062 69bb 4100 843c ebbe aa3d 4b24 babd
00000280: 1410 01be 9413 eebc 902d be3c f437 c53b
00000290: d346 a0bd e5ec 553d 5dcd 5fbd b701 4f3d
000002a0: 0c08 ebbb ca0b 32bd d7c6 b1bc 6719 cebd
000002b0: 9d41 44bd 18db 0a3c 6421 ee3c 108e d7bd
000002c0: a64c 49bd ac12 623d 6684 993d bcca a5bd
000002d0: 2b48 983d feb2 293d 0d1d 5dbd 523c 453d
000002e0: 0c89 83bd dc2b b3bc 80d7 10bc 6a74 823d
000002f0: 1275 103d 9f88 90bd 592a 833d ac41 fe3c
00000300: e0d6 383b dc35 913d 9cec 1fbd 96c0 393d
00000310: 4106 843d a3c3 a83d cc41 643d 0f20 07bc
00000320: 577b e4bc 3a13 a3bc d183 fa3c d071 12bd
00000330: f998 1cbd c890 05bd f521 0fbe a0e5 a9bb
00000340: 0952 323d 653d 7e3d 9a5f 52bc d167 8abd
00000350: 86c5 7c3d b792 1dbd 196d e1bd d85f a83d
00000360: 6c3c ac3c 2509 24bd b79b 2dbd c424 b4bd
00000370: 8901 33bd 9c6a 8e3c 3756 48bd a17a 873d
00000380: 90bf 8e3b ec22 023c 7d55 0bbd 16c5 86bd
00000390: 8533 d6bd 5089 db3a 466e 80bd 0eb3 ac3b
000003a0: 4a71 7bbd 4d72 9e3d 2a32 813d 695e 123d
000003b0: 8f90 873d 027c edbd 33ab 7bbd fdb2 09b8
000003c0: 5c37 c4bd a61d 0dbd d59e 2abc 6397 d5bd
000003d0: 1e57 d4bb 3d9c c9bd cace 643d 40d9 2b3d
000003e0: 40ac c0bc 5977 463d 873c 79bc d864 9bbd
000003f0: 85eb 5dbd 7410 a53d 00bf babd 2f23 18be
-0.0450641 0.04930628 -0.05016101 0.21755177 -0.050633248 -0.007837384 0.03842619 -0.102788046
-0.07491352 -0.09484402 -0.1463577 0.0036981304 -0.096015014 -0.10512401 0.0021967888 -0.14275278
-0.16753662 0.0039463537 -0.14166309 -0.06311069 -0.005110983 -0.037569012 -0.1245479 0.008967285
-0.03159966 0.07264673 -0.036119338 -0.06024321 0.04126226 -0.063967675 0.015836338 -0.008649017
0.024828108 -0.11426583 -0.013089917 -0.09682637 -0.1109807 -0.026206791 -0.05919419 -0.0020769692
-0.04895421 0.012877755 -0.083344616 -0.033437736 -0.16037524 0.02804879 0.021119408 -0.060166
-0.09300188 -0.10671314 -0.0068896306 0.04816312 0.028792102 -0.06869675 -0.03262679 -0.08617251
0.02160519 -0.00380506 -0.07630454 0.045801647 -0.02623637 -0.05897786 -0.08990242 -0.035426445
0.028960196 -0.090348154 0.033267677 -0.027206674 0.5715891 0.040641196 0.080459446 -0.069777906
0.026855793 -0.115090854 0.0036344195 -0.11205429 0.050318602 -0.066634394 -0.04622296 0.08939697
0.0241241 -0.040989257 0.009877935 -0.077362485 -0.014391432 0.004614641 -0.10707185 -0.078955606
0.37475193 -0.057551358 0.067923956 0.008133848 -0.019261682 -0.04973644 0.034665532 -0.02685903
-0.039079085 0.031121839 -0.019772025 0.014042937 0.008804153 0.01133657 -0.1401351 0.079499796
0.064132735 -0.14051694 -0.049642324 0.026170176 -0.08266646 -0.013201196 -0.02399375 -0.09936462
-0.07662023 0.0008580399 0.015963545 -0.004829393 0.05941452 0.038794678 -0.11928404 0.01287394
-0.005343779 -0.09383421 -0.09601818 -0.010671748 -0.07152476 -0.04679992 -0.09299942 -0.0021526585
0.046130974 -0.07260738 -0.068745375 -0.0058043897 -0.021661565 0.0424365 0.08184067 0.0723707
0.012084849 -0.047294192 0.051860556 -0.01837085 -0.013307991 -0.08712187 0.010978788 -0.09388644
0.002445006 -0.085610874 0.0636112 0.042145472 -0.019682167 0.061609264 -0.08372991 0.091413796
0.0053247875 0.070069335 0.00438368 -0.04322057 -0.0035611466 0.016113402 0.08337196 -0.090889536
-0.1260379 -0.02906207 0.023215085 0.006018633 -0.07826009 0.052227873 -0.05463921 0.050538745
-0.00717259 -0.043468274 -0.02170126 -0.10063439 -0.047914136 0.008475088 0.029068656 -0.10525143
-0.049145363 0.05519359 0.07495956 -0.08095309 0.0743564 0.041430466 -0.053982783 0.04815323
-0.06422624 -0.0218715 -0.008840442 0.063698605 0.035267897 -0.070573084 0.064045615 0.031037174
0.0028204247 0.07090351 -0.039044008 0.04534968 0.06446505 0.0824044 0.05572681 -0.008247389
-0.027890844 -0.019906629 0.030580433 -0.03575307 -0.038231824 -0.032608777 -0.13977797 -0.005184844
0.043535266 0.06207027 -0.012840176 -0.06758083 0.06171181 -0.038469996 -0.11007137 0.08221406
0.021024905 -0.040047783 -0.04238483 -0.08796075 -0.043702636 0.01738482 -0.048910346 0.066151865
0.004356332 0.007942896 -0.034017075 -0.0658056 -0.10459045 0.0016749296 -0.06271033 0.0052703684
-0.061387338 0.07736645 0.06308396 0.035734568 0.06619369 -0.11595918 -0.061442565 -3.283004e-05
-0.095808715 -0.034452103 -0.010413845 -0.10429265 -0.0064801117 -0.09844253 0.055861272 0.041955233
-0.023519635 0.048453663 -0.015212185 -0.07587594 -0.054179687 0.08059779 -0.091184616 -0.14857171

bias f4 [128]
00000000: 2d40 b7bd cd90 e23b ca05 b13e 0684 563e
00000010: fa4e 6d3e b189 cebd 9eef d63b 08c5 383e
00000020: 55e7 b7bd 62d7 603e 00a4 c3bb 381e 67bd
00000030: 2aa2 a8bb ff45 1dbc c9ce a43e b01a 753e
00000040: 3d2b b2bd bff1 a7bd 8299 c8bd 1998 89bd
00000050: d1e9 363e b56d a63e 94ea 6b3d 6303 9fbd
00000060: b94e b43e 977e dcbc 617a 7f3e 70e1 e63a
00000070: 7231 593e 5fa0 623e 4058 493e d6dc bc3e
00000080: 20ae b93e ec69 633e a66f 9b3c 60e8 c83e
00000090: e452 933e 1069 e9bd 8d68 8cbc b545 c93e
000000a0: c180 863e d1b7 8f3e a1f4 9fbc 5f24 b53e
000000b0: 8fa7 75bc f7c7 3e3c 611e 673e 7ec5 843d
000000c0: 0387 d6bd 3b4d 17bd ad19 743e a4a5 15bd
000000d0: 9078 8fbc 9c79 803e bfdc b53e c8cf 4abd
000000e0: 449c 3b3e 47fa c03e 8a09 5bbd df8f 1ebd
000000f0: 96cf 6c3e 7500 8f3e 9e04 163d 6484 e63c
00000100: d69b bd3d c0e8 9c3e 0cc3 57bc 01f3 67bd
00000110: a09a 77bd 39ba 1f3d 489a 473d 7e17 033d
00000120: c860 a53e 440e 043a bfb5 d33c bcf2 c4bd
00000130: 4f7f 653d aec7 05bd e350 91bd cb1b 843e
00000140: e7b3 8f3e 53dd 6f3c 1c5c e13c 8bc9 2b3d
00000150: a4ba 793e 227e 8cbd 13d8 1c3d 9ed4 573d
00000160: 1656 b33e 3693 973e bbd7 c53e 929e be3e
00000170: 7d7d 2e3c 036a 853e 3f45 a73d eee3 3d3e
00000180: b4f2 85bd f885 283d 9c65 803e 8357 c23e
00000190: 1bcf b43c 7783 01be 686c 153e 106d 753e
000001a0: 7ae3 683e 76dc 613e 0d12 3fbd fcf0 df3b
000001b0: 56bb 34bd a9d6 36bd 63df 743e e27b 0c3c
000001c0: 9d4d 09bd 3c35 c7bd acb8 683d 33a7 11bd
000001d0: b7f9 443e 8489 603d ba64 a3bd dd5a 253e
000001e0: f1fc 963d bce7 123d 9f5e a0bd 3c92 c43e
000001f0: 9a1c 7a3c 07f7 973e bc75 863c 65d7 92bd
-0.089477874 0.0069142343 0.3457473 0.209488 0.23174658 -0.10084856 0.0065593263 0.18043911
-0.0897967 0.21957162 -0.005970478 -0.056425303 -0.0051462846 -0.009599208 0.32189015 0.23935962
-0.08699653 -0.08200406 -0.09794904 -0.067184635 0.17862631 0.32505575 0.057596758 -0.07764318
0.3521631 -0.026915831 0.24949028 0.0017614793 0.21210268 0.22131489 0.19662571 0.36887234
0.3626566 0.22208375 0.018974137 0.39239788 0.28774178 -0.11396992 -0.017139697 0.39310995
0.26270106 0.28069928 -0.019525828 0.3537931 -0.014993562 0.011644355 0.22570182 0.06482981
-0.1047497 -0.036938887 0.2383792 -0.03653492 -0.017513543 0.2509278 0.35519978 -0.049514562
0.1832133 0.37690946 -0.053475894 -0.038711425 0.23126063 0.27930036 0.036625497 0.0281393
0.09258239 0.30646324 -0.013169061 -0.05662823 -0.060450196 0.038995955 0.04873112 0.032004826
0.323004 0.0005037526 0.0258435 -0.096166104 0.056029614 -0.032661133 -0.07095506 0.25802454
0.28066942 0.01464017 0.027509741 0.041940253 0.24387604 -0.068599954 0.038292002 0.052693002
0.35026616 0.296045 0.38641152 0.37230355 0.010650036 0.26057443 0.081675045 0.1854398
-0.065404326 0.041143388 0.25077522 0.3795739 0.022071412 -0.12647806 0.14592135 0.23967385
0.22743025 0.22056755 -0.046648074 0.0068341475 -0.04412397 -0.04463831 0.2391334 0.008574458
-0.033521283 -0.097269505 0.05681674 -0.035559844 0.19235884 0.054818645 -0.079781964 0.16147943
0.073724635 0.03586553 -0.078305475 0.38392818 0.015265608 0.29680654 0.016413562 -0.071699895

weight f4 [2, 128]
00000000: 42d4 a33c 80fd 83bd 2ef6 9d3e 656d 883e
00000010: 20c2 033e c67a 0f3d 71f7 4f3d 9eb8 413e
00000020: 1f86 69bc 4016 653e 845f e1bc a0c2 10bc
00000030: 3870 023d 5eb8 0ebd 07c1 813e 2f2f 613e
00000040: 059a 903d 1fb0 e63b c127 3c3c bbd1 a4bd
00000050: 8e1f b23e 9902 a93e cf2d 7a3d 9d87 a9bd
00000060: 6233 c83e 7c81 d0bc 527f 873e d0a9 3cbd
00000070: d097 b63e db2f 263e 4f95 8f3e 2b55 b73e
00000080: 1ba9 733e c068 c43e f2a1 fbbb 8ae3 ba3e
00000090: e106 a53e 3a4f 773d e1c2 acbb e458 b33e
000000a0: 478d b13e a7da ad3e 03f5 fb3c 598d 813e
000000b0: 189d 29bd 84ca 053c 6b3b a13e 920c b2bc
000000c0: efde 58bd b81d f33c acfa 843e 7fe0 a1bd
000000d0: 3889 873c e404 8f3e 1728 683e 9a05 b13c
000000e0: 1f28 c93e 6a6c d63e f267 b33c 7f01 633d
000000f0: 2645 b93e cc96 7d3e d215 0dbd 1e06 783d
00000100: ed96 8c3e 3d0f 943e e483 5d3c f335 4fbd
00000110: 0ea2 9b3c 70dd c9bb f796 59bd 70d7 023d
00000120: 0592 bf3e 2809 7abd 7452 1f3a c4d0 34bd
00000130: 78d0 a7bd 0efb 3dbd 886d 3ebc 181d 433e
00000140: 0c1d 673e 1322 adbc f8d0 8fbc 787a 50bb
00000150: 086e ca3e a3c8 bcbc 4473 d83c eca1 fabc
00000160: de88 993e 654c 9a3e 6714 793e 0cc5 993e
00000170: c5fc e43b 48dc ae3e 39ac 903d 8ac6 883e
00000180: 9d3d 933c 0bb7 3bbd 88fd 643e 3d01 713e
00000190: 20ea bcbc e9ce 59be e300 a13e ddf6 b33e
000001a0: eb7c 8b3e aeaf bc3e c2b2 42bc cca4 2dbd
000001b0: fdb1 f53c 8d90 30bd d282 a53e cb0f 86bd
000001c0: 989e 55bd e081 6d3d 6054 7cbc 40c5 bfbc
000001d0: 1f69 a93e d42d 6abd b096 51bd 4656 af3e
000001e0: fa8d 0abd 3928 38bc 7996 75bd f1a9 c43e
000001f0: 27b9 6bbd 46a9 903e 7747 8a3d 16e5 543c
00000200: 050b 0bbd fad8 13bc e36b bf3e 2176 913e
00000210: 1333 b13e f939 ae3c 9407 c6bc fc31 b73e
00000220: 1ca2 7e3d 0abb 9f3e 0084 c43b 4abb 50b9
00000230: b97e 5abd 4d35 ebbc 053f aa3e fdc0 be3e
00000240: ee8b d7bc 5e9d 383d 060c 5cbd 0e18 4c3d
00000250: db1f aa3e fdf0 4e3e 802d 92bd b649 a5bd
00000260: 4df1 fc3d a799 453d fb95 9a3e f505 a93d
00000270: 3055 733e 0ef8 b73e 0768 a33e d575 9e3e
00000280: 75e1 c43e fd16 8b3d 3c84 d7ba b19a 7d3e
00000290: 1532 6d3e 866c f63c 9ca7 a3bc 6aa7 9c3e
000002a0: 777b b13e 8db2 843e 0f30 8bbd 67cc c33e
000002b0: 6cfd 08bd 5f02 133d f520 b83e 2de0 51bb
000002c0: 5ed5 36bd cb95 a03d a455 aa3e ab0d 82bd
000002d0: 0800 953c d18c c33e 0608 bd3e 732d d6bc
000002e0: 9833 cb3d 9fc8 243e 9bc6 79bd b96c 50bd
000002f0: fa14 7f3e 7679 ab3e 6bfc 8ebd 86c8 2f3d
00000300: 1f12 f6bd 468a b13e 476f 80bd 76ea 54bb
00000310: d413 2a3d 73b5 7e3b f9f3 c03c 2ba2 85bd
00000320: 2141 773e 685a 983c 7147 56bc d097 c63d
00000330: 2a69 58bc 35f0 43bd c4f0 d93c 4c71 b83e
00000340: 054c c43e 7512 123c f028 93bd efae 113c
00000350: 2965 833e 38f3 5a3b 33ba 86bd 607a 7f3c
00000360: 46ef a73e 138f b03e f5a5 bb3e f248 9f3e
00000370: 0f90 afbc 19a4 583e 00d7 233c 8660 b73e
00000380: 8dad d23b 1390 143c 9666 ad3e ce04 be3e
00000390: eaa8 ffbc 5e7d 7ebe 5da8 a23e 1b3c ab3e
000003a0: d9c5 aa3e 65aa b13e d2a4 debb 8615 4abb
000003b0: b18a e3bc 57e6 473d 9500 b13e f541 5fbc
000003c0: 31d8 95bd f39d 953d c36b 3a3d 4c14 85bc
000003d0: f06c 283e b771 75bc 465b 0dbb f94d 373e
000003e0: d442 80bd 7d30 783d 6026 ae3b c5c3 783e
000003f0: ece2 a23c 05f3 bc3e 69d4 58bd 037b 20bb
0.019998673 -0.06444836 0.30851883 0.2664596 0.12867022 0.035029195 0.050773088 0.18918082
-0.014253168 0.22371769 -0.027511366 -0.008835465 0.0318453 -0.034843795 0.2534258 0.21990655
0.07060627 0.0070400382 0.011484087 -0.080478154 0.347897 0.33009794 0.061078843 -0.08277819
0.39101702 -0.025452368 0.26464325 -0.046060383 0.356627 0.16229193 0.280436 0.35807166
0.23794977 0.38361168 -0.0076792175 0.36501724 0.3223181 0.06037829 -0.005272255 0.35028756
0.346781 0.3395588 0.03075648 0.25303152 -0.041409582 0.008165959 0.31490645 -0.02173451
-0.05294698 0.029677257 0.25972497 -0.07904147 0.016544923 0.2793342 0.22671543 0.021609116
0.39288422 0.41879588 0.02190015 0.05542135 0.3618557 0.24764556 -0.034444638 0.06055271
0.27458897 0.28917876 0.013520215 -0.05058856 0.018998172 -0.0061604306 -0.053122487 0.03194374
0.37416092 -0.06104389 0.0006077655 -0.044144407 -0.08194059 -0.046382003 -0.011622794 0.19054067
0.22569674 -0.021134412 -0.017555699 -0.0031811278 0.39537072 -0.02304489 0.02642215 -0.030594788
0.29987234 0.3013641 0.24324189 0.30033147 0.0069881403 0.34152436 0.07064099 0.26713973
0.017973715 -0.04582886 0.2236234 0.23535629 -0.023060858 -0.21270336 0.3144599 0.3514928
0.27243742 0.36852783 -0.0118834395 -0.04239349 0.029992098 -0.043106604 0.3232637 -0.06545981
-0.0521532 0.057985187 -0.015400976 -0.023409486 0.33088014 -0.05717261 -0.051169097 0.3424551
-0.033826806 -0.011240059 -0.059957955 0.38410905 -0.057549622 0.28254145 0.06751912 0.0129940715
-0.033946056 -0.009023899 0.37387 0.28410438 0.3460928 0.021267878 -0.024173535 0.35780323
0.06216632 0.31197387 0.005997181 -0.00019906196 -0.05334351 -0.02871194 0.33251205 0.37256613
-0.02631184 0.045071952 -0.053722404 0.049827628 0.3322743 0.20209117 -0.07137585 -0.080707
0.12350712 0.048242237 0.3019255 0.08253089 0.23762965 0.35931438 0.31915304 0.30949274
0.3845326 0.06791494 -0.0016442607 0.24766041 0.23163636 0.030081045 -0.019977383 0.30596477
0.3466451 0.25917473 -0.06796276 0.38241884 -0.033444807 0.035890933 0.35962644 -0.0032024488
-0.044637077 0.07841071 0.33268464 -0.06350263 0.018188491 0.38193372 0.36920184 -0.026144719
0.0992195 0.16092156 -0.06098042 -0.050884936 0.24910346 0.33491105 -0.06981739 0.042915843
-0.12015175 0.34675807 -0.062712245 -0.0032488382 0.041522816 0.0038865476 0.023553835 -0.06525072
0.24145938 0.018597797 -0.013078556 0.09696925 -0.013208667 -0.0478365 0.026604064 0.3602394
0.38339248 0.008915533 -0.071855426 0.008891805 0.25663117 0.003340913 -0.065784834 0.015593141
0.3279974 0.34484157 0.36650053 0.3111034 -0.021430997 0.21156348 0.00999999 0.3581583
0.0064293803 0.009067553 0.3386733 0.3711304 -0.031208474 -0.24852511 0.31769076 0.33444294
0.3335407 0.34700313 -0.0067945505 -0.0030835583 -0.027776094 0.048803654 0.34570757 -0.013626565
-0.07316626 0.07305517 0.045512926 -0.01624503 0.16447806 -0.014980725 -0.0021569296 0.17900838
-0.062627465 0.060593117 0.0053146333 0.2429343 0.019883595 0.3690416 -0.052936945 -0.0024487383

bias f4 [2]
00000000: 9a9d 8f3e d6b2 a63e
0.28049928 0.32558316
