data/CartPole-v0_vpg_gpu/CartPole-v0_vpg_gpu_s0/pyt_save/model.pt (torch, 42881 bytes, 11 tensors)

weight f4 [64, 4]
000000 36 b5 de be 23 b7 d0 3e e5 22 93 3d 53 9b 0b bf
       -0.43497628 0.40764722 0.0718439 -0.5453388
000010 d5 56 16 be 3f 69 a0 bd c3 1a 67 be 9e 46 f1 be
       -0.14681561 -0.07832574 -0.22568803 -0.4712419
000020 5c 2d 89 be 97 d3 50 be e2 2c bc be 8b 7d 48 3d
       -0.2679242 -0.20393215 -0.36752993 0.048947852
000030 92 4d 72 bd b5 74 cc 3e 7e 23 0a 3f ef 54 bb 3e
       -0.059156008 0.3993279 0.53960407 0.36588237
000040 a5 69 ab bd 98 d5 48 3d 62 7e a0 b8 da e6 22 bd
       -0.083697595 0.049031824 -7.652935e-05 -0.03977094
000050 f1 7a 8e be 64 9c 38 be 83 a9 0b bf 01 1d 8c be
       -0.27828172 -0.18028408 -0.5455553 -0.27365878
000060 d4 b5 2d 3e 73 a2 f7 3e ec c0 47 3c 51 72 be 3e
       0.16963893 0.48366126 0.012191992 0.37196591
000070 0b 0d 03 3c 35 84 b0 be 0d 33 e9 3e 14 f8 c5 3e
       0.007998715 -0.34475866 0.4554676 0.3866583
000080 fb dd 6f 3e 2e 6a 5a 3e 21 ce 81 be 51 d4 7b bd
       0.23424523 0.21329567 -0.25352576 -0.061481778
000090 6a cf fc 3e b3 5a 00 bf 1d c2 ad be 34 db cc be
       0.49376994 -0.50138396 -0.3393716 -0.4001099
0000a0 04 4c 9f 3d 5d b7 f5 3e 53 7e 16 3e 10 ba 02 3f
       0.07778171 0.47991458 0.14696626 0.5106516
0000b0 d3 05 67 be 92 6c 01 3f 73 6b 48 3b d1 b8 b5 3e
       -0.22560816 0.5055629 0.0030581623 0.35492566
0000c0 92 06 b1 be 95 fe 8e 3e 02 ef 02 bf 2d f9 0a 3e
       -0.34575325 0.27928606 -0.51145947 0.13571616
0000d0 7d 09 02 3e 08 07 55 be 2f 55 a2 3e 2f b7 8e 3e
       0.12698932 -0.20803463 0.31705615 0.27874133
0000e0 6b e1 e5 bd b8 0c 5e be 73 09 c6 3e 44 7b e4 3d
       -0.11224636 -0.2168454 0.38679084 0.111563236
0000f0 ba da b4 bd 0d 6a 27 3e b4 d8 89 3e 8b a1 0d 3f
       -0.08830781 0.16349049 0.26923144 0.5532462
000100 1b 0a 70 bc 0b 1d 55 3e ed ce 93 be 20 87 c7 ba
       -0.014650847 0.2081186 -0.2886881 -0.0015222766
000110 66 48 a7 be f6 7d ce 3d 56 3f a4 3e c0 0b 80 3e
       -0.32672423 0.10082619 0.3207957 0.25008965
000120 09 9e 20 3e c6 0a 28 3c 26 c3 ac be 69 ce 05 bd
       0.15685286 0.010256475 -0.33742636 -0.03266755
000130 04 92 e5 be f2 55 be bd e3 21 df 3e f2 55 aa 3e
       -0.44837964 -0.092937365 0.4358054 0.33268696
000140 fa b1 45 be fa 21 7f 3e 34 c2 f0 3e 17 41 98 3e
       -0.19306174 0.24915305 0.47023165 0.2973716
000150 f3 2d 9e bd 2b 5d 80 3d ae 30 3e 3e 51 32 e1 3e
       -0.07723608 0.062677704 0.18573257 0.439837
000160 f1 ed 02 3f 23 10 f5 be 48 49 d5 3e 2e ac cb 3d
       0.5114432 -0.47863874 0.41657472 0.0994495
000170 8a 68 92 be 19 d2 9b 3d b9 97 c1 be 62 f8 a2 3e
       -0.28595382 0.07608432 -0.37811068 0.31830126
000180 e9 af a2 be f0 90 ce 3e 1e e5 2a 3e 50 29 41 3e
       -0.31774834 0.40344954 0.16688964 0.18863416
000190 48 e0 9a 3e f3 6f 51 3d fb f4 d9 be a9 ea b0 3e
       0.30249238 0.051132154 -0.42569718 0.34554031
0001a0 5b f8 e7 be 4e 0a bf be 63 8d b6 be a2 72 b0 be
       -0.45306668 -0.3731255 -0.35654745 -0.34462458
0001b0 79 f2 b0 3c 61 88 d9 3e 96 e9 de be 40 1c f9 3e
       0.021599995 0.4248686 -0.43537587 0.48654366
0001c0 01 67 27 be 18 f8 ac be e4 f9 c8 be d0 2b 9b 3e
       -0.16347887 -0.3378303 -0.3925315 0.30306864
0001d0 f7 c0 1f be d4 86 8b be a7 ec 04 3d 73 aa a7 be
       -0.15600954 -0.27251303 0.03245225 -0.3274723
0001e0 02 ee f3 bd 69 a6 e0 3b 4d 06 dd bd ae 8d 76 3e
       -0.11910631 0.006855775 -0.107922174 0.24077484
0001f0 e3 a2 f4 be 3a 7a 82 3e ef d1 4d bc 4e ae 8e 3e
       -0.47780523 0.25483876 -0.012562259 0.2786736
000200 74 59 f6 3d 58 fb 83 be 90 1c f8 be a1 50 bd be
       0.120287806 -0.25777698 -0.4845929 -0.36975577
000210 a2 f6 e6 3e b7 4a 0c be 7a c2 8a 3d 18 6d 8c 3e
       0.4511004 -0.13700376 0.06775375 0.27426982
000220 ed 89 a5 bd 26 50 b9 be ac 29 e0 3c d5 db e0 3e
       -0.08082948 -0.3619396 0.02736362 0.4391772
000230 8d c5 69 3d c7 2f d0 be 15 09 22 be d8 93 4d 3d
       0.057073165 -0.4066145 -0.15823777 0.050189823
000240 66 78 ef be 8a cb ba 3e 68 28 8c 3e 4c 71 f1 3e
       -0.46771544 0.36483413 0.27374578 0.4715675
000250 13 26 16 3e 34 a6 11 3d c6 a9 97 be bf 82 cd 3e
       0.14662962 0.035558894 -0.29621714 0.40138814
000260 02 9d 8d 3d 26 39 d1 3e 4d 75 c4 be a4 5c a2 bd
       0.069147125 0.40863913 -0.38370743 -0.07927826
000270 eb 48 4b 3e fa 2a 82 be cb 1b 0c bf 7f 66 c9 3e
       0.19852035 -0.25423414 -0.5472991 0.3933601
000280 15 a2 cf be 8e d4 64 bb 8c 1f 12 3d 31 dd 03 bf
       -0.40553346 -0.0034916732 0.035674617 -0.51509386
000290 56 77 7b be 05 8f d8 3e ef 22 dc 3e 15 cc c5 bc
       -0.24557242 0.42296615 0.42995402 -0.024145165
0002a0 74 b7 bc 3d 01 86 84 be 94 bc 0a 3f c5 bf b7 3c
       0.092146784 -0.25883487 0.54194 0.02243031
0002b0 4c 7c 99 3e 92 be 65 bd 74 cb 48 3e 3f b1 69 bd
       0.29977643 -0.056089945 0.19608861 -0.0570538
0002c0 8e 36 99 be d5 f0 bf be 84 7a a1 be f1 36 f6 3e
       -0.29924434 -0.37488428 -0.31538785 0.48088792
0002d0 dc ec 9b bd 74 b8 38 3d 6c c7 af bc 60 04 04 bf
       -0.07613537 0.045097783 -0.021457396 -0.51569176
0002e0 0b 34 d7 be 34 0d 65 3e 11 05 9a 3c c4 32 9c be
       -0.42031893 0.22368318 0.018801244 -0.3050748
0002f0 5a 8a f5 3e 54 a6 88 be ff f2 b4 3e 23 c8 e3 3c
       0.47957116 -0.26689398 0.3534164 0.027805394
000300 a1 94 03 be 71 fe a9 bd 95 fb 82 3e 18 ed 17 be
       -0.12849666 -0.08300484 0.25582567 -0.14836538
000310 b9 cf c9 3d 5a 91 6f 3e 2e cf c4 3e 9e 8a 62 be
       0.09854073 0.23395291 0.38439316 -0.22123191
000320 3d 70 c4 3d 68 13 82 3e 76 73 b2 3e 3d 04 e3 bb
       0.0959172 0.2540543 0.34853715 -0.0069279955
000330 be a6 5c 3b e3 9b 89 bd 42 39 bf bd 28 11 76 be
       0.0033668722 -0.06719186 -0.09337093 -0.24029982
000340 68 59 ca 3d 57 1e c0 3e 1e cc 5e be f0 8d 35 be
       0.09880334 0.37523147 -0.21757552 -0.17729926
000350 24 66 b3 be 12 47 d8 3e 1f 97 3f 3d 0d 22 bb 3c
       -0.35038865 0.42241722 0.04677498 0.022843385
000360 c2 22 b8 3d a2 8b 84 3e a4 e4 ef bc 60 93 06 bf
       0.089910045 0.2588778 -0.029283829 -0.52568626
000370 12 40 e4 be ae a3 95 3e 6c 46 78 3e 8c b0 f2 be
       -0.44580132 0.2922644 0.24245614 -0.4740032
000380 ee e7 02 3f 8e 65 82 3e 14 69 6d 3d 97 e2 79 be
       0.51135147 0.25468105 0.05796154 -0.24402843
000390 93 03 9e 3e 3b 5e 2b bd 8c 87 ea be 1a e2 51 3e
       0.30862102 -0.041837912 -0.4580654 0.20496407
0003a0 59 37 87 3e a6 74 53 3e 6a 3d cf 3e 02 aa c6 be
       0.26409414 0.20649967 0.40476543 -0.3880158
0003b0 67 ba c0 3e 62 a7 96 bd dc 60 89 3e 2b 95 9f 3e
       0.37642214 -0.073561445 0.2683171 0.31168494
0003c0 2d d9 fc 3e 74 a8 be 3e 5d f8 d6 be 69 21 bb be
       0.49384442 0.37237895 -0.4198636 -0.36548927
0003d0 b6 83 0d bd 87 bc aa be 5e 4a 0a bf 4d 2e 6b be
       -0.034549437 -0.3334696 -0.54019725 -0.22966881
0003e0 0c d2 6a bd c8 70 82 3e e8 8a 1d be 9f 4a 9e 3e
       -0.057329223 0.2547667 -0.1538502 0.30916306
0003f0 07 70 19 3c 05 a0 81 bd 21 35 d4 3e 4d 3f 37 3e
       0.009365088 -0.063293494 0.41446784 0.17895241

bias f4 [64]
000000 3c 23 0e 3e d8 ac f1 be 7c da 44 be 7e dd d6 3e
       0.13880628 -0.47202182 -0.1922397 0.4196586
000010 43 f8 8d be a9 1c 36 be b8 0a 5e bd 55 a3 cf 3e
       -0.2772847 -0.1778437 -0.05420944 0.405543
000020 5d 6c f2 3e c8 28 85 3e 05 15 3e be 75 0b f0 be
       0.473483 0.26007676 -0.18562706 -0.4688374
000030 fc ad f8 bd b3 cc 93 3e 09 45 0a be 0c ec d3 3c
       -0.1214256 0.2886711 -0.13502897 0.025869392
000040 4a c0 b0 3e 04 b5 a9 bd 9f d1 8a be 7f 82 c8 3e
       0.34521705 -0.08286479 -0.27113053 0.3916206
000050 12 56 e9 3c 1f c7 34 be ab fc a0 be e1 70 91 be
       0.028483424 -0.17654084 -0.3144277 -0.28406432
000060 56 c8 a9 be 20 3c 67 3e 2f 08 f1 3e 42 70 3a be
       -0.33160657 0.2258153 0.47076556 -0.18206885
000070 68 1d e1 3e 71 d8 b2 be b5 6a f7 be 00 20 97 be
       0.43967748 -0.34930757 -0.48323599 -0.29516602
000080 34 29 0b 3e fb 66 96 bd 2d 5a f0 3e fd 61 62 be
       0.13589936 -0.07343861 0.469438 -0.22107692
000090 3f cb ed 3e 23 01 66 be eb 39 44 3e 60 e4 f8 3e
       0.46444127 -0.22461371 0.19162719 0.48611736
0000a0 1b 7b 25 3e 3f 22 9c 3c e3 0e 40 be e6 9e cd be
       0.16160242 0.019059299 -0.18755679 -0.40160292
0000b0 86 03 7f 3e 15 c2 d5 be 96 17 7f be 29 62 e9 3d
       0.24903688 -0.41749635 -0.24911341 0.11395676
0000c0 63 98 da bd 68 fe 9f be bb 84 2c 3e 9a 44 ad be
       -0.10673597 -0.31248784 0.16847508 -0.338414
0000d0 df 33 32 3e 60 e8 6f be 57 f5 df 3e 92 8c 42 3d
       0.174026 -0.23428488 0.43741867 0.04749734
0000e0 03 d6 46 3d 1f c1 bc 3e e1 d2 e6 3e 35 19 f4 be
       0.04854394 0.3686609 0.45082763 -0.4767548
0000f0 bb 8a 00 be e6 78 54 be 35 11 e9 3e 9e fc 59 3e
       -0.12552921 -0.20749244 0.4552094 0.21287772

weight f4 [64, 64]
000000 42 c5 7b 3d d3 a0 6d bd 6b b9 87 bd ae 3c c7 bc
       0.061467417 -0.058014702 -0.066271625 -0.024320927
000010 ec d5 e1 bd 60 51 2d be d8 a1 3a 3e d1 0a 92 bd
       -0.110271305 -0.16925573 0.18225801 -0.07130969
000020 5c d4 98 bd b4 32 19 be f0 10 e9 3d 87 8e 1d 3d
       -0.07462379 -0.14960748 0.11380184 0.038466003
000030 cc ac c5 bd d1 bd 92 3d 5b 4b 96 3d d8 37 e9 3b
       -0.09652099 0.07165111 0.07338592 0.007117253
000040 26 2c bb bd f2 96 c1 3c 2f 9a c3 3d b6 ee fc 3d
       -0.0913928 0.023631547 0.095508926 0.12350218
000050 9b 2f 12 bd 0a 69 33 3c be 43 31 3c 7f 8e 0e bd
       -0.03568993 0.010950336 0.010819374 -0.034803864
000060 90 e8 0f 3d c3 8a a4 3d c8 df 9d 3d 49 e3 e6 bb
       0.0351339 0.08034279 0.077086985 -0.0070461375
000070 44 f2 a1 bc 9b 61 2c bd 01 90 94 bd 24 d9 8a 3c
       -0.019768842 -0.04208527 -0.07254029 0.016949244
000080 eb 8f c4 bd 6b 53 31 bd 4f ef dd 3d 87 d8 91 3d
       -0.09597763 -0.043292444 0.1083666 0.071213774
000090 8f 82 d0 3d b8 3b 62 3d dc bf cd bd 0b 8a 53 bc
       0.10181152 0.055232733 -0.1004636 -0.01291133
0000a0 93 69 f0 bc 1b 0f c3 3b a3 34 73 3d 96 63 53 bd
       -0.029347217 0.0059527284 0.05937637 -0.051608644
0000b0 db 95 5d bd 29 ac cb bd d1 b1 f4 3c 36 1f b8 3d
       -0.05409799 -0.09944946 0.029869946 0.08990328
0000c0 7a 63 31 bd 08 03 2f 3c e6 4d 93 bd 87 7c c8 3c
       -0.04330776 0.010681875 -0.07192592 0.024473442
0000d0 2f 2e 60 bd 9c 3a ec 3d 71 cb a2 3d 1d 7e 04 be
       -0.054731544 0.11534616 0.079489596 -0.12938733
0000e0 a1 cd ce bd 34 35 73 3d 8d 3f ff bd 1f e2 9e 3d
       -0.10097814 0.05937691 -0.12463293 0.07757973
0000f0 9f d9 a3 3d 8d 5e 27 bd 18 69 39 bd a1 61 3e bd
       0.08000492 -0.040861655 -0.04526624 -0.046479825
000100 98 52 ed 3b 47 7e df bd dd e9 a6 3d b7 dc ae 3d
       0.007242512 -0.10912757 0.08150075 0.08538192
000110 df 78 92 3b fa dd d7 3b d8 78 08 3e 6f 6b d2 3c
       0.0044699754 0.006587741 0.13327348 0.025685994
000120 80 e2 96 bd e2 a0 b6 bd 2b 08 8b bd 88 07 28 bd
       -0.0736742 -0.08917405 -0.06788667 -0.041022807
000130 b2 22 d2 bd cc 99 9f bd 4c a6 01 3b 81 16 b7 3d
       -0.10260524 -0.07793006 0.0019782959 0.08939839
000140 48 d8 e7 bd 6b 44 e2 3d 1e e5 80 bd 04 bd ca 3d
       -0.11320549 0.11048206 -0.06293701 0.09899333
000150 30 e9 02 bc 2f b2 e4 3d 8f af 87 bd 8d e9 a5 bc
       -0.007990167 0.11166798 -0.06625282 -0.020252967
000160 ad da 8b 3d 9b 8d 92 bb a5 95 44 3a 6d 6f fd 3d
       0.068288185 -0.004472447 0.00074991054 0.123747684
000170 17 e7 8d 3d 35 7f 81 bb 8b f2 4d bd 12 e9 a5 3c
       0.069288425 -0.003951932 -0.050280135 0.020252738
000180 48 ba b9 bd 40 d0 0a 3e db 9b 94 3b ff f9 5b bd
       -0.090687335 0.13556004 0.004535181 -0.05370521
000190 4a 58 0e 3e e3 8a e1 3c 1a 2d bf bd cd 6c 54 bc
       0.13900867 0.027532047 -0.09334774 -0.012965393
0001a0 99 49 b4 bd 14 3c f8 3d 25 2b 6e bc ea ca ae 3c
       -0.088031 0.12120834 -0.014536654 0.021336991
0001b0 e1 fa 82 bd 86 57 5a bb 92 d5 81 3c c5 78 78 bb
       -0.063955076 -0.0033316328 0.015848909 -0.003791378
0001c0 37 38 91 3b e9 1a d1 3c cf 51 94 bd 6f c3 9d bd
       0.00443175 0.025525527 -0.07242166 -0.077032916
0001d0 c6 2a 1d bd 31 72 c4 bd 17 d7 8c bd 6a a4 27 3d
       -0.03837087 -0.09592093 -0.06876963 0.04092828
0001e0 26 f4 99 bd 24 c9 d5 bc 3b 34 f4 bd 6a 16 61 bb
       -0.07517271 -0.026096888 -0.11924025 -0.0034345635
0001f0 f2 a8 ac 3a cf 5a 1c bd 9c ce 0c 3e fa b9 da 3c
       0.0013172908 -0.03817254 0.1375069 0.026700009
000200 f9 ff 25 3d 07 61 05 3e 6d 0f 9f 3d 4b e7 14 bc
       0.040527318 0.13025294 0.07766614 -0.009088348
000210 52 ed c9 3d 4f 68 79 bd a5 f5 8b 3a 9c 01 62 3d
       0.098597184 -0.060890492 0.0010678066 0.055177316
000220 55 3c bb 3a 72 89 7c 3d f0 0f 06 3d 03 ec 27 bd
       0.0014284948 0.061654516 0.032730043 -0.040996563
000230 da 76 52 3d 6a 41 3f bd f4 d7 8e bc 97 4a d5 bd
       0.051382877 -0.046693243 -0.017436959 -0.104146175
000240 7b df f8 3d a8 1c e3 bc 40 e9 d2 bc 09 91 a6 bd
       0.121520005 -0.027723625 -0.025745988 -0.08133132
000250 7b 84 3b 3c c7 91 01 bb 50 90 13 be 28 9c 14 3d
       0.01144516 -0.0019770728 -0.1441052 0.036281735
000260 47 38 15 3d ac 3b c6 3c ab 68 7c 3d 6e 0d fc bd
       0.036430623 0.024198376 0.061623257 -0.12307249
000270 1b d2 e0 3d 22 66 01 3e a4 f6 b2 3d b0 f7 1c be
       0.109775744 0.12636617 0.08738449 -0.1532886
000280 1e 04 07 3e af e6 0f bc 72 cb 07 be eb b8 0c 3d
       0.13185164 -0.008783027 -0.13261202 0.03435604
000290 8c 5e 05 bc 34 9d b1 3d 9a 1b f1 3d 48 7e 98 3d
       -0.0081402175 0.08672562 0.11772843 0.07445961
0002a0 6f 91 4f 3d 4d 0a ad 3d 34 cc 83 3d c0 90 9f bd
       0.050675806 0.0844923 0.06435433 -0.07791281
0002b0 9a 94 0b bd 92 02 45 bb f4 b3 79 3b b5 60 94 bd
       -0.034077264 -0.0030061346 0.0038101645 -0.07245008
0002c0 e2 ef af bb bd 04 fd 3d 14 27 81 bb 9d fd b7 3d
       -0.0053691724 0.123544194 -0.003941426 0.0898392
0002d0 20 4c 9c 3d 04 a8 3e 3d 4f 50 89 bd 07 61 98 bd
       0.07631707 0.04654695 -0.06704771 -0.074403815
0002e0 2e 56 37 bb 63 71 45 3d 96 99 47 bd b8 d2 dc bd
       -0.002797495 0.048203837 -0.048730455 -0.10782379
0002f0 bc 81 54 3d da 5a e9 3d c5 36 af bd c9 56 a2 3d
       0.051881537 0.11394282 -0.08555368 0.07926709
000300 63 6e 69 3d e6 78 19 bc 47 b9 84 3d 53 c6 28 3d
       0.05699004 -0.009367203 0.06480651 0.04120476
000310 58 77 5a bd f9 68 0e 3e 0d 6b 0c 3d c9 c0 8b bd
       -0.05333647 0.13907231 0.03428178 -0.0682388
000320 cf 96 81 bd b0 53 04 3e ec dc ca bd 87 b6 4b bd
       -0.063275926 0.12922549 -0.09905419 -0.04973462
000330 a4 45 c5 3d 20 f9 21 3d c6 7b 30 3d ba 37 b0 bd
       0.096324235 0.039544225 0.04308679 -0.08604379
000340 0e bb 5b bd 7c 17 62 3d 2a 2e 93 3d 67 1c 11 be
       -0.053645186 0.055198178 0.071865395 -0.14170991
000350 89 41 7d bd 0d 5f 00 3d a0 11 25 bd dc 61 27 bd
       -0.061830077 0.031340647 -0.04030001 -0.04086481
000360 d9 65 89 bc 68 c6 15 be 9b a2 d0 bc 6d 29 0b be
       -0.016772198 -0.14626467 -0.025468161 -0.13590021
000370 7d 3c ee b9 f8 81 89 3d 25 bf c1 3b 2d b4 09 3c
       -0.00045439965 0.06714243 0.005912679 0.008404774
000380 db 31 24 3e 32 64 d7 bd 6f cc bd bd ca 4c 9c bd
       0.16034643 -0.105171576 -0.09267508 -0.07631834
000390 67 51 21 bd 7c 04 79 3c 21 ef eb bc 93 59 1f 3c
       -0.039384272 0.015198823 -0.028800549 0.009725946
0003a0 78 a3 56 bd 5f f2 9e bb cd bf d0 bd 4a 7a b0 3d
       -0.05240199 -0.00485067 -0.10192833 0.08617075
0003b0 1f 36 9e bd 22 a4 cb 3c 94 60 c1 3d 92 a0 89 3d
       -0.077251665 0.024858538 0.09442249 0.067200795
0003c0 aa c8 a7 bd 15 2a ba 3d a1 02 2f bd 01 5d ee 3c
       -0.081925705 0.09090058 -0.042727116 0.029097082
0003d0 35 76 2d 3d b4 bb 8a bd 03 50 88 bc f9 8d 1a 3d
       0.04234906 -0.06774083 -0.016639715 0.037733052
0003e0 f2 22 0b 3e f0 f6 ca bd 24 f1 4b bd 2b d0 dd bd
       0.1358755 -0.09910381 -0.049790516 -0.108307205
0003f0 02 c2 5e 3d bf 98 13 bd 13 ea 24 bd e3 5c e8 3b
       0.05438424 -0.036034342 -0.040262293 0.007091151

bias f4 [64]
000000 12 9b a6 3d 29 e3 c5 bd 02 ab 52 bd af b8 01 3e
       0.08135046 -0.09662468 -0.051432617 0.12668107
000010 51 e3 bb bc c4 dc 80 bd a5 9d 67 bd cd 3c bf bd
       -0.022935541 -0.06292108 -0.056546826 -0.09337769
000020 8f c2 a4 bd 35 be ca 3d 1d 5f b3 3c a1 7e 5f ba
       -0.080449216 0.0989956 0.02189594 -0.0008525644
000030 c9 03 e1 bd dd fd 34 3d 31 60 b2 bd 7d e3 8b bd
       -0.1098705 0.044187415 -0.08709753 -0.06830499
000040 da 11 d7 3d 35 4f f9 3d ab 2c ee 3c 6f 24 7a 3d
       0.10501452 0.12173311 0.029074034 0.061069902
000050 fb e0 87 3d 80 cf 8c bd 51 1f 9e 3c fd 7a 9c bc
       0.066347085 -0.06875515 0.019302042 -0.019101614
000060 07 a6 3d 3d c6 c4 1b bd 38 4e b9 bd 92 a7 e6 bd
       0.046300914 -0.038029455 -0.09048122 -0.1126243
000070 36 1b 81 3d 01 2f fb 3d 32 34 fd bc 2d d7 e4 bd
       0.06304018 0.12264825 -0.030908678 -0.11173854
000080 8f b2 a3 3d 43 07 c8 bd 62 74 6b 3c 4c 82 7a 3d
       0.07993042 -0.0976701 0.01437101 0.061159417
000090 9b ad 6c 3d 68 32 c0 3d 21 4d 48 3d be f6 8a 3c
       0.05778275 0.09384614 0.04890168 0.016963359
0000a0 e6 6f 23 3b 8a 60 04 bc cf 77 db bd 94 a0 d7 3d
       0.0024938523 -0.008079657 -0.10716211 0.10528675
0000b0 4b 6f d0 3d 11 81 a0 3d 3d fa 09 bd 98 36 cb bc
       0.101774774 0.078371175 -0.03368591 -0.024806306
0000c0 30 8b 38 bd f1 28 a5 bd b6 e5 1f bd 8b 12 bc 3c
       -0.045054615 -0.080644496 -0.03903743 0.02295806
0000d0 f9 0b a5 bd 91 5c ea 3d 3f 1b 5a bd 6a 6e dd bc
       -0.08058924 0.11443437 -0.05324864 -0.027030189
0000e0 8a 6c e0 3d 2c 7d 78 bd 09 42 b7 bd 79 97 a2 3c
       0.10958202 -0.06066625 -0.08948142 0.019847618
0000f0 0c 38 d1 bd 34 d3 17 3c 94 ba 36 bd 89 78 f7 bc
       -0.10215768 0.009266663 -0.04461153 -0.030208843

weight f4 [2, 64]
000000 ec 88 c4 3c 1a 57 8b bd 6e 78 1d 3d 25 4a ab 3d
       0.02399107 -0.06803723 0.03844493 0.08363751
000010 d3 df 2f bd 10 a3 9a bc 87 42 10 be b7 94 84 3d
       -0.042938065 -0.018876582 -0.14087878 0.064736776
000020 53 3e 1c be 1e 45 04 bd 27 0e 1a be 3f 02 59 3d
       -0.1525815 -0.032292478 -0.15044461 0.052980658
000030 1a 54 a5 bb fa 66 11 3e ed 87 ef 3d 73 01 2f be
       -0.005045426 0.14199439 0.11695848 -0.17090397
000040 7d 82 30 be a3 24 2e 3d 34 44 03 be 89 03 11 3e
       -0.17237277 0.04251541 -0.12818986 0.14161505
000050 b6 49 39 b9 d5 8a 89 bc 15 13 b6 3d e5 07 dd 3d
       -0.00017670434 -0.016789833 0.08890358 0.107925214
000060 e7 4a a5 3d 14 73 42 bd 05 5b f2 3d bd 50 2d be
       0.08070927 -0.04747303 0.11833767 -0.1692533
000070 e6 92 d3 3d 99 70 ec 3b c3 1c 1e 3e 7a 96 84 3d
       0.10330753 0.007215571 0.15440659 0.064740136
000080 d0 e0 bc bd 7a 3f ef bc 72 be c5 3d 9c 80 1a 3d
       -0.09222567 -0.029205073 0.09655465 0.037720308
000090 1a dd 54 bd 29 e1 1e 3e d4 a2 17 3d e9 27 e2 3d
       -0.05196867 0.1551558 0.03702052 0.110427685
0000a0 0e e6 12 3d c1 12 f9 3c e5 ea a3 bd f4 45 b7 3d
       0.03586393 0.03040445 -0.08003787 0.089488894
0000b0 95 51 d8 3d ae d8 8e 3c f7 5a d5 3c 8e ee 88 bd
       0.105624355 0.017437305 0.026044352 -0.06686126
0000c0 6e 8c f8 bd 42 44 1b 3c 35 cb 64 bd 2e 39 06 3e
       -0.1213616 0.009476723 -0.055857856 0.1310775
0000d0 d8 6e 15 3d cc 82 0f 3e f2 59 e5 3d d1 3f 07 3e
       0.036482662 0.14014739 0.11198796 0.13207938
0000e0 3e d6 7b bd 68 cc 01 be 68 5a 89 3b 60 9f ef bb
       -0.061483614 -0.12675631 0.0041916855 -0.0073127
0000f0 2e 97 7a 3c 73 b9 bd 3d 65 93 bb 3d 7b 79 9b bd
       0.015294833 0.09263887 0.09158973 -0.0759153
000100 e0 58 0e 3e 1c 07 16 3e da 8a 6a bd c5 7a 94 bd
       0.1390109 0.1465115 -0.057261325 -0.07249979
000110 92 df 05 3e 50 38 c8 3d 54 6d fb 3d 2c 08 30 3e
       0.13073567 0.09776366 0.12276712 0.17190617
000120 a2 b0 cb bb 41 98 8c 3d 14 40 3c 3a f0 73 df bc
       -0.0062161246 0.06864978 0.0007181179 -0.027276963
000130 df aa 2a be 7f 20 03 be 2d b7 72 3d 92 f9 7d bd
       -0.16666745 -0.12805365 0.05925672 -0.062005587
000140 12 8a 05 bd b1 e3 4a bd c1 c8 f4 3d ab d4 be bd
       -0.032602377 -0.04953355 0.11952353 -0.09317907
000150 d6 a3 17 be 0e df e4 3d bf 95 b7 3d 60 f6 05 be
       -0.14808592 0.11175357 0.08964109 -0.13082266
000160 72 3a 68 bd ab 33 21 3e 2f 3f 2a be 68 9c 37 bd
       -0.056696363 0.15742366 -0.16625665 -0.044826895
000170 b1 f3 16 be bc a3 fb 3d 7c 57 84 3d 2c f7 26 bd
       -0.14741398 0.12287089 0.06461999 -0.040763065
000180 7d b2 ee 3d fb 93 fb bd 61 fc 01 bd 12 f3 2f be
       0.11655138 -0.122840844 -0.031734828 -0.17182568
000190 2b 0e 00 3e 0d 88 c8 bc 68 72 78 bd 51 84 ae bc
       0.12505405 -0.024478937 -0.06065598 -0.021303328
0001a0 a9 da 34 bd a1 22 05 3e 5e 27 1c 3d 84 8b 05 be
       -0.044153843 0.13001491 0.03812348 -0.13041502
0001b0 51 92 b8 3d 36 12 ab 3d 45 bb 05 3e cb eb 9e bb
       0.09012283 0.08353083 0.13059719 -0.004849886
0001c0 a9 65 a7 3d 18 5b e7 bd 25 c8 e5 bc b0 75 f0 3c
       0.08173687 -0.11296672 -0.028049538 0.029352993
0001d0 2a c1 f6 bd 60 45 cc 3c ba b0 eb 3c 66 38 8f bd
       -0.12048562 0.024935424 0.028770793 -0.06993179
0001e0 0f 4b 0c 3e 40 9f 1d 3c f9 e5 09 3e 9d 71 b2 bb
       0.13700508 0.009620488 0.13466634 -0.0054456727
0001f0 34 24 e0 3d 11 ec ca bd 2f fc c3 bd 50 81 c6 bd
       0.10944405 -0.09908307 -0.095695846 -0.09692633

bias f4 [2]
000000 f4 3f 84 3d bd e8 db 3d
       0.064575106 0.10737751

weight f4 [64, 4]
000000 8c 20 fa be a1 f1 5e 3e 19 f9 20 c0 ab 25 05 3f
       -0.48852956 0.21771862 -2.5152037 0.520106
000010 00 23 fb be 3d d0 c8 3e e0 bc 24 c0 6b 8a b6 3e
       -0.4905014 0.39221373 -2.574028 0.3565248
000020 00 fc f9 be a9 ae 39 3e ad 7e 0e c0 83 e6 83 be
       -0.48825073 0.18133034 -2.2264817 -0.25761804
000030 64 76 7b bd 89 1c 5d 3f 45 40 d4 3f 69 13 2d 3f
       -0.061392203 0.86371666 1.6582114 0.6760774
000040 d1 11 3d bf 30 21 78 3e c2 cf 0f c0 a2 9d 7e 3e
       -0.7385531 0.2423141 -2.2470555 0.2486482
000050 36 e9 8c bc 03 8e b4 bd 1a c1 2c 40 6e fe ab be
       -0.017201047 -0.08816149 2.699286 -0.33592552
000060 4e 48 c2 3e 30 61 ab 3e 6f 2f ce bf 7e b3 47 3e
       0.3794579 0.33472586 -1.6108226 0.19502065
000070 ae 86 78 3f 99 e5 62 be 20 1e 56 3f 02 a7 e4 3e
       0.97080505 -0.22157897 0.8363972 0.44658667
000080 a4 bc 88 bd 67 8f 18 bf 9b e7 b5 3f ce 55 ba 3e
       -0.06676605 -0.59593815 1.4211305 0.3639359
000090 18 30 5b bf e6 dd b1 3d 79 e6 08 40 fe eb c1 3e
       -0.8562026 0.08684902 2.139067 0.3787536
0000a0 a8 1b 86 be ba 43 27 bf db da 14 bf 47 83 5b bf
       -0.26192975 -0.6533772 -0.58146447 -0.8574719
0000b0 e4 06 0a 40 f8 d7 97 3e 59 8b 47 bf 6f 47 b9 3e
       2.1566706 0.2965696 -0.77947 0.36187312
0000c0 59 0b b1 3f 98 ff 43 3f bf 35 12 be 4e 62 02 3f
       1.3831588 0.7656188 -0.14278315 0.5093125
0000d0 84 95 51 bf fa df d7 3e eb d9 20 c0 e0 14 d8 3e
       -0.8186877 0.42163068 -2.5133007 0.42203426
0000e0 b0 54 d4 3f c8 3e a1 3f bc b2 ff be 75 5f 93 bc
       1.6588345 1.2597284 -0.4994105 -0.017989853
0000f0 cc 89 e6 3f 1a ce 5c bf 4c 5e bb 3f 05 b7 62 bf
       1.8010802 -0.86251986 1.4638152 -0.88560516
000100 ea 81 86 be 63 93 ab be 29 f3 fd bf f7 b5 0e bf
       -0.26270992 -0.33510885 -1.9839832 -0.55746406
000110 20 ff 81 bf ff ce a9 3e 9b dc df bf 8e b2 40 be
       -1.0155983 0.33165738 -1.7489198 -0.18818113
000120 17 f7 8c bf 5e fd 15 3f 77 fe 16 c0 70 ed d4 3e
       -1.1012906 0.5858973 -2.3592813 0.415874
000130 7a b7 ff 3d a0 0f 85 3c c5 4b 2b 40 49 1b d0 bd
       0.12486167 0.016242802 2.6764996 -0.10161454
000140 00 c7 68 bf 50 4b bf bd f3 d6 8f 3f 28 60 ec be
       -0.9092865 -0.093405366 1.1237472 -0.4616711
000150 3e 72 83 be ca fe d3 3e e4 f1 be 3f f2 74 61 3e
       -0.25673097 0.41405326 1.4917569 0.22017267
000160 a6 36 d6 3e 30 4c 27 bf 21 b4 f2 bf 6c 54 3c bf
       0.41838568 -0.6535063 -1.8961221 -0.7356632
000170 17 8c 54 3f 00 af 01 bf 37 20 25 40 7d b0 51 bf
       0.8302626 -0.50657654 2.5800912 -0.81909925
000180 9c a2 ec 3e e9 e7 17 bf 23 fa 02 c0 2d a3 dd be
       0.4621781 -0.5933824 -2.0465171 -0.43288556
000190 60 15 17 bf 4a 10 9c 3e 1e ea 2d c0 cc c1 92 3e
       -0.5901699 0.30481178 -2.7174144 0.2866348
0001a0 42 b9 59 3f 1e e7 14 3e 74 ef 2c bf bf 8c bb 3d
       0.85048306 0.14541289 -0.67552876 0.091577046
0001b0 3e 08 1d 3f 06 9b ee bc fe c6 d3 3f e8 09 fc 3e
       0.613407 -0.029126655 1.6545103 0.49226308
0001c0 1b 39 4b 3e 9d a2 18 3f 83 fb 87 bf f3 3a 4d be
       0.19846003 0.5962313 -1.062363 -0.20042019
0001d0 7e d7 7d bf 4a e6 c2 3d 25 52 12 40 f9 81 98 3e
       -0.9915694 0.095165804 2.2862637 0.2978666
0001e0 e1 59 98 3d 18 a7 3d bf 3a eb 0a 40 22 09 84 3e
       0.07439018 -0.7408309 2.170607 0.25788218
0001f0 41 9b 13 be c2 dc 23 3f 18 16 03 40 24 9f ff 3e
       -0.14414693 0.64008725 2.0482235 0.49926102
000200 37 59 b6 bf df 05 8e be a9 ec 9e 3f 6f 02 0f bf
       -1.4245976 -0.27738854 1.2415973 -0.5586309
000210 46 bd 46 bd b2 19 49 3f f8 86 01 c0 38 63 94 bd
       -0.04852035 0.7855483 -2.0238628 -0.07245487
000220 e8 00 98 bf 97 8c 88 3f 68 7d 70 be 45 eb 84 3f
       -1.1875277 1.0667905 -0.23485339 1.0384299
000230 ad 2a 2a bf d2 eb 39 3e 2c 15 1a c0 46 29 c4 be
       -0.6647137 0.18156365 -2.4075422 -0.3831274
000240 98 1a a3 be 12 78 26 3d f4 7c 1b 40 d4 8b bd 3e
       -0.31856227 0.04064185 2.4295015 0.37020743
000250 67 20 7d 3f 8c 53 8d 3f 8c 0e 03 3f ec 16 51 3f
       0.9887757 1.1041121 0.5119407 0.816756
000260 0f 45 41 bf 78 27 e3 3e 89 83 12 c0 89 dd 3c bd
       -0.75496 0.4436605 -2.2892783 -0.04610971
000270 9e 72 8b 3f 10 1a 57 bf e3 52 73 bf 0a 26 06 bf
       1.0894353 -0.84024143 -0.9504835 -0.52401793
000280 48 19 93 3f 23 79 2c 3f bf 53 48 bf f9 05 fc 3e
       1.149209 0.6737234 -0.78252786 0.49223307
000290 b7 b5 24 3f fc c0 f0 be d1 18 d2 3f f1 53 3b be
       0.64339775 -0.47022235 1.6413823 -0.1829374
0002a0 a2 f6 d3 be 3d d8 87 3e 15 87 1e c0 61 b4 80 3e
       -0.41399103 0.26532164 -2.4769948 0.25137618
0002b0 fa 10 cc 3e c1 5a a8 3f 2c de 22 bf 5a 47 6f 3f
       0.39856702 1.3152696 -0.6362026 0.9346825
0002c0 f3 35 b2 bf cf 3d 50 3f e5 0b ca bf 95 1d 4f 3f
       -1.3922714 0.8134431 -1.578488 0.80904514
0002d0 0d cf 1f bf 46 73 f8 3e a5 16 2d c0 7c 3a 24 3f
       -0.6242531 0.48525447 -2.704507 0.6415174
0002e0 8e 45 60 3f 9b b7 ab be ae a9 bd 3f 85 d8 03 3d
       0.8760613 -0.33538517 1.4817407 0.03218891
0002f0 00 ae 14 bf 27 01 ae 3e b3 2e 00 40 4f 0c 31 3f
       -0.58078 0.33985254 2.0028503 0.69159406
000300 f6 7c 3b 3e 2d 9f 11 3d 29 39 1b 40 04 32 d9 3d
       0.18309388 0.035552192 2.4253638 0.10605243
000310 0a d5 5c 3f 88 51 df bd 0d d9 02 c0 7f 10 32 be
       0.8626257 -0.10904223 -2.0444977 -0.17389105
000320 bf 18 a1 3e 2a 0f 94 3d 47 39 23 40 fd d3 af be
       0.31464192 0.07229455 2.550371 -0.34341422
000330 b6 1a 4f bf d2 4c 46 bd 3d f3 0c c0 b9 08 13 bf
       -0.8090013 -0.048413105 -2.202346 -0.57435185
000340 fc ac 4e 3f 93 31 7f 3f e9 6b 2e be c0 0d e7 3e
       0.80732703 0.9968502 -0.17033352 0.45127678
000350 21 92 26 bf bb fa 1c bf 76 da 55 3f c1 13 82 bd
       -0.65066725 -0.61320084 0.8353647 -0.06351424
000360 c0 da 65 bf f8 ed c9 3e ad 5b 07 3e 39 be bb 3e
       -0.8978691 0.39439368 0.13218565 0.36668566
000370 b7 23 5a bf 06 f7 00 3f c0 ab 1a c0 db 88 23 3d
       -0.85210747 0.5037693 -2.4167328 0.039925437
000380 f6 05 cf bf f1 c1 66 bf 5b 34 92 3f 3b 0a 0d 3e
       -1.6173694 -0.9013968 1.1422228 0.13773434
000390 45 10 ea 3e 92 13 89 be 88 9b f5 bf a7 76 4d bf
       0.45715538 -0.26772743 -1.9188089 -0.80259174
0003a0 81 86 8b 3e dc c7 de bd 02 05 f8 3f 3d 0a d2 3e
       0.27251056 -0.10877964 1.9376528 0.41023436
0003b0 ae c1 6f 3c fb e8 9a 3e ba d0 1a 40 56 fd 68 3e
       0.014633579 0.30255875 2.4189897 0.2275289
0003c0 3f 16 22 3f af 91 12 bd 5c 94 7f 3f 5f 98 3a 3d
       0.63315195 -0.035783466 0.99835753 0.04555547
0003d0 8f 17 30 3f 38 bf 93 be 04 8f 2d 40 c2 47 5b bd
       0.6878595 -0.28856826 2.711854 -0.05353523
0003e0 0b 01 82 be 41 3d cf be d3 4b 01 c0 ea 89 4b bf
       -0.2539142 -0.4047642 -2.020253 -0.79507315
0003f0 c6 78 d0 3e e5 94 e5 be 7a e1 01 c0 b1 2a 9d bd
       0.40717143 -0.4484016 -2.029387 -0.07674158

bias f4 [64]
000000 35 57 6f 3e 75 4b 5d 3e 27 f8 c7 3e 8a 50 85 be
       0.2337311 0.21610816 0.39056513 -0.2603801
000010 f3 39 c6 3e b0 72 a6 3c 8e f4 04 bf 29 96 7a 3b
       0.38716087 0.02031836 -0.5193566 0.0038236475
000020 e8 22 41 bf 2f 4f 5d 3f f2 94 96 be 32 08 a4 be
       -0.7544389 0.8644895 -0.2941051 -0.32037503
000030 2c 92 d2 3e 10 2d b4 3e 23 1a 36 3f 6e 02 01 be
       0.41127145 0.3519063 0.7113363 -0.12598583
000040 9b 9a b7 be 6b 87 87 3e 95 de cd 3e c8 63 5e be
       -0.35860142 0.26470503 0.4020888 -0.21717751
000050 45 cb be 3e fd 89 51 be 10 92 7b 3e a7 45 21 be
       0.37264457 -0.20462795 0.24567437 -0.15749227
000060 5b 95 04 3f 57 3a 7f 3e 40 7e 07 3f fc 80 06 bf
       0.517904 0.24924599 0.5292702 -0.52540565
000070 44 9a 34 3f 46 e3 62 3f 1b d8 17 bf 75 bf 72 be
       0.7054789 0.8862804 -0.59314126 -0.23705848
000080 e8 3a a6 3e f2 b0 26 bf 1a c2 b0 be 02 75 08 bf
       0.32466817 -0.6511375 -0.34523088 -0.5330354
000090 29 74 f9 3e 7c 25 9c be b6 e0 d8 be 70 f8 f9 3e
       0.48721436 -0.30497348 -0.4235894 0.48822355
0000a0 b5 41 bc 3e ad 73 89 bd 6f c5 31 3e f5 db c8 be
       0.3676888 -0.067115165 0.17360471 -0.39230314
0000b0 88 9f 83 3d 35 72 18 3e 67 d4 f1 be c3 ce ae bd
       0.064269125 0.14887317 -0.47232363 -0.085355304
0000c0 67 49 a2 be 58 86 36 bf 5a d7 74 be e0 22 a5 be
       -0.31696627 -0.7129874 -0.23910275 -0.3225317
0000d0 7e cb b6 3e 92 0d cd 3e 7f 62 08 be c5 23 cd be
       0.35702127 0.40049416 -0.13318823 -0.40066352
0000e0 6f df 27 3f c4 38 cd 3d 85 0c 64 3e 20 b5 f7 3e
       0.6557531 0.10020593 0.22270401 0.48380375
0000f0 1d 92 ca 3e 91 ad fb be c8 ff 64 be 62 5c df 3e
       0.395646 -0.49155858 -0.22363198 0.4362517

weight f4 [64, 64]
000000 d8 2f 1e bf 33 a8 0e be 2a 1c 08 bf 1e e4 1e 3f
       -0.61791754 -0.1393135 -0.53167975 0.6206683
000010 19 02 45 bf 1f 40 dd 3e 50 20 0b 3f dd c7 6b be
       -0.76956326 0.43212983 0.5434618 -0.2302546
000020 1f b9 be 3e 62 22 e9 be 9e d4 97 3d a3 20 77 bd
       0.3725061 -0.45534045 0.074136004 -0.06033386
000030 fa 91 10 bf ce f5 69 bf 77 7a 16 bf ff 54 ce 3e
       -0.5647274 -0.91390693 -0.58780617 0.40299222
000040 f2 6d 94 3e 9d 1d 3b be 6f 3a 59 bf 04 61 88 3e
       0.28990132 -0.18273015 -0.8485479 0.26636517
000050 3b c6 3f bd 0c 88 99 3e 43 74 ce be b4 96 24 3f
       -0.046819907 0.29986608 -0.40323076 0.64292455
000060 40 3e 53 bf 34 86 11 be 5b 7d 00 bf e5 4f 16 3f
       -0.8251686 -0.1421135 -0.5019128 0.5871566
000070 26 6a 9d be a1 07 13 bf e9 c8 20 3f 5e 44 1e 3f
       -0.30745047 -0.57433516 0.62806565 0.6182307
000080 5e a1 17 3e 58 58 3d 3f 93 7b 1e bd 83 b7 af 3e
       0.1480765 0.73962927 -0.03869207 0.34319696
000090 87 78 fe 3c 06 5a 0c 3e 41 32 8a 3e c0 38 97 be
       0.031063331 0.13706216 0.26991466 -0.29535484
0000a0 9b 40 1d bf 7a 5f 53 3d 6c 7e 37 be 71 05 20 3e
       -0.61426705 0.051604725 -0.1791932 0.15627076
0000b0 7e 2a af be ea da bd be 7b 3d 16 3f 4c e9 0e 3e
       -0.34212106 -0.3708108 0.5868756 0.13956183
0000c0 f1 43 85 3e a6 f5 99 3e 4b ae c8 3e af 33 59 3e
       0.26028398 0.30070227 0.39195475 0.21211122
0000d0 80 f7 02 bf ad 7f a1 be df ab 88 3e 56 55 4d 3e
       -0.51158905 -0.3154272 0.26693627 0.20052084
0000e0 c0 61 22 be 71 9f 7e bd 7c dc bf bd c0 7f f6 bd
       -0.15857601 -0.062163774 -0.09368226 -0.12036085
0000f0 33 a4 78 3b 3c 1d 78 3f be 71 76 3e b0 7d 44 bf
       0.0037939667 0.9691961 0.24066827 -0.76754284
000100 7c 85 53 bf c7 50 10 bf 11 c2 2c bf 34 24 43 3f
       -0.82625556 -0.56373256 -0.6748362 0.76227117
000110 98 8e 42 bf 32 32 32 3f e4 91 c2 3e e9 31 87 3c
       -0.7599883 0.6960784 0.3800193 0.016503291
000120 f4 7c 72 bd d2 61 25 be 6c 29 dd bd ab 96 32 3d
       -0.059201196 -0.16150597 -0.10798916 0.04360072
000130 05 5f a7 bd 9f f7 47 bf 17 d6 a1 bc b2 3f ac bd
       -0.081724204 -0.78112215 -0.019755406 -0.084105864
000140 49 3f 93 be c7 1d 84 be f3 d9 0b bf 25 9d 80 3f
       -0.2875922 -0.25803968 -0.5462944 1.0047957
000150 86 1a 00 bc b4 fd 85 3f c7 d7 80 bf de 4e 15 3f
       -0.007818824 1.0468049 -1.006585 0.58323467
000160 7a 36 cb bf 87 fd 11 bf 35 af 9a bd e9 1a 23 3f
       -1.5876 -0.5702748 -0.07552949 0.63712937
000170 a4 f1 40 bd 2f 87 8c be 93 8f b9 3c 2b 7e 2c 3f
       -0.047105446 -0.27446887 0.02265147 0.6738002
000180 a4 0b 11 3e bf 6c 0e 3f f4 15 9f 3f 8e 61 fa 3c
       0.14164597 0.55634683 1.2428575 0.030564096
000190 7f ec b8 3e aa 9e bf 3e d7 cd 27 3e 5b 4c 8e bf
       0.36117932 0.3742574 0.16387115 -1.1117052
0001a0 d9 ca 59 bd 36 6d 27 3d b9 1e 4a bf e3 69 26 3f
       -0.053171966 0.040875636 -0.7895313 0.6500532
0001b0 34 72 f1 bc 98 6c 14 bf 53 20 06 3f 87 c1 e6 3e
       -0.029473402 -0.579782 0.5239307 0.45069525
0001c0 8e a8 77 3f 2d 1d 2d 3e db 43 56 3f d3 27 16 bd
       0.9674157 0.16905661 0.8369729 -0.036659073
0001d0 4e 43 2e 3d 36 ec 03 bf 06 1c 52 3e b2 5f cf 3d
       0.042544656 -0.51532304 0.20518503 0.10125674
0001e0 24 1e 06 bf fc 30 24 bf 09 d2 89 3e 34 e8 88 3e
       -0.5238974 -0.64137244 0.26918057 0.26739657
0001f0 af 38 f6 bc 76 95 49 3f 73 45 1b bd 90 73 ad bf
       -0.030056326 0.78743684 -0.03790803 -1.3550892
000200 e5 05 e3 bd 84 2e 90 3e e5 74 fc bd c4 d6 06 bf
       -0.11085109 0.2816049 -0.12326983 -0.52671456
000210 63 85 cf 3d 2e 35 34 bf e1 2a dd bc 8b 99 10 bf
       0.101328634 -0.70393646 -0.026997985 -0.5648429
000220 d9 10 16 3f 53 db 72 be e9 2f 2d 3f 47 7b b1 be
       0.5861946 -0.23716478 0.6765123 -0.34664366
000230 2a dd 4f bf 0b 54 ab 3e 5f 9e 4a bf f5 b8 87 bf
       -0.81196845 0.33462557 -0.79147905 -1.060332
000240 e3 20 27 3f 79 77 b8 3e 22 98 b8 3e 66 47 07 be
       0.65284556 0.3602865 0.36053568 -0.1321083
000250 72 61 02 3e c7 69 ce 3e 89 70 bf bd 42 e9 32 bf
       0.12732485 0.40315077 -0.09347636 -0.69887173
000260 17 1b 07 bf 92 52 f5 3e cc cd 7b bf df 7b b9 3d
       -0.5277571 0.4791456 -0.98360896 0.0905683
000270 a1 0c 46 bf d1 59 93 be d7 a3 1c 3f 24 e8 84 be
       -0.7736302 -0.28779462 0.611875 -0.2595836
000280 be c4 cc 3d 47 59 41 3e 9c e9 12 3f 09 b9 a0 3e
       0.09998463 0.18881713 0.5738771 0.3139117
000290 68 5b 06 bf 5b 4b 8b bd e7 6b cd 3e 46 fd 59 bf
       -0.52483225 -0.06801482 0.40121385 -0.8515209
0002a0 23 d6 61 bf e3 10 99 bf c1 63 a8 3e f5 96 01 3e
       -0.8821737 -1.1958278 0.32888606 0.12655242
0002b0 fe 7e 32 3f af 62 22 3f fe 90 8c 3d 04 15 5d bd
       0.69725025 0.6343183 0.068635926 -0.05397512
0002c0 9e 3b 29 bd 9c 91 3d 3e 5e 27 73 bd 6b fc 41 3f
       -0.04131662 0.18512577 -0.059363715 0.75775784
0002d0 7d 1b 65 bf cf df 22 be 57 61 02 3f 49 73 d6 3e
       -0.8949507 -0.15905689 0.5092978 0.4188483
0002e0 3c aa ab bd 05 5b 84 bc e4 b2 a5 be 64 e3 04 bf
       -0.08382079 -0.016156683 -0.32363045 -0.5190947
0002f0 14 7b 7a bf 93 fb 2d 3e cc d7 0e 3f ad 3f e3 be
       -0.9784405 0.16990499 0.5579803 -0.44384518
000300 5a 8f b2 bc 55 f0 8f be eb 17 13 be 87 e6 43 be
       -0.021796871 -0.28113046 -0.14364593 -0.19130908
000310 a9 cf 15 bf f8 7d e6 be 25 6c ce 3e 0b 25 83 be
       -0.5851999 -0.45017982 0.40316883 -0.256142
000320 72 32 62 3e ee 2f 23 bf eb c6 79 3e 0d 3a a7 3e
       0.22089556 -0.6374501 0.24392287 0.32661477
000330 0a da 90 be e9 5e 49 bf aa ad aa be 14 9a 78 3f
       -0.2829135 -0.78660446 -0.3333562 0.97110105
000340 e7 b5 07 3f c1 90 d1 3d c5 a8 95 bf ba 0e 26 be
       0.53011936 0.10232688 -1.1692129 -0.16216555
000350 bb ef 9d be 6c 93 82 be b8 7d af 3e 6b dd 7d 3d
       -0.30846962 -0.255031 0.34275603 0.06197874
000360 69 bf 80 3e 97 be 92 bd 1f 4b 54 be 78 d6 a1 3e
       0.25146034 -0.071652584 -0.20731781 0.3160894
000370 2f 8f 86 be 17 30 19 bf c8 ed 48 3e 0b 57 be be
       -0.26281115 -0.59839004 0.19621956 -0.37175784
000380 43 f0 e3 bd ee 84 13 3f ba d8 12 be 75 38 81 3e
       -0.11129811 0.5762471 -0.14340487 0.25238386
000390 cb a5 ea be 3c 93 94 bc 0f 0e fe 3d c1 9d 82 3d
       -0.45829615 -0.018136613 0.12405025 0.063777454
0003a0 bb 57 a7 bd 8e 86 c0 be 61 7b af bd d0 27 0b be
       -0.0817103 -0.37602657 -0.085684545 -0.13589406
0003b0 a9 91 0f bf 79 ca cc 3b d9 f5 e3 3e 01 bd 56 bf
       -0.56081635 0.0062497226 0.44523504 -0.8388215
0003c0 d7 96 47 3d 86 3b d2 3e 6e ff 91 be 95 e4 8f 3e
       0.048727836 0.41061038 -0.2851519 0.28104082
0003d0 d2 9a 77 be 52 2c 66 3c 9a 6f 59 be 0f 8f 20 3e
       -0.24180153 0.014048653 -0.21233979 0.15679573
0003e0 38 cd 9d be 21 9d 28 3f 04 b8 d7 be 62 e4 c4 be
       -0.30820632 0.6586476 -0.4213258 -0.38455492
0003f0 dc 64 91 be 15 01 18 3f 70 ea b0 3e 5e 96 18 3e
       -0.28397262 0.5937665 0.34553862 0.1490111

bias f4 [64]
000000 50 83 20 bf 54 5b d8 be 96 eb 0d be fc 19 95 be
       -0.62700367 -0.42257178 -0.138594 -0.29121387
000010 8e 47 61 3e a3 61 f2 be db 40 01 bf e2 80 bb 3e
       0.21999952 -0.47340116 -0.50489587 0.36621767
000020 27 2b c1 be ec 8a 91 be 33 d3 99 3e 6f 4d eb be
       -0.37728235 -0.284263 0.30043945 -0.45957515
000030 16 bc ce bd 35 7c f8 3e b1 b2 ec bd 53 c7 87 be
       -0.10094468 0.48532262 -0.1155752 -0.2651926
000040 90 48 85 3e 1b d2 c2 3c 16 e4 49 bf 63 5d 1d bf
       0.26031923 0.023781827 -0.78863657 -0.6147062
000050 2e 43 75 3e 14 38 91 be aa 20 45 3e e9 b8 a3 3d
       0.23951408 -0.28363097 0.19250742 0.07994253
000060 52 1a bc be 8d 0f e8 bd 9c 70 ac bd 0c 28 1e 3b
       -0.3673883 -0.11331091 -0.08419916 0.0024132757
000070 7d 83 3a bf 13 be 80 bd dd 86 2b bf 10 b8 bf 3e
       -0.72856885 -0.06286254 -0.6700266 0.37445116
000080 88 27 b9 bc 1e 07 99 be 67 28 b6 3d 2b d5 13 be
       -0.022601858 -0.29888242 0.08894425 -0.14436786
000090 5a 9b ee 3e ff 98 c1 3e 22 e2 cb be 7c 51 10 3f
       0.466029 0.3781204 -0.39820963 0.56374335
0000a0 df 6f 0b bf 73 46 16 be f5 cc bd be 64 cc d0 3e
       -0.54467577 -0.14675312 -0.37070432 0.40780938
0000b0 fd dc 69 bd 0e fc 88 bd 36 a5 84 be 2f 2f cc 3e
       -0.057095516 -0.066887006 -0.25907296 0.39879748
0000c0 8f dc b3 be f4 97 a7 be 52 10 90 be e5 b6 de bd
       -0.3512921 -0.3273312 -0.2813745 -0.10874728
0000d0 fe ff 2e 3f 82 19 95 3e 78 93 87 be a0 59 20 3e
       0.68359363 0.29121023 -0.26479697 0.15659189
0000e0 30 79 e4 be 72 a6 a5 3e 95 e5 87 be 87 c8 7a 3e
       -0.4462371 0.3235355 -0.26542345 0.24490558
0000f0 c8 d9 fb 3e c1 03 a2 3c 23 ca 2b 3e b4 8d 08 bf
       0.4918959 0.01977718 0.16776328 -0.5334122

weight f4 [1, 64]
000000 07 71 ec bf b3 64 b8 bf 7d b7 77 3f 92 4a 82 bf
       -1.8471993 -1.4405731 0.96764356 -1.0179007
000010 56 4b d7 3f 55 02 06 bf ff 43 c1 be 08 74 b2 bf
       1.6819866 -0.5234731 -0.3774719 -1.394166
000020 23 6d eb bf 3f e2 e3 bf 08 05 b6 3f 7f 1a 07 c0
       -1.8392681 -1.780342 1.4220285 -2.1109922
000030 0b 2d c5 bf b6 44 b2 3f 6e da d2 3f aa 07 48 bf
       -1.5404371 1.3927219 1.647291 -0.78136694
000040 58 75 bb 3f 29 cf 9d bf 0a 68 cc bf ea 90 97 bf
       1.4645185 -1.2328845 -1.596925 -1.1841099
000050 e5 35 1c 3f 34 20 fe bf 11 07 13 40 f7 b8 91 bf
       0.61019737 -1.9853578 2.2973063 -1.1384572
000060 f4 3b 80 bf 28 89 9a bf 42 6f af 3f 77 f1 15 bf
       -1.0018296 -1.2073107 1.3705828 -0.5857157
000070 9b 4a c2 bf c4 fb 87 bf f3 67 b9 bf ba 66 06 40
       -1.5179018 -1.0623708 -1.4484848 2.10002
000080 e4 11 a0 bf d3 e9 80 bf b4 86 ba 3f 9c 2d ca bf
       -1.250546 -1.0071357 1.4572358 -1.5795169
000090 47 84 ba 3f fb d0 27 3f 2d d7 af bf 04 84 02 40
       1.4571618 0.65553254 -1.3737541 2.0393076
0000a0 2e f2 19 bf 76 26 ea bf ba 29 8c 3f 15 1b b6 3f
       -0.6013516 -1.8292987 1.0950234 1.4227015
0000b0 18 e6 f4 bf 8e 58 80 3f 47 2b d8 bf 6a cb a7 3f
       -1.9132719 1.0027025 -1.6888207 1.3108952
0000c0 7a dc 9b 3f 3e cb 98 bf 02 46 7c bf 5d 0a cb bf
       1.2176659 -1.1937025 -0.98544323 -1.5862538
0000d0 4d 77 d0 3f 0f 04 c5 3f cc fb e4 bf 8e 4a d9 3f
       1.6286408 1.5391864 -1.7889342 1.6975877
0000e0 cc af d0 bf bd 86 ce 3f 85 5b db bf 83 a2 9e 3f
       -1.6303649 1.6134869 -1.7137305 1.2393345
0000f0 41 85 b4 3e 67 d6 c4 bf 39 80 e0 3f 1a d3 d2 bf
       0.35257915 -1.537793 1.753913 -1.6470673
