data/1008CartPole-v0_dqn_dueling_double/1008CartPole-v0_dqn_dueling_double_s10/pyt_save/model.pt (torch, 140807 bytes, 9 tensors)

weight f4 [128, 4]
000000 68 bf d2 be 7e ac a0 bd 4a 8b ab 3e 99 78 c3 bd
       -0.41161656 -0.078454 0.33504707 -0.095444866
000010 5b 97 36 bf 11 72 37 bd c6 85 34 be d0 e2 11 bd
       -0.713247 -0.044786517 -0.17629156 -0.035616696
000020 3b 6d b7 be 6e 5e c3 bd 7f b3 af be 76 10 9a bd
       -0.35825524 -0.095394954 -0.34316632 -0.07522671
000030 6e 1e a8 3e 12 45 27 be 0e 6f cc bf 1b d3 dc be
       0.32835716 -0.16334942 -1.5971391 -0.4312981
000040 e5 89 ab 3c f6 45 b7 3e fb bb 7f 3f e2 a7 b6 3e
       0.020939777 0.35795563 0.9989621 0.3567496
000050 ca 67 0c be c1 4b 3a 3e 44 14 c9 bd a3 ac c5 3e
       -0.13711467 0.1819296 -0.098183185 0.38608274
000060 c9 3a b3 3e 7f d8 49 be 4d af a2 3e 52 cc 55 be
       0.35005787 -0.19711493 0.3177437 -0.20878723
000070 a6 9b d4 3c 68 17 dd 3e 19 6c 39 3f 11 6f 36 3c
       0.025953125 0.4318192 0.7243057 0.011134879
000080 51 9c c7 3e 11 f3 16 3e 20 c5 b8 bd af b1 49 bd
       0.38986447 0.1474116 -0.090219736 -0.049241718
000090 21 11 6c be d4 22 9f 3d 30 a8 b8 be 4f 8c b6 3e
       -0.23053409 0.07770315 -0.36065817 0.35653922
0000a0 6b 5f e1 bd 68 22 4c 3e 39 64 1a 3f c6 65 82 bd
       -0.11004528 0.19935 0.6030918 -0.06367068
0000b0 2e 92 ae bc e5 40 90 be 3b 33 b6 bf 51 71 d0 be
       -0.021309938 -0.2817451 -1.4234384 -0.40711454
0000c0 e2 02 22 3f 2b 86 09 3e 00 1a e4 3e e5 1e e4 3d
       0.6328565 0.13430087 0.44551086 0.11138705
0000d0 dc cc ba be 76 9c e0 be 1e 9b 4b bf bb f5 c2 be
       -0.3648442 -0.4386937 -0.79533565 -0.38078102
0000e0 31 7d 4b bd 0a d8 d8 3e 2a 85 8f be f6 5e d4 3e
       -0.04967994 0.42352325 -0.28031284 0.414787
0000f0 8b 9b 41 3e ba 82 2b be 46 ae d2 bf 31 85 c5 be
       0.18906991 -0.16749087 -1.6459434 -0.3857818
000100 3a d4 88 3e 02 9f 07 3f c6 be 13 3f 4d ae cf 3e
       0.26724416 0.52977 0.5771297 0.40562668
000110 e7 0f 7b 3e f3 1f 5e be 2a 88 c8 be f7 eb f2 bd
       0.24517785 -0.21691875 -0.39166385 -0.11861413
000120 14 1f 29 bf 9a 93 30 3e 24 d6 74 3f 4f 2e 98 3e
       -0.66063046 0.17243806 0.9563925 0.2972283
000130 64 d4 c0 3e e9 88 8a bd 7f 42 a8 be df 1c 8a bd
       0.3766204 -0.06764395 -0.32863232 -0.06743788
000140 a3 8d 63 bf a3 84 24 3e 73 95 11 3f 7a e4 a8 3e
       -0.88887995 0.16066222 0.56868666 0.32986814
000150 a3 db a1 3e b8 2a c8 3e af 80 74 be b8 bf 98 3e
       0.31612882 0.39095092 -0.23877214 0.2983377
000160 e5 0d 1d 3c ab b3 e0 3e d9 62 03 3f 5a 15 c2 3e
       0.009585832 0.43887076 0.51322705 0.37906915
000170 9d 8a 5e be b7 76 6e 3e fa 5a b7 3e bf 98 7b be
       -0.21732564 0.23287474 0.35811597 -0.24569987
000180 72 b1 88 bf a6 64 b3 be 04 d2 10 3f 74 ca cb bd
       -1.0679152 -0.35037726 0.5657046 -0.09950724
000190 d2 26 84 be c3 15 73 be 7c 84 87 3f 8d b1 f0 bc
       -0.25810868 -0.2373877 1.0587306 -0.029381538
0001a0 dc 65 82 3e 8b 00 81 be 1a f4 a7 be 5f b3 71 3e
       0.25468338 -0.25195727 -0.32803422 0.23603581
0001b0 67 10 75 3e 83 ad d3 be 0b bc 64 3e 4d ca a9 be
       0.23932038 -0.41343316 0.22337358 -0.33162156
0001c0 c6 8a a7 3e 04 fa e4 be f5 70 b4 3e a5 db 9c be
       0.32723063 -0.44721997 0.3524243 -0.30636325
0001d0 86 39 9d 3d fe 50 ed bd 13 9f ed be 3c c4 6f 3e
       0.07676987 -0.11587714 -0.46410426 0.23414701
0001e0 62 bc c4 bd f9 47 46 3e 53 12 c5 3e df de 32 bd
       -0.09606244 0.19363393 0.38490543 -0.043669578
0001f0 02 0b 87 be e4 cd 12 3e 0e a5 01 3f 62 36 9e 3c
       -0.26375586 0.14336354 0.5064248 0.019313041
000200 94 d0 fe 3e 0c a8 d1 3d ad f5 37 3f a0 91 38 3e
       0.49768507 0.102371305 0.71859246 0.18024302
000210 e7 5c e5 be a5 0b f0 bd 2c db a0 3e 89 ba 5f be
       -0.4479744 -0.11720971 0.31417215 -0.21848501
000220 1f da 60 be fe 7e a3 be 30 14 56 bf 56 46 9c be
       -0.21958207 -0.31932825 -0.83624554 -0.30522412
000230 48 fc f4 3e e5 c0 b7 bc 52 ee 4a 3e 78 02 07 3a
       0.47848725 -0.022430846 0.19817474 0.0005150209
000240 f6 a2 76 3e b1 18 b5 be a3 d3 48 bc 43 50 1a bd
       0.24085602 -0.353704 -0.012257489 -0.0376742
000250 d6 65 d1 bd 56 96 60 3d 46 65 91 bf 37 86 36 3d
       -0.10224502 0.05483087 -1.1359031 0.04456159
000260 8a 6c 11 be e1 54 f1 3c 51 dc ee 3e c0 f1 33 bd
       -0.1420156 0.029459419 0.46652463 -0.043931723
000270 ff 37 b4 3e 21 ad 9b be 65 ad 15 bf 02 1c f0 3c
       0.35198972 -0.30405524 -0.58467704 0.02931023
000280 45 1f 1e bd 08 e7 0f be 1e 53 cb bd 10 4f b9 bd
       -0.03860404 -0.14052975 -0.09927963 -0.09048283
000290 2e c1 6e 3c 48 38 ef bd 99 ab 2b 3d 7f 46 2f be
       0.014572425 -0.11680657 0.041911695 -0.17116736
0002a0 fb 98 4f 3e 1c c8 82 bd 17 b3 41 be aa 82 1c 3d
       0.20273201 -0.06385824 -0.18915974 0.03821055
0002b0 14 98 28 bf b9 e7 30 be 1e a9 db be b3 9d b8 bd
       -0.6585705 -0.17275895 -0.42902464 -0.09014454
0002c0 e1 90 d9 3d d7 4b 7f 3d 02 2e b5 3f 8c 22 84 3e
       0.106233366 0.062328186 1.4154665 0.25807607
0002d0 51 72 6a be 28 b2 40 bd bb 59 9f bf dd 4e d8 bd
       -0.22895171 -0.047044903 -1.2449259 -0.10561917
0002e0 8c d5 15 be f9 f5 a9 3d 53 db f3 3e 19 35 83 3e
       -0.14632243 0.08298869 0.4762827 0.25626448
0002f0 b0 26 71 be 54 af 4b 3b 8f 98 f2 be ea 6d 44 3d
       -0.23549914 0.0031079846 -0.47382018 0.047956385
000300 0f 88 1b bf ca 49 ba be 06 27 86 bf 16 be 60 be
       -0.60754484 -0.36384422 -1.0480659 -0.21947512
000310 07 43 08 be 1a 28 cc 3e 3e 5a c2 be a7 d6 87 3e
       -0.13306819 0.39874345 -0.37959474 0.26530954
000320 63 48 0a be 25 96 69 3e 54 5c a6 be 6f 78 99 3d
       -0.13504176 0.22811182 -0.32492316 0.07493674
000330 0a ac b3 be 5c 52 55 be b1 19 a9 3e 8f 01 49 be
       -0.35092193 -0.20832199 0.33027413 -0.19629501
000340 cc d0 85 3e 26 69 a2 3e b1 9b 03 3f 3e fc b5 3e
       0.26135862 0.31720847 0.5140944 0.35544008
000350 4d 1e 8f 3e 06 18 a7 be 7d fe 0e be 25 ef 64 be
       0.27952805 -0.32635516 -0.13964267 -0.22356851
000360 ef 30 11 bf fe 4c 09 bf ec cd bd bf 6d 4c dc be
       -0.5671529 -0.53633106 -1.4828467 -0.43027058
000370 9a 25 57 3e 32 f7 3a 3e d3 67 ff 3e 1b 2e db b9
       0.21010438 0.1825836 0.498839 -0.00041805286
000380 ba 79 68 be ea 92 86 3e a5 d3 e1 3e 9d 49 d7 3e
       -0.22702685 0.26283962 0.44106784 0.4204835
000390 3d 31 5e be b3 df 1c 3d 9d ee 05 be 9b 52 95 bd
       -0.2169847 0.038299274 -0.13079305 -0.07291146
0003a0 ed fb 4f 3d f1 29 11 be e4 44 63 3e d3 0b 8a be
       0.050777365 -0.14176156 0.22194248 -0.26962146
0003b0 e9 b1 7c 3e c6 fe e9 be 1a c0 2c 3e 8d 0b 06 be
       0.24677242 -0.4570219 0.16870156 -0.13090344
0003c0 67 dc 14 3e b0 83 35 3e 4c d7 9b 3f 69 76 7e 3e
       0.14537202 0.17726016 1.2175078 0.24849857
0003d0 b2 e6 36 be 69 4d 91 3e bb a4 11 be c1 b1 54 bd
       -0.17861441 0.28379372 -0.14222996 -0.05192733
0003e0 b7 00 0b bf 51 d1 43 3e 31 0a ac 3f 13 f8 c5 3e
       -0.54297966 0.19122817 1.344061 0.38665828
0003f0 0f 7a 0c 3e 84 d9 38 be 44 1f af be f7 8f 11 be
       0.13718437 -0.18051726 -0.3420354 -0.14215074

bias f4 [128]
000000 37 e5 fd 3e 0d 4b 4e be 78 7b 79 3e 5e 57 f9 be
       0.4958894 -0.20145817 0.24363506 -0.48699468
000010 5b ae 4e 3e b6 f5 32 3f 4f 78 19 3f 40 29 07 bf
       0.20183699 0.69906175 0.599492 -0.5279732
000020 43 72 2d 3f 8f eb 12 3f e0 74 2b 3f f9 a5 a9 be
       0.67752475 0.57390684 0.6697521 -0.3313444
000030 1d 74 ea be d8 ea 9c be 59 1b 2a 3f c3 1d 07 bf
       -0.45791712 -0.30647922 0.6644798 -0.5277979
000040 19 f5 e7 be 30 98 92 3e ed 7d 0f bf 68 97 0c bf
       -0.45304182 0.28631735 -0.5605152 -0.5491853
000050 4e 43 12 bf 61 4d c7 be e9 39 b6 be 2a 96 0c 3f
       -0.5713395 -0.38926223 -0.35591057 0.5491663
000060 71 d7 30 be 4f 28 52 3c 6a 0d 17 bf 45 22 0a 3f
       -0.17269684 0.012826993 -0.59004843 0.5395854
000070 5c 16 c0 3e 07 e4 33 3f 80 4b 08 3f c4 af b4 3e
       0.3751706 0.7026982 0.53240204 0.3529035
000080 06 da 9e be 78 e5 28 3f 52 5e 22 bd 1e 84 bd be
       -0.31025714 0.6597514 -0.039640732 -0.3701486
000090 1f 9c 19 3f 5e 06 30 3e 1d 7e 8f 3e a1 2f 19 3f
       0.60003847 0.17189929 0.28025904 0.598383
0000a0 a7 68 87 3e ae cf 08 3f d1 52 07 bf 77 9e 9e bd
       0.2644703 0.53441894 -0.5286074 -0.077450685
0000b0 8e 79 85 be 0f fc 96 be 5a e7 19 bf e0 2d a5 3e
       -0.260693 -0.2948918 -0.6011864 0.32261562
0000c0 40 d9 77 be 26 68 13 3f 6a f0 30 3f 55 03 0d 3f
       -0.24203968 0.5758079 0.6911684 0.5508321
0000d0 4f a6 ee be 5d e2 9b 3e 65 7d 94 be 43 26 a6 3e
       -0.46611258 0.3044614 -0.29001918 0.32451066
0000e0 41 67 43 3f 64 7c 26 3f b8 02 ed be c7 10 92 3e
       0.7632943 0.65033555 -0.46291137 0.28528425
0000f0 33 23 45 3e e2 21 16 bf c9 63 11 bf 28 0e 78 3e
       0.19251709 -0.5864545 -0.56792885 0.2422415
000100 7b a0 c0 3e 12 3a a0 3e 88 0b b3 be 6e 83 f3 3e
       0.37622437 0.31294304 -0.34969735 0.4756121
000110 74 3f ba be 5d 2d b7 be 0f 90 a0 be 07 eb 07 bf
       -0.36376536 -0.35776797 -0.31359908 -0.53093
000120 b6 dd b4 be f0 d4 d0 be cc d0 18 3f 5e ee 22 3f
       -0.35325402 -0.40787458 0.596936 0.6364497
000130 b0 9d d4 be 30 6a ee 3e 59 26 bd 3e ba 80 12 3f
       -0.41526556 0.4656539 0.3694332 0.5722767
000140 76 44 c7 be f3 d8 2d 3f 2c d1 d6 be 66 9f 11 bf
       -0.3891942 0.67909163 -0.4195646 -0.5688385
000150 d2 28 b4 be f4 ac e0 be e0 eb 44 bf d0 4f 70 be
       -0.35187393 -0.43881953 -0.76922417 -0.23467946
000160 a7 bb df 3e b6 f9 ad 3e 53 28 ce be 6b 9c 7f 3d
       0.43697855 0.33979577 -0.4026514 0.06240503
000170 c3 cc e2 3d 72 73 e4 3e 48 d0 3e be 3d 25 25 3f
       0.110742114 0.44619328 -0.1863414 0.64509946
000180 84 a6 62 3e 16 30 da be 4f a2 18 3f 3c eb a1 3e
       0.22133833 -0.42614812 0.59622663 0.31624782
000190 5f 92 00 bf 7f 9f c5 3e 9e 5c b6 3e b0 b6 3d 3f
       -0.50223345 0.38598248 0.35617536 0.74106884
0001a0 84 4b 2e 3f fe 71 61 3e f4 61 a1 be 16 5d c4 3e
       0.6808398 0.22016141 -0.31520045 0.3835227
0001b0 3b 15 be be 44 f1 ce be 59 c3 29 3f 8a fd 19 bf
       -0.37125573 -0.40418446 0.663137 -0.60152495
0001c0 e1 5d bd be 85 45 f4 3e ca 5e 15 3f 22 5f e3 bd
       -0.36985686 0.4770929 0.5834776 -0.111021295
0001d0 49 84 e3 be ea 0b 1f 3f 3a 04 38 bf 2c b6 a9 3c
       -0.44436863 0.62127554 -0.7188145 0.02071675
0001e0 b9 a9 0c 3f e9 eb 88 be 77 89 b8 be 8b e5 29 bf
       0.54946476 -0.26742485 -0.36042377 -0.6636588
0001f0 1e 81 08 bf e7 70 e4 3e 94 fb b6 be 41 72 a5 be
       -0.5332202 0.44617388 -0.35738814 -0.3231373

weight f4 [128, 128]
000000 20 e7 f8 3d c8 e7 d7 3d 72 86 e2 bd af 02 13 40
       0.121534586 0.10542256 -0.110608 2.2970388
000010 50 84 89 be 54 55 80 3d f1 0b 59 3e b1 e0 5d 3e
       -0.2685876 0.06266275 0.21195962 0.21667744
000020 a8 fe dc 3e b2 f4 c2 bd d3 64 6b 3e a5 b1 ff 3e
       0.43163037 -0.09519328 0.2298768 0.4994022
000030 5d c2 66 be cb 8f 28 3f 3d f3 12 bd 61 c1 c9 be
       -0.22535081 0.6584441 -0.0358765 -0.3940535
000040 91 a5 c1 be a6 f7 76 3e 30 24 7f 3e 88 a7 b5 bd
       -0.3782163 0.24117908 0.24916148 -0.08869845
000050 31 6d ea be 83 db 3b be 83 4c b0 3c f0 a1 bf 3e
       -0.4578643 -0.18345456 0.021520859 0.37428236
000060 d9 d2 a6 bc d4 d8 e2 bc e4 b4 cb 3d 10 5d ea 3d
       -0.020364212 -0.027691282 0.099466115 0.114435315
000070 7d 43 ec 3d f0 5c 38 bd d2 a7 b1 3e 6f 52 9c 3e
       0.1153631 -0.045010507 0.3469835 0.30531642
000080 d9 50 0b be 38 b3 72 3e 7a d3 b0 3d 39 b6 d2 bd
       -0.1360506 0.23701179 0.08634086 -0.102886625
000090 b7 cd d6 3c 52 eb 6f 3e 4d c7 2a 3e bd d5 20 bd
       0.02622114 0.23429611 0.1667759 -0.039266337
0000a0 0a 4f 42 3e 5b df 3b 3e 10 e2 8a 3b 93 f2 16 3e
       0.18975464 0.18346922 0.0042383745 0.14740972
0000b0 ea ca d0 bf 81 10 e8 bd 54 d9 f0 bd 72 6d b6 3d
       -1.6311924 -0.11331273 -0.11760202 0.08907594
0000c0 64 9d 1d 3e a7 b3 73 3e df a9 22 3e fb f4 9d 3d
       0.15392071 0.23799 0.15885113 0.07712742
0000d0 47 15 6a be f1 93 2f 3e 2f e2 7e 3e c5 d4 7c bb
       -0.22859679 0.17146279 0.2489097 -0.003857897
0000e0 c9 96 cc bd 38 9b 4f 3e 82 59 4c 3d 9d 25 36 3c
       -0.099896975 0.20274055 0.04989005 0.011117366
0000f0 60 fc 12 bf ed be 1c 3f 0e b5 e4 3d b2 55 c5 3e
       -0.57416344 0.6122883 0.11167346 0.38541943
000100 22 32 89 bd 1d 86 1e bd 44 5f 0e be e3 94 1f 3e
       -0.06699015 -0.03870212 -0.13903528 0.1558414
000110 e1 10 43 3e ae 91 24 40 d2 bc 1c c0 fa 9d a6 be
       0.19049408 2.5713916 -2.4490247 -0.32542402
000120 6d 27 fc 3e a7 2d 08 3d 66 48 58 3e c7 cf 65 3e
       0.4924883 0.033246662 0.21121368 0.22442542
000130 ee a3 f8 bd 7e 24 67 3e d1 e8 d4 be 24 99 f6 bc
       -0.12140642 0.22572514 -0.41583875 -0.03010232
000140 c1 2d f6 be cd 1f 8d 3d f6 67 2d 3f 1d db c0 3f
       -0.48081782 0.06890831 0.67736757 1.5066868
000150 b9 00 3d 3d be 77 d0 be 11 15 c7 bd cc 56 21 3f
       0.046143267 -0.40716356 -0.09720815 0.63023067
000160 d5 9f dd bd 2b 97 93 bd ee 0f fe be 92 16 56 3f
       -0.10821501 -0.072065674 -0.49621528 0.8362819
000170 b2 34 5a 3f 69 bd bb 3d 3d c8 c8 3f 56 93 b2 3d
       0.85236657 0.091669865 1.5686108 0.08719508
000180 47 49 a5 be b0 e0 c2 3c 4a 4c 12 3e 51 99 42 3b
       -0.3228247 0.02378878 0.14286914 0.0029693434
000190 f3 70 cd bc e2 e1 a2 3e 85 bf 89 3c 90 83 3b 3e
       -0.025078272 0.3181296 0.016814956 0.18311906
0001a0 a7 41 c4 3d 8d 30 b4 bc 6c e3 e8 3d f9 36 00 3e
       0.09582835 -0.021995807 0.11371502 0.1252097
0001b0 e6 17 9c bf 38 62 17 3c a4 21 90 bd e6 6e df 3e
       -1.2194793 0.009239726 -0.070376664 0.43639296
0001c0 82 39 a8 be 55 84 32 be 1b e1 95 be 96 73 36 3e
       -0.32856375 -0.17433293 -0.29273304 0.1781753
0001d0 67 c3 2b bd 7a a1 bc 3e 10 d0 fe be 83 c4 d5 bd
       -0.041934397 0.36841947 -0.49768114 -0.10437872
0001e0 9a 58 24 3e be d5 b4 bc 0c 82 20 be 9b 29 38 3f
       0.16049424 -0.022074576 -0.15674609 0.71938485
0001f0 21 7e b7 be 40 cb 46 3e 63 f0 30 3f 67 56 4a 3f
       -0.35838416 0.19413471 0.691168 0.7903809
000200 68 c7 5b bd f1 69 d4 bc da 01 af bd 64 08 a8 3d
       -0.053656965 -0.025929423 -0.08545275 0.082047254
000210 49 05 0b 3d 28 8b b6 3c de 92 08 bd 5b 6d 50 3c
       0.033940587 0.022283152 -0.03334319 0.012721385
000220 d7 24 61 3d e0 5d 88 bd 51 e3 13 bd c9 6e 99 bd
       0.054966774 -0.0665853 -0.036105458 -0.07491834
000230 94 9e 89 3c e6 da 23 bc c9 18 8b bd 41 ca 32 bd
       0.016799249 -0.01000092 -0.06791837 -0.043649916
000240 6d 95 9e 3d 4e 47 48 3d 0e 38 47 bd 84 2a 8a 3d
       0.077433445 0.048896126 -0.048637442 0.067463905
000250 74 3a 6d 3d e0 ad a0 3d e0 9d 7c bd b0 5b 70 bd
       0.057917073 0.07845664 -0.061674 -0.05868119
000260 dc 2d 7a 3d 77 a7 a9 bd 82 29 83 3d 38 a4 6a bc
       0.06107889 -0.082838945 0.06404401 -0.014321379
000270 0f 5f 48 3d b0 0d f4 3b 90 47 77 3d 42 85 6b 3d
       0.04891878 0.0074479207 0.06037098 0.05750013
000280 6e 2c 9b bd e7 a5 b1 3b 51 05 b6 bd 89 93 46 3c
       -0.07576834 0.0054213884 -0.08887733 0.012120136
000290 90 be 88 bd c0 36 2c 3b 70 30 a6 3d 27 7d ce bc
       -0.06676972 0.002627775 0.081147075 -0.025206162
0002a0 40 eb b7 bc e6 f7 4f bd 76 b7 fa bc e9 cf e6 bc
       -0.022451043 -0.050773524 -0.03060506 -0.028175311
0002b0 f3 f0 c6 3c c2 2b 24 3c 31 bc 2d 3b 82 9f a7 bd
       0.024284815 0.010020198 0.0026509876 -0.081847206
0002c0 79 19 92 3b 3d fc f7 3c 58 30 da bd 5d bc 93 bd
       0.004458603 0.030271644 -0.10653752 -0.07213662
0002d0 66 a1 7b 3d 6a a5 49 3d e1 ab 95 bd 07 47 7c bb
       0.06143322 0.049230017 -0.07308174 -0.0038494484
0002e0 03 d3 90 3c 98 e2 7c bd 70 83 91 bd 55 03 37 bd
       0.017678743 -0.061739534 -0.07105148 -0.044680912
0002f0 04 cb 36 3a 16 d0 a5 bd 8e 30 36 3d c0 ef 30 3c
       0.0006973001 -0.0809633 0.0444799 0.010799348
000300 6d f5 8b bd 9d 6b 27 3d f2 b4 c7 bc 2f 35 8b bd
       -0.06833921 0.040874112 -0.024378274 -0.06797253
000310 7d bf 8c bd b0 d1 26 bd e6 93 d1 bd e6 cb 2a 3d
       -0.06872461 -0.040727317 -0.102332875 0.04169836
000320 08 6d 90 bc 71 7c 4e 3c f2 32 5f 3d b7 36 ca bd
       -0.017630115 0.012602911 0.054491945 -0.09873717
000330 10 20 70 3c 38 50 21 bc 0e 59 c0 bd 9a 36 1b 3d
       0.014656082 -0.009845786 -0.09391986 0.03789387
000340 d9 c9 7a bd f8 a2 50 3c 18 87 5c 3d 41 18 25 bd
       -0.061227653 0.012734167 0.053839773 -0.040306333
000350 fa 52 2b 3c 28 70 38 3c a3 d6 0a bd b7 a7 dc bc
       0.010456795 0.011257209 -0.0338961 -0.026935441
000360 ed e4 f9 bd 03 20 2a bd 12 e8 09 3d 13 8d 43 bb
       -0.12201867 -0.041534435 0.033668585 -0.0029838725
000370 70 0e 48 bd 42 6e 29 3d c5 2a 92 bd 12 27 c1 bd
       -0.048841894 0.041364916 -0.07137064 -0.0943128
000380 a4 ac 7d bd d8 0f 76 bd 74 4f 3d 3d 2c bd 26 bd
       -0.06193222 -0.060073704 0.04621835 -0.040707752
000390 98 8b 0f 3c 6a 49 ca bd 37 1a 06 3d ff 3b 4e 3d
       0.008761309 -0.09877284 0.032739844 0.050350185
0003a0 8f b3 bd bd 1c f8 86 bd fb 5d 69 3c 33 94 cd bc
       -0.09262764 -0.06590292 0.014243598 -0.025095081
0003b0 e2 d6 8d bd 75 92 9e bd a6 35 05 bd a8 5b a5 3d
       -0.06925751 -0.07742778 -0.032521866 0.08074123
0003c0 e1 f7 86 bd 59 10 28 3c 40 fd a4 bd 57 b6 47 bd
       -0.06590248 0.010257804 -0.08056116 -0.048757877
0003d0 05 7c 9e bd d1 8c a9 bd 9e 94 b2 bd 5d 58 96 bd
       -0.077384986 -0.08278812 -0.08719753 -0.07341073
0003e0 65 17 14 3d a0 c2 3d 3b 0a fb b6 bc 7d 4a a4 3c
       0.036155123 0.0028955117 -0.022336502 0.02005505
0003f0 7f 17 18 3d db 09 92 bd 81 a4 db bd 3a 63 eb 3c
       0.037131783 -0.07130786 -0.10724736 0.028733838

bias f4 [128]
000000 74 71 12 3e b0 28 ca bd cb 87 ef bb 18 2d 1b 3c
       0.14301091 -0.09871042 -0.007309889 0.0094712
000010 ae 7b 68 bd a8 31 86 bb c0 eb 83 3d 1f e1 db 3c
       -0.056758575 -0.004095275 0.0644145 0.026840745
000020 1c 63 00 be 08 1f a4 3b b0 97 85 3d 9c be 55 3c
       -0.12537807 0.005008582 0.06523073 0.013045933
000030 c5 74 ff bd 59 77 ad bd cf ad 69 bd 35 3e cc 3c
       -0.12473444 -0.084700294 -0.057050522 0.024932006
000040 5f 4e 6e bd 06 05 67 bd d0 8c 60 bd d5 99 28 bd
       -0.05818021 -0.056401275 -0.05482179 -0.04116233
000050 6f 05 ac bb 29 ba da 3c c9 34 47 3d 92 2e 8d 3c
       -0.005249671 0.026700096 0.048634324 0.01723412
000060 5a 92 d1 bd 48 59 13 3c 47 8e 3c bd f4 b2 10 bd
       -0.102329925 0.008993454 -0.046034124 -0.035326913
000070 88 be a6 3c 64 cc 43 bd ec db 06 bd ba 37 0d be
       0.020354524 -0.047802344 -0.032924578 -0.13790789
000080 78 fc 6b bc e5 98 46 bc 7e c8 13 3d e5 ac c8 bd
       -0.014403455 -0.012121414 0.036079876 -0.09798602
000090 b4 15 e4 bc cb bc 55 bd a1 fc 6c bd 9c d5 8c 3d
       -0.02784238 -0.052182 -0.057858113 0.0687668
0000a0 d2 95 25 bd 33 12 9e bd af f1 84 bd 6c 16 81 3c
       -0.040426083 -0.07718315 -0.0649141 0.015757762
0000b0 94 5a 20 3d 9c 71 80 3d a0 45 a2 bb cc 38 47 bd
       0.039148882 0.06271669 -0.0049521476 -0.04863815
0000c0 3a 52 f8 bc 06 11 bb 3c 2a 5e 58 bd 21 f5 1e bd
       -0.030312646 0.022835266 -0.052824177 -0.038807992
0000d0 65 7a ba bd 4f c1 95 bd df 45 00 bd a8 2e 1a 3c
       -0.09105376 -0.07312261 -0.031316634 0.009410538
0000e0 fc bc 60 3b 9a 91 53 3b c1 c8 ba bd 7b 4d 3d be
       0.003429233 0.003228283 -0.09120322 -0.18486588
0000f0 eb c7 bc bd 8e 28 cb bd 1d 44 f4 bc 13 27 27 bd
       -0.09217819 -0.099198446 -0.029817635 -0.04080875
000100 72 65 13 be e1 ff cf bd ee ea 31 be 90 bc 45 bd
       -0.14394167 -0.10156227 -0.17374775 -0.04827553
000110 64 53 87 3d b6 4a 92 3d ab da a1 bd 1f ed b8 bd
       0.066077024 0.07143156 -0.07903036 -0.09029602
000120 dd da a7 bd bf 4a 83 bd 15 9b 92 bd 78 52 b9 bc
       -0.08196042 -0.06410741 -0.07158486 -0.022622332
000130 70 99 9c bd 8d 42 26 be d4 22 bb 3d 0a 5b c2 3b
       -0.076464534 -0.16236325 0.09137502 0.005931263
000140 9e 29 83 bd c7 b5 e5 3c 0b 5f 66 bd aa 53 22 3d
       -0.06404422 0.02804078 -0.056242984 0.03963057
000150 d4 59 89 3d 3e ea 1b be 5a b5 98 bd 5c 11 e6 3b
       0.067065865 -0.15226075 -0.07456465 0.0070211124
000160 10 d4 c4 bd 55 11 a0 bd c4 58 7b bd f0 51 89 bd
       -0.0961076 -0.07815806 -0.06136395 -0.067050815
000170 6a cd 04 be 4d 4e 72 3c 27 ef 28 be 1e 48 2d bd
       -0.12968984 0.014789176 -0.1649748 -0.042305104
000180 7d e3 f4 bc 7e b3 7d bd e0 ae 0e be 4f d2 47 3c
       -0.029893631 -0.061938755 -0.13933897 0.012196138
000190 34 d8 3b 3c 7b 8b 63 3c 27 f0 38 bd e6 12 e2 3c
       0.011465121 0.013888235 -0.045150902 0.027596902
0001a0 3f 6c d0 bc fe 57 95 3c 31 2d 2d bd 2c 6f 53 3c
       -0.02544224 0.018230435 -0.042279426 0.012904923
0001b0 32 a4 2c bd 6c 93 cd bd 94 a1 be bd 22 18 be bd
       -0.042148776 -0.10037884 -0.09308162 -0.09281947
0001c0 27 25 a7 3c 6b 08 af bd 92 1d c6 bc 1f b4 c6 3d
       0.020403458 -0.085465275 -0.024184022 0.09702324
0001d0 47 c2 48 bc 90 08 3b bc 28 54 7e bd f6 85 cd bd
       -0.012253351 -0.011415616 -0.062091976 -0.10035317
0001e0 38 2f f8 bd 36 13 8f bd 90 e9 85 bd 4e f1 2e 3d
       -0.12118381 -0.06986086 -0.06538689 0.042710595
0001f0 ed 98 aa 3d 1e 0e 86 bd f5 fb 16 3c d7 c5 b2 bd
       0.083299495 -0.065456614 0.009215345 -0.08729141

weight f4 [2, 128]
000000 eb 43 e7 3e c6 ab 4c 3c 32 2e 57 3d 41 85 8c 3d
       0.45169005 0.012492126 0.05253429 0.06861354
000010 09 41 f3 3d e4 ae 87 3c 32 31 8a 3d 76 e3 e5 3e
       0.11877639 0.016562887 0.067476645 0.449001
000020 6d 5a c0 3e f5 78 7b bd ac c4 37 3d 81 a0 14 bd
       0.3756899 -0.06139465 0.044865295 -0.03628588
000030 c7 de 9e bd 9d 25 19 bd c7 63 50 3d 1a e9 27 3d
       -0.07757335 -0.037389386 0.050876405 0.040993787
000040 22 8b 25 3c 45 2e a6 bc 58 b5 18 bb 64 eb dd bc
       0.010103973 -0.020285735 -0.0023301449 -0.027089782
000050 eb 5f 13 3d 62 e7 81 3d 65 f3 3b 3d 33 30 78 bd
       0.035980146 0.06342961 0.045886416 -0.06059284
000060 13 a4 18 3f 4c 29 10 3d 15 7f 2c be 20 84 b7 be
       0.5962536 0.035195634 -0.16845353 -0.3584299
000070 af 0f 80 3d 23 c1 90 3d ed 3b 43 3d cc 35 00 3d
       0.062529914 0.07068088 0.04766457 0.031301305
000080 2f a2 65 bd d9 70 18 3e fc d4 4c bc f5 d8 b5 bd
       -0.056062873 0.14886798 -0.012501951 -0.08879272
000090 f0 52 d4 bc 45 fe 9c 3d 84 28 e7 3c 22 b0 8f bd
       -0.025918454 0.076656856 0.028217562 -0.070160165
0000a0 e8 e0 26 3d 17 a6 20 bd 1d 76 81 3d da 9f 15 bd
       0.04074183 -0.039220896 0.063213564 -0.0365294
0000b0 e3 7e 6b 3d 9c f5 c4 be 89 b2 4b bd aa 22 16 3d
       0.057494055 -0.38468635 -0.04973081 0.036654152
0000c0 e2 e3 d2 bc 1b a6 9e 3d 2c fc 24 bc a1 f8 ad 3b
       -0.025743429 0.07746526 -0.010069888 0.00530918
0000d0 e2 30 85 bd 31 31 ee bc 20 35 ee 3d 26 02 26 3d
       -0.06503464 -0.02907619 0.116312265 0.040529393
0000e0 fe be b2 3d f7 98 18 3d d2 4f 13 bd 41 12 1b bf
       0.08727835 0.037255254 -0.035964794 -0.6057473
0000f0 76 0a 1f bd cb 2c 7a bd a0 02 ad 3d d1 27 00 3d
       -0.038828336 -0.061077874 0.08447766 0.031287972
000100 da 1d f2 bd 2c 7c af 3e b3 d1 bd 3c 5e 2b 85 be
       -0.118221 0.34274423 0.023171281 -0.2600965
000110 db 33 8d bd bc 53 52 bd 48 b9 91 3c 49 80 40 bd
       -0.06894656 -0.051349387 0.017788544 -0.046997342
000120 b9 c4 8e bc 76 42 71 3d f7 5e 2c 3d aa de 6b 3d
       -0.017427789 0.058901273 0.042082753 0.057585396
000130 89 95 7e 3d 7a 0e 5c 3e 98 27 c4 be 6c 7f 87 3e
       0.062154327 0.21489897 -0.38311458 0.26464403
000140 19 58 1a 3d f9 a3 82 3d 58 75 1b bd ce 0d f5 bc
       0.037681673 0.063789316 -0.037953705 -0.02991381
000150 e9 08 81 3d 1f 86 ca 3e 50 9b 94 bb 90 5f 22 3d
       0.063005276 0.3955545 -0.0045351163 0.039641917
000160 6b 27 d2 3c af 43 0b 3d 68 6c e0 3c 01 ef 45 3c
       0.025653562 0.034000095 0.027395442 0.012080909
000170 e8 db cc 3d 6b ad ee 3c 18 94 92 ba ba eb 87 3d
       0.10002881 0.029135427 -0.0011183051 0.06636758
000180 45 a0 7f 3d 55 fe 89 3d a0 67 58 be 5b 52 27 bd
       0.062408704 0.06737963 -0.2113328 -0.040850025
000190 c1 ad d4 bc 92 a7 5c 3b f6 d4 02 3d 7a 5e 0e bd
       -0.025961759 0.0033669216 0.031941377 -0.03475807
0001a0 fc b3 cd bd 25 34 31 bd 94 18 5f bc 4a dc 71 bc
       -0.10044095 -0.04326262 -0.0136167 -0.014761994
0001b0 c4 87 5b bb a8 2e 65 3d 6c af 33 3d 3e 8a 14 3d
       -0.003349767 0.055952698 0.043868467 0.03626465
0001c0 76 fa 0e 3d e8 02 81 3c de a8 65 3d 97 39 b5 be
       0.034906827 0.015748456 0.056069247 -0.353955
0001d0 1c 46 e6 bc 5e f2 8c bd e2 a1 66 bc fd 29 3c 3d
       -0.028109603 -0.06882165 -0.014076682 0.04593848
0001e0 9a 1d 09 bf cd 03 ce 3d 35 a0 be 3c 37 cb 89 bd
       -0.53560793 0.10059319 0.023269752 -0.06728213
0001f0 a8 b2 8f 3e 62 92 30 3d 32 d2 5c bd 60 7b 9a bd
       0.2806599 0.04310835 -0.053911395 -0.07543063
000200 2f 57 cf be f9 f1 26 3c d3 82 aa 3c 80 6a 54 ba
       -0.40496203 0.010189527 0.020814335 -0.0008103028
000210 99 ec 43 be 7f d4 94 3d 54 d7 7b 3d 31 b9 f4 be
       -0.19133224 0.07267093 0.06148465 -0.4779754
000220 9f 74 fd be a8 7d 6d 3d 63 43 39 bc dd b3 97 3c
       -0.49503037 0.057981163 -0.01130757 0.018518383
000230 67 5c 4e 3d 45 53 bf bc 3a f4 16 3d 04 e3 4b 3d
       0.05038109 -0.023355136 0.036854006 0.049777046
000240 96 0f 7c bd 1e 7a 15 bd 2b bf 27 3d 2c 29 8e bd
       -0.0615383 -0.036493413 0.040953796 -0.06941447
000250 0a a8 38 bb f1 0e 78 3d a9 65 45 bd 8c a7 81 3c
       -0.002817633 0.060561124 -0.048192654 0.015826963
000260 84 52 e1 be 40 98 a0 3a 42 3b 34 3e 0d 55 f1 3e
       -0.44008267 0.0012252405 0.1760073 0.471352
000270 be 87 37 bd a3 b6 dc 3b 28 73 1b bd 99 de 01 3d
       -0.04480719 0.006735639 -0.03795162 0.031706426
000280 39 9f ac bd 0d 9d 4e be 5a 82 06 3c 45 ac fd bc
       -0.08428807 -0.20177098 0.008209789 -0.030965934
000290 26 18 ad bb 1b 28 a4 3d fe 0d a0 bd 42 ec 84 bd
       -0.0052824197 0.08015462 -0.07815169 -0.06490375
0002a0 64 3c 01 bc 7f 3e 0f 3d 13 71 e3 3c cc 72 59 bd
       -0.007887933 0.03497171 0.027763879 -0.053087994
0002b0 82 15 32 3d 6e f8 e5 3e 6e b8 07 3d c4 74 16 3d
       0.043477543 0.449161 0.03313487 0.03673245
0002c0 16 b0 f9 bc 97 37 0e 3d c2 84 93 bd dd b1 94 3d
       -0.030479472 0.034720983 -0.07203056 0.07260487
0002d0 e2 22 f3 bc 89 ef 40 bc b3 c4 bb bd c3 61 ea bc
       -0.02967972 -0.01177586 -0.09168377 -0.02861107
0002e0 a8 6b c2 bc 17 b6 a0 bc 65 37 54 3c 2a a7 26 3f
       -0.023732975 -0.019618077 0.01295266 0.6509882
0002f0 d1 73 9a bd b3 85 3d 3d fc 9c b5 3d 04 b7 19 3d
       -0.075416215 0.046270084 0.08867833 0.037528053
000300 1a af 7e 3e a0 73 ce be 5e 7c 8b bc 30 44 61 3e
       0.24871483 -0.4032259 -0.017027076 0.21998668
000310 b8 81 92 3c 8d 87 40 bd 54 04 7f ba cb 69 73 bd
       0.01788412 -0.04700427 -0.0009728123 -0.059427064
000320 73 a8 47 3a c0 b5 92 3c 6f 7a e6 3c 31 c9 88 bd
       0.00076163484 0.01790893 0.028134553 -0.06678999
000330 f7 59 95 bd db 93 95 be 7c 8f 03 3f 15 53 6b be
       -0.0729255 -0.29214367 0.51390815 -0.22980912
000340 d4 3b 4f 3d 16 27 00 bc 5a 21 69 bd 8b e7 48 bd
       0.050594166 -0.007821819 -0.056916572 -0.04904894
000350 3d e4 98 bd 45 2c c8 be 24 67 bc 3c 75 25 ed 3c
       -0.07465408 -0.39096275 0.0229984 0.028948525
000360 0c 99 38 bb 42 7c 0d 3c 86 1c 2f 3d 0b 08 93 bd
       -0.0028167395 0.008635582 0.04275181 -0.071792684
000370 72 e5 fe bd 57 d8 71 3d dd dd ff 3d b0 71 97 bd
       -0.12446107 0.05904421 0.12493489 -0.07394731
000380 00 ac 77 3d 78 70 c6 bc d1 db 4e 3e 1b 94 8a bd
       0.060466766 -0.024223551 0.20201041 -0.0676653
000390 c5 b3 3d 3d de b2 d2 3b 78 ac 17 3d 59 64 46 bd
       0.04631402 0.006430014 0.037029713 -0.048435543
0003a0 55 e1 0c 3e 88 75 98 bd 6a b6 8c bc 67 da 65 bd
       0.13757832 -0.07444292 -0.017176826 -0.056116488
0003b0 ab 09 18 bd 6c 27 56 3d b3 a2 2b bd 9b 4e 53 3d
       -0.037118595 0.05228369 -0.04190321 0.051588636
0003c0 9c d3 89 3d 10 14 a2 3c 7e 9f 2e bd 08 f7 bd 3e
       0.067298144 0.019784957 -0.042632572 0.37102532
0003d0 39 92 fd bc 85 2f 6b 3d dd a9 90 bc 81 03 8e 3b
       -0.030953513 0.057418365 -0.017659122 0.004333914
0003e0 10 d6 2b 3f dc 04 60 3d e3 32 33 bd 54 0c 15 3d
       0.6712351 0.054692134 -0.0437497 0.03638871
0003f0 01 25 96 be 7c c7 9b bd 7c bd 2d 3d f3 f2 6d bd
       -0.29325107 -0.07606408 0.042417035 -0.058093023

bias f4 [2]
000000 a6 ab ad 3d 24 35 43 be
       0.08480005 -0.1906324

weight f4 [128, 128]
000000 da 28 ff 3d d3 65 9c bd 4f cb c8 be 6a f2 7c be
       0.12458964 -0.07636609 -0.39217612 -0.24701849
000010 b4 fa aa be b3 47 50 3d b5 f8 64 3d 9b 2a 90 bd
       -0.33394396 0.050849628 0.055901248 -0.07039376
000020 14 01 e7 3c 10 cd fb 3d e1 92 43 3e e2 50 80 bf
       0.028198756 0.12294972 0.19098999 -1.0024683
000030 87 1e a4 be 65 2e 2d bd 7d 90 41 3e b6 38 fa bf
       -0.3205454 -0.042280573 0.18902774 -1.9548557
000040 93 2f 2f bf 5e 4a c1 3c d1 ef 94 bf 1a 61 2d bf
       -0.6843197 0.023595031 -1.1635686 -0.6772629
000050 86 c3 e1 be 47 7e 0f bf bf 49 78 bf 1c 21 c1 3c
       -0.44094485 -0.5605206 -0.9698753 0.023575358
000060 dc 32 ba 3d 00 c1 03 be 51 84 0f be bf 89 dc 3d
       0.09091732 -0.12866592 -0.14015318 0.107684605
000070 d8 dd f9 3c dc ec f6 3d 22 9d f3 3c c7 5c 15 3d
       0.030501291 0.12056896 0.029738013 0.036465432
000080 1e 61 33 be 76 8c 09 3e b3 d0 28 bd 5b 7c bd be
       -0.17517516 0.13432488 -0.041214656 -0.37008938
000090 5f f3 67 3d 8d ed f1 bd 01 6f b6 bc cf 8b 95 3d
       0.05662858 -0.11812887 -0.022269728 0.07302057
0000a0 4c e3 36 3d 6f fd 84 3d 9f 35 37 3c 91 c8 0e bf
       0.04465036 0.06493651 0.011182218 -0.5577479
0000b0 66 d8 93 be a7 93 81 bf 49 ce 44 be 40 f4 02 3e
       -0.28876036 -1.0123185 -0.19219317 0.12788486
0000c0 10 8b 8e be ba b2 91 3d ec ea 31 3e f4 06 47 3d
       -0.2784047 0.071141675 0.17374772 0.048590615
0000d0 50 51 18 bf 7d dd 04 3e de 06 9b be 75 87 e6 3c
       -0.59499073 0.12975116 -0.30278677 0.028140763
0000e0 22 0f e7 3d b3 4f 3b 3e 71 24 03 3c ca ae 67 bd
       0.11282183 0.18292122 0.008004294 -0.056563176
0000f0 41 81 e7 be f6 6e fe be 0c 7f a4 bf e6 87 6a bc
       -0.452158 -0.4969403 -1.2851272 -0.014314627
000100 20 71 40 bd ae 54 67 3d b0 2a f6 be 13 d1 0f 3e
       -0.046982884 0.05647724 -0.48079443 0.14044599
000110 28 e5 0a bf 45 17 11 bf d3 77 b8 be 3b 6c 25 bf
       -0.54255915 -0.5667613 -0.3602892 -0.6461827
000120 c9 61 2e bf 2f d2 e7 bf 8d 0a 4b 3e 1d 9c 90 3d
       -0.6811796 -1.8111018 0.19828244 0.07061026
000130 49 39 29 bf a6 55 24 3e 7f 9c ca 3b b3 2e 30 3c
       -0.66103035 0.16048297 0.0061832066 0.010753321
000140 9c bf c3 bf bb a2 89 3d 4f 63 fb be fc 7e ae be
       -1.529285 0.067204915 -0.49099204 -0.34081256
000150 20 47 92 be 16 42 51 bf 3e 12 97 be cc 12 97 be
       -0.2856989 -0.81741464 -0.29506105 -0.29506528
000160 79 12 3b 3d 59 92 14 3e 41 d2 9d bf 36 9e fe 3d
       0.045671914 0.14508952 -1.2329789 0.1243252
000170 d7 50 9c be 42 96 60 3d 00 3c 93 be 67 67 0b 3d
       -0.30530426 0.054830797 -0.28756714 0.03403416
000180 da 99 91 3b b4 2b 9d 3c c5 d2 8e 3d b9 45 36 3e
       0.0044433894 0.019185878 0.06973795 0.17800035
000190 05 66 e1 be 48 91 0d 3e 10 1e 2e 3d ec 14 01 3d
       -0.44023147 0.13824952 0.04250914 0.031514093
0001a0 ad 75 95 3d 16 d7 96 be a9 da cc be 28 eb 8c 3c
       0.072978355 -0.29460973 -0.40010574 0.017201975
0001b0 88 da 48 bf 86 87 1b 3d ba 86 09 3e 68 06 01 bf
       -0.7845845 0.037971042 0.134303 -0.504004
0001c0 26 8d cb bf 79 5f dd 3d f2 c1 7f 3d 9b 0c 8f be
       -1.590245 0.108092256 0.06244082 -0.27939305
0001d0 8b eb 33 be 61 f2 97 3d bb 87 5d be 2c 89 e9 bd
       -0.17570321 0.07419277 -0.21633808 -0.114031166
0001e0 5a 9d c6 3d e0 71 7b bd 80 3e 51 bf 4b 26 8b bf
       0.09697981 -0.061387897 -0.8173599 -1.0871061
0001f0 21 a9 9f bf b1 c1 15 3e ee 48 b3 be 00 87 db be
       -1.2473489 0.14624669 -0.35016578 -0.42876434
000200 41 40 e3 3c 93 bc 81 bd de 89 1a bc 7f d1 2e 3c
       0.0277406 -0.06334796 -0.009432284 0.010670065
000210 3f e9 87 bd ff 5c 54 3d 89 39 57 3c bb 69 a4 bd
       -0.06636285 0.0518465 0.013136276 -0.08027979
000220 d5 89 ab bd b1 59 47 3d 33 d0 d4 bd 47 6d 10 bd
       -0.08375899 0.04866952 -0.10391273 -0.035260465
000230 1e fb 4e bd 3a f8 a2 bd 90 ab 49 bc 2a 1d 7d bd
       -0.050532453 -0.07957502 -0.01230897 -0.06179539
000240 4a 40 41 bd 53 c3 d3 3c c6 b0 a0 3d 78 95 3b bc
       -0.04718045 0.025849974 0.07846217 -0.01144921
000250 6d ff bc bc 1f 23 db bd d2 ae 12 3d d9 4e 86 bd
       -0.023071015 -0.10700058 0.035811253 -0.06558008
000260 5d 94 d7 bd 58 3b b6 bd 4c 3f da bd 76 65 b6 bd
       -0.10526345 -0.08898038 -0.10656604 -0.08906071
000270 ca 98 7d bd c7 02 6a bd f5 24 dc 3c 0c 2e 21 bd
       -0.06191329 -0.057131555 0.026873091 -0.039350554
000280 52 85 79 bd bf 56 85 bd 14 c9 83 3d 79 a2 80 3c
       -0.06091816 -0.06510686 0.06434837 0.015702473
000290 d0 2a 96 bd 03 40 5c 3c ff 47 8a 3d 38 71 7b 3d
       -0.073323846 0.013442996 0.067520134 0.06138727
0002a0 77 8b 87 3d f0 5a a2 bd 9d 44 91 bd fe c8 1f 3d
       0.06618398 -0.07927501 -0.07093165 0.03901004
0002b0 d6 a7 e7 bc 3b 20 c0 3a 32 29 74 3d 75 6b 6d bd
       -0.028278273 0.0014658043 0.0596096 -0.057963807
0002c0 c5 f8 84 3d 78 35 5e 3d 88 84 bc b9 70 26 c7 3c
       0.064927615 0.05425021 -0.00035956898 0.02431032
0002d0 c3 99 90 bd 30 75 37 bd ea 07 84 bd e6 79 c2 3a
       -0.07060578 -0.044789493 -0.06446822 0.0014837354
0002e0 70 8e 8e bd ae be 6d bd c0 12 cf 3c 12 de 3a 3c
       -0.069607615 -0.058043174 0.025277495 0.011405485
0002f0 72 76 6c 3b bc b8 8a bd 5d 90 94 bc d1 f6 14 bd
       0.003608134 -0.067735165 -0.018135244 -0.036368195
000300 dd 04 9d bb 3f fa 7f bd bd 81 1f 3d fc e7 21 bd
       -0.0047918395 -0.062494513 0.038942087 -0.03952788
000310 44 bd 5d bd 69 91 a5 3d 61 f5 ea ba c5 3b 8b 3d
       -0.054135576 0.080843754 -0.0017925912 0.067985095
000320 fd d7 6e bc 83 79 d1 bb f7 9e 52 3d a2 49 bb bc
       -0.014577863 -0.006392659 0.051421132 -0.02286226
000330 62 8e 20 3d 31 bd 84 ba 31 b8 30 bd 18 48 ce 3c
       0.039198287 -0.0010127184 -0.04314441 0.025180861
000340 92 42 b0 3c d6 b7 12 3d ca 91 fc bc f0 2d f0 3d
       0.021516118 0.03581985 -0.030831236 0.11727512
000350 be ef b8 bd c4 bb d2 3c 63 ef 60 3b 7d 97 94 3d
       -0.09030102 0.0257243 0.0034322373 0.072554566
000360 21 ed 55 3d d1 ca 90 bc 31 a7 d0 3c 38 a4 04 be
       0.052228097 -0.017674835 0.025470348 -0.1295327
000370 c4 70 e6 bd 3e 40 ee bc cb ad bb bc 9c b9 3e 3d
       -0.11251977 -0.029083367 -0.02291002 0.04656373
000380 a4 46 de bd 68 17 e6 bc 51 84 8c 3d d7 7b b0 bd
       -0.108533174 -0.028087333 0.06861175 -0.086173706
000390 a8 c7 88 3c b7 8e a4 bb e6 32 35 bd cd 07 35 bd
       0.016696766 -0.0050218957 -0.044237994 -0.044196893
0003a0 93 4b 1e bd c0 e2 89 3d ff fe 20 bd 10 c8 6c 3d
       -0.038646292 0.06732702 -0.039305683 0.057807982
0003b0 3b 05 6e 3d d0 98 3e 3c ee b9 32 3c 0c a2 84 bc
       0.058110457 0.011633113 0.010908587 -0.016190551
0003c0 e4 81 06 be 3c ff bf bd d2 d7 08 b9 f5 70 5e bc
       -0.13135487 -0.09374854 -0.0001305037 -0.013576736
0003d0 fa 15 e3 b8 b7 d7 83 bd 0a 61 41 3d b5 a5 d6 bd
       -0.00010828297 -0.06437629 0.047211684 -0.10480825
0003e0 99 d1 90 3d f6 50 7a 3d 50 a2 c4 3c fa 1a 37 bd
       0.070712276 0.061112367 0.024003178 -0.04470346
0003f0 53 79 11 3d d5 ed 33 bd a4 6c a0 bd 86 df d3 bc
       0.035516094 -0.043927986 -0.078332216 -0.02586342

bias f4 [128]
000000 4d 49 25 3e 4e 38 d6 bd 23 38 75 3e c9 4b 22 3d
       0.16141243 -0.10459958 0.23947196 0.039623056
000010 61 2c 21 bc 25 18 33 3e 04 f5 93 bd 41 4b 75 bc
       -0.009837241 0.17489679 -0.072244674 -0.014971555
000020 33 53 8d 3d 12 43 91 3e 77 dc c5 bc 3b 67 81 3d
       0.069006346 0.28371483 -0.024152977 0.06318518
000030 8c 61 5c 3e 7a 81 84 bd 40 1b ed 3d c3 18 2a 3e
       0.21521586 -0.06470008 0.11577463 0.16611008
000040 35 2f 89 bd 7f 5f 49 3e 5f d7 45 bd b3 cd b7 3e
       -0.06698457 0.19665335 -0.048301097 0.35899124
000050 bd 24 1b 3d 57 9a 92 3d 4f 60 65 3d 5f e8 d7 3e
       0.037876833 0.07158344 0.05600005 0.42169473
000060 8a f8 a0 3b 14 f6 a3 3e c8 b0 9b bb dc 22 db bc
       0.0049124407 0.3202368 -0.0047512986 -0.02675002
000070 fd 8c 44 3d 4f f7 fd bd 83 47 6e bd 11 9c 43 3e
       0.04798602 -0.12400686 -0.058173668 0.19102503
000080 43 f8 17 be 73 c4 7e 3d 90 d7 87 bc a1 65 99 3e
       -0.14840798 0.062199067 -0.01658228 0.2996035
000090 bb 6b 0c bd 09 a5 cb 3e e2 30 5f 3d ce be 91 3e
       -0.034282427 0.3977435 0.054489978 0.28465885
0000a0 75 43 5d 3d 85 ca b7 bd 4c 59 ca 3e 2e ec 59 3e
       0.05401941 -0.089741744 0.39521253 0.21281502
0000b0 9a 2c 7c 3e f1 d5 a0 3d f8 14 86 3d 4a cb 88 3d
       0.24626389 0.07853306 0.06546968 0.06679399
0000c0 7b 2b 41 3d 20 42 ce bd 99 31 0f 3d b2 aa 58 3d
       0.047160607 -0.10071206 0.03495941 0.052897163
0000d0 91 8a 86 bd 04 02 1b 3d 81 36 d3 bd 84 9e 3f ba
       -0.06569398 0.03784372 -0.1031313 -0.00073096924
0000e0 a6 27 ba 3e 7e dc d0 3e cc a1 1e bd 8f 01 f1 3b
       0.36358374 0.40793222 -0.03872852 0.007354922
0000f0 de 7b 81 bd 39 d8 51 bd 9f 20 b8 bc 0d 20 68 bd
       -0.06322454 -0.051231597 -0.022476492 -0.05667119
000100 f9 55 b2 3e fa 89 89 3e e1 9e 40 3e 1d e2 45 3e
       0.34831217 0.2686308 0.18810607 0.19324537
000110 87 f7 99 ba ea 67 d9 3e c5 46 13 3d 8b df 53 bc
       -0.0011746743 0.42462093 0.035956163 -0.012931715
000120 e0 94 04 3b eb ff 8c 3b 1b 14 b5 3e 21 eb d5 3c
       0.0020230338 0.0043029687 0.35366902 0.026113095
000130 95 b6 94 3b c3 15 66 3e ee ee af bd 24 56 87 3e
       0.004538367 0.22469239 -0.08590494 0.26432908
000140 4d bb f5 3b be b5 8a 3d 58 d5 dc bd e6 27 e9 bc
       0.0074991346 0.06772946 -0.107828796 -0.028461408
000150 7d 15 b2 bd 82 4c b5 bd 74 d2 81 bc 56 bd ce 3e
       -0.08695505 -0.08852483 -0.015847422 0.40378827
000160 80 54 c3 3e a5 a5 df 3d 26 d9 cd bd ee c5 cd bd
       0.38150406 0.10920266 -0.100511834 -0.10047518
000170 0a c9 0a bd 9b 00 54 bc 36 de ce 3d 0e 9d 89 be
       -0.033883132 -0.0129395975 0.10100977 -0.26877636
000180 05 0a e1 3e 30 4e 8f 3e dc 0b b8 3d 38 82 6d 3d
       0.43952957 0.2798934 0.08986637 0.057985514
000190 b6 76 c2 bd 30 1d 9e 3e 6a 6a 97 bd 90 9a 90 3e
       -0.094952986 0.30881643 -0.07393344 0.28242922
0001a0 ec 83 e0 3e 64 9c d4 3c 7e 53 06 3c b8 ba 8e 3e
       0.43850648 0.02595348 0.008198617 0.2787683
0001b0 fe 04 32 3d f0 60 c2 3c 7b bf ea 3c b5 94 72 3b
       0.043461792 0.023727864 0.028655758 0.0037014906
0001c0 5b be 32 bd 26 26 33 bd ec 24 bb bd d5 15 ab bc
       -0.04363857 -0.043737553 -0.09137902 -0.020884434
0001d0 7b a1 1b 3e ab 41 82 bd 81 52 2a 3c 98 65 b3 3e
       0.15198319 -0.063601814 0.010395647 0.35038447
0001e0 75 55 aa 3d 33 41 45 bd 1b 7f 28 bd 99 32 26 3d
       0.08317081 -0.048157882 -0.041136842 0.040575597
0001f0 30 27 c7 3e 3f 0f d6 bd 80 f9 b9 bd 18 89 7a bd
       0.38897085 -0.10452127 -0.090807915 -0.0611659

weight f4 [1, 128]
000000 1f ba 9d 3e 80 b5 93 bb 70 51 9f 3e 0c ba da bc
       0.30806062 -0.0045077205 0.3111682 -0.026700042
000010 21 b6 9d bd 11 e5 92 3e 86 9c 18 bd fa 07 d3 bc
       -0.07700754 0.2869039 -0.037258647 -0.02576064
000020 78 cd 96 3e 0a 93 93 3e ed a9 0c ba 19 ed 29 bc
       0.29453635 0.2882312 -0.0005365897 -0.01037147
000030 05 f2 98 3e 64 79 a2 bc 27 61 99 3e f0 9c b0 3e
       0.29872146 -0.019833274 0.29956934 0.34494734
000040 c7 d2 43 3d 90 db 9b 3e 42 34 8d bc 86 e4 be 3e
       0.047808435 0.3044095 -0.017236833 0.37283725
000050 b3 74 97 3e 6b 6e cc 3b 29 70 9f 3e 73 c9 c3 3e
       0.29581222 0.006238749 0.3114026 0.3823963
000060 94 99 64 b9 69 c8 b1 3e 50 ce f8 bc 91 3a 8b bd
       -0.00021800987 0.34723213 -0.030371815 -0.0679828
000070 90 08 e8 bc 8f bd 9b bb 26 6c e2 3c 9b 2c a9 3e
       -0.028324395 -0.0047528218 0.02763946 0.33041844
000080 af 7f 4f bf 1f cd 85 3e c4 37 e6 3c 43 32 d2 3e
       -0.81054205 0.26133057 0.028102763 0.41053972
000090 86 7c 62 bc ff 53 c8 3e 3c 53 05 bd 09 37 96 3e
       -0.013823634 0.39126584 -0.03255008 0.29338863
0000a0 a9 7c c0 bc fa f7 9c be 0e df d5 3e 58 3f a5 3e
       -0.023496943 -0.3065794 0.4177174 0.3227489
0000b0 f0 60 bb 3e 66 d0 32 3d 4a 94 7c 3e ce 8f 5f bd
       0.36597395 0.043655775 0.24665943 -0.054580502
0000c0 06 38 2a bc 61 dc ab 3c 65 fa 50 bc 55 ef e8 bc
       -0.010389334 0.020979108 -0.012755011 -0.028434435
0000d0 cd 3e 5a 3d 28 8b 8a bd 1a 25 91 3d 9d 59 6d ba
       0.053282548 -0.06764823 0.07087155 -0.0009054186
0000e0 9c a4 d2 3e 39 6c c3 3e 02 24 23 3c b5 46 24 bd
       0.41141212 0.38168505 0.009957315 -0.040106494
0000f0 c9 39 12 bd 72 69 1a bc 13 20 85 bc 03 02 fc be
       -0.03569964 -0.009424554 -0.016250646 -0.49220285
000100 60 94 d6 3e d5 89 b8 3e 5c f5 98 3e d6 78 a1 3e
       0.41910076 0.36042657 0.29874694 0.31537503
000110 fc 66 da bc 4b 57 d3 3e e5 67 0e bc 02 6b 92 3c
       -0.026660435 0.41277537 -0.008691763 0.01787329
000120 e9 71 0d bd 9f 93 d7 3c 56 ef d5 3e f3 e7 92 3b
       -0.03453246 0.026315508 0.4178416 0.004483217
000130 48 03 8f bd 68 78 a8 3e ef e7 4d bd 26 2d a7 3e
       -0.06983048 0.32904363 -0.050270017 0.32651633
000140 0b 1f 00 3b 72 7b 87 3e 1b b3 3c 3d 96 22 72 bc
       0.0019549753 0.2646137 0.046069246 -0.014778754
000150 c8 c1 08 bc 55 e7 62 b9 46 a7 0b bd b6 30 d3 3e
       -0.008346982 -0.00021639217 -0.03409507 0.412481
000160 2a 70 d9 3e 5d b4 93 3e 3a 74 49 bd cf a0 2e bc
       0.42468387 0.28848544 -0.049183108 -0.010658457
000170 4f c9 17 bd 48 e2 b9 3c 0f 10 9b 3e c1 de 49 bf
       -0.037057217 0.022690907 0.3028569 -0.7885552
000180 bb 0b cb 3e 25 75 ab 3e ce 5c 93 3e 7c 27 19 bd
       0.39657387 0.33487812 0.28781742 -0.03739117
000190 7f ee ec 3c d6 6a d2 3e 4d b3 d3 3b 97 66 bb 3e
       0.028922318 0.41097134 0.0064605833 0.36601707
0001a0 c9 7b d7 3e 68 7f 60 bd 5a 23 ee b9 aa 16 b5 3e
       0.42086628 -0.054809004 -0.00045421236 0.35368854
0001b0 e6 f6 dd bc c3 30 98 bb 53 af 2a bd b2 7b 85 bb
       -0.02709527 -0.0046444847 -0.04167111 -0.0040735835
0001c0 09 55 d6 3b 65 72 66 bb 92 ea 8a bd 4a 71 d2 3b
       0.0065408987 -0.00351634 -0.06783022 0.0064221965
0001d0 8e a5 9b 3e b7 a7 10 3d ec 15 fc bc 88 ea ba 3e
       0.30399746 0.035316195 -0.030772172 0.36507058
0001e0 ff 05 7b bd 0f b9 0a bd 82 6a e3 3c 6f 64 03 3b
       -0.061285015 -0.033867892 0.027760748 0.0020048877
0001f0 e8 13 d4 3e 29 19 4e 3c d2 ce c4 bc c0 11 b3 ba
       0.41421437 0.012579241 -0.0240244 -0.0013661906
