data/1008CartPole-v0_dqn_noisy/1008CartPole-v0_dqn_noisy_s0/pyt_save/model.pt (torch, 208443 bytes, 14 tensors)

weight f4 [128, 4]
0.26504138 -0.15629101 0.25371614 0.13863765 -0.019802634 -0.12781341 -1.6560304 -0.43832326
-0.2591668 -0.36401924 0.6785417 0.03658877 0.12606333 -0.06921823 -0.7087516 0.0093644215
0.22977564 -0.13108164 -1.5955576 -0.2965826 0.6138543 0.60278296 1.4754171 0.49640313
0.18379812 0.6513829 1.5778953 0.5983818 -0.22137512 0.23971117 0.34496632 0.16030742
-0.41043147 -0.40951455 -0.11302319 -0.29459867 0.34461346 -0.13172385 -0.51060677 0.18565106
-0.5710229 0.07560217 -0.19668049 0.046854366 0.13710819 0.3900499 0.10507625 0.3054366
-0.43313774 0.5893311 0.2161276 0.47892478 0.08902818 -0.15981664 1.7609944 0.35092768
0.2726836 0.40066755 0.89960694 0.26229632 -0.3656221 0.42694533 0.75633276 0.25131255
-0.134564 0.58718514 0.7081546 0.41989705 0.036080617 0.078374766 1.9080031 0.36667153
-0.15754618 -0.11887525 0.5423523 -0.23999846 -0.59623235 -0.23623073 -0.32173648 -0.15567413
-0.21857873 -0.43303433 -1.2271454 -0.40744075 0.37470922 0.7210702 1.578473 0.6243325
1.0373037 0.44501784 1.4539255 0.4376546 0.15757068 0.011566054 -0.03565477 -0.08734075
0.27021965 0.48152137 -0.04461923 0.28760827 -0.46516874 -0.04617689 1.6000481 0.1990706
-0.028551856 -0.11506761 0.5124621 -0.010647033 0.047758464 0.14814587 0.6925683 0.16967253
0.4954793 0.021375822 -1.2046882 -0.29700893 0.47102806 0.68402666 1.3496487 0.5810209
-0.8363184 -0.07712229 -0.3142229 0.014380534 0.15792443 -0.084142685 -0.11671191 0.11970926
-0.10548432 -0.31293246 -0.038864955 -0.20441155 0.21214257 0.008926892 0.37767544 0.12305544
0.48153147 -0.31408376 -2.0493116 -0.55486614 -0.07087833 0.049389947 0.6002294 -0.044282485
-0.34306663 -0.4476866 -1.4043483 -0.4119141 0.063113555 -0.23407076 -0.49582353 -0.32593432
-0.27473626 0.43868077 0.43652147 0.2785863 0.041667983 0.337766 0.32427016 0.28251037
0.57317114 0.45551246 1.2306366 0.35997635 0.39392236 -0.012458619 0.0040095844 0.043437373
0.34419322 0.50417775 0.2360062 0.3648589 -0.098356664 0.18644445 1.7643205 0.41384062
0.85655105 0.40438172 1.7145844 0.37554684 0.904982 -0.22045225 -0.28822714 -0.22495146
-0.21828151 0.04120101 0.8924741 -0.18493645 0.41039082 -0.22571245 0.48847282 -0.2372814
0.10849142 -0.03575332 0.2102875 -0.1709984 0.3333575 -0.2260351 -2.2190366 -0.39783236
-0.12522744 0.26621258 0.22337672 0.31395897 0.59312385 -0.3727154 -1.5729418 -0.58753943
-0.1597825 -0.30879557 0.062579006 0.20288955 0.514642 0.08259689 -0.88599503 0.02852439
-0.7722908 0.19763614 0.9405287 0.35789317 0.16308196 -0.16861819 -0.41006607 -0.02750505
0.23209438 -0.031634722 0.4092257 -0.037880916 0.6277668 -0.37891042 -1.6894346 -0.6209604
-0.20316197 -0.08984756 0.13775769 -0.2786873 0.09496321 -0.04886219 -0.2725586 -0.01889806
-0.5980746 -0.11541643 0.2382644 0.067646906 -0.18988657 -0.09218671 -0.43587223 0.08637982
0.60085285 0.23044308 -0.6103444 0.084628105 0.38936886 -0.29878926 -1.2441581 -0.36044237
00000000: 81b3 873e c00a 20be 15e7 813e 07f7 0d3e
00000010: 2239 a2bc 85e1 02be cef8 d3bf e86b e0be
00000020: 83b1 84be bb60 babe e9b4 2d3f 1bde 153d
00000030: bf16 013e 4ac2 8dbd bf70 35bf 3b6d 193c
00000040: 4e4a 6b3e 443a 06be 3b3b ccbf add9 97be
00000050: 8e25 1d3f fc4f 1a3f 78da bc3f 8d28 fe3e
00000060: 9335 3c3e 08c1 263f 79f8 c93f 8d2f 193f
00000070: 29b0 62be d876 753e 6d9f b03e a127 243e
00000080: 1324 d2be e4ab d1be b478 e7bd a3d5 96be
00000090: 2d71 b03e 9ee2 06be 20b7 02bf 501b 3e3e
000000a0: 8f2e 12bf 4fd5 9a3d 9c66 49be 5dea 3f3d
000000b0: 1766 0c3e 9fb4 c73e 3832 d73d 3062 9c3e
000000c0: 3bc4 ddbe 67de 163f 8e50 5d3e a135 f53e
000000d0: 6854 b63d f9a6 23be 4468 e13f cbac b33e
000000e0: 2f9d 8b3e 4c24 cd3e a44c 663f b44b 863e
000000f0: d232 bbbe 9498 da3e 069f 413f 0aac 803e
00000100: 25cb 09be c451 163f 9f49 353f bffc d63e
00000110: 45c9 133d f382 a03d 7239 f43f 5fbc bb3e
00000120: c953 21be de74 f3bd 9ad7 0a3f 28c2 75be
00000130: afa2 18bf 78e6 71be a5ba a4be 0a69 1fbe
00000140: 1ad3 5fbe adb6 ddbe 1a13 9dbf 139c d0be
00000150: e3d9 bf3e 0e98 383f 670b ca3f 41d4 1f3f
00000160: 5ec6 843f 61d9 e33e 3b1a ba3f 4414 e03e
00000170: 355a 213e 8c7f 3d3c bc0a 12bd b5df b2bd
00000180: 3b5a 8a3e f889 f63e a7c2 36bd 6441 933e
00000190: 992a eebe fb23 3dbd 60ce cc3f 2ad9 4b3e
000001a0: 95e5 e9bc 91a8 ebbd b730 033f e570 2ebc
000001b0: 619e 433d 8db3 173e 284c 313f a3be 2d3e
000001c0: 76af fd3e 591c af3c 3933 9abf 8e11 98be
000001d0: 972a f13e 5f1c 2f3f 4ac1 ac3f c9bd 143f
000001e0: f618 56bf 4bf2 9dbd d3e1 a0be 559c 6b3c
000001f0: f1b6 213e 0053 acbd a706 efbd 212a f53d
00000200: 2a08 d8bd af38 a0be dc30 1fbd 4351 51be
00000210: e73b 593e 1942 123c ad5e c13e 7e04 fc3d
00000220: 4b8b f63e 96cf a0be ec27 03c0 b50b 0ebf
00000230: a828 91bd 1d4d 4a3d a2a8 193f 8d61 35bd
00000240: 6ea6 afbe 2e37 e5be afc1 b3bf 68e6 d2be
00000250: ae41 813d 3fb0 6fbe 95dc fdbe dde0 a6be
00000260: 3baa 8cbe c49a e03e be7f df3e dda2 8e3e
00000270: 0cac 2a3d aaef ac3e bd06 a63e 33a5 903e
00000280: 58bb 123f ee38 e93e 8085 9d3f d24e b83e
00000290: 31b0 c93e 3c1f 4cbc d562 833b 63eb 313d
000002a0: 183a b03e cb11 013f 9cab 713e c9ce ba3e
000002b0: 386f c9bd 4beb 3e3e 41d5 e13f ebe2 d33e
000002c0: ee46 5b3f 1f0b cf3e 8077 db3f ad47 c03e
000002d0: e6ac 673f 3cbe 61be 8292 93be ad59 66be
000002e0: 3085 5fbe 64c2 283d 2f79 643f fb5f 3dbe
000002f0: bf1e d23e 2a21 67be 1c19 fa3e e5f9 72be
00000300: c030 de3d 1372 12bd 9b55 573e 341a 2fbe
00000310: d6ad aa3e bf75 67be b204 0ec0 afb0 cbbe
00000320: 9f3b 00be 044d 883e debc 643e 3bbf a03e
00000330: f7d6 173f 8ed4 bebe 2856 c9bf fc68 16bf
00000340: 069e 23be 741a 9ebe 6c29 803d 47c2 4f3e
00000350: 94bf 033f 8f28 a93d 92d0 62bf fbab e93c
00000360: dab4 45bf 2161 4a3e 7dc6 703f c63d b73e
00000370: f5fe 263e 3faa 2cbe 2ef4 d1be 4552 e1bc
00000380: 26aa 6d3e 6993 01bd 0886 d13e 0529 1bbd
00000390: 53b5 203f 8c00 c2be 653f d8bf 43f7 1ebf
000003a0: b109 50be ff01 b8bd 5a10 0d3e 1ab0 8ebe
000003b0: 127c c23d b823 48bd cd8c 8bbe 1bd0 9abc
000003c0: 6b1b 19bf 735f ecbd 95fb 733e 768a 8a3d
000003d0: a071 42be 63cc bcbd a52a dfbe e7e7 b03d
000003e0: 7ed1 193f 45f9 6b3e 883f 1cbf 8051 ad3d
000003f0: 5b5b c73e e8fa 98be 9340 9fbf e78b b8be

bias f4 [128]
0.44635847 -0.36178443 -0.12453651 -0.27260885 -0.42685696 0.27833855 0.061938204 0.63974154
-0.19217329 0.6868926 -0.44491643 0.37515917 0.45146623 -0.7425215 0.52297807 0.5386634
0.6722137 -0.56060195 0.49220735 -0.16571023 -0.15604769 0.22850227 -0.2021509 0.516096
0.5040831 -0.44857854 0.41175336 0.23560959 -0.6056582 -0.3435294 -0.20090677 0.46770445
-0.5832315 0.7214927 -0.552179 0.101111665 -0.21249412 0.48276606 0.42278525 0.33100602
0.2315176 0.26309478 0.5623453 -0.5305446 0.22255944 0.03328668 0.5414854 0.7241999
-0.38016212 -0.37144467 0.4165715 -0.52500135 -0.54031473 0.027892366 -0.3248757 -0.3334927
0.11233387 -0.5536241 0.6930682 -0.11639692 -0.3048403 0.6961793 -0.41091487 -0.48960614
0.25843003 -0.7148563 0.34728396 -0.4867911 -0.30482504 0.61383456 -0.49672002 0.090786815
0.5129159 0.43276468 0.38199413 -0.282026 -0.2683987 0.51299435 -0.555985 0.55283344
0.53603643 -0.6047206 -0.6724351 0.6253506 -0.28890574 -0.58105636 -0.23486076 -0.4755581
0.3821623 0.23694773 0.33482188 -0.50986516 0.5559469 0.48919216 -0.4822391 -0.18886837
0.18040259 -0.47911933 0.3160051 -0.40882388 0.4946069 -0.3357743 -0.5083003 -0.2706624
0.61325747 0.67620194 0.29118493 0.4014852 -0.41772476 0.4530446 0.28857055 -0.5590995
0.12009729 0.3199075 0.41062137 0.37324026 -0.5899539 0.36651337 -0.3633344 0.41727832
-0.35112694 0.25394073 0.6700021 -0.6690383 -0.42015702 0.32063946 0.25312483 0.32208234
00000000: 1989 e43e cf3b b9be ff0c ffbd 6393 8bbe
00000010: ff8c dabe 6482 8e3e eab2 7d3d 1ac6 233f
00000020: 13c9 44be 32d8 2f3f 16cc e3be dd14 c03e
00000030: 9526 e73e e415 3ebf e4e1 053f d8e5 093f
00000040: 3216 2c3f 9c83 0fbf 9a02 fc3e f1af 29be
00000050: f7ca 1fbe 80fc 693e a500 4fbe de1e 043f
00000060: 970b 013f 16ac e5be 56d1 d23e a443 713e
00000070: 6a0c 1bbf 16e3 afbe 81ba 4dbe f576 ef3e
00000080: a94e 15bf bfb3 383f 9a5b 0dbf a213 cf3d
00000090: 0f98 59be 1d2d f73e 4f77 d83e 9f79 a93e
000000a0: f312 6d3e 5cb4 863e ddf5 0f3f c5d1 07bf
000000b0: 9fe6 633e 9d57 083d ca9e 0a3f 2a65 393f
000000c0: 9ca4 c2be ff2d bebe dc48 d53e 7d66 06bf
000000d0: 1152 0abf 887e e43c 1c56 a6be 8ebf aabe
000000e0: 4d0f e63d 4fba 0dbf eb6c 313f 8261 eebd
000000f0: 0714 9cbe ce38 323f 6f63 d2be a8ad fabe
00000100: f150 843e d300 37bf 34cf b13e af3c f9be
00000110: 0712 9cbe 4324 1d3f 1652 febe 70ee b93d
00000120: 754e 033f 5593 dd3e bc94 c33e b665 90be
00000130: 8e6b 89be 9953 033f 0855 0ebf 7e86 0d3f
00000140: af39 093f f8ce 1abf b524 2cbf fa16 203f
00000150: 74eb 93be 1cc0 14bf 577f 70be 5a7c f3be
00000160: c7aa c33e 6da2 723e c66d ab3e 8686 02bf
00000170: 8952 0e3f 6577 fa3e 0be8 f6be b666 41be
00000180: 75bb 383e 214f f5be 6ccb a13e 5d51 d1be
00000190: 1e3d fd3e 9cea abbe f81f 02bf 4394 8abe
000001a0: 71fe 1c3f 921b 2d3f 3116 953e 788f cd3e
000001b0: 05e0 d5be 76f5 e73e 85bf 933e 2521 0fbf
000001c0: 91f5 f53d eaca a33e f73c d23e 5919 bf3e
000001d0: 3807 17bf a4a7 bb3e f706 babe 81a5 d53e
000001e0: e9c6 b3be 8504 823e 4285 2b3f 1846 2bbf
000001f0: d21e d7be db2a a43e 9499 813e fae7 a43e

weight_mu f4 [128, 128]
0.21407358 0.0542535 -0.62698495 -0.059712555 -1.046123 -1.348299 -1.157946 0.21156822
-0.79857934 0.22907446 -0.64215374 0.11868612 0.1345202 -0.33165324 0.35192636 0.19453168
0.35144266 -1.1066273 0.1638765 -0.83751917 -0.4692489 -1.3931295 -0.8116841 0.28443307
0.32260245 -0.64313596 0.06918196 0.21435641 0.08684782 -0.6573784 -0.6033405 0.086746976
-0.60312945 0.29450038 -0.2064057 -0.056318376 -1.0863582 0.20252134 0.25720912 0.2548076
-1.0981659 0.21813533 0.1788826 -1.0000943 -1.3753345 0.27331972 0.121440455 0.2645918
-0.040978573 0.0051764287 0.2758324 0.35818228 -0.66167 0.17865106 -1.0037594 -0.0680501
0.06889604 0.44566837 0.144998 -0.1374488 -1.0676001 0.13374425 -0.43875024 -0.9269483
0.2403983 -0.3666769 0.23575036 -1.1619166 -0.1475132 0.31248754 0.5487966 -0.028816594
0.12716788 0.20768309 0.10936996 -0.84564066 0.2336228 0.32449332 -1.0849276 0.15315582
0.085687585 -0.11050046 -1.5884957 0.12324631 -1.1014774 -1.4562941 -0.007588012 -0.48644403
0.24360862 0.16842562 0.14534155 -0.7046527 0.24843267 0.28128675 -0.07105779 -0.25164178
-0.049124297 0.11286472 0.01688072 0.39982113 0.059913374 -0.7384339 -0.82782125 -0.10956304
0.15180641 0.17780663 0.20805128 0.22368057 -0.6992894 0.04441913 0.20818463 0.06670568
0.037867755 0.12021979 -0.020492379 0.080813564 -1.2324913 0.07683436 -0.9318228 0.3747241
0.2869737 0.1633633 0.2801362 -0.55392915 -0.5608347 0.10025998 -1.179765 0.23536843
-0.1309313 0.020909578 0.006798447 -0.03517751 0.047953945 -0.014235113 0.035433825 -0.028288895
-0.0360698 0.024161706 -0.10627605 -0.10576888 -0.12778436 -0.026325598 -0.09001342 -0.11786717
-0.09708596 0.010236117 -0.0567529 -0.119618796 -0.047952045 -0.078531004 0.04605414 -0.08489198
-0.038232636 -0.056682166 -0.15370196 -0.01306231 0.026452957 0.06444759 -0.104551926 -0.11630313
-0.028104404 -0.12957962 -0.014361933 -0.04712463 -0.08195963 -0.13989589 -0.12430134 -0.036835063
-0.066712104 -0.13683921 -0.10240693 -0.018417455 -0.050813813 -0.1013533 -0.116688944 -0.019704342
-0.079328276 0.041470103 0.0070883958 -0.029211046 -0.09250581 -0.09866764 -0.051442232 -0.019567683
-0.1598163 0.0131386295 -0.022970293 -0.046622086 -0.012861916 -0.0037947698 -0.03742062 -0.01102492
-0.075807855 -0.028254602 -0.07096219 -0.026987901 0.011322028 0.031209549 0.032930117 -0.087811604
-0.00073267124 -0.12058039 -0.09959044 -0.065199904 -0.07754316 -0.021709245 -0.098323606 -0.03802427
-0.11673479 -0.08957325 0.011784206 -0.004159467 -0.07975233 -0.11073685 -0.05418417 -0.08041608
-0.04125953 -0.03071405 -0.02616824 0.03082626 -0.08733735 -0.0121018505 0.0060358047 0.04175726
-0.13331611 -0.10505672 -0.051087502 0.0019421512 -0.08624197 -0.017211521 -0.0057000075 -0.026334869
0.0027728016 -0.13815102 -0.0850294 -0.11638456 -0.14888074 -0.14717843 -0.056106914 -0.0016765251
0.030078076 -0.0060104295 -0.050891932 -0.07868934 -0.13055983 -0.036416575 -0.06199218 -0.013905737
-0.09490769 -0.14480324 -0.12536225 -0.098811015 -0.13007133 -0.07577888 0.009939064 -0.09381759
00000000: 1b36 5b3e eb38 5e3d 1682 20bf 2795 74bd
00000010: 5ce7 85bf 1095 acbf 9337 94bf 57a5 583e
00000020: b26f 4cbf 7f92 6a3e 3064 24bf b511 f33d
00000030: aabf 093e 74ce a9be b12f b43e 5033 473e
00000040: 4bf0 b33e f7a5 8dbf 3ecf 273e a867 56bf
00000050: 6441 f0be 1152 b2bf 87ca 4fbf 36a1 913e
00000060: 262c a53e 8fa4 24bf 45af 8d3d 3f80 5b3e
00000070: 45dd b13d f349 28bf 8674 1abf 66a8 b13d
00000080: b166 1abf c1c8 963e 045c 53be 19ae 66bd
00000090: c90d 8bbf c161 4f3e eab0 833e 2476 823e
000000a0: b390 8cbf de5e 5f3e 002d 373e 1703 80bf
000000b0: f60a b0bf 90f0 8b3e c6b5 f83d 9478 873e
000000c0: 26d9 27bd 089f a93b e839 8d3e ab63 b73e
000000d0: 3563 29bf 4ef0 363e 307b 80bf da5d 8bbd
000000e0: 5e19 8d3d a52e e43e 5b7a 143e 61bf 0cbe
000000f0: 1fa7 88bf 41f4 083e dfa3 e0be 7c4c 6dbf
00000100: f92a 763e 13bd bbbe 8b68 713e afb9 94bf
00000110: b30d 17be 5efe 9f3e ef7d 0c3f c710 ecbc
00000120: 4c38 023e e0aa 543e 5cfd df3d e87b 58bf
00000130: d13a 6f3e fd23 a63e e8de 8abf e1d4 1c3e
00000140: f97c af3d 114e e2bd d453 cbbf 9068 fc3d
00000150: 36fd 8cbf d867 babf dca4 f8bb 310f f9be
00000160: 8a74 793e c477 2c3e 6ad4 143e 1f64 34bf
00000170: 2265 7e3e d104 903e bf86 91bd 31d7 80be
00000180: 8f36 49bd 9e25 e73d 7049 8a3c 5bb5 cc3e
00000190: ba67 753d 010a 3dbf 18ec 53bf 9662 e0bd
000001a0: 2473 1b3e f112 363e 650b 553e 850c 653e
000001b0: a104 33bf d5f0 353d 5a2e 553e fd9c 883d
000001c0: 381b 1b3d cb35 f63d a2df a7bc 9581 a53d
000001d0: 46c2 9dbf 555b 9d3d f08b 6ebf d6db bf3e
000001e0: 38ee 923e b548 273e 036e 8f3e 4dce 0dbf
000001f0: dd92 0fbf 1b55 cd3d 8a02 97bf 6c04 713e
00000200: db12 06be 904a ab3c 82c5 de3b 4b16 10bd
00000210: 5b6b 443d 643a 69bc 0f23 113d 1dbe e7bc
00000220: edbd 13bd c5ee c53c 42a7 d9bd 5b9d d8bd
00000230: e7d9 02be c8a8 d7bc f558 b8bd 5864 f1bd
00000240: 01d5 c6bd 63b5 273c bb75 68bd b3fa f4bd
00000250: 5d69 44bd ddd4 a0bd 44a3 3c3d d9db adbd
00000260: d399 1cbd 8f2b 68bd 0c64 1dbe 4d03 56bc
00000270: dfb3 d83c 19fd 833d 521f d6bd 5630 eebd
00000280: 353b e6bc 85b0 04be 504e 6bbc c205 41bd
00000290: 73da a7bd de40 0fbe b391 febd 5de0 16bd
000002a0: 5ba0 88bd 941f 0cbe b9ba d1bd 34e0 96bc
000002b0: 2522 50bd 5292 cfbd 9dfa eebd 006b a1bc
000002c0: dd76 a2bd 8edc 293d c645 e83b 014c efbc
000002d0: b073 bdbd 4212 cabd 17b5 52bd 684c a0bc
000002e0: e2a6 23be 6843 573c 322c bcbc cdf6 3ebd
000002f0: c9ba 52bc acb1 78bb 5d46 19bd dea1 34bc
00000300: 2641 9bbd 3276 e7bc a054 91bd bb15 ddbc
00000310: 0780 393c 2bab ff3c bbe1 063d 92d6 b3bd
00000320: bc10 40ba daf2 f6bd 13f6 cbbd 8787 85bd
00000330: f3ce 9ebd 96d7 b1bc e35d c9bd 56bf 1bbd
00000340: a612 efbd 2e72 b7bd 8b12 413c 234c 88bb
00000350: 3155 a3bd 00ca e2bd 38f0 5dbd 30b1 a4bd
00000360: c1ff 28bd 089c fbbc c75e d6bc 5a87 fc3c
00000370: eddd b2bd d746 46bc 00c8 c53b a909 2b3d
00000380: 0584 08be fa27 d7bd 2141 51bd c88f fe3a
00000390: a19f b0bd 2dff 8cbc 21c7 babb 39bc d7bc
000003a0: e4b7 353b 7677 0dbe e523 aebd 075b eebd
000003b0: 3174 18be f1b5 16be 5dd0 65bd d9be dbba
000003c0: 4c66 f63c 23f3 c4bb 0f74 50bd e027 a1bd
000003d0: 7ab1 05be 8c29 15bd 83eb 7dbd e3d4 63bc
000003e0: f75e c2bd 4d47 14be f65e 00be 6e5d cabd
000003f0: 6b31 05be f531 9bbd 75d7 223c 7023 c0bd

weight_sigma f4 [128, 128]
-0.060993597 0.09294684 0.10071454 0.065510124 -0.075545266 -0.08741877 0.1122129 -0.03484574
-0.043424148 -0.025223952 0.0606866 -0.10872784 -0.08252001 -0.08750772 -0.0015889738 -0.030452
0.045147646 0.023224227 0.07683296 0.10375356 -0.030044403 -0.13789162 -0.010748465 0.08423968
0.04574454 -0.06778315 0.040804517 0.08605342 0.11151871 0.038459722 -0.1107315 0.020033969
0.12802422 0.02913388 0.11630566 -0.13241735 -0.06739911 0.026733963 0.06779075 0.023855267
-0.008357113 -0.0717059 0.033355147 -0.13241121 -0.11127309 0.10824029 0.060857866 0.07956816
0.053128008 -0.008861203 -0.16566728 0.12676047 -0.039349098 -0.15349278 -0.039455324 0.044194173
-0.042050634 -0.24742588 0.022507299 -0.06576007 -0.07429628 0.01325078 0.0640238 0.057214275
-0.052416548 -0.03423845 -0.03091207 0.27629572 -0.038424376 -0.03593054 0.29331776 -0.040920462
0.009565834 -0.0877332 0.062277988 -0.16611916 -0.037417825 -0.016586706 0.17249058 -0.09238922
-0.033691972 0.0076486412 -0.024413407 -0.022713313 0.07616261 -0.11855393 -0.074670084 -0.067028515
-0.094181016 -0.12922688 -0.007163198 -0.44438475 -0.07973243 -0.07876137 -0.013684496 0.13778731
0.020257639 -0.13839695 0.096392065 -0.06173145 -0.011464609 -0.025119672 -0.04917502 0.012656052
-0.009761108 0.12601791 0.07991598 0.114969924 0.2490354 0.022577887 0.07812404 -0.16896647
-0.18849367 0.047830753 0.03332366 0.12585174 0.21823643 -0.08473837 0.12951638 -0.0051441533
0.025232999 0.0008666648 0.03632262 0.27289084 0.133407 0.051320624 0.070643395 -0.14141059
0.06870032 -0.01810237 0.06623384 -0.005985124 -0.011801249 0.032571774 0.07356351 0.11889774
-0.031894606 0.07555253 0.02724135 -0.024408534 0.014068112 0.075662404 0.082608365 0.032266103
0.16253786 0.050703637 0.030224532 0.047329802 0.09171886 0.030977365 0.046388946 -0.04857496
-0.02697075 0.013440492 -0.005135979 -0.008539056 0.022322828 0.023742482 0.107152596 0.044002995
0.031760003 0.082421616 -0.025499767 -0.01880708 0.13791321 0.10740231 0.09611823 -0.008838359
0.027831255 -0.0038570734 0.028248172 0.061019246 0.0055009467 0.050052185 -0.007963711 0.00048202096
0.04572815 0.14541517 0.043282133 0.034105312 0.08958729 0.1049793 0.079070665 0.044194173
0.07364152 0.04489613 0.016318366 0.05862212 -0.041511342 0.041545983 -0.008886778 0.059488554
-0.025943004 0.19896454 0.036768403 0.117536984 0.029053733 0.06754399 -0.0046137157 -0.06349371
0.02861622 0.07625653 0.06894538 -0.0021665154 -0.008211043 0.061399437 0.054287866 0.08001818
0.08221174 0.0214435 0.079087965 -0.032290593 0.00560198 0.08440734 0.13426508 0.08344402
0.08872413 0.016624717 0.046820205 0.0678533 0.039330076 0.015224024 0.044194173 0.06762549
-0.013925424 -0.009586012 0.043605123 0.043168765 0.07052337 0.07581127 0.025192682 0.04055713
0.047980495 -0.040072486 0.06245971 0.061849203 -0.042334367 0.030289311 0.03609114 0.006410058
0.08801723 0.1254233 0.05124763 -0.05906132 0.041044038 0.08956404 0.033191785 0.12109242
0.071573 0.10620506 0.004582637 0.08291858 -0.009122256 0.09246036 0.06410261 0.02418824
00000000: 6cd4 79bd ea5a be3d 6d43 ce3d 2c2a 863d
00000010: 7ab7 9abd 9d08 b3bd e0cf e53d 68ba 0ebd
00000020: 85dd 31bd 76a2 cebc 8392 783d b4ac debd
00000030: 4000 a9bd 3f37 b3bd 1d45 d0ba 7976 f9bc
00000040: bdec 383d bc40 be3c 995a 9d3d bf7c d43d
00000050: ae1f f6bc 7633 0dbe 541a 30bc da85 ac3d
00000060: a05e 3b3d e4d1 8abd a322 273d c73c b03d
00000070: ec63 e43d f187 1d3d 32c7 e2bd 471e a43c
00000080: c818 033e 2daa ee3c a931 ee3d 6a98 07be
00000090: 8b08 8abd 2f01 db3c e0d5 8a3d 1f6c c33c
000000a0: 46ec 08bc 8bda 92bd 689f 083d ce96 07be
000000b0: 25e3 e3bd 16ad dd3d 1946 793d a2f4 a23d
000000c0: c19c 593d 942e 11bc afa4 29be 7fcd 013e
000000d0: 852c 21bd 362d 1dbe e89b 21bd f304 353d
000000e0: 493d 2cbd 365d 7dbe 3a61 b83c 37ad 86bd
000000f0: a628 98bd cd19 593c e91e 833d 8459 6a3d
00000100: bcb2 56bd 9e3d 0cbd 4f3b fdbc a276 8d3e
00000110: e162 1dbd e72b 13bd bf2d 963e 379c 27bd
00000120: 04ba 1c3c 77ad b3bd 3417 7f3d 241b 2abe
00000130: 6f43 19bd d8e0 87bc 5fa1 303e 8f36 bdbd
00000140: 9800 0abd 74a1 fa3b a0fe c7bc 4511 babc
00000150: 24fb 9b3d 67cc f2bd a1ec 98bd 3f46 89bd
00000160: fae1 c0bd 0d54 04be 43b9 eabb 6686 e3be
00000170: c24a a3bd a44d a1bd f034 60bc 1e18 0d3e
00000180: 59f3 a53c eeb7 0dbe 3469 c53d 1eda 7cbd
00000190: 0ed6 3bbc c5c7 cdbc bf6b 49bd 545b 4f3c
000001a0: 0eed 1fbc d70a 013e fdaa a33d 5a75 eb3d
000001b0: 2303 7f3e 43f5 b83c 7fff 9f3d 8c05 2dbe
000001c0: 7c04 41be 2eea 433d 647e 083d 47df 003e
000001d0: 5f79 5f3e 4f8b adbd f19f 043e 4990 a8bb
000001e0: 6fb5 ce3c e430 633a 07c7 143d 59b8 8b3e
000001f0: d89b 083e 9335 523d 7cad 903d f0cd 10be
00000200: c1b2 8c3d 6c4b 94bc 9ca5 873d dc1e c4bb
00000210: 075a 41bc fb69 053d 77a8 963d a980 f33d
00000220: eba3 02bd 49bb 9a3d 4029 df3c 68f4 c7bc
00000230: f07d 663c e4f4 9a3d 932e a93d 7629 043d
00000240: 5370 263e 9eae 4f3d 7099 f73c e5dc 413d
00000250: 19d7 bb3d 3ec4 fd3c 5602 3e3d 8af6 46bd
00000260: c3f1 dcbc 8235 5c3c b74b a8bb 66e7 0bbc
00000270: 5dde b63c 987f c23c d272 db3d 7c3c 343d
00000280: c716 023d aacc a83d e3e4 d0bc 4e11 9abc
00000290: 1f39 0d3e bef5 db3d a2d9 c43d c4ce 10bc
000002a0: 5ffe e33c f4c6 7cbb b668 e73c 51ef 793d
000002b0: 4941 b43b 8503 4d3d 3a7a 02bc c2b7 fc39
000002c0: 714d 3b3d b7e7 143e 9b48 313d 03b2 0b3d
000002d0: 8b79 b73d 63ff d63d cdef a13d f304 353d
000002e0: 5ed1 963d 01e5 373d 18ae 853c c01d 703d
000002f0: cc07 2abd 1f2c 2a3d d999 11bc 45aa 733d
00000300: 6c86 d4bc 5cbd 4b3e 779a 163d 3bb7 f03d
00000310: 1802 ee3c 8154 8a3d a72e 97bb fd08 82bd
00000320: 906c ea3c 622c 9c3d 3c33 8d3d 19fc 0dbb
00000330: 9c87 06bc fa7d 7b3d f45c 5e3d 92e0 a33d
00000340: a15e a83d 47aa af3c dff8 a13d 2443 04bd
00000350: d090 b73b c1dd ac3d c97c 093e b3e4 aa3d
00000360: ffb4 b53d 8f30 883c 8bc6 3f3d acf6 8a3d
00000370: 9318 213d 2f6e 793c f304 353d 3c7f 8a3d
00000380: 7627 64bc a60e 1dbc 499b 323d bbd1 303d
00000390: 8e6e 903d f042 9b3d e260 ce3c 3c1f 263d
000003a0: 3287 443d 0c23 24bd c1d5 7f3d 9755 7d3d
000003b0: cd66 2dbd 4a21 f83c 4ed4 133d 770b d23b
000003c0: 6142 b43d f76e 003e 09e9 513d 48ea 71bd
000003d0: cb1d 283d 5a6d b73d 1cf4 073d 4dff f73d
000003e0: dd94 923d 0a82 d93d f229 963b 37d1 a93d
000003f0: 8475 15bc db5b bd3d 3b48 833d 6a26 c63c

bias_mu f4 [128]
0.34671453 -0.10871519 -0.02358958 -0.075666435 0.25352538 -0.14920677 -0.031735033 0.40016994
0.40821373 -0.38948354 0.022437803 -0.06852113 0.39127484 -0.30613205 0.34570724 0.35007325
0.43588609 0.02535265 0.18180461 -0.11858361 0.46566433 0.43432838 -0.17798768 0.34515032
-0.15799329 -0.17171104 -0.17872043 -0.1588639 -0.25517294 -0.40259746 -0.07175048 0.45272982
-0.15853316 0.02858629 -0.06874624 0.053321917 0.14540282 -0.30240262 -0.31101713 0.4387362
-0.14974031 0.40507704 0.50003755 0.2720782 -0.16085486 0.31175599 -0.023401778 -0.04016737
0.3795362 -0.0018901265 -0.31636924 -0.22594343 0.47568145 -0.086256035 -0.011914983 -0.05948567
0.4657741 -0.2064 -0.06484794 0.024385223 0.35491258 -0.230785 -0.1546546 -0.12212409
0.32048783 -0.02351143 0.35133636 0.40422705 0.3612732 0.42486095 0.47186553 0.40656433
-0.045608185 0.032506518 -0.07335574 -0.012602183 0.18664725 0.017638639 0.4243727 0.44914863
-0.07358663 0.28083274 0.41961673 0.29252076 0.39155793 -0.045540985 -0.057575297 -0.24571748
-0.117393605 0.46112937 0.22034684 0.2167194 -0.1395624 0.2812665 -0.09780896 0.365301
-0.034532376 -0.06337874 0.27883816 -0.3686032 -0.03889768 0.36255863 0.40157443 0.31971627
-0.26553163 -0.07113909 -0.13385385 0.36555174 -0.22443661 0.4238008 0.24469054 0.44871622
0.2956377 0.35908493 0.4666743 0.10863774 0.48466647 0.022889255 0.014765402 -0.152182
-0.08220744 0.28475344 -0.17457071 -0.09633875 0.19353156 0.42643115 0.32610634 0.024955833
00000000: 9184 b13e 12a6 debd ef3e c1bc 01f7 9abd
00000010: 14ce 813e a9c9 18be 98fc 01bd 13e3 cc3e
00000020: 6401 d13e 636a c7be 7ccf b73c ce54 8cbd
00000030: 2d55 c83e 57bd 9cbe 8a00 b13e cd3c b33e
00000040: 762c df3e 5cb0 cf3c fd2a 3a3e f7db f2bd
00000050: 8e6b ee3e 4a60 de3e 6742 36be 8bb7 b03e
00000060: fec8 21be 05d5 2fbe 7d02 37be 38ad 22be
00000070: 07a6 82be 4121 cebe eaf1 92bd 34cc e73e
00000080: 8456 22be cc2d ea3c d4ca 8cbd 1568 5a3d
00000090: 7ae4 143e 84d4 9abe a33d 9fbe 08a2 e03e
000000a0: 8655 19be 4266 cf3e 7602 003f d54d 8b3e
000000b0: 23b7 24be 7b9e 9f3e 16b5 bfbc 8a86 24bd
000000c0: 9252 c23e 1fbe f7ba 26fb a1be b75d 67be
000000d0: 858c f33e 01a7 b0bd 1037 43bc 3fa7 73bd
000000e0: f179 ee3e 865a 53be ffce 84bd 85c3 c73c
000000f0: 1ab7 b53e e752 6cbe c75d 1ebe 321c fabd
00000100: fb16 a43e 0b9b c0bc 5ce2 b33e d9f6 ce3e
00000110: cdf8 b83e 6087 d93e 5c98 f13e 3329 d03e
00000120: a6cf 3abd 8e25 053d 893b 96bd 6379 4ebc
00000130: 7520 3f3e e87e 903c 6147 d93e cff6 e53e
00000140: 96b4 96bd 4fc9 8f3e 01d8 d63e 48c5 953e
00000150: 487a c83e 2f89 3abd 13d4 6bbd 5d9d 7bbe
00000160: 0f6c f0bd 2619 ec3e 9aa2 613e b1eb 5d3e
00000170: 72e9 0ebe 2a02 903e 1050 c8bd bc08 bb3e
00000180: d271 0dbd b6cc 81bd e0c3 8e3e 8fb9 bcbe
00000190: 2c53 1fbd 49a1 b93e 2a9b cd3e dab1 a33e
000001a0: c3f3 87be 5fb1 91bd fc10 09be 9929 bb3e
000001b0: b6d2 65be 6bfc d83e 2890 7a3e 22be e53e
000001c0: d35d 973e fbd9 b73e efef ee3e 777d de3d
000001d0: 3426 f83e 3f82 bb3c 96ea 713c 99d5 1bbe
000001e0: 605c a8bd 34cb 913e aac2 32be 404d c5bd
000001f0: 232d 463e 2f55 da3e 69f7 a63e 2d70 cc3c

bias_sigma f4 [128]
-0.035059247 0.037048656 0.018552504 0.087465756 -0.04254742 0.026695726 -0.0013836712 0.045171287
0.041426755 -0.029609371 -0.026893036 0.077052586 -0.030102838 -0.021526257 -0.0146895675 -0.02118792
-0.013157052 -0.007524599 -0.03442893 -0.015906366 0.069243304 -0.060317226 -0.11310434 0.012807198
0.027389118 0.008748589 -0.11308427 0.02622341 0.015284391 -0.008724448 0.047864247 0.06318503
0.06512163 0.013805047 0.014208973 0.009983091 -0.015866555 0.19855234 -0.01847697 0.022810785
-0.01889033 0.010344893 -0.026098417 0.05347245 0.07479486 -0.019426966 0.028751343 -0.025825307
-0.037271447 0.08824824 -0.06482199 0.01530071 -0.039592147 0.016115857 0.00035049164 -0.012917809
0.058182005 0.07983504 -0.017040584 -0.10616597 0.011160223 0.16542995 0.024639055 0.041098006
-0.004510136 -0.03143589 0.036092415 0.0043245284 -0.0026636226 0.044138655 0.01330953 -0.08767491
-0.038277317 0.016388487 0.012733332 0.0045800176 -0.03075475 0.013473635 0.05580494 0.031713165
0.053855103 -0.042848494 0.033229824 0.0075887847 0.032617304 0.07856514 0.01907258 0.183826
0.032376803 0.027462082 -0.009034776 0.028290477 -0.004557449 0.0642669 0.023415504 0.009297629
0.03375639 0.004777187 0.015747223 -0.14823651 0.021552838 0.0010528148 0.052111898 -0.022040758
0.028203607 0.05519305 0.07386428 -0.071206324 0.06456727 0.0047745104 0.050925698 -0.0021319415
-0.014120343 0.0101269055 -0.022803316 0.01934379 0.03229974 0.11359464 0.063377194 0.07089884
0.024634844 0.0421724 -0.10750299 0.003140941 0.044128623 0.021535657 0.0072557 0.0754575
00000000: 499a 0fbd 55c0 173d 6cfb 973c 3f21 b33d
00000010: 3446 2ebd ffb0 da3c 4d5c b5ba 8705 393d
00000020: 1aaf 293d 5a8f f2bc c94e dcbc bfcd 9d3d
00000030: 3a9a f6bc d557 b0bc 83ac 70bc 4a92 adbc
00000040: ad90 57bc e990 f6bb 5a05 0dbd 114e 82bc
00000050: 6fcf 8d3d 320f 77bd 40a3 e7bd 48d5 513c
00000060: 255f e03c 3e56 0f3c ba98 e7bd 7ad2 d63c
00000070: 626b 7a3c fdf0 0ebc 4d0d 443d 2767 813d
00000080: 7d5e 853d 902e 623c c1cc 683c 1e90 233c
00000090: 94fa 81bc 4e51 4b3e 045d 97bc afdd ba3c
000000a0: e5bf 9abc a07d 293c 59cc d5bc ed05 5b3d
000000b0: 0c2e 993d 4d25 9fbc f087 eb3c 988f d3bc
000000c0: f2a9 18bd 7ebb b43d 64c1 84bd d4af 7a3c
000000d0: 602b 22bd 6705 843c 31c2 b739 38a5 53bc
000000e0: 4150 6e3d 8e80 a33d b298 8bbc 8b6d d9bd
000000f0: 5ed9 363c 7866 293e d8d7 c93c 6256 283d
00000100: c3c9 93bb ebc2 00bd a4d5 133d c6b4 8d3b
00000110: 2c90 2ebb bcca 343d 3710 5a3c e78e b3bd
00000120: adc8 1cbd 2641 863c 779f 503c f913 963b
00000130: 63f1 fbbc 85c0 5c3c b993 643d aae5 013d
00000140: 2b97 5c3d e781 2fbd ff1b 083d 57ab f83b
00000150: b999 053d c3e6 a03d 193e 9c3c e23c 3c3e
00000160: 8a9d 043d 29f8 e03c 9906 14bc 6ec1 e73c
00000170: a756 95bb 5d9e 833d dfd1 bf3c 1555 183c
00000180: 2444 0a3d f389 9c3b 5200 813c 50cb 17be
00000190: 948f b03c 9afe 893a 4973 553d d28e b4bc
000001a0: 400b e73c 1c12 623d 2846 973d 9fd4 91bd
000001b0: d83b 843d 7f73 9c3b 7797 503d 0bb8 0bbb
000001c0: 0359 67bc 52eb 253c 05ce babc de76 9e3c
000001d0: bb4c 043d 4ea4 e83d e7cb 813d 6933 913d
000001e0: 03cf c93c f7bc 2c3d 872a dcbd 3fd8 4d3b
000001f0: 37c0 343d 8c6b b03c 39c1 ed3b 7689 9a3d

weight_epsilon f4 [128, 128]
0.48474327 -0.5715303 0.15975754 -0.19649951 -0.4037018 0.39437136 -0.47128758 0.0662009
-0.13498451 -0.1052419 0.32645562 -0.6486322 0.4471607 -0.7868055 0.5039655 -0.4091534
0.3644439 0.40912578 -0.3984694 0.26479462 -0.30462134 -0.5088256 -0.6624628 0.3301616
-0.5650668 0.53595895 -0.39421898 0.5423915 -0.36626258 0.2603555 -0.6232715 0.6669082
0.6690206 -0.5479093 -0.5157168 0.31439486 -0.10621067 0.41845235 -0.23518775 -0.32255036
0.45380402 -0.46149936 -0.47912595 0.3432859 -0.65538836 0.3973166 -0.1750242 -0.31324252
0.54825616 0.3730214 0.19299293 -0.19731195 -0.51080686 -0.30485228 0.27098787 0.3154156
0.66858643 0.3473678 -0.42417467 0.64012605 0.45440513 -0.36391345 0.5555792 0.6366501
-0.34980077 -0.47789493 0.21598606 -0.20529792 -0.2995185 0.23548388 -0.39899254 0.44453472
0.43169695 -0.24140266 0.40159154 0.54156244 -0.4356955 -0.55706775 0.2225754 0.46331605
0.4382971 0.65816534 -0.45381021 0.32688105 0.5480348 0.65614635 -0.64036214 0.49425837
-0.59904945 0.26612785 -0.48171118 0.4367701 0.20047553 -0.645168 0.49836904 0.5805873
-0.6356518 -0.5976707 0.47704184 -0.6452961 0.59819657 0.15021506 0.5344863 0.6676466
0.33663416 0.42985404 0.4042436 -0.04706648 -0.40069884 -0.14115179 0.3352791 0.5071918
-0.5498405 -0.49343392 0.6467145 -0.3717889 -0.46272972 0.27008548 -0.4022943 -0.5001012
-0.17038906 0.5563968 -0.18438973 -0.6105457 -0.47986197 0.20283553 0.31121147 -0.45425367
-1.0905193 1.2857627 -0.359404 0.44206184 0.9082016 -0.887211 1.0602483 -0.1489311
0.30367252 0.23676103 -0.7344221 1.4592177 -1.0059704 1.7700639 -1.1337632 0.92046595
-0.8198837 -0.9204038 0.89643025 -0.59570426 0.6853018 1.1446968 1.490332 -0.74275935
1.2712219 -1.2057384 0.88686824 -1.2202095 0.82397515 -0.5857176 1.4021641 -1.5003328
-1.505085 1.232623 1.1601999 -0.7072891 0.23894048 -0.9413856 0.52909815 0.7256364
-1.0209157 1.0382278 1.077882 -0.77228487 1.4744167 -0.8938369 0.39374918 0.7046968
-1.2334032 -0.8391803 -0.43417314 0.44388956 1.1491541 0.68582135 -0.60963714 -0.7095854
-1.5041082 -0.7814678 0.95425904 -1.4400814 -1.022268 0.81869036 -1.2498777 -1.4322616
0.78694123 1.0751127 -0.4859004 0.46185547 0.67382205 -0.52976435 0.8976072 -1.0000627
-0.97118175 0.54307973 -0.9034541 -1.2183444 0.9801773 1.2532265 -0.5007243 -1.0423148
-0.98603004 -1.480664 1.0209297 -0.73537916 -1.2329053 -1.4761221 1.4406126 -1.1119252
1.347672 -0.5987036 1.083698 -0.9825948 -0.45100662 1.4514242 -1.1211729 -1.306138
1.4300159 1.3445703 -1.0731936 1.4517124 -1.3457533 -0.33793646 -1.2024254 -1.501994
-0.7573205 -0.9670358 -0.9094204 0.105884716 0.90144587 0.31754693 -0.7542721 -1.1410213
1.2369674 1.1100705 -1.4549034 0.8364076 1.0409957 -0.607607 0.90503514 1.1250697
0.38332158 -1.251717 0.41481864 1.373535 1.0795379 -0.45631588 -0.7001275 1.0219272
00000000: 4530 f83e cf4f 12bf 7b97 233e 2b37 49be
00000010: 01b2 cebe 0beb c93e 9b4c f1be 5694 873d
00000020: 6139 0abe 1189 d7bd 3125 a73e c30c 26bf
00000030: 3ff2 e43e 166c 49bf e203 013f 8e7c d1be
00000040: 6498 ba3e ef78 d13e 2e04 ccbe 2993 873e
00000050: 54f7 9bbe 6542 02bf 2997 29bf f10a a93e
00000060: 38a8 10bf 9b34 093f 12d7 c9be 2bda 0a3f
00000070: c586 bbbe 514d 853e b98e 1fbf 7fba 2a3f
00000080: ef44 2b3f c943 0cbf 0406 04bf 5df8 a03e
00000090: fb84 d9bd 633f d63e 0fd5 70be 5225 a5be
000000a0: 0059 e83e a549 ecbe ff4f f5be 2bc3 af3e
000000b0: 88c7 27bf 156d cb3e 8b39 33be 5361 a0be
000000c0: 845a 0c3f a9fc be3e f09f 453e 250c 4abe
000000d0: 3dc4 02bf 9915 9cbe ecbe 8a3e 277e a13e
000000e0: 7b28 2b3f 31da b13e 6c2d d9be 4ddf 233f
000000f0: caa7 e83e dd52 babe 703a 0e3f 80fb 223f
00000100: 1619 b3be a5ae f4be 732b 5d3e 9e39 52be
00000110: 7d5a 99be b022 713e c048 ccbe 0e9a e33e
00000120: 6207 dd3e 4232 77be 689d cd3e d6a3 0a3f
00000130: 7b13 dfbe fe9b 0ebf ceea 633e c337 ed3e
00000140: 7a68 e03e 867d 283f d059 e8be f45c a73e
00000150: 024c 0c3f 35f9 273f c6ee 23bf 6f0f fd3e
00000160: 4e5b 19bf e941 883e d9a2 f6be 55a0 df3e
00000170: 7549 4d3e bb29 25bf 3a2a ff3e 5fa1 143f
00000180: 14ba 22bf f200 19bf d43e f43e 2032 25bf
00000190: 6923 193f fad1 193e 18d4 083f e3ea 2a3f
000001a0: 505b ac3e d415 dc3e 04f9 ce3e c8c8 40bd
000001b0: 6628 cdbe 188a 10be b4a9 ab3e 52d7 013f
000001c0: 59c2 0cbf 5fa3 fcbe 158f 253f 1d5b bebe
000001d0: e9ea ecbe a548 8a3e 85f9 cdbe a206 00bf
000001e0: 787a 2ebe 0570 0e3f a9d0 3cbe b94c 1cbf
000001f0: 78b0 f5be 1eb4 4f3e 1c57 9f3e f093 e8be
00000200: 2396 8bbf df93 a43f cd03 b8be ee55 e23e
00000210: e67f 683f 4320 63bf 37b6 873f 6581 18be
00000220: f77a 9b3e 7c71 723e 1603 3cbf a5c7 ba3f
00000230: a3c3 80bf 7491 e23f 271f 91bf a8a3 6b3f
00000240: e6e3 51bf 959f 6bbf 747c 653f 1380 18bf
00000250: f06f 2f3f 6d85 923f 33c3 be3f 7a25 3ebf
00000260: 66b7 a23f a355 9abf cc09 633f d32f 9cbf
00000270: 09f0 523f 97f1 15bf 1d7a b33f e80a c0bf
00000280: a0a6 c0bf 97c6 9d3f 6e81 943f e610 35bf
00000290: d0ac 743e a6fe 70bf fa72 073f 4fc3 393f
000002a0: 5ead 82bf a6e4 843f 0af8 893f 76b4 45bf
000002b0: b0b9 bc3f 7fd2 64bf 7e99 c93e 0267 343f
000002c0: 28e0 9dbf 85d4 56bf f14b debe 7e45 e33e
000002d0: 7b17 933f fd91 2f3f 2e11 1cbf 64a7 35bf
000002e0: 9e86 c0bf 460e 48bf 524a 743f 9654 b8bf
000002f0: aed9 82bf b195 513f fefb 9fbf 5954 b7bf
00000300: fb74 493f 4b9d 893f f0c7 f8be 5278 ec3e
00000310: 9a7f 2c3f a39e 07bf 96c9 653f 0e02 80bf
00000320: 5e9f 78bf 4607 0b3f c548 67bf b6f2 9bbf
00000330: e6ec 7a3f ba69 a03f 782f 00bf 926a 85bf
00000340: 776c 7cbf 6686 bdbf d3ad 823f cf41 3cbf
00000350: d7cf 9dbf 92f1 bcbf fe65 b83f 9153 8ebf
00000360: 8480 ac3f a444 19bf 9eb6 8a3f 558b 7bbf
00000370: 57ea e6be 45c8 b93f 9882 8fbf 882f a7bf
00000380: c30a b73f e11a ac3f 685e 89bf b6d1 b93f
00000390: a541 acbf 0206 adbe 13e9 99bf 5741 c0bf
000003a0: c2df 41bf a88f 77bf c6cf 68bf 16da d83d
000003b0: 28c5 663f 8395 a23e fa17 41bf fc0c 92bf
000003c0: f354 9e3f ca16 8e3f 463a babf cf1e 563f
000003d0: 593f 853f 228c 1bbf 62b0 673f 4902 903f
000003e0: ba42 c43e 4338 a0bf 1c63 d43e ffcf af3f
000003f0: 4c2e 8a3f 3ca2 e9be 8e3b 33bf 83ce 823f

bias_epsilon f4 [128]
-0.4945857 1.1126616 0.9976513 -1.220332 0.83287907 0.7674029 1.0198276 -0.31363124
0.13459127 -0.9586178 0.83960634 -1.1434063 -1.370574 0.5599259 1.1670494 0.63696665
0.2848279 0.79275477 1.8201517 1.198304 0.8411174 -0.8538421 0.6297574 -0.7113748
-0.87172055 -1.575539 0.89525837 1.2380102 -0.19697574 -0.9355361 -0.7351643 -0.407721
-0.606348 -0.3900638 0.81488 -0.552076 -0.2278713 -1.0034963 -0.61898714 0.9302719
1.1161876 0.84047186 -0.97653157 -0.40447897 1.089459 -0.54843134 0.5365039 1.127037
0.8904778 0.88301885 0.5725555 -0.84674245 -0.9385885 0.9421292 1.0914873 -1.0402209
0.6165169 -0.79111934 0.6089735 -0.7390944 0.44167212 1.2823479 -0.58540475 -0.25260112
1.1293019 0.73384726 -0.45389038 1.010225 0.82402736 0.72291595 -0.5752431 -1.0762666
-0.88880855 -0.79625 -0.6375744 -0.7316535 0.92641103 -0.528385 -1.302108 -0.77437
0.60709435 -0.57688993 0.17546386 0.85318 -0.22679707 0.90015507 0.982499 -0.44720456
-0.591483 -0.91627777 0.78980845 0.41324064 -0.68213004 0.9864923 -0.26386353 0.8046981
0.9146241 1.1380948 -1.0193852 -0.7172108 -0.9345208 1.1957972 0.97275645 -1.6959599
-0.7307036 1.5164235 0.47835344 -1.0902189 0.31063238 0.58333623 0.4772597 1.1908873
-0.96573484 0.37025908 -0.8824743 -0.83250666 -0.96196604 1.1282074 0.36855552 -0.7265159
-0.35090324 0.97046334 1.1828165 0.5143696 1.0993167 -0.6268249 -1.3672401 -0.69260705
00000000: 563a fdbe b26b 8e3f 1366 7f3f d733 9cbf
00000010: 9037 553f 8474 443f b689 823f 4694 a0be
00000020: 4bd2 093e fa67 75bf 71f0 563f 235b 92bf
00000030: f86e afbf 4e57 0f3f e061 953f 3f10 233f
00000040: f6d4 913e faf1 4a3f bbfa e83f 0762 993f
00000050: 7853 573f 6595 5abf c837 213f a91c 36bf
00000060: 1429 5fbf 43ab c9bf a72f 653f 1e77 9e3f
00000070: 02b4 49be 4b7f 6fbf ba33 3cbf cfc0 d0be
00000080: 9f39 1bbf 71b6 c7be fa9b 503f da54 0dbf
00000090: 1857 69be 9172 80bf f175 1ebf 4d26 6e3f
000000a0: 3cdf 8e3f 2a29 573f f9fd 79bf de17 cfbe
000000b0: 6473 8b3f ff65 0cbf 5258 093f c042 903f
000000c0: 5af6 633f 860d 623f ff92 123f 1dc4 58bf
000000d0: 5647 70bf 612f 713f dbb5 8b3f f525 85bf
000000e0: 0dd4 1d3f cc86 4abf b0e5 1b3f 4a35 3dbf
000000f0: d922 e23e fa23 a43f 16dd 15bf ef54 81be
00000100: f78c 903f 6add 3b3f 5264 e8be 0e4f 813f
00000110: 75f3 523f 0511 393f 2243 13bf 1bc3 89bf
00000120: f588 63bf 0ad7 4bbf 1338 23bf a54d 3bbf
00000130: 4629 6d3f 3d44 07bf 7aab a6bf 1d3d 46bf
00000140: 896a 1b3f 0faf 13bf ccac 333e 016a 5a3f
00000150: 7e3d 68be 9070 663f 0e85 7b3f fff7 e4be
00000160: 6e6b 17bf 2e91 6abf e330 4a3f 4794 d33e
00000170: 13a0 2ebf c28a 7c3f 1f19 87be b200 4e3f
00000180: ce24 6a3f 17ad 913f 377b 82bf 219b 37bf
00000190: c13c 6fbf e20f 993f 9106 793f 3715 d9bf
000001a0: 640f 3bbf 2a1a c23f beea f43e 4b8c 8bbf
000001b0: 350b 9f3e 8655 153f 625b f43e ff6e 983f
000001c0: 663a 77bf 9992 bd3e d6e9 61bf 281f 55bf
000001d0: 6843 76bf 1a69 903f 4fb3 bc3e f2fc 39bf
000001e0: 97a9 b3be 4970 783f 8866 973f baad 033f
000001f0: 69b6 8c3f 9977 20bf b901 afbf b24e 31bf

weight_mu f4 [2, 128]
0.35130543 0.024249418 -0.02998028 -0.4787257 0.27325416 0.25818127 -0.023579815 0.32976183
0.3162204 0.09470959 0.41874343 0.47370172 0.3833031 -1.5463735 0.33025882 0.28130656
0.3746466 -0.0641029 0.21241231 0.46311545 0.39365885 0.34101254 -1.5650072 0.33741194
-0.21047607 -1.55924 -0.89007235 -0.03248485 -2.9335296 -3.2076406 -0.04742522 0.37385345
-0.06722302 -0.0072597247 -0.06613571 0.44878855 0.27743238 -0.4414582 -2.9926956 0.35475037
-0.0010592927 0.40055013 0.37074822 0.2762619 0.034594342 0.27612334 0.082536764 -0.014101745
0.3491059 -0.0031571495 -0.9188145 0.059386183 0.37953767 -0.003832358 -0.015121573 0.062416773
0.34517452 -0.037171263 -0.007004323 0.42796716 0.31488192 -0.40479004 -0.04052967 -0.0800151
0.33963203 -0.013828118 0.33786878 0.3646404 0.25957307 0.32059324 0.35105002 0.35002097
0.038176995 -0.03733201 -0.042652708 -0.03410158 0.6657866 -0.46602768 0.3069935 0.3384125
-0.0044699805 0.33097124 0.36382583 0.24829796 0.35800195 -0.010952681 0.06308253 -0.18753313
0.030894056 0.35490716 0.15583828 0.25670472 0.28881952 0.30327448 -0.0445714 0.31898528
-0.013731372 0.010428718 0.30877256 -2.863257 0.06889807 0.34710225 0.28214017 0.3253755
-0.05125479 0.18232143 -0.03580654 0.31752387 -0.034249794 0.38859242 0.22757228 0.37351945
0.2961145 0.37612957 0.399357 -0.049315285 0.3555907 -0.06602476 -0.033265993 -0.07258575
0.07246493 0.3354677 -1.610915 0.027935756 0.15452072 0.28246775 0.32863092 -0.05666004
0.20256375 -0.025802875 0.0019336358 -0.106144935 0.36880508 -1.9145389 -0.04556265 0.35378176
0.37054312 -0.6796787 -0.10250503 -1.7678288 0.33093128 -0.02972903 0.36577982 0.31885073
0.27345836 -0.03039856 0.35756683 -1.5812916 0.3639104 0.3650164 0.46497113 0.32160962
0.07150977 0.48577267 -0.050411202 0.05904853 0.55251056 0.5933706 -0.007724485 0.37361556
0.020676862 0.011646702 -0.008706267 -1.7910383 0.14523254 -1.9010191 0.38382727 0.3767541
-0.012501511 0.33432558 0.3859854 0.08943038 0.09911055 0.30392748 0.0017274348 -0.010313206
0.32629922 -0.032640096 -0.5155034 -1.8537068 0.2892116 0.034941915 0.0037252402 -7.358019e-05
0.3615829 -0.050835617 0.06921016 -1.5688022 0.36723968 -1.7132215 0.007659147 -0.037518155
0.3032418 -0.008005963 0.21969476 0.29863957 0.3622625 0.20003964 0.35858396 0.38490894
-0.035792217 0.03618945 0.101227514 -0.01828795 -0.44675425 -0.026622057 0.3397582 0.3746691
-0.015716875 0.21062 0.31074646 0.35194558 0.38551793 0.07510434 -0.05838481 -0.68921554
-0.0029866828 0.29372022 0.28043622 0.3376345 -1.6545922 0.20989473 0.0046052155 0.36701822
-0.008668915 -0.07730785 0.23581833 0.42839038 -0.0047945078 0.28893444 0.37605605 0.23392741
-1.1119276 -0.48371905 -0.0183417 0.21331097 -1.4992448 0.37314826 0.3393972 0.33809
0.35675323 0.37627852 0.3875976 0.3247484 0.34493184 0.0525576 -0.012528437 0.007105074
-0.06045776 0.17277329 0.50290585 0.006010575 0.34828323 0.3702338 0.37668756 -0.05605684
00000000: 4ede b33e b7a6 c63c 3499 f5bc 891b f5be
00000010: f8e7 8b3e 5630 843e 752a c1bc 8bd6 a83e
00000020: a4e7 a13e 1af7 c13d 8a65 d63e 0889 f23e
00000030: 4e40 c43e 91ef c5bf af17 a93e 6a07 903e
00000040: aed1 bf3e 6248 83bd 9d82 593e 781d ed3e
00000050: a78d c93e 3299 ae3e 2852 c8bf 42c1 ac3e
00000060: 0a87 57be 2d95 c7bf c8db 63bf d60e 05bd
00000070: f3be 3bc0 fc49 4dc0 f340 42bd b869 bf3e
00000080: 39ac 89bd fce2 edbb 2972 87bd 9dc7 e53e
00000090: 9e0b 8e3e cf06 e2be 5388 3fc0 d7a1 b53e
000000a0: f7d7 8aba e814 cd3e b6d2 bd3e 3372 8d3e
000000b0: ccb2 0d3d 0a60 8d3e 0909 a93d 010b 67bc
000000c0: 02be b23e 2ee8 4ebb 6d37 6bbf ed3e 733d
000000d0: c352 c23e 4c28 7bbb 79c0 77bc bba8 7f3d
000000e0: b7ba b03e e540 18bd 8584 e5bb 831e db3e
000000f0: 3438 a13e a440 cfbe 7002 26bd f5de a3bd
00000100: 40e4 ad3e 558f 62bc 23fd ac3e 26b2 ba3e
00000110: c3e6 843e cc24 a43e d4bc b33e f335 b33e
00000120: 7b5f 1c3d 73e9 18bd 9bb4 2ebd 19ae 0bbd
00000130: fe70 2a3f 2e9b eebe 412e 9d3e 6744 ad3e
00000140: ea78 92bb 1075 a93e 6147 ba3e d241 7e3e
00000150: 084c b73e e072 33bc 6a31 813d af08 40be
00000160: 8815 fd3c 64b6 b53e 1294 1f3e cd6e 833e
00000170: 27e0 933e cb46 9b3e 8090 36bd 0a52 a33e
00000180: 8cf9 60bc 37dd 2a3c 7017 9e3e 9a3f 37c0
00000190: 6e1a 8d3d 63b7 b13e ad74 903e 9e97 a63e
000001a0: 8bf0 51bd 78b2 3a3e e1a9 12bd 7d92 a23e
000001b0: 8349 0cbd 96f5 c63e b508 693e f13d bf3e
000001c0: 529c 973e 0e94 c03e 8578 cc3e d3fe 49bd
000001d0: fc0f b63e fd37 87bd ec41 08bd d6a7 94bd
000001e0: 7e68 943d 6cc2 ab3e 7632 cebf 87d9 e43c
000001f0: ae3a 1e3e 9d9f 903e 5042 a83e 5c14 68bd
00000200: df6c 4f3e 8d60 d3bc 0d72 fd3a 8462 d9bd
00000210: 05d4 bc3e 9c0f f5bf e79f 3abd e222 b53e
00000220: d4b7 bd3e 6cff 2dbf 28ee d1bd 3748 e2bf
00000230: d36f a93e 4b8a f3bc 7e47 bb3e 6740 a33e
00000240: bc02 8c3e 6706 f9bc 0013 b73e c367 cabf
00000250: 7752 ba3e 6ee3 ba3e b210 ee3e 04aa a43e
00000260: b773 923d 32b7 f83e fa7b 4ebd dfdc 713d
00000270: 5571 0d3f 23e7 173f ad1d fdbb 8a4a bf3e
00000280: 8662 a93c cfd1 3e3c bba4 0ebc be40 e5bf
00000290: d7b7 143e 9854 f3bf 0285 c43e eae5 c03e
000002a0: 23d3 4cbc b92c ab3e e19f c53e 4627 b73d
000002b0: 79fa ca3d 629c 9b3e 186b e23a b9f8 28bc
000002c0: b110 a73e 9fb1 05bd 08f8 03bf 4446 edbf
000002d0: 8b13 943e 411f 0f3d 2923 743b 104f 9ab8
000002e0: 6521 b93e 0239 50bd 0ebe 8d3d 83ce c8bf
000002f0: d706 bc3e d84a dbbf 95f9 fa3b a3ac 19bd
00000300: 8242 9b3e 712b 03bc aaf7 603e 49e7 983e
00000310: 787a b93e 31d7 4c3e 5198 b73e c912 c53e
00000320: dc9a 12bd 643b 143d 5f50 cf3d 9cd0 95bc
00000330: f9bc e4be 8016 dabc c9f4 ad3e a1d4 bf3e
00000340: adc0 80bc c5ac 573e 291a 9f3e 3632 b43e
00000350: 9b62 c53e 4ed0 993d e924 6fbd 6e70 30bf
00000360: 39bc 43bb 7f62 963e 5695 8f3e 6ede ac3e
00000370: adc9 d3bf a5ee 563e 59e7 963b d0e9 bb3e
00000380: 1108 0ebc 9453 9ebd 5c7a 713e fc55 db3e
00000390: 3f1b 9dbb 37ef 933e 6b8a c03e ab8a 6f3e
000003a0: a553 8ebf 06aa f7be 5541 96bc 316e 5a3e
000003b0: 41e7 bfbf 4a0d bf3e 78c5 ad3e 221a ad3e
000003c0: 5ca8 b63e 94a7 c03e 3173 c63e 6c45 a63e
000003d0: e89a b03e a346 573d 1344 4dbc aed1 e83b
000003e0: 8ea2 77bd 7beb 303e 70be 003f 5cf4 c43b
000003f0: 2e52 b23e 498f bd3e 31dd c03e db9b 65bd

weight_sigma f4 [2, 128]
0.01617365 0.0040714787 -0.0014768207 -0.15013178 0.026884891 0.016180549 0.039852407 -0.0038245132
0.0020481448 0.052008133 -0.015641622 -0.12379484 -0.0034368017 0.014099163 -0.0049030045 0.010572415
-0.00065130426 0.011412022 -0.0038846463 0.061635844 0.004214104 0.016946834 0.11977211 -0.0059190183
0.031178702 0.014923198 0.15273286 0.15961206 0.19836032 0.011028599 0.0074800453 -0.0023314455
0.049802523 0.029696945 0.041199747 0.00091017166 0.0024177565 0.12656151 0.08777263 0.0049174824
0.075838186 0.00069648254 0.004070102 0.019750448 -0.012395612 0.006342299 0.02139913 0.027937235
0.010132483 0.032772694 0.00023746793 0.06611671 -0.0017861441 -0.006216328 0.024136284 -0.0038080777
-0.0076732635 0.05494401 0.041413106 -0.017522946 0.0062578632 -0.09346488 0.037654556 0.0643223
-0.006798436 0.06257762 0.01285283 -0.01016939 0.002113175 -0.003095552 0.022457663 -0.0051421635
0.0047073658 0.055502716 0.10726384 0.04819532 -0.002600911 0.0028377022 0.011727119 -0.0022822395
-0.018923528 0.008603775 -0.004299264 0.02521241 -0.005320337 0.019080164 0.045581006 -0.008251442
0.016944228 -0.0141197285 0.011290991 -0.0054874215 -0.0018283094 -0.004299436 0.038714215 -0.0069579813
0.03187891 0.057200886 0.00095392694 -0.03118612 0.042486988 0.014778466 -0.004609678 -0.0030200281
-0.17665549 -0.040914018 0.06772043 0.00605304 -0.13936087 0.0042936825 -0.0068710498 -0.0055846903
0.0031658798 -0.0039986977 -0.005360908 0.012313865 0.0048766704 0.099234395 0.08324951 0.0074144173
0.03893753 0.020656575 -0.121593006 0.031330965 0.03523 0.008819799 -0.0013268001 0.091351695
0.013648701 0.030084468 0.042212527 -0.037889086 0.0035273943 0.016465427 -0.0025466941 -0.005549771
-0.007230122 0.002225278 -0.007343904 -0.15456015 -0.011464384 0.10312159 0.0026763938 -0.0030086548
-0.010680223 0.03473173 -0.025311273 0.02851828 0.009817008 0.0055024605 0.041458856 0.0037323616
0.0111840395 0.019984845 0.08182868 0.005181029 0.004549465 -0.004714539 0.034568563 0.0021200348
0.03767633 0.0072481884 0.047595963 0.12068347 0.0003602465 -0.110165045 0.25974497 -0.0012589868
0.018464388 0.005613755 0.0011683123 -0.011795017 0.06463031 -0.0042782957 0.036876526 -0.052131496
0.010512415 0.0023764342 0.029186154 0.112034164 0.0025414543 -0.017890593 0.045786496 0.04165745
0.0062721935 0.06611381 0.06880825 -0.08641174 -0.016896581 -0.14814249 -0.03459228 0.02670441
0.0046459977 0.044034526 0.018916009 -0.012988007 0.00887789 -0.003056975 -0.0026525876 -0.008012572
0.096876584 0.023030864 0.01392949 0.065347366 0.020689031 -0.010642019 0.0055542295 -0.012440803
0.02915375 -0.014181819 0.007009773 0.010543961 -0.0075202603 -0.0054812226 0.038270056 -0.0593451
0.036651596 -0.009771376 0.007860791 0.0099966 0.017445454 0.011140263 0.020761607 0.002080788
-0.06650005 0.023960017 -0.011410352 -0.17200369 0.03290488 0.0027591926 -0.012183013 -0.004181678
0.0856335 -0.036565363 0.015224614 0.00055666914 0.030108884 0.011986853 0.006691511 -0.002295733
0.00026746668 -0.0008241642 -0.008982181 0.016139 -0.0083261095 0.058285 0.0075927577 -0.037217136
0.02866369 -0.0008883085 -0.13276564 0.039993867 0.016065221 -0.0011998861 -0.0017150935 0.07506826
00000000: 9a7e 843c 0a6a 853b e191 c1ba 25bc 19be
00000010: b43d dc3c 128d 843c 473c 233d afa4 7abb
00000020: 2b3a 063b 7b06 553d dc22 80bc 2688 fdbd
00000030: f73b 61bb 2d00 673c 62a9 a0bb ec37 2d3c
00000040: 4abc 2aba 7df9 3a3c 8d95 7ebb de75 7c3d
00000050: 7716 8a3b 16d4 8a3c 144b f53d 53f4 c1bb
00000060: 7a6a ff3c 6e80 743c 0166 1c3e 5871 233e
00000070: f81e 4b3e 4cb1 343c 2b1b f53b 2acb 18bb
00000080: bbfd 4b3d 0247 f33c 11c1 283d 9698 6e3a
00000090: 3973 1e3b 5799 013e 23c2 b33d d522 a13b
000000a0: 0d51 9b3d 2794 363a 7d5e 853b b1cb a13c
000000b0: f716 4bbc 0fd3 cf3b 3a4d af3c a1dc e43c
000000c0: b702 263c a93c 063d d000 7939 3368 873d
000000d0: 0d1d eaba 57b2 cbbb 75b9 c53c f190 79bb
000000e0: 0070 fbbb f80c 613d caa0 293d 488c 8fbc
000000f0: c30e cd3b 846a bfbd aa3b 1a3d 69bb 833d
00000100: 6ac5 debb b228 803d ad94 523c 839d 26bc
00000110: 327d 0a3b bfde 4abb 22f9 b73c 987f a8bb
00000120: 3f40 9a3b d156 633d 25ad db3d 7568 453d
00000130: 0c74 2abb bef8 393b 1a23 403c a091 15bb
00000140: 8405 9bbc d9f6 0c3c d7e0 8cbb 428a ce3c
00000150: 3956 aebb 014e 9c3c 26b3 3a3d 0e31 07bc
00000160: 9fce 8a3c 6f56 67bc d9fd 383c d4cf b3bb
00000170: e2a3 efba 49e2 8cbb cc92 1e3d c7ff e3bb
00000180: 7693 023d 7a4b 6a3d f410 7a3a 097a ffbc
00000190: d606 2e3d 6121 723c c80c 97bb aaeb 45bb
000001a0: 2de5 34be 7595 27bd 02b1 8a3d 9458 c63b
000001b0: 9eb4 0ebe 05b2 8c3b 8b26 e1bb c7ff b6bb
000001c0: a67a 4f3b 8207 83bb 8eaa afbb 18c0 493c
000001d0: 7acc 9f3b 673b cb3d b87e aa3d a4f4 f23b
000001e0: f67c 1f3d fa37 a93c c105 f9bd e654 003d
000001f0: 554d 103d eb80 103c 06e8 adba 9916 bb3d
00000200: cd9e 5f3c b473 f63c 0be7 2c3d 9631 1bbd
00000210: db2b 673b 81e2 863c 70e6 26bb dada b5bb
00000220: a9ea ecbb f8d5 113b 22a5 f0bb 0445 1ebe
00000230: 1dd5 3bbc 6a31 d33d 7066 2f3b da2c 45bb
00000240: 1afc 2ebc dc42 0e3d 9659 cfbc 2b9f e93c
00000250: 84d7 203c fc4d b43b c3d0 293d a39a 743b
00000260: 433d 373c 42b7 a33c cc95 a73d 9fc5 a93b
00000270: ae13 953b 6b7c 9abb c497 0d3d 48f0 0a3b
00000280: 7f52 1a3d 3682 ed3b fcf3 423d e528 f73d
00000290: 77df bc39 369e e1bd 4bfd 843e 9604 a5ba
000002a0: a142 973c 97f3 b73b 0e22 993a e33f 41bc
000002b0: e55c 843d f230 8cbb d70b 173d d687 55bd
000002c0: 443c 2c3c f3bd 1b3b cd17 ef3c 2b72 e53d
000002d0: 878e 263b 4b8f 92bc 9f8a 3b3d 01a1 2a3d
000002e0: f986 cd3b ad66 873d 57eb 8c3d a3f8 b0bd
000002f0: b36a 8abc aab2 17be a2b0 0dbd 35c3 da3c
00000300: 743d 983b 8c5d 343d bff5 9a3c a6cb 54bc
00000310: 9274 113c 8857 48bb 09d7 2dbb 2a47 03bc
00000320: 3b67 c63d 39ab bc3c 8438 643c d7d4 853d
00000330: 0b7c a93c dd5b 2ebc 4100 b63b 83d4 4bbc
00000340: d8d3 ee3c dc5a 68bc 3db2 e53b 94c0 2c3c
00000350: 846c f6bb d49b b3bb 10c1 1c3d d913 73bd
00000360: fc1f 163d 1f18 20bc 8cca 003c c8c8 233c
00000370: c5e9 8e3c a685 363c 3f14 aa3c d45d 083b
00000380: 2e31 88bd cc47 c43c 7cf2 3abc bc21 30be
00000390: 44c7 063d 92d3 343b 439b 47bc 7506 89bb
000003a0: 9e60 af3d 90c5 15bd a970 793c 6fed 113a
000003b0: e8a6 f63c 8164 443c 7644 db3b 0274 16bb
000003c0: c53a 8c39 b90c 58ba ff29 13bc f035 843c
000003d0: 3c6a 08bc 41bc 6e3d abcc f83b ff70 18bd
000003e0: 1dd0 ea3c 60dd 68ba b7f3 07be 9cd0 233d
000003f0: 369b 833c 7f45 9dba fdcc e0ba 63bd 993d

bias_mu f4 [2]
0.6397209 0.45473245
00000000: c0c4 233f b1d2 e83e

bias_sigma f4 [2]
-0.004891251 0.03812351
00000000: ca46 a0bb 6627 1c3d
